results/1_first_try/epoch1150/model_weights.pth (torch, 484214 bytes, 88 tensors)

init_layer.0.weight f4 [64, 3]
00000000: 8191 9bbe e894 83bd 5278 1e3e 7eb8 833e
00000010: b216 79bd 086c b5b9 6818 a7bd 0a6d 66be
00000020: 0199 08be 095a 0b3e a257 a7bb bcbb 423d
00000030: e7df 35bc 0723 463e 9409 583e 9ca5 efbd
00000040: 7ee1 86be 13e4 003e 805f a03e 7728 acbc
00000050: 0f34 883e b582 a83e cafb 863e ec1b 2c3e
00000060: 0965 343e 6900 cabe 6bf9 1bbd e897 81bd
00000070: 9ff8 89bd 5739 513e 99a1 82bd 4607 8cbc
00000080: a8da 013e 7d2d 273d 3fa4 8d3d 49a3 44be
00000090: 2233 18be d0ab bdbc 0a44 17bd db20 333b
000000a0: 5dcf a53c 8f30 5c3e 8b0a d43d ac9a 86be
000000b0: e733 6839 0730 7b3e d283 51be 1c38 88be
000000c0: 9a1a 5b3e 30fe e7bd d6ba 443e 2a28 703e
000000d0: 15a0 883e 7b40 72bd 9852 c53d de2f a3bc
000000e0: 9ae5 87be 4430 2abe 0b0a ca3d cc82 79be
000000f0: edb0 073e 5d5d 30be 5e2b 8bbb 0a11 6f3e
00000100: 64d9 6abd 4fc7 2fbc 20f0 213d 21d2 34be
00000110: 41ef 17be f8a5 e13a 50ee 213e 052f d0bd
00000120: 3f25 5bba 6a1b aabd 05db 153e ab84 04be
00000130: 82e2 6f3e 0f4c 43bd 8410 d3bb 74f1 713e
00000140: 8203 cc3d 5a14 27be 1ed5 66be 57a5 3d3d
00000150: 0142 813c 3081 7c3d 4119 43be 0147 b3bb
00000160: c93f 83be 592e 0f3e f78c 9abe ed7f 72bd
00000170: 0359 acbd 763c c2bd 77b8 1c3d af9f 943e
00000180: a5df 3bbd 8c5b 3d3e 72d9 ca3d 6a4d 89be
00000190: cee7 ac3e 40b6 b1bc 9179 49bd 596c 8cbc
000001a0: a654 10be c051 abbc 4868 e2bd c5b0 72be
000001b0: 6058 6d3d 7f7e 0ebb 45e2 51be ea75 72be
000001c0: 4378 8bbd 091d 283c 40da 943e 14f2 f7bd
000001d0: 71e7 163e 5ca3 9abe 0c13 0e3e 4b38 303e
000001e0: 1b83 8c3e 9ee6 583d 0301 4cbe 980a 93bd
000001f0: 23bd 14bd 5fa9 16be 0415 013e c627 09be
00000200: e800 173e d733 1ebd 58d1 8cbc aca6 583e
00000210: f4a6 ad3d 0315 40be 8696 1dbe 0213 6fbd
00000220: 2571 87bd 87f0 fa3d 249c eb3b 97d6 05be
00000230: 28dd cfbd bcc6 2b3d 7966 0f3e 0a53 063e
00000240: 65db c93d e628 883e 16ad a8bc 550d 853d
00000250: 4d08 82be ea60 273e 608a 4ebd 5255 5bbe
00000260: 1fcc 00be ad7e b3be b60c 14be 78cb 34bd
00000270: 06a2 353e abf7 84be d7d1 c33d 6bf4 17be
00000280: 423b 40be 32f3 4abc 2791 083e b516 10be
00000290: e88c 45be 6ca2 723e 5703 dd3b 642c 393e
000002a0: e73e 3c3e d3ba c93c a91e 013e 293d 0b3e
000002b0: e1cb 33bd 9e26 dd3c 59f3 803e 7bed 953e
000002c0: 2d43 e9ba eb7f 103d 4156 8c3d feb7 253c
000002d0: 8ee6 e4bd e10a 98be 6f31 383d 91ad 83bd
000002e0: f32c b1bc e7ad 453c c9e7 843e d47c 29bc
000002f0: 7861 4c3d 7bd7 6b3e 3d0a e93d f2b5 393d
-0.30384448 -0.06424886 0.15475586 0.25726694 -0.06081266 -0.000346035 -0.08158952 -0.22502533
-0.13339616 0.13608564 -0.005106882 0.04754232 -0.011100746 0.193493 0.21097404 -0.11701509
-0.26343912 0.12587003 0.3132286 -0.021015389 0.26602218 0.32912222 0.26363975 0.16807526
0.17616667 -0.39453438 -0.03807966 -0.06327802 -0.06736874 0.2043203 -0.063784786 -0.017093312
0.12681067 0.040814865 0.06916093 -0.19202913 -0.14863256 -0.023153216 -0.03693012 0.0027332816
0.02024048 0.21502899 0.103535734 -0.2628988 0.00022144579 0.2453004 -0.20460442 -0.26605308
0.21396866 -0.11327779 0.19211897 0.23452821 0.26684633 -0.059143525 0.09634894 -0.019920286
-0.2654236 -0.16619974 0.09865197 -0.24366301 0.13251086 -0.17223115 -0.004247113 0.23346344
-0.057336226 -0.010728671 0.03953564 -0.17658283 -0.14837362 0.00172156 0.15813565 -0.10165218
-0.0008359737 -0.0830601 0.1463433 -0.12941234 0.2342625 -0.047679957 -0.006441178 0.23627263
0.099616066 -0.16316357 -0.22542235 0.04630026 0.015778543 0.06164664 -0.19052602 -0.005471111
-0.25634602 0.13982524 -0.30185673 -0.05920403 -0.08415415 -0.09484188 0.038261857 0.2902808
-0.04586758 0.18491954 0.09904756 -0.26816875 0.33770603 -0.021693349 -0.0491882 -0.017141508
-0.14094791 -0.020913005 -0.11055046 -0.23700245 0.05794561 -0.0021742878 -0.20496471 -0.23677793
-0.068100475 0.010260829 0.29072762 -0.121067196 0.14736725 -0.30202758 0.13874453 0.17208974
0.27443776 0.05295431 -0.19922261 -0.07179755 -0.036313187 -0.14713047 0.12605673 -0.13394079
0.1474644 -0.038623657 -0.017189667 0.2115733 0.084791094 -0.18758015 -0.15389451 -0.058367737
-0.066133775 0.12252908 0.0071902443 -0.13070141 -0.10149604 0.041937575 0.14003934 0.13117614
0.09856299 0.26593703 -0.020590346 0.064966835 -0.25396958 0.16345564 -0.050424933 -0.21419266
-0.12577866 -0.35057583 -0.14457974 -0.044139355 0.17737588 -0.25970206 0.09561508 -0.14839332
-0.18772605 -0.012387084 0.13336621 -0.14071162 -0.19292033 0.23694772 0.006744783 0.1808334
0.1838337 0.024625218 0.12609352 0.1359755 -0.043895606 0.026995953 0.2518566 0.29282746
-0.0017796509 0.035278242 0.06852389 0.010114668 -0.11176787 -0.296958 0.04496902 -0.064295895
-0.021627879 0.012065387 0.25958088 -0.010344703 0.04989764 0.23031418 0.11378906 0.045339532

init_layer.0.bias f4 [64]
00000000: 51c4 1ebe 3c66 a63d 704d b8bd 9d4c a43d
00000010: ef7a 8dbd 0460 c2ba d911 213e b46c 063e
00000020: 8816 f4ba 1e84 aa3d 6d36 e83c c6f9 91bc
00000030: 39e1 b2bd 9909 f43d 5cd7 d13d 11a8 d93d
00000040: 2a63 233e 3d7d 9b3d 27d3 56be 1d16 4b3d
00000050: 9e4c b13d fea5 713d 22d4 323d 6ded 1d3d
00000060: c6aa 1e3d 3786 febd 22c0 113e 16b9 78bd
00000070: 20b4 f1bd fab8 9abd 37d8 bbbd 53e2 c0bd
00000080: ae29 873d 3909 5cbd 80aa 73bd f707 e13d
00000090: 65d0 203d f9bf f6bd b3b9 c93d e425 f5bd
000000a0: bea6 f83d 3bdc 89bd e9ff 9d3d b0de c4bd
000000b0: 37ed 5c3d 4e4f f53d 29a7 7abd 2ab8 74bd
000000c0: 1bc2 66bd 23e5 2b3d fe79 333d 37d0 bdbd
000000d0: cba0 1abd b681 97bd 3132 733d 1443 013e
000000e0: 137b d93d 75a2 c43d 6bea de3d 8625 463d
000000f0: 49d9 8abb 0fef 24bd 77c1 b23d a837 cb3d
-0.15504576 0.081249684 -0.08999145 0.08022425 -0.06908213 -0.001482964 0.15729465 0.13127404
-0.0018622437 0.083259806 0.028346265 -0.017819297 -0.08734364 0.11915893 0.10246155 0.10627759
0.15955797 0.07592247 -0.20978986 0.049581636 0.08657192 0.058996193 0.043659337 0.038556505
0.03873708 -0.12427943 0.14233449 -0.060723387 -0.11801934 -0.07554813 -0.09172099 -0.09418168
0.06599747 -0.053719733 -0.059488773 0.10987847 0.03926124 -0.12048335 0.098498724 -0.11970118
0.121411785 -0.06731459 0.077148266 -0.09612787 0.053937163 0.11978017 -0.061194573 -0.059745945
-0.056337457 0.04196657 0.043817513 -0.092682295 -0.037751 -0.07397787 0.059374038 0.12623245
0.10619178 0.09601299 0.108845554 0.04837563 -0.004237328 -0.040267047 0.08728307 0.09922725

hiden_layers.0.weight f4 [64, 64]
00000000: 3e9b cebd d009 883c 8a6e 633e ee13 7f3d
00000010: 2568 5cbe 1cce afbc 2c0d 843d 49cc 31be
00000020: ea98 23bd 9280 27be eedf 20bd 620f 8a3e
00000030: 5b0a ae3d f92c 43bc c2dd 273e 4e90 70be
00000040: 1459 d3bd 7b23 e5bd eaec cd3d 4dc2 ccbd
00000050: a260 d5bd c3a7 ec3d bdba ca3c e276 89be
00000060: 9908 233d c6b9 b73d c37c 28be 0a77 25be
00000070: 0368 fc3c bfde 403d b566 55be fb46 1ebc
00000080: aeb3 49be bf03 9bbd 7367 943e 1cdc 3cbb
00000090: ad3f ec3c f3d2 f73c a236 733e df7b c13d
000000a0: bf4d 203d e55b 273d 02d2 b23c 6681 24bd
000000b0: d346 6dbd c7fc 0cbe 379d 923d 0a5a 65be
000000c0: 3c88 853e d12a 5fbe 4526 1abe 7043 e73c
000000d0: ff4f 633a 2479 51bb 84ac 443e 3a3a 2c3e
000000e0: 2c10 4dbe 5b86 3fbe 0ca9 2bbe 4469 9d3d
000000f0: e9aa fc3c 3680 95bd f7bb 87bb 64f2 1dbe
00000100: faaa 74bd 50af 4fbe f6f8 3bbe 1196 143e
00000110: 725a 13be c051 01be 4adc 493e a58e 29be
00000120: 9015 773b 58ba 7ebe 0c08 dc3d b01b 91bd
00000130: 3367 233d 393c aebc 21ce c5bc e348 153e
00000140: 9837 63ba 1acf 6a3e e7b3 333d 8292 17bc
00000150: 0e2e cdbd adb8 62be 0985 ed3d 0b14 443e
00000160: 4962 e4bd 10ae adbc 2d12 423e bf3a ed3d
00000170: cd2c 313e 0993 973d 3048 2dbe f69c 12be
00000180: a8ee f6bb 2cec 0c3d 4991 593e ddee f83d
00000190: 68cf 723e 442a 27bd d818 aabd 8af9 173e
000001a0: 34c6 51bd 475f ec3c d2b2 7ebe 7031 4bbd
000001b0: 7c13 e23d 8a69 9cbe 191c 613e b4ea 3fbe
000001c0: 8a15 24bd 348e 0ebe ffc7 bebd 6d04 0fbe
000001d0: b0c3 d63d b152 2abe 7577 1e3e 0d6d d73d
000001e0: ed70 59be 1703 0bbe ed04 29be 3da1 56be
000001f0: 6260 503e f325 7b3e c520 233e 20ac e2bd
00000200: b197 5a3e 0e66 5dbe 3b92 493e a32c 00be
00000210: 96c5 34be 1a72 6abc 2a98 edbd 9749 81be
00000220: e7b2 3bbe ee0d 9cbd 1879 0b3c 5110 213e
00000230: bcc1 953e c8a0 62be e665 823d f0f1 61be
00000240: 5c1f 73be 262f 6ebe 7c38 853d 1e06 89bc
00000250: fb27 3dbe 4b7a 87be 7028 51be 4b29 6d3d
00000260: 6a8a fcbc 2524 ef3c 1a30 c23c b2ee 6c3e
00000270: 403f cf3b 1c04 6ebe 594a a93e 7135 8b3e
00000280: 9ba3 0abe 6b6f 183e 65e5 5a3e 5217 323e
00000290: 70c6 a9bd bd23 63bb 5b11 20be b7bb 1a3e
000002a0: 86ad 8fbe 0981 35bc 3e9b 023e c3bb 883e
000002b0: 0243 013e be17 393d 749f 84bd f579 7fbc
000002c0: 5584 08bd d216 98bb 8190 c9bd b25d 863d
000002d0: a176 1fbe 1865 193d 10b8 46be a383 49bd
000002e0: 1a3f 93be 5535 69be d263 85be cc46 3cbe
000002f0: 8318 363e d85e a2bc f2cd 90be a280 853d
00000300: 638a 0f3e 2bde 17be cb4c f2bb 36fd 32bd
00000310: fe83 ee3d 2656 e83d cea7 1ebd 677b 1abe
00000320: 07d0 69be aa96 d8bd 4c90 693d 54b9 4b3c
00000330: 8672 02bd 0577 8dbd 3ee3 013d ff30 f4bd
00000340: 1bf7 84bd a37f 303e dcc9 e93d df32 c8bd
00000350: 06fd 2a3e 0f58 d0bd ae8d 19be c625 85bd
00000360: 18b6 813e 3586 7b3d d5bc b7bc 6085 62bd
00000370: bc30 34be 3ca5 6bbe 0057 07be 5e3e de3c
00000380: f1f4 e4bd c3e2 cb3d adbc 2dbe 4a57 0a3d
00000390: 9369 24bd 674b e1bd 1136 5bbb bc8d 65bd
000003a0: 3568 2ebe 237c 15bd 7c6d 8e3d 9269 4e3e
000003b0: 84fd f23c 4404 a53d e3b1 a13d 3fdc de3c
000003c0: 89c1 953d 47ef ccbd 9167 653e 8fbf 72bd
000003d0: 1805 82be db8f 353e 8e87 493e 4254 8f3d
000003e0: 87aa 37be 3ba0 b7be 0592 f2bd 293c 0b3e
000003f0: f084 e0bd fe28 cbbd 196c 54bd f90d 92bd
-0.10088204 0.016606241 0.22210136 0.062274866 -0.21524103 -0.021460585 0.06447825 -0.17363085
-0.039940752 -0.1635764 -0.039276056 0.2696486 0.08498069 -0.011912578 0.16393188 -0.23492548
-0.10319725 -0.11188408 0.100549534 -0.099979974 -0.10418822 0.115554355 0.024747247 -0.26848513
0.03980312 0.0897098 -0.16453843 -0.16158691 0.030811315 0.047087427 -0.20839961 -0.009660478
-0.19697449 -0.07569074 0.28985175 -0.002881772 0.028838957 0.030251956 0.2375131 0.09447455
0.039136644 0.04085912 0.021828655 -0.040162466 -0.05792887 -0.13768302 0.071588926 -0.22397628
0.260805 -0.21793677 -0.15053661 0.028230399 0.0008671283 -0.0031963075 0.19206434 0.16819087
-0.200257 -0.18703596 -0.16763705 0.076860934 0.030843215 -0.07299845 -0.00414228 -0.15424496
-0.05973337 -0.2028172 -0.1835669 0.14510371 -0.14389971 -0.12628841 0.1971294 -0.16558321
0.0037702061 -0.24875772 0.10743722 -0.07085359 0.03989334 -0.02126895 -0.024146141 0.14578585
-0.0008667647 0.22930565 0.04387274 -0.009251239 -0.1001855 -0.2214076 0.1159764 0.19148271
-0.11151559 -0.021201164 0.18952246 0.115834706 0.17302246 0.074010916 -0.16922069 -0.14317688
-0.0075357743 0.03440492 0.21246828 0.121549346 0.23711932 -0.040811792 -0.0830552 0.14841285
-0.05121441 0.028854026 -0.24872902 -0.049607694 0.110388726 -0.3054927 0.21983375 -0.18741876
-0.040059604 -0.13921434 -0.0931549 -0.13966532 0.10486543 -0.16633107 0.15475257 0.10518847
-0.21234484 -0.13575397 -0.16505785 -0.20959945 0.20349267 0.24526195 0.1593047 -0.110679865
0.21346928 -0.21620962 0.19684689 -0.12517028 -0.17653498 -0.0143094305 -0.116012886 -0.25251457
-0.18329965 -0.076198444 0.008512758 0.1572888 0.2924937 -0.22131646 0.06367092 -0.22064948
-0.23742431 -0.23260173 0.06504914 -0.01672655 -0.18472283 -0.2646049 -0.20425582 0.05790071
-0.03082772 0.02919204 0.023704577 0.2313793 0.0063246787 -0.23243755 0.33064535 0.2718921
-0.13538973 0.14886253 0.2137657 0.17391708 -0.08289802 -0.0034658753 -0.1563162 0.1511067
-0.28062075 -0.011078128 0.12754533 0.2670575 0.12623218 0.045188658 -0.06475726 -0.015593042
-0.033329327 -0.0046413923 -0.09842015 0.0656084 -0.15572597 0.037449926 -0.19406152 -0.049197804
-0.2875908 -0.22774251 -0.2605272 -0.18386382 0.17782788 -0.019820616 -0.28282124 0.065186754
0.14017634 -0.14830844 -0.0073944083 -0.043698512 0.11646269 0.113445565 -0.03873425 -0.15086137
-0.22833262 -0.10575612 0.057022378 0.012434322 -0.0318475 -0.06907467 0.031710856 -0.11923408
-0.06492444 0.1723619 0.11415455 -0.09775328 0.16698083 -0.10173046 -0.14995453 -0.06501345
0.2533424 0.061407287 -0.02242891 -0.055302978 -0.17596716 -0.2301225 -0.13216782 0.027129348
-0.11179531 0.09955361 -0.16966505 0.03377465 -0.040139746 -0.1100071 -0.0033448974 -0.05604337
-0.1703194 -0.03649534 0.06954476 0.2015746 0.029661901 0.08057454 0.07895257 0.02720463
0.073123045 -0.10006576 0.22402789 -0.059264716 -0.2539451 0.17730658 0.19680616 0.06998493
-0.17936145 -0.35864434 -0.11844257 0.13597168 -0.10962856 -0.09919928 -0.051860902 -0.07131571

hiden_layers.0.bias f4 [64]
00000000: 1f6a 14be 3021 953c 9bc3 45bd 331a a73d
00000010: 776f a8bd f26c c5bd 4ef2 a43d c8a6 343d
00000020: d7ab 043e 4a3d 1c3d b508 8d3d dac4 0bbe
00000030: 2c44 433d 1d95 bdbd 88ff bebe 2a6d 843d
00000040: 094c 143d 1781 dbbd 81cc 863d f753 62bd
00000050: e019 b2bd e1f5 ee3c 327a cbbd 5ab3 8a3b
00000060: 4091 8e3d 24f6 9c3d e5df 823d 1a19 de3b
00000070: 0591 07bc 5077 a4bd 82fd 16bb ee75 cf3c
00000080: 85a2 f33d 6334 96bd bcf4 d5bd a16d df3d
00000090: a2c7 a1bd 58c0 38bd c623 f13d 5b00 a9bd
000000a0: 07a0 06bd 64cf b4bd a9e4 3d3e b976 94bd
000000b0: 27ad e23b 4e10 ec3c 86dd bcbd 17fa f43c
000000c0: fb94 86bd d85d 8f3d 269f a13b d86f 9b3d
000000d0: fceb a2bd d533 cd3d 6281 8bbe 6a64 943c
000000e0: dff2 e9bd 6b5d 11be 6b4f c4bc 273d 1ebe
000000f0: 07b0 e2bd cc56 a7bd 446c acbd b6ff 4e3d
-0.14493607 0.018204302 -0.048282247 0.08159294 -0.08224385 -0.0963992 0.080540285 0.044104367
0.12956177 0.038144387 0.06886426 -0.13649312 0.047672436 -0.09256957 -0.3730433 0.06466134
0.036205325 -0.10717981 0.06581975 -0.055255856 -0.086963415 0.029169979 -0.09935416 0.004232806
0.06961298 0.07664135 0.06390361 0.0067778947 -0.008274321 -0.080305696 -0.0023039286 0.025324788
0.118962325 -0.07334211 -0.1044707 0.10909582 -0.07899405 -0.04510531 0.11774401 -0.08252021
-0.032867458 -0.08828619 0.18544258 -0.07249207 0.006917614 0.028816368 -0.0922194 0.029904408
-0.065713845 0.07000321 0.004932302 0.07589692 -0.07955167 0.10019652 -0.2724715 0.018114287
-0.11423277 -0.14195792 -0.02396365 -0.15453015 -0.11068731 -0.08170852 -0.084190875 0.050536834

hiden_layers.1.weight f4 [64, 64]
00000000: ed6a 0abd 24cb 103e c4a0 5c3e 5e2d 173e
00000010: 3599 8cbe 61f9 913e 9007 cbbd df5e 16bd
00000020: 7718 b93c 3763 0bbd be0a 04be f664 bbbd
00000030: 52cf 42be 470e 4cbc 913a c83c 337f 5abd
00000040: c9b5 6b3e a2c6 8d3e f94a 55be 0e13 923e
00000050: 3d1a 853e 9474 1fbe 67e9 753d 70ca acbd
00000060: 455a fcbd 3259 c4be eb02 a5bd c8ed 313e
00000070: 58b3 ce3d a620 8abd 18f2 37be 79d3 33bd
00000080: e46d 83be 9a04 ac3e 55fe 98bd f299 96be
00000090: f703 a63d 7f01 e8bd c128 42be b905 af3c
000000a0: 04b8 b33d 7d83 9a3d b625 3abe c033 4d3e
000000b0: c3d8 863e abba 4f3d a1f5 e43d eb58 b7be
000000c0: 9aa1 343d d5fb 81bc a3d4 37be b23f 903d
000000d0: 96f2 0dbe fb03 afbd df4b 96be 2ac8 8abe
000000e0: f69a 7d3e 9c3b 873e ba24 9abe 59c4 513d
000000f0: 4296 83bd f8fe 483d 6cf6 4d3e 6177 1bbe
00000100: 13d9 36bd 4ff8 4dbe db26 a1be 8dc6 713e
00000110: e100 82be 9ecc e33c 706b 14be 90e0 05bd
00000120: fa9b 8c3e 22f5 4c3e 5783 873e 86c3 143e
00000130: 42d2 f03d 60cf 7f3d 3266 b7be f8de b13e
00000140: 6015 8cbd d563 7cbe a7d8 873e ea7e 9f3c
00000150: 2e5a b43d bed8 8a3e 25fe 91be 87e6 933e
00000160: 5fdc 71bd da37 833e 4b06 8f3e f016 9b3e
00000170: 91eb 65be e963 d0bd cee7 be3d ba85 933e
00000180: d636 a43e 7d81 213d 0ee9 c2be 8901 f0bd
00000190: 8971 67be 25c7 3e3e 0031 5dbd f5e2 b2be
000001a0: 29ed e2be 2aef 9bbe ecf0 0c3e a66c 51be
000001b0: 5dd2 fe3c b103 033e ddb2 2ebe 0e57 b9be
000001c0: 1bd1 d73e 12bb 133d 2a7d d0bd 9b0d cfbd
000001d0: 2dec 323d e311 7dbb efee 833d d11a a73d
000001e0: f430 90bd 0298 ccbc 0287 52be 1047 2f3e
000001f0: 5b15 223e 032c 92bc 9cad 25bb 1b4f 083f
00000200: d1a7 cd3d 8b90 e13d 757a 5abd 51d6 f53d
00000210: ac6e 7f3d 6a9c 273e 2e49 e6bd 5503 a23e
00000220: 07fd 8b3e 74f9 8cbd a72d 23be a84d 47bd
00000230: 04fc bc3c fd88 7c3b 759d 143d 9fc4 0c3e
00000240: 7fb5 99bd 6afc 07be 85e8 023e 9297 b63d
00000250: fb72 dd3c 77f4 87be 56e3 77be 7efa fcbd
00000260: 5c3f be3c dd22 e23d 8727 26bd db7f 9bbc
00000270: 7a73 953d 3b94 953d 3278 683e 2c99 9e3e
00000280: 7d0d 0c3e c054 2abe 95ac 5ebe 6bf3 bdbd
00000290: dc66 c3bd 7573 04be b081 7b3d 2e28 04be
000002a0: b971 60be 5395 46be 9e3c 0cbe 3f3a f6bd
000002b0: 01a4 d0ba 0907 b53d 2632 12bd a755 833d
000002c0: 6dab 073c 5b30 1f3d a5bf a83c 777f 85be
000002d0: bc82 383d 1bd5 2cbe 9be5 7e3d 74fa 063c
000002e0: 5bbe 03be 46ec 6e3d ffe1 333e 3748 493d
000002f0: 3c3f 193d abe2 c63d e494 42bd 4195 603e
00000300: 2337 393e 61ea 8bbd cd76 d2bd ae60 ff3d
00000310: 3cb8 503e 87b5 59be e453 afbd 38ac 15be
00000320: 8b6b a83d 7bbb 933c 51dc f0bd 2a40 c43e
00000330: db83 6d3e 3109 7f3e 8df6 a4bd 54e2 fc3d
00000340: c360 f6bc f9e0 2bbe 2645 b4bb 4853 7a3d
00000350: 5713 d1bc c7ca 41be 805a a73d 4cf5 063e
00000360: ac8a 053e 4805 953d 1db8 09be 756a 273d
00000370: 0aab b439 fcd0 893e 9edb 373e 9acb 243e
00000380: 5753 3c3e 8865 393a 8b76 9dbd 9c5c a03c
00000390: 9b92 5b3e 4512 d53c 9c9c 2b3e 27e4 4d3e
000003a0: 785d 813d aec0 ddbc df5a 8d3e 31e8 173e
000003b0: 3b0d 75be f5e0 27bd 32cc 5abe b1a1 8abd
000003c0: b753 2ebd 8b4c f53d 4457 0b3a ddbc 933d
000003d0: 3518 773e d122 68bd e261 bebe 8796 fcbc
000003e0: 8dc0 15be 69ea 81bc 218e c73e 6a6d 843d
000003f0: 5ca5 04be 3c2e 4d3e 3f05 513e 67d1 54be
-0.03379338 0.14139992 0.21545702 0.147634 -0.27460638 0.28510574 -0.09913552 -0.03671157
0.022594674 -0.034030166 -0.12894723 -0.09150116 -0.19024399 -0.012454576 0.02444199 -0.053343963
0.23018564 0.27690607 -0.20829381 0.28530163 0.2599658 -0.15571815 0.060037043 -0.084370494
-0.12321905 -0.383493 -0.08057197 0.17375863 0.10092801 -0.067445084 -0.17963445 -0.043902848
-0.25669777 0.3359726 -0.07470385 -0.29414326 0.08106225 -0.1132841 -0.18960859 0.021365033
0.087753326 0.07544611 -0.18178448 0.20039272 0.2633725 0.05071513 0.111796625 -0.35810027
0.044099428 -0.015867153 -0.17952208 0.07043399 -0.1386207 -0.08545681 -0.2935476 -0.27105838
0.24766144 0.26412666 -0.30106145 0.051212642 -0.06425144 0.049071282 0.20113534 -0.15182258
-0.04464061 -0.20114253 -0.31474957 0.23610897 -0.25391296 0.02780753 -0.14494109 -0.032684863
0.2746275 0.20015386 0.26467392 0.14527711 0.117588535 0.062453628 -0.35820156 0.34740424
-0.068400145 -0.24647458 0.2653248 0.019469697 0.08806263 0.27118486 -0.2851421 0.28886816
-0.059048053 0.2562855 0.2793449 0.30290937 -0.22453143 -0.10175306 0.09321557 0.28812963
0.32073087 0.03943013 -0.38068432 -0.11719043 -0.22601904 0.18630655 -0.05400181 -0.3493878
-0.44321564 -0.30455905 0.1376378 -0.20451602 0.031106168 0.12794377 -0.17060418 -0.3619923
0.42151722 0.036067076 -0.10180123 -0.10110017 0.043682266 -0.0038615398 0.06442057 0.08159412
-0.07040587 -0.024974827 -0.20559314 0.17116952 0.15828459 -0.017843252 -0.0025280481 0.53245705
0.10041774 0.110138975 -0.05333944 0.12003768 0.062361404 0.16368261 -0.11244427 0.31643167
0.27341482 -0.06883517 -0.15935384 -0.048658043 0.02306939 0.00385338 0.036282975 0.1374688
-0.07505321 -0.13279882 0.12784012 0.089156285 0.027032366 -0.265537 -0.24207816 -0.12352465
0.023223571 0.11041806 -0.04056504 -0.018981865 0.07297416 0.07303663 0.22702101 0.30976236
0.1367702 -0.16633892 -0.21745522 -0.09274944 -0.09541103 -0.12934668 0.061402977 -0.12905952
-0.21918382 -0.193929 -0.13694999 -0.12022828 -0.0015918018 0.088392325 -0.035692357 0.06412821
0.008280617 0.038864475 0.020599196 -0.2607381 0.045046553 -0.16878168 0.062230688 0.008238424
-0.12865584 0.058330797 0.1756668 0.049141135 0.03741382 0.09711202 -0.047505274 0.21931936
0.18087439 -0.068318136 -0.10276566 0.12469612 0.2038278 -0.21260653 -0.08560923 -0.14616477
0.08223637 0.018033734 -0.11760772 0.38330203 0.2319483 0.2490585 -0.08054838 0.12347856
-0.030075436 -0.16785039 -0.005501407 0.06111458 -0.025521917 -0.1892501 0.081715584 0.13179511
0.1304118 0.07276398 -0.1344914 0.04087301 0.0003445971 0.26917255 0.17954871 0.16093293
0.18391167 0.0007072319 -0.07688626 0.01957541 0.21442644 0.026009688 0.1675896 0.20106564
0.06316656 -0.027069416 0.27608392 0.14834668 -0.23930828 -0.04098602 -0.21366957 -0.067691214
-0.042560305 0.1197749 0.0005315433 0.07213757 0.24130328 -0.05667383 -0.37184054 -0.030833496
-0.14624234 -0.015858846 0.38975623 0.064661816 -0.12953705 0.20037168 0.20412157 -0.20783006

hiden_layers.1.bias f4 [64]
00000000: 84ff 533d bb92 d53c b03d 393d 02b9 ddbd
00000010: 13a3 52be c076 2dbd 9297 a4bc e9ae a9bd
00000020: 6413 a9bd d692 2bbc 6659 b73d 6f8f 6ebd
00000030: 7639 5e3d 81c2 7bbd 6450 2abe 70ed 633c
00000040: d11e b93d 4c2f 563a 0a03 d7bd 3492 9dbd
00000050: b0c0 8b3d cad5 263d 785e 813d 7f5a 253e
00000060: 062e 4fbd 89e2 87bd ccd3 2d3e 2a81 8b3d
00000070: e31e 37be 73a9 b3bc a6ee 623d e3a6 5dbd
00000080: 2def 2bbe e7b1 a1bd 5271 b23d 676b d43d
00000090: 077c db3d 0077 1ebe 4925 e23d 7002 35be
000000a0: 7036 1e3e bf83 a33d 3fea 57bd 489c b5bd
000000b0: c614 5ebd b475 afbd 8245 fcbd 412a 5d3d
000000c0: ae76 6f3d 45a6 95bd 94fc 9cbc 7d2e 8c3b
000000d0: f5f1 063d 95f1 c93d 805b 37bd aa90 2b3d
000000e0: 55ff 7abd eae3 ac3d 6f39 3b3b 906e f139
000000f0: f9e0 653d 61c4 a3bb 4a7a 45bd 586b 553d
0.05175735 0.026070943 0.045224845 -0.10826303 -0.2057002 -0.042349577 -0.020091806 -0.082853146
-0.082556516 -0.01047202 0.08952598 -0.058242258 0.054254018 -0.06146479 -0.16632229 0.01391159
0.09039081 0.00081705 -0.104986265 -0.07693902 0.068238616 0.04073123 0.063168466 0.16147803
-0.050581 -0.06635005 0.16975325 0.068117455 -0.17882876 -0.021931386 0.055403374 -0.054114234
-0.16790457 -0.0789526 0.087130204 0.10372048 0.10717016 -0.15475082 0.11042268 -0.17676711
0.15450454 0.07984113 -0.05271363 -0.08867699 -0.05421903 -0.08567372 -0.12317945 0.053995375
0.05846279 -0.07307104 -0.019163407 0.004278003 0.032945592 0.09860531 -0.044764996 0.04188601
-0.06127866 0.08441909 0.0028568169 0.00046049478 0.056122754 -0.0049977754 -0.048212327 0.052104324

hiden_layers.2.weight f4 [64, 64]
00000000: cdaa f1bd 8df8 b73e 98c0 a93e 9bcf 06bd
00000010: ebaf 1dbc bcbc 47be 09ca 23be 756b ffbe
00000020: 0a91 f7be 3c7d 91be 16a3 4e3e a652 b23d
00000030: 51cd 20be 8a2a 3a3d 871f 4dbc 4b74 703e
00000040: ca6e 693e 8773 f43b bbee 153d 0b26 9bbd
00000050: 7089 123e 974f 673e 1172 16be 02ef 263e
00000060: e381 c73d 0986 23be 105d 9ebe 6cfa c6bd
00000070: e9ac 6a3d 88e9 a5bd 74dd 3e3e 44eb 273d
00000080: e2f7 e6bd 8d5c 90bd e38a 70be 57a8 b1bd
00000090: 695e 3e3e 4b5f 173d ed82 a4bd bcb6 eb3c
000000a0: 19ab 3dbe f186 a63d b79a a6bd 51ff ac3c
000000b0: 4032 923d d56f bcbd 568d be3d 90a4 4c3e
000000c0: 5bec cdbc 6092 64be bb2e 8dbd db9e aabe
000000d0: 35d1 f23c 71f1 5c3d 2475 ea3c 3f35 213e
000000e0: aade 3ebe 9bb0 1b3e d2b2 a13e 28d1 24be
000000f0: 915e 13be be58 873d b428 d33d 2c91 723e
00000100: d7e4 8f3d 6d56 5f3a bc1f dc3d 2909 3d3e
00000110: 370e 4e3e fd89 183e fd66 b83e 94da 8b3e
00000120: 4eee be3d 6784 0b3e 2b6d 493e 1dab ae3d
00000130: 71ed 74bd 8237 04be 6077 85bd 72c3 423d
00000140: a07b dcbd a041 a5bd 8efd 59be c923 fcbd
00000150: 0096 9e3d 214e f1bd 3ebd 133b a974 3b3d
00000160: 3e92 2cbd 190e 213d d77a 753e 4594 9a3d
00000170: c9cb edbd 5685 ac3d e0c3 32bc b24f 40bd
00000180: 9e17 6e3c 6dfe 643e d2d0 d4bd 1374 253e
00000190: d3c2 223e 93a3 963d 45b6 e53c 9ec4 b1be
000001a0: a9c4 18be 21af acbd 23eb b5bb 470f d23c
000001b0: 18a8 4ebc e77b 1cbd c9f7 8fbd 0bee 583e
000001c0: b8a7 28be a853 873e c035 77bd b2ac d5bd
000001d0: 66cc 0abe edf3 553e a571 02be d2ce 3abe
000001e0: 167f 503e 023b fcbb de51 bfbd fdce 0b3f
000001f0: c1c2 633d 6523 583e 1f1e 033e ca6c 15be
00000200: 456d 753e fda6 5fbe 5c1e 10be 58e0 57be
00000210: 2ce6 213e a8f2 103d 9928 87be 12e8 533d
00000220: d198 d6bd 3668 563e c619 843d 9c4d 563e
00000230: 5472 38bc 4c25 083e e106 57be 1b0a 663e
00000240: 96e6 d13d 23f4 71bd 2759 d13d d08b 55be
00000250: fa23 3bbe fe70 f73d 7322 8a3e 9cd3 2abe
00000260: 5eb0 00be cb09 8bbd cb80 ebbd 46ad e7bd
00000270: ae58 293e 0654 ae3c 8b65 a13d 3623 753e
00000280: d2d2 d0bd 7a82 e9bd e252 e9bc bbf9 0a3e
00000290: 145a 183e 8448 7abc edad 5bbe 4e76 663e
000002a0: eb49 353e 1710 1d3c b8cd acbd 0d32 aebd
000002b0: 385a d13d dd85 5abd 8c75 bebd 8242 b23d
000002c0: 4bc1 6a3e 35e3 a13d 6f86 d5bd c1b2 523e
000002d0: 1fba dbbd c0e8 f53d aaaf 2c3d 77d6 07be
000002e0: d9e5 65be 1ad3 2d3e 35f2 64be aaae 09bf
000002f0: 0e76 d03d e3d6 2cbc 45a0 cf3d b4ef 333e
00000300: 0648 18bd ce08 22be 4e68 a33c 55d5 ec3d
00000310: 7099 6bbe 4d0e 23be bffe a83d 30ca 88be
00000320: cb21 343d 406c 9a3d 3bbe 463e 7f0f 79be
00000330: a72f cd3d 690e 833d 7704 16be 3a39 af3d
00000340: 9925 213e d369 6abe ca35 93be d846 99bc
00000350: d044 b1bd e069 373d 02e2 6c3e a719 c8bd
00000360: 7199 28be da39 0bbe 49fe 043e dda9 c53d
00000370: 755d 71bd b768 2b3e fdeb 283e 2091 9abe
00000380: 7719 aebe 08fb 05be 87b8 693e 3b2a ac3e
00000390: ddc7 ea3d 8082 e23c 0a8e 993d b51b 31be
000003a0: a7c3 583e f436 eebd 439e 2bbd 19f6 c4bd
000003b0: df67 3fbc b148 50be 9af2 b2bd 2619 7f3d
000003c0: c3c5 d63c 4906 9ebc 83c3 363e 3ece ebbd
000003d0: f6a1 6abd 9fab 21bd 528b 93bc c65f 8bbd
000003e0: 5a42 f03c 69d9 243d 5f9c a0bd 60c7 763e
000003f0: 204f 9d3e 14eb 2abe 915e 0d3e e1cc 93ba
-0.11800156 0.35931817 0.3315475 -0.03291283 -0.009624462 -0.1950559 -0.15995039 -0.4988667
-0.48352844 -0.2841586 0.201794 0.0870717 -0.15703322 0.045450725 -0.012519724 0.23481862
0.22796169 0.007460061 0.036604624 -0.075756155 0.14310241 0.22588955 -0.1469195 0.16302112
0.09741571 -0.15969099 -0.30930376 -0.09715733 0.057293806 -0.08101183 0.18639165 0.04099585
-0.11277749 -0.07048903 -0.23490481 -0.086746864 0.18590702 0.036956113 -0.080327846 0.028773658
-0.185223 0.08131207 -0.08134978 0.021117838 0.07138491 -0.09201018 0.093043014 0.1998465
-0.025137117 -0.22321463 -0.06893679 -0.33324322 0.029640773 0.053941194 0.02862031 0.15742968
-0.18639627 0.15204088 0.31581742 -0.16095412 -0.14391543 0.06608723 0.10310498 0.23688191
0.070260696 0.00085196533 0.1074824 0.18460526 0.2012261 0.14896388 0.36016074 0.273152
0.09322797 0.13624726 0.1967055 0.08528731 -0.059796754 -0.129118 -0.065169096 0.047549672
-0.10765767 -0.080691576 -0.2128813 -0.12311513 0.07743454 -0.1178248 0.0022543217 0.045765553
-0.042131655 0.039320085 0.23972641 0.075478114 -0.116111346 0.08423869 -0.010910958 -0.046951003
0.014531998 0.2236268 -0.10391392 0.1615756 0.15894632 0.07355418 0.028041014 -0.3472032
-0.1491877 -0.08431841 -0.005551712 0.02564205 -0.012613319 -0.0382041 -0.07029683 0.21184556
-0.1647023 0.26431012 -0.060353994 -0.1043333 -0.13554534 0.20893832 -0.12738664 -0.18242958
0.2036098 -0.007697464 -0.09341787 0.54612714 0.055605654 0.21107252 0.12804459 -0.14592281
0.23967464 -0.21841045 -0.14074081 -0.21081674 0.1581046 0.035387665 -0.2639816 0.05173499
-0.10478366 0.20938191 0.064502284 0.20928043 -0.011257727 0.13295478 -0.20998718 0.22464792
0.10249059 -0.059070718 0.102220826 -0.20854115 -0.18275443 0.120820984 0.26979408 -0.16682285
-0.12567279 -0.06788977 -0.11499175 -0.11312346 0.16537735 0.0212803 0.07880696 0.23939213
-0.10196461 -0.114018396 -0.028481904 0.13571827 0.14878112 -0.015276078 -0.21453066 0.22506067
0.17703979 0.009586356 -0.08437675 -0.0850564 0.10222286 -0.05335032 -0.09299764 0.087040916
0.22925298 0.079046644 -0.10426032 0.20576002 -0.10728859 0.12007284 0.042159714 -0.13265406
-0.22450961 0.1697506 -0.2235802 -0.5378214 0.10178767 -0.01054928 0.10137991 0.17571908
-0.037178062 -0.15823671 0.019947197 0.11564127 -0.2300775 -0.15923424 0.08251714 -0.26716757
0.04397754 0.07540178 0.19408505 -0.24322318 0.100188546 0.06399233 -0.1465014 0.08555837
0.15736999 -0.22891931 -0.28751975 -0.018710539 -0.08655703 0.044778705 0.2313309 -0.09770518
-0.16464783 -0.13596287 0.12987627 0.096515395 -0.05892702 0.16739164 0.16496272 -0.30188847
-0.34003803 -0.13084042 0.22824298 0.3362597 0.11463902 0.027650118 0.07497795 -0.17295726
0.21168385 -0.11631575 -0.041898977 -0.09617252 -0.01168248 -0.2034023 -0.08737679 0.062279843
0.026217347 -0.019290106 0.1784802 -0.11513947 -0.057283364 -0.03947031 -0.018010769 -0.06805377
0.029328514 0.0402464 -0.078423254 0.24099493 0.3072443 -0.16691238 0.13805605 -0.0011276269

hiden_layers.2.bias f4 [64]
00000000: 9305 313d b42a 51bd 55a5 823a a2bd 193e
00000010: a122 c4bc c732 4c3d 754f a43c 0069 853e
00000020: ce2c 5bbd ee30 1dbd 4cc7 7a3d 1100 683d
00000030: b6b7 6e3d c402 2c3d 7ab6 60bd a0b5 90bd
00000040: ddc9 1f3d 7108 05be 461f 88bd b11a 293d
00000050: 706f ccbd 13b2 ccbd 8786 163e 0e19 2abe
00000060: d428 75bd d61d 2d3d 51b2 8fbd ff81 673d
00000070: db0a 8dbd 555d bc3d 559e df3d 198a 30be
00000080: addb 4ebd e92a 71bd f5f3 873c 60bc a8bd
00000090: bbfc ad3d 0318 103e 2173 673c 24b1 a93d
000000a0: bfd6 383d 6dcf 563d df1f 233d 4511 553d
000000b0: 9d66 ee3d d470 a4bd 3360 66bc a4b9 d33c
000000c0: dcc0 743c f484 2e3c b16f d43e ccbd c6bc
000000d0: 05a8 7cbd a148 b5bd 2635 29be e9b9 51bd
000000e0: e9c0 b0bd e541 91bc 9500 813d 4f03 433c
000000f0: 5631 c53d 4dbf 4dbd 6c91 81bd 1fd3 90bd
0.043218207 -0.051066115 0.0009967486 0.15013745 -0.023942294 0.049853113 0.02005742 0.2605667
-0.053509526 -0.03837674 0.06122522 0.05664069 0.05828067 0.041994825 -0.054861523 -0.07065892
0.03901087 -0.12991501 -0.0664659 0.04128522 -0.099821925 -0.099949025 0.14699756 -0.1661112
-0.05985339 0.042264782 -0.07016433 0.05652046 -0.06886836 0.09197489 0.10918871 -0.1724018
-0.050502468 -0.058878813 0.01659582 -0.08239055 0.0849547 0.1407166 0.01412657 0.0828574
0.045126673 0.05244391 0.039825317 0.052018423 0.11640666 -0.08029333 -0.014061022 0.025845356
0.014938559 0.010651816 0.41491464 -0.024260424 -0.061683673 -0.088517435 -0.16524181 -0.05120269
-0.08630545 -0.017731616 0.06298939 0.011902644 0.09628551 -0.050231267 -0.06326565 -0.07071518

hiden_layers.3.weight f4 [64, 64]
00000000: 5bca 8fbe 0d8a d53e cf3c 083e 4762 113d
00000010: acf6 943d 8b88 cbba 29fb aabd afc6 50be
00000020: 73b6 ea3c 0271 103e 529f 883e 4fb5 98bd
00000030: 85fb 623e b451 14be 3986 333e 07e9 43be
00000040: efd8 0ebe 3b55 64be d248 563e c4e3 1abe
00000050: 729b 053f 56d9 afbe a6bd 4e3e 24be 2a3e
00000060: e2fd 0b3e 84e8 0d3e 50bb 91bc 9c98 bdbc
00000070: 43a4 783e fd9e 3f3e cb80 bbbd 6085 973e
00000080: c2fc 2a3d 5418 bd3c d6c2 aabd 1550 fb3d
00000090: 20e5 883d c9e1 c23d 4368 eb3d 73e2 60bd
000000a0: 8540 363d 9c55 a03d f38e 66be 322e 66bd
000000b0: 0c9c 0a3e d11e a03e 90b8 753b 06fb d8bd
000000c0: 2173 613e 8e22 64be be0c 93bd 247b 42be
000000d0: b9b8 6f3e 1e15 323e b909 b63d a516 88bd
000000e0: d5d5 773d f1ce 6f3d 0dcc 78be 9fbe a03d
000000f0: 0dc5 493c 941b ea3d f82f afbd eec5 063e
00000100: c08b 81be 6bd9 b3bb 5805 f8bc cec9 c93d
00000110: 438a 35bc 87f0 143e 8fbf 8dbe 5114 be3c
00000120: ef64 5f3d c0bc 4dbe 580d 593e da9b 543e
00000130: 8d1e 4e3e 316b 11bd f9f7 22be 7a8e 123e
00000140: 7a2f ca3d aa68 12bc c967 133e 4c96 743e
00000150: 5dda 683e 8678 23be 4ce1 08bd ccdd ea3d
00000160: be61 dbbd 1162 923d 3df1 3f3e fd5f 64be
00000170: f18a 353e 70b7 1ebe 4df8 bfbe 7222 6e3e
00000180: 08b2 8b3d 3d08 0ebe 3eab 0b3f e208 a13d
00000190: d126 29bd 4f3a 8abe 81c9 41be fae0 e43d
000001a0: 6ef1 853d 5d12 953c c5f6 4dbd 7bd7 753e
000001b0: 7e97 cc3d d5c9 763d 6a4b b33d 7d25 263b
000001c0: cea5 5b3e 19ee 09be 1f01 3cbe 5ea4 343e
000001d0: cc67 5a3e d06a 113e 7566 98bd 7340 453e
000001e0: 089c 9f3e d8cb ccbd 7098 f43d f12e 433a
000001f0: 37e4 143e 7be1 833d 9bd0 bd3c b55c 943e
00000200: 9581 543e ed8b 5d3e 472c e3bd abd7 f4bd
00000210: 8975 7fbe b178 413e 276c fe3d bffe cfbd
00000220: 1350 aa3d 8181 02bd 0a4e b0bd 1541 f23d
00000230: 085f 97bd fcbe 12bd 4e02 0e3e b656 993c
00000240: 13d7 12bd eb27 1a3e 72c0 2bbe 8bf2 28be
00000250: ac13 5c3c 0073 a53d 8ac5 cbbd 3bfc 223e
00000260: 6588 353d a8ac 75bc a297 35be 6e42 0bbd
00000270: 0173 3e3d e219 06be e99f e6bd 8b14 89bd
00000280: 2b87 71be 10cf 55bd f497 d9bc 10d9 c53d
00000290: 8c82 54bd e5d0 06bd 2bf0 963d 5de7 813d
000002a0: 33c2 9b3e 0a3b 44be b6f4 e8bd 48da 3f3d
000002b0: b57e ec3c 6c68 7bbe a544 633e 666a 14be
000002c0: 80bc f9bd 1ffc 24be fca4 883e db2e 073e
000002d0: 2250 913d 84f2 5fbd 25ec 32be ce4a 5bbe
000002e0: 7e39 54be 6e33 19be d038 cc3d 2a27 1c3e
000002f0: d0a7 403e 9d87 95bd 32a1 4ebb dc69 243e
00000300: 6992 983d 6703 fdbd f564 53bc 33ea 13bb
00000310: ed57 17be 0ad9 80bd 96f7 4a3e f713 87be
00000320: 387c 813d 1025 4bbe 7dd4 81be 7f95 89be
00000330: e263 50be ea7a 77be 070b 1fbe 3c83 483d
00000340: ef58 2abe 20b4 9c3d ee9d c9bb 5429 ddbd
00000350: 4a71 233e ffd5 8dbc 6645 8abd 56eb 95bd
00000360: 8b36 913d 3a30 ea3d c5d4 8d3d ae6f 5c3e
00000370: 5ce2 373e 47d8 2bbe 9a7b 663d f6f3 2e3d
00000380: 15b8 833e 847b 933e 4998 0e3e 96a6 afbe
00000390: 49e5 94be 9e72 fcbc 5865 19be 5244 eabd
000003a0: f16e aa3c 8dd8 0cbf 1791 9abe b430 9f3c
000003b0: fd12 eebc 85d3 13be 7fb1 6a3e c307 ea3d
000003c0: e4fe aebd 34d1 453d e34e 41bd e2ef 7bbe
000003d0: 2948 4b3d 0a44 123e 24a7 81bd d46b d43e
000003e0: eac6 5f3d d7e0 f93d 5604 303e 8585 e2bd
000003f0: 33d7 25bc 934f 7abe 2ea4 18be 86b4 52bd
-0.28084072 0.41706887 0.13304447 0.035494115 0.072736114 -0.0015528364 -0.08348686 -0.20388292
0.028651452 0.14105609 0.26684052 -0.07456457 0.2216626 -0.14484292 0.1753167 -0.19131862
-0.13949941 -0.22298138 0.20926216 -0.15125948 0.52190316 -0.34345502 0.20189533 0.16674095
0.13671067 0.13858229 -0.017789513 -0.023144059 0.24281411 0.18712993 -0.09155425 0.29593945
0.041744955 0.02308289 -0.08337943 0.12271134 0.06684327 0.09515721 0.11494496 -0.05490346
0.044495124 0.07828829 -0.22515468 -0.0561964 0.1353609 0.3127351 0.003749404 -0.10594754
0.22016574 -0.22278807 -0.07180165 -0.18992287 0.2341031 0.17390868 0.08888573 -0.06644944
0.06050666 0.058546964 -0.24296589 0.07848858 0.012315047 0.11431041 -0.08554071 0.13161442
-0.25301933 -0.0054885647 -0.030275986 0.09852944 -0.011080327 0.14544879 -0.2768521 0.023203047
0.054539617 -0.20091534 0.21196496 0.20762578 0.20128842 -0.035502616 -0.15914907 0.14312163
0.09872337 -0.008936087 0.1439506 0.23885459 0.22739549 -0.15963945 -0.033417985 0.11468086
-0.10712002 0.07147611 0.18744369 -0.22302242 0.17728783 -0.15499663 -0.37494126 0.23255327
0.06821066 -0.1387033 0.5455817 0.078630224 -0.041296784 -0.2699761 -0.18924524 0.111757234
0.0654019 0.018197233 -0.050284166 0.2400798 0.09989832 0.060251076 0.087546185 0.0025351935
0.21449968 -0.13469733 -0.18359803 0.17640826 0.21328658 0.14200902 -0.07441417 0.19262867
0.3117373 -0.099998176 0.11943138 0.00074456545 0.14540182 0.06439491 0.02317076 0.2897698
0.20752557 0.21635409 -0.110924296 -0.11955198 -0.2494718 0.18893696 0.12422972 -0.10156011
0.08316054 -0.031861786 -0.08608635 0.1182882 -0.07391173 -0.03582667 0.13868067 0.018718105
-0.035849642 0.1505429 -0.16772631 -0.16498773 0.0134324245 0.08078575 -0.09949787 0.15916531
0.04431953 -0.014994778 -0.17733625 -0.0339989 0.046496395 -0.13095811 -0.11260969 -0.066933714
-0.23586719 -0.052199423 -0.026561715 0.09660542 -0.05188231 -0.03291406 0.07370027 0.06342957
0.304216 -0.19163147 -0.113748 0.04683903 0.028869012 -0.24551553 0.22194155 -0.14493713
-0.12194157 -0.16111802 0.26688373 0.13201468 0.07095362 -0.05467464 -0.17472894 -0.21415254
-0.20725057 -0.14961025 0.099717736 0.15249315 0.18814015 -0.07301257 -0.0031529185 0.16056007
0.074498005 -0.123541646 -0.012902488 -0.0022570014 -0.14779635 -0.06291397 0.19821009 -0.2638242
0.06322521 -0.19838357 -0.25357428 -0.2687187 -0.20350602 -0.24167982 -0.1553155 0.04895328
-0.16635488 0.076515436 -0.00615286 -0.10798898 0.15961185 -0.017313955 -0.06751518 -0.073202774
0.07090481 0.1143498 0.06925348 0.21526977 0.17957443 -0.16781722 0.05627022 0.042713128
0.2572638 0.28805172 0.1392528 -0.34306782 -0.2908118 -0.030816372 -0.14980066 -0.11438812
0.020804854 -0.5501793 -0.3018882 0.019432403 -0.029061789 -0.14436157 0.22919272 0.11427262
-0.0854471 0.048295215 -0.047194373 -0.24603227 0.049629364 0.14283767 -0.06330708 0.41488516
0.05463306 0.12201088 0.17189154 -0.11060623 -0.010122108 -0.24444418 -0.1490638 -0.05144169

hiden_layers.3.bias f4 [64]
00000000: 21f8 b8bc 8063 74bc abb8 d53d 5cf4 26bd
00000010: e1c3 9bbd ba1b f9bd 12af 5e3d 64e2 b8bc
00000020: 6491 02be 5298 9c3d 44a7 533e 137f 8ebd
00000030: d1f9 253e f578 36bd 5473 65bd c7a5 f3bd
00000040: 081a f63b 4c3b 063e 0e0c fbbc 764a 5e3d
00000050: 9081 4a3e 25b9 14be d84a 8cbb ad47 09bc
00000060: d4f5 cebd 1f6b 883d 9ecf 7bbe 0675 923c
00000070: adfc 1d3d 58ae ecbc 4a0b c93c 9aaa f83d
00000080: fdd8 63bd fde8 06bc 7da7 cfbc 879a 8bbd
00000090: 7646 e63d ceb4 9f3e 3805 c1bc e4ae c0bb
000000a0: 12d0 8ebd 36a8 1e3d 622e be3d 7521 8fbc
000000b0: 7854 47bd 0236 ecbd e826 8e3d 69a4 613d
000000c0: 05ea ac3d 324b 86bd 644f cabd e85d 76bd
000000d0: 404f 67bd 0880 6bbd 08f2 943d 2afa 26be
000000e0: 07d6 623d 6381 06be a1b8 0ebe 25cb 7d3d
000000f0: 35bb ddbd 56a6 023d b3cb 853d 31a0 5dbc
-0.022579255 -0.014916301 0.10435613 -0.040760383 -0.0760572 -0.121634915 0.05436618 -0.022568889
-0.12750775 0.0764624 0.20669276 -0.06957831 0.16208579 -0.044548947 -0.05601819 -0.11896854
0.0075104274 0.13108557 -0.030645397 0.05427023 0.19775987 -0.14523752 -0.004281383 -0.008378905
-0.10105482 0.06661057 -0.24590918 0.017878067 0.03857105 -0.028891727 0.024541516 0.12141915
-0.055626858 -0.00823426 -0.02534842 -0.06816583 0.11243908 0.3119263 -0.023562059 -0.0058802236
-0.0697328 0.038734637 0.092861906 -0.017472008 -0.04866454 -0.11533739 0.069410145 0.055088434
0.08443073 -0.06557311 -0.09878424 -0.06014815 -0.056472063 -0.057495147 0.07272726 -0.16306368
0.055379894 -0.13135295 -0.13937618 0.06196131 -0.108267225 0.03189691 0.06532993 -0.013526962

hiden_layers.4.weight f4 [64, 64]
00000000: 3b05 7bbe 23c6 8ebc aa9b 84bc ded8 45be
00000010: 801b 5e3d 6db9 07bd c4a7 abbe 04c8 8f3e
00000020: de4c 8f3d 2b43 9dbc 43f0 e6bd 0066 df3d
00000030: 147f 0b3e 6668 e8bd 7683 26be 3993 7bbd
00000040: 7763 8fbd 047a 6e3c 06c1 303e 2146 983e
00000050: b7fe c8be 2251 503c 002e 60be d9f4 9fbd
00000060: 0005 b8bc 2dc4 b4bd fc9c ed3d ad95 413e
00000070: 62ba 9bbd f1a4 32be e8b1 64bd c255 1dbd
00000080: 509e 173e 7f9d 233d f12d 2e3e e6f4 0abd
00000090: f753 fd3d 95bc a53b 06f6 983c 747e a4bd
000000a0: 3794 95be 2a1e 013d dd4c 453e 80be e93d
000000b0: e28d 0c3d dfa6 b43e 4ad6 ef3e 55f2 4dbe
000000c0: 4e2a 91be db85 3fbe b46c ff3d e8c1 6fbd
000000d0: b3ad c8bd 87b2 393e 3fcc a43d 36a6 0abf
000000e0: 130e e73d 4231 1a3d b67b 82be 3567 8abe
000000f0: a2e3 883e 88ac 0dbe 1d6c fe3c 28b4 74be
00000100: 831b 8d3c eb3e e2be 6c2a a7bd 2228 0f3d
00000110: f78f 88be dfa0 173d b3f3 a1be 66da cabd
00000120: d822 a6bc 8998 d8bd f97d a1bc e7ed 39be
00000130: 444c 103d 7639 113e 57fd f1bd 5725 b13c
00000140: 897e fdbe 22fb a4bd 3a2f ef3e 5cd9 873e
00000150: 9641 213e 84cd d9bc 5379 023f 0dd2 1b3e
00000160: 3dba 8cbe f58d 9dbe b604 bebd a066 423e
00000170: 3b27 c8bd e6b6 edbd 0f19 b7be 5e09 283e
00000180: 97e2 413e c4bc 27bd 3cab a3bc 9bef dcbc
00000190: 9f47 b0bd bd14 13be cfa2 133d 6842 7a3d
000001a0: fafd ec3d a1fa 89be e60f 953d 95c0 c03e
000001b0: ce8c d8bd 63c6 813e 8fd4 5f3c c719 38bd
000001c0: 527e a5be 3d0b 973e 0b54 4fbe 8323 30bc
000001d0: d1d8 3ebd 50dd cebd d2d8 8d3e 0fac ecbd
000001e0: b0d0 463c 929b 36be 4791 963d 23f9 3a3c
000001f0: a593 153e dd06 40be 8bc7 083d 41d6 133e
00000200: b65b 6fbb c849 133c a891 14be 66e6 22be
00000210: 5b8b a4bd b02c 1cbe bc53 63be 711d 62bc
00000220: e737 053e e7fa 87be f052 20bd 8ab4 61be
00000230: e02b 083d 01f3 823e 4388 113d 6d57 71bd
00000240: 43e8 3cbe 4e66 113e 5e93 ebbc de0c 2c3e
00000250: 0880 10be 4c08 82be 43ea 0ebe 2d5a 1ebe
00000260: 6f32 8fbe 7d33 6ebe 6ca2 c73d 1bf0 173e
00000270: 71bc 8abd 8856 893e b8d2 82be 3cf4 083e
00000280: c12e 91be e9c7 063b d088 1cbe 256b c23e
00000290: a7db 00be ff0f 893e 5ba1 3b3c 2fe4 313e
000002a0: ea99 9f3d 5120 68bc 8ee3 9dbe 7bcd 023e
000002b0: 07f1 b03c 290b b73d 53e9 e73b c2a1 e73d
000002c0: 1c27 b53d 6a65 963d 0fe1 a63e 0702 87be
000002d0: cd97 51be 85f8 913e b01d a63b 59fc 6d3d
000002e0: 9add 4d3d 353d 923e 52be 2d3e 768c 4b3e
000002f0: d46c 78bd f972 23bc 5525 9c3d 1816 973e
00000300: 0376 a53d b8b6 ecbc 23bf c9bc 5df4 843e
00000310: afe5 623e 8f9a 1b3d bb49 533d 78e7 31be
00000320: fcd8 ed3c fb6a 39bd 2ee6 823e 1196 313e
00000330: d303 033d 6f88 2cbe 82e4 a43e c33b 8c3e
00000340: 6beb 3c3e d5a0 debc 9303 dfbe 4fa5 b0be
00000350: 73e0 ca3c b13d 423d 29b2 3c3e 47c5 a63d
00000360: f47e 5c3e 83e0 98be 5bab 9e3d 0f14 d4bd
00000370: f016 84bd bd3f 473d bd0f 88bd 5885 85be
00000380: 99d4 a5bd ff1e b93d d07c 22be 942f 2dbe
00000390: 1444 473e 4e2a 3bbd de2e 4bbd f603 b93c
000003a0: 5321 63bd 7a27 ac3c 9936 45be 830d 5f3e
000003b0: 2b97 fd3d c8de f4bd d653 20be 1131 1abe
000003c0: 8fe4 153e a41f 163e f42a dabd 0c11 f73d
000003d0: 4595 603d f2d9 e83d b12e 7a3d c640 393e
000003e0: 3df0 82be 8db1 a6bd 2789 2f3e 634e e03d
000003f0: 4ba6 123e 87dd b6bd 696a b33e 0f3b 5e3e
-0.24513714 -0.017428463 -0.016187508 -0.1932101 0.054225445 -0.03313582 -0.33526433 0.28082287
0.06997083 -0.019197067 -0.11276295 0.10908127 0.13622695 -0.113480374 -0.16261086 -0.0614197
-0.07001393 0.014555458 0.17261133 0.29741004 -0.39256832 0.012714656 -0.21892548 -0.07810373
-0.022463322 -0.0882648 0.11602208 0.18904753 -0.07603909 -0.17445733 -0.055833727 -0.038411863
0.14806485 0.03994512 0.17009713 -0.03392496 0.12369531 0.005057881 0.018672 -0.080319315
-0.2921464 0.031522907 0.19267602 0.11413288 0.034314997 0.35283563 0.46843177 -0.20111974
-0.28352588 -0.18703406 0.12471905 -0.058534533 -0.097987555 0.18134509 0.08046769 -0.5415987
0.11281981 0.037644632 -0.2548501 -0.27031866 0.2673617 -0.13835347 0.031057412 -0.23896849
0.017225033 -0.44188628 -0.08162388 0.034950383 -0.26672336 0.037018653 -0.3163124 -0.099049374
-0.020280287 -0.10575969 -0.019713389 -0.18157159 0.035228983 0.14182076 -0.11815899 0.02162425
-0.495106 -0.08055712 0.46715719 0.2653302 0.15747675 -0.026587255 0.50966376 0.15216847
-0.2748584 -0.30772367 -0.09278242 0.18984461 -0.097731076 -0.11607151 -0.35761306 0.16409823
0.18934093 -0.040951505 -0.019979112 -0.026969722 -0.08607411 -0.1436338 0.03604394 0.061098486
0.1157188 -0.26949027 0.07278423 0.37646928 -0.10573731 0.2534667 0.013661518 -0.04494646
-0.32322937 0.29500762 -0.20246904 -0.010750654 -0.04659349 -0.10100806 0.27704483 -0.11556255
0.012134716 -0.17832783 0.07351928 0.011411938 0.14607103 -0.18752618 0.033393424 0.144372
-0.003652317 0.008989759 -0.14508688 -0.15908203 -0.080343924 -0.15251422 -0.22199911 -0.013800965
0.13009606 -0.2655861 -0.039141595 -0.22041526 0.033244967 0.25576022 0.03553034 -0.058921266
-0.18447976 0.14199182 -0.028756794 0.16801783 -0.1411134 -0.25396955 -0.13956551 -0.15464087
-0.27968165 -0.23261829 0.097477764 0.14837687 -0.067742236 0.2682383 -0.2555139 0.13374418
-0.28355983 0.0020565933 -0.15286565 0.3797237 -0.1258379 0.26770017 0.011452044 0.17372201
0.07793029 -0.014167861 -0.30837673 0.12773697 0.021599306 0.089376755 0.007077375 0.1131015
0.0884535 0.07343562 0.3259358 -0.26368734 -0.20468064 0.28509918 0.005069457 0.058101986
0.050260164 0.28562322 0.16967133 0.198778 -0.06065066 -0.009976142 0.07624308 0.29509044
0.080791496 -0.02889572 -0.024627274 0.25967684 0.2215793 0.037989195 0.051583987 -0.17373455
0.02903413 -0.04526804 0.25566238 0.17342402 0.03198607 -0.1684892 0.32205588 0.27389345
0.1844918 -0.0271763 -0.43557414 -0.3450112 0.024765229 0.047422115 0.18427338 0.081430964
0.21532804 -0.2985879 0.07747527 -0.103553884 -0.064496875 0.04864477 -0.06643627 -0.26078296
-0.080971904 0.09039115 -0.15867925 -0.16912681 0.19459563 -0.04569464 -0.049605243 0.022584897
-0.055451702 0.021014918 -0.19259109 0.21782498 0.123823486 -0.11956555 -0.15656981 -0.1505778
0.1463797 0.14660507 -0.10652724 0.12063798 0.054829855 0.11369695 0.061079685 0.18091115
-0.25573912 -0.08139334 0.17142163 0.10952451 0.14321248 -0.08928972 0.35042122 0.21702217

hiden_layers.4.bias f4 [64]
00000000: 43ce fcbd 48cd 9f3d f0d4 eb3a 3d70 c7bb
00000010: 1e24 9f3c 7745 7dbb 2238 793c 8a84 23bd
00000020: c6d3 753d 8dc4 603e dcf7 48bd a838 fa3d
00000030: c117 933d b2c1 d1bc 5699 92bc 209f 033d
00000040: e646 243d 7c61 cc3c 3f10 723b 5576 e4bc
00000050: 727b f13d b362 f23d 5344 87bd 5098 44bd
00000060: 99f8 dc3d 6fef ff3d d1db 4cbe e6ea 8c3c
00000070: b1c3 7ebd 63b5 033c 7ef3 613d b426 143d
00000080: da1c 8dbb 87e3 8dbc d925 d2bc 7f79 653c
00000090: f369 bbbd 6f13 4e3d 3b3e 8f3c 5524 8dbd
000000a0: cde4 08be 38cd 803e b6f0 bd39 9ae2 5b3c
000000b0: 73f0 a6bd 1b0f b73e 78b8 25be b9b7 e23a
000000c0: bde6 033e c8b1 25be 7770 893b a9ea 173e
000000d0: 488a 49bc 48c2 ca3d 6a4d 103e a962 043d
000000e0: 7673 45be 0d41 91bb 415a c6bd cde5 1dbd
000000f0: 7e67 c83b d34d 353d 4428 413e f5b1 ce3c
-0.12344029 0.07802826 0.0017992537 -0.006086378 0.019426402 -0.003864614 0.015211137 -0.03992132
0.060016416 0.21949978 -0.049064502 0.122178376 0.07182265 -0.025605056 -0.017895382 0.032134175
0.040106677 0.024948828 0.0036935953 -0.027888456 0.117911234 0.11835232 -0.06604829 -0.04799682
0.10789604 0.1249684 -0.20005728 0.017201852 -0.062198345 0.008038851 0.055163853 0.036169723
-0.004306418 -0.017320408 -0.025652813 0.014006018 -0.091510676 0.050311502 0.017485728 -0.068916954
-0.1336853 0.2515657 0.00036228233 0.013420725 -0.08151331 0.35753712 -0.1618365 0.0017297185
0.12880988 -0.161811 0.004194315 0.1483561 -0.012301035 0.099003375 0.14092031 0.032320652
-0.19282326 -0.0044328035 -0.09685183 -0.038549233 0.006115853 0.044263672 0.18863016 0.02523134
