results/1_first_try/epoch1150/model_weights.pth (torch, 484214 bytes, 88 tensors)

init_layer.0.weight f4 [64, 3]
000000 71 25 0e be df 59 a6 bd 45 f3 d4 3d 14 67 82 3e
       -0.1388147 -0.0812261 0.103979625 0.25469267
000010 dc 22 db 3c ae 0c 3c bc 62 d7 fe bd 5c 13 78 be
       0.02675002 -0.011477632 -0.12443425 -0.24226135
000020 7a 3e 24 bc 0c d3 91 3e b4 ba 71 3d cb 54 f1 3b
       -0.010024661 0.28481328 0.059015945 0.0073648444
000030 26 da b0 bb 83 e2 9e 3e 7d b8 5b 3d 97 8a 12 be
       -0.005397099 0.3103219 0.05364274 -0.1431068
000040 a2 ae bc be 30 72 4a 3d 0d 54 14 3e 4d 32 ed 3d
       -0.36851984 0.049425304 0.14485188 0.1158186
000050 c7 73 66 3e fe 49 9d 3e bf 28 5f 3e 29 89 13 3e
       0.22505103 0.30720514 0.21792887 0.14407791
000060 34 f3 8d 3e 94 67 c0 be 58 b2 dc 3c 7f e7 4c be
       0.27724612 -0.37579024 0.02694051 -0.20010184
000070 6d ad 42 be 30 85 26 3e 80 78 8e be e1 b4 90 3c
       -0.19011469 0.16261744 -0.2782631 0.017664375
000080 7e 83 e9 3c 3a a0 f3 3d 34 e4 84 3e be ac 62 bd
       0.028505083 0.11895795 0.25955355 -0.05534052
000090 26 c0 8d bd e8 1f 26 be b6 fe ff 3b 18 51 ce bd
       -0.06921415 -0.16223109 0.0078123463 -0.10074061
0000a0 fd 8b 39 3c 7f cf d9 3d 0d 67 19 3e 15 db 9c be
       0.01132488 0.1063528 0.14980717 -0.30635896
0000b0 09 2c cd bc e0 d4 6e 3e 36 bc 69 be 54 c0 ae bd
       -0.025045412 0.23323393 -0.22825703 -0.085327774
0000c0 a6 29 c8 3b 63 e3 a1 bd da bc 9f 3d e4 4a 9c 3e
       0.0061084805 -0.07904699 0.077996925 0.30525887
0000d0 b2 06 80 3e 98 58 cf bd a3 17 28 3e 85 5a 69 3c
       0.25005108 -0.1012432 0.16415267 0.014242773
0000e0 85 ba 1f be c5 54 83 be 00 50 14 3e 56 11 00 be
       -0.15598495 -0.25650612 0.14483643 -0.12506613
0000f0 69 88 50 3e b1 0c 09 be 65 08 09 bd ce ea a4 3e
       0.20364536 -0.13383748 -0.03345527 0.32210392
000100 e6 43 85 ba 6c 42 2c bd a6 73 0c bd 53 0b a8 be
       -0.001016733 -0.042055532 -0.03428998 -0.3282114
000110 df 2d 89 3c b8 96 e4 bd 7b f6 59 3e 5b 64 45 bb
       0.016745506 -0.1116156 0.21285431 -0.003011963
000120 35 4d 1a bd 49 85 07 be 2a 32 f0 3d fe bd d2 bd
       -0.037671287 -0.13234438 0.11728318 -0.102901444
000130 89 ad 82 3e 8c 2f 44 bd 61 53 a8 3d 48 d8 93 3e
       0.25523022 -0.047896907 0.08219028 0.28875947
000140 05 3b 3f 3e 44 ba 40 be 9b 44 88 be ed 8e 0e 3d
       0.18674858 -0.18821055 -0.26614842 0.034804273
000150 33 0d 67 bc 87 2a 61 bc 63 3f bc bd 17 9a da 3d
       -0.014102268 -0.013743049 -0.091917776 0.106739216
000160 1a d1 af be b0 82 09 3d ad 3e b3 be 46 f5 15 be
       -0.3433922 0.0335719 -0.35008755 -0.14644346
000170 35 7b 2d bd 01 54 18 be 93 57 8c 3d 1a 93 a7 3d
       -0.042353828 -0.14875795 0.06852641 0.08182354
000180 cc 9f dc bd 27 a5 88 3e 37 62 12 3e 9f e4 a3 be
       -0.10772666 0.266885 0.14295278 -0.32010362
000190 7b 93 a1 3e 2a 86 ed bc bf ca 9a 3d e2 82 13 be
       0.3155783 -0.028994638 0.07558202 -0.14405397
0001a0 af 27 2b bc 41 a3 ff bd 78 e9 77 be 2f 9e 03 be
       -0.010446473 -0.1248231 -0.24210155 -0.12853311
0001b0 10 64 da bd 3e 83 67 3c 4a 90 19 3d 6e 09 47 be
       -0.10663617 0.014130412 0.03749112 -0.19437191
0001c0 37 c4 84 bd ed 78 ad bb e8 e9 31 3e f9 77 61 be
       -0.064827375 -0.0052939565 0.17374384 -0.22018422
0001d0 ad 03 d1 3b 97 b7 a0 be e1 18 1a 3e db 9a c1 3d
       0.006378612 -0.31390068 0.15048553 0.094533645
0001e0 c9 52 67 3d 80 c4 19 3c 00 7a 2b be 0b 82 ff bd
       0.056475434 0.009385228 -0.16745758 -0.124759756
0001f0 fd 3b f1 bc fa ea 15 be 19 f1 01 3d 07 d8 0a be
       -0.02944755 -0.14640418 0.03172407 -0.1355897
000200 21 44 f9 3d bd a2 80 3d a7 ac 85 bd 65 a6 ae 3d
       0.12171198 0.0628104 -0.065270714 0.08527831
000210 f9 d3 27 3e 45 91 83 be 3f 95 b1 bd e4 3a bd be
       0.16389455 -0.2569677 -0.086710446 -0.36958992
000220 55 8e 70 be 12 7a 9f 3d d6 1e 5b bd 97 26 64 be
       -0.23491795 0.07786955 -0.053496204 -0.22280346
000230 f1 d0 42 3d 3d 6a 6e 3d 80 f8 94 3e 3f 6e 82 3c
       0.047562543 0.058206785 0.2909584 0.01592171
000240 aa 9b 2d 3e f1 98 a8 3e 21 74 00 3d 3e 49 25 3e
       0.16953912 0.32929185 0.03136075 0.16141221
000250 33 8f 9d be aa 1b 1b 3e f9 fb 03 be 2c 3e 8e be
       -0.30773315 0.15147272 -0.12889089 -0.27781808
000260 75 0c b0 bc d3 87 c7 be 22 71 07 be 3a 1e 82 bd
       -0.021490315 -0.38970813 -0.1322675 -0.063534215
000270 0d d2 a7 3e be 82 98 be 9e 06 32 3d 65 f5 07 be
       0.32777444 -0.29787248 0.043463342 -0.13277204
000280 8b 56 54 be e2 24 b1 3c b9 46 4a 3e 32 28 6c be
       -0.20736139 0.021624032 0.19753541 -0.23062208
000290 9d 28 fa bd 27 c0 60 3e 05 c5 96 39 fd 31 bc 3c
       -0.122147776 0.219483 0.0002875702 0.022973055
0002a0 86 df 57 3e e9 9a 8b 3d c7 32 03 3e e7 c3 68 3d
       0.21081361 0.06816656 0.12812339 0.056827452
0002b0 49 71 ab 3b 77 38 a4 bd b2 22 17 3e 89 37 b9 3e
       0.0052320105 -0.08018582 0.14759329 0.36175182
0002c0 74 b4 b0 3c ad 7c b8 3d f0 9e 57 3e c6 2f 6a bd
       0.021570422 0.09008155 0.21056724 -0.057174467
0002d0 e4 ea 4a be 44 06 7a be f0 7f bd bc ab de 39 be
       -0.19816166 -0.24416453 -0.023132294 -0.18151347
0002e0 cc 40 56 3d 5f 53 b0 bb 78 d3 b1 3e ef c0 8a bd
       0.05230789 -0.0053810324 0.3473165 -0.067750804
0002f0 82 88 63 3c 7c 5e a4 3e b9 cb 4e 3d d1 f0 d4 3d
       0.0138875265 0.32103336 0.050487254 0.103974946

init_layer.0.bias f4 [64]
000000 3d bd 7e 3d e7 f1 ec 3d 22 b1 bd bd da a6 08 3e
       0.06219219 0.11569577 -0.09262301 0.13344899
000010 c1 9e ae 3c f4 b8 94 bd 4c 6f cb bd f5 79 30 3e
       0.021315934 -0.072618395 -0.099333376 0.17234023
000020 22 ec b5 3d 2c 3c 2b be fb 4f e6 bd b7 b2 96 3d
       0.088829294 -0.16722172 -0.11245724 0.07358306
000030 d1 f5 f3 bc 70 3d c1 bd 2b 90 6e 3d f5 aa fd 3d
       -0.0297803 -0.094355464 0.058242958 0.12386123
000040 b4 67 2a 3c 40 84 2e 3e b4 d7 16 3e 21 7c 11 be
       0.010400701 0.17042637 0.14730722 -0.14207508
000050 8a c7 f4 3d 1d b3 0c 3e 66 d6 07 bd 7a d0 fa bd
       0.119521216 0.13740201 -0.03316345 -0.12246795
000060 58 03 d4 3d 4b 04 be bd c4 f3 0c 3e 67 30 a1 bd
       0.103522 -0.092781626 0.13764864 -0.0787056
000070 bc 42 5c bd 14 41 c1 3d dc 6d 1f be be 5c dc bd
       -0.05377458 0.09436241 -0.15569252 -0.10759877
000080 48 6c ec bd b3 07 06 be 7c f6 a6 3d 4f 7a 0c be
       -0.115440905 -0.13088875 0.08152482 -0.13718532
000090 35 7c 6d bd 80 30 e0 bd e0 a8 88 3d 5b 82 13 be
       -0.05797978 -0.10946751 0.06672835 -0.14405195
0000a0 80 8c 86 bd 8e c4 01 be db ea a4 bd 38 12 af 3d
       -0.06569767 -0.12672636 -0.080526076 0.08548397
0000b0 50 a5 01 3e 33 de 13 be 30 a4 b8 bd 2a 75 c9 bc
       0.12660718 -0.14440231 -0.09015691 -0.024592001
0000c0 5d f7 93 3c 89 c1 06 3e d1 64 09 be c4 63 1f be
       0.018062288 0.13159765 -0.13417365 -0.15565401
0000d0 ac 61 0c 3e 2a 06 69 bd 81 dc 05 3e a0 65 fb 3d
       0.13709134 -0.056890644 0.13072397 0.12275243
0000e0 bb a8 05 3e 06 28 df bd 63 9d fe 3c 88 cf 11 3d
       0.13052647 -0.10896306 0.031080907 0.035598308
0000f0 ae 8c 0d be 79 ab e9 bd b5 6b 19 3e df 47 0d 3e
       -0.13823196 -0.11409659 0.14982493 0.13796948

hiden_layers.0.weight f4 [64, 64]
000000 54 93 34 be e1 6d b8 3d fd 9e e2 3d e0 91 49 3e
       -0.17634326 0.09005333 0.11065481 0.19684553
000010 c3 df 28 be f4 d5 be 3b c3 ff e5 3d be 13 5a bd
       -0.16491608 0.005823845 0.11230423 -0.053241484
000020 90 5e 86 3c a1 33 6e bd 68 9e 42 bd b0 bd 32 3e
       0.016402513 -0.058154706 -0.04751435 0.17455173
000030 22 3c 0f bc 6b c4 4f 3e 05 79 2f 3e 9f d7 1c be
       -0.008742364 0.20289771 0.17136009 -0.15316628
000040 1f 97 b4 bb c3 16 97 bd 2f 8f 75 bc ca cc 6b be
       -0.005511179 -0.07377388 -0.014987751 -0.2302734
000050 1f e4 ef 3c c5 91 4f 3e 62 e3 55 bb 38 94 a0 be
       0.029283581 0.2027045 -0.0032636751 -0.31363082
000060 09 a6 3f 3e 3c 32 08 bd f2 ef 52 bd 85 9d 35 be
       0.18715681 -0.033251032 -0.05149836 -0.1773587
000070 7f bc 0d be 8d 6c e2 3b fa d2 b5 be df 84 59 bd
       -0.13841437 0.006909913 -0.35512525 -0.05310523
000080 5d 04 6c bd 03 94 d9 bd a0 54 fb 3d a3 ea 48 bd
       -0.05762135 -0.10623934 0.12272 -0.049051892
000090 76 fa 76 3c 87 ff b8 bd cd 60 6d 3e d5 33 39 3d
       0.015074363 -0.09033113 0.23181458 0.045215447
0000a0 94 68 93 3d bc 85 1f be f0 ce 03 3e 28 38 34 bd
       0.07197681 -0.1557836 0.12871909 -0.043998867
0000b0 61 7f e1 bc 29 3b 8d bd 77 32 60 3c 19 69 0f be
       -0.02752656 -0.068960495 0.013683907 -0.14004935
0000c0 7b e0 81 3e 70 cc 9d bd 49 35 35 be ef 5a ca bd
       0.25366578 -0.07705009 -0.17696108 -0.098806255
0000d0 fe 76 dd 3d 78 a4 59 bd 17 e7 45 3e 3f a8 91 3e
       0.108137116 -0.053135365 0.19326435 0.28448674
0000e0 5a aa a1 bd 40 9d 00 be 15 6b 7c bd 3e 18 95 3d
       -0.0789382 -0.12559986 -0.06162556 0.072800145
0000f0 86 3c 5e 3b bb 9c 96 be 06 3a 2b 3e ba fa e6 bc
       0.0033910586 -0.2941645 0.16721353 -0.028195728
000100 04 b4 34 bd a5 69 ec bd 21 f3 6e be 93 47 88 3e
       -0.04411699 -0.115435876 -0.23334934 0.26617107
000110 c7 ee 0e be f1 33 72 bd 29 3d 32 3e 79 f1 24 bd
       -0.13958274 -0.059131566 0.17406143 -0.04026935
000120 ac cb bc 3d 79 5c 5a be cb 50 22 3e 43 b4 13 be
       0.09218535 -0.21324338 0.15851133 -0.14424233
000130 52 52 17 bd c3 50 1a b9 e2 86 c4 3d 1c 0e 52 3e
       -0.03694374 -0.0001471667 0.09596039 0.20513195
000140 ad ba a1 3c bb 6c 73 3e 95 79 7c 3d 7c 49 f9 bd
       0.019742334 0.23771946 0.061639387 -0.12172219
000150 b1 41 aa 3d 7d b4 b7 bd dc bf de 3d 43 b7 f7 bd
       0.08313311 -0.08969972 0.10876438 -0.12095501
000160 43 6e c5 bc 7a 51 19 be c8 e9 99 3e 7e 09 22 3e
       -0.024100428 -0.14972487 0.30061173 0.15823933
000170 f1 27 81 3d 38 f3 61 3e 13 27 97 be 5c a6 4d be
       0.06306446 0.22065437 -0.29522 -0.20082992
000180 07 1e 02 bd dc 96 a2 bd 7e 97 25 3e 3a 78 82 3d
       -0.031766918 -0.079389304 0.16171071 0.06370588
000190 a2 d4 01 3e e7 23 08 be 79 5f b3 bc 7a 8d b9 3d
       0.12678769 -0.13294946 -0.02189611 0.09060188
0001a0 06 d4 88 bd 52 30 ea bd 75 4f 38 be 4f 57 69 3d
       -0.06681065 -0.114349976 -0.1799906 0.05696803
0001b0 13 07 2c 3e 13 ce 6e be d8 1a 3c 3e 97 e6 17 be
       0.16799574 -0.23320799 0.18369615 -0.14834057
0001c0 25 dc 5d bd 4a 32 dd bc b5 d7 02 be 45 db 70 be
       -0.054165024 -0.027001519 -0.12777598 -0.23521145
0001d0 cd 0f 65 3e fa de 27 be 8e 2b 51 3e 30 a1 60 3e
       0.22369309 -0.16393653 0.20426771 0.21936488
0001e0 c0 ab a8 bd 23 49 bf bd 18 7b 20 be df cc 3f be
       -0.08235884 -0.093401216 -0.15671957 -0.18730496
0001f0 6e 78 30 3e 21 e6 4b bd c6 cf 9e 3e ae ef f4 3c
       0.1723344 -0.049780015 0.31017894 0.029899444
000200 56 c1 c8 3d 12 47 ef bd ea 39 8e 3e 1f cf 9d bd
       0.09802501 -0.116834775 0.2777856 -0.07705521
000210 3f 31 85 be 43 81 e2 3c 1b db c0 39 d2 77 8f be
       -0.26014134 0.027649527 0.0003678434 -0.28021103
000220 aa 7f d7 3d c5 23 33 3d 65 a7 4e 3c 75 7e ad 3d
       0.10522397 0.043735284 0.012613152 0.084713854
000230 bb 84 38 3e 3d 00 31 be 30 48 8a 3e bc 3f 08 be
       0.18019383 -0.17285247 0.270082 -0.13305563
000240 52 ff b4 bd b0 99 97 be 14 b1 5c 3c 4a 17 ff bc
       -0.08837761 -0.29609442 0.013469953 -0.031139035
000250 bd 9f 10 bd 3e b7 6c be fa 7b ec bd 2a 81 01 3c
       -0.03530859 -0.23116776 -0.11547084 0.00790433
000260 02 d4 d9 bc ce ce 1e be e5 77 f3 bd 37 6e 7f 3e
       -0.026590351 -0.15508577 -0.118881024 0.24944387
000270 eb 27 be bc 73 62 09 be 44 01 ab 3e 3d 39 7f 3e
       -0.023212394 -0.13416462 0.33399403 0.24924178
000280 3e 52 41 be 49 73 ee bd e4 7e 30 3e 96 24 ab 3e
       -0.18879029 -0.11643083 0.17235905 0.3342635
000290 b7 60 64 bd e6 13 57 bd 33 9c 25 bc d7 7c 47 3d
       -0.055756297 -0.05250921 -0.010108042 0.04870304
0002a0 ae 2a 30 be cd 7b bc 3c 96 21 63 3e 02 b1 36 3e
       -0.17203781 0.023008252 0.22180781 0.1784096
0002b0 11 0c 3a 3e 0c ec d3 3d 12 7e 08 3e 20 86 24 3a
       0.18168665 0.10347757 0.13329342 0.00062760897
0002c0 8d 40 61 bc 8b 29 8f 3d ff 34 07 3e d0 9c 76 3d
       -0.0137483 0.069903456 0.1320381 0.06020814
0002d0 c3 eb 8f 3d a1 f6 97 bc 7b 50 fc bd e9 29 60 bd
       0.0702739 -0.018550219 -0.12320038 -0.05472747
0002e0 5e 4a 96 be be cc 8d 3e 88 fb 45 be 8d 43 38 be
       -0.29353613 0.27695268 -0.19334233 -0.17994519
0002f0 df 02 be 3e 51 53 7e bd 1d 02 67 be 54 83 c7 3d
       0.37111565 -0.062091175 -0.225594 0.09741846
000300 bf b4 3d 3e 97 d0 77 be d1 31 ff 3b db 54 1a be
       0.1852598 -0.24200664 0.007787921 -0.15071432
000310 6f 1b 28 3e 73 d8 04 3e c3 4e 06 bd e2 a6 1c be
       0.16416715 0.12973194 -0.032789957 -0.15298036
000320 10 98 98 be 99 14 a8 bd eb 9b 27 3e cc 87 84 3c
       -0.29803514 -0.08207054 0.16368072 0.016178034
000330 e5 34 98 bd d0 5c ba bc 5b 56 b5 bd 2b d9 74 be
       -0.07431964 -0.022749335 -0.088543616 -0.23910968
000340 f7 2e 23 bd 47 f5 70 3d e0 a1 3e 3d 3e 43 19 bd
       -0.03983971 0.058827665 0.046541095 -0.037417643
000350 ce e7 b5 3c 70 75 84 be f3 16 5f be 95 ba 2a bc
       0.02220526 -0.25870848 -0.21786098 -0.010420461
000360 50 12 6b 3e 83 b5 e6 3d bc 14 a7 bc 3d 31 bb bc
       0.22956204 0.11265089 -0.02039563 -0.022850627
000370 31 05 c4 bd bd a3 83 be 50 b9 86 bd 4b 73 f0 3d
       -0.09571303 -0.2571086 -0.06578314 0.117407404
000380 56 6a 58 bd aa b1 43 3e 3d a3 57 be 1c 44 00 3a
       -0.052835785 0.19110742 -0.21058364 0.00048929616
000390 61 4b a0 3c 87 55 98 bd 0a 2f 1f bc 70 20 94 3d
       0.019567193 -0.07438188 -0.009715805 0.072327495
0003a0 00 46 72 be dc 02 a3 bb 6e 0c 77 3d 2c 63 39 3e
       -0.23659515 -0.004974706 0.06031459 0.18104237
0003b0 16 41 ad bd a6 35 0f 3e 95 9e 92 3d 8d 48 54 3d
       -0.0845968 0.13985309 0.07159153 0.051827002
0003c0 92 52 8c 3d d7 27 23 be e9 a4 27 3e 31 5a 9b bb
       0.068516865 -0.15933166 0.16371502 -0.0047409763
0003d0 b9 60 9f be 39 fe 24 3e 84 6d 9a 3d dc 8f 0a 3d
       -0.3112848 0.16112603 0.0754042 0.0338286
0003e0 45 20 51 be 01 a6 d9 bd a9 1a e7 bd 27 2f d2 3d
       -0.20422466 -0.10627366 -0.11284382 0.102629
0003f0 25 28 e4 bd a0 58 d7 3d 77 37 41 be 89 8d 02 be
       -0.111404695 0.10514951 -0.18868814 -0.12749304

hiden_layers.0.bias f4 [64]
000000 33 75 a2 3d fc 97 c8 3d f1 87 13 be 4d aa 31 bd
       0.0793251 0.09794614 -0.14407326 -0.043375302
000010 fb bf f0 3d 2a 82 ec 3d fe 84 fc 3d 8a 3d f0 bd
       0.11755367 0.11548264 0.12330054 -0.11730488
000020 0b d9 92 bd d3 19 b7 bd 8a 1c 25 be ab 9f ca 3d
       -0.07170304 -0.089404725 -0.16124168 0.098937355
000030 98 17 85 3d 0a 0d ee bd 63 c5 cc 3d 51 fe d6 bd
       0.06498641 -0.11623581 0.09998586 -0.10497726
000040 a8 53 0f be ab a2 ab 3d 72 21 bd 3d 16 7a 99 3d
       -0.13996756 0.08380636 0.09234895 0.07493989
000050 32 85 13 3d 9d 12 9a 3d 9a ec e9 bc 27 59 bf bd
       0.036015697 0.075230815 -0.028555203 -0.09343176
000060 9a 80 df bc 5b 6d 65 3d 1a 3e 88 3d a0 2f cb bd
       -0.027283002 0.056012493 0.0665247 -0.09921193
000070 34 38 e9 3d 91 cb 04 3e b9 2e fb 3d 90 7c 59 bd
       0.11387673 0.1296828 0.12264771 -0.053097308
000080 44 7c 2f 3d 60 45 da bd 9c 37 5b bd ca 4f a5 bc
       0.04284312 -0.106577635 -0.05351983 -0.020179648
000090 93 7f f4 bc 54 9a de 3d f2 59 95 3d 12 12 c4 bc
       -0.029845988 0.108692795 0.07292546 -0.023934398
0000a0 e2 c3 0d be a6 1e ac 3d 30 f1 b6 bd 65 df 6f 3b
       -0.13844255 0.08404283 -0.089327216 0.003660166
0000b0 4b 6b c9 bd 26 24 b3 3c 9c f6 e1 bd 62 40 fc 3b
       -0.09834918 0.021867823 -0.11033365 0.0076981047
0000c0 03 c0 7d 3d 6e 96 84 3c 0f 7a 01 3e c2 2f cb bd
       0.061950695 0.016185012 0.12644218 -0.099212185
0000d0 dc e2 c0 3d e5 7f c6 bd 9e be e7 3d 54 a6 bf 3d
       0.0941827 -0.09692363 0.11315654 0.093578964
0000e0 06 19 5e bd 5b f2 28 3e bd 90 45 3d 99 f0 9a 3d
       -0.054223083 0.16498701 0.048233736 0.075654216
0000f0 e9 82 ff 3d 87 d1 62 3c f1 35 17 bc f5 d2 ef bd
       0.12476141 0.0138439005 -0.009229169 -0.11710159

hiden_layers.1.weight f4 [64, 64]
000000 52 2a e7 bd 82 c8 ce bd a4 37 b3 be 12 20 4c 3e
       -0.11287369 -0.100968376 -0.35003388 0.19934109
000010 1b 6c 12 bf 48 73 17 3e 6c 5c 39 bc 0a 76 5a be
       -0.57196206 0.1479007 -0.011313539 -0.21334091
000020 f5 e0 4d 3c 47 1c e7 3d 26 50 ea bc a8 da 89 be
       0.012565841 0.1128469 -0.02860267 -0.26924634
000030 05 13 bc 3d 24 c9 3b bd 1c c6 6f be b7 48 53 be
       0.09183315 -0.04584612 -0.23415416 -0.20633207
000040 97 c8 5e bd 0b 85 b1 3e 36 9e 66 bd ad 86 1d 3e
       -0.054390516 0.34671816 -0.056303225 0.15383406
000050 b7 aa 7c 3e a4 c9 93 3c 0f 8f a0 3d 5f 94 69 bd
       0.24674498 0.018040486 0.07839786 -0.057026263
000060 a9 36 3d be c1 2f 89 be 69 c6 9d bc 80 74 99 3e
       -0.18477882 -0.26794246 -0.019259648 0.29971695
000070 06 a2 27 be 4a ab b5 be dd 4c a4 be 80 0b dd ba
       -0.16370401 -0.35482246 -0.32089892 -0.0016864389
000080 31 9c c9 be c4 ef a7 3e 51 64 89 be 07 5f aa be
       -0.39376977 0.32800114 -0.26834348 -0.33275625
000090 df d1 34 be da b7 af bd 6d 29 2f bd 7b 0e 01 3e
       -0.17658184 -0.08579989 -0.042764116 0.1260318
0000a0 4f fb 2b 3e f9 40 a1 3e 53 15 e1 bd ed 9b a4 3e
       0.16795085 0.31494883 -0.109903954 0.32150212
0000b0 67 6d f8 3e 76 65 31 be 12 49 62 3e e5 75 5f bd
       0.48520967 -0.1732386 0.22098187 -0.054555792
0000c0 67 19 29 3e 80 cd 99 be 8f 34 d7 3c 03 4b a8 3e
       0.16513596 -0.30039597 0.02627018 0.3286973
0000d0 b2 b9 57 be f7 d2 5d 3e 4b 7a e7 ba 80 a6 3e be
       -0.21066931 0.21662508 -0.0017660348 -0.18618202
0000e0 5e 99 06 3e a1 74 4b be 1e 76 a8 be 6a 09 84 3d
       0.13144442 -0.19868709 -0.32902616 0.06447108
0000f0 20 88 1a 3e 06 92 3e be 07 47 a9 bd f4 a9 8c be
       0.1509099 -0.18610391 -0.082655005 -0.27473414
000100 e1 85 4d 3d 7a 59 96 bc 20 d4 29 be 59 f1 c9 3d
       0.050176505 -0.018353213 -0.16584826 0.098604865
000110 90 84 d0 bd f7 e9 1d bd bf 05 80 be c6 d6 b1 3b
       -0.10181534 -0.038553204 -0.25004384 0.0054272143
000120 2c 67 61 3e c5 7e c6 bd 06 34 74 3e 03 33 c6 3d
       0.22012013 -0.09692148 0.2384797 0.096776985
000130 d3 b6 3d 3d 60 af 4e bd d5 58 37 3e ea a8 bb 3d
       0.046316933 -0.05046022 0.1790498 0.09163077
000140 46 e1 17 3e 59 79 95 bd ba 78 e2 3d ea e0 c2 3d
       0.14832029 -0.07298536 0.11058183 0.09515555
000150 24 55 1d 3d 09 9c 6e 3e 98 5e 54 be 8a 95 c1 3d
       0.038411275 0.2330171 -0.2073921 0.094523504
000160 02 52 39 3e cf 80 87 3e 64 eb 4d 3e 33 a2 47 bd
       0.1809769 0.2646546 0.20109326 -0.04873867
000170 cd 08 03 be be 69 a2 3d 7d 81 06 bd df 09 22 3e
       -0.12796326 0.07930325 -0.032838333 0.15824078
000180 1b 14 43 3e f4 c0 26 3e 7c 82 50 be 48 47 1c be
       0.19050638 0.16284543 -0.20362276 -0.15261567
000190 1b 79 a8 be 3e 20 76 bd 13 a2 54 bd 4c f0 54 be
       -0.32904896 -0.060089342 -0.05191238 -0.20794791
0001a0 cb 01 27 be c5 82 88 be 99 93 95 bd 36 40 34 be
       -0.16309278 -0.2666227 -0.07303543 -0.1760262
0001b0 c1 dc 28 3c ce 88 2d bd ab 75 a9 bd 1b 37 f6 be
       0.010306538 -0.042366795 -0.082743965 -0.48088917
0001c0 1c 88 68 3e f5 ee 89 3d 7f 40 34 be eb c3 92 3c
       0.22708172 0.067350306 -0.17602728 0.017915687
0001d0 89 1c 2d 3d 41 3e 44 bd a9 38 d3 bd f5 f6 78 bd
       0.04226354 -0.047910932 -0.103135414 -0.06078239
0001e0 61 0a 19 bc 35 9b 2f 3e 62 bf 66 be e9 79 e3 3d
       -0.009340853 0.1714905 -0.22533944 0.11107237
0001f0 94 e2 a8 bc 9f d5 68 bd 76 14 a3 bd 77 e1 70 3e
       -0.020615853 -0.05684435 -0.07962887 0.23523508
000200 46 59 59 3d bf e0 8f 3e 0b fc 50 3b 89 0a b8 3d
       0.053063653 0.28101155 0.003188851 0.089863844
000210 b0 19 f7 3e cd ef 71 3e ba d6 0b be fb f3 0e 3e
       0.48261786 0.23626633 -0.1365613 0.13960259
000220 fb 9f b9 3d c8 2b c9 bd c8 8d 82 be 9d 47 a6 3d
       0.09063717 -0.09822804 -0.25498796 0.08119128
000230 24 72 3a 3d 49 68 74 3c 43 01 ea 3e 27 fc d1 3d
       0.04551901 0.014917442 0.45704088 0.10253172
000240 70 bd 0e be ed 87 d8 bd 24 c2 d4 3d 61 67 fa bc
       -0.13939452 -0.10572801 0.10388592 -0.030566873
000250 39 8d 5e 3d 7b 48 79 be cd bf ac be b7 40 39 be
       0.0543339 -0.24344055 -0.33740082 -0.18091093
000260 29 2c 87 bd b6 8b 95 3e b1 67 e4 bd 0e cc 0c be
       -0.0660022 0.29208153 -0.1115259 -0.13749716
000270 ab 5f ba 3e 56 b0 02 3f 0b a0 c7 3e 3c 68 84 3e
       0.36401114 0.5105032 0.3898929 0.25860775
000280 8c 0a 83 3e f1 a2 50 be 47 4a 02 bd 34 4f 0c be
       0.25593984 -0.20374657 -0.031809118 -0.13702089
000290 c9 a3 d9 3d eb 32 80 3c 47 88 c5 bc ec 6b 30 be
       0.10626943 0.01564928 -0.024112834 -0.17228669
0002a0 5b a2 98 be 20 f5 11 be 5a d8 56 be 47 10 df bd
       -0.29811367 -0.14253664 -0.20980969 -0.108917765
0002b0 54 cf 87 be 9f f2 06 3e c1 d9 b9 be 5f 17 a8 3d
       -0.26525366 0.1317849 -0.36298946 0.08207583
0002c0 1e 78 7f bd 12 8a 3d 3e 38 b0 1d 3e 57 df f9 be
       -0.062370412 0.18509701 0.15399253 -0.48803207
0002d0 7f c1 56 3d 2a ab eb be 36 41 1e 3e 7b 73 88 bd
       0.052430626 -0.46029025 0.15454563 -0.06662651
0002e0 e9 7a 27 be ad 2b b2 3e 7c 77 9f bd 65 2d 30 3d
       -0.1635548 0.34798947 -0.07786462 0.04301204
0002f0 88 fe 61 3c 49 7f 6e 3e 84 9e 89 3d 27 a1 d7 3c
       0.013793595 0.23290743 0.067196876 0.02632196
000300 f4 5f 1c 3e 93 73 00 3d 9a 11 4a be 52 bb e3 3d
       0.15270978 0.03136022 -0.19733277 0.11119713
000310 a1 2a 07 3f 23 28 64 be 93 b1 92 bd 9c cd 38 be
       0.5279942 -0.22280936 -0.07162776 -0.18047184
000320 f1 35 1e 3a 4e 1d 88 bc 29 ac e8 bd 72 46 92 3e
       0.00060352596 -0.016615536 -0.11360962 0.2856937
000330 71 fc 85 3e d5 2e f5 3d b0 f2 4d bc 74 55 9d 3d
       0.2616916 0.11971823 -0.012570068 0.076823145
000340 4d 66 5e bd b9 f9 1b be e3 86 a9 3d c3 bf b7 3d
       -0.05429678 -0.1523198 0.08277681 0.089721225
000350 a4 68 04 bd 55 d2 6e be 66 60 f9 3d 4c 48 e9 3d
       -0.032326356 -0.23322423 0.1217659 0.11390743
000360 2f 24 19 3e 60 2d 91 3d 00 32 ba bd cb 9b 19 bd
       0.14955209 0.07088733 -0.09091568 -0.03750209
000370 84 10 c8 3e 49 88 b7 3e 55 0d 2e 3e c8 92 2f 3e
       0.390751 0.35846165 0.16997273 0.17145836
000380 b8 a3 3e 3e d9 b0 bd bd 05 b0 a6 bd 4c 7d b0 3d
       0.18617141 -0.09262247 -0.08139042 0.086176485
000390 9b 86 ae 3d bd 48 2c 3e d5 3e a5 3d 8f 16 2e 3e
       0.08521768 0.16824622 0.08068625 0.17000793
0003a0 c1 c5 bd 3c ff a1 14 bc bc d4 44 3e 4d ef 93 3d
       0.023165585 -0.009071826 0.19221777 0.072233774
0003b0 f4 b3 0b be 08 73 c1 bd 9b 6f 74 be 24 c7 17 be
       -0.13642865 -0.094457686 -0.23870699 -0.1482206
0003c0 60 bd 35 bc e1 d0 ad 3d 03 9b 18 bd c3 fd 95 3d
       -0.011092514 0.08487106 -0.037257206 0.07323792
0003d0 13 a2 40 3e ec 08 7e bd 7e 43 67 be 4b 51 79 bd
       0.18811826 -0.062020227 -0.2258434 -0.060868543
0003e0 94 7c d8 bd e8 8f 9b bd 61 6d 2d 3e ac 8b 8b bc
       -0.105706364 -0.07595807 0.16936256 -0.017034374
0003f0 af 12 02 be 58 b2 5d 3e ea 57 5d 3d 19 e9 58 be
       -0.1270244 0.21650064 0.05403892 -0.2118267

hiden_layers.1.bias f4 [64]
000000 bf 22 28 bd 13 6f 21 3d 06 b3 59 3e cb 5d 31 3d
       -0.04104876 0.03941257 0.21259698 0.04330234
000010 e1 89 94 3d c9 20 93 3d b7 d5 71 bd 2d 5b 1d 3e
       0.07252861 0.07183988 -0.059041705 0.15366812
000020 aa a7 18 3e 12 97 0d bd 26 3a 29 bd 0a ff cd bd
       0.14907709 -0.0345679 -0.04131522 -0.100584105
000030 5f b3 3a 3d 95 75 b4 3d b0 43 30 3e c6 f1 ab bd
       0.045581218 0.088114895 0.1721332 -0.08395724
000040 52 e8 8a bc 54 ec 93 bd 50 9e 08 3d 9c 1e 88 bd
       -0.016956482 -0.072228104 0.033354104 -0.06646463
000050 f4 42 bb 3d 89 4a 8a bd b7 ae bc bd 81 e7 81 3d
       0.0914363 -0.06752498 -0.09213012 0.06342984
000060 cf 4d 3d 3d 17 bc 5c 3d 63 c8 c6 3d 5e a9 b9 3c
       0.046216782 0.053890314 0.097061895 0.022663768
000070 d3 65 b0 bd c1 19 35 bd bc ab c8 3d 30 c5 2e 3d
       -0.086131714 -0.044214014 0.09798381 0.04266852
000080 8f 6d b1 bd 4b b8 d4 3d c9 3c 10 be 2b 07 03 bd
       -0.08663475 0.103867136 -0.14085688 -0.031989258
000090 5e a2 85 bd bf 03 7a 3d ec 88 a8 bd 49 2e 19 3e
       -0.0652511 0.06103873 -0.08229241 0.14959063
0000a0 20 ce ad 3d 6c 69 ae bd f1 0e 9f 3c 88 9d f8 3d
       0.08486581 -0.085162014 0.019416304 0.12139422
0000b0 52 4b dc bc 52 eb 67 3d f9 a2 ae bd 3d d8 db 3d
       -0.026891384 0.056620903 -0.08527178 0.107346036
0000c0 78 66 3c be 53 11 89 3d b6 fa b1 3d ee 10 71 3d
       -0.18398464 0.066927575 0.086903974 0.058854036
0000d0 6a e7 52 bd 07 1e 97 bb 85 11 ac bd c3 bb 50 be
       -0.051490225 -0.004611734 -0.08401779 -0.20384125
0000e0 c7 97 98 3d 14 f4 68 bd 1b 31 56 bd de c7 70 bc
       0.07450824 -0.056873396 -0.052292924 -0.01469609
0000f0 7b a3 a5 bd c1 31 c5 bc eb fe b3 3d f8 19 96 bd
       -0.08087822 -0.024071576 0.08788856 -0.07329172

hiden_layers.2.weight f4 [64, 64]
000000 fe 19 1e be 04 82 46 3e a2 e3 6f 3c 34 4d 56 3c
       -0.15439603 0.19385535 0.014641674 0.01307993
000010 bd 63 bd bc 4e 0b f1 bd a0 b0 8d be 61 49 9a be
       -0.023118848 -0.11769734 -0.27673817 -0.3013411
000020 6d 4e d7 be 63 ec 87 bd b8 76 84 3d ce 3c cc bd
       -0.42052022 -0.06636884 0.06467956 -0.09972535
000030 15 d0 71 bd 8f 6e cc 3d 27 12 71 bd 1a 78 57 3e
       -0.059036333 0.09982025 -0.058855202 0.21041909
000040 dc 87 c3 3e 72 bf 85 bc a4 b1 5d bd d7 fd 66 be
       0.3818959 -0.01632664 -0.05412449 -0.2255777
000050 e7 56 45 3e 9b ef 25 3e 1b 99 86 be 80 3b b7 3e
       0.19271432 0.16204683 -0.26288685 0.35787582
000060 f3 68 8d 3b 25 31 5a be 48 55 40 be 69 72 06 3d
       0.0043154894 -0.2130781 -0.18782532 0.032823954
000070 37 a7 ec 3b 22 96 0d be 96 05 46 3e 5d f5 bf bc
       0.007222082 -0.13826802 0.19338068 -0.023432428
000080 66 03 3c be ac 77 93 3d 67 43 76 be 21 5a 69 be
       -0.18360671 0.0720056 -0.2404915 -0.22788288
000090 56 42 8c 3e 80 eb 0b 3e 7a b5 83 3c 77 ff 7f 3d
       0.2739436 0.13664055 0.016077746 0.06249949
0000a0 9a aa d3 bd 75 b8 5e 3e f1 8f fe bc 8d d2 41 3e
       -0.10335274 0.21750052 -0.031074496 0.18927975
0000b0 ea c2 15 3e e9 d3 0b 3c 63 ff e5 3d 19 d1 4e 3e
       0.14625135 0.00853441 0.11230352 0.20196952
0000c0 db 3a 1b 3e 73 ca 1f 3e 09 43 3f be 69 cb 42 be
       0.1515917 0.15604572 -0.18677916 -0.19022907
0000d0 76 a5 1a be 83 4e 9e 3d bd d7 e0 3d a1 7e 80 3e
       -0.15102181 0.07729819 0.10978649 0.2509661
0000e0 d8 bd 2c bd 15 36 96 3d 68 2e 59 3e a9 4d 6d 3c
       -0.042173237 0.07334534 0.21209109 0.014483848
0000f0 1a f2 09 be 7f af af 3d 3f 36 e9 3d d2 be 05 3e
       -0.1347126 0.08578395 0.113873 0.13061073
000100 fa ff 14 3d 0c 96 a6 3d 66 23 97 3e 50 c2 46 3e
       0.03637693 0.08134088 0.29519194 0.19410062
000110 88 02 10 3e 53 c4 87 3e ae 25 04 3e e8 34 83 3e
       0.14063466 0.2651697 0.12904999 0.25626302
000120 da 2a ed 3d ea 54 e7 3d 8a 82 4e 3e f3 9e 95 3d
       0.11580439 0.11295493 0.20166984 0.07305708
000130 98 16 61 bd e9 bf 9b bd 86 ab 12 bd f1 60 09 3e
       -0.054953188 -0.07604963 -0.03580811 0.13415886
000140 5d 7f d9 3d 44 23 35 be 63 89 16 be c2 e6 90 be
       0.10619996 -0.17689234 -0.14700846 -0.28301054
000150 90 1c de 3c 2c 2f 34 be 1f df 03 be bb 1d 35 bc
       0.027113229 -0.1759612 -0.12878083 -0.011054452
000160 2d aa 83 3d ff 4a 37 3e 53 45 6e 3e af 2d fe 3d
       0.06428943 0.17899702 0.23268633 0.12411057
000170 c1 81 86 be 09 c2 48 3e 45 34 35 bd a3 34 2f be
       -0.2627087 0.19605269 -0.0442393 -0.17109923
000180 f1 90 2c bd 04 b8 3d 3e dd 3f 54 bd fa 2b a9 3d
       -0.042130414 0.18527228 -0.051818717 0.08260341
000190 cf 3f 2a 3e 98 9f 50 3e 27 8f ec 3d 8a e4 9c bd
       0.16625904 0.2037338 0.11550742 -0.07660778
0001a0 1b 43 87 3d a4 86 02 bf 9f c2 b3 bd 8a b3 6f 3c
       0.06604596 -0.50986695 -0.087773554 0.014630208
0001b0 f3 30 23 3e 78 cd ad 3c 19 82 a7 be 74 9b 4d 3e
       0.15936641 0.02121614 -0.32716444 0.20078832
0001c0 00 a4 90 be bf 36 cf 3d 3a 7f 69 bd 26 df 38 be
       -0.28250122 0.10117864 -0.0570061 -0.18053874
0001d0 dc 41 87 be a7 21 08 3d 13 4b b2 bd 90 c3 e6 bd
       -0.26417434 0.03323522 -0.087057255 -0.11267769
0001e0 e0 a7 b4 3e 02 d4 57 be 88 92 83 be d1 52 b0 3e
       0.35284328 -0.21076968 -0.25697732 0.34438184
0001f0 2b 21 3d bd 0c 33 57 3e 85 9a 82 3e 35 bf 23 be
       -0.04617421 0.21015567 0.25508514 -0.15990908
000200 78 ad 77 3e c5 92 58 be e9 4b d0 be 23 7b 0b be
       0.24187267 -0.21149738 -0.40682915 -0.13621192
000210 c0 53 b4 3d 7d b7 ea 3d 47 a3 33 3e 0f 65 ff bc
       0.088050365 0.11460779 0.17542754 -0.031176118
000220 63 97 34 be 66 0d ba 3e c4 e1 10 3d 50 39 6e 3e
       -0.17635874 0.36338347 0.035371557 0.2326405
000230 60 ff 23 3e 06 c5 13 3e 46 e2 44 be 4a 13 50 3e
       0.16015387 0.14430627 -0.19226941 0.20319858
000240 6a 61 14 bc cf 92 4c bd a5 7d 6f 3d 2d 6b 3a be
       -0.009056428 -0.049944695 0.058469433 -0.18204947
000250 75 f4 67 be f4 e4 81 3d 95 3e 6e 3e ad d2 ca bd
       -0.22651847 0.063424975 0.2326606 -0.099034645
000260 80 fb 1d be d0 8a 92 be 1b bb 9a bd 46 71 2e bd
       -0.15427971 -0.2862153 -0.07555219 -0.042588495
000270 fa b5 60 3e f8 bf 1f 3d 82 84 ba 3d 19 19 4c 3e
       0.21944419 0.039001435 0.09107305 0.19931449
000280 c8 70 80 3c ee 41 39 be 7c 1b 70 3d 05 63 2e bd
       0.015678778 -0.18091556 0.05861996 -0.0425749
000290 bc ab 84 3e 1a 1d c6 bd dc e6 40 be 74 83 14 3d
       0.25912273 -0.096735194 -0.18838066 0.036258176
0002a0 83 8a 1a 3e 1d 55 8d 3e f7 f9 14 be 41 04 b1 bd
       0.150919 0.27604 -0.14548479 -0.086433895
0002b0 55 16 26 3e 70 9e 94 bc 29 af b7 3d 37 0c 3e bc
       0.16219456 -0.018141955 0.08968956 -0.011599592
0002c0 44 7f 11 3f 87 d9 a7 3d 6c ff 99 be 50 3f 6e 3e
       0.56834817 0.08195787 -0.30077684 0.2326634
0002d0 2f c8 3f be 7d 2b 72 3e 4f 1a 41 3e 0c 1c 32 bc
       -0.18728708 0.23649402 0.18857692 -0.010870945
0002e0 63 f1 4d be 91 20 08 3e 4e d1 24 be 9b e8 bf bd
       -0.20111613 0.13293673 -0.16095468 -0.09370538
0002f0 88 ca bb bb 82 25 81 3e b5 f9 3d 39 d1 2a 0f 3e
       -0.0057309307 0.2522393 0.00018117468 0.13981177
000300 ff 4b 07 3e 4f 8d 63 be 31 38 6e be 6b 68 2e 3e
       0.13212584 -0.22221874 -0.23263623 0.1703202
000310 32 9f 9c be fe 47 4c bd ea 07 9a 3d 56 28 8c be
       -0.30590206 -0.049873345 0.07521041 -0.27374524
000320 52 3d 4e bd 9c 73 8c 3e 53 47 79 3e 65 7b 4e be
       -0.05035145 0.27431953 0.24343614 -0.20164259
000330 6e d1 44 3e 11 54 00 bb 28 dd 3f be eb e2 b6 3d
       0.19220516 -0.0019581357 -0.18736708 0.0893
000340 85 78 2c 3d 9e 7b 38 be 80 12 90 be 37 81 d1 bd
       0.042107124 -0.18015906 -0.28139114 -0.10229724
000350 3f a6 97 be 91 a2 99 bd 0d 11 0e 3e 23 6a d4 bd
       -0.29619023 -0.0750171 0.13873692 -0.103718065
000360 33 a0 43 bd 1d bd fe bd c7 e8 72 3d a3 fe d0 3d
       -0.0477602 -0.12438414 0.059304025 0.10204818
000370 a5 fe 8c bd 26 17 6e 3e ad c9 28 3d 63 ce 52 be
       -0.06884507 0.23251018 0.041207958 -0.20586543
000380 6f 13 24 be 1e aa 76 be 05 d5 b3 3e 4c 2c 66 3e
       -0.16023038 -0.24088332 0.35123459 0.22477835
000390 4f 51 92 bd 8f 4f 35 3e 56 a5 5e 3d 8a cf 17 be
       -0.07144415 0.1770613 0.054356895 -0.14825264
0003a0 49 47 08 3e df 7d c6 bd a9 93 42 3d 16 4f aa 3d
       0.13308443 -0.09691977 0.0475041 0.08315866
0003b0 74 28 e1 3d 8f d6 45 be 09 e4 c9 3c b6 6e a2 bd
       0.10994044 -0.19320129 0.024644868 -0.07931273
0003c0 99 3a 2b 3e 64 87 3b 3c c8 58 fd 3d 92 61 63 be
       0.16721572 0.011445854 0.12370449 -0.22205189
0003d0 be e3 b6 bc 80 29 cc bd 63 7a e1 3d 30 68 a1 bc
       -0.022325393 -0.09968853 0.110096715 -0.019703
0003e0 cc 65 21 3e 47 07 ef 3b ad c1 39 bd f3 26 a8 3e
       0.15761489 0.0072945687 -0.04535072 0.32842216
0003f0 52 33 d1 3d 19 20 70 bd 58 2e 47 3e d4 c9 b2 bc
       0.10214867 -0.05862436 0.19451272 -0.021824755

hiden_layers.2.bias f4 [64]
000000 e1 9d 5e 3c ea 96 5a bd e7 e4 a6 3c 80 dc 06 bd
       0.013587446 -0.05336658 0.020372821 -0.03292513
000010 20 43 fc bc 80 ac a7 bc 2d 28 b3 bc bc 79 14 3d
       -0.030793726 -0.020467997 -0.021869743 0.036248907
000020 bc c8 ba 3a 1d ec 16 3d c7 15 b3 3c 1e 93 47 bd
       0.0014250497 0.03684627 0.02186097 -0.048724286
000030 45 e0 68 bc 10 f4 d3 bc 0e c9 a3 3d 41 fa 43 3d
       -0.014213626 -0.025873214 0.079973325 0.047846083
000040 74 cb 79 3d 89 88 04 be 5b 3a 84 3d fa 3b 90 3d
       0.060985044 -0.12942709 0.06456443 0.070426896
000050 17 e6 1f 3e b2 15 cb bc 74 5d a1 3d 36 76 a7 3d
       0.15615116 -0.024790619 0.07879153 0.08176844
000060 cc 30 7d bc 27 f1 18 be c8 cd 1c 3d 93 8a e7 bd
       -0.015453529 -0.14935742 0.038282186 -0.11305728
000070 32 b0 f7 3c fe d0 30 3b 77 bb cc 3d ab 75 e2 bc
       0.030235384 0.0026980038 0.099966936 -0.027644
000080 f7 92 71 bd 55 c5 4b bd ad 1e f7 bc 7d 5e cc 3d
       -0.058978047 -0.049748737 -0.030165995 0.0997896
000090 a0 6b 62 bc b2 ef 40 3d 95 87 08 bb e8 39 3d 3d
       -0.013819605 0.04710359 -0.0020832766 0.0461978
0000a0 88 de 08 3d 86 20 b7 bd 8e 2d 9f bd 32 c8 86 3d
       0.033415347 -0.0894175 -0.07772361 0.06581153
0000b0 f8 94 25 3e 37 5a cb 3c 10 c2 00 bd fb ba 7e 3d
       0.16170108 0.024823291 -0.031435072 0.062190037
0000c0 ae 25 a7 3d 59 fe 82 bd 07 5e 58 3d 37 e1 44 be
       0.08161484 -0.06396169 0.052824046 -0.19226538
0000d0 a4 48 c9 3c 83 d7 a7 bc 72 e1 bc bc 37 75 cf bd
       0.02457077 -0.020488506 -0.02305672 -0.10129779
0000e0 b9 61 16 be 47 1b 1b 3d 98 2e ef bb cc 33 d5 bd
       -0.14685716 0.03786781 -0.0072992556 -0.1041027
0000f0 e0 d9 d5 bd 38 f7 ba 3d 31 77 cb 3d 42 21 c0 3d
       -0.10441947 0.091291845 0.09934843 0.093813434

hiden_layers.3.weight f4 [64, 64]
000000 70 fa 38 be c2 ac 44 3e 34 44 aa 3e f2 87 e6 bb
       -0.18064284 0.19206527 0.3325516 -0.007035249
000010 b9 35 74 bd 31 2f 1b 3d 5a 08 56 bd 04 5b 97 be
       -0.059621546 0.037886802 -0.05225406 -0.29561627
000020 1f 6d df bc ea 4f 7c bc eb 7d 09 3e b9 de aa bd
       -0.027273713 -0.015399912 0.1342694 -0.08343262
000030 ae f2 a2 3e 0b 4b 6b be 48 cb 7d 3e ac af 30 bb
       0.31825775 -0.22977845 0.24784577 -0.0026960177
000040 e0 c8 28 bd 06 1d a5 be 1f 13 8f bd ba b3 cb bd
       -0.041207194 -0.32248706 -0.06986069 -0.099463895
000050 c6 93 d1 3e 5f 59 61 be b9 2e 72 3e 63 1e 1d 3e
       0.40933055 -0.22006749 0.23650636 0.15343623
000060 94 92 86 3e 1b 08 52 3d 5b 1b a3 bc aa 48 8e bd
       0.26283705 0.05127726 -0.019910505 -0.06947453
000070 f6 a3 ce 3d cd 95 73 3e c4 bb 0e 3e 77 e9 43 3e
       0.10089867 0.23787613 0.13938814 0.19132029
000080 88 28 97 3d 42 c1 18 3d 7c 4a d7 bd 7e ce 40 3e
       0.073807776 0.03729368 -0.10512254 0.1882877
000090 e1 9e f2 3c 7f de 70 3d ed 1f ef bd b8 32 e7 bd
       0.029616775 0.05880594 -0.11676011 -0.11288971
0000a0 81 6a 7c 3d 36 73 76 be 20 09 26 be 51 3d 70 be
       0.061625008 -0.24067387 -0.16214418 -0.2346089
0000b0 90 58 00 3e f5 b6 9b 3e 3b c9 ee 3d fc 1d cf bb
       0.12533784 0.30413023 0.116594754 -0.006320713
0000c0 f7 92 29 3e cf 3b 7a be 28 7c cf 3b a6 f4 2e bf
       0.16559969 -0.24436878 0.0063319393 -0.68342054
0000d0 03 c9 95 3d bf 2c 7b 3e 10 e8 4e 3e 4a c2 98 bd
       0.073137306 0.24528788 0.20205712 -0.07458933
0000e0 b3 54 2e 3e a3 36 a9 3d c7 e7 c5 bd 63 ff 41 bc
       0.17024498 0.08262374 -0.09663349 -0.011840674
0000f0 6c b0 89 bd e6 f4 3d 3e 51 55 15 be 8a bb 36 3e
       -0.06723103 0.18550453 -0.14583327 0.17844978
000100 78 7e 04 be fa 61 ef bc 5c c8 50 be eb 59 10 3e
       -0.12938869 -0.029221524 -0.20388931 0.14096801
000110 48 1d 73 3e fa b3 9d 3e c4 41 7b be f1 27 d7 3d
       0.23741639 0.30801374 -0.24536806 0.10505665
000120 43 9d 88 be 64 26 4f bd 3a 54 13 3e 66 5b 80 3d
       -0.2668248 -0.05057372 0.14387599 0.06267433
000130 bf df 96 3d 61 5b 48 bd 5b e8 b9 bd 65 52 1c 3e
       0.07366895 -0.04891527 -0.090775214 0.15265806
000140 f2 7f 6e 3e 15 bd aa bc ff 2c 25 3e f5 60 2e 3e
       0.23290995 -0.020842114 0.16130446 0.17029174
000150 65 ce 31 3e 83 b7 f2 bd 92 ce b7 bd e8 b8 79 3d
       0.1736389 -0.11851408 -0.08974947 0.060967356
000160 a8 76 0b be 59 e0 2a 3c ad 85 97 3d 83 ea ea bd
       -0.13619483 0.010429465 0.073985435 -0.11470511
000170 be c5 96 3e 04 2b 83 bd 50 42 cc be 33 c6 d4 3b
       0.2944774 -0.06404689 -0.39894342 0.0064933538
000180 d3 f8 fe 3d 71 50 60 bd 45 80 b4 3d 82 62 20 3e
       0.12449803 -0.054764215 0.08813528 0.15662578
000190 63 0e c2 bd 6d 5a 8d be cb 55 4d bd 7f e7 06 3e
       -0.094754 -0.27608052 -0.050130647 0.13174246
0001a0 cd f7 ee 3c 70 17 f0 bd f4 33 8c 3d af 76 f5 3e
       0.029170895 -0.1172322 0.06845847 0.4794211
0001b0 93 0d 7b 3e 12 fd 5c 3d 70 ac 83 3e 15 49 a0 3d
       0.24516897 0.053952284 0.25717497 0.07826439
0001c0 d4 bf 65 3e 38 61 39 be e9 7f 6c be ae cd ce 3e
       0.22436458 -0.18103492 -0.23095669 0.40391296
0001d0 65 2f 8a 3e a7 d8 cf bd 6b a8 bf bd ec 75 25 3e
       0.26989284 -0.10148745 -0.09358295 0.16158265
0001e0 c5 67 87 3e 12 55 2b be e9 b2 a9 3d a2 fb 8a 3e
       0.26446357 -0.1673167 0.082860775 0.27145106
0001f0 03 bc 01 3e 84 fe d9 3d d1 5b 3e 3d cb 3a 6f 3e
       0.12669377 0.10644248 0.04647428 0.23362271
000200 8e 9c 16 3d a6 7a 3f 3e 8e e4 a1 be e3 9f eb bd
       0.036770396 0.1869913 -0.31619686 -0.11505105
000210 57 45 8e bd d4 78 62 3e fb 20 b7 3d 8c cc db bd
       -0.06946819 0.22116405 0.089418374 -0.107323736
000220 a2 1f f7 3d 9f 79 39 bd 26 92 95 bd e6 b7 3f 3e
       0.1206658 -0.045282003 -0.07303266 0.18722495
000230 c5 3b 3b be d5 56 ed bc eb 66 a3 3d b1 6f 45 bd
       -0.18284519 -0.028972069 0.079786144 -0.04820222
000240 27 23 5b bb 1e 29 44 3e 4b 41 0b bd aa 4a 79 be
       -0.00334377 0.1915631 -0.033997815 -0.24344888
000250 bb 5c a7 bd 16 34 4b 3d d5 3f 4b be a4 bb 0c bd
       -0.08171984 0.04961022 -0.19848569 -0.034358636
000260 ca d0 1c be 96 67 a1 bd e5 7b 8a be 75 4f 59 3d
       -0.15314022 -0.078810856 -0.2704765 0.05305429
000270 07 62 33 3e d7 5c 9e be 00 2f 88 bd 0a 37 62 be
       0.17517863 -0.30930206 -0.066495895 -0.22091308
000280 c6 16 51 be 4b 3a 46 bb 75 cf 5e 3e 71 45 17 3d
       -0.20418844 -0.0030247148 0.21758826 0.03693146
000290 3e 83 ae bd d6 c4 c9 bd b5 8a 6c 3e 78 7b 91 3c
       -0.08521126 -0.098519966 0.23099788 0.01775907
0002a0 6c a9 8b 3d b9 ee 8e bd f5 ef 20 bd 85 c1 f0 3c
       0.06819424 -0.069791265 -0.03929134 0.029389152
0002b0 3f 2e b7 3d 1b f1 5e be cc 4d 2e 3e 64 f7 68 be
       0.089443676 -0.21771662 0.17021865 -0.22750622
0002c0 5e cf 52 bd db 95 15 be 6d 23 30 3e c6 3c 68 3e
       -0.051467292 -0.14607947 0.17201014 0.22679433
0002d0 58 a8 d5 3d fb 6a 0d be dc 6b 5b be e3 44 92 be
       0.104325 -0.13810341 -0.21427864 -0.2856818
0002e0 af 36 46 be 10 d7 1f be 04 d1 c8 3d b4 ad 7f 3e
       -0.19356798 -0.15609384 0.098054916 0.24968606
0002f0 d0 e9 58 3e 10 e4 dc bc 16 d7 1d 3e 08 aa 24 3d
       0.21182942 -0.026964217 0.1541408 0.040201217
000300 92 ec f7 3c d1 9b 23 be 11 fb 41 3e 11 fb 25 be
       0.030264173 -0.15977408 0.1894343 -0.16209055
000310 60 ae d0 be 47 89 c2 bd 90 ae 30 3d 0d 67 82 be
       -0.40758038 -0.0949884 0.043135226 -0.25469247
000320 c0 91 0d 3e 6d e3 d4 be 57 e7 91 be c8 8e 4d be
       0.1382513 -0.41579762 -0.2849681 -0.20073998
000330 1c 70 5d be ef c9 30 be 74 da e5 bd ab e8 3e bc
       -0.21624798 -0.17264532 -0.11223307 -0.011652152
000340 e0 a8 9f bd ef a6 24 3d 13 33 0c bd 1d 6c 30 3e
       -0.07795882 0.040198263 -0.034228396 0.17228742
000350 a8 8b 62 3e 9b 84 45 bc 38 b6 c4 bd 3a e5 a8 3d
       0.22123587 -0.012055541 -0.09605068 0.082468465
000360 ee eb 69 3e a1 20 0d 3e 8f fb 6d 3e 62 17 49 3d
       0.22843906 0.13781978 0.23240493 0.049094565
000370 88 4e ae bc 92 47 f9 bd 4a 1f e6 bd cd ac b7 3d
       -0.021277681 -0.12171854 -0.11236437 0.08968506
000380 7e b0 1e 3e 4b 45 f5 3d 21 2f 10 3e f7 41 1b be
       0.15497014 0.11976107 0.14080478 -0.15161882
000390 0d 77 91 be 2a a3 1a bd cc 83 8d be ad bd 49 bd
       -0.2841114 -0.03775326 -0.27639616 -0.049253155
0003a0 c5 db 05 3e bf 82 e3 be bb 64 4c be 51 37 22 3e
       0.13072117 -0.4443569 -0.199603 0.15841414
0003b0 0c 53 04 3e c9 8e f5 bd a3 a9 35 3e 7e 45 7d 3e
       0.12922305 -0.11990125 0.17740493 0.2473354
0003c0 80 98 fd bd a8 c8 54 3e ae bf a8 bd 0f cf f1 be
       -0.12382603 0.2077967 -0.08239685 -0.47228286
0003d0 f6 1d de bd 42 0f 99 3e c2 af c5 3d 05 31 9b 3e
       -0.10845558 0.29894453 0.09652664 0.30310836
0003e0 d2 4e 05 3f 8d 9f f4 3d d9 f1 54 3e c5 89 09 be
       0.52073395 0.119444944 0.20795383 -0.13431461
0003f0 60 8e 04 be 52 70 5d be 4e cd 7f be 31 6d 4a 3d
       -0.12944937 -0.21624878 -0.24980661 0.04942054

hiden_layers.3.bias f4 [64]
000000 09 b1 a3 3d 97 f1 e6 bd 5e 67 00 3e f5 b8 dd 3d
       0.07992751 -0.11276548 0.12539431 0.108262934
000010 c9 36 8c be b1 60 22 bd 1b 58 1f bd f3 b7 1e be
       -0.27385548 -0.039642993 -0.038902383 -0.15499859
000020 c8 1e bf 3e b6 61 b6 b9 6e 67 7e 3c 3b 33 2c be
       0.37328172 -0.00034786545 0.015527589 -0.16816418
000030 4c 21 de bd 70 f9 00 bd 09 29 f6 3c ab f4 b5 be
       -0.108461946 -0.031487882 0.030048864 -0.3553823
000040 7a e4 4e bc a5 cb 5b be 64 58 b6 bc 81 c1 a5 3a
       -0.012627715 -0.21464403 -0.022258945 0.001264617
000050 0b 0e 12 bd be 3c dc 3d c4 46 87 be 1c 13 52 bc
       -0.035657924 0.10753773 -0.26421177 -0.012821939
000060 63 df 84 3d db 6d 29 3e 79 9a 62 be 22 8f a5 bc
       0.0648792 0.16545813 -0.22129239 -0.020209853
000070 5a 7e 96 3d 73 78 af 3d 79 cb 3a 3c d2 d0 70 bd
       0.073483184 0.08567896 0.011401051 -0.058792897
000080 dd 45 f5 3d 88 73 c0 bd bd 0a de bc 0b 0f 52 3c
       0.11976216 -0.09397036 -0.02710473 0.012820969
000090 b9 f1 e8 3d 32 2e 68 3e 3a 0c cc bd 59 a7 bb bd
       0.1137423 0.22673872 -0.099632695 -0.091627784
0000a0 e7 45 27 3e e4 8d 2f be eb 14 a7 3d 5d ed bc bd
       0.1633526 -0.1714397 0.08158287 -0.09224961
0000b0 26 21 38 3c 8c 2b 94 3d f9 01 4f 3e ae 89 7c 3e
       0.011238372 0.072348684 0.20215596 0.24661896
0000c0 31 87 ed bd f7 c3 28 bd 40 72 2b be e2 29 1b be
       -0.11598051 -0.04120251 -0.16742802 -0.15152696
0000d0 a5 87 12 3e 5f c3 cc 3e 4e 8a 3e be 24 f6 44 be
       0.14309557 0.39992806 -0.18607447 -0.1923452
0000e0 52 90 1e 3e 76 63 1c 3e 37 6d 97 3d 0e 83 90 3c
       0.15484741 0.15272316 0.07393878 0.017640617
0000f0 2e b8 c4 bd db 87 95 3e a0 0c 39 be f6 64 ca 3c
       -0.09605442 0.29205212 -0.18071222 0.024706345

hiden_layers.4.weight f4 [64, 64]
000000 fa f0 1c bd 08 16 1b 3e d9 9a b2 3d 54 9c 92 be
       -0.03831575 0.15145123 0.08720941 -0.28634894
000010 8c 78 91 3d da 81 5a bc 22 1f 8a 3d 1a 87 c5 3d
       0.071030706 -0.013336623 0.06744219 0.09644909
000020 25 fe fd be ce 79 ca 3c 60 80 30 bd 0a 37 f4 3d
       -0.4960796 0.024716284 -0.043091178 0.1192456
000030 b4 46 c5 bc 41 7f 47 be 69 3f 74 be 4a bc fe 3d
       -0.024081565 -0.19482137 -0.23852314 0.12438257
000040 ad b2 0a be 2c 63 22 3a 9d 71 55 3e 54 97 3e 3e
       -0.13544722 0.00061945873 0.20844121 0.18612415
000050 90 99 da be ce c6 ce 3d e6 1b 61 bd ff 1a b8 bc
       -0.42695284 0.10096513 -0.054958247 -0.02247381
000060 66 65 55 3d b1 b0 a5 bd 03 1d 2d 3e af 25 4b 3d
       0.052098654 -0.08090342 0.16905598 0.049596485
000070 fc bb 96 be b8 80 49 be e5 64 87 be 3b a0 d4 bd
       -0.29440296 -0.19678009 -0.26444164 -0.10382124
000080 c4 15 98 3e 5f 72 b1 3d ca 38 f3 3d 1c 60 21 be
       0.29704106 0.08664393 0.11876066 -0.15759319
000090 88 fd da 3d 41 3d f2 ba 49 ba ab 3c 9a 7b a8 bc
       0.106928885 -0.001848139 0.020962851 -0.02056675
0000a0 5c f9 24 be f3 54 9d 3c b6 17 76 3e f9 4e 3c 3e
       -0.16110748 0.019205546 0.24032483 0.183895
0000b0 a2 9d c4 bd 35 1f 13 3e d5 63 12 3e ef 98 31 be
       -0.096003786 0.14367373 0.14295895 -0.17343496
0000c0 10 50 71 be 1f 6b 3d be 72 13 1d bd 98 91 ea 3d
       -0.23565698 -0.18497895 -0.038348623 0.11453551
0000d0 63 89 1f be ea a9 7f 3d ed 3f 6c 3e 54 56 3b bd
       -0.15579753 0.062417902 0.23071261 -0.045736626
0000e0 f2 af 0c 3e 83 77 b9 3d 14 82 18 be 88 d8 13 be
       0.13738993 0.09055998 -0.14893371 -0.14438069
0000f0 93 8c 90 3e 4a c4 98 be c4 f3 39 bd fb 4e 02 be
       0.2823225 -0.29837257 -0.04539849 -0.12725441
000100 36 fc 29 3e 10 8e f6 bd b6 44 ae be e5 89 2a 3e
       0.16600117 -0.12038815 -0.34036797 0.16654165
000110 cf 71 06 be e1 e7 8e be fa 05 03 3d 5b 76 3c bd
       -0.13129352 -0.27911285 0.03198812 -0.04601131
000120 29 09 9e be 51 66 49 bd a0 96 8a bd 20 0e 4a 3e
       -0.30866364 -0.049169842 -0.06767011 0.19731951
000130 f5 a5 a0 3e de 19 ea bc 99 db 1b be 8f 46 b8 3e
       0.31376615 -0.028576788 -0.15220489 0.35991332
000140 ae 21 c8 be e2 f5 cf 3d 31 74 d1 3d 3b 5e e9 3d
       -0.39088196 0.1015432 0.1022724 0.11394926
000150 a0 e3 df 3e 50 4c 36 3e ab 46 4b 3e 16 02 c9 3e
       0.43728352 0.17802548 0.19851176 0.39259404
000160 38 c3 2f 3d 18 ce 49 be 86 5d d0 be 33 8e ad 3d
       0.042910784 -0.19707525 -0.40696353 0.08474388
000170 86 66 8b bd d5 44 9f bc 76 94 e5 be 87 ed 2e be
       -0.06806664 -0.019442001 -0.4483983 -0.17082797
000180 92 7f b5 3e f0 6f db 3c d3 08 6e bd 9f ec 5b bb
       0.3544889 0.026786774 -0.058113884 -0.0033557785
000190 a0 19 1b bd 0f bf c4 bb 6f 0e 1c 3e e2 6f 1a be
       -0.037866235 -0.0060042213 0.15239881 -0.15081742
0001a0 8d 89 6e 3e cc 07 88 bd b7 c7 8a 3e c0 6d 94 3d
       0.23294659 -0.06642112 0.27105495 0.07247496
0001b0 7a 59 11 be d8 3f c0 3e 85 48 35 3e e2 bf 32 3d
       -0.14194289 0.3754871 0.17703445 0.043640025
0001c0 88 ea b2 be bf 21 b5 be 60 56 99 be cc f1 04 3e
       -0.34944558 -0.3537731 -0.2994871 0.12982863
0001d0 81 ec 11 3e de 74 39 bf ea c4 85 3e b5 9e 8d 3b
       0.14250375 -0.7244395 0.26126796 0.004321898
0001e0 89 6a 99 3d 65 db 44 be 89 3b 2c 3e 51 01 16 3e
       0.07491023 -0.19224317 0.16819586 0.1464894
0001f0 52 b9 a2 3e 7c 02 82 3e 43 5b f1 bb 1d ca ab 3d
       0.31782013 0.2539252 -0.0073656156 0.083881594
000200 3f 7f 2b be 33 f6 c0 be 75 18 e0 bd ca ad 92 be
       -0.1674776 -0.37687835 -0.10942165 -0.28648216
000210 bc 7c 1f bd e2 67 ae bd 6a 65 13 3e ee 4e 7c 3d
       -0.038937315 -0.08515908 0.14394155 0.06159871
000220 34 72 a1 3c 23 3f e6 bd 25 79 87 bd d5 27 29 be
       0.019707777 -0.11242511 -0.06614903 -0.16519101
000230 69 0b a5 3d af 4f 38 3e cd 30 8e 3e 88 b7 1b bd
       0.08058817 0.17999147 0.27771607 -0.038016826
000240 d2 a7 02 3e 09 91 d2 bc e8 35 7e bd e6 47 14 3d
       0.12759331 -0.025703924 -0.062063128 0.03620138
000250 f8 bf 3e bf e2 a0 53 be 2d 5f 1a bc bf 83 07 bd
       -0.7451167 -0.2066684 -0.009422106 -0.033084627
000260 f3 15 91 be 13 a8 64 be 35 94 2b be b0 18 5e 3e
       -0.28337058 -0.2232974 -0.16755755 0.21689105
000270 e2 31 05 be 5f a5 bf 3d 19 b2 11 be b8 1f 64 3e
       -0.1300731 0.09357714 -0.14228095 0.22277725
000280 56 bb 04 3d 89 cd 45 be 63 1a 1a be e8 96 0e 3e
       0.03240522 -0.19316687 -0.15049128 0.13924754
000290 f4 e0 8c 3d 4e 0d 94 3d 18 0f b7 be 74 c6 89 3e
       0.06878844 0.072291 -0.35753703 0.2690922
0002a0 c6 19 1d 3e e9 fd f9 3d af 94 c6 be 39 e1 b1 bd
       0.15341863 0.12206633 -0.38785312 -0.08685536
0002b0 e7 61 41 bd d2 fd 52 bb a3 16 c4 3d 84 db 95 3e
       -0.047212508 -0.0032194746 0.0957463 0.2926904
0002c0 c9 4c 78 3e ce f4 d6 bd fd a5 44 3e 62 56 3c be
       0.24248041 -0.104959115 0.19203945 -0.18392327
0002d0 c2 d8 d3 bd 32 a0 d7 b9 e5 71 d7 bd b9 a9 3c bd
       -0.10344078 -0.0004112735 -0.105197705 -0.046060298
0002e0 d3 00 c3 bd 6c b1 cf bc 74 67 cb 3d 76 b3 45 3e
       -0.095216416 -0.025353156 0.099318415 0.1930674
0002f0 87 7d 94 be e3 cf d8 bc 25 b2 25 3e b9 66 2e 3e
       -0.2900202 -0.026466316 0.16181238 0.17031373
000300 05 4a 84 3e cd 36 9f be d6 f7 d4 bd 97 81 8a 3e
       0.25837722 -0.31096497 -0.103988335 0.27051994
000310 79 7f 20 3e ae 49 c3 3d 16 a3 d5 3e 59 7f 3d be
       0.15673627 0.09535538 0.41725987 -0.1850561
000320 e1 aa fc 3d f6 6c 07 3e 45 e8 33 bc 02 13 06 3d
       0.1233728 0.13225159 -0.01098067 0.03273297
000330 e4 78 a8 3b e0 d8 5b be 05 59 2f 3b 62 00 8a 3e
       0.0051413644 -0.2146945 0.002675594 0.26953417
000340 73 b0 21 be ea 69 a2 3d ff 99 4a be d5 a3 8e be
       -0.15789966 0.07930358 -0.19785307 -0.2785937
000350 8c 93 b5 bd 48 89 52 bc ba 79 d3 3e 44 cf b4 3d
       -0.08866033 -0.012850113 0.41303807 0.08828595
000360 55 9d e4 3d 89 92 4c be bc ab 44 3e cd 1f bd be
       0.11162821 -0.19977774 0.19206136 -0.36938325
000370 f1 7a c8 bd 26 18 83 be bf 3b 94 bd f8 88 19 bf
       -0.09789074 -0.2560436 -0.07237958 -0.5997462
000380 05 5b b0 be d7 9a 8d 3e 82 3d 55 be 17 ff 89 bd
       -0.34444442 0.27657196 -0.20824245 -0.06738108
000390 1d a8 e9 3d d6 ef 4d bd 20 75 f0 3d c9 0c 3f 3e
       0.11409018 -0.050277553 0.1174109 0.18657221
0003a0 09 2f 11 be 98 a9 8a 3e fc b9 35 3e 85 68 de 3e
       -0.14178099 0.27082515 0.17746729 0.43439117
0003b0 ec cd 35 be 1e 0e a7 be 43 e8 69 be e1 0b 90 be
       -0.17754334 -0.32627958 -0.22842507 -0.28134063
0003c0 3b fa 0f bd 44 72 3a 3e d2 40 f1 3d 61 ca 88 3e
       -0.035150748 0.18207651 0.117799416 0.26716903
0003d0 02 27 30 be f7 8f 9f 3e 5e 63 b0 3e c4 06 cf 3e
       -0.1720238 0.31164524 0.3445081 0.4043485
0003e0 db 16 16 be 67 e6 94 bd 8f 0f a0 3b 9a 4b a8 be
       -0.14657156 -0.07270508 0.004884667 -0.3287018
0003f0 d7 c7 99 3d 71 ba ae be e3 2d ec 3d df b1 95 3d
       0.075088196 -0.34126619 0.1153219 0.07309317
