results/1_first_try/epoch2050/model_weights.pth (torch, 484214 bytes, 88 tensors)

init_layer.0.weight f4 [64, 3]
000000 47 46 04 be b3 eb 67 bd 41 99 f6 3d c2 71 8f 3e
       -0.12917434 -0.056621265 0.120409496 0.28016478
000010 61 06 27 bb 01 e5 0a b9 ef ab 03 be 8c 82 2b be
       -0.002548598 -0.00013246016 -0.12858556 -0.16749018
000020 f5 40 70 bb 7c f3 95 3e fc cf a6 3d 91 24 e7 3c
       -0.003665981 0.29287326 0.081451386 0.028215678
000030 a8 0b 39 bb e8 3d 47 3e 64 fc 9f 3d 1b fe 1a be
       -0.0028235707 0.19457209 0.078118116 -0.15135996
000040 3d 55 aa be 76 28 05 3d 61 32 f4 3d fa ec c8 3c
       -0.33268157 0.03250929 0.119236715 0.024527062
000050 33 77 7c 3e c6 7d a1 3e 33 b4 80 3e f9 68 18 3e
       0.24654846 0.3154127 0.2513748 0.14883794
000060 7e 93 98 3e 7e 27 ab be 03 e8 9c 3c 3c 7c 5a be
       0.29800028 -0.33428568 0.0191536 -0.21336454
000070 e6 0b 22 be 53 71 3a 3e e1 9c a0 be 20 4b 6a 3d
       -0.15824851 0.18207292 -0.3136969 0.05720055
000080 e8 58 9c 3c e4 e2 f5 3d 62 18 3f 3e 70 d3 62 bd
       0.019085363 0.120061666 0.18661645 -0.055377424
000090 67 36 8a bd ff 37 ab bd 6d d1 05 3c 07 90 c2 bd
       -0.06748658 -0.0836029 0.008167607 -0.09500127
0000a0 00 75 c7 3c bf 89 f2 3d d6 3d 0f 3e ad 57 87 be
       0.024347782 0.11842679 0.13988432 -0.2643408
0000b0 16 c5 5f bd 11 16 67 3e d7 d3 44 be b1 37 af bd
       -0.054631315 0.22567011 -0.19221435 -0.08555544
0000c0 09 47 58 3a 63 3c bf 3c d0 74 d8 3d 15 58 a4 3e
       0.0008250331 0.023344224 0.10569155 0.3209845
0000d0 0c 89 3c 3e 6f d5 dc bd 51 70 18 3e 2a 82 d7 3d
       0.18411654 -0.10782897 0.14886595 0.10522874
0000e0 7e 3d 2c be e0 98 83 be de 1b cc 3d 12 9c f8 bd
       -0.16820332 -0.25702572 0.09966253 -0.12139143
0000f0 e6 98 59 3e 02 9a d0 bd ac 58 10 bd 92 8d a9 3e
       0.21249732 -0.10185625 -0.035240814 0.33115822
000100 6d 4f 7f 3c c5 46 b5 bc 7a 5f 43 bd d5 6a a9 be
       0.015582901 -0.022128472 -0.047698475 -0.3308932
000110 fb ed d3 3c 94 b7 d7 bd 18 26 17 3e d2 ff 57 bc
       0.025870314 -0.105330616 0.14760625 -0.013183551
000120 01 ec 07 bd bd 73 18 bd a7 97 1f 3e 26 d4 cf bd
       -0.033184055 -0.03721975 0.15585195 -0.10147886
000130 04 c2 56 3e 6d ac 94 bd 51 3a 90 3d f6 3c 3b 3e
       0.20972449 -0.0725945 0.07042373 0.18284974
000140 63 47 3a 3e d0 24 53 be c5 7d 45 be 75 cc e4 3c
       0.18191294 -0.20619512 -0.19286259 0.027929524
000150 08 0d 4b bc a8 67 2e 39 75 a4 07 be 43 27 e5 3d
       -0.012393244 0.00016632548 -0.13246329 0.11189129
000160 5e 3d ae be 5b 16 27 3d 90 91 c1 be ff 01 e9 bd
       -0.34031194 0.040792804 -0.37806368 -0.11377334
000170 07 7f 5a bd 51 83 f7 bd 75 77 c4 3a 60 5a 9b 3d
       -0.0533438 -0.120855935 0.0014989214 0.07585597
000180 da 52 d0 bd 5d 97 6d 3e 6d 88 2d 3e 2b e8 a3 be
       -0.10172053 0.23202272 0.16946574 -0.32013068
000190 d6 1f 9e 3e 9f 9a 0e bd 13 33 ab 3d 0f 51 cb bd
       0.30883664 -0.034815427 0.08359351 -0.0992757
0001a0 59 b0 b0 3c 0d 82 e1 bd 00 2c 31 be 45 85 03 be
       0.021568464 -0.11011133 -0.17301941 -0.12843807
0001b0 59 aa c9 bd c0 bc 83 3d 9b 74 6a 3d 4b f1 58 be
       -0.09846944 0.064324856 0.05724011 -0.21185796
0001c0 84 a6 ab bc 80 8c 5d 3c ea e2 40 3e c8 22 43 be
       -0.020953424 0.013522267 0.18836561 -0.19056237
0001d0 b9 22 14 bb 07 9e ad be 09 37 3c 3e bc 4d e3 3d
       -0.0022603704 -0.33909628 0.18380369 0.11098811
0001e0 77 48 46 3d ed b0 01 bb 2a bb 48 be 44 f9 dd bd
       0.04840895 -0.0019789294 -0.19602647 -0.10838559
0001f0 db 8a 86 3d d0 c5 27 be 13 63 17 3d e6 3e d3 bd
       0.06569453 -0.16384053 0.03695972 -0.10314731
000200 cb e2 12 3e 65 63 71 3d d8 a3 32 bd 46 47 d8 3d
       0.14344327 0.05893268 -0.043613285 0.10560469
000210 3f 72 19 3e 0c f6 4c be 5e 05 af bd 46 da c4 be
       0.14984988 -0.20015734 -0.085459456 -0.3844778
000220 7b 99 36 be 6b 91 a4 3d be d8 83 bd 4b 0f 0d be
       -0.17831986 0.08035549 -0.06437825 -0.13775365
000230 94 a2 68 3d 7e c7 17 3d 1f 77 97 3e a7 b5 09 3c
       0.05679567 0.037055485 0.2958307 0.008405126
000240 81 37 1d 3e 6e e1 a5 3e 59 ce 85 3c a9 d0 20 3e
       0.15353204 0.32398552 0.016333746 0.15704598
000250 44 99 81 be 3d c9 2a 3e 86 8f 17 be 17 77 73 be
       -0.25312245 0.16678329 -0.14800844 -0.23775898
000260 22 33 c7 bc e0 d3 cc be 52 32 e2 bd f4 c9 8e bd
       -0.024316374 -0.40005398 -0.11044754 -0.06972113
000270 d2 d1 b0 3e 59 4e 87 be 41 38 f4 3c 05 3e 04 be
       0.3453508 -0.26426962 0.02981198 -0.12914284
000280 47 7e 40 be b8 df c2 3c 3e 2a 39 3e c2 69 54 be
       -0.18798171 0.023788318 0.1808252 -0.20743468
000290 3e 38 f8 bd 48 e6 69 3e 06 91 0b 3d 4d 45 7e 3c
       -0.12120102 0.22841752 0.034073852 0.015519452
0002a0 45 94 46 3e 04 55 9e 3d c0 52 da 3d 76 6e 59 3d
       0.19392498 0.07731059 0.106603146 0.05308386
0002b0 ca 40 c1 bb 21 d1 e9 bd b8 6c c8 3d 22 c3 bd 3e
       -0.005897616 -0.11416841 0.097863615 0.37062937
0002c0 9b 4a 0e 3c 97 a7 c0 3d 63 a2 0c 3e e3 41 af bd
       0.0086847795 0.09406965 0.1373382 -0.08557489
0002d0 75 94 5b be 13 83 2e be 31 fb e6 bc b1 69 3e be
       -0.2144335 -0.17042188 -0.02819595 -0.18595006
0002e0 d4 66 c3 3c fb ba 3f bc 5b e6 b9 3e ad e8 89 bd
       0.023852743 -0.011702294 0.3630856 -0.067338325
0002f0 21 7e 46 3c a2 19 b4 3e 9f be bd 3c 9a 83 b3 3d
       0.012115032 0.35175806 0.023162184 0.087653354

init_layer.0.bias f4 [64]
000000 52 fc 7f 3d c9 cc 24 3e 6d ce cd bd 79 52 18 3e
       0.06249649 0.16093744 -0.10049138 0.14875211
000010 9b 54 09 3d b3 1e a8 bd 64 c8 db bd 9a 0a 2b 3e
       0.03352795 -0.082089804 -0.10731581 0.16703263
000020 1e 46 ba 3d 9d 82 24 be 17 88 09 be ad 10 9b 3d
       0.09095405 -0.1606545 -0.1343082 0.0757154
000030 0f 4b 27 bd 66 00 b7 bd 24 dd 8a 3d cd b7 fb 3d
       -0.040843066 -0.08935623 0.067804605 0.122909166
000040 80 36 5b 3c 96 71 32 3e 22 ce 0e 3e cd 9a 08 be
       0.013379693 0.17426142 0.13945821 -0.13340302
000050 92 82 03 3e 9c 6e 1e 3e eb 45 5b bd 51 90 ef bd
       0.12842777 0.15471882 -0.053533476 -0.11697448
000060 5f 5a da 3d 45 3f c0 bd 8e 6d 09 3e 68 bd ca bd
       0.10661768 -0.09387068 0.13420698 -0.098994076
000070 2c 00 53 bd 9b e7 b7 3d 9a 0f 28 be f4 f6 f2 bd
       -0.051513836 0.08979722 -0.16412202 -0.11863509
000080 ac e0 e2 bd 01 1e 07 be f3 ef d9 3d 3b f3 09 be
       -0.11078009 -0.1319504 0.1064147 -0.13471691
000090 3d 03 82 bd de 0c 04 be c6 60 de 3d 44 d7 1f be
       -0.06348274 -0.12895533 0.10858302 -0.15609461
0000a0 b3 27 8e bd dc ae 00 be 32 82 9e bd 91 e4 9c 3d
       -0.06941166 -0.12566704 -0.077396765 0.07660783
0000b0 a2 62 05 3e 8e e0 18 be ae aa c9 bd 86 27 59 bd
       0.13025907 -0.14929411 -0.09847008 -0.053016208
0000c0 fe 0d bc 3c 60 3d ec 3d c3 e7 0b be 2c ab 22 be
       0.02295589 0.11535144 -0.13662629 -0.1588561
0000d0 26 d7 12 3e 44 c0 9a bd 25 a1 0e 3e 48 c2 1f 3e
       0.14339885 -0.07556203 0.1392866 0.15601456
0000e0 e1 80 08 3e 4b 71 e3 bd 50 f6 3b 3d 64 42 d3 3c
       0.13330413 -0.11105593 0.0458892 0.025788493
0000f0 1f 87 1d be 97 59 02 be 07 32 24 3e a2 4c 0e 3e
       -0.15383576 -0.12729488 0.16034709 0.1389642

hiden_layers.0.weight f4 [64, 64]
000000 9e b8 19 be d3 0d bc 3d 2a bf dc 3d ac 4d 4c 3e
       -0.15011832 0.09182324 0.10778649 0.19951504
000010 b1 0b 29 be 4a dd 2f 3d 7f 4b 8d 3d f1 f9 7e bd
       -0.16508366 0.042935647 0.06899165 -0.06225008
000020 ab 94 aa 3c 01 ad 85 bd 1a f4 14 bd 62 3d 28 3e
       0.020822844 -0.065271385 -0.036365606 0.16429666
000030 78 c0 10 3c 92 26 34 3e 31 ae 32 3e dd e0 12 be
       0.008834951 0.17592838 0.17449261 -0.14343591
000040 46 ad 9e bc cb 84 b9 bd 8e fc f9 3b b1 97 5d be
       -0.019369733 -0.090585314 0.007628984 -0.21639897
000050 49 96 22 3d 53 5c 47 3e b1 a0 7f 3c 19 7a af be
       0.039694104 0.19468813 0.015602277 -0.3427284
000060 32 5d 4c 3e ee 98 3e bd 29 24 4d bd ee 19 1b be
       0.19957426 -0.046532564 -0.050083313 -0.1514661
000070 f3 f3 11 be 64 73 fd 3c 18 fd b1 be 1c e9 92 bd
       -0.14253215 0.030938812 -0.34763408 -0.07173368
000080 08 f8 b3 bd 3b 4c e3 bd ee 56 1a 3e 0c 5f 6c bd
       -0.087875426 -0.11098524 0.15072224 -0.05770783
000090 62 69 c7 3a 84 e8 e1 bd 6b 99 6b 3e 45 7f 39 3d
       0.0015213902 -0.11030677 0.23007743 0.04528739
0000a0 83 6e 99 3d 55 27 1d be 9a a7 c1 3d b8 d0 0c bd
       0.074917816 -0.15347035 0.094557956 -0.034378737
0000b0 07 3c c9 bb 7b d6 1a bd 19 30 07 bc de 5d 2f be
       -0.006141189 -0.0378022 -0.0082512135 -0.17125651
0000c0 76 0a 60 3e 1b 95 a5 bd ce 68 3d be 9b f8 aa bd
       0.2187899 -0.0808508 -0.18497011 -0.08348199
0000d0 3f a2 e1 3d c4 12 1c bd 15 55 5a 3e 3b 63 9a 3e
       0.11017274 -0.038103834 0.21321519 0.30153832
0000e0 88 c1 ae bd 63 c5 1f be 0b 89 c5 bd ff 44 87 3d
       -0.08533007 -0.15602641 -0.096452795 0.06604957
0000f0 81 15 17 bc 3e 0e a0 be df 0c 26 3e ec d0 45 bd
       -0.0092214355 -0.31260866 0.16215847 -0.048294947
000100 ba 1e d9 bd 16 7b d3 bb 1b b7 90 be 10 40 c4 3e
       -0.10601564 -0.006453882 -0.28264698 0.38330126
000110 9c 5a 0d be f8 6a c2 bd 4a 0d 2d 3e 8e 3f 0a bc
       -0.13804096 -0.09493059 0.168996 -0.008438004
000120 d8 f5 e1 3d ab 42 87 be 8c ab 9a 3d 61 77 a0 bd
       0.11033219 -0.2641805 0.07552251 -0.0783527
000130 25 cb 0c be 46 b8 4c bd 52 eb da 3d 60 a4 80 3e
       -0.13749368 -0.049980424 0.10689415 0.25125408
000140 4b d9 89 bc 94 a1 9e 3e b6 13 ec 3d 27 28 04 be
       -0.016827246 0.3098265 0.11527197 -0.12905942
000150 35 aa 10 3e c6 38 2b 3c ab 8a b2 3d 0f 75 ed bd
       0.14127429 0.010450548 0.08717855 -0.11594593
000160 74 31 92 bd 07 40 ed bd 0c 61 95 3e 95 d0 8c 3d
       -0.07138339 -0.11584478 0.29175603 0.06875721
000170 d3 b3 b9 3d 3c 81 4b 3e f6 a2 c8 be b6 eb 85 be
       0.09067502 0.19873518 -0.3918683 -0.26156396
000180 ba 6c 62 bd 76 3a cf bd 82 3e 20 3e 7d 19 77 3d
       -0.05527947 -0.101185724 0.15648845 0.060327042
000190 e7 ea 81 3d 67 79 83 be ed 3b 68 bc 53 df e3 3c
       0.06343632 -0.2567856 -0.014174444 0.02781645
0001a0 c6 b1 a8 bc b5 12 c7 bd f3 fb 4f be cb 8f 04 3d
       -0.020592581 -0.09720365 -0.20310955 0.032363694
0001b0 b7 30 48 3e 2d 5a ac be 67 31 18 3e c0 41 a9 bd
       0.19549833 -0.3366255 0.14862595 -0.08264494
0001c0 b1 47 69 3c ad e1 7c bd 3c 16 19 be 9e 3f a2 be
       0.014238284 -0.06173866 -0.14949888 -0.3168916
0001d0 8a 3b 7d 3e 15 ee 7e be 76 38 79 3e 8e ff a7 3e
       0.24729744 -0.24895509 0.24337944 0.3281216
0001e0 fe a4 7b bd 7a 4e 75 bd 2c 64 01 be 1f 8e cb bd
       -0.061436646 -0.059889294 -0.12635869 -0.09939217
0001f0 45 c5 00 3e d2 64 13 be aa 95 c2 3e 8f fb b2 3d
       0.12575252 -0.14393929 0.3800481 0.08739387
000200 25 29 55 3d 5c 7d 06 be af 34 93 3e f1 5a c6 bd
       0.05204119 -0.13133758 0.28751132 -0.096853144
000210 44 8a 9b be 8e 5f 90 3c f8 55 a2 bc 80 7e a7 be
       -0.30378926 0.017623689 -0.019816384 -0.327137
000220 c9 45 17 3d 30 c1 dd 3b 31 02 cb 3c 47 87 da 3d
       0.036931787 0.0067674145 0.024781318 0.10670333
000230 13 3b 2a 3e ae fd 54 be 15 e1 85 3e 32 62 0d be
       0.16624098 -0.20799896 0.26148286 -0.1380699
000240 ec 74 0e be 15 77 89 be 54 ae 4f 3d b0 52 53 3d
       -0.1391179 -0.26848665 0.05070336 0.05159253
000250 7c 94 54 bd eb 4d 79 be c8 40 f0 bd f2 8e 04 3d
       -0.05189942 -0.2434613 -0.11731106 0.032362886
000260 a0 42 95 bd 19 f4 ec bd 2f 39 3e be 64 63 6b 3e
       -0.07288098 -0.115699954 -0.18576501 0.22987133
000270 26 6b 07 3d 52 a1 28 be a7 33 b8 3e 86 91 67 3e
       0.03306117 -0.16467789 0.35976908 0.22614107
000280 0b 12 53 be f9 43 1f bd 3a ad 1a 3e eb b3 ce 3e
       -0.20612352 -0.038883183 0.15105143 0.40371642
000290 c1 df aa bd 49 0c 23 bd d3 cf 23 bd 0a b6 81 3d
       -0.08343459 -0.039806638 -0.03999312 0.06333549
0002a0 99 f6 f3 bd 42 d7 ae 3d d0 ec 45 3e f9 90 03 3e
       -0.11912269 0.08537151 0.19328618 0.12848271
0002b0 c7 1e 39 3e 6a c8 a0 3d 7d 2a 00 3e 04 27 f8 3b
       0.18078147 0.07850726 0.12516208 0.0075730104
0002c0 b2 ea 41 bc 9c e1 2b 3c b1 7d 32 3e 5b 16 c2 3d
       -0.011835741 0.010490801 0.1743076 0.0947692
0002d0 36 15 69 bc 6e 30 0f bd 60 14 eb bd 91 4c b8 bd
       -0.0142262485 -0.034958296 -0.114784956 -0.08998979
0002e0 2a 26 b8 be bf dd a6 3e df 09 49 be 8e 92 16 be
       -0.35966617 0.32591054 -0.19632672 -0.14704344
0002f0 0e a0 c9 3e ef 35 f8 bc 67 b0 91 be c0 a6 2f 3d
       0.39379925 -0.030299155 -0.28454897 0.042883635
000300 a5 8b 29 3e dd 2d 86 be 24 61 2b 3d 50 f7 30 be
       0.16557176 -0.26206866 0.041840687 -0.17281842
000310 4c 29 0a 3e 00 99 1f 3e 7c d2 c8 bc d8 84 37 be
       0.13492316 0.15585709 -0.02451443 -0.1792177
000320 da 7b 96 be 00 17 6b bd be bd 35 3e 2e af 39 bc
       -0.29391366 -0.05739498 0.17748162 -0.01133327
000330 45 dd 3f bd 95 8c 0a bc 90 09 b8 bd fc 3b 80 be
       -0.04684188 -0.008456369 -0.08986199 -0.25045764
000340 75 da 37 bd 73 90 0b 3d 13 c7 e6 3c 02 1d 65 bc
       -0.04488607 0.034073304 0.028171098 -0.013983967
000350 00 6a 05 3c b2 00 8d be 10 55 3e be 54 b6 36 3c
       0.008142948 -0.27539593 -0.18587136 0.011151869
000360 a9 1d 47 3e 9b b4 fb 3d a9 dc 4e bd 28 eb b1 3a
       0.19444908 0.12290307 -0.050503407 0.001357411
000370 b8 35 7e bd 2f 6e 82 be 0a a1 24 bd c1 1f 08 3e
       -0.06206295 -0.25474688 -0.04019264 0.13293363
000380 52 2a 26 bd 15 0d 4b 3e be 3a 6e be 91 1c 1a 3d
       -0.040567704 0.19829209 -0.23264596 0.0376249
000390 65 bc 08 3d bf f3 49 bd 0d 35 54 bc e0 33 aa 3d
       0.033382792 -0.04930472 -0.012952101 0.083106756
0003a0 09 6c 5a be 37 c3 19 3d 4e 36 aa 3d 75 6e 0c 3e
       -0.21330275 0.037539687 0.08311139 0.13714011
0003b0 19 06 c8 bd 54 22 23 3e 0e 65 db 3d 46 8b 28 3d
       -0.09766788 0.15931064 0.10712634 0.041148447
0003c0 b3 78 5b 3d 32 2b 1e be d0 68 4c 3e 44 f3 a7 3c
       0.053581905 -0.15446165 0.19961858 0.02050174
0003d0 cb 58 a3 be 38 44 3e 3e ad f6 80 3d bd ac 07 3c
       -0.3190368 0.18580711 0.0629705 0.00828093
0003e0 2b 61 71 be 7a 5f 5e bd b7 3f 05 be 6a c2 a8 3d
       -0.23572223 -0.054290272 -0.13012587 0.082402065
0003f0 26 34 a0 bd 06 ba 02 3e 69 8f 53 be 41 7f 1c be
       -0.078224465 0.12766275 -0.20660175 -0.15282919

hiden_layers.0.bias f4 [64]
000000 16 e1 00 3e d4 5c b9 3d 7d aa 33 be 17 57 b0 bd
       0.12585863 0.09050909 -0.17545505 -0.08610361
000010 2d 04 df 3d 8b d0 d8 3d 54 fc 2a 3e bc 56 f7 bd
       0.10889468 0.105866514 0.16697818 -0.1207709
000020 69 db 1c be 8e f6 01 be a9 12 1f be 6b ef c9 3d
       -0.15318073 -0.1269171 -0.15534462 0.098601185
000030 c1 81 19 3e 42 91 ef bd 3a 6d e2 3d 3f f1 26 be
       0.14990903 -0.116976276 0.110559896 -0.16302966
000040 a7 ce 15 be 80 e5 36 bd 85 9f d7 3d bf 39 e4 3c
       -0.14629613 -0.044652462 0.10528473 0.027859567
000050 06 21 ec 3c 9c dd b5 3d a4 62 6e bd ba 1e b8 bd
       0.02882434 0.08880159 -0.05819954 -0.089902356
000060 4e 25 f0 bc d9 d4 44 3d 24 44 8e 3d 15 d6 bb bd
       -0.029314663 0.04805455 0.069465905 -0.09171692
000070 6a a6 d6 3d 85 bf fb 3d e1 e1 fd 3d bf 34 af bd
       0.1048096 0.12292389 0.123965986 -0.085549824
000080 26 62 2b bb 22 c5 cf bd 28 85 b8 bd 59 6c 80 3d
       -0.002615103 -0.10145022 -0.090097725 0.06270666
000090 67 71 01 bd 63 1e ca 3d ad 89 b2 3d 2b e7 f5 bc
       -0.03160229 0.09869077 0.08717666 -0.030017456
0000a0 79 88 1f be d6 a9 e7 3d 8d 9f cf bd 4a 15 32 39
       -0.15579404 0.113116905 -0.10137854 0.00016983334
0000b0 4c f3 a9 bd 49 06 b5 3c 89 17 de bd f0 f9 ff 3b
       -0.08298358 0.022097724 -0.10844333 0.0078117773
0000c0 23 64 80 3d 3a 1f 36 bd b4 c6 e0 3d 03 3c c8 bd
       0.062690996 -0.044463374 0.109753996 -0.09777071
0000d0 e7 70 0e 3e 0d b7 e9 bd 28 1c ea 3d 01 52 22 3e
       0.13910256 -0.11411867 0.11431152 0.15851595
0000e0 21 63 be bd d4 4b 21 3e 75 5e 52 3d e9 a5 9c 3d
       -0.09296251 0.15751582 0.051359612 0.07648832
0000f0 ec 9f f4 3d 1c cf 44 3c 66 39 1d bd 09 ee 13 be
       0.11944565 0.012012269 -0.038384818 -0.14446272

hiden_layers.1.weight f4 [64, 64]
000000 51 1b e4 bd 75 61 d8 bd 9c 07 b8 be 39 d2 44 3e
       -0.11138023 -0.105654635 -0.35943305 0.19220819
000010 16 a2 13 bf 6f 21 f3 3d 2e 5b 98 bc 5c 9e 5d be
       -0.576692 0.11871611 -0.018598165 -0.2164244
000020 1b 71 89 3d 46 e9 e6 3d e1 5e bc 3c db 97 85 be
       0.06711026 0.11274962 0.02299446 -0.2609242
000030 44 0a ea 3d 6e 48 9a bc 1a 42 79 bd 3b 1c 68 be
       0.11427739 -0.018833365 -0.060854055 -0.22667019
000040 39 69 98 bd d3 df ba 3e e6 f9 9c bd 74 36 06 3e
       -0.07441945 0.3649889 -0.07664852 0.1310671
000050 24 71 28 3e da 66 3b bd fb a2 c4 3c f0 c5 11 bd
       0.1644941 -0.045752384 0.024003496 -0.03558916
000060 9a 7e 13 be 0f e5 3c be 5c 90 df 3c de 81 9c 3e
       -0.14403763 -0.18446754 0.027290516 0.3056783
000070 2a 53 37 be b3 c2 ba be 12 c3 a0 be 43 2b dd 3c
       -0.17902818 -0.3647667 -0.31398827 0.026998168
000080 2c c4 ac be 8d 1c ad 3e 25 25 80 be 06 4c c8 be
       -0.33743417 0.33810845 -0.2502834 -0.391205
000090 48 a7 2b be 9b 73 93 bd dd 6a 91 bc 99 c2 cd 3d
       -0.16763031 -0.07199784 -0.017751152 0.10046882
0000a0 60 4b 95 3d 35 30 9d 3e 4f 0b e5 bd 2a 93 8b 3e
       0.07289767 0.30700842 -0.111837976 0.27260715
0000b0 26 77 d5 3e a3 1e 22 be fc 8c aa 3c f3 65 ca bd
       0.41692466 -0.15832 0.02081918 -0.098827265
0000c0 4d a5 d5 3d 3e c6 93 be ad d4 99 3c 7d da 7b 3e
       0.10431919 -0.28862184 0.01877817 0.24595065
0000d0 ec a8 43 be b0 65 47 3e 0d a7 fe bc ef 67 44 be
       -0.19107407 0.19472384 -0.031085515 -0.19180273
0000e0 c5 0c 16 3e b9 23 0e be 29 4d b7 be 39 70 1d 3e
       0.14653309 -0.13880815 -0.35801056 0.15374841
0000f0 02 f1 23 3e 88 ce 1c be 5f 12 7e bd c9 1b 81 be
       0.16009906 -0.1531316 -0.06202924 -0.2521651
000100 ad 69 4c 3d 26 f7 ad bc 09 17 29 be 6b 06 ce 3d
       0.049905468 -0.021236014 -0.16512693 0.10059818
000110 ea 8f da bd b2 48 d7 bc f8 40 7e be 41 07 27 3c
       -0.10671981 -0.026279781 -0.24829471 0.010194601
000120 62 3d 69 3e f9 68 c3 bd 76 97 6a 3e 63 e4 ca 3d
       0.22777322 -0.09541506 0.2290934 0.099068426
000130 33 a4 4f 3d 03 d1 42 bd 4c f9 32 3e 14 70 c0 3d
       0.050693702 -0.04756261 0.17477912 0.09396377
000140 28 03 15 3e af 26 8f bd d4 a9 d9 3d 8c 38 c3 3d
       0.14551985 -0.069898 0.10628095 0.0953227
000150 a6 36 5a 3d 15 3a 6c 3e 09 4c 3e be c2 63 c6 3d
       0.053274773 0.23069032 -0.18583693 0.09686996
000160 d0 84 41 3e 28 34 70 3e 4a 40 55 3e 99 20 47 bd
       0.1889832 0.23457396 0.20825306 -0.048615072
000170 5a 1d 08 be fa b1 97 3d da 0c f9 bc bc c3 1e 3e
       -0.13292447 0.07406993 -0.030401636 0.15504354
000180 63 36 41 3e 47 14 2a 3e 4a 77 50 be 92 bb 23 be
       0.18868403 0.16609298 -0.20358005 -0.15989521
000190 a6 db ac be d3 8b 83 bd fd 98 ad bc 6c 4c 54 be
       -0.33761328 -0.06423154 -0.021191115 -0.20732278
0001a0 5b e4 29 be e7 ff 89 be 44 00 ae bd ae 69 33 be
       -0.16591017 -0.2695305 -0.084961444 -0.17520782
0001b0 3d 4a e7 3c 4b 49 37 bd eb d2 91 bd b5 14 fc be
       0.028233642 -0.044747632 -0.071203075 -0.49234548
0001c0 69 64 74 3e 54 63 8d 3d 8f b9 36 be 90 a8 30 3d
       0.23866428 0.06903711 -0.17844222 0.043129504
0001d0 74 ea 2a 3d 82 4a 38 bd 39 7f e2 bd 8e 1d 6f bd
       0.0417275 -0.04499293 -0.11059422 -0.058377795
0001e0 ca c4 1f bc 2e a2 18 3e 0e a9 6d be 8a e9 e7 3d
       -0.009751508 0.14905617 -0.2320902 0.11323841
0001f0 31 2a b6 bc 66 8c 80 bd 45 de b7 bd 2b 49 75 3e
       -0.022236915 -0.06276779 -0.089779414 0.23953693
000200 b3 b7 ae 3d c5 d5 99 3e e6 80 24 3d eb 54 93 3d
       0.085311316 0.30045906 0.04016199 0.07193931
000210 7a 8f f2 3e 09 a5 82 3e 28 3f f8 bd de 6d 78 3e
       0.4737509 0.25516537 -0.12121421 0.24260661
000220 a1 24 1e 3d 7d 5e 13 be 1b 22 8b be d1 88 c6 3d
       0.03860915 -0.14391513 -0.27174458 0.096940644
000230 81 96 21 3d 66 26 0b 3d c8 57 5e 3e ef b6 87 3e
       0.039450172 0.033972166 0.21713173 0.26506755
000240 e7 82 c0 bd 83 31 d9 bd bb b8 11 3e fa f0 95 3d
       -0.09399968 -0.10605147 0.14230625 0.07321353
000250 f0 41 db 3d f3 67 6f be ee f5 81 be 21 8a 71 be
       0.10705936 -0.23379497 -0.25382942 -0.23587848
000260 73 8e 5c bd 58 c9 1e 3e a2 7e 8a bd 21 2d 34 be
       -0.053846788 0.15506494 -0.067624345 -0.1759534
000270 67 e6 b5 3e 33 26 f9 3e b2 54 c7 3e ee 34 8d 3e
       0.35527346 0.48661956 0.38931805 0.27579445
000280 87 6a 83 3e d1 c2 77 be 38 5e df bd 74 57 a8 bd
       0.2566721 -0.2419541 -0.10906643 -0.08219805
000290 ed f5 c7 bc 28 53 ac bd 75 f2 24 3d 49 7e f3 bd
       -0.024409259 -0.08414298 0.040270288 -0.11889321
0002a0 bc 6c 36 be 84 ea 4d be bb 1c 8d be 75 73 f6 bd
       -0.17814916 -0.20108992 -0.27560982 -0.120337404
0002b0 4a 90 8f be 81 6f fe 3d 70 7a 65 be 2c d4 98 3d
       -0.2803977 0.124236114 -0.22409987 0.074623436
0002c0 6d fe 71 3b 63 fb 8f 3e 2b 78 08 3e e2 ca 94 be
       0.0036925331 0.2812148 0.1332709 -0.29061037
0002d0 a0 9b 82 3d 29 22 b6 be 6e 53 16 3e d7 e1 49 bd
       0.06377339 -0.35572937 0.14680263 -0.049287643
0002e0 fc 8f 8b be 8a 90 8e 3e 13 63 07 be 37 f8 10 3e
       -0.2725829 0.2784465 -0.13221388 0.14157186
0002f0 03 92 8e bd c1 aa c0 3d 09 2a aa bd a3 b3 66 3d
       -0.06961443 0.09407569 -0.08308799 0.05632366
000300 b2 0d 21 3e 60 29 87 3d bb a7 26 be a0 e8 07 3e
       0.1572788 0.065996885 -0.16274922 0.13272333
000310 d8 e5 0d 3f 9e 03 61 be e4 63 bc bc 34 c8 13 be
       0.5542884 -0.21974036 -0.02299685 -0.1443184
000320 80 fa 23 bd ce 44 51 bd f8 fc 10 be a6 34 ba 3e
       -0.040033817 -0.051091008 -0.14159 0.36368293
000330 c4 dc 94 3e 02 27 2c 3e b5 ee ce bd b3 55 00 3e
       0.2907468 0.16811755 -0.101041235 0.12532692
000340 9a f3 4c bd 12 8d f5 bd 03 48 9a 3d 2b 5f 2d 3e
       -0.050037004 -0.11989798 0.075332664 0.16930835
000350 40 c3 1d 3d 27 4e 81 be 0c a7 15 3e aa ad dd 3d
       0.038516283 -0.25254938 0.14614505 0.108241394
000360 dc e6 ba 3d f1 6e bc 3c c1 55 e7 bd e5 b7 ab bd
       0.09126064 0.02300212 -0.11295653 -0.083846845
000370 04 a2 cd 3e a5 70 be 3e e6 f3 54 3e 78 91 40 3e
       0.4016267 0.37195316 0.20796165 0.18805492
000380 6f 6a 60 3e d4 d0 e1 bd 4f 79 12 be a6 48 b8 3d
       0.21915601 -0.11026159 -0.14304088 0.089982316
000390 71 89 aa 3d b6 52 37 3e 35 29 94 3d 8f 73 51 3e
       0.08326996 0.17902645 0.07234422 0.20454238
0003a0 e4 ca 3e bc 0d 2a cf bc 4d 14 f0 3d 7f 77 0e 3e
       -0.011645053 -0.025288606 0.11722622 0.13912772
0003b0 8d 95 3c be 75 98 28 be 91 df 80 be e0 b2 c8 bd
       -0.18416424 -0.16464408 -0.25170568 -0.09799743
0003c0 7f 8c fa 3a 06 db 08 3e 2d 82 c5 bc 1b cd c9 3d
       0.0019115357 0.13364801 -0.024109924 0.09853574
0003d0 0d 50 79 3e 69 e7 76 bd 12 5e 13 be 42 40 7f 3a
       0.24346943 -0.060279284 -0.14391354 0.0009737053
0003e0 4f b7 02 be 3b 6a 0a be 79 e5 53 3e d0 e6 69 bc
       -0.12765239 -0.13517086 0.20693006 -0.014276221
0003f0 f9 89 01 be a1 d4 69 3e 52 cf 88 3d 4a c6 4b be
       -0.12650289 0.22835018 0.06680168 -0.1989986

hiden_layers.1.bias f4 [64]
000000 d0 8d 1a bd 33 9d 26 3d 3c 97 62 3e 4c 24 94 3d
       -0.0377329 0.04067726 0.22128004 0.072334856
000010 8c 92 7b 3d 99 e4 77 3d 2b cb 02 bd 88 70 0f 3e
       0.061419055 0.060520742 -0.031932037 0.14007771
000020 9f 5b 1c 3e bc e0 d2 bc 53 b1 2c bd 3a 44 13 be
       0.15269326 -0.025741927 -0.042161297 -0.14381495
000030 4a 2c 5c 3d b8 2b 75 3d f2 d1 22 3e 86 6c 88 bd
       0.053753175 0.059856147 0.159004 -0.06661324
000040 d2 a3 7f bb e8 f5 7d bd a4 e7 04 3d c9 6b 38 be
       -0.0039007557 -0.062002093 0.032447472 -0.18009867
000050 22 3f 93 3d ec c8 9a bd 08 92 0b be 7d f5 87 3d
       0.07189776 -0.07557854 -0.13629925 0.0663862
000060 07 80 15 3d 9c 56 49 3d 3a 57 86 3d 8e 33 a1 bb
       0.03649905 0.049154863 0.06559606 -0.004919476
000070 78 3c 9a bd bf 97 c5 bc c6 cb 8b 3d 9d 44 07 3c
       -0.07531065 -0.02412021 0.06825976 0.008256105
000080 d1 2a 8c bd 1f 6f b8 3d 20 d3 f5 bd db 9e 57 bd
       -0.06844104 0.0900557 -0.120031595 -0.05264173
000090 35 39 83 bd 4f 42 e3 3d 73 fe d7 bd 39 b0 f6 3d
       -0.06407396 0.11096632 -0.10546579 0.120453306
0000a0 fa ef 96 3d 9f cf 9f bd 2f 84 0d be dd 68 2b 3e
       0.07369991 -0.078032725 -0.13819955 0.16739221
0000b0 2b 2c 83 bc 47 2a 55 3d 7f 76 ab bd ce cd ea 3d
       -0.016012272 0.052042272 -0.08372211 0.114650354
0000c0 0d fa 0f be 53 7f db 3d f8 66 bf 3d 2e 98 3e 3d
       -0.1406023 0.107176445 0.093458116 0.04653185
0000d0 7d 93 34 bd 34 e1 79 bd 78 9f 3c 3c 8e 21 5f be
       -0.04408597 -0.061005786 0.01151263 -0.21790144
0000e0 dc a0 39 3d 4d 94 ef bd 73 f6 8e bc b1 e6 1b bc
       0.045319423 -0.11698208 -0.0174515 -0.00951545
0000f0 7c 8e 2d be ed 5f d9 bc 5d 7f 9d 3d 18 27 a4 3c
       -0.16948885 -0.026534999 0.07690308 0.020038173

hiden_layers.2.weight f4 [64, 64]
000000 a9 4e f4 bd 25 6b 26 3e 64 f3 8f 3c 63 d8 d7 3c
       -0.11929066 0.1625181 0.017572112 0.026348298
000010 85 50 55 bc b0 4f f2 bd e2 e4 8a be d7 6b 8f be
       -0.013019686 -0.118316054 -0.2712775 -0.28011963
000020 cc aa d1 be 42 c0 75 bd 20 14 8e 3d b0 c7 cd bd
       -0.4095062 -0.059997804 0.06937432 -0.10047853
000030 62 c8 58 bd d3 ba fb 3d 57 cb 44 bd f0 4a 53 3e
       -0.052925475 0.12291493 -0.048045482 0.20634055
000040 6a 0a d4 3e 18 f6 a8 bc cc c2 d7 bd 44 1c 6c be
       0.41414195 -0.02062516 -0.105352014 -0.23057657
000050 e1 6e 48 3e e4 91 21 3e 3a 6d 82 be 5a 7f bb 3e
       0.19573547 0.15778309 -0.25473958 0.366206
000060 45 94 9b 3b 74 0c 5f be 6b 01 3c be c9 86 8c 3c
       0.0047478997 -0.21782094 -0.18359916 0.017154114
000070 c0 77 09 3c dd 7b 17 be 77 d5 60 3e e2 71 8b bc
       0.008390367 -0.14793344 0.2195643 -0.017022077
000080 72 0e 40 be 0b bb d4 3d 27 90 82 be e9 75 6a be
       -0.1875551 0.10387238 -0.25500605 -0.22896542
000090 cd 59 8f 3e 5c 4b 0d 3e 0c ff 08 3c b4 8d 8d 3d
       0.279982 0.13798279 0.008361589 0.06911793
0000a0 ab 7c e2 bd 9e cc 59 3e 28 c9 11 bd e7 5d 3a 3e
       -0.11058935 0.21269462 -0.03559223 0.18199883
0000b0 05 16 09 3e e8 c2 25 3c de d3 e1 3d 71 cf 9a 3e
       0.13387306 0.01011727 0.110267386 0.3023639
0000c0 7e ba 3d 3e fc 68 64 3e 20 cb 30 be c3 23 4a be
       0.18528172 0.22305673 -0.17264986 -0.19740205
0000d0 aa 89 07 be fc 97 a1 3d 42 79 ef 3d 29 5d 77 3e
       -0.13236108 0.07890317 0.1169305 0.24156632
0000e0 39 d8 36 bd 24 21 90 3d 32 40 60 3e 4f 5e 90 3a
       -0.0446398 0.07037571 0.21899489 0.0011014434
0000f0 0e 3d 00 be 9d 11 1f 3e 14 5c f3 3d 82 04 fc 3d
       -0.1252329 0.15534063 0.11882797 0.12305547
000100 e2 26 e5 3c 3f 0e 43 3e 22 4c 8c 3e b0 f2 44 3e
       0.027972642 0.19048403 0.27401835 0.19233203
000110 b3 c1 fd 3d 1d 02 82 3e 0c 52 2a 3e 8c cc 72 3e
       0.12390461 0.25392237 0.16632861 0.23710841
000120 26 e3 c7 3d 17 9f 2d 3d 2d 3f 69 3e b9 34 26 3d
       0.09760122 0.042388048 0.22778006 0.040577624
000130 83 ea 46 bd 6f 01 ca bd 83 ad 75 bd 25 93 11 3e
       -0.04856349 -0.09863555 -0.059979927 0.14216287
000140 46 0c 0f 3e 11 9c 0d be b5 7d 25 be c0 94 83 be
       0.13969526 -0.13829066 -0.16161235 -0.25699425
000150 4c ae bf 3c 76 64 44 be 8d e3 1a be 20 c8 66 bd
       0.02339854 -0.19178948 -0.15125866 -0.056343198
000160 64 d2 f9 3d 4a cb 5b 3e 72 6c 25 3e 8a e2 08 3e
       0.12198332 0.21464267 0.1615465 0.13367668
000170 55 42 92 be 49 aa 65 3e 37 3d 92 bd f8 2d 47 be
       -0.28566232 0.2242824 -0.07140582 -0.1945113
000180 c2 76 88 bd e5 a4 2c 3e d1 72 33 bd 74 8a a7 3d
       -0.06663276 0.16859777 -0.04381067 0.08180705
000190 9b 53 14 3e ef 91 3a 3e d2 65 13 3e 5f eb 5f bd
       0.14485018 0.18219732 0.1439431 -0.054667827
0001a0 88 d4 a4 3d 4c c5 e2 be 92 de a7 bd 95 d9 1d 3d
       0.080483496 -0.4429115 -0.08196749 0.03853758
0001b0 0d fa 2e 3e c2 73 15 bd 9f 9f 82 be a0 ed 30 3e
       0.17087574 -0.03648735 -0.25512406 0.17278147
0001c0 fe 94 8a be 11 68 b6 3d cc ea ce bc 18 dc 5c be
       -0.27066797 0.08906568 -0.025258444 -0.21568334
0001d0 bb e4 87 be 1e 9a 89 3c fa 79 74 bd 19 db c7 bd
       -0.26541695 0.016797122 -0.05968664 -0.097585864
0001e0 49 45 a7 3e 49 2a 5b be 87 71 74 be 24 55 b3 3e
       0.32670048 -0.2140285 -0.23871432 0.35025895
0001f0 09 f7 4f bd a7 48 54 3e fb 1a 49 3e 7a cc 74 bd
       -0.0507727 0.2073084 0.19639198 -0.059765317
000200 fd ee 69 3e 8d b2 67 be d2 a0 d9 be 8f 5e 19 be
       0.22845073 -0.22626705 -0.4250551 -0.14977477
000210 18 9b f2 3d 8b 81 e7 3d a4 45 2e 3e c9 39 0b bd
       0.11845988 0.11304005 0.17018753 -0.033990655
000220 94 9e 2f be be a1 be 3e 49 ec ad bc 0f a6 75 3e
       -0.17150337 0.37232774 -0.021230834 0.23989128
000230 ad 9a 21 3e 23 48 35 3e 9b 1b 2a be 5e 43 47 3e
       0.1578166 0.17703299 -0.16612093 0.19459292
000240 40 ca 23 3c df 8a 81 bd 97 89 15 bd 99 3b e8 bd
       0.009996951 -0.06325316 -0.03650817 -0.11339492
000250 ad 21 7a be e8 60 8e 3d c4 86 82 3e 00 14 c9 bd
       -0.24426909 0.06952077 0.25493443 -0.09818268
000260 62 11 e9 bd ea 2b 81 be f4 7b 6f bd 91 d0 43 bd
       -0.11380269 -0.25228816 -0.05846782 -0.047806326
000270 be 9c 6a 3e 6f fb 84 3d 3f ad c4 3d a0 c9 63 3e
       0.22911355 0.0649327 0.096033566 0.22244883
000280 df 39 d5 3c 74 f4 17 be 35 bf 63 3d e7 75 e3 bc
       0.026028572 -0.14839345 0.05560227 -0.027766181
000290 43 d7 5f 3e 5a e9 e9 bd 6c 78 39 be 14 61 c9 3c
       0.2185946 -0.114214614 -0.18112344 0.024582423
0002a0 5d 5a 0a 3e 6c 16 83 3e 34 73 f6 bd 1e c8 f4 bd
       0.13511033 0.25603044 -0.12033692 -0.11952232
0002b0 7a 81 0c 3e 3f 4a bf bb e4 55 96 3d 25 b5 82 3d
       0.13721266 -0.0058377082 0.07340601 0.06382207
0002c0 81 d5 02 3f 8b 17 ba b9 20 cc c2 be c9 db 7e 3e
       0.5110703 -0.00035494225 -0.3804636 0.24888529
0002d0 c5 b3 28 be d2 d8 83 3e 9c 65 1b 3e 1f 66 0a 3c
       -0.16474827 0.25751358 0.1517548 0.008447199
0002e0 ed 7e 4d be 32 20 23 3e f2 2b 36 be 68 9f be bd
       -0.2006795 0.1593025 -0.17790201 -0.09307748
0002f0 86 02 70 3c 0a 1f 95 3e 8b ac 44 3c 1c fc 06 3e
       0.014649039 0.29125243 0.012004028 0.1318211
000300 7d 78 17 3e 95 1e 45 be d6 66 87 be 02 bf 10 3e
       0.14792056 -0.19249947 -0.26445645 0.14135364
000310 25 a9 85 be 0b 44 8e bd 02 13 a0 3d 84 c4 b4 be
       -0.2610561 -0.06946572 0.078161255 -0.3530618
000320 b9 7c ee bd dd 7a 92 3e e7 11 8c 3e 0b dc 4c be
       -0.11644883 0.28609362 0.27357408 -0.20005815
000330 66 b9 2a 3e 81 a6 05 bc f7 e7 2f be 66 ad 05 3e
       0.16672286 -0.008157373 -0.17178331 0.13054428
000340 d0 7b a9 3d d1 cc 41 be fd 43 ab be 15 9f c1 bd
       0.082755685 -0.18925788 -0.33450308 -0.094541706
000350 c4 c0 77 be fe 30 8c bd 8e b7 1e 3e a2 e1 e3 bd
       -0.24194628 -0.06845282 0.15499708 -0.111270204
000360 71 f2 a2 bd ea 8c 35 be 75 fa bd 3c 86 d6 3c 3d
       -0.07956398 -0.17729536 0.023190716 0.046103023
000370 6b e3 83 bd 53 db 82 3e 56 1f 20 3d 51 84 3f be
       -0.06439861 0.25557956 0.039092384 -0.18702818
000380 dc a8 28 be c0 88 9f be 03 cf 94 3e 2d df 7d 3e
       -0.16470665 -0.3115902 0.29064187 0.24792166
000390 c5 e5 cc bd c9 bc 2c 3e 79 bf 91 3d 1f d2 1d be
       -0.100047626 0.16868891 0.07116599 -0.15412186
0003a0 00 73 05 3e 2e 06 e0 bd ab ea 44 3d f6 ab ac 3d
       0.1303215 -0.10938679 0.04807536 0.084312364
0003b0 a7 87 9a 3d 15 e3 3c be 7a 71 6b 3c 76 f6 61 bd
       0.07545405 -0.18446 0.014370317 -0.055166684
0003c0 e4 0e a6 3e f7 0e 5a 3d 0f 93 81 3d 0d 27 79 be
       0.32433236 0.053236928 0.06326877 -0.24331303
0003d0 ee 07 ea bc e8 4a ab bd 1b f1 a8 3d 49 3a 82 3a
       -0.028568234 -0.083638966 0.08249112 0.0009935583
0003e0 f9 fa 13 3e 16 bc b0 3c 55 fe 37 bd 47 cc a0 3e
       0.14451207 0.021574061 -0.044920284 0.3140585
0003f0 3b 96 be 3d 3d fa 56 bd 56 72 51 3e 75 ce d0 3c
       0.09305998 -0.05248474 0.20453772 0.025489071

hiden_layers.2.bias f4 [64]
000000 e7 7c 99 3c 26 f6 95 bd 6f 6d 60 bc 69 2e 84 bc
       0.018736316 -0.0732234 -0.013697966 -0.016135411
000010 d3 cf 04 bd d4 15 0c bd 4f a8 15 bc 17 6a 70 bc
       -0.03242476 -0.034200504 -0.009134366 -0.014673731
000020 dc 78 ee 3c fe 86 30 3d 86 21 80 bd eb 1a 02 be
       0.029110365 0.04309749 -0.06256394 -0.12705581
000030 5f 97 4e 3d 27 1c 97 3a 1d 33 b4 3d 65 ff 5b 3d
       0.050437327 0.0011528776 0.087988116 0.05371036
000040 95 9a 9d 3d 75 b2 69 be 25 e9 5c 3d 75 2b 38 3d
       0.076955 -0.22821982 0.05393328 0.04496332
000050 40 a8 29 3e 9a ea 2c 3c 43 c2 8e 3e e5 84 ff 3d
       0.16568089 0.01055398 0.27882585 0.124765195
000060 01 4b 96 bd 09 0d e7 bd 08 28 8b 3c 86 94 0a be
       -0.073385246 -0.11281783 0.016986862 -0.1353322
000070 54 e5 22 bb ef ea a3 bd 7f 2f eb 3d f1 3b d0 bc
       -0.0024855928 -0.080037944 0.114836685 -0.025419207
000080 cf 6b 92 bd 26 31 78 bc 73 8d 8e bd 7b 7d 50 3e
       -0.07149469 -0.015148437 -0.06960573 0.20360367
000090 37 ce e4 3b ec 73 87 3d cd ab cb 3c 88 e6 ca 3d
       0.0069825905 0.06613907 0.024862194 0.099072516
0000a0 4e 11 d1 3d 29 fc a7 bd 23 22 8e bd 94 e7 7f 3d
       0.10208379 -0.082023926 -0.06940105 0.06247671
0000b0 ba df 40 3e 24 5f 2c 3e 4d 80 d9 bc ca 40 45 3d
       0.18835345 0.16833168 -0.026550436 0.04815749
0000c0 88 0a 0b 3e de 98 12 be f9 0c d0 bc 92 b0 53 be
       0.13578236 -0.14316127 -0.02539681 -0.20672825
0000d0 6a 12 1c 3d 90 ae d7 3d 7d ba c1 bc bc cf af bd
       0.0381035 0.10531342 -0.023648495 -0.08584544
0000e0 00 69 43 be 3f 73 55 3c f1 58 00 3c 22 7f d8 bd
       -0.19083023 0.013027965 0.007833705 -0.10571124
0000f0 b6 95 b7 bd 6e 54 fa 3d d5 3a 06 3e 86 c5 d5 3d
       -0.08964102 0.12223135 0.1310838 0.10438065

hiden_layers.3.weight f4 [64, 64]
000000 35 7e db bd 33 15 0e 3e b5 c9 a6 3e d3 33 e1 3c
       -0.107174315 0.13875274 0.32575765 0.027490532
000010 9d 5a 85 bd 90 56 52 3e 42 86 85 bc 0f dd 83 be
       -0.06511424 0.20540833 -0.01629937 -0.25754592
000020 a0 9d 1d bd 3f 11 2a be db 42 32 3e 6e c3 00 bd
       -0.0384804 -0.16608141 0.17408316 -0.031436376
000030 f3 e2 8a 3e c1 3a 67 be 50 b8 40 3e 42 d6 13 3e
       0.27126274 -0.22581007 0.1882031 0.14437202
000040 07 45 dd 3d 2d b5 71 be d8 ff e3 bd 58 41 3d 3e
       0.108041815 -0.2360427 -0.11132783 0.18481958
000050 f7 46 c2 3e 70 83 33 be 8b fa 56 3e e6 fd bf 3d
       0.37944767 -0.17530608 0.20994012 0.09374599
000060 b3 3c 5f 3e d7 a0 88 3d ad 5b bd bd 09 3d ad 3e
       0.21800499 0.06671303 -0.092460014 0.3383563
000070 90 b8 12 bd e5 a9 86 3e 1f e4 c2 bd 19 ad 13 3e
       -0.035820544 0.26301494 -0.09516167 0.144215
000080 c0 b4 15 3e d0 fb 9d 3d 2f f1 8d bd 25 97 68 3e
       0.14619732 0.07714045 -0.06930768 0.22713907
000090 68 f3 78 3d 64 bf 01 b9 9c 3c 2d be d5 85 05 be
       0.060779005 -0.00012373697 -0.16917652 -0.13039334
0000a0 a7 01 98 3c 8e b2 1d bf 0f 59 62 be 49 d7 a0 bd
       0.018555475 -0.6160058 -0.22104286 -0.078535624
0000b0 8c 4a 93 3e 19 bb 28 3e 13 9c 2d 3e 40 34 da 3c
       0.28767812 0.16477622 0.16954069 0.026636243
0000c0 51 aa 03 3e fb 9f 72 be 95 25 23 3e 6b f4 9a bf
       0.1285794 -0.2369384 0.15932305 -1.210584
0000d0 5a 6d 17 3e e0 63 70 3e 39 1e 87 3e a2 c6 d8 bd
       0.14787808 0.234756 0.26390246 -0.10584761
0000e0 0d e9 a7 3d 8c ea a4 3d 8f a9 5e bd e3 86 10 3d
       0.08198748 0.08052549 -0.054360922 0.035284888
0000f0 49 a9 f8 bb a1 88 19 3e 93 54 1a be 7b 9f 0e 3e
       -0.0075885397 0.14993526 -0.15071325 0.13928024
000100 e0 e8 1d be 29 f5 3d bd c6 0e 89 be 5d ae ad 3d
       -0.15420866 -0.04637638 -0.26769084 0.08480523
000110 58 2b 6f 3e 1e 5a 96 3e 19 3e 96 be 38 b7 e8 3d
       0.23356378 0.2936563 -0.29344252 0.11363071
000120 5d c1 84 be 2a ee ec bd 37 8c f9 3d a0 e0 e3 3c
       -0.25928774 -0.11568864 0.12184947 0.02781707
000130 77 89 85 3d da 07 ad bd 2d 4c f9 bd 6a 32 42 3e
       0.0652036 -0.08448763 -0.121727325 0.18964544
000140 a3 df 8a 3d d8 e9 88 bc ba a5 17 3e 10 e9 2e 3e
       0.067809366 -0.016713068 0.14809313 0.17081094
000150 91 bb 0e 3e 40 dc cc bd 65 e5 a3 bd 12 b9 bd 3b
       0.13938738 -0.10002947 -0.08002738 0.0057898844
000160 a4 4c 1d be 85 63 7b 3c 37 33 ac 3d 17 ae 0b be
       -0.15361267 0.0153435515 0.08408206 -0.13640629
000170 42 88 a0 3e 60 ec 64 bd 42 11 ce be 98 05 20 bc
       0.31353956 -0.055889487 -0.40247542 -0.009766959
000180 c3 b4 36 3d d6 fb 9e bd 63 82 cc 3d 77 30 ea 3d
       0.04460598 -0.07762878 0.09985807 0.11435025
000190 57 25 d5 bd 94 96 9b be 75 1d 52 bd a8 e7 13 3e
       -0.10407513 -0.3038832 -0.051297624 0.14443839
0001a0 cc 63 a7 3b 85 b0 db bd 5f 3f 45 3d 85 40 db 3e
       0.0051083323 -0.10727028 0.04815614 0.42822662
0001b0 0f f9 85 3e 12 e9 8b 3d c1 6d 8f 3e 05 c2 11 3e
       0.2616658 0.06831564 0.28013423 0.14234169
0001c0 0b ec 89 3e ac 08 15 be dd 0e 6e be 68 5c b7 3e
       0.269379 -0.1455409 -0.23247857 0.35812688
0001d0 c7 b8 78 3e bc 3e a9 bc ee 76 7a bd 36 4d 65 3e
       0.24289237 -0.020659797 -0.061148576 0.22392735
0001e0 15 b2 7c 3e b3 89 52 be 3b 27 d9 3d b4 f9 ae 3e
       0.24677308 -0.2056034 0.10603186 0.34174883
0001f0 93 d1 8f 3d c3 0a c7 3d 34 89 46 3d 3d 94 a9 3e
       0.07022395 0.097188495 0.04847069 0.3312091
000200 02 a1 e4 3d c9 10 2d 3e 30 ed 8a be 55 29 11 be
       0.11163522 0.16900934 -0.27134085 -0.14175923
000210 99 31 68 bd 29 dc 6d 3e e0 96 72 3d 0f be ae bd
       -0.056687925 0.23228516 0.059225917 -0.085323445
000220 58 0b c8 3d ea cc 8b bd 24 9d 64 bd 86 53 55 3e
       0.09767789 -0.06826194 -0.055813923 0.20832643
000230 11 02 51 be 25 d0 78 bd e7 e5 78 3d db b6 22 be
       -0.20410945 -0.060745377 0.060766127 -0.15890066
000240 d7 0d 08 bd ae 8b 4d 3e 0f 7b 53 bd fb b5 80 be
       -0.033216324 0.20072815 -0.05163103 -0.2513884
000250 b4 78 e3 bd cb 40 90 3d 1c be 5d be d5 d1 42 bd
       -0.11107007 0.07043608 -0.21654552 -0.047563393
000260 66 2c 08 be dd eb 81 bd 44 c9 6d be b0 79 46 3e
       -0.13298187 -0.063438155 -0.23221308 0.19382358
000270 a4 b3 3b 3e a5 17 92 be aa 9e 5a bc 20 3f 75 be
       0.18330246 -0.28533664 -0.0133434925 -0.23949862
000280 46 11 60 be c8 3e 95 3c bb b1 7b 3e 55 e2 c6 3b
       -0.2188159 0.018218413 0.24579518 0.0060694613
000290 3f e9 04 be 64 19 fd bd 61 c2 3c 3e 69 22 96 bb
       -0.12979601 -0.123583585 0.18433525 -0.0045817387
0002a0 00 eb 58 3d 26 71 14 bd 0f 75 8b 3c b6 cf 47 3d
       0.05295849 -0.03624072 0.017023591 0.048782073
0002b0 ff 03 ed 3d f9 ce 4f be 03 f7 3d 3e 12 cf 53 be
       0.11573028 -0.20293798 0.18551259 -0.2068446
0002c0 52 0b 95 bd 63 71 f4 bd cc 84 04 3e 18 7f 82 3e
       -0.0727755 -0.11935689 0.12941283 0.2548759
0002d0 c0 a6 b9 3d 20 4a 23 be 7b 2b 4a be 35 14 9f be
       0.09065008 -0.15946245 -0.19743149 -0.31070104
0002e0 e6 7e 0f be 9a f4 3e be 0a d5 ef 3d 82 ec 60 3e
       -0.14013252 -0.18647996 0.11710556 0.2196522
0002f0 14 ba 78 3e 52 33 58 bd db 0b 08 3e e4 2d db 3c
       0.24289733 -0.052783318 0.13285773 0.02675528
000300 ad 2f 45 bd 79 9b 1b be f4 9a 1d 3e 10 fa 28 be
       -0.04814117 -0.15196027 0.15391141 -0.16501641
000310 1a 7f d0 be 99 51 f5 bd 61 14 35 3d ff 06 86 be
       -0.4072197 -0.11978454 0.044208888 -0.26177213
000320 54 3c 19 3e 9b 9b fb be 33 69 96 be 1b 87 54 be
       0.1496442 -0.49142155 -0.29377136 -0.20754664
000330 7b 6c 56 be c4 ae 2c be e5 29 d1 bd c0 17 8e 3c
       -0.2093982 -0.16863543 -0.10213069 0.01734531
000340 41 c6 bc bd 2b 3f ab 3c d4 fc cb bc 38 8e 22 3e
       -0.092175014 0.020904144 -0.024900831 0.15874565
000350 5f 2e 80 3e 15 83 9e bc 93 28 b6 bd 4a 82 c9 3d
       0.25035378 -0.019349614 -0.08894458 0.09839304
000360 0b 22 6d 3e b7 7b ff 3d a5 3c 7d 3e bb 6c 22 3d
       0.23157518 0.124747686 0.24730165 0.039654475
000370 b6 41 09 bd 05 f0 f2 bd cd 4e 0e be 79 11 bc 3d
       -0.033509932 -0.11862186 -0.13897248 0.0918302
000380 a6 f8 21 3e 5f e1 d5 3d e8 8e 07 3e f4 a9 0f be
       0.15817508 0.10443377 0.13238108 -0.14029676
000390 37 2e 8d be a1 bf d3 bc 0e 3c 6f be b9 28 31 bd
       -0.27574322 -0.025848212 -0.23362753 -0.043251727
0003a0 ae 83 08 3e 9d 45 d4 be 54 2e 5a be 1e 72 27 3e
       0.13331482 -0.4145936 -0.21306735 0.16352126
0003b0 de 38 0b 3e 7c 06 ec bd 5a 64 2b 3e e3 ad 92 3e
       0.13595912 -0.11524674 0.167375 0.2864829
0003c0 94 c2 fe bd a0 f7 40 3e f6 af 9e bd 1a a0 fa be
       -0.124394566 0.18844461 -0.07748406 -0.48950273
0003d0 45 fb 08 be c2 00 a2 3e 9e 98 be 3d da 2b a2 3e
       -0.13377102 0.31641203 0.09306453 0.3167408
0003e0 d3 f6 00 3f 41 de f8 3d ea 8c 4f 3e c4 ea 0b be
       0.50376624 0.121517666 0.20268598 -0.13663775
0003f0 d1 a8 0f be e3 89 52 be f3 98 70 be fe ce 32 3e
       -0.14029242 -0.20560412 -0.23495845 0.17461774

hiden_layers.3.bias f4 [64]
000000 bc 01 0f 3e 69 ca c5 bd f5 ff cf 3d b0 d7 e0 3d
       0.13965505 -0.09657747 0.10156242 0.10978639
000010 62 4f 86 be e3 b2 dd bc d5 f6 bc bd 92 c3 65 be
       -0.2623244 -0.027062839 -0.09226767 -0.22437885
000020 b5 31 f1 3e c2 79 ce bc d6 a3 c0 3d 5e 82 a5 be
       0.47108236 -0.025204543 0.09406249 -0.32326025
000030 3c 41 4f be b4 40 ab bd 07 d0 2a be f2 6b e0 be
       -0.20239729 -0.083619505 -0.16680919 -0.43832356
000040 43 3e b5 3c 33 25 65 be 31 d6 41 bd 5e 1d d6 3c
       0.022124415 -0.22377472 -0.04732341 0.02613705
000050 e5 c7 96 bd 5c f8 70 3e 2a 66 4f be a5 19 c4 3a
       -0.073623456 0.23532242 -0.20253816 0.0014961256
000060 6f c5 17 3d f5 6b 54 3e 15 dd 5b be ea 68 a1 bb
       0.03705352 0.20744307 -0.21471055 -0.004925837
000070 1e 0a 89 3d 6d 91 b8 3d 72 58 5f 3d ea 27 25 bd
       0.06691383 0.09012113 0.054527707 -0.04032127
000080 3e db 93 3d cd e5 dc bd 47 5d 63 bb f3 73 49 3d
       0.072195515 -0.107860185 -0.0034693049 0.049182843
000090 9e 09 8c 3e b3 08 e0 3e 32 f7 26 3e 30 de 06 be
       0.27351087 0.43756637 0.16305235 -0.13170695
0000a0 6a 67 4e 3e 77 ce 2d be 91 0c 89 3d ee f3 ad bd
       0.20156637 -0.16973291 0.0669185 -0.084937915
0000b0 c3 5b 7e 3d 8c 3a 12 3e db ff 48 3e 6e 73 85 3e
       0.06209923 0.14280146 0.19628851 0.26064628
0000c0 de 9b 37 be 8b 46 da bc ea 3e 43 be 0f e2 69 be
       -0.17930552 -0.026644966 -0.19066969 -0.22840141
0000d0 ee 35 27 3e 67 b8 a1 3e 7a fc 14 be b4 db 7b be
       0.16329166 0.31586 -0.14549437 -0.24595529
0000e0 0e 32 f5 3d 1c bc 2d 3e da ba 03 3e 0f 8d 5e 3d
       0.11972438 0.1696629 0.12864247 0.054333743
0000f0 d2 aa 05 bd 43 5d ae 3e e4 c4 3f be a8 1f b6 3d
       -0.03263361 0.34055528 -0.18727452 0.08892757

hiden_layers.4.weight f4 [64, 64]
000000 8f b1 44 bd 41 88 14 3e e4 e0 d6 3d 6a 9b 92 be
       -0.048020896 0.14505102 0.10492113 -0.28634197
000010 89 c9 fb 3d 82 dc 3d bc 66 1a 96 3d d3 e8 be 3d
       0.12294299 -0.011588218 0.07329254 0.093217514
000020 61 87 e3 be c7 34 0b 3d 25 20 60 bd a9 1d dd 3d
       -0.44439223 0.03398588 -0.054718155 0.10796673
000030 87 88 ec bc e7 08 58 be 57 34 7d be 68 10 ae 3d
       -0.028873695 -0.21097146 -0.24726997 0.08499223
000040 9c ce 06 be 54 58 90 bc 33 e4 56 3e 9f 7a 3e 3e
       -0.13164753 -0.017620243 0.20985489 0.18601464
000050 e6 d8 dd be 5a 8d d3 3d cd c4 03 bd 60 7c 17 bd
       -0.43329543 0.10329695 -0.032170106 -0.036983848
000060 e4 e0 74 3d 09 65 a8 bd 59 e4 dc 3d 3b 2b 27 3d
       0.059784785 -0.08222396 0.10785741 0.040812712
000070 4a 3a a3 be 90 eb 9f be b3 18 88 be 2a f7 ca bd
       -0.3188041 -0.31234407 -0.26581344 -0.09910424
000080 59 af 62 3e d8 32 91 3d 47 65 08 3e fe 4c 24 be
       0.22137202 0.07089776 0.13319884 -0.16044995
000090 2a be d8 3d a7 84 9b 3b 52 8c fa bd 0c 81 c1 bc
       0.10583146 0.004746038 -0.12233795 -0.023621105
0000a0 55 9d 17 be a3 6d 59 3d 7b 2e 81 3e 62 71 36 3e
       -0.14806111 0.053083073 0.25230774 0.1781669
0000b0 23 46 d8 bd a8 ae 20 3e 54 d0 e4 3d 14 5d 2c be
       -0.105602525 0.15691626 0.11172548 -0.16832381
0000c0 3f aa 72 be 85 00 3a be 7b dc 3e bd f9 1e d9 3d
       -0.23697756 -0.1816426 -0.046596985 0.10601611
0000d0 cd b6 1d be 24 45 be 3d 79 a8 4e 3e 8b e1 6f bd
       -0.15401764 0.09290531 0.20181455 -0.058564704
0000e0 85 51 a7 3e 0c 7d b8 3d 27 59 1a be 75 53 0e be
       0.32679382 0.09008226 -0.15073071 -0.13899024
0000f0 b5 a1 42 3e c3 19 99 be 96 31 32 bd f3 c8 13 be
       0.19006999 -0.29902467 -0.04350432 -0.14432125
000100 e0 18 15 3e 63 01 2a be 00 32 7d be 24 06 23 3d
       0.1456027 -0.16602091 -0.24726105 0.039800778
000110 5a 00 66 bd 35 93 82 be da 08 ca 3c 2c 83 24 bd
       -0.05615268 -0.25502935 0.024662424 -0.040164158
000120 fa 15 d2 be 23 53 2a bd fd 7a 95 bd 5a 5f 42 3e
       -0.41032392 -0.04158319 -0.07298849 0.18981686
000130 6a 50 a0 3e 8a 03 07 be 0b 8f 0f be 6b 88 23 3e
       0.3131135 -0.13184944 -0.1401941 0.15970008
000140 04 87 ae be 84 03 5a 3d 4b 3c 00 3e 1c b8 15 3e
       -0.34087384 0.05322601 0.12523 0.14621013
000150 7d 23 f0 3e 89 9f 4a 3e 5e db 23 3e 2b 69 27 3e
       0.46902075 0.1978742 0.1600165 0.16348712
000160 46 ad a2 bb 5b 44 59 be 0b a1 90 be 03 17 91 3d
       -0.0049645035 -0.21217482 -0.28247866 0.07084467
000170 97 c4 a9 be 4c bf 9f bd 32 2a df be c7 7f 40 be
       -0.331578 -0.07800159 -0.4358688 -0.18798743
000180 c5 94 cb 3e 2f 6b 41 3e aa 34 2b bd a7 41 9a bb
       0.3976194 0.18888544 -0.04179827 -0.0047075334
000190 0f ff dd bc 84 49 2c 3d 54 c5 a0 3e db ce 29 be
       -0.02709916 0.042062297 0.3140055 -0.16582815
0001a0 95 5f 15 3e d1 61 61 be c0 3a a2 3e ff fc c1 3c
       0.14587243 -0.2200997 0.31685448 0.023680208
0001b0 c3 6f 18 be 98 4e d5 3e a7 00 b2 3d 7b cb 92 bd
       -0.14886384 0.41661525 0.08691531 -0.07167717
0001c0 50 83 9c be 4f 0e b9 be b0 2f 2f be fe 4f 9f 3d
       -0.30568933 -0.3614373 -0.17108035 0.07778929
0001d0 1f 92 1d 3e 0a 90 af bf 27 3f 75 3e 2d a8 0b bd
       0.15387772 -1.3715832 0.23949872 -0.03409593
0001e0 20 e8 df bd cc ce 36 be 00 d0 ed 3d a2 63 1e 3e
       -0.10932946 -0.17852324 0.116119385 0.15467694
0001f0 f8 76 0f 3f 04 9f 84 3e 9d ab 67 bc 0e e2 6b 3e
       0.56040907 0.2590257 -0.014140037 0.23035452
000200 e5 5f 6f be 67 79 d9 be 89 e0 09 3e 7b 75 99 be
       -0.23376425 -0.42475435 0.1346456 -0.29972443
000210 23 2b 69 bd 76 df 6f bd 13 25 23 3e 94 5b 80 3d
       -0.056925904 -0.05856272 0.15932111 0.06267467
000220 05 da fc bd 11 90 22 be 66 97 59 bd 49 99 38 bd
       -0.123462714 -0.1587527 -0.0531229 -0.04506806
000230 c9 12 c2 3c 53 c3 78 3e b0 be 9d 3e 34 df 4f be
       0.023690598 0.2429326 0.30809546 -0.20299989
000240 5f a1 d5 3c e0 5c c0 3b 2b 4c ac bd 85 ae 8d 3d
       0.026077924 0.0058704466 -0.084129654 0.069180526
000250 52 53 4b bf 81 e2 80 be 6a 17 8a be e5 ba 61 3e
       -0.7942401 -0.2517281 -0.2697099 0.22043951
000260 fd ab 72 be b5 e4 38 be 83 5a 0e bf 74 e9 76 3e
       -0.23698421 -0.18055995 -0.5560686 0.24112493
000270 1b 62 86 be 3d 81 a6 3e 57 77 f1 bd 7a e8 68 3e
       -0.26246724 0.32520476 -0.117903404 0.22744933
000280 67 2a 4d 3a 56 45 dd bd ce 3a 0e be c9 f9 02 3e
       0.0007826448 -0.108042404 -0.1388962 0.12790598
000290 41 dd 73 3e a6 fa e9 3d 48 8b 2c bf a6 af 8e 3e
       0.2381487 0.114247605 -0.67400026 0.27868384
0002a0 e2 e0 7a 3e 7b e8 a6 be 81 48 d5 be 92 ff da bd
       0.24499848 -0.32599244 -0.4165688 -0.106932774
0002b0 11 d3 d4 bc 83 38 db bd 61 9b fa 3d b2 55 af 3e
       -0.02597955 -0.10704138 0.122366674 0.34245068
0002c0 50 01 8b 3e 16 bb 7a bd ec 6b da 3e 3d d1 14 be
       0.2714944 -0.061213575 0.42660463 -0.14532943
0002d0 e8 0d d9 bd 37 3b 0c 3e 03 05 98 be 0f d1 3f be
       -0.105983555 0.13694464 -0.29691324 -0.18732093
0002e0 8b 74 e5 3d 28 5a da bb 6b 10 a2 3c d1 7a 3b 3e
       0.112038694 -0.0066635795 0.01978322 0.1830857
0002f0 a1 c2 98 be 7c 67 91 3d 01 44 e0 3d 4b 1b b8 3e
       -0.2983599 0.07099816 0.10950471 0.35958323
000300 ee 77 40 3d 54 29 52 be 2f ae 2f be 48 55 84 3e
       0.046989374 -0.20523578 -0.1715629 0.25846314
000310 eb b3 52 3e 99 d6 24 3e 20 1a b5 3e a7 8f 6e be
       0.20576446 0.16097488 0.35371494 -0.23296987
000320 40 ea 41 3e 02 f6 d2 3d 9b 38 26 3d 18 54 3e 3e
       0.18937016 0.103008285 0.040581327 0.18586767
000330 a7 d1 27 be 22 4d 84 be a2 7e b1 3c 29 84 98 3e
       -0.1638857 -0.25840098 0.021666829 0.2978833
000340 70 05 d7 be 68 48 14 3e 3b 78 65 be 5a 38 37 be
       -0.41996336 0.14480746 -0.22409146 -0.1789259
000350 a8 b5 a2 bd 2e d9 e5 3c e3 a1 da 3e fb 36 55 3e
       -0.079448044 0.02805766 0.42701635 0.20821755
000360 9f 46 51 3e 2e b2 a3 bd 77 8d ca 3d fc 3b b0 be
       0.20437096 -0.079929695 0.098902635 -0.34420764
000370 17 d6 3b bc cf f2 06 bf 34 b1 3b bb ee d1 23 bf
       -0.011464617 -0.52714247 -0.0028639557 -0.639922
000380 97 7f c4 be d1 ce 89 3e e3 17 5e be d0 d6 18 bd
       -0.38378593 0.269156 -0.216888 -0.037314236
000390 47 4a 1e 3e 3d 20 ee bc a2 01 f0 3d 5c 0b ef 3d
       0.15458022 -0.029068107 0.117190614 0.116720885
0003a0 1a 66 ca bd ac 78 54 3e 21 34 0d 3e 40 b4 ef 3e
       -0.098827556 0.20749158 0.13789417 0.46817207
0003b0 44 1d 1b be 10 d3 27 be 9b d1 36 be 56 89 70 be
       -0.15147883 -0.16389108 -0.17853396 -0.2348989
0003c0 c3 10 bc bd 06 04 50 3e ed bd 09 bd 5f 29 29 3e
       -0.091828845 0.20314035 -0.033628393 0.16519688
0003d0 f4 3f c5 bd 47 64 b3 3e 51 1c 6a 3e 80 06 f6 3e
       -0.09631339 0.35037443 0.22862364 0.48051834
0003e0 db c8 9f 3c f3 47 65 bd 14 d4 71 bd 94 1d ae be
       0.019504955 -0.05597682 -0.059040144 -0.3400694
0003f0 b7 b7 24 bd ac 3f fa bc d0 c6 b7 bd 0d ec 46 3d
       -0.040214267 -0.03054794 -0.08973467 0.04856496
