results/1_first_try/epoch2700/model_weights.pth (torch, 484214 bytes, 88 tensors)

init_layer.0.weight f4 [64, 3]
0	0xbe027499	-0.12739791
1	0xbd30a989	-0.04313043
2	0x3e021a67	0.12705384
3	0x3e926dd6	0.28599423
4	0xbcc8deb1	-0.02452025
5	0x3ba31e4b	0.0049779764
6	0xbe00eca8	-0.12590277
7	0xbe32cb36	-0.17460331
8	0xbb5ee121	-0.00340087
9	0x3e987959	0.2978008
10	0x3dacf81e	0.08445762
11	0x3d343862	0.043999083
12	0xbb9bd3d3	-0.004755476
13	0x3e3500e6	0.17676124
14	0x3dabf795	0.08396832
15	0xbe18de7d	-0.14928623
16	0xbeb53c84	-0.35397732
17	0x3d000378	0.031253308
18	0x3ded837d	0.11597345
19	0x3c54d1f8	0.012989514
20	0x3e7a1fbb	0.24426167
21	0x3ea0edf7	0.31431553
22	0x3e7b3080	0.2453022
23	0x3e1ccf9b	0.1531357
24	0x3e9cec61	0.30649093
25	0xbea5f679	-0.32414606
26	0x3c545f54	0.012962181
27	0xbe5ae119	-0.2137493
28	0xbe129399	-0.14314117
29	0x3e385708	0.1800195
30	0xbea0f0d1	-0.31433728
31	0x3da1ee49	0.079067774
32	0x3c059612	0.008153455
33	0x3df0db45	0.11760572
34	0x3e3e9d60	0.18614721
35	0xbd617ee3	-0.05505265
36	0xbd8da795	-0.06916729
37	0xbdb7fb21	-0.08983446
38	0x3c004d99	0.007831001
39	0xbdc0ebbf	-0.09419965
40	0x3d199292	0.037493296
41	0x3e01b73c	0.12667555
42	0x3e11e612	0.14247921
43	0xbe79dac2	-0.24399856
44	0xbd990a74	-0.07472697
45	0x3e644d45	0.22295101
46	0xbe424c04	-0.1897431
47	0xbdb91de1	-0.09038902
48	0x397609f2	0.00023464093
49	0x3cdf4809	0.027256029
50	0x3de6c628	0.11268264
51	0x3ea556f6	0.32292908
52	0x3e2c94cf	0.16853641
53	0xbddab87d	-0.106797196
54	0x3e183b68	0.14866412
55	0x3de44930	0.11146772
56	0xbe2de486	-0.16981706
57	0xbe83689a	-0.25665742
58	0x3d9ef972	0.07762422
59	0xbe008f4a	-0.1255466
60	0x3e5599c2	0.20859435
61	0xbdc1003e	-0.09423874
62	0xbd209023	-0.03919996
63	0x3eac2a16	0.3362586
64	0x3cdc0afd	0.026860708
65	0xbc3a8ebc	-0.01138657
66	0xbd3e0a78	-0.046396703
67	0xbea9ccf0	-0.33164167
68	0x3cc6ce98	0.024268433
69	0xbdcaf826	-0.09910612
70	0x3e13d565	0.14436872
71	0xbc51eccf	-0.012812807
72	0xbd096d47	-0.03355148
73	0xbce982ef	-0.028504817
74	0x3e248a0d	0.16068287
75	0xbdc66501	-0.09687234
76	0x3e5d32f8	0.21601474
77	0xbd96ad50	-0.073572755
78	0x3d8c19ec	0.06840882
79	0x3e32a666	0.17446288
80	0x3e33cff8	0.17559803
81	0xbe51aa9c	-0.20475239
82	0xbe3c2ad8	-0.18375719
83	0x3cedc06f	0.029022424
84	0xbc353145	-0.01105911
85	0x3bb2932c	0.005449673
86	0xbe0e43fc	-0.13893121
87	0x3dec027f	0.115239136
88	0xbeaf3056	-0.34216565
89	0x3d20cf5a	0.039260246
90	0xbec2b491	-0.38028386
91	0xbdd8ba73	-0.10582437
92	0xbd579c49	-0.05263928
93	0xbdf4d493	-0.11954608
94	0xbb2a8594	-0.002601956
95	0x3d8f426a	0.06995089
96	0xbdd0426f	-0.10168921
97	0x3e6260f2	0.22107294
98	0x3e348f53	0.17632799
99	0xbea1c5fa	-0.31596357
100	0x3e9a9e8a	0.3019908
101	0xbd114b91	-0.035472456
102	0x3da4d907	0.08049207
103	0xbdcf7c78	-0.101311624
104	0x3cf312bd	0.029672021
105	0xbddb36be	-0.107038006
106	0xbe30c75e	-0.17263553
107	0xbe009081	-0.12555124
108	0xbdc46a84	-0.09590629
109	0x3d8925c6	0.06696658
110	0x3d93729b	0.07199594
111	0xbe587d21	-0.21141483
112	0xbd0d74bf	-0.034535166
113	0x3cc2deda	0.023787905
114	0x3e3eca29	0.18631805
115	0xbe432ad2	-0.19059303
116	0xb9b8f869	-0.00035280295
117	0xbeb09e96	-0.3449599
118	0x3e358719	0.17727317
119	0x3e01c726	0.12673625
120	0x3d48251f	0.048863526
121	0xbb44eebf	-0.003004953
122	0xbe51522c	-0.20441502
123	0xbdd24ad4	-0.102681786
124	0x3d97cbc8	0.07411915
125	0xbe27387b	-0.1633014
126	0x3d1bce9d	0.03803884
127	0xbdc67d5a	-0.09691878
128	0x3e159983	0.14609341
129	0x3d6ecc29	0.05830017
130	0xbd423323	-0.04741205
131	0x3dd94f76	0.10610859
132	0x3e13e3b1	0.14442326
133	0xbe43f71c	-0.19137233
134	0xbdab9ee7	-0.083799176
135	0xbecac841	-0.39605907
136	0xbe2891aa	-0.16461816
137	0x3d9e2e89	0.077237196
138	0xbd81cf75	-0.063383974
139	0xbe02ac7e	-0.12761113
140	0x3d7eaddb	0.06217752
141	0x3d1b4f39	0.03791735
142	0x3e9ebacd	0.31001893
143	0x3c0862c4	0.008324329
144	0x3e1afab0	0.15134692
145	0x3ea8a6ac	0.3293966
146	0x3c8b96ee	0.017039742
147	0x3e1ca529	0.15297379
148	0xbe6dd305	-0.23225029
149	0x3e25c8dc	0.16189903
150	0xbe16a0be	-0.14709756
151	0xbe748200	-0.23877716
152	0xbcc88584	-0.024477728
153	0xbecf1d7e	-0.40452188
154	0xbdd662dc	-0.10468075
155	0xbd8ff51f	-0.07029175
156	0x3eb7a81e	0.3587045
157	0xbe87056e	-0.2637133
158	0x3cbdb35c	0.023156814
159	0xbe0076b6	-0.12545285
160	0xbe42ef29	-0.19036545
161	0x3cc60417	0.024171872
162	0x3e347bab	0.176253
163	0xbe57685c	-0.21035904
164	0xbdf91c28	-0.121635735
165	0x3e6d69e1	0.23184921
166	0x3d3f3049	0.046676908
167	0x3c69acfa	0.014262432
168	0x3e45a2c4	0.19300371
169	0x3dbb38f9	0.09141726
170	0x3dc566d4	0.096387535
171	0x3d5cbb6e	0.053889684
172	0xbc03dbc8	-0.008048005
173	0xbe01bdd6	-0.12670073
174	0x3dbc9108	0.0920735
175	0x3ec68ebd	0.38780776
176	0x3ba9ee68	0.005185891
177	0x3dc2c68d	0.09510527
178	0x3e052260	0.13001394
179	0xbdbed647	-0.09318214
180	0xbe5aefac	-0.2138049
181	0xbe35cf92	-0.17754963
182	0xbce1913e	-0.027535077
183	0xbe3efd06	-0.18651208
184	0x3c29d6c0	0.010366142
185	0xbc5b2f7a	-0.0133780185
186	0x3ebb8ffa	0.36633283
187	0xbd896a9a	-0.06709786
188	0x3c3431da	0.010998214
189	0x3eb5a84a	0.35479957
190	0x3c3bc6eb	0.011461
191	0x3da3ba45	0.079945125

init_layer.0.bias f4 [64]
0	0x3d7ff27d	0.062487114
1	0x3e3614ef	0.17781423
2	0xbddc1c4f	-0.10747587
3	0x3e1d2b48	0.15348542
4	0x3d0c4a01	0.034250263
5	0xbda43cd8	-0.080194175
6	0xbde3d74e	-0.111250505
7	0x3e26eee5	0.16302069
8	0x3db51d25	0.088434495
9	0xbe247d01	-0.1606331
10	0xbe09f09e	-0.13470694
11	0x3d9f7fa9	0.07788021
12	0xbd6117e5	-0.05495443
13	0xbdba7444	-0.09104207
14	0x3d87736d	0.066138126
15	0x3df746f5	0.12074081
16	0x3c47ae14	0.0121875
17	0x3e323b22	0.1740537
18	0x3e14cf23	0.14532141
19	0xbe09a80c	-0.13443011
20	0x3e05c12b	0.13061969
21	0x3e251c31	0.16124035
22	0xbd6ef7ae	-0.058341675
23	0xbdeed5e8	-0.11661893
24	0x3ddc5cfe	0.10759924
25	0xbdc1c880	-0.094620705
26	0x3e078aed	0.1323659
27	0xbdd2c096	-0.10290639
28	0xbd4f0bb5	-0.050548274
29	0x3db1b1bb	0.086764775
30	0xbe28f29f	-0.16498803
31	0xbe003e76	-0.12523827
32	0xbde05c5a	-0.10955115
33	0xbe0375f6	-0.12837967
34	0x3de5c942	0.112200275
35	0xbe09bc44	-0.13450724
36	0xbd83bd69	-0.064326115
37	0xbe090518	-0.1338085
38	0x3dd5fbcf	0.10448419
39	0xbe201f4b	-0.15636937
40	0xbd8ccaaf	-0.06874596
41	0xbe00957f	-0.12557028
42	0xbd9d6064	-0.07684401
43	0x3d9a031b	0.075201236
44	0x3e071fb9	0.13195695
45	0xbe1ad271	-0.1511934
46	0xbdd3fe2b	-0.10351213
47	0xbd70b5af	-0.058767017
48	0x3cb5f9d6	0.022213858
49	0x3de601f8	0.11230844
50	0xbe0f167c	-0.13973421
51	0xbe273bdd	-0.1633143
52	0x3e10a917	0.14127003
53	0xbd9b9a8d	-0.075978376
54	0x3e11d84f	0.14242671
55	0x3e291c19	0.16514625
56	0x3e0b145a	0.13581982
57	0xbde33b43	-0.11095288
58	0x3d3d679b	0.046241384
59	0x3cde17b4	0.027110912
60	0xbe23ceec	-0.15996903
61	0xbe06ed74	-0.13176519
62	0x3e261421	0.16218616
63	0x3e103585	0.14082916

hiden_layers.0.weight f4 [64, 64]
0	0xbe2865c7	-0.16445075
1	0x3db52275	0.08844463
2	0x3dd6f8b1	0.10496653
3	0x3e47907e	0.19488713
4	0xbe2d69e2	-0.16934922
5	0x3d2f4de0	0.042798877
6	0x3d26ec68	0.0407528
7	0xbd9e8812	-0.07740797
8	0x3becd136	0.0072270883
9	0xbdb4d35e	-0.088293776
10	0xbcff3f62	-0.031158153
11	0x3e35fcab	0.17772166
12	0x3a9877f0	0.0011632424
13	0x3e1d14a5	0.15339907
14	0x3e2e523f	0.17023562
15	0xbe12ff14	-0.14355117
16	0xbd1599fd	-0.036523808
17	0xbdaaa536	-0.08332293
18	0x3d0c099c	0.03418885
19	0xbe507e7f	-0.20360754
20	0x3d18a7e1	0.037269477
21	0x3e456456	0.19276556
22	0x3c1b6ce6	0.009486413
23	0xbeaafd68	-0.3339646
24	0x3e3ec200	0.18628693
25	0xbceb3939	-0.02871381
26	0xbd785d47	-0.06063583
27	0xbe1df740	-0.1542635
28	0xbe016f76	-0.12640175
29	0x3c7853e2	0.015156718
30	0xbeae79a1	-0.3407717
31	0xbdac23a5	-0.08405236
32	0xbde07aa7	-0.10960894
33	0xbdc770ea	-0.097383335
34	0x3e11f1eb	0.1425244
35	0xbd4ca895	-0.04996546
36	0xbbcff841	-0.006346733
37	0xbde296d1	-0.11063922
38	0x3e6103a1	0.2197404
39	0x3d37bb8e	0.0448566
40	0x3dbdd89a	0.09269829
41	0xbe0e0494	-0.13868934
42	0x3d85767b	0.06516739
43	0xbd46a7ae	-0.048499756
44	0xbb107218	-0.0022040661
45	0xbd240e6d	-0.04005282
46	0xbce55182	-0.027992968
47	0xbe2c396f	-0.16818784
48	0x3e59fcd8	0.21287858
49	0xbdcde4ce	-0.10053407
50	0xbe3c2c75	-0.18376334
51	0xbd9a46a1	-0.07533003
52	0x3dc7545d	0.09732888
53	0xbd374eae	-0.04475277
54	0x3e6326d3	0.22182779
55	0x3e993fca	0.2993148
56	0xbdbea381	-0.0930853
57	0xbe185727	-0.14876996
58	0xbdd12183	-0.1021147
59	0x3dbc6a61	0.09199978
60	0xbbe2e189	-0.0069238585
61	0xbe9e4cd7	-0.30918
62	0x3e1fb770	0.1559732
63	0xbd6b5f8e	-0.057464175
64	0xbdeecaa6	-0.11659746
65	0x3cfb5c03	0.030683523
66	0xbe9737fc	-0.295349
67	0x3ed5c773	0.4175373
68	0xbe0bdd82	-0.13658717
69	0xbdc5b3d5	-0.09653441
70	0x3e318697	0.17336498
71	0x3bea1045	0.0071430528
72	0x3e024eb0	0.1272533
73	0xbe8c6a6a	-0.27424937
74	0x3d466764	0.048438445
75	0xbd86983d	-0.06572006
76	0xbe200dbe	-0.15630242
77	0xbd668dc4	-0.056287542
78	0x3dea7792	0.114485875
79	0x3e86e3fe	0.2634582
80	0xbc95ddfa	-0.018294323
81	0x3ea96fc4	0.33093083
82	0x3dfcf823	0.12352016
83	0xbe0ed088	-0.13946736
84	0x3e250125	0.16113718
85	0x3d526e06	0.051374458
86	0x3db9c231	0.09070242
87	0xbdf4cd59	-0.119532295
88	0xbd9d8991	-0.07692254
89	0xbdf47e78	-0.119381845
90	0x3e9685c7	0.2939894
91	0x3d302968	0.043008238
92	0x3dbe7e92	0.09301485
93	0x3e57a992	0.2106078
94	0xbedac384	-0.42727292
95	0xbe8b05c2	-0.2715283
96	0xbd6a5582	-0.057210453
97	0xbdf497f6	-0.11943047
98	0x3e218abb	0.15775578
99	0x3d627dfc	0.05529593
100	0x3d613b63	0.054988276
101	0xbe953d18	-0.29148173
102	0xb94a7e52	-0.00019311279
103	0x3c41303d	0.011791286
104	0xbc780a0a	-0.015139112
105	0xbdc77a9c	-0.09740183
106	0xbe50c922	-0.20389226
107	0x3d02f562	0.031972297
108	0x3e4edb86	0.20200929
109	0xbebd08d0	-0.36920786
110	0x3e11e902	0.14249042
111	0xbda10c90	-0.07863724
112	0x3cc38672	0.02386782
113	0xbd6cc9fa	-0.057809807
114	0xbe207358	-0.15669
115	0xbeb306e4	-0.34966195
116	0x3e882ab9	0.26595095
117	0xbe87641c	-0.26443565
118	0x3e808301	0.25099948
119	0x3eb5f90d	0.35541573
120	0xbd479b1b	-0.048731904
121	0xbd5f2734	-0.054480746
122	0xbe055eab	-0.13024394
123	0xbdaf8364	-0.08569983
124	0x3ddf29b0	0.10896623
125	0xbe2f33b5	-0.17109568
126	0x3ed148ed	0.4087595
127	0x3de39b4b	0.11113604
128	0x3d79bd33	0.06097145
129	0xbe0b45f1	-0.136009
130	0x3e9adfe2	0.30248934
131	0xbdd070dc	-0.10177776
132	0xbe9f91ef	-0.31166026
133	0x3d2223b9	0.03958485
134	0xbc6f4adb	-0.014605249
135	0xbea82531	-0.32840875
136	0x3d3105f3	0.043218564
137	0x3c83fb59	0.016111063
138	0x3cf182a1	0.029481234
139	0x3db885c5	0.090098895
140	0x3e398329	0.1811644
141	0xbe50c1ab	-0.20386378
142	0x3e8a984c	0.27069318
143	0xbe0a2d1c	-0.1349377
144	0xbe08aaa2	-0.13346341
145	0xbe8f10e3	-0.2794257
146	0x3d2d4cb4	0.042309478
147	0x3d58badd	0.05291258
148	0xbd54ac24	-0.05192198
149	0xbe8024e6	-0.2502815
150	0xbdbfe1fc	-0.09369275
151	0x3cd2d020	0.025734007
152	0xbd861d8f	-0.065486066
153	0xbdfed023	-0.12442043
154	0xbe3be7e2	-0.18350175
155	0x3e7891f2	0.24274424
156	0x3cd7e994	0.026356496
157	0xbe1a622d	-0.15076514
158	0x3ebaf9e2	0.3651877
159	0x3e6c2b0b	0.23063295
160	0xbe57a681	-0.2105961
161	0xbd32fcd6	-0.043698154
162	0x3e20ea1e	0.15714309
163	0x3ecee68d	0.4041027
164	0xbdaa1c82	-0.08306219
165	0xbd0e6d12	-0.034771986
166	0xbd0db6ea	-0.03459827
167	0x3d841954	0.064501435
168	0xbe011d45	-0.12608822
169	0x3da77e70	0.08178413
170	0x3e4d24ef	0.2003362
171	0x3e0a585c	0.13510269
172	0x3e3ed01c	0.18634075
173	0x3db5ad6b	0.088709675
174	0x3e0e6951	0.13907363
175	0xbc06b39d	-0.008221534
176	0xbcecff36	-0.028930288
177	0x3c617a80	0.013762116
178	0x3e42ac18	0.19010961
179	0x3dcc916d	0.09988675
180	0xbc53819e	-0.012909321
181	0xbc93022e	-0.017945375
182	0xbde0f1f4	-0.10983649
183	0xbdc143a8	-0.094367325
184	0xbeb83849	-0.35980442
185	0x3ea3558f	0.31901214
186	0xbe61171d	-0.21981473
187	0xbe23d27e	-0.15998265
188	0x3ecded54	0.4022013
189	0xbcedfe38	-0.029051885
190	0xbe94efa4	-0.2908908
191	0x3d1ce02e	0.038299732
192	0x3e2241f1	0.15845467
193	0xbe82c63a	-0.2554186
194	0x3d29abf8	0.041423768
195	0xbe2829c8	-0.16422188
196	0x3e047f0b	0.12939088
197	0x3e1b8725	0.15188272
198	0xbcc0f763	-0.023555463
199	0xbe1a3ef9	-0.15063085
200	0xbe8a2717	-0.26982948
201	0xbd600ae4	-0.054697886
202	0x3e2cc03a	0.16870204
203	0xbc7ac2e8	-0.015305258
204	0xbd2f58c4	-0.042809263
205	0xbc36b141	-0.011150659
206	0xbda0e948	-0.07856995
207	0xbe7704be	-0.24122903
208	0xbd47bbcd	-0.048763085
209	0x3d1aec32	0.03782291
210	0x3ccc12e1	0.024911346
211	0xbcb52bdf	-0.022115646
212	0x3c87bf8c	0.016570829
213	0xbe8928f0	-0.26789045
214	0xbe38f639	-0.18062676
215	0xbb127411	-0.0022347013
216	0x3e3ed6b0	0.18636584
217	0x3dc1563a	0.094402745
218	0xbd1cf1ca	-0.038316526
219	0xbad96ee4	-0.0016588834
220	0xbd6ebbbc	-0.058284506
221	0xbe639e58	-0.22228372
222	0xbd584180	-0.05279684
223	0x3e060ece	0.13091585
224	0xbd26f163	-0.040757548
225	0x3e33d4c4	0.17561632
226	0xbe62e39a	-0.22157136
227	0x3cd63761	0.026149454
228	0x3cd6956c	0.026194297
229	0xbd5d29d7	-0.05399498
230	0x3b2a41e9	0.0025979227
231	0x3d98342d	0.07431827
232	0xbe529a61	-0.20566703
233	0x3d14902d	0.03627031
234	0x3dbaa807	0.0911408
235	0x3e0fd962	0.14047769
236	0xbdb8053e	-0.08985375
237	0x3e1a81a2	0.15088513
238	0x3de8194e	0.113329515
239	0x3cf39201	0.029732706
240	0x3d7bae10	0.061445296
241	0xbe051d42	-0.12999442
242	0x3e45ffe4	0.19335896
243	0x3bd60db9	0.0065323976
244	0xbe9a045e	-0.30081457
245	0x3e3fd5fd	0.18733974
246	0x3d8d2373	0.06891527
247	0x3c5fb6ed	0.013654453
248	0xbe6942c9	-0.22779383
249	0xbd2ec6ce	-0.042670064
250	0xbdfb8098	-0.12280387
251	0x3d9f985d	0.07792733
252	0xbdaf1088	-0.08548075
253	0x3df94b76	0.12172596
254	0xbe4a5f66	-0.19762954
255	0xbe12917e	-0.14313313

hiden_layers.0.bias f4 [64]
0	0x3e08c7bf	0.13357447
1	0x3db2ca51	0.08729995
2	0xbe336cd2	-0.1752198
3	0xbdb5488e	-0.08851729
4	0x3dd4cbbe	0.10390423
5	0x3dddfd9f	0.1083939
6	0x3e2d3e8d	0.16918392
7	0xbdf1d959	-0.11809034
8	0xbe32fad4	-0.17478496
9	0xbe0abc4f	-0.13548397
10	0xbe1ed16e	-0.15509579
11	0x3dcf2587	0.1011458
12	0x3e31c959	0.17361964
13	0xbdef9bc7	-0.11699634
14	0x3de48cc8	0.111596644
15	0xbe4c3b24	-0.19944435
16	0xbe1e0694	-0.15432197
17	0xbdb27dc4	-0.08715394
18	0x3de89c01	0.113578804
19	0x3cb4f210	0.02208808
20	0x3d099264	0.033586875
21	0x3dd30fda	0.10305758
22	0xbd90fdff	-0.07079696
23	0xbdac7505	-0.08420757
24	0xbcf2eb30	-0.029653162
25	0x3d3f0b37	0.046641555
26	0x3d91a12f	0.071108215
27	0xbdaae78a	-0.08344944
28	0x3ddaffc6	0.10693316
29	0x3deb9c70	0.115044475
30	0x3e006dba	0.12541857
31	0xbdc5ba68	-0.09654695
32	0xbc2842a1	-0.010269792
33	0xbdbe9f15	-0.09307686
34	0xbdc70339	-0.097174115
35	0x3d762bae	0.06010025
36	0xbd02981d	-0.031883348
37	0x3dc6c1c7	0.09704929
38	0x3db86f85	0.09005646
39	0xbd76c16a	-0.060243048
40	0xbe29c9bd	-0.16580863
41	0x3df494a2	0.11942412
42	0xbdd407a6	-0.10353021
43	0xba7cd157	-0.0009644231
44	0xbda455ae	-0.080241546
45	0x3c9f7369	0.019464212
46	0xbddb18bf	-0.10698079
47	0x3bbf5680	0.005839169
48	0x3d82de17	0.063900165
49	0xbd83a8e7	-0.064287
50	0x3ddc092a	0.107439354
51	0xbdc156ef	-0.094404094
52	0x3e1dbbaa	0.1540362
53	0xbde6d6d3	-0.11271443
54	0x3de8d0e4	0.11367968
55	0x3e28128c	0.16413325
56	0xbdd299f3	-0.1028327
57	0x3e238b04	0.15970999
58	0x3d51f64a	0.05126027
59	0x3d9e9b75	0.07744495
60	0x3de9168b	0.11381253
61	0x3c5f81e7	0.013641811
62	0xbd233f71	-0.039855424
63	0xbe1cb8e0	-0.15304899

hiden_layers.1.weight f4 [64, 64]
0	0xbdd8846f	-0.10572135
1	0xbdd7f807	-0.10545354
2	0xbebdef8e	-0.37096828
3	0x3e38dbfb	0.18052666
4	0xbf131b13	-0.57463187
5	0x3ddd0f6e	0.107939586
6	0xbc885c32	-0.016645525
7	0xbe5829b7	-0.21109663
8	0x3db3aa81	0.087727554
9	0x3dd76b4f	0.10518514
10	0x3cfda659	0.03096311
11	0xbe81047e	-0.2519874
12	0x3df74b7c	0.120749444
13	0xbcd6fa4b	-0.026242396
14	0xbd4b8714	-0.049689367
15	0xbe6e931b	-0.23298304
16	0xbdab518e	-0.08365165
17	0x3eb8d1ad	0.3609747
18	0xbd979e50	-0.074032426
19	0x3e147846	0.14499006
20	0x3dea92db	0.11453792
21	0xbd874da1	-0.066066034
22	0x3d1bfd77	0.03808352
23	0xbd30900d	-0.043106128
24	0xbe06e885	-0.13174637
25	0xbe2f31cf	-0.17108844
26	0x3d50e324	0.05099787
27	0x3e96a8b9	0.294256
28	0xbe3e6af7	-0.18595491
29	0xbeba6402	-0.36404425
30	0xbe9b952f	-0.30387256
31	0x3cbb371f	0.022853432
32	0xbeb234a4	-0.34805787
33	0x3eaae7d7	0.33380005
34	0xbe820868	-0.25397038
35	0xbed1d9a2	-0.40986353
36	0xbe1890cb	-0.14898984
37	0xbd93afb0	-0.07211244
38	0xbd42baa3	-0.047541272
39	0x3dc3a808	0.09553534
40	0x3d9d475c	0.07679626
41	0x3e9ac4f0	0.30228376
42	0xbdc00c15	-0.093773045
43	0x3e8650bb	0.26233467
44	0x3edce910	0.43146563
45	0xbe0e1cab	-0.13878123
46	0x3d358957	0.04432043
47	0xbdeb8abf	-0.11501073
48	0x3db49362	0.088171735
49	0xbe959ab4	-0.29219592
50	0x3cb3a8df	0.02193111
51	0x3e7f8d2f	0.24956201
52	0xbe404e8e	-0.18779966
53	0x3e465bbe	0.19370934
54	0xbd4e4faf	-0.05036896
55	0xbe41644b	-0.18885915
56	0x3e17ffcc	0.14843673
57	0xbe110b0a	-0.14164367
58	0xbebb31d0	-0.3656144
59	0x3e27c193	0.16382436
60	0x3e281679	0.16414823
61	0xbe0ff9ac	-0.14060086
62	0xbd7cc735	-0.061713416
63	0xbe76c527	-0.24098645
64	0x3d4906a7	0.04907861
65	0xbcbd237f	-0.023088215
66	0xbe2aec93	-0.16691808
67	0x3dd0c58b	0.10193928
68	0xbdddddba	-0.108333066
69	0xbcaa2058	-0.020767376
70	0xbe7df4d6	-0.24800429
71	0x3c41e969	0.0118354345
72	0x3e6c0060	0.23047018
73	0xbdc1499e	-0.094378695
74	0x3e5f3b11	0.21799876
75	0x3dc98de2	0.09841515
76	0x3d4e35a1	0.050344113
77	0xbd310fb2	-0.04322786
78	0x3e30d23e	0.17267701
79	0x3dc17102	0.09445383
80	0x3e15f6c8	0.14644921
81	0xbd8c4f6c	-0.06851086
82	0x3dd6b84a	0.10484369
83	0x3dc0ebc3	0.09419968
84	0x3d6d034f	0.057864483
85	0x3e6804d9	0.22658099
86	0xbe3bb466	-0.18330535
87	0x3dc937d7	0.09825104
88	0x3e3cfa57	0.18454872
89	0x3e656d4f	0.22404979
90	0x3e53536d	0.20637293
91	0xbd45f0e2	-0.048325427
92	0xbe0a0bce	-0.13481066
93	0x3d93adfe	0.07210921
94	0xbcfe98a9	-0.031078653
95	0x3e1ad778	0.15121257
96	0x3e443b08	0.19163144
97	0x3e2bb141	0.16766836
98	0xbe4ff801	-0.2030945
99	0xbe25f40c	-0.16206378
100	0xbeabea4b	-0.3357719
101	0xbd865f04	-0.065610915
102	0xbce50ba5	-0.027959654
103	0xbe55acc4	-0.20866686
104	0xbe29589c	-0.16537708
105	0xbe8ab164	-0.27088463
106	0xbdae9df0	-0.08526218
107	0xbe2ead33	-0.17058258
108	0x3d076f5b	0.03306518
109	0xbd43b91e	-0.047783963
110	0xbd8e72a2	-0.06955458
111	0xbeef076c	-0.4668535
112	0x3e7949a5	0.243445
113	0x3d915793	0.070967816
114	0xbe37e2ac	-0.17957562
115	0x3d42e16f	0.04757827
116	0x3d290bb8	0.04127094
117	0xbd304881	-0.043037895
118	0xbdcd777d	-0.10032556
119	0xbd6ecd8e	-0.0583015
120	0xbc0f8f4d	-0.008762193
121	0x3e138823	0.14407401
122	0xbe6cd4aa	-0.23128
123	0x3de5abeb	0.112144314
124	0xbcbd80bc	-0.023132674
125	0xbd81345b	-0.06308814
126	0xbdb7575d	-0.0895221
127	0x3e76ba59	0.24094523
128	0x3d9f5e17	0.07781618
129	0x3ea223c1	0.31667903
130	0x3d6d08a0	0.057869554
131	0x3d88bb85	0.066763915
132	0x3ef1daed	0.4723734
133	0x3e80463e	0.2505359
134	0xbdf3dfe4	-0.11907938
135	0x3e8a4d57	0.2701213
136	0x3c9cace3	0.019125408
137	0xbe1c8e2a	-0.15288606
138	0xbe898118	-0.26856303
139	0x3de9d7b5	0.11418096
140	0x3d243048	0.040085107
141	0x3d5a30c4	0.053269163
142	0x3e2b1e84	0.1671086
143	0x3eafa40a	0.3430484
144	0xbda089d3	-0.07838788
145	0xbde9c278	-0.11414045
146	0x3e22762f	0.15865396
147	0x3de35033	0.11099281
148	0x3de248fd	0.11049078
149	0xbe757769	-0.23971333
150	0xbe4ecb25	-0.20194681
151	0xbe8467b3	-0.25860366
152	0xbd68f69f	-0.05687582
153	0x3de33b50	0.11095297
154	0xbd945cff	-0.072443
155	0xbe4a2ad1	-0.19742896
156	0x3ebe7f15	0.3720633
157	0x3ef57785	0.4794275
158	0x3ed35e17	0.41282722
159	0x3e92a102	0.28638464
160	0x3e8a2512	0.26981407
161	0xbe874369	-0.26418617
162	0xbdf50466	-0.119637296
163	0xbd54f5a4	-0.051992074
164	0xbd42084d	-0.047371197
165	0xbddc705b	-0.107636176
166	0x3cef5991	0.029217513
167	0xbdb0e89b	-0.08638116
168	0xbe2688d3	-0.16263132
169	0xbe60f8ab	-0.2196986
170	0xbe8d7889	-0.27631024
171	0xbdf0944d	-0.11747036
172	0xbe9610b8	-0.2930963
173	0x3df7a130	0.12091291
174	0xbe288645	-0.1645747
175	0x3dbf65a0	0.09345555
176	0x3c8892db	0.016671589
177	0x3ea0009e	0.3125047
178	0x3e07617d	0.13220783
179	0xbe5c0ed3	-0.2149003
180	0x3d76d1e7	0.060258772
181	0xbeae0b71	-0.33993104
182	0x3e195ff4	0.1497801
183	0xbd2a6d74	-0.04160829
184	0xbe8a9ec9	-0.27074268
185	0x3e7e2342	0.24818137
186	0xbe0a98bf	-0.1353483
187	0x3e0c4d1e	0.13701293
188	0xbdaae4d3	-0.08344426
189	0x3d6bcc61	0.057567958
190	0xbde87a60	-0.11351466
191	0x3d674ee7	0.05647173
192	0x3e187e83	0.1489201
193	0x3d82dcb1	0.0638975
194	0xbe1112a1	-0.14167263
195	0x3e111541	0.14168264
196	0x3f0d222c	0.5513027
197	0xbe740771	-0.23830964
198	0xbc86b2f9	-0.016442763
199	0xbe1579c1	-0.14597227
200	0xbd3b3e12	-0.04571349
201	0xbd3ec545	-0.04657485
202	0xbe00bbfd	-0.12571712
203	0x3ebde8a6	0.3709156
204	0x3e8ec770	0.27886534
205	0x3e50cb58	0.2039007
206	0xbe04b8ae	-0.12961075
207	0x3e10710f	0.14105628
208	0xbd1eff9b	-0.038817983
209	0xbde78478	-0.11304563
210	0x3d928715	0.07154671
211	0x3e3f3eb5	0.18676265
212	0x3d2ad720	0.041709065
213	0xbe8b668c	-0.27226675
214	0x3e1048bf	0.1409025
215	0x3de2f3ff	0.11081695
216	0x3d9d45ee	0.07679354
217	0x3b986a0c	0.0046513136
218	0xbdfd2fb6	-0.12362616
219	0xbdbc75bc	-0.092021435
220	0x3ecebb46	0.40377253
221	0x3eb89bfd	0.3605651
222	0x3e57883f	0.21048068
223	0x3e572fb2	0.21014288
224	0x3e76cd13	0.24101667
225	0xbde25d85	-0.11052994
226	0xbe1add90	-0.15123582
227	0x3dbb27e4	0.09138468
228	0x3db5479f	0.08851551
229	0x3e38bd81	0.1804104
230	0x3d7b15de	0.06130015
231	0x3e6934df	0.22774075
232	0xbcc0eb08	-0.023549572
233	0xbcb5865f	-0.0221588
234	0x3dd6c89b	0.10487481
235	0x3e20816b	0.15674369
236	0xbe50aab1	-0.20377614
237	0xbe379e0d	-0.17931385
238	0xbe8147c9	-0.2525008
239	0xbda313a1	-0.07962728
240	0xbba21a07	-0.0049469504
241	0x3e197acc	0.1498825
242	0xbcec3359	-0.028833078
243	0x3ddf63d4	0.109077126
244	0x3e751338	0.23933113
245	0xbd3108fa	-0.04322145
246	0xbe013044	-0.12616068
247	0x3c11cadc	0.008898463
248	0xbded8ab6	-0.11598723
249	0xbe2e1a53	-0.1700223
250	0x3e61c370	0.2204721
251	0xbd0733f4	-0.03300853
252	0xbdf78574	-0.12086001
253	0x3e6d9cc7	0.23204337
254	0x3d8fd934	0.0702385
255	0xbe522e8e	-0.20525572

hiden_layers.1.bias f4 [64]
0	0xbd2eaa68	-0.04264298
1	0x3d28db1e	0.04122459
2	0x3e58ffe8	0.2119137
3	0x3d84b28a	0.06479366
4	0x3d72c2bd	0.05926775
5	0x3d83ae22	0.064296976
6	0xbcc1a4ce	-0.023638155
7	0x3e0fbbdf	0.14036511
8	0x3e1f8d64	0.1558128
9	0xbcd556ae	-0.026042309
10	0xbd2988d3	-0.04139025
11	0xbe14dae4	-0.14536625
12	0x3d63254e	0.0554555
13	0x3d5ca438	0.05386755
14	0x3e213c52	0.15745667
15	0xbd7ee636	-0.062231265
16	0xbb2e9186	-0.0026637032
17	0xbd6e2251	-0.058138195
18	0x3d0cc5cd	0.034368325
19	0xbe3eda58	-0.18637979
20	0x3d815a6b	0.06316074
21	0xbd9b366d	-0.0757874
22	0xbe12a2a1	-0.1431985
23	0x3d708bcb	0.058727067
24	0x3d2ca56e	0.042149954
25	0x3d3e14f2	0.046406694
26	0x3d93a5f6	0.07209389
27	0xbc1fe382	-0.009758832
28	0xbdab2445	-0.08356527
29	0xbcd88f59	-0.026435541
30	0x3d9420ed	0.072328426
31	0xbb31329d	-0.0027038225
32	0xbd8e05b7	-0.06934684
33	0x3dae5cf5	0.08513824
34	0xbdaab847	-0.08335929
35	0xbd29a134	-0.0414135
36	0xbd816814	-0.063186795
37	0x3de98dcb	0.11403998
38	0xbdd67ca1	-0.1047299
39	0x3dddb747	0.10825973
40	0x3da41e55	0.08013598
41	0xbd8f5d15	-0.07000176
42	0xbe421520	-0.18953371
43	0x3e35a807	0.17739879
44	0xbcb6c9ab	-0.02231296
45	0x3d28bb39	0.041194174
46	0xbd9f5b5a	-0.07781096
47	0x3de9c896	0.11415212
48	0xbe0875e3	-0.1332622
49	0x3de10374	0.10986987
50	0x3dc05725	0.093916215
51	0x3d3d94f6	0.04628464
52	0xbd3083cf	-0.043094452
53	0xbd7e91d4	-0.06215079
54	0x3ccf18f9	0.025280463
55	0xbe61f5bf	-0.22066401
56	0x3d0e0e9f	0.034681913
57	0xbdf5a8fd	-0.119951226
58	0xbc234a16	-0.009966394
59	0xbc6827ae	-0.014169617
60	0xbe3fb30e	-0.18720648
61	0xbcd1eadf	-0.02562469
62	0x3d95206d	0.07281575
63	0x3d6a1725	0.05715098

hiden_layers.2.weight f4 [64, 64]
0	0xbdfc6d31	-0.12325514
1	0x3e218818	0.15774572
2	0x3ccc5039	0.024940597
3	0x3cedb74b	0.029018065
4	0xbcb268fc	-0.021778576
5	0xbdf1a40b	-0.11798867
6	0xbe8b42cc	-0.271994
7	0xbe8d6216	-0.27613896
8	0xbed0fddf	-0.40818688
9	0xbd6b37b9	-0.05742619
10	0x3d87e29c	0.06635019
11	0xbdcd0448	-0.10010582
12	0xbd58e489	-0.052952323
13	0x3dff74a5	0.1247342
14	0xbd5c238f	-0.05374485
15	0x3e527158	0.2055105
16	0x3ed4f18c	0.41590536
17	0xbcb0b1a3	-0.021569079
18	0xbdd28ed1	-0.10281146
19	0xbe6dfeff	-0.23241805
20	0x3e4999e4	0.19687611
21	0x3e20e3e1	0.15711929
22	0xbe830e21	-0.25596717
23	0x3ebcbd6e	0.36863273
24	0x3b74a925	0.0037332263
25	0xbe5c7b5d	-0.21531434
26	0xbe399b8d	-0.18125744
27	0x3cad5f66	0.021163654
28	0x3c0b43cd	0.008500052
29	0xbe16aac4	-0.1471358
30	0x3e5d9583	0.21639065
31	0xbc814e10	-0.015784293
32	0xbe409454	-0.18806583
33	0x3dd1a2fa	0.102361634
34	0xbe8398a3	-0.2570239
35	0xbe6ad95e	-0.22934482
36	0x3e8dbada	0.2768162
37	0x3e0f0a99	0.13968886
38	0x3bb453a3	0.0055031343
39	0x3d8ef173	0.069796465
40	0xbde378a6	-0.11106996
41	0x3e59ef38	0.21282661
42	0xbd16a028	-0.03677383
43	0x3e3ba0e6	0.18323097
44	0x3e059a21	0.13047077
45	0x3c278e57	0.010226808
46	0x3de2ff0a	0.11083801
47	0x3e9ab84d	0.30218735
48	0x3e382e11	0.17986323
49	0x3e632cef	0.2218511
50	0xbe29dc3d	-0.1658792
51	0xbe4c0e78	-0.19927394
52	0xbe039d2e	-0.12852928
53	0x3da33483	0.07969
54	0x3df11cce	0.11773072
55	0x3e7b0344	0.24512964
56	0xbd39f8c3	-0.045403253
57	0x3d8e1a6e	0.06938635
58	0x3e626f2c	0.22112721
59	0x3b0866d3	0.002081324
60	0xbdfcc723	-0.1234267
61	0x3e1d63ac	0.15370053
62	0x3df5c27a	0.11999984
63	0x3df82189	0.12115771
64	0x3d34557e	0.044026844
65	0x3e377fc9	0.1791984
66	0x3e7c6305	0.24647148
67	0x3e569385	0.20954712
68	0x3dfb1bb7	0.122611456
69	0x3e896227	0.26832697
70	0x3e1b897d	0.15189166
71	0x3e721d0d	0.23643894
72	0x3dc9fb55	0.09862391
73	0x3d890401	0.06690217
74	0x3e653a9d	0.2238564
75	0x3d059515	0.03261288
76	0xbcfb82f3	-0.03070209
77	0xbdc357d6	-0.09538238
78	0xbd855c4f	-0.06511747
79	0x3e09ec7b	0.13469116
80	0x3dfb5164	0.122713834
81	0xbe0d7c93	-0.13817053
82	0xbe3a9986	-0.18222627
83	0xbe6c97cf	-0.23104785
84	0xbb277017	-0.0025548988
85	0xbe5aab4b	-0.21354406
86	0xbe081d82	-0.13292506
87	0xbd3d2867	-0.04618111
88	0x3de4a4ef	0.11164271
89	0x3e58103f	0.21099947
90	0x3e24ee42	0.16106513
91	0x3e13c661	0.14431144
92	0xbe99ff91	-0.30077794
93	0x3e5cd901	0.21567155
94	0xbd9b96de	-0.07597135
95	0xbe51160b	-0.20418565
96	0xbda46468	-0.080269635
97	0x3e2de082	0.16980174
98	0xbcd4d3d0	-0.025979906
99	0x3d665587	0.05623391
100	0x3e31b93b	0.17355816
101	0x3e415db5	0.18883403
102	0x3e13e693	0.14443426
103	0xbd3c5590	-0.045980036
104	0x3df14e3f	0.117825024
105	0xbeeaf728	-0.4589169
106	0xbd8efdb0	-0.06981981
107	0x3c785b04	0.015158419
108	0x3e31538d	0.17317028
109	0xbd134f83	-0.0359645
110	0xbe8c487d	-0.27399054
111	0x3e302178	0.17200267
112	0xbe81db22	-0.25362498
113	0x3dae9b34	0.085256964
114	0xbd34cfe0	-0.044143558
115	0xbe56fcc3	-0.20994858
116	0xbe8e76e1	-0.27825072
117	0x3c95a12b	0.018265327
118	0xbd25421f	-0.04034626
119	0xbdb4c810	-0.088272214
120	0x3eaad5cc	0.3336624
121	0xbe491aa8	-0.19639075
122	0xbe8c60cd	-0.27417603
123	0x3eb4c6ed	0.35308018
124	0xbd375b8c	-0.04476504
125	0x3e65b98b	0.2243406
126	0x3e5fb50b	0.21846406
127	0xbd9a1b9d	-0.07524798
128	0x3e66ed94	0.22551566
129	0xbe61837a	-0.2202281
130	0xbed6a48c	-0.41922414
131	0xbe1c474d	-0.15261574
132	0x3e0fcc59	0.14042796
133	0x3de848f8	0.11342043
134	0x3e2f0b5a	0.17094174
135	0xbd0edd42	-0.034878977
136	0xbe2fae7b	-0.17156403
137	0x3ebc0d86	0.36729068
138	0xbc3fa751	-0.011697606
139	0x3e73938f	0.23786758
140	0x3e1f0b3e	0.15531632
141	0x3e394ce0	0.18095732
142	0xbe2e8cdb	-0.1704592
143	0x3e44f2b8	0.19233215
144	0x3c3741dd	0.011185137
145	0xbd845159	-0.06460828
146	0xbd0508ea	-0.032479204
147	0xbdcb7621	-0.09934641
148	0xbe7d00f4	-0.24707395
149	0x3d8bd579	0.06827826
150	0x3e826f8f	0.25475737
151	0xbdcff610	-0.101543546
152	0xbde2715c	-0.11056778
153	0xbe77a302	-0.24183276
154	0xbd6bd747	-0.05757835
155	0xbd4446d5	-0.047919113
156	0x3e695e0f	0.22789787
157	0x3d469f1e	0.04849159
158	0x3dadc203	0.084842704
159	0x3e63e27d	0.22254367
160	0x3cd86d73	0.026419377
161	0xbe18c8da	-0.14920369
162	0x3d6a0a6d	0.05713885
163	0xbcef0dfe	-0.029181477
164	0x3e59d18c	0.21271342
165	0xbdee55bf	-0.116374485
166	0xbe372d57	-0.1788839
167	0x3cc7d752	0.024394665
168	0x3e0c8531	0.13722683
169	0x3e817e87	0.25291845
170	0xbdfa6acf	-0.12227403
171	0xbdf7663a	-0.12080045
172	0x3e099fc9	0.1343986
173	0xbb6e58da	-0.0036368878
174	0x3d91b8c0	0.071153164
175	0x3d810e25	0.06301526
176	0x3f0082d0	0.50199604
177	0xbaf526cb	-0.0018703578
178	0xbec4d3b6	-0.38442773
179	0x3e7a3a78	0.24436367
180	0xbe218599	-0.1577362
181	0x3e86d5b9	0.26334932
182	0x3e1b327a	0.15155974
183	0x3c401a51	0.011725024
184	0xbe4fc390	-0.20289445
185	0x3e2b13b1	0.1670673
186	0xbe384032	-0.17993239
187	0xbdbfa4ed	-0.09357629
188	0x3c89c1ed	0.016816104
189	0x3e91b819	0.28460768
190	0x3c5d76b7	0.013517073
191	0x3e0a4576	0.1350306
192	0x3e1eec15	0.15519746
193	0xbe43946a	-0.19099584
194	0xbe898f06	-0.2686693
195	0x3e06d971	0.13168885
196	0xbe7510fe	-0.23932263
197	0xbd958e42	-0.07302524
198	0x3d9328e1	0.071855314
199	0xbebe39ab	-0.37153372
200	0xbe00ad50	-0.12566113
201	0x3e8ed611	0.27897695
202	0x3e8d9134	0.27649844
203	0xbe53b5d0	-0.20674825
204	0x3e2982c7	0.16553794
205	0xbca4f6f2	-0.020137284
206	0xbe36235f	-0.1778693
207	0x3e09c285	0.1345311
208	0x3d9d2c69	0.07674486
209	0xbe463a34	-0.1935814
210	0xbeae766c	-0.34074724
211	0xbdc45367	-0.0958622
212	0xbe724481	-0.23658945
213	0xbd904b05	-0.07045559
214	0x3e0c33ac	0.13691586
215	0xbde4c956	-0.11171214
216	0xbdbf80b9	-0.09350724
217	0xbe4c21ed	-0.19934817
218	0x3bfc7cfb	0.0077053285
219	0x3d3c00da	0.04589925
220	0xbd89f264	-0.067356855
221	0x3e8d4f2e	0.27599472
222	0x3d36afdb	0.044601303
223	0xbe4352db	-0.19074576
224	0xbe297b62	-0.16550973
225	0xbe9f5db5	-0.3112618
226	0x3e8f3d0a	0.27976257
227	0x3e7c1de0	0.24620771
228	0xbdc5ba11	-0.0965463
229	0x3e2fd9ae	0.17172882
230	0x3d86f093	0.06588855
231	0xbe1f1dee	-0.15538761
232	0x3e0cc77f	0.13747977
233	0xbdf16743	-0.11787274
234	0x3d35405d	0.044250835
235	0x3dbbf587	0.0917769
236	0x3dcb61f4	0.099307925
237	0xbe36c529	-0.17848648
238	0x3bc1b21f	0.0059111263
239	0xbd8cc690	-0.0687381
240	0x3eac106c	0.3360628
241	0x3d496f02	0.04917813
242	0x3d499346	0.049212717
243	0xbe7b02ab	-0.24512736
244	0xbd5b5ac3	-0.053553354
245	0xbdc1b36c	-0.0945805
246	0x3dadc283	0.08484366
247	0xbb4361aa	-0.002981285
248	0x3e15b9e7	0.14621697
249	0x3caf669a	0.021411229
250	0xbd45989b	-0.04824124
251	0x3ea3cba2	0.31991297
252	0x3da2362f	0.07920491
253	0xbd5c4bf7	-0.053783383
254	0x3e56f207	0.20990764
255	0x3d267e94	0.040648058

hiden_layers.2.bias f4 [64]
0	0x3ccebcce	0.025236513
1	0xbdabadac	-0.08382735
2	0xbc9a69cf	-0.018849282
3	0xbbfabb7d	-0.007651745
4	0xbd05ebb4	-0.032695487
5	0xbd31ddf5	-0.043424565
6	0xbbe87bf0	-0.0070948526
7	0xbc990db0	-0.018683285
8	0x3ce12f5a	0.0274884
9	0x3d41eaa3	0.047342908
10	0xbd9f0f60	-0.077666044
11	0xbe20cbcb	-0.15702741
12	0x3d7ba97e	0.061440937
13	0x3c0ad96d	0.00847469
14	0x3db51a00	0.0884285
15	0x3d4a3c05	0.049373645
16	0x3daf3688	0.08555323
17	0xbe706aa2	-0.23478177
18	0x3d710ea2	0.058851846
19	0x3d1a971a	0.037741758
20	0x3e345bfe	0.17613217
21	0x3cdc9400	0.02692604
22	0x3eab30e2	0.33435732
23	0x3df4f18a	0.119601324
24	0xbd92dd90	-0.07171166
25	0xbde55cf4	-0.1119937
26	0x3c84b626	0.016200136
27	0xbe0e4e1d	-0.13896985
28	0xbb5d16b5	-0.0033735458
29	0xbda84f45	-0.082182445
30	0x3df3b1aa	0.11899121
31	0xbd53a470	-0.05167049
32	0xbd8b920a	-0.06814964
33	0xbc3c244b	-0.011483262
34	0xbdaa152b	-0.08304819
35	0x3e55e648	0.20888627
36	0x3c089eb7	0.008338622
37	0x3d974382	0.07385923
38	0x3d000d76	0.031262837
39	0x3ddf3f22	0.109007135
40	0x3db2a626	0.087230965
41	0xbda7b274	-0.08188334
42	0xbd887261	-0.06662441
43	0x3d8030ce	0.06259309
44	0x3e4107aa	0.1885058
45	0x3e2b3d50	0.16722608
46	0xbd1789f1	-0.036996786
47	0x3d370fe4	0.04469289
48	0x3e13c15f	0.14429234
49	0xbe25e819	-0.1620182
50	0xbce4053c	-0.027834527
51	0xbe553eae	-0.20824692
52	0x3d117b78	0.03551814
53	0x3e0835ed	0.13301821
54	0xbba5fa78	-0.0050652586
55	0xbda3a30b	-0.07990082
56	0xbe465e7e	-0.19371983
57	0x3c567507	0.013089425
58	0x3bf84796	0.007576893
59	0xbddeee37	-0.108852796
60	0xbdb283db	-0.08716556
61	0x3e00ae36	0.12566456
62	0x3e16a92f	0.14712976
63	0x3dd94c7d	0.10610292

hiden_layers.3.weight f4 [64, 64]
0	0xbdf6c4c2	-0.12049247
1	0x3e0beaa0	0.13663721
2	0x3e9f514f	0.3111672
3	0x3cbf32ec	0.023339711
4	0xbd7d88eb	-0.061898153
5	0x3e5935ea	0.21211973
6	0xbc9dee71	-0.019278737
7	0xbe83a646	-0.25712794
8	0xbd280529	-0.041020546
9	0xbe2fff0f	-0.17187141
10	0x3e347171	0.176214
11	0xbcff1c2e	-0.031141367
12	0x3e8724ca	0.26395255
13	0xbe6a45a5	-0.2287813
14	0x3e3e2001	0.18566896
15	0x3e1e5cee	0.15465137
16	0x3dcd0f9f	0.10012745
17	0xbe738037	-0.23779379
18	0xbde7cf42	-0.11318828
19	0x3e132ae6	0.14371833
20	0x3ec74c84	0.38925564
21	0xbe31e3d1	-0.17372061
22	0x3e5598ad	0.20859022
23	0x3dbb62eb	0.091497265
24	0x3e67b7d8	0.22628725
25	0x3d8c2629	0.06843216
26	0xbd9ef05f	-0.07760691
27	0x3efde2cf	0.49587104
28	0xbd3fac9c	-0.046795473
29	0x3e928bb6	0.28622216
30	0xbe19bc52	-0.15013245
31	0x3e122fae	0.14276001
32	0x3e1b1b35	0.15147097
33	0x3d9f05b8	0.07764763
34	0xbd8bef09	-0.06832702
35	0x3e84571c	0.2584771
36	0x3d5c0466	0.053715132
37	0xbb25ff58	-0.0025329199
38	0xbe2e7479	-0.17036618
39	0xbe081916	-0.1329082
40	0x3c8a1174	0.016854025
41	0xbf20110e	-0.62526023
42	0xbe7f9bea	-0.2496182
43	0xbd9ab753	-0.075544976
44	0x3e9ac43f	0.3022785
45	0x3e1d8032	0.15380934
46	0x3e2fff5d	0.17187257
47	0x3d045a56	0.032312714
48	0x3e031954	0.1280263
49	0xbe722503	-0.23646931
50	0x3e209423	0.1568151
51	0xbf9fec54	-1.2493997
52	0x3e0c29ce	0.13687822
53	0x3e6dc4f7	0.23219667
54	0x3e882281	0.26588824
55	0xbdd5c92a	-0.104387596
56	0x3d9de9ad	0.07710586
57	0x3db232c1	0.08701087
58	0xbd5fc780	-0.054633617
59	0x3d3c296b	0.045937937
60	0xbd70b5a2	-0.05876697
61	0x3e18ad55	0.14909871
62	0xbe1acf00	-0.15118027
63	0x3e17322b	0.14765231
64	0xbe22b55f	-0.158895
65	0xbd408c1c	-0.04700862
66	0xbe8cb388	-0.2748072
67	0x3da04ce6	0.07827167
68	0x3e6dad45	0.23210628
69	0x3e902b7b	0.28158173
70	0xbe99a29b	-0.3000687
71	0x3de4bc0f	0.11168682
72	0xbe859739	-0.26091936
73	0xbdfca436	-0.12336008
74	0x3df2e4b8	0.11860031
75	0x3cbd7132	0.023125265
76	0x3d9fc74a	0.07801683
77	0xbdba8869	-0.091080494
78	0xbdfb8366	-0.12280922
79	0x3e323a9e	0.17405173
80	0x3d17d4cc	0.037068173
81	0xbcc29518	-0.023752734
82	0x3e1a6600	0.15077972
83	0x3e471650	0.19442105
84	0x3e184e36	0.14873585
85	0xbdbe4331	-0.092901595
86	0xbda565ed	-0.080760814
87	0xbb762438	-0.003755821
88	0xbe1452f4	-0.14484769
89	0x3c48ce6e	0.012256248
90	0x3db1f925	0.08690099
91	0xbe1e6da5	-0.15471514
92	0x3ea48b42	0.32137495
93	0xbd5cde28	-0.053922802
94	0xbece8fa9	-0.4034398
95	0xbb67760f	-0.003531817
96	0x3c66d549	0.014088937
97	0xbdad39b9	-0.08458275
98	0x3dbfd693	0.09367099
99	0x3db29dc2	0.08721496
100	0xbde72f21	-0.11288286
101	0xbe9e1137	-0.3087251
102	0xbd8c42c7	-0.06848674
103	0x3e185527	0.14876233
104	0x3bc874dc	0.0061174463
105	0xbdca438b	-0.09876164
106	0x3d5c6ba3	0.053813588
107	0x3ecfd0f2	0.405891
108	0x3e7da7ca	0.24771038
109	0x3d9df391	0.07712472
110	0x3e9321d9	0.2873676
111	0x3e0e6e11	0.13909175
112	0x3e8afbc5	0.2714521
113	0xbe0d465d	-0.13796373
114	0xbe7a0e38	-0.24419487
115	0x3eb19476	0.3468358
116	0x3e7768a8	0.24161017
117	0xbc3e5bf7	-0.011618606
118	0xbd62f0ab	-0.0554053
119	0x3e663f98	0.22485197
120	0x3e7c36f6	0.24630341
121	0xbe5e5ecc	-0.2171585
122	0x3ddccfa6	0.10781793
123	0x3eaeb233	0.3412033
124	0x3db5ecfd	0.088830926
125	0x3dcdc5a5	0.10047463
126	0x3d45ebe0	0.04832065
127	0x3eaf5b0e	0.34249157
128	0x3ddc00f7	0.107423715
129	0x3e2d8e89	0.16948904
130	0xbe8a2d87	-0.2698786
131	0xbe139988	-0.14414036
132	0xbd7623eb	-0.060092848
133	0x3e68c54d	0.22731514
134	0x3d46b49f	0.048512097
135	0xbda96786	-0.08271699
136	0x3dc9fdcc	0.09862861
137	0xbd57bd4f	-0.052670773
138	0xbd4cdf3f	-0.05001759
139	0x3e580f89	0.21099676
140	0xbe4699ad	-0.1939456
141	0xbd8a22d8	-0.06744927
142	0x3d7595b8	0.059957236
143	0xbe32eaf3	-0.17472439
144	0xbcf3af51	-0.029746683
145	0x3e42b840	0.19015598
146	0xbd639fa8	-0.055572182
147	0xbe845fcb	-0.25854334
148	0xbdc67a8a	-0.09691341
149	0x3d9180bd	0.07104633
150	0xbe607b23	-0.21921973
151	0xbd2a5d4d	-0.041592885
152	0xbe18db04	-0.14927298
153	0xbd76a320	-0.060214162
154	0xbe714f31	-0.23565365
155	0x3e8739b3	0.2641121
156	0x3e3284f4	0.1743353
157	0xbe980af4	-0.29695857
158	0x3c519107	0.012790925
159	0xbe6f5725	-0.23373087
160	0xbe81bebc	-0.2534083
161	0x3cbe826f	0.023255555
162	0x3e7f598d	0.24936505
163	0x3c83932b	0.016061386
164	0xbe1b9b7b	-0.1519603
165	0xbe05b43e	-0.13057038
166	0x3e3da0a8	0.18518317
167	0xbbf9925d	-0.007616325
168	0x3d5d7f4a	0.05407647
169	0xbc5f9824	-0.013647113
170	0x3d8353b2	0.06412448
171	0x3cd8cea5	0.026465723
172	0x3d996541	0.07490016
173	0xbe49e30c	-0.19715518
174	0x3e3dd0be	0.1853666
175	0xbe640ead	-0.22271223
176	0xbd937d0f	-0.072015874
177	0xbdd35851	-0.103195794
178	0x3df17d3b	0.11791464
179	0x3e8e3d36	0.27781075
180	0x3dbd7e7b	0.0925264
181	0xbe2c3677	-0.16817652
182	0xbe4af248	-0.19818985
183	0xbe9f1021	-0.31066993
184	0xbe0bc34e	-0.13648722
185	0xbe5fd5e4	-0.21858937
186	0x3de88e33	0.11355247
187	0x3e49e011	0.19714381
188	0x3e7ec1ec	0.24878663
189	0xbd413c13	-0.047176432
190	0x3e046d31	0.12932278
191	0x3d088b93	0.033336233
192	0xbd8bf9a8	-0.068347275
193	0xbe1f3cd4	-0.15550548
194	0x3e090b2f	0.13383172
195	0xbe2b9661	-0.16756584
196	0xbece7b1a	-0.40328294
197	0xbe0048dc	-0.12527794
198	0x3d2c0081	0.041992668
199	0xbe85a5b6	-0.2610299
200	0x3e12360c	0.1427843
201	0xbeff0072	-0.49805027
202	0xbe952a8d	-0.29134026
203	0xbe56acb0	-0.20964313
204	0xbe5cfc14	-0.21580535
205	0xbe3157aa	-0.17318597
206	0xbdd7811c	-0.105226725
207	0x3cbf6cb3	0.023367262
208	0xbdcedd5e	-0.10100816
209	0x3c90f32e	0.017694082
210	0xbcf6a567	-0.030108167
211	0x3e1ed4d3	0.15510873
212	0x3e801f89	0.2502406
213	0xbc9b4a6b	-0.018956384
214	0xbdb4efba	-0.08834787
215	0x3dd02505	0.10163311
216	0x3e6cd869	0.23129429
217	0x3e03f0d4	0.12884837
218	0x3e857cda	0.26071817
219	0x3d53d269	0.051714335
220	0xbd2ca9a8	-0.042153984
221	0xbdea607e	-0.11444186
222	0xbe1ef871	-0.1552446
223	0x3db4e767	0.08833199
224	0x3e2a6525	0.16640146
225	0x3dd14751	0.10218681
226	0x3e099c1c	0.13438457
227	0xbe1d9637	-0.15389334
228	0xbe906397	-0.2820098
229	0xbcb7cfb2	-0.022437904
230	0xbe66cee6	-0.22539863
231	0xbd34ca76	-0.044138394
232	0x3e04772e	0.12936088
233	0xbecb50a9	-0.39709976
234	0xbe588cbd	-0.21147437
235	0x3e2e9c7e	0.17051885
236	0x3e0baec6	0.1364089
237	0xbdd289a5	-0.1028016
238	0x3e2cbf82	0.1686993
239	0x3e951323	0.29116163
240	0xbe06f0ad	-0.13177748
241	0x3e403965	0.18771894
242	0xbda08b8a	-0.07839115
243	0xbef90a1f	-0.48640534
244	0xbe0aa1da	-0.13538304
245	0x3e9de16a	0.3083604
246	0x3dcb092b	0.09913858
247	0x3ea1f820	0.31634617
248	0x3f0227bd	0.50841886
249	0x3e01e9ad	0.12686796
250	0x3e54e100	0.20788956
251	0xbe0f5c7a	-0.14000121
252	0xbe1c2191	-0.1524718
253	0xbe53e6e5	-0.20693548
254	0xbe72bff5	-0.23706038
255	0x3e362159	0.17786159

hiden_layers.3.bias f4 [64]
0	0x3e1719af	0.14755891
1	0xbdc7ebff	-0.097618096
2	0x3dd389bc	0.10329005
3	0x3dd67bcd	0.10472832
4	0xbe870675	-0.26372114
5	0xbc8eb0c4	-0.017418273
6	0xbdbf4ccf	-0.09340822
7	0xbe6b65b5	-0.22988017
8	0x3ef146da	0.47124368
9	0xbd625b87	-0.05526307
10	0x3dcf3478	0.101174295
11	0xbea7a5db	-0.32743725
12	0xbe5b0036	-0.21386799
13	0xbda4b782	-0.08042814
14	0xbe418fc5	-0.189025
15	0xbee38238	-0.44435287
16	0x3cda7570	0.026667327
17	0xbe6120e0	-0.21985197
18	0xbd0b6bea	-0.03403846
19	0x3d051dd5	0.032499153
20	0xbda304a1	-0.07959867
21	0x3e729c56	0.2369245
22	0xbe47ff19	-0.19530906
23	0xbc87dbf3	-0.016584372
24	0x3d25dd25	0.040494103
25	0x3e716381	0.23573114
26	0xbe5977a2	-0.21237043
27	0xbd3af59f	-0.0456444
28	0x3d89e2cd	0.06732712
29	0x3dbeeb90	0.09322274
30	0x3d4dd162	0.05024851
31	0xbcd18487	-0.02557589
32	0x3d95af68	0.07308847
33	0xbdd01154	-0.10159555
34	0xbbdaea03	-0.0066807284
35	0x3d82da54	0.06389299
36	0x3e9be702	0.30449682
37	0x3ef4a471	0.4778171
38	0x3e289ff3	0.16467266
39	0xbe043521	-0.12910892
40	0x3e4f4b8b	0.20243661
41	0xbe2f4de6	-0.1711956
42	0x3cf6fff4	0.030151345
43	0xbdba5598	-0.09098357
44	0x3d978053	0.07397523
45	0x3e1551ac	0.14581937
46	0x3e4a91da	0.197822
47	0x3e82f4a5	0.25577274
48	0xbe405827	-0.18783627
49	0xbca5f3d0	-0.02025786
50	0xbe41527e	-0.18879125
51	0xbe8add0a	-0.27121764
52	0x3e23ec86	0.16008195
53	0x3ea11ab2	0.3146568
54	0xbe0431be	-0.129096
55	0xbe79a6a9	-0.24379982
56	0x3df115f9	0.11771769
57	0x3e31d7e6	0.17367515
58	0x3e06e850	0.13174558
59	0x3d6f0423	0.058353554
60	0xbc9b11c4	-0.01892937
61	0x3ead4a13	0.33845577
62	0xbe3d3692	-0.18477848
63	0x3db63f21	0.0889876

hiden_layers.4.weight f4 [64, 64]
0	0xbd9aca90	-0.07558167
1	0x3e164970	0.14676452
2	0x3deda406	0.116035506
3	0xbe94c175	-0.29053846
4	0x3e08c5a0	0.13356638
5	0xbc204e14	-0.00978424
6	0x3d6b2a2d	0.05741327
7	0x3dc2ebdf	0.09517645
8	0xbece7eb1	-0.40331033
9	0x3d11b83c	0.03557609
10	0xbd4f4711	-0.050604884
11	0x3dd5dc85	0.104424514
12	0xbcd7fc17	-0.026365323
13	0xbe66b8b0	-0.2253139
14	0xbe7e8ccb	-0.24858396
15	0x3d8f5902	0.06999399
16	0xbe0b432a	-0.1359984
17	0xbcba43f8	-0.022737488
18	0x3e5c05e8	0.21486628
19	0x3e3c0f74	0.1836527
20	0xbee3e7f2	-0.44512898
21	0x3dcee9d8	0.10103196
22	0xbd12df95	-0.035857756
23	0xbd4de514	-0.050267294
24	0x3d7c2adc	0.06156431
25	0xbdab399e	-0.08360599
26	0x3dd6085b	0.104508124
27	0x3d21351b	0.039357286
28	0xbe7f1d86	-0.24913606
29	0xbea459a9	-0.32099655
30	0xbe874279	-0.26417902
31	0xbdcad121	-0.099031694
32	0x3e3f2427	0.18666135
33	0x3d8f9934	0.07011643
34	0x3e0ab1c1	0.1354437
35	0xbe1ea303	-0.15491872
36	0x3ddc3b81	0.10753537
37	0x3bbca2da	0.005756718
38	0xbe1192e8	-0.14216197
39	0xbcb7e788	-0.02244927
40	0xbe0c7772	-0.1371744
41	0x3d53c342	0.051699884
42	0x3e821b5f	0.25411507
43	0x3e3352ef	0.17512105
44	0xbdd8065c	-0.10548088
45	0x3e3c7747	0.18404876
46	0x3dd9053f	0.10596704
47	0xbe2fac03	-0.17155461
48	0xbe70d8c2	-0.23520187
49	0xbe80c59b	-0.2515076
50	0xbd264abb	-0.040598612
51	0x3dd8d630	0.10587728
52	0xbe1f9861	-0.15585472
53	0x3dc138a0	0.094346285
54	0x3e4ca129	0.19983353
55	0xbd84b90d	-0.06480608
56	0x3eaed99b	0.34150395
57	0x3da8c844	0.08241323
58	0xbe1c0687	-0.15236865
59	0xbe0a1722	-0.13485387
60	0x3e23e0b4	0.16003686
61	0xbe98fae0	-0.29878902
62	0xbd31ab32	-0.043376155
63	0xbe08fd1f	-0.13377808
64	0x3df1b503	0.11802103
65	0xbe2bc943	-0.16775994
66	0xbe800c43	-0.25009355
67	0x3d0a23bc	0.033725485
68	0xbd6026fe	-0.054724686
69	0xbe846550	-0.25858545
70	0x3c88c87e	0.016697165
71	0xbd2acd46	-0.04169967
72	0xbece823c	-0.40333736
73	0xbd24fdc7	-0.040281083
74	0xbd9ba757	-0.07600277
75	0x3e2e1aa1	0.17002346
76	0x3e9f97c9	0.3117049
77	0xbdf632f6	-0.12021439
78	0xbe1181aa	-0.14209619
79	0x3e15175f	0.14559697
80	0xbeaf2612	-0.34208733
81	0x3d45ad7f	0.048261162
82	0x3e041ae7	0.12900887
83	0x3e1e37a9	0.1545092
84	0x3eef6d18	0.4676292
85	0x3e501fe7	0.2032467
86	0x3e0fdcee	0.14049122
87	0x3e1c4b27	0.15263043
88	0xbc180ee1	-0.009280891
89	0xbe5716fe	-0.21004865
90	0xbe8e85a0	-0.27836323
91	0x3d8d4dcc	0.06899604
92	0xbe92ba3b	-0.28657708
93	0xbd89c024	-0.06726101
94	0xbee32290	-0.44362307
95	0xbe39013e	-0.1806688
96	0x3ebf6266	0.3737976
97	0x3e408fae	0.1880481
98	0xbd18f211	-0.037340228
99	0xbbc597f9	-0.0060300794
100	0xbca44430	-0.020052046
101	0x3d5e4a55	0.054270107
102	0x3ea2c493	0.317906
103	0xbe2b78dd	-0.16745324
104	0x3e28dba6	0.16490039
105	0xbe6a011c	-0.22851986
106	0x3ea5520d	0.32289162
107	0x3cb10d61	0.021612825
108	0xbe19dbd5	-0.15025266
109	0x3edbd8d2	0.42938858
110	0x3da60a5b	0.08107444
111	0xbd81c801	-0.06336976
112	0xbe9efa83	-0.310505
113	0xbea5c82c	-0.32379282
114	0xbe3eba3d	-0.18625732
115	0x3d8670a4	0.06564453
116	0x3e202e99	0.15642776
117	0xbfaf7b87	-1.3709573
118	0x3e713299	0.23554458
119	0xbd8992b4	-0.067174345
120	0xbe337eb0	-0.17528796
121	0xbe338a8d	-0.17533322
122	0x3de97719	0.11399669
123	0x3e2054a2	0.15657285
124	0x3f0aa872	0.5416328
125	0x3e8974d7	0.26846954
126	0xbc86618f	-0.016403941
127	0x3e6d2c2c	0.23161381
128	0xbe7609cf	-0.24027179
129	0xbeda3590	-0.4261899
130	0x3e0daca1	0.13835384
131	0xbe9a61dc	-0.30152786
132	0xbd5fe90d	-0.054665614
133	0xbd755a74	-0.059900716
134	0x3e205aaa	0.15659586
135	0x3d7b5e89	0.061369453
136	0xbdc988e4	-0.09840563
137	0xbe2304fd	-0.15919872
138	0xbd5d665e	-0.054052703
139	0xbd5a6b5c	-0.053325042
140	0x3cbd771e	0.023128089
141	0x3e8cad7a	0.27476102
142	0x3e9cf0af	0.30652377
143	0xbe4cdf30	-0.20007014
144	0x3ce5eebb	0.028067937
145	0x3bc16c66	0.0059028147
146	0xbda8be6a	-0.082394436
147	0x3d8ffd4d	0.07030735
148	0xbf4b7fe7	-0.7949204
149	0xbe7f916e	-0.24957821
150	0xbe8b01a4	-0.2714969
151	0x3e62b253	0.22138338
152	0xbe717c7c	-0.23582643
153	0xbe376fe1	-0.17913772
154	0xbf0f6941	-0.5601998
155	0x3e75def2	0.24010828
156	0xbe6fab75	-0.2340525
157	0x3ea33a1f	0.3188028
158	0xbdf2f3a2	-0.118628755
159	0x3e6dfe56	0.23241553
160	0xbcc99a88	-0.024609819
161	0xbddae378	-0.106879175
162	0xbe0d48c2	-0.13797286
163	0x3dff37f1	0.12461842
164	0x3e795d30	0.24351954
165	0x3dedc3ec	0.11609635
166	0xbf2bfc28	-0.67181635
167	0x3e8d9eef	0.2766032
168	0x3e7e2929	0.24820389
169	0xbea451d7	-0.3209369
170	0xbed509c5	-0.41609016
171	0xbdde9bbf	-0.1086955
172	0xbcde80aa	-0.027160961
173	0xbde7ba9e	-0.11314891
174	0x3df7d910	0.12101948
175	0x3eb08f96	0.34484547
176	0x3e8a40d0	0.27002573
177	0xbdc05aee	-0.093923435
178	0x3edecaa1	0.4351397
179	0xbe14688d	-0.14493008
180	0xbdd62332	-0.10455932
181	0x3e0a96a1	0.13534023
182	0xbe973732	-0.29534298
183	0xbe5f8e0f	-0.21831535
184	0x3df14577	0.117808275
185	0xbba257a5	-0.0049542957
186	0x3ce96320	0.02848965
187	0x3e3d9d19	0.18516959
188	0xbea27b1b	-0.31734547
189	0x3d95e2ff	0.07318687
190	0x3dd8ecd4	0.105920464
191	0x3eb5e5fc	0.35527027
192	0x3d16a533	0.03677864
193	0xbe4abfcb	-0.19799726
194	0xbe2edfbb	-0.17077534
195	0x3e82dac7	0.2555754
196	0x3e6563a6	0.22401294
197	0x3e1e6b55	0.15470631
198	0x3eb52639	0.35380724
199	0xbe74609a	-0.23864976
200	0x3e17aba9	0.14811577
201	0x3deec595	0.116587795
202	0x3d06739f	0.03282511
203	0x3e792162	0.24329141
204	0xbe22cdc2	-0.15898803
205	0xbe6d13a1	-0.23152019
206	0x3cb3b525	0.021936962
207	0x3ea0422d	0.31300488
208	0xbee23794	-0.44183028
209	0x3e10371c	0.14083523
210	0xbe611b5a	-0.2198309
211	0xbe1effaf	-0.15527223
212	0xbd76458c	-0.06012492
213	0x3d898dd2	0.06716503
214	0x3ee4d128	0.44690824
215	0x3e3f46ff	0.18679427
216	0x3e645357	0.22297417
217	0xbda6d695	-0.08146397
218	0x3da88386	0.08228211
219	0xbeb1e1d1	-0.34742597
220	0xbc64bb2d	-0.013960642
221	0xbf140942	-0.57826626
222	0x3af6ee58	0.0018839343
223	0xbf166a31	-0.58755785
224	0xbeb4828b	-0.35255846
225	0x3e8c98bd	0.2746028
226	0xbe5e8d0a	-0.2173349
227	0xbd285305	-0.0410948
228	0x3de44be8	0.111472905
229	0x3ca6a604	0.020342834
230	0x3dbd87f2	0.09254445
231	0x3de844ee	0.11341272
232	0xbda07bd2	-0.07836117
233	0x3e5868ba	0.211337
234	0x3e05c0b3	0.1306179
235	0x3eee4191	0.46534398
236	0xbe1e9295	-0.15485604
237	0xbe09f344	-0.13471705
238	0xbe269004	-0.16265875
239	0xbe88583e	-0.26629823
240	0xbdd0a834	-0.10188332
241	0x3e52a9e1	0.20572616
242	0xbd2fbd81	-0.042905334
243	0x3e3c3b00	0.18381882
244	0xbd9bf7c1	-0.07615615
245	0x3ebdcf2e	0.37072128
246	0x3e4e6152	0.20154312
247	0x3efae0b2	0.48999554
248	0x3cf9488c	0.0304301
249	0xbd907ae1	-0.07054687
250	0xbd5a73e6	-0.053333186
251	0xbeaf3467	-0.34219667
252	0xbd22ef9f	-0.0397793
253	0xbd920d7d	-0.07131479
254	0xbd96274a	-0.073317125
255	0x3d3189ed	0.043344427

hiden_layers.4.bias f4 [64]
0	0xbe0873bc	-0.13325399
1	0x3d4067af	0.04697388
2	0xbc55fdb1	-0.013060973
3	0x3d4601fa	0.04834173
4	0xbcb03b22	-0.021512572
5	0x3ba45b99	0.005015802
6	0x3dbed94f	0.09318792
7	0xbe1137e2	-0.14181474
8	0xbdf7402a	-0.12072785
9	0x3e42b085	0.1901265
10	0x3e3ddb2e	0.18540642
11	0xbd0d736f	-0.034533914
12	0x3dbc6ae1	0.09200073
13	0xbd039f78	-0.032134503
14	0x3d6f78d7	0.05846485
15	0xbd27aa71	-0.04093403
16	0x3d6d7a31	0.05797786
17	0x3e55bc52	0.2087262
18	0xbdf7318e	-0.12069999
19	0xbe4bc3ff	-0.19898985
20	0x3e605d46	0.21910581
21	0xbde48e0c	-0.11159906
22	0xbc903355	-0.017602602
23	0xbd53d2fe	-0.05171489
24	0x3e3576e0	0.17721128
25	0xbe87cc3e	-0.26523012
26	0xbe7524ea	-0.23939863
27	0xbe69e5a9	-0.22841515
28	0x3dfa7635	0.122295775
29	0xbe990a19	-0.29890516
30	0xbe99ab91	-0.30013707
31	0x3ce08366	0.027406406
32	0xbe7b7269	-0.24555363
33	0x3d87eba4	0.06636742
34	0xbf16c00b	-0.58886784
35	0xbee3416e	-0.44385856
36	0xbd0a8b14	-0.03382404
37	0xbe0e6c77	-0.13908564
38	0xbe32d781	-0.1746502
39	0xbe1f71ef	-0.15570806
40	0xbdc7df2b	-0.09759363
41	0xbe9e7738	-0.30950332
42	0xbdb96a61	-0.09053493
43	0xbcf8bf29	-0.03036459
44	0x3eb7cd75	0.3589894
45	0x3e27c136	0.16382298
46	0x3d80e77f	0.062941544
47	0xbd16a015	-0.03677376
48	0xbe37d88a	-0.17953697
49	0xbe2cdc59	-0.16880931
50	0x3e1bd15b	0.15216582
51	0x3ca59406	0.020212185
52	0xbe8bd96c	-0.27314317
53	0x3db706ae	0.08936821
54	0x3cf5e0ff	0.030014513
55	0xbe90bc86	-0.28268832
56	0xbef9bad9	-0.48775366
57	0xbca82c93	-0.020529067
58	0x3da98260	0.0827682
59	0x3ea57510	0.32315874
60	0x3e218ebd	0.15777107
61	0x3e3a70b2	0.18207052
62	0x3eafdd75	0.34348646
63	0xbe212a20	-0.15738726
