results/2_same_with_zoom/epoch1350/model_weights.pth (torch, 484214 bytes, 88 tensors)

init_layer.0.weight f4 [64, 3]
00000000: 50c4 86be a48c c7bd b27e 0a3e e00f 0b3e
00000010: 9e1b 3cbb 8652 58bc 5077 5fbd 0d06 58be
00000020: d68b b6bd 6b29 343e 04e2 e03d d645 923d
00000030: e19c 203b 0021 873e 1e1f 173e f3e6 0fbe
00000040: 0504 90be f8fb ee3d 7e43 8c3e f719 0e3d
00000050: 946a 2f3e 7a3e 783e 2f3d 063e 70e2 2d3d
00000060: 7b1f 693e 8104 9abe 96e5 243d 9989 eebd
00000070: 57c1 41be 1a96 1d3e 293f 6fbe 8873 d33b
00000080: 5889 4b3d 647d 8d3d 0845 413e af14 0dbe
00000090: 7915 953c 3056 a8bd b2f1 32bd 2307 18be
000000a0: dd49 98bc 3cf4 b13d 5581 ac3d 0ec1 87be
000000b0: 704c 2fbd aab4 773e cf43 4cbe 005f 0ebe
000000c0: d633 b23d f697 06be efd7 3e3e 5a72 4e3e
000000d0: 1c6f 6a3e 068e 82bd b385 413c a470 34bc
000000e0: 83a2 87bd c79a e6bd 9d9e 193e 0b6d 48bd
000000f0: 5582 183e 81db e7bd d0d5 67bd 5dd4 7a3e
00000100: 85e7 f9bc f47b 3bbd f1cd 073d 4b50 70be
00000110: e779 c3bd c572 b0bd c0d1 143e 220f 89bb
00000120: 86fa 6cbd 98ed 02be 8789 2e3e 84bb eabd
00000130: c50e 513e 3bb7 8ebd aae0 6c3d 88c3 7b3e
00000140: f0b0 183e 417b 02be a79a 75be ddbe 0b3d
00000150: 049a 033c db6c c53c 3fd1 1fbd c1a8 8f3d
00000160: 9eb6 91be 5152 8b3c 61a7 94be 2301 febd
00000170: d4e9 71bd 6aa9 31bd 0866 9c3d 1b76 873e
00000180: 728b cbbd 87d4 793e b9d3 6b3d e25c 7dbe
00000190: da68 873e a47f f3bc 2487 52bc d1bc c2bd
000001a0: be4f b3bd ab85 96bd 5a31 3bbe d912 7fbe
000001b0: 38d6 203d 014f 24bd df51 1dbe cc98 42be
000001c0: 136e 8fbd 6002 1ebb f494 2d3e ae3d 11be
000001d0: 7219 523e 8d4d 23be a933 da3d 8ffd b83e
000001e0: 5f6a 6f3e b2c2 0a3d e8a6 53be bbdf 58bc
000001f0: f0c7 cabd 2c10 20be f31f b43d d038 cabd
00000200: 5324 983e c0a2 533d a05c 58bd 2887 653d
00000210: 4d31 043e 3060 6cbe 7567 e5bd cdc5 a3be
00000220: 1cd9 87be f414 0a3e faec 99bc fcd9 2cbe
00000230: ad30 943d 2711 f13d c61b 323e 3e40 903d
00000240: 050b 6b3e ebd5 6f3e 5b45 a4bc b49e 013e
00000250: e409 91be 257d 0e3e c43b 81bd d811 72be
00000260: e0b6 cdbd b853 b1be d8c4 f5bd a1f4 42bd
00000270: 78f8 563e 9019 8cbe 4944 d53c 1402 fbbd
00000280: e1c0 46be 2b4f 983c e552 033e 5ddf 49be
00000290: 0b54 44be e5b9 433e fbcb f23b 7495 2c3e
000002a0: a19b 443e bdb7 7e3d 7498 453e 9257 b83c
000002b0: 1eb3 8abc aec8 2c3d ceab 683e 4057 793e
000002c0: aa85 c73c c4c9 0b3e ed2c 2b3e 1ae9 ddbd
000002d0: 087f 26be 732e 7bbe 0f47 57bd 47a2 2bbe
000002e0: 15b5 c43d 3897 26bd a943 863e 900b 0fbd
000002f0: 203c f43c 46b7 7c3e 044b bf3c a88c 993d
-0.2632165 -0.09743622 0.13524893 0.13580275 -0.0028702985 -0.013203269 -0.054557145 -0.21096058
-0.0891339 0.17593925 0.10980609 0.071422264 0.002450757 0.26392365 0.14757964 -0.14052944
-0.28128067 0.11669153 0.27395242 0.03469273 0.171305 0.24242583 0.13109277 0.042452276
0.22765915 -0.3008156 0.040258013 -0.116473384 -0.1892141 0.1538929 -0.23363937 0.0064529814
0.049691528 0.06908682 0.1887399 -0.13777421 0.018198716 -0.08219564 -0.04368753 -0.14846472
-0.018589908 0.08689162 0.084231056 -0.26514477 -0.042797506 0.24190012 -0.19947742 -0.13903427
0.08701293 -0.13143906 0.1863706 0.20160809 0.22893947 -0.06374745 0.0118116615 -0.011013184
-0.066227935 -0.1125999 0.15001912 -0.048932116 0.14893468 -0.11321164 -0.056600392 0.24495073
-0.030505905 -0.045772508 0.033155385 -0.2346813 -0.095447354 -0.086156406 0.14533138 -0.004182712
-0.057856105 -0.12785947 0.1704465 -0.11461547 0.2041579 -0.06968542 0.057831444 0.24586308
0.14911246 -0.1274233 -0.23984776 0.03411757 0.008032326 0.024099758 -0.039017912 0.07014609
-0.28459638 0.017007025 -0.2903395 -0.124025606 -0.059060887 -0.043374456 0.076366484 0.26457295
-0.099387065 0.24397479 0.05757496 -0.24742463 0.26447183 -0.02972395 -0.012849603 -0.0950867
-0.08755444 -0.07349714 -0.18280545 -0.24909534 0.039266795 -0.040114406 -0.15363263 -0.190036
-0.07003417 -0.0024110302 0.16951352 -0.14183685 0.20517519 -0.15947552 0.10654385 0.3613095
0.23380421 0.033877082 -0.20669138 -0.013236935 -0.09901416 -0.15631169 0.08795156 -0.098741174
0.29715213 0.051668882 -0.05282271 0.0560371 0.12909432 -0.23083568 -0.112013735 -0.31986848
-0.2653283 0.13484555 -0.018789757 -0.1688003 0.07235847 0.1177085 0.17393407 0.07043503
0.22953422 0.23421447 -0.020052603 0.12658197 -0.28327858 0.13914926 -0.063102275 -0.2363962
-0.10044646 -0.34634185 -0.120004356 -0.047596578 0.20993221 -0.27363253 0.026033537 -0.12256256
-0.19409515 0.018592438 0.1282459 -0.19714113 -0.19172685 0.19113882 0.0074095703 0.16853887
0.19199993 0.062186945 0.19296438 0.022502694 -0.016931113 0.04218357 0.22721788 0.2434969
0.024355728 0.13651186 0.16716357 -0.10835476 -0.16259396 -0.24529438 -0.052558 -0.16761123
0.09604851 -0.040671557 0.26223496 -0.034923136 0.029813826 0.24679288 0.0233512 0.07497531

init_layer.0.bias f4 [64]
00000000: ecea f5bd 765c 7d3d efd9 bdbd 884f 49bc
00000010: bc76 a7bd 8710 a1bd b746 df3d 5386 f63d
00000020: 9cce 90bd 6df3 a43d bd2d dbbd 7d8b 84bd
00000030: f7b6 543d e837 6ebd 0a43 64bd 1fb1 ba3d
00000040: abf8 babd 14cc 0a3d 4d9a 973c 2572 a03c
00000050: f657 a83d bbee a93d d05a 7c3d bed1 26bb
00000060: 76ae f23d 1c03 aabd 8fef a83d 91ac 8a3b
00000070: eda0 243c 81b4 94bd 1913 fdbd 1f3b c5bd
00000080: c1e7 f03c 5ce7 dabb 074e 95bd 2e47 e9bd
00000090: d46a da3d f581 c7bd 30a4 e83d 5330 0f3d
000000a0: 27cb fa3d 66d0 b33d 81ef 71bd 00a8 533c
000000b0: 4e2c 9c3d 8111 febd daad 8d3d 4c0d 81bd
000000c0: 5154 9c3d d22f cd3d 3137 863d c21d f4bd
000000d0: 5792 23bc 474b 6e3d d8ac ea3d 5fea e03d
000000e0: 855d e43d 71b2 0dbb 00ce bc3d 460b be3d
000000f0: 6cc0 e7bd 957e e7bd be02 cc3d 5d8a d13d
-0.120076984 0.061855756 -0.09270083 -0.012287028 -0.08176944 -0.078644805 0.1090216 0.12037339
-0.070706576 0.08054242 -0.10702083 -0.06471918 0.0519323 -0.058158785 -0.055727996 0.091158144
-0.09129461 0.03388603 0.018506194 0.019585678 0.08219902 0.08297487 0.061610043 -0.0025454606
0.11849682 -0.08301374 0.08248817 0.0042319973 0.010048133 -0.07260991 -0.12357158 -0.09630417
0.029407384 -0.006680412 -0.07290273 -0.113905296 0.10664907 -0.09741584 0.11359441 0.034958195
0.122457795 0.08779983 -0.0590663 0.012918472 0.07625638 -0.12405682 0.06917925 -0.06301364
0.076332696 0.100188866 0.06553496 -0.11919738 -0.009983621 0.05817726 0.114587486 0.10982203
0.1115065 -0.0021621252 0.09218979 0.09279494 -0.113159984 -0.113034405 0.099614605 0.10231469

hiden_layers.0.weight f4 [64, 64]
00000000: 67b3 4abe f817 f4bb 5b56 8f3e 7071 503c
00000010: de00 1cbe 9978 4dbd a5b4 163e c5a4 53be
00000020: 284a febd 8f60 1abd 0093 df3c 026c 643e
00000030: 55b3 a63e 2904 1b3d aa80 383e 7823 30be
00000040: 8d61 3abd 496f d2bd e359 a63e ebb6 b63c
00000050: 8b8f d3bc 1e29 893d f232 9f3d 5884 38be
00000060: 50a5 a63d 713b f03d 95cc f9bd 920d 2dbe
00000070: 23d3 a33e eb06 c1bd 064a 48be 1cb0 843e
00000080: 9c30 24be a8e1 3d3d 72d7 093f 03ec a8be
00000090: d037 073e b66b 9a3d b700 4b3e 51cf 813e
000000a0: 9521 013e 7ab6 9b3d a948 013f 0740 fbbe
000000b0: e8a5 10bb 0cc1 4fbd 3654 01be c0ac b3be
000000c0: 24dd 303e c284 44be e50a 6dbd affb 093d
000000d0: 7d4e 82bd 0c2a 28bb b471 0a3e 5157 5f3e
000000e0: c296 36bd 722c eabe 8fb9 1fbe 45fb 2a3e
000000f0: 361e db3d 9c1b 94bc af45 72bd 9481 3ebe
00000100: aedb e23a 0fae 5dbe c30f 4ebe fe13 2e3e
00000110: 8deb 21be e8ed afbd b0ef 2b3e 0c3e 4ebe
00000120: 3fc2 8ebb 7d18 23be 6045 833e 9846 1abe
00000130: a9ab 5bbc 8380 893d 62c8 aa3b c469 fe3d
00000140: ef77 20bb 025b 243e 7a7e 7abc 233f 4b3c
00000150: 0e01 a8bd 4491 74be 1702 be3d ac61 253e
00000160: 3815 a5bc 99cc 4bbd 0beb 623e dd09 193e
00000170: 304a 223e 46c3 c13d 234c 16be 5b70 63bd
00000180: b711 d93c c97b 2a3d e2b8 0c3e 83e4 103e
00000190: 585a 303e dca6 43bc 7451 27bd db1e 5c3e
000001a0: 7c3b 0fbe 219a 6dbd 1578 17be f1b4 84bc
000001b0: c5f5 993d 768c 30be 905f 233e fd30 3cbe
000001c0: 9e47 82bd f8cf a7bd 1c4b babd 31b4 cfbd
000001d0: 60de a53d fc5f 15be 2931 e13d 3830 f83d
000001e0: 519a 43be d9cb c6bd 248d 3cbe a044 40be
000001f0: 9671 473e 2dca 3d3e 5c68 1b3e e376 ddbd
00000200: cb39 123e 6c3b dabc b929 723e 8a8f 973c
00000210: 310d 4ebe 7339 a53c 9682 36bd 7d68 4fbe
00000220: efdf 773e ec5f aabd f675 2cbc fe27 213e
00000230: 5a3a d73d c7a2 6ebe 4faf 953e 63a0 bfbd
00000240: 890a f3bc 399b 38be ac86 9e3d e116 1abe
00000250: 8c73 b13b 50ec ccbd b9ea 18be 78de a0bd
00000260: 8d18 febc 63b8 15be 87ef 9fbd 14eb 493e
00000270: 8416 38bd dc91 88bd 63df 843e b732 5c3e
00000280: 9617 84be 6177 48be b7a8 8d3e 06f9 903e
00000290: 311e f4bd 12b0 b7bd de55 01bd 8ee7 58bd
000002a0: 3a21 62be 755e 91bd 3afe 5f3e 510f 463e
000002b0: 2b40 513e 3e4a 923d 3ef4 1ebd bcc7 dc3c
000002c0: de41 f2bc 48f8 833d 7fc7 e1bd 38f5 47bc
000002d0: c45c 213e a911 5bbd f56b ffbd 7346 c53b
000002e0: 2f1f 85be 236f 343e 27da 47be c9c5 50be
000002f0: 434b 783e 71a3 23be a294 05be 392d 183e
00000300: 3d86 e33d 0eb6 0ebe 320a e1bc 5fa7 52bd
00000310: e8d4 103e 27a2 a13d 9017 2dbd 9794 f0bd
00000320: 4521 cfbe 851f 2ebe d08a 793d 5446 503d
00000330: e788 f7bd 9ec0 22bd 8efc adbd 20db 23be
00000340: b869 26be 7d38 2b3e de7f 1c3e 3564 0ebd
00000350: ebde 253e 3f9b 14be 5e11 42be 88cd 35bd
00000360: 807a 6c3e adb8 883d 1b58 e33b 25ba 82bd
00000370: b511 d9bd d281 8bbe cf3a 40be f6d6 033d
00000380: fd3f 72bd dd9d 313e eefd 5cbe 60c4 05bd
00000390: 64db efbb db16 41be c377 063c 8ea0 3b3d
000003a0: 4ff9 2dbe 8382 59bc 088e 0e3b 361d 563e
000003b0: e5fa 5c3b 8975 083c 380b 8f3d d0e1 983d
000003c0: a077 093e 5026 18be 93e2 2b3e 13dc e1bd
000003d0: 70fa 8fbe f7b9 0f3e 38a6 2d3e 59ff a63d
000003e0: c251 3ebe b863 02be 0502 78bd d784 253e
000003f0: 8327 15be 8326 b2bd 6595 c3bc 9c78 9dbd
-0.19794999 -0.0074491464 0.27995571 0.012722358 -0.15234706 -0.05016384 0.14717348 -0.20668323
-0.12416488 -0.03768974 0.027291775 0.22306827 0.32558694 0.037845764 0.18017831 -0.1720103
-0.045503188 -0.10275132 0.32490453 0.022304019 -0.025825283 0.066972956 0.07773389 -0.18019235
0.081369996 0.117300875 -0.12197224 -0.16899708 0.31997022 -0.094251476 -0.19559488 0.2591561
-0.16034168 0.04635778 0.5384437 -0.32992563 0.13204885 0.075400755 0.19824491 0.25353482
0.12610467 0.07603164 0.50501496 -0.49072286 -0.0022071544 -0.050721213 -0.1262978 -0.35092735
0.17271858 -0.19191268 -0.057871718 0.03368729 -0.06362627 -0.0025659828 0.13519937 0.21810652
-0.044577368 -0.45737034 -0.15598129 0.16697414 0.10699122 -0.018079571 -0.059148487 -0.18604118
0.0017307901 -0.2164843 -0.201232 0.16999814 -0.15812512 -0.08590299 0.16790652 -0.20140857
-0.004356652 -0.1592731 0.25638866 -0.15065992 -0.013407626 0.06713965 0.005211876 0.12422517
-0.0024485548 0.16050342 -0.015288943 0.01240519 -0.08203326 -0.2388354 0.09277742 0.1615054
-0.02015172 -0.049755666 0.22159974 0.14945169 0.15848613 0.094610736 -0.14677481 -0.055527072
0.026497705 0.041621957 0.13742402 0.1414967 0.17221963 -0.011941638 -0.040849164 0.21496145
-0.13987535 -0.058008317 -0.14791901 -0.01619956 0.0751758 -0.17241082 0.15954423 -0.18378063
-0.06361316 -0.08193964 -0.09096357 -0.10141791 0.08099055 -0.14587396 0.10995705 0.12118572
-0.19101836 -0.097068496 -0.18413216 -0.18776178 0.19476923 0.18534155 0.15176529 -0.108136915
0.14279859 -0.026639663 0.23648728 0.018501062 -0.2012222 0.020168995 -0.04455813 -0.20254703
0.24206518 -0.08319077 -0.010526171 0.15737912 0.105091766 -0.23304282 0.29235312 -0.09356763
-0.02966811 -0.18027963 0.0774053 -0.1504779 0.0054153856 -0.100060105 -0.1493329 -0.078549325
-0.031017566 -0.14621119 -0.07809358 0.19718581 -0.044943348 -0.066684455 0.2595168 0.21503721
-0.25799245 -0.1957679 0.27667782 0.2831499 -0.11919821 -0.089691296 -0.03157603 -0.052955203
-0.22082987 -0.070980944 0.21874323 0.1934178 0.20434634 0.07143067 -0.038807146 0.02695071
-0.029572424 0.0644384 -0.11024379 -0.012204461 0.15758044 -0.05348364 -0.12471763 0.006020361
-0.26000354 0.1762052 -0.19516812 -0.20387949 0.2424746 -0.15980317 -0.1304498 0.14861001
0.11109588 -0.13936636 -0.027470682 -0.05142915 0.14143717 0.07892256 -0.0422588 -0.11747091
-0.4045507 -0.17004211 0.060923398 0.05084832 -0.12086659 -0.039734475 -0.084954366 -0.16001558
-0.16251266 0.16720767 0.15283152 -0.034763534 0.16198318 -0.14512347 -0.18951938 -0.044385463
0.23093605 0.06675849 0.006937993 -0.063831605 -0.105990805 -0.27247483 -0.18772434 0.032187425
-0.059143055 0.17345376 -0.21581241 -0.03265798 -0.0073198546 -0.18856375 0.008207264 0.045807414
-0.16989635 -0.013275745 0.0021752138 0.2090958 0.003371888 0.008328804 0.06984562 0.07464945
0.1342454 -0.14858365 0.1678565 -0.11028304 -0.28120756 0.14035784 0.16957939 0.081541725
-0.18585876 -0.12733352 -0.0605488 0.16163956 -0.14565854 -0.08698752 -0.023874948 -0.0768902

hiden_layers.0.bias f4 [64]
00000000: 0cb0 6ebc c7d6 3c3d 1376 cdbd a6e4 b53d
00000010: 4d24 82bb b35a 87bd eecb bf3d 16d2 cdbd
00000020: ea55 f2bb a210 c03c 7f08 973d 1903 393d
00000030: 942a bf3d 7882 f2bd 30da fabc ae5d ccbd
00000040: e163 2f3c e89f 19bd 86b7 a53d 973b d2bc
00000050: a5ea 44bd 579d a73d c986 22bd c118 77bc
00000060: d1d7 c93c 4146 893d bf82 7dbd bc10 69bd
00000070: bb78 aebc 583a bcbb a1a7 d73c 6ba2 983d
00000080: 8dc2 623d e09e 4f3d 9173 2abd cf20 8a3d
00000090: b41b a0bd b958 b33d 3ce2 a43d e70b 61bb
000000a0: a0e0 c83d aad8 5dbd 33d2 a83d 79ff 49bd
000000b0: 87be 85bd 1ab4 2cbd 4deb edbd 5ee8 7ebd
000000c0: aeb1 6cbc d52a 8f3d a2e5 ab3d 91ad 00bd
000000d0: 6310 ca3d 79ca 683d 2d4e a33b 386d 2e3c
000000e0: d16c b7bd 20b5 40bd 6166 1e3b db51 81bd
000000f0: cbe1 86bd 39cd a03d bde0 d2bd 987f 17bd
-0.01456834 0.046103265 -0.100322865 0.08881502 -0.0039716125 -0.066090964 0.093650684 -0.10049836
-0.0073954957 0.023445431 0.073746674 0.04516897 0.09334293 -0.11841291 -0.030621618 -0.099788055
0.010704965 -0.037506014 0.08091645 -0.02566318 -0.048075337 0.08184307 -0.039679322 -0.015081585
0.024639042 0.06702853 -0.061892267 -0.056900725 -0.021297803 -0.00574426 0.026325049 0.07452854
0.05536132 0.050688624 -0.04161412 0.06744539 -0.07817784 0.08757157 0.08050963 -0.003433937
0.09808469 -0.054161705 0.08243217 -0.049315903 -0.06530481 -0.042163946 -0.11617146 -0.06223332
-0.014446659 0.069905914 0.08393408 -0.031415526 0.09866407 0.056833718 0.0049836845 0.010646157
-0.08956302 -0.047047734 0.002416991 -0.06314441 -0.06586035 0.07851643 -0.10296772 -0.036986917

hiden_layers.1.weight f4 [64, 64]
00000000: 6520 713e 5283 b63d 30bf 43be 2c61 7a3d
00000010: b5aa 34be be6c 3f3e ba73 dcbd 9dbd e7bd
00000020: 210f b6bc b4f2 41bc 8c1f 29bc 2b35 98bd
00000030: f89f ad3d 2214 9b3d 1e22 163d 3829 6ebd
00000040: 84e5 1b3d 31b2 f33d 399c de3d 1df9 073d
00000050: f8bd 4d3e 52a0 02be 07a8 173d 5d43 1bbe
00000060: adb2 9f3c 6a4f 50be 695e a1bd edf4 233e
00000070: 7293 3c3d d9db 753b 0a0f b7bc 4514 0e3e
00000080: afa3 45be 32f2 483e 4255 37be 7cf9 24be
00000090: 6875 1dbd e982 823b 9518 94bc f1ed 2f3e
000000a0: fe46 b93d 73c8 2c3e 5eaa 16be ecc0 ef3d
000000b0: 361d 5d3e 5f2f 383d 99aa 323e ac36 50be
000000c0: 23c4 53bd 291b 18be 309c f0bc c9d6 a53d
000000d0: 3b9b 01be b63f feba 6948 c4bc fb28 3ebe
000000e0: f854 7d3e 478a 09be 0905 16be 944e d73d
000000f0: d799 a53d 8187 783d 7de4 973b 750a febd
00000100: 421b bfb9 0354 55bd 653a 55be 046e bd3d
00000110: 4c92 1dbe 86e0 11be 383a 0dbe 59f4 bcbd
00000120: f486 de3d 3f43 9cbd 7030 6f3e b60a 853d
00000130: f44f 563d 0035 30bd 17c0 2abd ad4b 9339
00000140: 49b3 003e 9b7e 3abd 5d3d 233e 3302 2f3e
00000150: 10ff 703d e2d3 313e ae41 8ebe e2a3 913d
00000160: 2d67 91bd 1302 463e 3858 a93c 6aa7 89bc
00000170: c14b 07be 2c74 953c cb0f 03be 5372 743e
00000180: 9db1 5f3e 4b92 343e 150d 40be 9b82 ffbd
00000190: 105e 43be 48ef 143d 5569 08be 4bbc 71be
000001a0: 6b18 56be 3df1 65be d4a4 063e 6c90 e5bd
000001b0: 1d6a 3c3d 47d6 2f3e 8793 44bf 3d85 65be
000001c0: a82a 223e fd9a 9c3e 61ef 3ebe 5164 9cbd
000001d0: 38d6 b83e 6ef0 0fbd d070 3c3e d65b 19bd
000001e0: 57f5 83bd f41f 7b3d c4b7 cbbd 3760 e63d
000001f0: 3dce 2d3d 40b8 273e 1679 563d d8f9 3b3e
00000200: 8f48 db3e 7300 983d baf2 54bd 8c05 923d
00000210: da34 983d fe0a 363e c885 82bd 7e29 d93d
00000220: be6d 4e3e a41f 0ebd 918f 52be 1a5b eebc
00000230: 962a ad3d 1f4c 27bd d9b8 9b3d 31e8 52bd
00000240: 4096 4dbe 34a0 5bbd 69b8 853d 09b4 993d
00000250: d7ab fa3c f23d 5cbe 4ffe 1abe 453f 48be
00000260: 68b5 ecbd 1186 9f3d 7e13 1cbe 6cee 86bd
00000270: 59b2 543e c48d 673d 37f3 513e ea66 4f3e
00000280: 3b7e da3d dfd2 16be 251f c8bc e9c7 95bd
00000290: 3d2f 98bd 822a c6bd b3e4 373d 4b36 febd
000002a0: e940 c5bd 334b c1bd 9cb4 32be 7cf4 babe
000002b0: 0fae bf3d 0337 7d3c f71c b4bd 375e ba3d
000002c0: 19f4 c4bc 9905 64bd eaca 3d3d ccab 60be
000002d0: 03a3 183d b2cb 24be 71d3 00bc 5e07 8abb
000002e0: 498f 75be 31c3 d43d 7ff7 debd b2cd aabb
000002f0: 5b3e a93d f72f 8b3d 1bef afbc 49b6 a5bc
00000300: c09c 3ebc 011d a9bd 5cdd 33be 7c5c 0f3e
00000310: 27a3 783e 177f 8fbe 2d3b 8dbd cd24 1cbe
00000320: 7403 8dbc d716 78bc d1b6 16be 3a8e 9b3e
00000330: 686e 9c3e 4ba8 b73d 8bcf 7fbc d252 943d
00000340: 1c1c 99bd ec17 e8bd d348 103e b51a 803e
00000350: 4aa9 40bd 81f1 59be b12c ee3d c117 ba3d
00000360: 879e 473d 28e4 a43d bc62 eabc 6d89 c4bd
00000370: 3abe 243e 1a18 253e fec8 093e d150 3b3e
00000380: 27f7 223e 5349 e6bc ced9 0bbe f707 223d
00000390: d0f1 9a3d 3ac0 a63d 1139 df3d 8e1d 383e
000003a0: 9c35 f63d d6af 0ebc 32e2 6f3e 486a f33d
000003b0: 88a4 eabd fcdc 43be 3747 79be 7480 ccbd
000003c0: 9ccd e33d 7f0b 3a3d 1a28 1cbd fe8e f13d
000003d0: c0e0 2b3e 77a0 4dbd 1e7e 9abe bf4a 14bd
000003e0: b842 7abe 754e bebd ea0d ff3d 7f01 8f3c
000003f0: 89cd 02be c58d 763e 8949 c83d 4a49 70be
0.23547514 0.08911766 -0.19115901 0.061127827 -0.17643245 0.18693826 -0.107642606 -0.11315463
-0.02222401 -0.01183765 -0.010322463 -0.07432016 0.08477777 0.075721994 0.03665363 -0.058144778
0.03806068 0.11899222 0.10869641 0.033196557 0.20091999 -0.1275647 0.037025478 -0.15162416
0.019494379 -0.20342794 -0.078793354 0.160114 0.046039052 0.0037515073 -0.022346038 0.1387492
-0.19300722 0.1962364 -0.17903617 -0.16110796 -0.038442045 0.003982891 -0.018078128 0.17180611
0.09046744 0.1687334 -0.14713427 0.11706719 0.21593174 0.04496705 0.1744789 -0.20333356
-0.051700722 -0.14854111 -0.029371351 0.08097608 -0.12656872 -0.001939765 -0.02396031 -0.1857032
0.24739444 -0.13431655 -0.14650358 0.105130345 0.08085983 0.0606761 0.004635392 -0.12404338
-0.00036450668 -0.052082073 -0.20823057 0.092494994 -0.15387839 -0.14245805 -0.1379174 -0.09226293
0.10865584 -0.07630014 0.23358321 0.064961836 0.052322343 -0.043019295 -0.041687097 0.00028094408
0.12568392 -0.045530897 0.15941377 0.17090683 0.058836997 0.17365983 -0.27784485 0.07111336
-0.07099757 0.19336729 0.020671949 -0.016803462 -0.13212492 0.018243872 -0.12798993 0.23871736
0.21845098 0.17633931 -0.1875499 -0.12476083 -0.19078851 0.03636101 -0.13321431 -0.23606984
-0.20907752 -0.22455306 0.13148814 -0.11209187 0.045999635 0.17171584 -0.7678761 -0.22414108
0.15836585 0.30586997 -0.18646003 -0.07636321 0.36100936 -0.0351414 0.1840241 -0.037441097
-0.06443279 0.06130977 -0.0994716 0.1124882 0.042433012 0.1637888 0.05236157 0.18357027
0.42828795 0.07421961 -0.051989295 0.07129964 0.07431956 0.1777763 -0.06373173 0.10603617
0.20159051 -0.034698144 -0.20562579 -0.029096175 0.08455388 -0.04084408 0.07603616 -0.051490966
-0.20076847 -0.05361958 0.06529314 0.07505042 0.030599518 -0.21508005 -0.15136074 -0.19555385
-0.11558038 0.07789243 -0.1524181 -0.06588444 0.20771159 0.056531683 0.20502935 0.20254102
0.10668608 -0.14728878 -0.024428913 -0.073135205 -0.07430885 -0.096760765 0.04489584 -0.12412699
-0.09631521 -0.09438171 -0.1745171 -0.36514652 0.09359371 0.01545501 -0.08794587 0.09100001
-0.024042176 -0.0556694 0.046336092 -0.21940535 0.037264835 -0.16093329 -0.007862912 -0.004212304
-0.2398044 0.10388792 -0.1088705 -0.005212509 0.082638465 0.06796258 -0.021476319 -0.020228522
-0.011634052 -0.08257485 -0.1756491 0.14000124 0.24280988 -0.2802665 -0.068960525 -0.15248413
-0.01721356 -0.015142164 -0.14718176 0.30381948 0.30552983 0.08967646 -0.015613447 0.07242359
-0.074760646 -0.11332688 0.1409028 0.25020376 -0.047036447 -0.21283533 0.11629618 0.09086562
0.048735168 0.0805133 -0.028611533 -0.095965244 0.1608819 0.16122475 0.13455579 0.18292548
0.15914594 -0.028111136 -0.13657305 0.039558377 0.07565653 0.08142133 0.108995564 0.17980024
0.12021944 -0.008708915 0.2342613 0.11885506 -0.11457163 -0.19127268 -0.24343573 -0.09985438
0.11123201 0.04542112 -0.03812418 0.11794852 0.16784954 -0.05020186 -0.30174345 -0.036204096
-0.24439514 -0.09292308 0.12453826 0.017456768 -0.12773718 0.24077518 0.09779651 -0.23465458

hiden_layers.1.bias f4 [64]
00000000: 0bc5 01bd 1018 9a3d 3534 7d3d de2a a93c
00000010: cdf6 8bbc 5389 bbbd 1cc1 96bd 641a 65bd
00000020: 5657 bebd 6f63 a8bd 12d4 8f3d dcd1 94bd
00000030: f682 7cbd e5fa 8cbc 28c6 61bd f6b9 b9bd
00000040: e956 b93c 0867 32bd 0b66 85bd a204 553d
00000050: 8e66 59bd ae6f a23c aaa5 aabb 7754 be3d
00000060: 6b6e 4b3d 56ed 93bd f0c8 8b3d e2c6 1abc
00000070: cf8b 8fbd 11b7 88bd 629d 20bd 505a 72bd
00000080: 57c2 5dbd fe29 4e3d 4b00 943d f31a a43d
00000090: 241c 673d 1a93 90bd 1a70 2c3d 65d7 993c
000000a0: e142 e0bb ebec 7a3b f708 21bd 6d7d 57bd
000000b0: 8693 63bd 599f 673d e9eb babd 4266 c33d
000000c0: 20ea 3d3d 762e 62bd 6777 9c3d b4af 59bd
000000d0: dd52 d9bc 737a 6c3d 54ff a4bd 39e4 a43d
000000e0: 7fec 85bd 2fae 953d 5ea6 563d 8324 9f3d
000000f0: 7df7 3b3d 1c9a 0b3c 2ef0 0d3d 57b8 753d
-0.031682055 0.07524121 0.061817367 0.020650323 -0.017085457 -0.09157052 -0.073610514 -0.05593337
-0.09294002 -0.082220905 0.07022871 -0.0726659 -0.06164833 -0.01720948 -0.055120617 -0.09068672
0.02262445 -0.04355529 -0.06513604 0.05200637 -0.05307632 0.019828644 -0.005207737 0.09293454
0.04966585 -0.072230026 0.06825435 -0.009446831 -0.07009088 -0.06675542 -0.039212592 -0.05916816
-0.054140415 0.050333016 0.072266184 0.08012953 0.05642332 -0.070593074 0.042099096 0.018779466
-0.00684391 0.0038288187 -0.03931519 -0.05260985 -0.05556061 0.05654845 -0.091270275 0.095409885
0.046365857 -0.05522009 0.07639962 -0.05314608 -0.02652877 0.057733964 -0.080565125 0.080513425
-0.06539249 0.073086135 0.052404754 0.07770636 0.04589032 0.008520629 0.03465288 0.059990253

hiden_layers.2.weight f4 [64, 64]
00000000: c366 5dbe 39d6 cf3e 7cbe 3a3d fc36 ac3c
00000010: 907e 74bd 2260 98bd 2603 67be d0f5 3abe
00000020: 5d14 d2be 7e1c 7bbe 6778 9b3d ae45 17be
00000030: df55 c8bd 6ade f93d 8987 1abe f667 493e
00000040: a54f 3e3e fb18 943c 67d2 7abc 8390 43bd
00000050: 5e09 513e 92e5 5c3e 70ab 4dbd 1ca1 883e
00000060: bfe4 5f3e a7bf 3bbe ff92 7cbe d86e 3dbe
00000070: 332a 163e 6523 f6bd 6a81 573e 4320 33be
00000080: c178 22be 5813 963d dc34 38be d331 abbc
00000090: 2a00 293e 5b2f 843c 9138 913d d4f6 1ebd
000000a0: 40ff 26be e9de 293c f69f 06bc 011b 933d
000000b0: e4a0 043e b0a8 10be 8135 e53c d5e1 283e
000000c0: 6b4e de3c 414f 003c 45c1 9c3d 599e e9be
000000d0: ba47 c5bd a16e 123e f998 dd3d b3ac 473e
000000e0: 1240 8cbe f9df 263e c4af 9c3e 2798 c33a
000000f0: fa2e 99bd 9028 c43c f37d 633d 9701 c03e
00000100: aeff be3d a96e 2cbb fd62 1f3e f4e1 0f3e
00000110: 17dc 713e c2cf ed3d e3eb 063e 6ca7 763e
00000120: 9a8a 013e 6e3c 333e 3580 503e 4f2b 293e
00000130: db36 12be b94a 81bd e40e 3abd bd91 2b3e
00000140: e62f b6bd eb31 9d3d 4e6e 7dbe f40e 12be
00000150: ebc5 13bc 118e 00be 32fb 16bd 1622 3bbe
00000160: 0970 5dbd be23 943d 257c 7b3e 0301 053e
00000170: 8d93 edbd 7388 423d a211 1ebd f57e 6ebd
00000180: ce49 d03a 4c3e 653e 219e bebd c9ba 093e
00000190: c549 e83d 1fca 803d c37e 3e3d 9381 43be
000001a0: a5b8 92bd 7fcd dfbd 9e41 183b 6317 9d3b
000001b0: bbec 3e3c cb31 5abe 56bf dabd d8c0 6b3e
000001c0: c8ba 26be 1598 483e ecef d5bd 92b0 84bd
000001d0: 8b15 06be f085 3c3e 63cb 09be 1449 f0be
000001e0: 1409 153f 91eb b1bc 4a58 ddbd 9868 383e
000001f0: 2f27 a23d 7001 473e c348 fc3d b38e 64be
00000200: 9622 583e fafd 93be 4263 8dbd 79e8 00be
00000210: e678 0c3e 3288 833d 9bc8 3f3e 96a6 913c
00000220: 7956 48bd cff9 893e e5b7 953b b487 4d3e
00000230: f4fe 533c 11f0 2f3e 168c 26be cec2 3a3e
00000240: a826 963d b9f3 54be bda6 133e 2d2e 5ebe
00000250: 7a90 4dbe 9180 473d 3849 113e 2535 45be
00000260: 961f 9bbd c95a 95bd c4de cabd 4b57 d4bc
00000270: ca5a 8b3d 8249 d53d 9c78 c03d 72dc 973e
00000280: e05c f6bd 9ad9 23be e921 91bd fb15 d43d
00000290: 24f5 2b3e 8ccc 8abc 5b9c 5bbe 799d 4f3e
000002a0: d827 473e 564a 113c 9e16 11be 2006 e3bd
000002b0: dc12 1b3e cebe d73c bc8b 98bc 34ab 4ebd
000002c0: 4f31 453e 29f2 4e3d 713a 84be 6f3d 9e3e
000002d0: b12e 32be 4868 273e 7e58 203e 99d8 333c
000002e0: 0f89 35be b6c3 e13d 8b29 74be 528a f0bd
000002f0: d7ec 4c3d 71fb b5bb dd97 133e a8ec c43d
00000300: 9c25 44bc b24e 1dbe 0b1f b63c bc42 883e
00000310: c52e 98be f103 0cbe 3fb2 1b3e 5007 18be
00000320: 2c15 623d 3988 133e 1420 373e 7be5 45be
00000330: 0d83 e23d dc11 043e 979c 5bbd f170 81bd
00000340: 10e0 c23c 6749 a5be ea4a 32be c2ff 31bc
00000350: 6168 4dbe f0fe 72bd e312 003e ecfe 61bc
00000360: 2160 81bc 7497 95bc 389e ff3d 9fb8 623d
00000370: 519a d4bd d6cd 683e 36ec 2f3d 3126 61be
00000380: 445f 9cbe 65c4 f4bd 02ba d03e cfa9 3c3e
00000390: 1c90 183e 85f5 ec3d 5fc3 b5bc b6fc 1fbd
000003a0: 9e33 8d3e 1d56 74be 841f 673b 8e87 a23b
000003b0: 7271 f43c b4b1 8f3d 1a08 cbbd 40b4 11bb
000003c0: d065 a5bd f1bb aa3d 11ea 553e 8d8f 68be
000003d0: f014 14bd 1e59 04be 730a e33d f65a debc
000003e0: 9b9a 043c a091 efbd 7af8 c5bd 1468 b63e
000003f0: daf1 643e 45e6 66be e083 823e ed9b c0bc
-0.21621232 0.40593126 0.045591816 0.021022312 -0.059691012 -0.07440211 -0.22559795 -0.18257833
-0.4103116 -0.24522588 0.07591324 -0.14772674 -0.097820036 0.12200625 -0.15090765 0.19668564
0.1858507 0.018078318 -0.015308953 -0.04774524 0.2041373 0.21571949 -0.050212324 0.26685417
0.21864603 -0.18334828 -0.2466545 -0.18499315 0.14664535 -0.1201847 0.21045461 -0.17492776
-0.15866376 0.07327908 -0.17988914 -0.020897781 0.16503969 0.016135862 0.07090867 -0.038809612
-0.16308308 0.010368087 -0.008216849 0.07182885 0.12952 -0.14126849 0.027979614 0.16492398
0.027137002 0.007831396 0.07654051 -0.45628622 -0.096328214 0.14300014 0.10820193 0.19499473
-0.27392632 0.16296376 0.3060285 0.0014922664 -0.07479663 0.023945123 0.055540036 0.37501213
0.09326111 -0.0026311076 0.15565105 0.14051038 0.23619114 0.11611892 0.13175921 0.24087304
0.12650529 0.17503521 0.20361407 0.16520427 -0.14278738 -0.0631308 -0.045424357 0.16754813
-0.08895855 0.07675537 -0.24749109 -0.14263517 -0.009019355 -0.12554194 -0.036860652 -0.18274722
-0.054061923 0.0723338 0.24559076 0.12988667 -0.11600409 0.04749341 -0.038591035 -0.058226544
0.0015891136 0.22387046 -0.093075044 0.13450159 0.113421954 0.062885515 0.04650761 -0.19092397
-0.071641244 -0.10927867 0.002323247 0.0047940477 0.011653121 -0.21308057 -0.10681026 0.23022783
-0.16282189 0.19589265 -0.10446152 -0.064789906 -0.13094155 0.18410468 -0.13456492 -0.46930754
0.5821698 -0.021718772 -0.108078554 0.1800865 0.0791763 0.19434142 0.12318566 -0.2232006
0.21106943 -0.28904706 -0.069036976 -0.12588681 0.13717994 0.064224616 0.18728869 0.01777963
-0.04891059 0.269484 0.004569041 0.20071298 0.0129392035 0.17181422 -0.16264376 0.18238375
0.07331592 -0.20796098 0.14419074 -0.21697302 -0.20074645 0.048706595 0.14188087 -0.19258554
-0.07574384 -0.072927065 -0.099057704 -0.02592053 0.06804426 0.10414411 0.093980044 0.29660374
-0.12029433 -0.16000977 -0.07086546 0.10355755 0.16792732 -0.016943239 -0.21446364 0.20274915
0.19448793 0.008867821 -0.14168784 -0.110851526 0.15143913 0.0263361 -0.018621318 -0.05045624
0.19257091 0.05052391 -0.25825837 0.30906245 -0.17400624 0.16348374 0.15658757 0.010976934
-0.17728065 0.11023657 -0.23843972 -0.117451325 0.050030556 -0.005553656 0.144134 0.09615451
-0.011971857 -0.15362051 0.0222316 0.26613414 -0.29723182 -0.13673379 0.15204714 -0.1484654
0.055195972 0.14407434 0.1788333 -0.19325821 0.11060152 0.12897438 -0.053616133 -0.0632037
0.023788482 -0.32282564 -0.1741139 -0.0108642 -0.20059349 -0.05932516 0.12507205 -0.013793688
-0.015792908 -0.018260695 0.1248135 0.05535185 -0.10380996 0.2273477 0.042949878 -0.21987225
-0.30541432 -0.11951522 0.40766913 0.18424152 0.14898723 0.11570267 -0.022187887 -0.039059363
0.27578443 -0.23860975 0.0035266588 0.004960007 0.029839251 0.07016316 -0.099136546 -0.0022232682
-0.0807606 0.08336628 0.2089007 -0.2271101 -0.03615278 -0.1292462 0.110859774 -0.027142983
0.008093501 -0.11697698 -0.09666534 0.3562628 0.22357884 -0.22548778 0.25491238 -0.023511851

hiden_layers.2.bias f4 [64]
00000000: a43c 643d 3593 19bc a2b6 48bd 1b5a 153d
00000010: 2aaa 0fbd 7fec 8a3c 6df8 d3bc 70b0 6a3c
00000020: 8984 88bd c4a2 613c 0e64 a23b 6a19 37bd
00000030: 983b 4e3d 81c1 0a3b 593e 19bc f316 533d
00000040: 8f64 ee3c f146 15bd b4c8 6cbd 34e7 483d
00000050: 5bf4 b6bd 2996 41bc a270 863d 5b3d d23c
00000060: 3f75 48bc 9e51 163d 2d17 433d 4104 8b3c
00000070: 3d2a 85bd 9bd3 153d 1e4a 0b3e 0f19 2abd
00000080: 2f1e dbbc 0eee 79bd 7941 83bd 4373 963c
00000090: 7a78 8c3d 82a0 b1bd b895 70bd 0bbb 683d
000000a0: 4bc2 973c dabc ba3c 867c 85bd 5041 7c3d
000000b0: 16e3 603c 8b31 143d 49c2 45bd f44d 343d
000000c0: 144d 673d 8002 3fbd 0d19 353d 2dc6 dfbb
000000d0: 25c5 90bd 177b 39bd 99da aabc 234c aebc
000000e0: a2a3 c13c 152a 76bc 9b7a 5fbd c4ba 013d
000000f0: 5255 e83d 7502 4ebd da31 5ebc 4568 833d
0.055721894 -0.009373476 -0.049002297 0.036462884 -0.03507439 0.016958473 -0.025875295 0.014324293
-0.06665904 0.0137717165 0.004955775 -0.04470197 0.0503498 0.0021172466 -0.009353244 0.051535558
0.029100684 -0.036444608 -0.057808593 0.049048617 -0.08933326 -0.011815586 0.06564452 0.025664022
-0.012234985 0.03669893 0.047629524 0.016969802 -0.06502197 0.036578756 0.13602492 -0.041527804
-0.026747791 -0.061018042 -0.06408972 0.018365508 0.068589166 -0.086731926 -0.058736533 0.056819003
0.018525263 0.02279513 -0.065178916 0.061585724 0.0137260165 0.03618006 -0.048280988 0.044019654
0.05646999 -0.046633244 0.044213343 -0.0068290443 -0.07068852 -0.045283403 -0.020856189 -0.02127654
0.023637597 -0.015024682 -0.054560285 0.031672254 0.113443986 -0.050295312 -0.01356169 0.06416372

hiden_layers.3.weight f4 [64, 64]
00000000: 2f81 02be a794 3f3e 5792 483e c064 e0bc
00000010: 8508 97bd b13a 2d3e 4954 06be 3573 87be
00000020: fef7 1a3d 9f94 303d 54d4 133e 5282 1f3d
00000030: 6a1e 313e c372 4bbe 7e3d 763e 1732 b6bd
00000040: ba9b 1dbe ab03 13be 1482 033e 1675 49be
00000050: 4f36 793e 2019 71be d99c 163e 14d5 153e
00000060: 808f f43d d2b4 66bc 6301 dcbd b043 95bd
00000070: 3257 5c3e 406d 0b3e 0e18 a6bd 147f 7b3e
00000080: d99b d93d f480 043e 4bd1 c4bd 57b2 023e
00000090: 58d6 2abc 9c64 3e3d af92 d63d 57be dcbd
000000a0: 1879 903d de46 253e 9d19 30be e35a 66be
000000b0: 7d1a bd3d 64d8 3d3e ee3f b13d 7838 b8bd
000000c0: 0904 3f3e d01c 31be 368a 13be 6a27 40be
000000d0: f34b 493e f9b3 673e c22b 0c3e a541 f5bd
000000e0: 12eb 853d 8b28 d13d fd23 2ebe 0e15 54bc
000000f0: c543 523d 4d15 623e b58e 0cbe 7a7c 3d3e
00000100: 9960 7dbe 1dce 6bbd 1a44 e03c cb8e b13d
00000110: 314e 24bd 1a20 b83d 1e33 30be d292 c33d
00000120: ad12 d2bd 121b 45be d130 4d3e 8afa ee3d
00000130: fdb4 493e a123 b03a 266a 333d 82bc 443e
00000140: 5da9 543e 768a 3dbd ed69 803e c051 3a3e
00000150: 7f5f 7b3e c721 0ebe a7a5 5bbd f370 763e
00000160: cc62 38bd 6ea6 a53d aa2b 4c3e 3e71 37be
00000170: 84fa 803e 72cb 02bd 09b5 82be f994 4e3e
00000180: a8d6 2a3e b706 c8bc 7006 293e 889f 023e
00000190: 7831 a7bd 25ec 10be 393e 3bbe 7c4f b53d
000001a0: 6cd4 313d cc81 f5bc 4ddb a63d 8895 7c3e
000001b0: 9572 4d3d 43ec 993d 920d 0a3e 2bc3 86bd
000001c0: 9773 f03d b9ab 28be 562e d2bd 8e5b 2c3e
000001d0: 26ff 233e 5cae ccbd c2b5 67bd f03e 2a3e
000001e0: d9c7 523e 03ac 2fbe 3ad4 eb3d 1241 223c
000001f0: 9bbb c83e a8e9 273e f0eb eebc 526c 023e
00000200: 103c 59be 6bd9 273e 988d 26bd d952 b7bd
00000210: 948d 2dbe 04ea e93d f19c cd3d 25ee 4cbe
00000220: 544f 633e 1080 4fbd c5e0 7fbd 93ef 523e
00000230: b642 e8bd e109 ac3b 37f5 1b3e 1aed a1bc
00000240: 9318 823d 4579 143e 5d57 0cbe f501 55be
00000250: f148 ca3d 6217 7a3c 0bff 58be a082 083e
00000260: f071 78bd 442d 9c3d abcb 59be 150d 0e3e
00000270: d8e2 b83e 6cf0 5cbe 6cd5 26be 6624 b5bd
00000280: 36ea 69be 3a33 ae3e b4aa 523e 8958 a13b
00000290: b905 a6bd b813 53bd ca9f ef3d c008 1f3d
000002a0: b9b1 463e 96e1 68be ab26 2c3d 164e 573c
000002b0: a219 89bc f859 28be fa50 0d3e a3ff 73be
000002c0: 3b2b 2abe f1dc 23be 2b43 613e 3bc5 2d3e
000002d0: e31a 413c fe0c 8abd 64c5 65be 1beb 4dbe
000002e0: cd11 46be fa7c 19be 5a92 353d 4df5 bc3d
000002f0: d4b3 2b3d 526d d33d be87 d13b 86c4 12bd
00000300: 8985 47bb 60d4 f9bd c15f ef3d ae44 fcbc
00000310: e9a0 40be 6ab2 8dbd a904 ac3d 6d44 17be
00000320: afb0 be3d 66d9 0dbe f56b 47be 9fec dabd
00000330: 63ee 85be e30f 2cbe 5547 75bd 03f6 bfbc
00000340: 3a9e 56bd f441 d83d fd5b 6c3e a364 84bd
00000350: 6a09 083e 575c fcbd c381 3fbe 0c19 11bd
00000360: 1e58 643e e903 c03c 5750 aa3d afcc 033e
00000370: 516a 583e 8083 76be efcd 8e3d 03ab 893d
00000380: f307 0c3e 3a24 473e 3423 e33d 9fdb 16be
00000390: 05a8 b4be c9f7 193e 3d33 7839 d6f2 1bbd
000003a0: b401 1f3e cb66 4bbe bc86 12be 33b5 f8bd
000003b0: 0fdd a53d e18b 10be 10bb 913e 8e5c fc3d
000003c0: 0d6b 1bbe 0fc1 2f3e f9f4 0fbe 2bda 21be
000003d0: 85dc 4e3e d2d2 363e e3f4 263f 2b35 403e
000003e0: 2649 2f3e f63a 043e c07d 573e 9166 52be
000003f0: edea 3fbe 8511 34be 25b2 11be 60db 4f3c
-0.12744592 0.1870905 0.19587074 -0.027391791 -0.07374672 0.1691692 -0.1311809 -0.26455083
0.03783416 0.043110486 0.14436466 0.038942643 0.17296758 -0.19867997 0.24046895 -0.08896273
-0.15391436 -0.14356868 0.1284259 -0.19673571 0.24337123 -0.2354474 0.1470827 0.14632064
0.11941433 -0.014081197 -0.10742452 -0.07288301 0.21517637 0.13615894 -0.08110057 0.24560195
0.10625429 0.12939817 -0.09610232 0.12763344 -0.01042708 0.046482667 0.104771964 -0.10778492
0.07054347 0.16140315 -0.1719727 -0.22495608 0.09233568 0.18539578 0.08654772 -0.089951456
0.18653883 -0.17296147 -0.14408192 -0.18765035 0.19657879 0.22627248 0.13688567 -0.11975411
0.06538977 0.10212811 -0.17005916 -0.012944473 0.05133416 0.22078438 -0.13726313 0.18504515
-0.2474388 -0.05756961 0.027376223 0.08669814 -0.04011363 0.08990498 -0.17207 0.09549488
-0.102574684 -0.19248608 0.20038153 0.1166888 0.19697948 0.0013438353 0.043802403 0.19212535
0.20767732 -0.046274625 0.25080815 0.18195248 0.24548148 -0.13880073 -0.053624775 0.24066524
-0.045016095 0.080883846 0.19938532 -0.17914292 0.25191128 -0.0319323 -0.25528744 0.20174016
0.16683447 -0.024417264 0.16506362 0.12756169 -0.08163732 -0.14152582 -0.18285455 0.08853051
0.043415472 -0.029969119 0.08147297 0.24666417 0.050158102 0.075157665 0.13481739 -0.06580194
0.11740797 -0.16471757 -0.10262744 0.168318 0.160153 -0.09994194 -0.056569822 0.16625571
0.20584048 -0.17155461 0.115150884 0.009903209 0.39205632 0.16397727 -0.029165238 0.12736633
-0.21214318 0.16391532 -0.040662378 -0.08951349 -0.16948539 0.11421588 0.100397 -0.2001272
0.2219823 -0.05065924 -0.062470216 0.20599203 -0.11340849 0.005250201 0.15230261 -0.01976638
0.063523434 0.14499386 -0.13705201 -0.20801528 0.09877194 0.015264364 -0.21191041 0.1333108
-0.060655534 0.07625821 -0.212691 0.13872178 0.36110568 -0.21576089 -0.16292351 -0.08844833
-0.2284325 0.34023458 0.2057293 0.0049238843 -0.0810656 -0.051532477 0.11700399 0.038826704
0.19403733 -0.22742304 0.042029064 0.013141176 -0.016735855 -0.1644057 0.13800421 -0.23827986
-0.16618054 -0.16002251 0.21998279 0.16969769 0.011786195 -0.06740759 -0.2243858 -0.20109217
-0.19342728 -0.14989081 0.044329025 0.09226475 0.041919544 0.103235856 0.0063943556 -0.03583195
-0.0030444583 -0.121987104 0.116881855 -0.030794468 -0.18811382 -0.069187954 0.08399326 -0.14772196
0.093110435 -0.13852462 -0.19474776 -0.10689663 -0.26158437 -0.16802935 -0.05988248 -0.023432737
-0.05239699 0.105594546 0.23081966 -0.064645074 0.13284841 -0.123223 -0.18701844 -0.035424277
0.22299239 0.023439365 0.08316105 0.1287105 0.21134306 -0.24073601 0.069728725 0.06722071
0.13674907 0.19447413 0.11090699 -0.14732216 -0.3528444 0.15035929 0.00023670211 -0.038073383
0.15527993 -0.19863431 -0.1430921 -0.12143936 0.08098804 -0.1411586 0.2846303 0.12322341
-0.15177555 0.1716349 -0.14058293 -0.1580588 0.20201309 0.17853859 0.6521742 0.18770282
0.17117748 0.12913117 0.21044064 -0.20546938 -0.18741961 -0.17584808 -0.14228113 0.01268658

hiden_layers.3.bias f4 [64]
00000000: d654 1cbd 5ca0 943c 9b85 17bd f42f e0bc
00000010: c1ae f0bc ab19 d2bc 0f5e e63c 045f 5d3c
00000020: b070 033c 09ee 0e3c c47e 513c c867 1e3d
00000030: 7b58 453d 4040 033d 2e46 1cbd 06fc f9bc
00000040: 263c 1fbc 7689 343d de42 173d 267d b03c
00000050: 27f7 96bb 580b 79bd 44c0 a93c aa86 573c
00000060: c8fc 52bc d688 f63c 053a 16bd c3fa 1abd
00000070: 9971 11bd 90f6 8bbc fb2a 6a3c 3317 a03c
00000080: acd7 bfbc 8fba 59bc b64a ad3a 1932 433d
00000090: a1de 843b 74f7 e03c 7886 253d b1d1 6a3d
000000a0: ea10 c5bc b316 94bd 6fd2 5a3d 2b84 2fbc
000000b0: 3961 18bd 7b06 433d 366c 31bd 4583 b5bb
000000c0: e4bc 26bd cdee b33a f84a 373a 7a98 35b8
000000d0: cff8 f3bd d7b2 13bd 5d3d 1d3d 1392 23bd
000000e0: efe8 163d 9f7b 20bd 18ad 48bd 4c1e 45bd
000000f0: 4fee b23c 4d78 ac3c 1335 23bd 3fd2 5abc
-0.038166843 0.018142872 -0.03699265 -0.027366616 -0.029380204 -0.025647005 0.028121023 0.013511423
0.008022472 0.008723744 0.012786571 0.038673192 0.048180085 0.032043695 -0.038152866 -0.030515682
-0.00971893 0.044076405 0.036929004 0.02154405 -0.0046070996 -0.060801834 0.020721562 0.013154665
-0.012877651 0.030094545 -0.036676425 -0.0378368 -0.035508726 -0.017085344 0.014292474 0.019542312
-0.02341827 -0.013289108 0.0013221118 0.0476552 0.0040548597 0.027461745 0.040411443 0.057328884
-0.024055917 -0.07230892 0.05342334 -0.010712664 -0.037202094 0.047613602 -0.04331609 -0.00553933
-0.040707484 0.0013727784 0.0006992067 -4.3295768e-05 -0.11912691 -0.036059227 0.0383886 -0.03993423
0.036843237 -0.039180394 -0.0489932 -0.048124596 0.02184215 0.021053458 -0.039845537 -0.013355791

hiden_layers.4.weight f4 [64, 64]
00000000: 8c01 53be 6d39 d63c 669b e33d de6a 35be
00000010: 8e8d 313e 03ec 81bd 751d 24bd 3af5 633c
00000020: c4e1 2fbd 949a 80bd 907c e3bc 2357 413d
00000030: 362f 963c 282c 0dbe 6cb4 10be 0969 a4bd
00000040: c7d0 5fbd 39a6 d1bd 5226 da3d 30c0 1d3e
00000050: 3a2e 48be 725b 933d 96a2 81be fe26 753d
00000060: 90d0 87bd 288d 0bbe 83f0 8d3d 93b2 1e3d
00000070: 1d2c 26be 3567 d4bd 3949 e6bd e87c 133d
00000080: 7c1b 4c3e 285d 48bd 3f0d 9e3d 2e0f 88be
00000090: 538d 393e 9f8e e0bd 6495 0b3d a0d5 a5bb
000000a0: c1e1 10be bca6 93bd b0cd 963e 6495 aa3d
000000b0: ca6b 9a3a f4a2 3e3e d95f 7c3e f6e3 39be
000000c0: d200 30be 500e 9dbd 54ce cb3d 55de 4a3e
000000d0: 80fa 6fbe c82b 543e b964 443e dcba 7dbd
000000e0: 9201 373e 1903 19be e70d 60be 9e9a ebbe
000000f0: 053a 733d 9d43 1cbe 99d0 31bd dbb3 80bd
00000100: 686d 7fbc f44c 11be df1e 0abe a763 9d3d
00000110: 0919 de3d 2758 313d 58e2 7abe a5f7 80bc
00000120: 595d 41be 84f9 10bd 233a 04be fbb6 e93d
00000130: 131a 4e3e 002d 123e bd23 0dbd e8f3 953d
00000140: 2e67 37be f048 09be 4e6d 053d 5072 f23c
00000150: 2f3d 043e de9a 783e d2c9 9a3e f2ef 953d
00000160: 180f 06be 8183 75be 4e79 2fbe 2a5e 293e
00000170: 6000 873c 33c1 933d 1dbc 21be ed0a 61be
00000180: bd7e 943e ff0c 073e 1afc 843e 7a0f c4bd
00000190: cef6 16be 3ad7 1a3d 997a 9f3d 6ab7 e1bc
000001a0: e7b7 7a3e 0d97 e0bd 34ac cf3d ef2f 333e
000001b0: 9f11 c5bb 31a6 243e 04c0 b8bc 7501 2bbd
000001c0: 1385 05be 92b5 7d3e de8d 25be 23ad 17bd
000001d0: de81 8a3d b75c b3bd f802 7e3e 4d13 793d
000001e0: 4af8 08bc fa85 44be df48 0c3e 2b57 4bbe
000001f0: 7566 a73e 989b 9a3c 923e a13d fcaf 473e
00000200: 566e 41be 02f0 83be 90de 4abe 0d23 66be
00000210: edf8 6bbc 2430 a3bd f7fe a1bc b380 623e
00000220: adb0 0abd 0e27 b7bd 6e82 f53d 117b e8ba
00000230: 9449 553d 456f 513e 7356 c43d a101 29be
00000240: 3add f83b d04f 983e 6420 4bbe 9c8d 173e
00000250: 66d6 5dbe 0c40 8dbe 72ac 453d 5a90 a43d
00000260: 6e71 b3be 4c13 79be ef8f b9ba a16e ef3d
00000270: c103 a4be 3203 203d eafa f9bd 74fc 813e
00000280: e5ee 19be b5d8 973d 1e42 42be 58a5 e43d
00000290: 04ab 4ebd 4fae 503d 7370 0bb9 1cd1 913e
000002a0: 853d d03d ee04 113e 08e5 10be f54d eebb
000002b0: 53f7 50be de4a 1b3d a60d ab3d 766f 8a3e
000002c0: eb86 6a3e 37ca f33d 0236 203e 6bdd 16be
000002d0: 08c8 82be 3950 5d3e 1f21 983e 849c 423d
000002e0: 4e26 bdbd 653f 663e d860 183d 2fd2 7d3c
000002f0: 4edf 6dbc e55d 3d3c 7945 6d3d 6764 df3d
00000300: 1613 9d3d de4b b3bd ac3e 93bd e811 553e
00000310: c234 f93d a030 893e 91c6 a53c 5496 5dbe
00000320: ba76 433e 852e f73d 5611 053e c029 a3bd
00000330: a8b8 c1bd b1d5 27be 79da 6a3e 501a 863e
00000340: 28af 4c3c 0b2a b13c ab74 61be 282b b0be
00000350: 9928 1bbe 46bf c83d 8005 293e e47d 193e
00000360: 0af1 223e 1e04 22be 11e2 863e fe4b 8fbd
00000370: b932 30be 74d2 9b3d 7773 96bb de6d c6be
00000380: 80c6 85bd 0db1 413d 5a90 e6bd e60a 4bbe
00000390: 118c ae3c b602 19be 421f 0abe b549 b83d
000003a0: 080f 0abd b76f 293d a26b 65be e56c 663e
000003b0: c2e8 ff3d 9eb5 1abe 7867 0abe 6e41 64be
000003c0: c237 a13c 3e01 2c3e 758d 873d 235b 5a3e
000003d0: 032b 90bd 8828 0d3e 4e55 093e cdbc c13e
000003e0: 4814 8dbe 60ae aa3c c1ee 393e e94a 173d
000003f0: 3fd0 9f3d de08 0dbc 77d1 7e3e e823 613e
-0.20606059 0.02615043 0.11113624 -0.17716548 0.17339155 -0.06343844 -0.040067155 0.013913447
-0.042939916 -0.062794834 -0.027769357 0.04720224 0.018333059 -0.13786376 -0.14131325 -0.08027846
-0.054642465 -0.102367826 0.1065184 0.15405345 -0.19548884 0.07195176 -0.25319356 0.05985164
-0.06631577 -0.13628066 0.069306396 0.03874452 -0.16227765 -0.10371248 -0.11244435 0.03600779
0.1993236 -0.048916966 0.0771737 -0.2657408 0.18120317 -0.10964703 0.034078017 -0.0050608665
-0.14148618 -0.072095364 0.29453802 0.08329275 0.0011781391 0.18616849 0.24645938 -0.18153366
-0.17187813 -0.076687455 0.09951463 0.19811375 -0.23435402 0.20719826 0.19179048 -0.06194578
0.17871693 -0.14942588 -0.21880303 -0.460164 0.059381504 -0.15260167 -0.043411825 -0.06284305
-0.015590049 -0.14189512 -0.13488339 0.07685023 0.10844619 0.04329696 -0.24500406 -0.015743086
-0.18883266 -0.035394207 -0.12912802 0.11411854 0.20127134 0.14274979 -0.03445791 0.07321912
-0.17910454 -0.1340673 0.032574944 0.029595524 0.12913965 0.24277827 0.30232102 0.073211566
-0.13091695 -0.23975946 -0.17136118 0.16539827 0.016479671 0.07214584 -0.15794416 -0.21976824
0.29002944 0.13188551 0.25973588 -0.095732644 -0.14742586 0.037802912 0.077870555 -0.027553279
0.24484216 -0.10966311 0.10140267 0.17498754 -0.0060140635 0.16079022 -0.022552498 -0.041749436
-0.13039045 0.24776295 -0.161674 -0.03703035 0.067630515 -0.08757918 0.2480582 0.060809422
-0.008359978 -0.19191733 0.13699673 -0.1985747 0.32695356 0.018873021 0.078732625 0.19500726
-0.18889746 -0.2576905 -0.19811463 -0.22474308 -0.01440261 -0.079681665 -0.019774897 0.22119407
-0.033859897 -0.08942996 0.11987768 -0.0017736872 0.052072123 0.20452602 0.095868014 -0.16504528
0.0075947316 0.29748392 -0.19836575 0.14800113 -0.21663818 -0.27587926 0.04826016 0.080353454
-0.35047477 -0.24323767 -0.0014157275 0.11691023 -0.32034114 0.039065547 -0.12206061 0.2538792
-0.15032537 0.074143805 -0.18970534 0.11164349 -0.050456062 0.050947484 -0.00013297964 0.2847985
0.10167984 0.14162037 -0.14149868 -0.007272477 -0.20406847 0.037913196 0.083522126 0.27038163
0.2290303 0.11903804 0.15645602 -0.14732902 -0.25543237 0.21612634 0.2971277 0.047512546
-0.09235822 0.2248512 0.037201732 0.015492006 -0.014518572 0.011558031 0.057927582 0.10907822
0.07669656 -0.08754705 -0.07189688 0.20807612 0.12168266 0.2679491 0.020236285 -0.21639377
0.1908826 0.1206942 0.12994894 -0.079669476 -0.094590485 -0.1639011 0.22934903 0.2619195
0.012492932 0.021626493 -0.22017162 -0.34407926 -0.15152206 0.098021075 0.16506004 0.1498943
0.15912262 -0.15821883 0.2634435 -0.06996916 -0.17206849 0.076085 -0.004591401 -0.38755697
-0.065320015 0.04728799 -0.112580016 -0.19828376 0.021307023 -0.1494244 -0.13488486 0.089984335
-0.03370574 0.041366305 -0.2240434 0.22502477 0.12495567 -0.15108344 -0.13516033 -0.22290584
0.019679908 0.16797349 0.06618778 0.21323828 -0.07039454 0.13784993 0.13411447 0.37839356
-0.27554536 0.020835102 0.18157484 0.036936674 0.07803392 -0.008608071 0.24884592 0.21986353

hiden_layers.4.bias f4 [64]
00000000: 6329 8dbd a741 84bd 4ae5 283d 4549 91bc
00000010: dfc5 2d3d 663f d23c dd28 063d d445 83bc
00000020: 4611 283b 4c3f 80bc b928 36bc 34e2 a13d
00000030: 113d 39bd 09aa bfbc dd6c 8f3b 357a 943c
00000040: 5b1f 6b3d 2c1f 433b d2be 7dbd e0fb 263c
00000050: ba90 dabd be25 42bd f1cd cd3d 2e5a 20bd
00000060: 3173 463b 8308 c3bb 0d94 85bd 2957 2ebc
00000070: bec4 71bd 6158 423c d768 e3bd fe3b 9fbc
00000080: d5af efbc b350 b0bc 5cd7 173d 9685 a8bb
00000090: a444 f03c b51e d2bc b905 9fbc 888e b13d
000000a0: 654a 0b3d 6512 243d 79ec 9dbc 43a2 93bc
000000b0: e9af 14bc 1a2c 87bb e312 e43b 8a43 7f3b
000000c0: a0e5 b83d 4f52 f63c 96bb 313d 1111 7abd
000000d0: 4ee7 11bd ba26 1d3c 5d0e 83bb 2239 903d
000000e0: 7bfb 08bc e8bc ad3c 9f9e c7bb edbf 4ebd
000000f0: f428 9a3b f477 32bc f6dc 4ebd 8d57 363b
-0.068926595 -0.06457835 0.041234292 -0.017735133 0.042425033 0.025664996 0.032753814 -0.016024508
0.0025645061 -0.015655182 -0.0111181075 0.07904473 -0.045224253 -0.023396509 0.004376991 0.01812468
0.05740295 0.0029773219 -0.06194956 0.010191888 -0.10672136 -0.047399275 0.10049046 -0.039148502
0.0030281062 -0.0059519424 -0.06522379 -0.010640898 -0.05902552 0.0118618915 -0.11103981 -0.019437786
-0.029258648 -0.021522855 0.037070617 -0.005142878 0.029329605 -0.025649408 -0.019411908 0.08669764
0.034006495 0.040056605 -0.019277798 -0.018021708 -0.009075143 -0.0041251304 0.0069602593 0.0038950169
0.090281725 0.030068545 0.043391787 -0.061051432 -0.03562098 0.009591753 -0.003999515 0.07042147
-0.008360739 0.021208242 -0.006091907 -0.050476003 0.004704589 -0.010892857 -0.050503694 0.002782318
