results/1_first_try/epoch350/model_weights.pth (torch, 484214 bytes, 88 tensors)

init_layer.0.weight f4 [64, 3]
00000000: 90b9 45be eab2 91bd 3ac1 f73d 547a 823e
00000010: 2a85 e23c 611c 4ebc cc43 d9bd 7e09 83be
00000020: 47e8 57bd 932c 943e 5334 853d aca4 c43c
00000030: 9db2 33bc ddef ab3e 28af 683d fdef 11be
00000040: 234b bcbe 5bf1 8e3d 59d0 393e 304d b63d
00000050: dd54 513e 1c61 9a3e b9a2 683e 55fb 1a3e
00000060: 86f0 883e 7318 bdbe 47fa 0d3d 980d 3dbe
00000070: 79d6 4fbe ef9d 293e 7db7 8bbe 95a9 9e3b
00000080: 63c1 0f3d db34 e93d a11f 8b3e 7244 a6bd
00000090: 4914 57bd 340c 3fbe ef90 12ba e29a bcbd
000000a0: 76c8 953b f703 f53d 4952 1d3e bb22 a7be
000000b0: fb93 46bc 1ce7 723e 96ac 77be 0123 ddbd
000000c0: 3218 993d 3b8f 18be 7952 893d 27d7 953e
000000d0: f0fe 813e 504d dcbd d6f6 263e 4cf0 003c
000000e0: d5ed 31be 3b44 80be 4aa3 1b3e e262 0ebe
000000f0: 035d 453e 640c 09be c9cd 1dbd b18f a23e
00000100: d6ef d5bb 427a 4cbd 9f1a 50bc 1a58 abbe
00000110: 9bef 26bd 1ee3 d2bd e230 5b3e 6cc5 62bc
00000120: f325 28bd 1b8a 15be 84cf f23d 7f9d d7bd
00000130: e3fa 843e 64bc 49bd 31b9 aa3d c14f 9e3e
00000140: df5f 343e aef2 37be 75b6 89be 94fb 1a3d
00000150: e346 3c3c d12e 7a3d 881b dfbd c8c0 d03d
00000160: 0a02 adbe 965f 3c3d 0998 b1be 2d3c 19be
00000170: 42ca 44bd 7b7e 18be 9c0d e83d 957a d73d
00000180: 2da3 d6bd 16bd 883e a9fd 123e e102 a5be
00000190: 9b7d a13e fd07 4bbd 9741 853d 933e 13be
000001a0: 2a9a 2fbd e5b3 f5bd b24e 80be b93a 00be
000001b0: 41c1 8ebd d230 e1bb 0052 bf3c 1ff5 3abe
000001c0: a6c5 a1bd c53a e4ba 09fb 313e 4543 5ebe
000001d0: 97c6 b73c cf56 9bbe 4573 2e3e 6b87 e13d
000001e0: 6543 c03d 646e 1a3d 5aea 3fbe 06db eabd
000001f0: e4ed 08bd 5516 17be eac6 793d a0c0 19be
00000200: 085b 113e 250f 653d 4bc8 54bd d867 a43d
00000210: ca54 293e a789 88be e54b d1bd daf2 b8be
00000220: 315b 79be f56a b73d ef2f 16bd 4b46 72be
00000230: 8c15 2c3d ac35 883d 4b48 8b3e 96e5 0d3d
00000240: 6307 483e 3358 9f3e dcc7 d13c 2b91 203e
00000250: a70b a1be d706 1f3e 5ea1 e8bd e7e5 93be
00000260: 4f71 3abd 6663 c4be 9ae8 09be 985f 8dbd
00000270: 2719 a33e ba48 9abe 8c6f 803d 1540 03be
00000280: f1a5 51be 7cd8 c23b 3d85 4e3e 33b1 7fbe
00000290: 966c 0cbe c009 623e 371e 99bc 54a0 613d
000002a0: 59a4 573e 4d56 b43d 2b41 053e 4987 b9bb
000002b0: 7f93 82bb bdcc 2239 a68e 283e 7f54 ad3e
000002c0: 8455 ae3c e1e4 923d 3bd6 723e 3e98 1fbd
000002d0: eb71 42be 7047 81be c125 07bd ea2c 30be
000002e0: 80b5 713d 4451 edbb 047b ad3e 1380 82bd
000002f0: f0e2 d03c ac8a 9f3e 864e 4d3d f807 f33d
-0.19309068 -0.07114203 0.12097402 0.25483954 0.027651388 -0.012580008 -0.10608634 -0.2559318
-0.05271175 0.28940257 0.06504121 0.024004303 -0.010967878 0.3358144 0.056807667 -0.14251705
-0.36776075 0.06979629 0.18145885 0.08901441 0.20442529 0.30152214 0.22718324 0.15134938
0.26746005 -0.36932716 0.03466251 -0.18462217 -0.20296659 0.16564153 -0.27288428 0.004841993
0.035096537 0.113870345 0.27172568 -0.08118524 -0.05250958 -0.18656999 -0.0005591055 -0.09209229
0.004571016 0.11963647 0.1536342 -0.32643685 -0.012120242 0.23720974 -0.2418693 -0.10797692
0.07475318 -0.14898388 0.067051835 0.2926571 0.25389814 -0.10756934 0.16305098 0.007869791
-0.17375882 -0.25052056 0.15199009 -0.13904908 0.19273762 -0.13383633 -0.03852633 0.31750253
-0.006528835 -0.04992128 -0.012701659 -0.33465654 -0.04075585 -0.102972254 0.21405366 -0.013841014
-0.041051816 -0.14603464 0.11855987 -0.10528087 0.2597266 -0.04925193 0.08336104 0.30920222
0.17614697 -0.17963669 -0.26897016 0.03783758 0.01149151 0.061079804 -0.10893923 0.1019302
-0.33790618 0.045989595 -0.34686306 -0.14964361 -0.04804445 -0.14891998 0.11330721 0.105214275
-0.10480342 0.2670676 0.14354576 -0.3222876 0.31541142 -0.049568165 0.06506651 -0.14379339
-0.04287163 -0.11997203 -0.2506004 -0.12522401 -0.06970454 -0.006872275 0.02335453 -0.18257569
-0.078990266 -0.0017412534 0.17380919 -0.21705349 0.022433562 -0.30339667 0.1703616 0.11012157
0.093878545 0.037702933 -0.18741742 -0.11467557 -0.033429995 -0.14754613 0.060980715 -0.15014887
0.14194882 0.055922646 -0.051948827 0.08027619 0.1653625 -0.2666752 -0.10219554 -0.3612278
-0.24351193 0.08955947 -0.036666807 -0.23659627 0.042012736 0.06650862 0.27203593 0.03464278
0.19534068 0.31121978 0.025607996 0.15680377 -0.31454203 0.15529953 -0.11358903 -0.2888634
-0.045518216 -0.38357085 -0.13467637 -0.06902999 0.31855127 -0.3013361 0.06271276 -0.12817414
-0.20473458 0.005946217 0.20168014 -0.2496994 -0.13713297 0.22074032 -0.018691165 0.05508454
0.21058787 0.08805523 0.13013141 -0.005661879 -0.003984868 0.00015525795 0.16460666 0.33853528
0.021281011 0.071725614 0.23714535 -0.03896355 -0.18988769 -0.25249815 -0.03299499 -0.17204633
0.059010983 -0.0072423536 0.33882916 -0.063720845 0.025498837 0.31160486 0.050123714 0.11866754

init_layer.0.bias f4 [64]
00000000: 136a 633d 303f b43d 98a9 a9bd 812a d73d
00000010: 65a9 4e3c 0b9c 62bd db1e c6bd 6455 163e
00000020: 7d4f 783d 9524 10be a0cd aebd 376a 823d
00000030: 0cd1 01bd 3272 b0bd 6479 373d f55b cf3d
00000040: 9dbe 3ebd 258e 133e e82c 063e 3f0d eebd
00000050: 5319 cd3d b147 ed3d 7d7d c1bc b7ef d9bd
00000060: bedf b93d 1ea8 96bd 3153 ed3d e231 75bd
00000070: 9384 9fbd 22bf 9e3d ecb5 05be 6a4d d1bd
00000080: 1197 ccbd e615 dabd f1c3 863d 2e43 f2bd
00000090: 9051 47bd f926 b0bd c9dd 273d 425d f2bd
000000a0: aeef 4fbd 8227 e5bd e500 a5bd 1538 9c3d
000000b0: a8d0 df3d b126 f1bd 10e1 9abd 6fa8 e5bc
000000c0: b06a a9bc 1378 db3d 1824 f5bd 989a 06be
000000d0: b563 e93d 6e44 28bd b5d6 e83d 6df6 be3d
000000e0: a046 d43d 6452 ddbc 17f4 873c b91b 223d
000000f0: 8318 f0bd be44 c0bd ffee 013e 1776 e53d
0.055521082 0.088011146 -0.082843006 0.10506154 0.012613629 -0.055324595 -0.09673854 0.14681011
0.06062268 -0.14076455 -0.085353136 0.06367915 -0.031693503 -0.08615531 0.0447935 0.10124961
-0.0465685 0.14409693 0.13103068 -0.1162362 0.10014596 0.1158594 -0.023619408 -0.10641425
0.090758786 -0.073562846 0.11588133 -0.059862025 -0.077889584 0.077512994 -0.13057679 -0.10219844
-0.09989751 -0.10648708 0.065803416 -0.1182922 -0.04866177 -0.086011834 0.040982995 -0.11834194
-0.050765686 -0.11189176 -0.08056811 0.07627884 0.1092847 -0.11774958 -0.075624585 -0.028034417
-0.020680755 0.10716262 -0.11969775 -0.1314491 0.11395971 -0.041080885 0.11369077 0.09324346
0.10365033 -0.027016826 0.016595883 0.03957722 -0.11723425 -0.093881115 0.12688826 0.112041645

hiden_layers.0.weight f4 [64, 64]
00000000: ffa4 3ebe 9cd1 983d fa84 053e 6b49 263e
00000010: 7d6d 46be 9390 e7ba 7933 d53d 3e7e d9bd
00000020: d8d1 843c 2b6c b0bd 1239 33bd 50cb 373e
00000030: 10ba c23c cb5d 373e 777e 3c3e 3431 10be
00000040: 6e95 cebb 5715 5abd dd10 1d3c 5a77 4fbe
00000050: 54c3 eb3c 5bd0 473e adc1 1f3c e9f1 9bbe
00000060: 6261 333e 0dc3 05bd f85b a2bd 9fe0 32be
00000070: 92dc e2bd b4c2 293c bc75 9bbe 359a 9cbd
00000080: b320 b6bd cb88 c8bd 4018 293e 3ca3 a2bc
00000090: 92cc fabc 84e3 1ebd 591d 763e 4274 1e3d
000000a0: 438b b43d cc1b fbbd 8aac ef3d e738 82bd
000000b0: a5cd 03bc c767 b6bd d7a0 813c 19c2 44be
000000c0: 73d3 763e f97f c4bd 1878 21be 2f17 6dbd
000000d0: 4cc1 c43d c03c 1fbd 2565 5a3e 5c59 7c3e
000000e0: f168 febd 821d e8bd 507a c0bd 0136 933d
000000f0: 8e57 033d 5235 8abe 23e4 103e cc05 8dbd
00000100: 3e91 ecbc bcac 1abe 64b3 61be 5ee3 693e
00000110: 2edc 1bbe 8a53 63bd a683 3a3e 6a9a adbd
00000120: c6f1 ac3d 28d2 44be c00e 3e3e 3f43 22be
00000130: 5431 78bb d5a2 fb3c ea87 bf3d d11f 383e
00000140: f077 1d3d ce29 5b3e 5b34 c73c 1c74 e1bd
00000150: 2001 1e3d f860 00be 7ee3 ee3d 1701 84bd
00000160: 0a25 46bc 5476 1bbe eb4f 903e 099f 353e
00000170: e0e0 723d ae0d 603e abc7 81be fa21 1cbe
00000180: ab35 52bc fd0c 80bd 8893 223e c6f9 a33d
00000190: d7d6 323e 8bce 40bd 3dee d9bc 9ff5 003e
000001a0: 1273 b5bd 81eb d9bd bb4c 2fbe 7847 8e3d
000001b0: 700f 0d3e 6d87 60be fc66 453e 4106 51be
000001c0: d80e 98bd 6039 b1bc 6d4d eabd 2553 52be
000001d0: ef95 523e 987e 0bbe 05e4 303e 60c6 373e
000001e0: 4a4f d6bd eed5 b4bd de37 39be 97ed 53be
000001f0: b560 433e c1d7 793c e19b 8e3e 79db 973b
00000200: 47e1 c03d 2bfd a6bd a104 803e 5bb0 12bd
00000210: c655 86be cbe0 883c 4656 b7bb 4a2d 75be
00000220: fe55 053e bbc9 513b 8c74 87bc e7d7 c93d
00000230: 8b9c 3d3e 24e6 47be d497 8e3e 1369 dbbd
00000240: 2865 9abd 6847 84be bc3c 2d3d dbba a2bd
00000250: decf 353c 4ac0 49be 6f1e e2bd da99 11bc
00000260: eeb9 8dbc 1050 2ebe badc b9bd 9799 723e
00000270: 0ccf 99bc ea93 ffbd c3c6 983e 7c12 5e3e
00000280: f892 4ebe ae9a 29be 852a 433e d15f 963e
00000290: 18cd cabd 5dad ccbd c98f a03c fe6d b73c
000002a0: 9b8b 33be 21cd 14bc c3c4 5c3e 3e6c 483e
000002b0: ae52 4e3e 5881 a43d 5960 cc3d 765d 90bb
000002c0: 1b06 63bc 98aa c13d db1f 733d b110 f43c
000002d0: 6759 f13d 624d c5bc a229 dabd 1226 e73c
000002e0: b5d9 80be a227 2c3e c237 44be b563 36be
000002f0: 65b4 a33e ad01 1dbe 9886 34be 26c3 053e
00000300: a6b9 203e 21d3 38be 8c17 30bc 1656 aabd
00000310: 78e3 383e 281b df3d a5e9 5dbc ccb6 03be
00000320: 8ac5 8cbe 6f1b fbbd b7df e23d 409c 1f3d
00000330: 8419 e0bd 50f1 2dbd 1839 9abd 8a51 4dbe
00000340: c072 76bd a6bb ee3d 066e b73d eae6 8bbd
00000350: d363 8d3d 4c27 48be 98d2 6dbe 1c01 09bd
00000360: 8ec6 563e 8575 cb3d caeb 8dbc 1deb 68bd
00000370: 670c eebd 5943 7fbe 6977 0bbe 732e b13d
00000380: 4fee 85bd 4d77 203e 7b64 58be 89e2 5bbc
00000390: ee75 7dbc a651 22be 5f22 103c fe70 a13c
000003a0: 83f0 51be 0636 e7bc f02c 7d3d 8dae 4f3e
000003b0: 6261 69bd c9c2 963d 0e6a 743d b9a5 bc3d
000003c0: 63aa dc3d 0f41 21be b44f 153e 583c 83bd
000003d0: 9fc5 8cbe f1cd 053e 632a e63d e027 b23d
000003e0: 6e4e 2ebe 2272 cebd 1fbb 9fbd 235d fc3d
000003f0: a2b8 0dbe 06c3 473d 7e0d 07be 84c6 b0bd
-0.18617629 0.07461855 0.13039008 0.16238944 -0.19377704 -0.0017666988 0.10410208 -0.10619782
0.016213343 -0.086143814 -0.0437556 0.17948651 0.023770362 0.17906873 0.18407618 -0.1408127
-0.0063044345 -0.053243008 0.00958654 -0.20260373 0.028779663 0.19513075 0.009750766 -0.30458
0.17517617 -0.032656718 -0.07927698 -0.17468499 -0.11077227 0.010361362 -0.30363262 -0.076466
-0.08892956 -0.09791716 0.16513157 -0.019853227 -0.030615125 -0.038791195 0.24034633 0.03868509
0.088156246 -0.12261161 0.11702831 -0.063585095 -0.008044635 -0.08906513 0.015823765 -0.19214667
0.24104099 -0.09594721 -0.15768468 -0.057883438 0.09607181 -0.038876295 0.21327646 0.24643463
-0.1242236 -0.11333753 -0.09398329 0.07188035 0.03206592 -0.26993805 0.14149527 -0.06885871
-0.02887785 -0.15104955 -0.22041088 0.2284064 -0.1522071 -0.05549959 0.18214282 -0.08476718
0.08444552 -0.19220793 0.18560314 -0.15845965 -0.0037871199 0.030717293 0.093520954 0.17980887
0.03844446 0.21402666 0.024316957 -0.11008474 0.03857529 -0.1253699 0.116644844 -0.0644552
-0.012093792 -0.15181857 0.28185973 0.17736448 0.05929649 0.21880218 -0.25347647 -0.15247336
-0.012830178 -0.06252477 0.15876591 0.08006625 0.17464767 -0.047071975 -0.026602859 0.12593697
-0.088598385 -0.10640622 -0.17119114 0.06947225 0.1377542 -0.21926661 0.19277567 -0.20412542
-0.07424706 -0.021633804 -0.11440549 -0.2053953 0.20565008 -0.1362251 0.17274483 0.17946768
-0.10464342 -0.08829866 -0.18087718 -0.20696102 0.1907986 0.015249194 0.278533 0.0046343175
0.09417968 -0.08153757 0.25003532 -0.035812717 -0.26237315 0.016708752 -0.0055950014 -0.23943058
0.13021085 0.003201111 -0.016535066 0.09855633 0.18516748 -0.19521385 0.2785021 -0.10713401
-0.07538825 -0.2583573 0.04229425 -0.07945796 0.011096923 -0.19702259 -0.11040961 -0.008886779
-0.017300572 -0.17022729 -0.090753034 0.23691402 -0.018775485 -0.12479384 0.29839143 0.21686739
-0.20173252 -0.16562912 0.19059189 0.29369977 -0.099024 -0.09994004 0.019599812 0.022391316
-0.17533724 -0.00908211 0.21559434 0.19572541 0.20148727 0.08032483 0.09979314 -0.0044056727
-0.013856436 0.09456366 0.05935655 0.029793115 0.1178463 -0.02408475 -0.10652472 0.028216396
-0.25166097 0.16811994 -0.19161895 -0.17811473 0.31973568 -0.1533267 -0.17629468 0.13062724
0.1569582 -0.1804929 -0.0107478015 -0.08317201 0.18055522 0.108938515 -0.013544475 -0.128627
-0.2749446 -0.12261092 0.110778265 0.03896737 -0.10942367 -0.04246646 -0.07530421 -0.20050636
-0.060168028 0.11656885 0.08956532 -0.06831153 0.069038056 -0.1954624 -0.23224866 -0.033448324
0.2097418 0.099345244 -0.017324347 -0.056864846 -0.11623459 -0.24928035 -0.1361977 0.086514376
-0.065395944 0.1567051 -0.2113208 -0.013420709 -0.015470011 -0.15851459 0.008797257 0.0197072
-0.20501904 -0.028224003 0.061810434 0.2028143 -0.056977637 0.07361371 0.059671454 0.092112966
0.10774686 -0.15747474 0.14581186 -0.06407994 -0.27494523 0.13066842 0.112385534 0.08699012
-0.17022106 -0.10080363 -0.077993624 0.12322452 -0.13839963 0.048769973 -0.1318874 -0.08631614

hiden_layers.0.bias f4 [64]
00000000: bc51 733d 91b3 9a3d 5200 efbd 1aa5 0abd
00000010: 7e8d cd3d 1b92 af3d e238 db3d d48b cfbd
00000020: dac8 67bd 1c1e 98bd b1dc febd 1df0 9e3d
00000030: 593e 193d cf53 94bd 903a a23d 2780 aabd
00000040: df84 eebd 386e f73b 1d51 9d3d 6491 313d
00000050: 8ff0 013d fae2 5d3d 2e7c 41bc 12d1 a0bd
00000060: ebab c2bc b847 0f3d ae27 5e3d 68e6 a4bd
00000070: d4a8 c83d 3d47 dd3d b10e c33d e037 43bd
00000080: 2a71 533d 5a53 c3bd 7727 3cbd 0e0f 52bc
00000090: 0d80 edbc 7a38 bf3d 4d2d 363d 5e65 bcbb
000000a0: f8cd e0bd a1de 7e3d b028 35bd b64a 213c
000000b0: ab86 afbd d2ba b2ba 1ae0 b6bd 0ce9 d3bb
000000c0: 4982 4d3d b338 5b3c fba6 e73d 5bcd a5bd
000000d0: ea3a 8d3d 1bcb 85bd 812a 4c3d 0f47 433d
000000e0: 4a8a 68bd 4e78 063e 63eb 893c 3ed9 473d
000000f0: 0dcb d23d 25b3 0fbb e163 f0bc 389f c1bd
0.05940412 0.07553781 -0.11669983 -0.03384886 0.10036753 0.08572789 0.10704209 -0.10134092
-0.05658803 -0.07427618 -0.12444437 0.07760642 0.037412975 -0.07242548 0.07921326 -0.08325224
-0.11646437 0.007550981 0.07681487 0.043351546 0.031723555 0.05417154 -0.011809392 -0.07852377
-0.023763618 0.034980506 0.05423706 -0.08051759 0.097978264 0.10804603 0.095242865 -0.04766071
0.051621594 -0.095373824 -0.045936074 -0.012820972 -0.028991723 0.09336944 0.044476796 -0.0057493886
-0.109767854 0.062224034 -0.044228256 0.009844473 -0.08570608 -0.0013635999 -0.08929463 -0.0064669903
0.050173078 0.013380217 0.11311146 -0.08095809 0.068960026 -0.0653288 0.049845222 0.04767519
-0.056772508 0.1313183 0.016835874 0.048791163 0.10292635 -0.0021926847 -0.029344501 -0.09454197

hiden_layers.1.weight f4 [64, 64]
00000000: f1d1 2abd d280 f3bc 9640 87be 24cc 963d
00000010: 3769 fcbe c28f 453e 4aa8 64bd d653 23be
00000020: 152a cbba 991d 673d 2bbb 00bb 6d9b 47be
00000030: a574 ce3d 1cbb ae3b 9c04 4cbe 32b5 2abe
00000040: 5061 f4bb 3218 573e 0c3b 393d a04f 393e
00000050: 7807 803e 739f 95bd 4d0c 303e e1d0 e9bd
00000060: 7e45 96bd 5812 c0be 3049 b3bc ae22 873e
00000070: d8a6 13be 2986 90be 4967 65be ef93 a93d
00000080: 526e a7be 0775 883e 43b1 73be 3e77 67be
00000090: c168 20be 0539 81bd ad01 7e3c a923 2d3e
000000a0: 6499 343e c042 643e 81a7 25be 4cde 5e3e
000000b0: 228e e33e 2036 81bd 583a af3e ff13 1abe
000000c0: f61c 993d bc67 8cbe fd5e 45bd dc55 a13e
000000d0: ac4a ffbd 1514 4d3e 58a5 19bd 5850 26be
000000e0: ee80 1d3e 9a88 49be b71d 95be 02d6 cf3d
000000f0: dff8 e53d bca0 d2bd 2fc6 86bd 856d 56be
00000100: d344 b83d a3f6 11bc 7346 42be 0d07 c03d
00000110: 5a8b a0bd aca5 fbbc c402 65be a105 48bd
00000120: ff01 8a3d 1e8d 0fbe 43d8 553e 90e6 b83d
00000130: 1fda ee3d bc1d 82bd df5e 053e afdd 363d
00000140: c53e 043e 8098 c0bd 54be 143e 881e d13d
00000150: a31c 303d 4db5 563e 971a 42be 4dc8 163d
00000160: d42a e33d 6ccc 563e adb5 993d 8ae9 c9bd
00000170: d980 7ebc ccec 863d 9eb7 76bd 8dc7 1a3e
00000180: ec69 313e 2da6 063e d139 51be fd82 c2bd
00000190: a220 83be 82d2 4cbc 7eb5 f6bd cc77 44be
000001a0: 3c96 0abe 6aa5 76be fef9 073d f3ba 1bbe
000001b0: 756d 733d 768d 87bc 02fb 52bd e4b5 9fbe
000001c0: 8b66 553e 3b41 ff3c d0a5 16be fc40 93b9
000001d0: 84df 5c3d 4a10 f4bc 3e0c d73c c1a5 d9bc
000001e0: 9ae2 0ebd 2d21 0c3e 139d 14be 839d c83d
000001f0: cbc3 033d 8770 3dbd d490 4abd 6cb1 413e
00000200: 76e8 963d 6745 783e 1a72 bf3b c46a 9a3d
00000210: ec5e dc3e 38ce 613e f2a9 04be 861a 0f3e
00000220: c36d 013e de62 c2bd fc09 6dbe 89e0 bf3d
00000230: d02d ba3d 621e bb3c fb9c d03e ab66 a33d
00000240: ca74 0ebe b18f f2bd bdd1 da3d 2bbd 9dbd
00000250: 9e37 123d 8003 80be 3e49 a2be e8b8 4ebe
00000260: 97cb 48bd 86d7 813e af67 0bbe 5706 15be
00000270: 03ac a53e 22c5 bc3e d024 be3e 6760 873e
00000280: 1883 7c3e 4764 52be 049d 73bd 1556 03be
00000290: e544 e03d 5147 9bbb 2c87 c8bc 0c29 12be
000002a0: 6ab7 81be ce58 0fbe a5e6 31be f9bf e9bd
000002b0: 1f44 51be 6f21 073e 6c13 a8be 7ef3 a63d
000002c0: 06d8 8cbd 36cf 0f3e 41d0 0f3e 24f7 c0be
000002d0: fc5a 253d 7583 d4be 53b9 0f3e 1896 19bd
000002e0: 1e9e 11be d4e4 963e 2657 01bd 9423 a53c
000002f0: 67f4 873c c51c 683e 1db3 553d fe7a 623c
00000300: ecaa 2e3e 5352 113d c010 41be fe12 043e
00000310: beeb 013f 5c73 4bbe 0bc0 a7bd d2cf 33be
00000320: b0a6 463b f517 7c3b d6d1 04be 950a 8d3e
00000330: 2673 853e 0e0c f33d 7271 8a3b adf0 b03d
00000340: 03ee 3ebd 9c83 11be 1d77 643d 52ce dd3d
00000350: e438 abbc bc7e 5fbe 4c95 af3d 024b 063e
00000360: 0f3e 153e 3c69 e83d fee0 63bd 3899 4fbd
00000370: fe3a c63e 2b98 a83e 62af 393e 4106 2c3e
00000380: 9eef 493e 3622 87bd 296e 04be e505 ad3d
00000390: d50e 953d 54e9 1a3e 5a98 df3d 131f 1d3e
000003a0: 0017 873d 83d7 41bc aa5b 493e 0f55 8d3d
000003b0: 2da2 2fbe 268e 8ebd 3b54 82be 3f2e 0abe
000003c0: f818 88ba 4537 d73d 3f9e afbc 1adf 313d
000003d0: 289e 343e 66bb 9dbd 604f 71be 80c9 6abd
000003e0: 44ee 0ebe 3eec 6ebd aed2 343e 2bf1 16bd
000003f0: 124f 03be ffa0 5a3e 1794 9c3d c004 5fbe
-0.041704122 -0.029724512 -0.26416463 0.073631555 -0.49299023 0.1929312 -0.055824555 -0.1594995
-0.0015500212 0.05642471 -0.001964281 -0.19492884 0.10080842 0.005332364 -0.19923633 -0.16670683
-0.0074578896 0.21005324 0.045222327 0.18096781 0.25005698 -0.07305803 0.17192192 -0.114167936
-0.07337473 -0.37513995 -0.021885484 0.26393646 -0.14419115 -0.28227356 -0.22402681 0.08280169
-0.32701355 0.26651785 -0.23798089 -0.22604081 -0.1566496 -0.06309704 0.015503329 0.16908135
0.17636639 0.22291088 -0.16177179 0.21764487 0.44444376 -0.06309152 0.342242 -0.1504669
0.07476227 -0.27422893 -0.04818629 0.31510818 -0.124654144 0.20027192 -0.0375112 -0.16241586
0.15381214 -0.19681016 -0.29124233 0.101482406 0.11229109 -0.10284564 -0.06580769 -0.20940216
0.08997502 -0.0089089 -0.18972187 0.09376345 -0.07839079 -0.030718647 -0.22364336 -0.048833493
0.06738662 -0.14018676 0.20883279 0.09028351 0.11662697 -0.06353328 0.13024472 0.044645008
0.1291457 -0.09404087 0.1452573 0.102109015 0.04299606 0.20967598 -0.18955456 0.036812115
0.11092153 0.20976418 0.07505355 -0.09858997 -0.015533649 0.06588134 -0.060233705 0.15115185
0.17325562 0.13149329 -0.20432211 -0.0949764 -0.25610834 -0.012501361 -0.12046336 -0.19186324
-0.13533872 -0.24086538 0.033197396 -0.15208034 0.05943056 -0.016546946 -0.05150891 -0.3119346
0.20839898 0.031159034 -0.1471169 -0.00028086442 0.0539241 -0.029792923 0.026250955 -0.026568295
-0.034884073 0.1368453 -0.14513044 0.09795668 0.032169145 -0.046249893 -0.049454525 0.18915337
0.07368557 0.24245225 0.0058424594 0.07539895 0.4304117 0.22051322 -0.12955454 0.13974962
0.12639527 -0.09491514 -0.2314834 0.093689986 0.09090769 0.022841636 0.40744767 0.07978567
-0.13911739 -0.11843813 0.10684536 -0.077020966 0.035697572 -0.2500267 -0.31696504 -0.20187724
-0.049022283 0.25359744 -0.13613771 -0.145532 0.32357797 0.3686915 0.3713746 0.26440737
0.24659383 -0.20546065 -0.059475914 -0.12825806 0.109506406 -0.004738726 -0.024478517 -0.1427347
-0.25335246 -0.1399872 -0.1737314 -0.11413569 -0.20436142 0.13196348 -0.32827318 0.08151911
-0.06877141 0.14043888 0.14044286 -0.37688553 0.040369973 -0.41506544 0.1403554 -0.037496656
-0.14220473 0.29471457 -0.03157725 0.020158567 0.016596032 0.22667225 0.05217277 0.013823269
0.17057389 0.0354789 -0.18854046 0.1289787 0.5075034 -0.19868225 -0.08190926 -0.17559746
0.0030311756 0.0038466428 -0.12970671 0.27547136 0.26064414 0.118675336 0.0042249495 0.08639655
-0.046613704 -0.14210361 0.055777658 0.10830368 -0.020901151 -0.21825689 0.08573398 0.1311455
0.14574455 0.11348197 -0.05563449 -0.05068323 0.38716882 0.32928595 0.1813331 0.1679926
0.19720313 -0.06598322 -0.12932648 0.0844839 0.072782196 0.1512807 0.10917731 0.15343885
0.06596184 -0.011831167 0.19663873 0.06900989 -0.17151709 -0.069607064 -0.25454888 -0.13494204
-0.0010383418 0.10508589 -0.021437762 0.043425657 0.17638457 -0.07701759 -0.23565435 -0.05732107
-0.13958079 -0.058330767 0.17658493 -0.03685109 -0.12823132 0.21350478 0.076454334 -0.21779156

hiden_layers.1.bias f4 [64]
00000000: dd47 a5bd 78e6 313b 5666 2b3e ab65 7f3d
00000010: 4560 5b3d 4b41 8e3d 8d54 68bd c081 e93d
00000020: c8e9 053e d4ac 813b 2ddb 34bd 6e76 9cbd
00000030: 1c8e 833d 05e0 ac3d 2a0b 013e e36a 8bbd
00000040: 31f2 1bbd a114 52bd d004 383d d106 90bb
00000050: 1710 6d3c 4f82 2dbd 957d 9dbd b16d 593d
00000060: 7f50 293d 161f 103d 32d2 bc3d 250c 003d
00000070: 86c2 8abd ac4b 5bbd 1cd6 ba3c 8958 c43c
00000080: 72a4 90bd 772b 993d a327 8dbd 0465 64bc
00000090: a5dd 69bd e474 0c3d ee8c 8bbd 8ad5 e53d
000000a0: d677 933d 1c13 8cbd 2c68 06bc 6604 973d
000000b0: 7edc d1bc a9a0 2e3d 02ae 8fbd 3dd6 943d
000000c0: 31b3 1ebe d7c8 b23c 7725 8c3d afd4 903d
000000d0: d6da 8fbd 8e23 65bb 7b81 8a3c 68db 26be
000000e0: 7ffc 713d 9915 dfbc d921 3abd c8cc 0bbd
000000f0: 14e7 b6bc ae89 2cbc d4d7 853d e562 3dbd
-0.080703475 0.0027145427 0.16738257 0.062352818 0.053558607 0.069460474 -0.05672126 0.11401701
0.13077462 0.0039573703 -0.044154335 -0.07639776 0.064235896 0.08441166 0.12601915 -0.068074964
-0.03807277 -0.051289205 0.044926465 -0.004395344 0.014469168 -0.0423606 -0.076899685 0.053083126
0.041336533 0.035185896 0.09219779 0.031261582 -0.06775384 -0.053538963 0.022807173 0.023967998
-0.070626155 0.074789934 -0.06892326 -0.0139401 -0.057096142 0.034291163 -0.068139896 0.1122237
0.07200591 -0.06839582 -0.008203547 0.07373886 -0.025617834 0.042633686 -0.07015611 0.07267425
-0.15498044 0.021824284 0.06843083 0.07071816 -0.070241615 -0.003496382 0.016907444 -0.16294634
0.05907869 -0.027231978 -0.045442436 -0.03413084 -0.022326984 -0.010530872 0.065353066 -0.04623689

hiden_layers.2.weight f4 [64, 64]
00000000: 391a 24be 6ec6 3b3e e889 0c3d e8cd c5bc
00000010: 2aef 73bd cb9f 00be ac7e 70be 43e6 82be
00000020: 6c5b c6be a2a9 8abd 3237 b43d 972f aebd
00000030: a81c 57bd 6307 c63d 8d4e cabd b3c5 423e
00000040: b15c 153e 90ac bbbc c686 bf3b ccfc 83be
00000050: d756 203e 02f3 313e 861f 4dbe c55b 903e
00000060: acaf 1d3c 7db0 51be 62c7 43be 5f1d 1c3d
00000070: 2db2 143d 7eb7 c9bd 78b8 2f3e ef80 6cbc
00000080: 0884 2ebe 6d6b 893d ab70 52be a364 53be
00000090: 8d9a 663e 6059 e53d ed58 0a3d 281a b23c
000000a0: fb96 adbd 1154 403e a85d f6bc f638 2d3e
000000b0: 8b58 de3d cdaa 3bbd 6b6e d23d 76df 113e
000000c0: 192d 093e 439b 40bb c164 0cbe 0002 4bbe
000000d0: 0ce2 07be 1720 d03d 0fb7 013e cf15 573e
000000e0: 1207 9bbd d602 ab3d 3236 463e 3cad 9e3c
000000f0: 0ddf 8fbd 8f51 0b3d 5360 cd3d 4bcf 1b3e
00000100: ec7a 183d 83b3 893d d5f6 5b3e 6a11 283e
00000110: 91b2 1b3e e947 7b3e f8c3 4a3e c380 833e
00000120: e7c6 ee3d ead9 003e 7a11 493e d68e f73d
00000130: 550e 9ebd 6735 73bd 8019 cebc bd6f 1c3e
00000140: 912a 813d fb8a d8bd e951 3cbe 0eb9 86be
00000150: 3b04 223d dae2 0ebe d20a 89bd fbd4 68bc
00000160: 6527 813c 8234 0f3e 157d 6e3e b5dc c53d
00000170: 48fe 48be ba3c 343e 23c0 babc 8e04 0ebe
00000180: c1c5 0e3c c54e 473e 9099 41bd 5a09 f43d
00000190: b6b4 2f3e 44aa 4a3e ba37 db3d 7303 03be
000001a0: 766f 613c fd05 99be 51f3 5cbd c62a 353c
000001b0: 9961 023e 3a02 a5bd ad7e 77be 9450 603e
000001c0: ae1c 72be 5802 003e 0168 8cbd 233a 34be
000001d0: 5157 62be fb9e bf3d 5c66 acbd df1f 07be
000001e0: 0a8e a23e ab33 42be 0a64 48be ff1c 9f3e
000001f0: efe7 b9bc 6816 513e 9f4e 333e e217 4abe
00000200: e3ea 743e a7a8 52be e888 4cbe 892b 01be
00000210: aaa8 c83d b851 903d 5865 1b3e b163 e0bc
00000220: f81c 31be 7feb a03e 3d25 f93c 5a60 5a3e
00000230: 06fd ea3d 7aaa 083e 18f0 3abe 6d6f 4c3e
00000240: cf8d 8a3c 8403 b4bd c929 ca3d bc5d 80be
00000250: e405 4cbe 27d7 683d 4eb3 503e 2aa8 d4bd
00000260: 08af e3bd 5a67 66be 8ffd a7bd 06eb 90bd
00000270: 2b22 493e 0e98 503d 04eb ac3d b79b 463e
00000280: c3a9 86bc c07b 3abe 941a 17bc e0ba b4bc
00000290: 7aed 8d3e 9826 b0bd cd84 42be 815d 9e3d
000002a0: 7cc7 1b3e c98b 233e 2fca 2abe ccbe 97bd
000002b0: ae38 373e 79b1 823b 375e 383d 6e7c b0bc
000002c0: f31b d63e 4b2d a83d 5bce 87be 8ced 653e
000002d0: d7bf 57be d434 5a3e a733 3d3e 3d04 a0bc
000002e0: edcc 5bbe 4d68 0b3e ceb8 38be d924 d3bd
000002f0: 8774 e0bb ba57 203e 52db 6f3d 454e 323e
00000300: 5671 de3d 2ca7 4ebe 431f 29be f868 453e
00000310: ee65 7dbe 9dd3 95bd d73a 9f3d b006 47be
00000320: f19c 3d3c ee43 6a3e 97e2 733e b8e0 50be
00000330: 3274 183e 8d2e ea3c fca7 f6bd 8eb4 353d
00000340: d39c ab3d e73a 54be 96f2 79be 938d 68bc
00000350: 73aa 7dbe fa0e 97bd 281f 1f3e 1aa3 d1bd
00000360: 516f 3bbd 0992 b1bd 1899 b13d e0d1 a33d
00000370: 520c 8dbd 8ed5 603e ce69 933d 6488 4abe
00000380: 28a8 44be d6a9 27be 0925 923e bf0e 1d3e
00000390: aaa0 84bd 6d97 273e 0ace e53c ffec febd
000003a0: 8f08 243e d38e 1bbe 05bb 3a3d 1806 673d
000003b0: ed2d ab3d cc4d 37be 2eee 67bb b3aa 82bd
000003c0: e2eb 7b3d f377 283d 7019 003e 7e31 6bbe
000003d0: b3fd 53bc db24 e4bd 08dc c43d 637f 28bd
000003e0: 2573 173e 8acb 95bc e49c adbd 1f09 9c3e
000003f0: 8f3c 923d ba81 bbbd 0711 6a3e 32cc 73bc
-0.16025628 0.18337414 0.034311205 -0.024146035 -0.059554256 -0.12560956 -0.23485821 -0.255663
-0.38741624 -0.06770636 0.0879959 -0.08505171 -0.052517563 0.09669378 -0.098782636 0.19020729
0.1458614 -0.022909433 0.0058449237 -0.25778806 0.15658127 0.17377856 -0.20031556 0.28195015
0.009624403 -0.20477481 -0.19119027 0.038113948 0.036302734 -0.098494515 0.17160213 -0.014435037
-0.17042553 0.06709943 -0.20550792 -0.20643859 0.22519894 0.111986876 0.033776212 0.021740988
-0.08476063 0.18782069 -0.030073956 0.1691626 0.10856732 -0.045817185 0.10274967 0.142454
0.1339611 -0.0029389418 -0.1371031 -0.19824982 -0.13269824 0.10162371 0.12667488 0.21004413
-0.07569708 0.0835015 0.19356611 0.019369714 -0.070249654 0.034013327 0.10028138 0.15215795
0.037226602 0.06723692 0.21480878 0.16412893 0.15204836 0.2453915 0.19801319 0.25684175
0.11659031 0.12583128 0.19635573 0.12087791 -0.07717577 -0.0593771 -0.025158644 0.15277
0.06306947 -0.105733834 -0.18390621 -0.2631306 0.039554816 -0.13953725 -0.06691517 -0.014210935
0.015765855 0.13984874 0.23289903 0.09661237 -0.1962825 0.1760129 -0.022796696 -0.13868925
0.00871414 0.19463642 -0.04726559 0.11915846 0.1715878 0.19791514 0.107039884 -0.12794285
0.0137594845 -0.2988738 -0.053942982 0.011057561 0.12732543 -0.08057065 -0.24169417 0.21905738
-0.23643753 0.12500894 -0.06855775 -0.17600302 -0.22103621 0.09356495 -0.08417961 -0.13195752
0.31748992 -0.18965022 -0.19569412 0.3107681 -0.022693602 0.20418704 0.1751046 -0.19735673
0.23917727 -0.20572148 -0.199741 -0.12614264 0.09797795 0.070468366 0.15175378 -0.027391287
-0.17296207 0.3142967 0.030413264 0.21325818 0.11474042 0.13346282 -0.18255651 0.1996438
0.016913323 -0.08789733 0.09871251 -0.25071514 -0.19924122 0.05684581 0.203809 -0.10383637
-0.11117369 -0.22500363 -0.08202659 -0.07076077 0.1964194 0.05092626 0.08443263 0.19395338
-0.01643837 -0.1821127 -0.009222645 -0.022061765 0.27720243 -0.08601111 -0.18995972 0.07732678
0.15212816 0.15971293 -0.1667869 -0.074094385 0.17892715 0.0039884415 0.045011725 -0.021543708
0.418182 0.08211764 -0.26524624 0.22453898 -0.21069275 0.21309215 0.18476735 -0.019533271
-0.21464892 0.13614006 -0.18039247 -0.103097625 -0.0068498286 0.15658465 0.05855877 0.1741267
0.10861461 -0.20180959 -0.16515832 0.19278324 -0.24745914 -0.07315753 0.07774895 -0.19436145
0.011573062 0.22877476 0.23816906 -0.20398223 0.14888075 0.02858665 -0.12043759 0.044361643
0.08379521 -0.20725594 -0.24408945 -0.01419391 -0.24772052 -0.073759034 0.15539229 -0.10236187
-0.045760456 -0.08670432 0.086717784 0.07999015 -0.068871155 0.21956465 0.07197915 -0.19778591
-0.19204772 -0.16373381 0.2854388 0.15337656 -0.06475957 0.16366358 0.028052349 -0.12447547
0.1601889 -0.15191202 0.045588512 0.056402296 0.08358369 -0.17900771 -0.003538977 -0.063802145
0.061504252 0.041130017 0.12509704 -0.22968099 -0.012938905 -0.11139842 0.0961228 -0.04113711
0.14790018 -0.018285532 -0.0847719 0.3047571 0.07140457 -0.09155603 0.22858058 -0.014880227

hiden_layers.2.bias f4 [64]
00000000: ca1e 94bc bc49 1bbd 16f0 183d 4a4c 05bd
00000010: 9825 5abd 3f2b f9bb 1a81 01bd b4ad 27bd
00000020: de87 10bc 4aaf e43c 18bd d2bc 0db9 31bd
00000030: f4c0 52bc e430 afbc bdbe 673d 86ba d53d
00000040: 5da0 293d 86e4 aebd 70f9 393d d81b 073d
00000050: cc9f 013e dc31 8cbc 21df 513c bd35 9c3d
00000060: 4ff0 c23c eec5 07be 6620 253d 6cef b7bd
00000070: af44 4dbd 8dd4 163c a71f 8c3d 7638 af3b
00000080: 1889 1ebd 55c8 18bd 1c8b c4bb a350 833d
00000090: 0306 823c d8ef 143c 749f 3d3b 31d2 363d
000000a0: 58a9 803d 444d 86bd 1afa 72bd e464 ff3c
000000b0: 3b19 9d3d ddc1 ad3c 0fd3 d6bc 795c de3c
000000c0: 4b27 943d 3abf 48bd b734 123d a386 1fbe
000000d0: 0927 8a3b 7ffd c9bb c840 cabc 51dc 303d
000000e0: c801 90bd 8b6f 8f3b 69d0 163c 62d4 a6bd
000000f0: 680f cfbd 2979 823d 533c 4c3d 513a ad3d
-0.018081088 -0.037912115 0.03733834 -0.032543458 -0.05325851 -0.0076040323 -0.03161726 -0.04093714
-0.008821456 0.027915616 -0.025724933 -0.04338937 -0.012863386 -0.021385618 0.056578387 0.10435967
0.0414127 -0.08539681 0.045403898 0.03298554 0.12658614 -0.017113619 0.012809546 0.07627437
0.023796229 -0.13259098 0.0403141 -0.08981213 -0.05011433 0.0092059495 0.06841975 0.005347307
-0.03870496 -0.037300427 -0.0059980284 0.064118646 0.015872007 0.009090386 0.0028934153 0.044634048
0.062823 -0.06557706 -0.059320547 0.031176038 0.07670828 0.021210605 -0.026223687 0.027143704
0.07234057 -0.049010493 0.035694804 -0.15578704 0.004216079 -0.0061642523 -0.024689093 0.04317886
-0.0703159 0.0043773106 0.009204962 -0.081459776 -0.101103604 0.06370766 0.049862217 0.084583886

hiden_layers.3.weight f4 [64, 64]
00000000: 9ede fbbd ca97 8f3e a7fe 8b3e 221b 6e3d
00000010: f39e a1bd 1538 913d c16f 183b d08a 96be
00000020: d63c ae3c 3126 e73d 656b 0c3e f1f5 02be
00000030: 3649 893e d73a 26be 282e ae3e ccd5 0dbd
00000040: f86d 5dbd 8300 3abe 12df 7bbd b2e1 ccbd
00000050: 2c46 873e 121e a5be ba9a 7d3e 9395 8a3e
00000060: 96f7 6b3e 989d 393d a566 afbd 2fa3 92bd
00000070: 9385 d93d 9ac8 2f3e 33d6 a23d 6e4b 553e
00000080: d411 9a3d e3aa 83bd 90bf 2fbe d9ef 133e
00000090: 3c27 bb3d a910 e33d 5e27 a0bd ae07 51bd
000000a0: 51da 8e3d a8d7 50bc 60c9 68be 406a 21be
000000b0: aa34 a03d 9bf8 773e f17c f2bb a971 5bbd
000000c0: 4711 3c3e 6bd2 79be 1fef dcbd 4503 6bbe
000000d0: f08f 1f3e 5669 733e 385f 1c3e 6d6d a4bd
000000e0: bbd9 033e 9c10 d03d 0fad 82be 520f 6cbb
000000f0: 3320 823c 3b62 843e e85d d8bd 587b 713e
00000100: b0e9 38be e41c 44bd 6457 e7bd f6c5 b53d
00000110: 46e9 7f3e d4ec 833e 87b2 90be ab3c 043e
00000120: d073 90be 9844 c2bd b4b6 2d3e c191 ac3d
00000130: 6667 0d3e a14b 8abd dd90 bdbd 9d2d 4b3e
00000140: 5d97 143e a50e 86bd a881 233e 37a8 333e
00000150: 44f5 733e ed1b e8bd 0ae5 e4bd 4909 983d
00000160: 658c 0fbe d096 883d 1123 e43d 0e8f 1cbe
00000170: 20c0 5d3e 5cad 49bd 3e95 b4be c6d1 a63c
00000180: db05 353e 4102 4fbb e03f 163e a7ea f23d
00000190: 0735 ddbd a75d 66be d4b3 b7bd 241e b03d
000001a0: 61d5 24bc 16da 653c 4162 9f3d 302c 9d3e
000001b0: 9dd5 663e 599b 823d 14d6 7b3e b5d0 e73c
000001c0: ff76 0f3e 790e 2cbe 1d24 30be b3b1 a03e
000001d0: ee1a 6d3e a860 cfbd 7768 97bd 46ea 313e
000001e0: fd76 853e cade 38be b4e9 f93d ad97 5d3e
000001f0: beac e43d 2e61 863d 249d 82bc e0d5 2d3e
00000200: 3aa1 c03c c8ca 203e 940f a1be a947 eabd
00000210: 14ba b3bd d286 653e 1aab c53d d9a1 01be
00000220: 4256 023e 18cc 27bd 7565 92bd e442 333e
00000230: 59f5 4fbe f0c8 adbc a417 433d 4dfb f8bc
00000240: 6025 30bc 458a 263e 4226 9abd 6ecd 5cbe
00000250: f991 1abd bedf ac3d 26ca 37be ab59 013c
00000260: 2a46 37be e8e2 f5bc e211 8cbe 89db e03d
00000270: c99f 2c3e a2b1 9bbe c28c 0ebe 7510 52be
00000280: 14c8 60be 242b 383c 5894 443e 2fa7 163d
00000290: a828 acbd df3d 02be 589f 773e 8157 ff3c
000002a0: 0fab b93d 99c9 26be 7b2b abbd 258f 0b3e
000002b0: 68c1 8e3d d8cd 5dbe b6ae 173e 81ba 51be
000002c0: 699f 92bd 27d2 24be 7ee0 603e ed03 483e
000002d0: d7e6 d83d bfa4 f0bd c46e 30be a767 89be
000002e0: 43d3 58be c892 29be 9680 903d 96f9 8f3e
000002f0: 138d 533e 9bdd ecbc e37d 083e ceeb 063d
00000300: 9b83 8b3d 0d3d 0bbe 70d3 453e 6da8 d0bd
00000310: 2c10 f9be fc05 ecbd 0368 c43d b7d8 71be
00000320: d7b9 233e b832 cdbe 64d7 98be d2ed 63be
00000330: bc6f 26be cdf7 febd ae0b a2bd 75b2 2ebd
00000340: 4fad 01be 544c eb3d 69ac b7b9 54a7 393e
00000350: 508c 033e 0c64 7fbd b8e7 e6bd 9efc 143d
00000360: 077d 433e 003a d13d d6f0 7f3d 9b30 603d
00000370: 5a0e fdbc bcd3 80be e821 82bd 26f6 c73d
00000380: 3bd0 203e 414f bf3d a395 003e 8603 ecbd
00000390: f5ba 79be 9b95 3b3c 6184 93be fd3b 1dbc
000003a0: 6390 063e 8772 9cbe 475f 57be 93d9 9d3d
000003b0: aab0 cc3c a544 d8bd e27d 1e3e aa65 223e
000003c0: 1676 94bd 775c 473e 8be7 2ebd d70e edbe
000003d0: c5c0 a13d 3acc 923e f79f 7d3d 7ae2 963e
000003e0: f691 fe3e 6123 f43d df98 433e 6b1c 65be
000003f0: caa2 083d a804 64be d481 5ebe bc21 553b
-0.1229832 0.28045493 0.27342722 0.058131345 -0.07891645 0.07090775 0.002325997 -0.2940278
0.021269243 0.11286581 0.13712843 -0.12789132 0.26813668 -0.16233383 0.3401959 -0.03462772
-0.054059952 -0.18164258 -0.061492033 -0.100039855 0.26420724 -0.32249504 0.24766055 0.2706724
0.23043665 0.04531631 -0.085645 -0.07160031 0.106211804 0.17166367 0.079510115 0.20829555
0.07522932 -0.064290784 -0.17162919 0.14446963 0.09138343 0.11087162 -0.07820009 -0.051032715
0.06975234 -0.012746729 -0.22733068 -0.15763187 0.07822545 0.24215929 -0.007400148 -0.05357519
0.18365966 -0.24396674 -0.10787796 -0.22950466 0.15582252 0.23770651 0.15270698 -0.08028684
0.12876026 0.10159418 -0.25522658 -0.0036019874 0.015884494 0.25856194 -0.10564786 0.23582208
-0.18057895 -0.047879115 -0.11295965 0.08875649 0.2499133 0.25766623 -0.28261206 0.12913768
-0.28213358 -0.094857395 0.16964227 0.08426238 0.13808975 -0.06752706 -0.09256146 0.19841619
0.14510866 -0.06545762 0.15967429 0.17544638 0.2382403 -0.113334514 -0.11176498 0.07423646
-0.140184 0.0666939 0.11139501 -0.15288946 0.21655321 -0.049237594 -0.35270113 0.0203637
0.17678015 -0.0031587037 0.14672804 0.11861163 -0.1080113 -0.22496663 -0.08969846 0.08599499
-0.010060639 0.0140290465 0.07782412 0.30697775 0.22542424 0.063772865 0.24593383 0.028297761
0.14010237 -0.16802396 -0.17201276 0.31385574 0.23154804 -0.101258576 -0.07392972 0.17374524
0.26067343 -0.18053737 0.122027785 0.21639891 0.111657605 0.06561504 -0.015944071 0.16976118
0.023514379 0.15702355 -0.31457198 -0.11439449 -0.08775726 0.22414711 0.09651776 -0.12659396
0.12728217 -0.040966123 -0.07148258 0.17505985 -0.20308436 -0.021213979 0.047629967 -0.030393267
-0.010751098 0.16263683 -0.07526828 -0.2156274 -0.037736867 0.08441113 -0.17948207 0.007894914
-0.17897859 -0.030015424 -0.27357394 0.10979373 0.16857828 -0.3040896 -0.13920882 -0.2051409
-0.21951324 0.011240754 0.19197214 0.036780532 -0.08406192 -0.12718914 0.24181879 0.031169655
0.0906583 -0.16287841 -0.083579026 0.13628824 0.06970483 -0.21660554 0.1481274 -0.20481302
-0.07159311 -0.16095792 0.21960637 0.19532748 0.10590904 -0.11750173 -0.17229754 -0.26836893
-0.2117434 -0.16559899 0.07055776 0.28120106 0.20659284 -0.028914263 0.13329272 0.032939725
0.06812211 -0.13597508 0.19318938 -0.10188375 -0.4864515 -0.11524579 0.09590151 -0.23617826
0.15988861 -0.40077758 -0.2985183 -0.2225869 -0.16253561 -0.12449608 -0.07912384 -0.04265066
-0.12663768 0.11489168 -0.00035032936 0.18130237 0.12846494 -0.06235127 -0.112746656 0.036373727
0.19090663 0.10216141 0.06248554 0.054733854 -0.030890632 -0.2516154 -0.06354123 0.09763746
0.15704434 0.09341288 0.12557082 -0.115241095 -0.24387725 0.011449243 -0.28811935 -0.009596822
0.13141017 -0.30556127 -0.21032439 0.077075146 0.024986584 -0.10559968 0.15477708 0.15859094
-0.072490856 0.19468866 -0.042701285 -0.46300384 0.07898096 0.28671438 0.061920132 0.29469663
0.49720734 0.119208105 0.19101284 -0.22374122 0.033358373 -0.22267401 -0.21729213 0.0032521328

hiden_layers.3.bias f4 [64]
00000000: b779 1f3c 7793 b0bd 2b01 173e 68ff 0e3d
00000010: 2a83 51be ca92 863c 4602 16bd e384 e2bd
00000020: b365 a23e bf6a 18bb aa59 363d 928c 253c
00000030: 65b0 c4bd 0eab 9a3b 4368 593d 91dc 6fbe
00000040: ac7e 0fbd b89e 47be 6773 723c 5933 0c3b
00000050: 5498 043d 33f1 9b3d ab32 13be bfc9 353c
00000060: 0b26 483c 47e1 dc3d d5a2 0ebe df55 68bd
00000070: 8218 aa3d ffcc ff3c 703e 683c 9e66 20bd
00000080: 98a1 f13d fada ccbb 3731 47b9 e061 113d
00000090: 4143 873d a1dd a83d ee4b 1e3d 8c87 83bd
000000a0: dcc7 1b3e 652e a3bd a87b 903d 8bc6 e8bd
000000b0: fe2d d8bc 2ced c7bc 61f9 583d fffa 343e
000000c0: 0619 0d3c d6ff 15bd c2f0 16be 3f5a 0ebe
000000d0: 78d9 993d ccf1 033e 87d1 04be 1368 fcbc
000000e0: fba0 283e 6e3e 0c3e 79ac 8e3d 74c4 d73c
000000f0: d226 2abe 3320 6d3e 5cbe cabd 01c1 513c
0.009733609 -0.08621877 0.1474654 0.034911543 -0.20460191 0.016427416 -0.036623262 -0.110605024
0.31718215 -0.0023256985 0.044519104 0.010104315 -0.09603957 0.0047200983 0.053077947 -0.23423983
-0.035032913 -0.1949414 0.014798022 0.002139291 0.032371834 0.076143645 -0.14374797 0.011095463
0.012216101 0.10785156 -0.13929303 -0.056722518 0.08305456 0.03122568 0.0141750425 -0.039160363
0.117984 -0.00625169 -0.00018996453 0.03549373 0.066046245 0.08245397 0.03864663 -0.06422338
0.15212959 -0.079678334 0.070548356 -0.11365994 -0.026389118 -0.024405085 0.0529722 0.17673872
0.008611923 -0.036620937 -0.1474028 -0.13901614 0.07512182 0.12885207 -0.12970553 -0.030811345
0.16467659 0.1369569 0.0696649 0.026338793 -0.16616371 0.23156814 -0.098995894 0.012802363

hiden_layers.4.weight f4 [64, 64]
00000000: c542 b6bd 20a8 043e d82a ad3c 85bd 0dbe
00000010: c14e 0e3d 46ab e3bc 8964 f33c eceb e33d
00000020: 9ef5 efbe 2e83 813c e4ed 5cbd 88d3 0b3e
00000030: fb84 a63c e82c 2ebe d522 27be c6f3 353d
00000040: fa7f e4bd 6bea ce3c 390e 073e f0e7 503e
00000050: c036 3abe 3ab1 be3d c35a aebd 3690 57bc
00000060: b379 8b3d b18f 1bbe c01c dc3d f3d0 923d
00000070: 08ea 8fbe 5ba9 4abe 27c7 73be 132a 83bd
00000080: b32b 3c3e f632 6d3d e7df 893d 1476 0abe
00000090: 159a 123e 58a5 a1bc d3be b1bc 7485 3ebc
000000a0: 451d 44be 1ca0 63bc 43d1 803e 4068 4b3e
000000b0: bf66 c1bd d1a0 3c3e 928c 073e 70a7 6bbe
000000c0: 3222 77be 7c7b 32be 4a8e 1c3d fcba 1a3e
000000d0: 1a32 42be dbbf 8e3d 91e0 583e b8e9 51bd
000000e0: cccc c43d da19 253d c1c4 37be 6a4e 1dbe
000000f0: ffd1 803e 5e25 8cbe 4707 ae3c 9ab8 f9bd
00000100: a07f 913d 6a49 13be 74a8 55be 292b eb3d
00000110: 0a00 c83c 2637 72bc 3abe dfbd 06ae 90bd
00000120: 721e bdbe 4e58 ebbb f8b1 e3bd da2c 053e
00000130: 5fb4 923e 66fd 0a3e 19d3 1ebe 08fd 253e
00000140: b0fd b4be 1fdc 8f3d 3270 c83d c371 413d
00000150: fb1d 393e fa3b 723e 32c2 2d3e 0741 4c3e
00000160: 72da b53c bf2e 49be e394 5abe cf00 0b3d
00000170: 3db7 08bd 0498 443c 14c9 bcbe fef4 7abe
00000180: 65fd 9d3e 0339 133d e2d3 6c3d 51d2 39bd
00000190: 3cc1 50be f6fa 123e b310 b73d d345 91bd
000001a0: 7679 b03d d53b 1ebe 9efc 823e 21e2 653e
000001b0: 8acd 42be e255 7d3e 523b d8bb ce5f 29bd
000001c0: b9c1 55be 13f5 dfbd 6439 40be 6a37 923d
000001d0: e949 dc3d 063d ccbd efe8 a13e 36a4 a63d
000001e0: 2b7c 4d3d e4a5 2dbe c68a 003e c043 37bd
000001f0: 51a4 bf3e eb99 0b3d e3f1 943d 80ad fc3d
00000200: ceca 55be 19c2 e3be a8f1 09be f5ea 4bbe
00000210: b49a a8bd 9e5f 0abd ee92 853d 9215 5c3d
00000220: d684 dfbc 2b46 0fbe 7253 05be 1a24 00be
00000230: 3840 9bbd bc07 203e 265b bc3e e23a 7c3d
00000240: 5bde b13c 84b8 ab3d d267 e8bd 70c9 dcbb
00000250: a643 85be 2b80 78be fcea f9bc 88cd 19bd
00000260: 0d31 3cbe 4d32 13be a7ce 83bc d54d 873e
00000270: 9842 3abe 6c06 db3d 757a b4bd 6ae7 2f3e
00000280: 0659 10be 04ad 33be 25b8 71be e57e e8bc
00000290: cb18 513d 7308 103d 4738 7abe b7d0 963e
000002a0: 96db 883e b43a 1c3e 9a2c debe 31b8 4dbd
000002b0: 4e74 d1bd ab2b aabc 1983 ee3d bf2e bd3d
000002c0: 335d 6e3e e34e 07be a8ce 6e3e 78c1 16be
000002d0: 28ac bcbd 5cb0 563e 0de2 c3bd 34f3 993c
000002e0: 19b9 6fbe 13d9 aebd d377 a43d 8cf0 303e
000002f0: bd50 5dbe 46d7 8abd b051 ef3d 94e8 443e
00000300: 5342 413e d001 08be 11ac adbd cf15 213e
00000310: 09db 653e 72b8 063d ef2c 783e 5587 b6bd
00000320: 0223 253e 87cc 013e 6665 863d f611 b9bd
00000330: 74ea aabc d2bf e3bd fdd6 eb3c 5ed3 fb3d
00000340: 08b2 25bd bb7e b93d 144f 6cbe 3031 3cbe
00000350: 3c37 8ebe d5b9 503d a224 963e bcf5 ad3d
00000360: 1ae3 003e fc41 48be d2cb 813e e95a a8be
00000370: 1984 f9bc 25ff f63c fc5d 11bd 34d7 07bf
00000380: c7e8 0bbe 1a6d 763e a8a1 36be 3adb 68bd
00000390: b30f 383d 6d02 15be 10e9 cb3d 0035 5f3e
000003a0: 5bbc 09be 2ed4 e13d e03f 283e 36b3 c63e
000003b0: 8a05 f1bd 348c a4be 2780 ddbd df81 b2be
000003c0: bd44 02be ad8d 243e d433 d13c 7976 843e
000003d0: 2d3c 23be 1198 a13d e4ba 373e 4f59 ae3e
000003e0: a5b9 14be 9717 e5bd 2bab 2c3d 072d 49be
000003f0: 194b db3d 66c1 f5bd 51cc fd3d 9df1 d23d
-0.08899454 0.1295476 0.021138594 -0.13841827 0.034743074 -0.02779163 0.029711025 0.11128983
-0.4686708 0.015809622 -0.053937808 0.13654912 0.020327082 -0.17009318 -0.16321881 0.044421934
-0.11157222 0.025258264 0.1318902 0.20400977 -0.18184948 0.09311147 -0.08513405 -0.013156941
0.06810322 -0.15191533 0.10747671 0.0716876 -0.2810824 -0.19791166 -0.2380644 -0.064045094
0.18376045 0.05790993 0.06732159 -0.13521606 0.1431659 -0.019732162 -0.021697437 -0.011628497
-0.1915179 -0.0138931535 0.25159654 0.19863987 -0.094434254 0.18420722 0.13237217 -0.23013091
-0.24134138 -0.17429918 0.038221635 0.15110391 -0.18964425 0.06970187 0.21179415 -0.051248282
0.096093744 0.040307857 -0.1794615 -0.15361944 0.25160214 -0.2737226 0.021243704 -0.12193413
0.07104421 -0.14383474 -0.20865041 0.114828415 0.024414081 -0.014783656 -0.10924955 -0.07064442
-0.3693729 -0.0071821576 -0.11117929 0.13005391 0.28653237 0.13573226 -0.15510215 0.16209805
-0.35349798 0.07024407 0.097870246 0.047227632 0.18077843 0.23655692 0.16968611 0.19946681
0.02219889 -0.19646738 -0.21345858 0.033936318 -0.033377875 0.011999134 -0.3687216 -0.2450752
0.30857387 0.035943042 0.057819255 -0.04536659 -0.20386213 0.14353547 0.08938732 -0.07093396
0.08616917 -0.15452512 0.25583357 0.22449543 -0.1902372 0.24739793 -0.0065988684 -0.041351132
-0.2087468 -0.10935416 -0.18771893 0.07139476 0.10756285 -0.09972577 0.31623027 0.081367895
0.050167244 -0.16957814 0.12552938 -0.044742346 0.3743005 0.034082334 0.07272699 0.1233778
-0.20878145 -0.44484022 -0.13471091 -0.19913848 -0.08232632 -0.033782594 0.06522165 0.05373151
-0.02728502 -0.1399161 -0.13020113 -0.12513772 -0.07580608 0.1562795 0.3678829 0.061579593
0.021712473 0.08384803 -0.11347927 -0.0067378804 -0.26028174 -0.24267642 -0.030507557 -0.037549525
-0.18378086 -0.14374657 -0.01608975 0.2642657 -0.18189466 0.10694584 -0.08812419 0.17178121
-0.1409646 -0.17546469 -0.23605402 -0.02838082 0.051049035 0.035164308 -0.2443553 0.29456112
0.2673003 0.15256768 -0.43393403 -0.050224487 -0.102272615 -0.020772776 0.11646099 0.09237432
0.2327774 -0.13213687 0.2332102 -0.1472224 -0.09212524 0.20965713 -0.095646 0.018792726
-0.23410453 -0.08537497 0.08030667 0.17279261 -0.2161283 -0.067793414 0.116855025 0.19229347
0.18872957 -0.13281941 -0.08480085 0.15730976 0.22446837 0.032890745 0.24235891 -0.08912531
0.16126636 0.12675677 0.06562309 -0.09036629 -0.02086375 -0.11120571 0.028789038 0.122961745
-0.040452987 0.09057375 -0.23077041 -0.18378139 -0.27776515 0.050958473 0.29324824 0.08494136
0.12586632 -0.19556421 0.25350815 -0.3288186 -0.030458497 0.03015096 -0.03549002 -0.5306275
-0.13663016 0.24065056 -0.17835104 -0.056849696 0.044936847 -0.14551707 0.099565625 0.21797562
-0.13450758 0.11026798 0.16430616 0.38808602 -0.117686346 -0.32138216 -0.10815459 -0.3486471
-0.12721534 0.1606967 0.025537409 0.25871637 -0.15940924 0.078903325 0.17942387 0.34052512
-0.14523943 -0.1118614 0.042155426 -0.19646083 0.10707683 -0.119997784 0.12392486 0.1029999

hiden_layers.4.bias f4 [64]
00000000: 95c4 31be 1f3c 9abd 14f7 eabd 3512 0bbe
00000010: a6bd 7ebd c4cc 803d e2a9 3238 1ffb 45be
00000020: 4de5 dbbd 597d a73c f783 003e f366 23bd
00000030: 7abb 2e3e ddeb b4bd 2453 8fbd be85 8dbd
00000040: 0d01 f03d 3dec 8d3d 11a6 18be a67c 26be
00000050: 690e 493e 25cc f63d 2aa9 9abd d1f7 ba3d
00000060: 54f7 f33d 16e1 72be ad2a b1bd 587a 2ebe
00000070: e82d 52bc 62fd 09be 2f35 15be a80c 29b9
00000080: d1e0 ffbd 6208 43bd 4a51 e4be 41a9 4fbe
00000090: 5bdb 583c 910b 68bd 9ed6 41be 1b0a 38be
000000a0: 82ea c13c 93cd 21be 7273 e1bd 19d7 10bd
000000b0: 7c46 213e c7a9 9fbc cc72 fe3d 85d4 853d
000000c0: 2312 21be 5a16 4dbe 9aed 513d d913 413e
000000d0: 6bad fcbd 66d8 193e 6248 75bc bd54 45be
000000e0: ca40 3cbe be27 473d 75a6 823d cfea bd3d
000000f0: 6647 cf3d bdd4 ea3d 70f7 ad3e cf86 0cbe
-0.17360146 -0.075309984 -0.11472908 -0.13581164 -0.06219258 0.06289056 4.2596723e-05 -0.19334076
-0.10737095 0.020445513 0.1255034 -0.039893102 0.17063704 -0.0883405 -0.0699828 -0.06910275
0.117189504 0.069298245 -0.149071 -0.16258487 0.19634403 0.12050656 -0.07551797 0.091292985
0.119124085 -0.23718676 -0.08650718 -0.17038858 -0.012828328 -0.13475564 -0.14571069 -0.00016121811
-0.12494052 -0.047615416 -0.4459327 -0.20279409 0.013235892 -0.056651656 -0.18929526 -0.17972605
0.023671392 -0.15801077 -0.110083476 -0.035361383 0.15749544 -0.019490136 0.124242395 0.065346755
-0.15729575 -0.20028058 0.051251985 0.18855228 -0.12337764 0.15023956 -0.014970871 -0.19270606
-0.1838409 0.048621885 0.063794054 0.09273302 0.1012104 0.11466358 0.33977842 -0.137233
