results/1_first_try/epoch750/model_weights.pth (torch, 484214 bytes, 88 tensors)

init_layer.0.weight f4 [64, 3]
00000000: b155 1cbe 2017 a7bd e35c b43d 683b 823e
00000010: cd1d ea3c e220 4fbc 6733 eabd 26ed 82be
00000020: 8fa8 f4bc 477c 933e 9d09 6c3d a7ff 573c
00000030: 07cf bcbb be3e ad3e 3a76 ee3c 9d84 14be
00000040: ec68 c1be bb86 5b3d 136f 263e c2c1 c03d
00000050: 84c6 363e 39bf 9c3e 7369 5e3e fd3d 0c3e
00000060: d4e1 873e 0ec8 bfbe 2854 e33c 31e6 43be
00000070: 52da 49be d6e0 163e 5893 8cbe 1f12 ca3b
00000080: b91b 013d d007 f63d fe9a 8d3e 71e7 6dbd
00000090: 280e 6dbd d569 3fbe 5796 f2ba 4be5 d2bd
000000a0: 4c58 1e3c 1498 c53d 3625 1e3e 7d0c a8be
000000b0: 7d24 49bc 5f23 743e 8fc8 78be 447d b7bd
000000c0: 81ff f93c 88ea 14be bdb7 383c 3823 983e
000000d0: f5bb 813e 7427 c3bd b68c 2e3e 959d 813a
000000e0: 99f7 1abe 0f61 83be abd6 203e 42d2 05be
000000f0: e17e 4d3e be75 0abe 17aa 0fbd 07fa a43e
00000100: 80a4 05bc 74be 45bd 4bf5 c1bc ed7d abbe
00000110: 8af9 4abc e54e ddbd 5793 633e bce3 05bc
00000120: f68d 15bd 0444 1abe fd5c bb3d b3bf d5bd
00000130: f854 883e 82c3 19bd c31c ba3d f6ec 9d3e
00000140: 467d 253e 0445 3bbe 75b4 8dbe c7a6 053d
00000150: 1731 d4bc ef06 0b3d 0f7e 39bd 948e d43d
00000160: b446 b2be 9b26 133d 50d8 b2be 698b 17be
00000170: 9dca 20bd 4f4a 21be 428b dc3d aee3 983d
00000180: 1856 e0bd 270d 8b3e 83c0 003e ee65 a5be
00000190: 7589 a23e c13b 1cbd 813b 903d 9453 1dbe
000001a0: 3dac cebc 5324 05be fab6 7abe 1ae4 ddbd
000001b0: 46e3 cabd 71f0 023b 3fd1 743b 765b 42be
000001c0: 5741 97bd b30b 9b3a 6979 323e 6b66 5ebe
000001d0: 6f52 d73b 5e5c 9dbe b327 233e 9dc0 bc3d
000001e0: ed79 833d adef 423d fbda 1ebe da2a 05be
000001f0: fcda 07bd 4ae3 02be df93 243d 3803 16be
00000200: 3427 e83d 4a59 8f3d 7218 82bd a615 5b3d
00000210: 480b 2d3e d13d 8cbe 9cf3 b2bd bba0 b9be
00000220: 102e 74be a611 a23d f70a 2dbd ce0f 7abe
00000230: d1fc 0b3d 0c38 683d c1cc 903e a1ef 993c
00000240: 18f8 393e a90c a23e 9431 923c 8b4e 253e
00000250: fc30 a4be 8797 123e 2ffe f6bd c9f9 95be
00000260: 26cf 05bd 0dca c6be 1e1c 08be 4531 7ebd
00000270: a66a a53e e116 9abe c276 513d 13b1 05be
00000280: cd2a 4fbe be58 0f3c 6b79 533e cbdd 7abe
00000290: d862 f1bd 3cc2 5d3e 5a3d 8fbc 8ee1 ec3c
000002a0: a085 5c3e 1966 9e3d 829b d73d 992e 6b3d
000002b0: 5983 233c 662c 69bd 8434 263e c30f b33e
000002c0: a83e 7b3c 52b5 993d 1a9e 773e ff85 b8bc
000002d0: e6fa 49be 8d22 81be 505c bdbc 397d 37be
000002e0: 0983 753d 9e02 7bbb e1e6 af3e 1e98 84bd
000002f0: 54f0 9b3c e3aa a13e 520e 4a3d bcc4 da3d
-0.15267064 -0.081587076 0.08806779 0.25435948 0.028578663 -0.012642117 -0.114355855 -0.25571555
-0.029865531 0.28805754 0.057626355 0.013183511 -0.0057619843 0.3383693 0.02910911 -0.14503713
-0.37775362 0.053595286 0.16253309 0.09411956 0.17849165 0.3061464 0.21719913 0.13695522
0.2653948 -0.37457317 0.02775009 -0.1913078 -0.19712189 0.14734206 -0.27456164 0.006166711
0.03152058 0.12013209 0.27657312 -0.058082048 -0.05787483 -0.18692715 -0.001850794 -0.102976404
0.009664606 0.09648147 0.15443882 -0.32822028 -0.012276766 0.23841618 -0.24295257 -0.089594394
0.030517342 -0.14542592 0.011274275 0.2971437 0.25338712 -0.095290095 0.17045864 0.0009888882
-0.15133514 -0.25659987 0.1570689 -0.13068488 0.20067932 -0.13521478 -0.03507432 0.32222006
-0.008156896 -0.048277333 -0.023676535 -0.3349451 -0.012388596 -0.108060636 0.22224174 -0.008171972
-0.036512338 -0.15065008 0.091485955 -0.10436954 0.26627326 -0.037539966 0.09087517 0.3084485
0.1616107 -0.18288046 -0.2767674 0.032629754 -0.025902314 0.03394216 -0.045286234 0.10378757
-0.34819567 0.03592549 -0.34930658 -0.14799275 -0.039255727 -0.15751003 0.10768749 0.074653015
-0.10953921 0.27158472 0.12573437 -0.3230433 0.31745496 -0.038142923 0.070425995 -0.15363914
-0.025228614 -0.13002138 -0.24483863 -0.108345225 -0.0990663 0.001997974 0.0037356166 -0.18980202
-0.073855095 0.0011829048 0.17429127 -0.21718757 0.006571106 -0.30734533 0.15933113 0.092164256
0.0641974 0.047591854 -0.15513222 -0.13004628 -0.033167824 -0.12782016 0.040180083 -0.14649665
0.113356024 0.069994524 -0.06352319 0.053487442 0.16898835 -0.27390912 -0.08737871 -0.3625544
-0.23845696 0.079135224 -0.042246785 -0.24420092 0.03417665 0.056694075 0.28281215 0.018791022
0.18161047 0.31650284 0.017845906 0.16143243 -0.32068622 0.14315616 -0.120602004 -0.29292133
-0.032668255 -0.38826028 -0.13291976 -0.062058706 0.3230793 -0.3009558 0.051138647 -0.1305583
-0.20231171 0.008749185 0.20651786 -0.2449867 -0.11786431 0.21656126 -0.01748531 0.028916147
0.21535349 0.07734317 0.10527708 0.057417486 0.009980046 -0.056927107 0.1623097 0.34972963
0.015334763 0.07505287 0.24181405 -0.022524832 -0.19724616 -0.25221673 -0.023115307 -0.17918862
0.059939418 -0.003830112 0.34355834 -0.064743266 0.019035496 0.3157569 0.049330063 0.10682055

init_layer.0.bias f4 [64]
00000000: 17ec 263d c829 ea3d c0da c5bd 5928 083e
00000010: 8321 d53b 172b 98bd dc3b d0bd 687a 2b3e
00000020: 70e3 ae3d 8f87 24be 3baa e3bd 16a6 9d3d
00000030: 0df5 07bd a88a ccbd b0c1 7d3d 0d82 fc3d
00000040: 7099 cbba c5f7 293e a1b5 173e cfea 0ebe
00000050: 152e f23d af52 0c3e 2baf cdbc c001 fcbd
00000060: 21dd ca3d a3a7 bcbd 959f 063e bd9c 9cbd
00000070: b756 54bd 29bc c03d 76c2 1dbe 9260 ebbd
00000080: 55ad f0bd 65a5 06be 1814 9f3d 09b1 08be
00000090: 16d7 80bd 14a6 d8bd 3736 883d 326d 10be
000000a0: b4d0 4dbd a2f5 fbbd c53c a8bd 1aaf ac3d
000000b0: 517f 023e 08d3 11be 17ec b3bd 4c0e c5bc
000000c0: a340 e33b 24e4 033e 4236 08be d368 1dbe
000000d0: 5224 0b3e b255 6ebd 4264 083e 9dd7 f73d
000000e0: 5499 ff3d 5628 d8bd b822 e93c e8ef 3c3d
000000f0: d19a 0abe 8af6 e6bd 0a3b 183e 2a93 0a3e
0.040752497 0.114337504 -0.09660864 0.13296641 0.006504239 -0.07430094 -0.10167667 0.16745913
0.08539474 -0.16067336 -0.11116453 0.07697694 -0.033192683 -0.09987384 0.061952293 0.12329493
-0.0015533399 0.16598423 0.1481538 -0.1395676 0.11825196 0.13703416 -0.02510794 -0.12305021
0.09905458 -0.09211662 0.13146813 -0.07647083 -0.05184051 0.09410889 -0.15406212 -0.11493029
-0.117518105 -0.1314903 0.077675045 -0.13348784 -0.062910244 -0.10578552 0.06650966 -0.14104155
-0.050247863 -0.1230271 -0.08214716 0.084318355 0.1274388 -0.14240658 -0.08785265 -0.024054669
0.0069351955 0.12879997 -0.13301948 -0.15372019 0.13588074 -0.058187194 0.13319495 0.12101672
0.12480417 -0.105545685 0.028458938 0.04612723 -0.1353562 -0.11277492 0.14866272 0.13532701

hiden_layers.0.weight f4 [64, 64]
00000000: 24fe 3cbe d2ee 9d3d 4d7b fe3d 991d 2e3e
00000010: be23 38be 6baf b5bb 1cf8 d53d 76e7 b2bd
00000020: 9285 583c 2dc4 b8bd 5f23 31bd 508f 3c3e
00000030: 1e1f fb3b e6ef 373e 5aaf 343e e176 0fbe
00000040: e076 a6bc 793c 23bd 7300 703c 2798 58be
00000050: 60eb 013d 5f7c 4e3e ed64 e43a 0a27 a0be
00000060: d866 353e f885 d0bc d4da 90bd a4ab 3bbe
00000070: b507 edbd a310 6f3b 5238 a3be fe4e 99bd
00000080: 89b9 b1bd 0a82 ccbd 3347 0e3e 0f02 e3bc
00000090: 0de6 b23b 0432 6ebd 2416 6d3e c44c 083d
000000a0: 5fc4 b43d 1f67 08be 1ed5 f03d bc74 87bd
000000b0: 21e4 febb 14e7 b9bd 20bf 363c 649a 25be
000000c0: b295 723e 17a4 bbbd 7530 2abe b254 8cbd
000000d0: b603 cc3d 0874 3fbd 800a 5d3e de72 7e3e
000000e0: 333b eabd 96d5 f4bd c6b3 a1bd d27b a23d
000000f0: d095 ad3c e359 8cbe 5644 1a3e df4a 74bd
00000100: 1625 01bd 3a0a 14be 1f91 60be 8f4f 6f3e
00000110: af9e 19be 9d69 5dbd c59b 333e e6e5 94bd
00000120: 4cc4 b23d 42f8 52be e186 383e 01cb 1ebe
00000130: 6c9d 11bc 45fa 823c ea0d c53d 03cd 463e
00000140: d68d 003d f7e5 6e3e c562 383d 99b5 e8bd
00000150: aa07 7b3d f8c6 e3bd 178d f23d f002 f0bd
00000160: f7fc 33bc ebd5 21be 7937 933e 0894 343e
00000170: 2400 6c3d a81d 693e 72e5 86be 156b 35be
00000180: 097e f8bc 0866 8fbd 9770 2a3e 4f56 9f3d
00000190: c12b 2d3e 7a69 96bd 2d14 d9bc f405 db3d
000001a0: bd08 a3bd c942 dfbd 6be7 33be ca70 7e3d
000001b0: e0d6 233e b175 67be 6b49 423e 9649 4cbe
000001c0: ef69 b5bd db9b 98bc b46c f2bd 7f3a 56be
000001d0: 14c2 5a3e a1c2 09be e9bc 453e 55d3 393e
000001e0: b2e0 d8bd e345 cbbd 5443 41be 6435 52be
000001f0: 1961 413e 4ac2 12bc cfd3 933e 22e4 983b
00000200: 6a5c c63d d49b bfbd 6141 873e 726b 56bd
00000210: b801 87be 9894 c53c c9cf 27b9 1490 83be
00000220: 82cb 063e 2c30 f63c 8895 b6bb ae89 ba3d
00000230: 9f72 373e 0634 3cbe 67f1 903e 3d70 febd
00000240: a6a2 a3bd e9f0 8fbe 4b0a b63c c7be 89bd
00000250: 8caa 05bc f634 5bbe 8811 e4bd 8958 55bb
00000260: ef62 b5bc 30a6 2bbe cacd dabd 2b87 783e
00000270: aec6 efbc f70e ffbd 0ef3 a03e f529 6f3e
00000280: e91c 44be 4792 1bbe 4da8 3c3e a9a7 a13e
00000290: 2225 cfbd 2717 afbd e702 db3c c20a 1f3d
000002a0: f1c3 32be cc7d 223b 96a1 643e 0082 443e
000002b0: 4cce 403e a205 c03d 14bd f83d da4c 19bb
000002c0: d097 3ebc 2fe9 b33d 6040 cf3d 554e 2e3d
000002d0: 2b2c de3d de45 cbbc 35af f3bd aa3d fa3a
000002e0: ff4b 87be bfeb 8c3e 1b8a 44be 3290 36be
000002f0: 48e2 b13e f55a ecbd 347a 4abe 147c f83d
00000300: a7f3 2b3e 1c90 53be a153 5fbc c2dd eabd
00000310: 1cc2 373e 5436 d63d b921 c6bc 5af9 10be
00000320: ed89 93be 7efd ecbd c15f 063e 85fd 223d
00000330: 2b72 cabd 4673 2cbd dd3e adbd 1ba0 61be
00000340: 3b2c 4dbd 025c cb3d 0c57 9d3d 5e9a 6bbd
00000350: aec3 413d 17b2 64be c442 71be 4d96 c0bc
00000360: 093a 623e a3d5 da3d e3f8 40bc 9910 4fbd
00000370: 12af edbd 6f4a 84be a9c7 cabd 77da c23d
00000380: 247d 6fbd 07f8 313e da7e 4fbe d3ad 85bc
00000390: 7daf 59bc 122e e5bd 9d1d 373b d49a 383d
000003a0: c701 64be 6179 ecbc eb1c 5b3d bb48 563e
000003b0: 0139 94bd 04f2 c23d 9cf7 5f3d 08af 963d
000003c0: 79b3 bb3d 6a70 26be be59 133e ea4e 0bbd
000003d0: b51d 96be 70de 0b3e e7ce bd3d ba91 8c3d
000003e0: 37a6 38be 835e d9bd 45e5 b8bd df8d fb3d
000003f0: aed9 0abe 4cd7 933d 936f 22be 4435 d7bd
-0.18456322 0.07711567 0.124258615 0.17003478 -0.17982385 -0.005544593 0.10447714 -0.08735554
0.013215439 -0.090217926 -0.043246623 0.18414044 0.0076636216 0.17962608 0.17645016 -0.14010192
-0.020320356 -0.039852593 0.014648545 -0.21151792 0.03171861 0.20164631 0.0017425098 -0.31279784
0.17715013 -0.025454506 -0.07072988 -0.18327194 -0.115737356 0.0036478422 -0.31878906 -0.0748577
-0.08677966 -0.099857405 0.13894348 -0.027710943 0.005459553 -0.058153167 0.23152977 0.033276334
0.08826517 -0.13320588 0.11759399 -0.06614062 -0.00777866 -0.09077278 0.011153966 -0.16172177
0.23689917 -0.09162157 -0.16620047 -0.06852092 0.09961645 -0.046741515 0.21586037 0.24848506
-0.114370726 -0.11954801 -0.07895617 0.07933773 0.0211896 -0.27412328 0.1506513 -0.059641715
-0.03152951 -0.14457026 -0.2193036 0.23370193 -0.15001939 -0.0540558 0.1753989 -0.07270412
0.08728847 -0.20602515 0.18020202 -0.15507127 -0.00888763 0.015988478 0.096217945 0.19414143
0.031385265 0.23329912 0.04501607 -0.11362762 0.061286606 -0.11121935 0.11843317 -0.1171931
-0.0109856045 -0.1580426 0.2875326 0.17634594 0.05761732 0.22765219 -0.26346928 -0.1771663
-0.030333536 -0.07001883 0.16644512 0.07780134 0.16911222 -0.07344337 -0.026498878 0.10694495
-0.07960651 -0.1090141 -0.17568748 0.062119283 0.15999937 -0.2260349 0.18973319 -0.19949946
-0.08858096 -0.018629005 -0.1183714 -0.20920752 0.21363097 -0.13453151 0.19310345 0.18147023
-0.10589732 -0.09925439 -0.1887334 -0.2052818 0.18884696 -0.008957455 0.28872535 0.0046658674
0.09685595 -0.09355894 0.26417068 -0.05234856 -0.263685 0.024118707 -0.00016003767 -0.2569586
0.1316357 0.030052267 -0.0055720247 0.091082916 0.17914818 -0.1837922 0.28309175 -0.124237515
-0.07990007 -0.28113487 0.022221705 -0.06725841 -0.008158337 -0.21406922 -0.11136156 -0.0032553992
-0.022141902 -0.16762614 -0.106837824 0.24270312 -0.029269543 -0.12454026 0.31435436 0.23355849
-0.19151653 -0.15192519 0.18423577 0.31573227 -0.101145044 -0.08549338 0.026734782 0.03882862
-0.17457558 0.002479422 0.22327265 0.19190216 0.18828696 0.093760744 0.12145439 -0.0023391754
-0.011632875 0.087847106 0.101197004 0.042555172 0.10848268 -0.024813589 -0.118986525 0.0019091864
-0.26425168 0.2752361 -0.19193308 -0.17828444 0.3474295 -0.11540786 -0.1977318 0.12133041
0.16792165 -0.20660442 -0.0136307785 -0.11468078 0.1794514 0.10459581 -0.024186002 -0.1415762
-0.28816167 -0.11571787 0.13122465 0.039792556 -0.09885057 -0.04210212 -0.08459256 -0.22033732
-0.05009101 0.099296585 0.076826185 -0.057520263 0.047305755 -0.22333561 -0.23560625 -0.023509169
0.22092451 0.10685279 -0.011778089 -0.050552938 -0.11605658 -0.25838038 -0.099013634 0.09514325
-0.058468953 0.17379771 -0.20263234 -0.016318237 -0.013286469 -0.11190428 0.0027941235 0.04506953
-0.22266303 -0.028866472 0.053494375 0.20926182 -0.07237435 0.09518817 0.054679498 0.07357603
0.09165091 -0.1625382 0.14389703 -0.034010805 -0.2931954 0.13659072 0.09267979 0.06863733
-0.18032156 -0.1061373 -0.09028105 0.12282919 -0.135596 0.07218799 -0.15862875 -0.105082065

hiden_layers.0.bias f4 [64]
00000000: fb24 9b3d 2c30 c43d 6d7a 0bbe d27d 0ebd
00000010: 5808 f13d 4621 e73d 0bda f03d cada efbd
00000020: 88c5 9cbd fe55 b8bd 0335 1bbe dd38 c23d
00000030: 0476 3e3d 3d9a e8bd 4c1c c73d 6108 cabd
00000040: 49e4 0bbe 4579 9f3d 497a be3d e7a9 8b3d
00000050: 2c14 143d 474e 913d d0fd f3bc c151 c3bd
00000060: a20d 98bc 36c4 663d 3145 863d 0e1b ccbd
00000070: e953 ea3d fda8 033e d576 f43d 381a 58bd
00000080: ab01 383d bbc3 ddbd 0067 45bd 9b58 203b
00000090: becd 27bd 4370 de3d 7f5b 8a3d bc16 8ebc
000000a0: 1536 04be 91b2 9d3d e9b0 a0bd d76e 933b
000000b0: e8f5 d9bd e5aa 643c c74c debd e6a4 aebb
000000c0: 9151 773d 0e32 eb3c 930a 013e 975d d9bd
000000d0: a372 b53d ab97 bbbd fbdc b43d 354f 943d
000000e0: d1dd 6abd 1a00 293e 6d16 003d 9230 943d
000000f0: 0d2c fa3d 6e8e d43b 92ee 11bc ac9d e9bd
0.07575413 0.095795006 -0.1362092 -0.03478796 0.117691696 0.11285643 0.117603384 -0.117116526
-0.076548636 -0.09000777 -0.15156941 0.09483502 0.046499267 -0.113575436 0.09722194 -0.098648794
-0.13661303 0.07786802 0.09300668 0.06819516 0.03615205 0.07095008 -0.029784113 -0.09537078
-0.018561188 0.056339465 0.06556166 -0.09966098 0.11441786 0.12857433 0.11936728 -0.05275938
0.044923466 -0.10828348 -0.04819393 0.0024466875 -0.040967695 0.10861256 0.06755733 -0.017344825
-0.12911256 0.077000745 -0.07846243 0.004499297 -0.10642606 0.01395676 -0.10854488 -0.005329716
0.060380522 0.028710391 0.1260169 -0.10613554 0.08859756 -0.09159788 0.08831211 0.0724167
-0.057340447 0.16503945 0.031271387 0.072358266 0.12215433 0.0064867055 -0.008906977 -0.11407027

hiden_layers.1.weight f4 [64, 64]
00000000: 70eb b7bd 24ab b8bd 1b10 aabe fa9d 2b3e
00000010: 654e 0ebf cae2 903e 1976 61bc 5dc3 54be
00000020: 71bc d1bc cc0e ad3d e8e1 84bd baf5 7cbe
00000030: 7bc9 d73d 940c 99bd 6f39 92be dc58 4bbe
00000040: 398e 3bbd 659d 943e 3a57 84bc 1c7a 203e
00000050: 9b82 bb3e 9e89 a53c c77f 7f3e 238a a8bd
00000060: 7d8b 32be 8013 debe 796d e93d dabd 8c3e
00000070: 2486 18be ca0e a6be 49c4 95be 5557 153b
00000080: 6d95 dabe 2ea9 9d3e 5cd0 86be f43e 8ebe
00000090: 65e8 3fbe 5b0d b0bd 5f83 9bbd 6e5a 0b3e
000000a0: 7629 763e e4df 9b3e ef8a 83be d42b 9b3e
000000b0: bf39 ff3e ac01 11be 76f1 dd3e d740 35bd
000000c0: 3c05 483e df85 9cbe 4da7 9b3c 376d bd3e
000000d0: e44e 5abe 90c4 8f3e 25b8 dfbc 80c5 42be
000000e0: 0b6a f63d 9003 48be 3188 bdbe 1df6 443d
000000f0: dc97 193e 3ffa 43be 75fa c1bd 196c 8abe
00000100: 7594 783d 1edd 77bc 4c51 3cbe eefe c53d
00000110: b528 aebd 3465 d1bc a34a 77be 4a16 8abc
00000120: ac04 3a3e 5081 dfbd a528 593e 847d ca3d
00000130: f9f4 753d 3345 82bd 4d63 273e 4e4d 943d
00000140: 6fac 0d3e 053d afbd e83b 033e 3c85 be3d
00000150: a015 453d 752c 5e3e 2f23 55be f1de 973d
00000160: de90 053e 9f0e 793e 8c29 043e e060 84bd
00000170: 78e7 cbbd 0fe5 b23d d92b 0dbd 6c30 1a3e
00000180: cb19 363e cf07 153e caa8 50be 8b57 02be
00000190: 5bf8 95be 96b2 27bd ee87 e4bd 421b 55be
000001a0: c833 23be e6cb 80be fa0e 353b 47ac 1fbe
000001b0: 4e1a 353c f350 d5bc 7457 8cbd 1c91 c4be
000001c0: c01a 633e aac0 613d 873d 23be 956c 9c3b
000001d0: 63ae 1e3d d712 2abd abe9 0fbd bd40 69bd
000001e0: a1ef a4bc 774f 3b3e 4d66 59be 8e5c b93d
000001f0: a673 ee39 a4af 53bd d708 82bd 233c 5d3e
00000200: e92b 4c3d 41ea 873e d858 1dbb e009 c83d
00000210: d376 f33e cf80 733e b961 06be b37c 073e
00000220: 1430 fe3d e5e9 a7bd a015 83be c724 c13d
00000230: da5d 8b3d 5e2a 323c d5fc e03e 642b b53d
00000240: c2f3 15be c863 ccbd a5d3 c53d 7e44 55bd
00000250: cce3 603d 2fba 74be 0a3f aabe c9ad 38be
00000260: 2825 a1bd 5ffd 913e 1ba2 1bbe 757a 11be
00000270: a473 b83e 982f f03e 3645 ca3e bfef 823e
00000280: 1b44 803e 1c3f 51be 32f6 1ebd 8f41 23be
00000290: 542d 163e 55af c63c 9991 78bc f4a8 32be
000002a0: 21bc a3be d7d0 09be 79be 48be 879a c9bd
000002b0: 55f3 7ebe bb7f 013e de36 b6be 8e40 eb3d
000002c0: 124e 7cbd 5ccb 2e3e e3ca 213e 45a6 f6be
000002d0: 406c 063d 0f63 e9be 8da7 253e 058c 75bd
000002e0: 49af 19be cb43 b03e 7e1b 1ebd 5553 0abd
000002f0: dcf5 c63c 3e26 6f3e 619d 913d 3d01 8e3c
00000300: 208d 1d3e 5889 7bbc ae66 4ebe 19d2 ea3d
00000310: 14be 023f 9b99 63be a1b0 a2bd b900 46be
00000320: e48d 733b 30eb 6f3c c488 d1bd 0079 843e
00000330: 592a 823e b027 f03d 6023 f9bc a8f9 743d
00000340: 5cf1 66bd 510d 27be c4b2 883d 79e9 ac3d
00000350: b047 0fbd 293b 6abe e657 003e db2b e93d
00000360: 5b2f 1d3e 9db2 8e3d 3990 b1bd 47ed d2bc
00000370: a1fa c83e 76d5 993e 0156 0f3e f0f0 303e
00000380: e2bc 383e ebd8 b4bd 52b0 c6bd 26d2 a13d
00000390: 0677 803d 3aa8 333e 69bf ce3d 5bab 313e
000003a0: 6fe0 453d 2e91 8bb9 7a19 533e ae88 8e3d
000003b0: de02 01be f5ab c5bd eec6 64be 3302 14be
000003c0: 28ca cabb 5bc4 9a3d 8ec5 0fbd c11c 9a3d
000003d0: 6703 0d3e 469e 33bd 1d99 7cbe 2075 99bd
000003e0: fa3b e3bd 5b87 acbd fff3 213e 0b3b 17bd
000003f0: 8ec3 ecbd 50bb 493e f8d3 1d3d 03b1 65be
-0.08980453 -0.090170175 -0.33215412 0.16759482 -0.5558837 0.28298026 -0.013761067 -0.2077765
-0.025602551 0.08450088 -0.06488401 -0.24703112 0.10536476 -0.07473102 -0.28559443 -0.19858116
-0.04578993 0.29026332 -0.016154874 0.15671581 0.36623082 0.020207223 0.24951087 -0.082294725
-0.17436023 -0.43374252 0.113978334 0.27488595 -0.1489492 -0.32433158 -0.29251316 0.002278765
-0.42692128 0.30793136 -0.2633084 -0.27782404 -0.18740995 -0.08596297 -0.075934164 0.13608715
0.24039254 0.30444252 -0.25691935 0.30306876 0.49848744 -0.14160794 0.43348283 -0.04425129
0.19533247 -0.30570886 0.019000674 0.36997387 -0.21319157 0.28079653 -0.027309487 -0.19020653
0.12031945 -0.19532609 -0.37017968 0.048086274 0.14999336 -0.1913843 -0.09471599 -0.27035597
0.060688455 -0.015128402 -0.18390387 0.096677646 -0.08503858 -0.025560953 -0.24149565 -0.016856331
0.18165845 -0.10913336 0.21206911 0.098872215 0.060048077 -0.06360855 0.16346474 0.07241307
0.1383531 -0.085565604 0.12815821 0.09302756 0.048116326 0.21696647 -0.20814203 0.074155696
0.13043544 0.24321984 0.12906474 -0.0646379 -0.099562585 0.08735096 -0.034465645 0.15057534
0.17783277 0.1455376 -0.20376888 -0.12728707 -0.29291043 -0.040941797 -0.11158739 -0.2081118
-0.15937722 -0.25155562 0.0027627335 -0.15593062 0.011053635 -0.026039576 -0.06852618 -0.3839196
0.22178173 0.05511538 -0.1594144 0.004773686 0.038740527 -0.041521873 -0.035134953 -0.056946505
-0.020133795 0.18292032 -0.21230431 0.090508565 0.00045481062 -0.051681176 -0.06349342 0.21604972
0.049846563 0.2654591 -0.0024009254 0.097675085 0.47551593 0.23779605 -0.13123216 0.13231163
0.12411514 -0.08198909 -0.25602436 0.09430843 0.0680501 0.010874359 0.43942896 0.08846167
-0.14643767 -0.09979969 0.096595086 -0.052067272 0.054904744 -0.23899148 -0.3325122 -0.18035044
-0.07868415 0.2851362 -0.15198557 -0.1420687 0.36025727 0.4691131 0.3950593 0.25573537
0.2505196 -0.2043423 -0.03880901 -0.15942977 0.14665729 0.024253527 -0.015171432 -0.17447263
-0.31979468 -0.13458572 -0.1960391 -0.09843927 -0.24897511 0.12646382 -0.35588735 0.11486922
-0.06159789 0.17069763 0.15800051 -0.4817373 0.03281808 -0.45583388 0.16177197 -0.059947986
-0.15008272 0.34426722 -0.038600437 -0.033770878 0.024287157 0.23354432 0.07110096 0.017334575
0.15385866 -0.0153525695 -0.20156357 0.11465854 0.51071286 -0.22226565 -0.079438455 -0.19336213
0.003716343 0.014643475 -0.10231164 0.25873566 0.25422934 0.1172632 -0.030412376 0.059808403
-0.056382522 -0.16313674 0.06674722 0.08442969 -0.034980476 -0.2287413 0.1253353 0.11385318
0.15350096 0.069676615 -0.086700864 -0.025747908 0.39253715 0.3004567 0.13997652 0.1727941
0.18040803 -0.08830436 -0.09701599 0.07901411 0.06272702 0.17544642 0.10095102 0.17350523
0.04830974 -0.00026620313 0.20615187 0.06959663 -0.1259875 -0.09651939 -0.2234151 -0.14453964
-0.0061886497 0.07556983 -0.035100512 0.075250156 0.13770829 -0.043852113 -0.24667783 -0.07493043
-0.11095424 -0.084242545 0.15815733 -0.036921542 -0.115607366 0.1970036 0.038532227 -0.22430806

hiden_layers.1.bias f4 [64]
00000000: e2fb 6bbd 6377 ce3c d737 593e 060b 103d
00000010: cf15 9d3d 059a 9e3d 1653 64bd e47f 163e
00000020: 3701 193e bebc bcbc 1605 24bd df4c c3bd
00000030: 4010 473d af83 c13d 75f8 2a3e 1b4c a8bd
00000040: 1b5d fbbc ef20 93bd 5a86 2c3d 2a96 82bc
00000050: dfe5 b43d 7ae9 7ebd d2de b8bd b16e 833d
00000060: 5924 643d 42e9 583d c05b d03d 2b3e ae3c
00000070: bb2b a7bd 83fe 61bd 6706 9e3d c43e 0f3d
00000080: 909f abbd 8bea d13d 450e 0bbe 81ba 17bd
00000090: 5e11 94bd 1b28 5b3d 97b2 90bd 27dd 173e
000000a0: 63d1 a23d ff53 aabd 8667 e33c e192 c73d
000000b0: 5705 b3bc 57df 6d3d 7564 aabd 98ed ce3d
000000c0: f12b 3ebe b857 473d 5a60 b33d a352 853d
000000d0: 0256 67bd e2da 133b 69f9 8bbd 0afa 4ebe
000000e0: 9bd3 963d ba9e 13bd eccd 69bd 29f0 11bd
000000f0: 744f 38bd d736 c0bc 4c3c ac3d 2bf6 1dbd
-0.05761326 0.025203412 0.21212707 0.035166763 0.07670175 0.07744221 -0.0557433 0.14697224
0.1494187 -0.023039218 -0.040043913 -0.095361464 0.04859948 0.09448945 0.16696341 -0.08217641
-0.030684045 -0.07184016 0.042120315 -0.015940744 0.08832907 -0.06223438 -0.090268746 0.06417597
0.055698726 0.052956827 0.1017375 0.021269878 -0.08162638 -0.055174362 0.07716065 0.034971967
-0.083800435 0.10249814 -0.13579662 -0.0370431 -0.07229875 0.053505044 -0.07065313 0.14830457
0.079500936 -0.08316802 0.027759325 0.09744812 -0.021853132 0.05807432 -0.08319942 0.10103911
-0.1857145 0.04866764 0.08758612 0.06509902 -0.056478508 0.0022560884 -0.068346806 -0.2021257
0.07364579 -0.036040045 -0.057081148 -0.035629425 -0.044997647 -0.02346365 0.08409938 -0.038564842

hiden_layers.2.weight f4 [64, 64]
00000000: 18e8 23be 5c4c 403e 92eb de3c 33df 383c
00000010: 3a22 28bd 1a20 e8bd 2196 8dbe a1f9 8abe
00000020: dd96 cfbe d9f6 93bd f5e8 d53c 667d c9bd
00000030: 7897 44bd 800e c23d 28fa 81bd 4140 523e
00000040: f4a7 313e 7dd1 afbc bc8d 74bc 1a4b 7cbe
00000050: d111 373e bb25 253e 48ab 88be cc2a b33e
00000060: e4db 2ebc d547 65be 5ef7 39be 29ba 253d
00000070: 20fc a13b d703 febd 65da 3a3e 5020 b0bc
00000080: 0c83 41be 8cfd 973d cb95 63be 1d30 76be
00000090: 5c42 893e 1877 093e e0a1 cdba 7647 5c3d
000000a0: 3bdc bebd 6ca6 553e c9bb 0bbd 26b2 423e
000000b0: e4b5 103e 3a77 413b bdb1 dc3d 9702 2f3e
000000c0: 8ce1 1e3e 0874 fd3d 4be9 1fbe f146 49be
000000d0: 2591 1fbe e167 a03d 52eb e23d 46d6 6b3e
000000e0: 76aa 2abd 790e 8c3d d275 533e 349e d13c
000000f0: d560 07be d428 563d 6f8c f03d 17fb 023e
00000100: e254 143d 4b8b ab3d 4f23 943e 9ce8 403e
00000110: d6ea 123e c02a 873e a0b3 073e 247e 843e
00000120: 551d ef3d 727e eb3d 98cf 4f3e 163c 9c3d
00000130: e67f 80bd ceda 95bd 326e f6bc 79fc 0f3e
00000140: e944 be3d 6664 2cbe 54e9 18be 0b4d 93be
00000150: 95c5 033d b786 32be d92c 09be 7805 efbb
00000160: 8607 6d3d b05c 353e 5546 733e 6ae6 ee3d
00000170: 8bdf 83be 0e1e 453e 55c0 21bd 5521 29be
00000180: 4c07 04bd 0a09 413e eddb 5fbd 69b8 b03d
00000190: 5f4a 223e bb34 5a3e 68ac e63d 7f5e a0bd
000001a0: 46f4 723d 6c20 f8be a3f2 a5bd e4f8 e13c
000001b0: 0fbe 1e3e 71b7 eb3c 4c9f 9fbe 365a 533e
000001c0: a110 92be 19f2 d83d 4761 5bbd dd08 38be
000001d0: 4f85 85be 11ef 3b3d 89db b0bd dec3 f2bd
000001e0: 8b9f b53e eb1e 55be 6693 81be 6978 ab3e
000001f0: d732 55bd 6bbb 503e 7079 7c3e 2c52 26be
00000200: c7f5 723e e062 5bbe 3a6f acbe 9925 08be
00000210: fbcf bc3d ea35 c43d 6fd6 393e c054 0ebd
00000220: b316 37be d2a7 b23e cb43 ef3c 9c10 693e
00000230: bd8d 183e 59f4 073e 4789 42be b1f5 543e
00000240: f86e 893c 01be 40bd cf15 843d 4c50 83be
00000250: d35c 59be b9ac 813d 1036 583e 2823 e1bd
00000260: 76a5 12be 7fdf 8ebe a58d acbd cde0 5abd
00000270: fb3f 603e afb0 4b3d 0eed ac3d d906 493e
00000280: 2a8b ab3b f9fe 3ebe f0b3 393d ca77 31bd
00000290: d9a2 9d3e a4fe 95bd 38e5 3dbe 2404 3e3d
000002a0: df3b 0d3e 95dd 8f3e edb4 20be d5fa 6abd
000002b0: e863 353e 0265 f6bc e52e bd3d 6630 82bc
000002c0: 21f5 113f de9e a53d 2f92 93be 7e78 683e
000002d0: 3952 4abe bd3b 693e 1b7c 453e 7442 63bb
000002e0: e956 57be 60c6 fa3d 0393 19be 3521 9abd
000002f0: 7bb5 b7bc c24f 6d3e 776a d3ba 9628 1c3e
00000300: c910 d83d dd0f 5abe a51a 54be 022b 433e
00000310: 45ff 8fbe eec5 42bd 2da0 873d 288d 6cbe
00000320: b50b 92bc 4064 823e d2d1 803e 3aaa 5abe
00000330: fa99 253e 8569 d23b 8e49 21be 853b 853d
00000340: fddf 27bc 245f 49be 044e 80be 294d 06bc
00000350: 29b1 8fbe 9ebc b3bd 3b73 083e 9e60 c5bd
00000360: 42d5 12bd acbc c4bd c1d3 a63d 23d1 cf3d
00000370: 15be a0bd b5c9 623e 4ec2 3b3d 666a 63be
00000380: 87a6 32be b478 4bbe 27dc aa3e 55d1 393e
00000390: 0767 b9bd 2e45 3e3e 1e7e 243d a293 02be
000003a0: 6346 243e 4330 eabd 66f3 283d 693c ac3d
000003b0: 7387 c23d 63e9 39be 4dc5 053c 70bb 9cbd
000003c0: 0e4d e73d 8492 e23c 615b 093e c60e 5ebe
000003d0: 50a5 8ebb 8228 edbd b988 e63d 2fdb 51bd
000003e0: ec06 283e 139f b7bc 21b2 86bd 1016 a03e
000003f0: 748c af3d 636f b0bd 91e3 553e 0321 07bd
-0.16006505 0.18779129 0.027211938 0.011283684 -0.041048266 -0.11334248 -0.27653602 -0.27143577
-0.40544787 -0.07224817 0.02611206 -0.09838371 -0.047996014 0.09475422 -0.06346542 0.20532323
0.17349225 -0.021462196 -0.01492637 -0.24638024 0.1787789 0.16127674 -0.26693177 0.3499359
-0.010672543 -0.22390683 -0.1816077 0.04046074 0.0049433857 -0.12403076 0.18247373 -0.021499783
-0.18897647 0.07421407 -0.2222511 -0.24041791 0.2680844 0.13424337 -0.0015688501 0.053779088
-0.093193494 0.20864266 -0.034114633 0.1901327 0.14131886 0.0029520527 0.107760884 0.17090832
0.15515727 0.12375647 -0.15616338 -0.19655968 -0.15582712 0.07832313 0.1108004 0.23030958
-0.04166647 0.06838698 0.20650414 0.025588132 -0.13220532 0.05228503 0.117455356 0.12791096
0.036213763 0.083761774 0.28933188 0.18838733 0.14347395 0.26399803 0.13252115 0.25877488
0.116755165 0.11498727 0.20294034 0.07628648 -0.06274395 -0.07317124 -0.030081842 0.14061154
0.09290487 -0.16835174 -0.14932758 -0.28769717 0.03217085 -0.17434202 -0.13396014 -0.007294353
0.057868503 0.17711139 0.23757298 0.11665042 -0.25756487 0.19249746 -0.039490063 -0.16516621
-0.03223352 0.18851104 -0.054653097 0.086289234 0.15848683 0.21309178 0.11263353 -0.07830524
0.05931499 -0.48462236 -0.0810292 0.0275845 0.15502189 0.028773995 -0.3117622 0.20639881
-0.28528312 0.105930515 -0.053559568 -0.17972131 -0.2607827 0.04588229 -0.08635623 -0.11853765
0.35473284 -0.20812576 -0.2530777 0.33490303 -0.052050438 0.20383994 0.246557 -0.16242284
0.23726569 -0.21424437 -0.3367861 -0.13295592 0.092193566 0.09580596 0.18148206 -0.034748793
-0.17879753 0.34893662 0.02920713 0.22760242 0.14897819 0.13276805 -0.1899768 0.20796849
0.016776547 -0.0470562 0.06449472 -0.256472 -0.21226816 0.06331772 0.21114373 -0.10993034
-0.14320931 -0.2790489 -0.08425454 -0.053437043 0.21899407 0.049729045 0.08443652 0.19631518
0.0052350955 -0.18651952 0.045337617 -0.04332713 0.30788305 -0.073239595 -0.18544471 0.046390668
0.1379237 0.2809874 -0.15694018 -0.05736812 0.17713892 -0.030077461 0.0923746 -0.015892219
0.5701466 0.08086942 -0.28822467 0.22702214 -0.19757928 0.22776695 0.19285624 -0.003467706
-0.21029247 0.12244868 -0.14997487 -0.07525865 -0.022425404 0.23174956 -0.0016129751 0.15249857
0.105500765 -0.21295114 -0.20713289 0.19059375 -0.28124443 -0.04755204 0.06622348 -0.23100722
-0.017827848 0.2546711 0.2516008 -0.21353999 0.16172019 0.0064212703 -0.15750715 0.06505493
-0.010246274 -0.196652 -0.2505952 -0.008197107 -0.2806485 -0.0877621 0.13325207 -0.09637569
-0.03584791 -0.09606299 0.081458576 0.101473115 -0.07848755 0.22147258 0.0458396 -0.22208557
-0.17446338 -0.19870263 0.33371088 0.1814626 -0.09052854 0.18581077 0.040159337 -0.1275163
0.16042475 -0.114349864 0.041247748 0.0840996 0.09498491 -0.18155436 0.008164716 -0.07652938
0.11293994 0.027657755 0.13413765 -0.21685323 -0.004353203 -0.11579992 0.112565465 -0.05123442
0.1640889 -0.02241472 -0.06576944 0.31266832 0.08571711 -0.08614995 0.20887591 -0.032990467

hiden_layers.2.bias f4 [64]
00000000: d6a8 cf3b 1c8a 36bd 1948 af3c 89bf cbbc
00000010: 7704 08bd 5094 b6bb 9908 f1bc 6817 1d3d
00000020: a5c6 1cbc 47a0 ce3c df0c 303d aeeb 35bd
00000030: dd07 15bd c489 eebc 7937 a03d e6a9 783d
00000040: c7a8 4d3d c463 f0bd 6270 8d3d d5ea 473d
00000050: 0228 173e cb50 f3bc 5bfc d63c 63d9 aa3d
00000060: a0c1 e13c 9d5d 18be fd08 343d 94be 0fbe
00000070: 05f1 683d 6ae6 653c 4731 b63d dd78 82bc
00000080: 75ad 6fbd 2e01 89bc 6c7b a6bc aa8f 863d
00000090: f76f cebb 7623 f83c ea52 e7ba 8a8c 213d
000000a0: 14f9 5d3c 6e97 a5bd 6e38 92bd 95f2 613d
000000b0: 4798 063e 4230 4a3c 47bc d5bc 1b1c 883d
000000c0: b593 b03d 9a5e 08bd ebbb 233d b1c3 3dbe
000000d0: 1949 3d3c f7c1 a3bc 5f14 aebc 1398 8ebd
000000e0: a7e2 fcbd 5d5e 6e3d 1f99 b8ba f6a9 bebd
000000f0: 5356 eebd e746 973d ba18 b83d 9524 d03d
0.0063372655 -0.044565305 0.021396684 -0.024871605 -0.033207383 -0.0055718794 -0.029423045 0.0383524
-0.009568845 0.02522291 0.042981025 -0.044414215 -0.036384452 -0.029118426 0.078230806 0.060708903
0.050209787 -0.11737779 0.06906201 0.048807938 0.14761356 -0.029701611 0.02624338 0.083422445
0.027558148 -0.1487946 0.043953884 -0.14037544 0.05687048 0.014031986 0.08896118 -0.015926773
-0.05851503 -0.016724195 -0.020322524 0.065703705 -0.0062999683 0.030290347 -0.0017648612 0.03944067
0.013548154 -0.080855235 -0.07139669 0.055162985 0.13144027 0.012340607 -0.026090754 0.06645986
0.08621923 -0.033293344 0.039974134 -0.18531682 0.011553072 -0.01998995 -0.021249948 -0.069625996
-0.12347918 0.05819546 -0.001408372 -0.09309761 -0.11637559 0.073865704 0.08989091 0.101632275

hiden_layers.3.weight f4 [64, 64]
00000000: e308 10be aa79 763e 3ffc 983e 7be7 fd3a
00000010: 9336 3cbd 8643 1f3d dc57 40bd 2372 95be
00000020: 503a 49bc dff4 4c3b 025c 053e 699e cabd
00000030: c78d 933e 2700 5cbe 2cfc 923e 446d 37bc
00000040: a3bc c2bd 0825 84be ed6d 55bd 272d b7bd
00000050: 694a ae3e 3f98 76be 0cec 773e eded 793e
00000060: 4bb9 803e b12b 1d3d f5b1 d8bc b15b 8cbd
00000070: 95f9 cd3d 3abd 603e db79 fb3d 3583 473e
00000080: c5f5 a73d 4e11 9e3c 7c0f 00be 5494 193e
00000090: 8c60 2a3d 0654 893d a448 eabd 2c71 cbbd
000000a0: 8799 723d 45a9 34be f300 57be 7d9e 55be
000000b0: ec04 cc3d d20e 883e c069 273d 086f c4bc
000000c0: 465a 413e 8b9c 81be 050e a8bd 2b26 0cbf
000000d0: 4202 af3d 3d89 753e fbb0 2f3e edc4 9bbd
000000e0: 25b8 0a3e 15db d63d 4a67 1abe 65d8 04bc
000000f0: 8ee3 35bd 2bc9 483e ff7c f1bd b371 4f3e
00000100: 9670 34be 8717 0fbd 00ae 23be 29b0 083e
00000110: e49a 713e 5d17 9d3e 6915 83be 778a 033e
00000120: c1b4 88be 9671 aebc 6060 2d3e 30a5 9a3d
00000130: f5e3 c13d 5502 53bd e256 b0bd d8c9 4d3e
00000140: 1c3d 4e3e f844 cabc 85cb 243e ed35 363e
00000150: a6b2 513e 77d3 cebd 36e9 d5bd 198c 1a3d
00000160: ff33 08be 72d9 843c d1ec 863d 6b94 09be
00000170: 7052 8d3e 7771 93bd f436 c3be 2d3e 26bc
00000180: 8dfa 103e 31f3 0ebd 76a2 da3d ced5 0c3e
00000190: 085e 01be 74d9 81be 3bdb 9ebd acde ee3d
000001a0: 857b acbb 74f9 c7bd 29a4 793d 3186 c13e
000001b0: de8f 633e db23 713d c232 823e bf54 c73c
000001c0: 57c9 3d3e c9c9 2fbe a920 65be ca09 cd3e
000001d0: a1e2 8d3e 73d5 cabd bf62 b8bd 2be2 183e
000001e0: ff41 813e 654c 5ebe ae11 a83d 74e9 853e
000001f0: 6666 fa3d e507 d23d e64f f23c bdf9 493e
00000200: f05c d23c 6db4 3d3e b4e3 9fbe 3d2d f1bd
00000210: 1f22 b7bd 5154 593e 1eff bc3d 1d35 ebbd
00000220: 8408 023e 84af 84bd 9906 9ebd 1947 3b3e
00000230: 6e83 36be ed86 e7bc 810e b33d 2304 a9bc
00000240: 2ae0 153c b7b6 2a3e 143f 20bd 5869 5dbe
00000250: 037f 5dbd 5dea 2d3d 377b 42be 2b1c 65bc
00000260: 618b 2dbe c436 8fbd 04bf 8ebe 27d3 c83d
00000270: 5349 313e 4513 a0be 3744 c2bd 7855 5dbe
00000280: 3a3b 66be b37d 4dbb 59ea 5a3e 7bbf 293d
00000290: 7321 b0bd b892 d2bd 972b 6b3e 7b14 b83c
000002a0: 74bd 963d 6eda ffbd 2439 85bd abe7 6e3d
000002b0: ab3e 8b3d 144b 53be 3a9a 1d3e 08a9 4cbe
000002c0: 1925 70bd 0cdf 24be 3c2e 753e ff5c 353e
000002d0: fbb5 f33d fb07 01be 6503 57be 7bbe 8cbe
000002e0: 64d8 4dbe dcb7 2ebe 1970 ac3d e767 813e
000002f0: 6241 503e 399c adbc 6e81 193e 75cd 073c
00000300: 18f0 c23c 1ca2 21be 7b98 313e b049 12be
00000310: 91c7 d9be b920 c2bd 67f3 713d 68fc 70be
00000320: 9578 183e 95d3 c8be 0de3 8dbe e9a6 46be
00000330: d7e9 35be 0b6b 0abe 47d6 dfbd 36f6 6ebc
00000340: bd06 63bd fd58 cd3c c6f0 04bd 1173 4b3e
00000350: 99fa 6b3e 20cb f1bc b081 dcbd 1c49 ea3d
00000360: 2c39 2b3e 6bce 073e 8ee4 073e 2d7d 963d
00000370: 95c3 71bd cd6d 4abe 79e3 e3bd e7a2 a53d
00000380: dddd 293e 3089 e83d 9d55 083e c156 f4bd
00000390: 1f75 86be 7624 48bd 607f 98be ae7a f3bc
000003a0: 9d02 f63d fdb9 e6be bdc1 52be a4e2 093e
000003b0: d368 013e a873 d1bd 7a75 143e 78c1 4f3e
000003c0: 8add a3bd a42b 3c3e ae4a d1bb 0647 00bf
000003d0: 5a1b 96ba 6afe 963e 1681 c53d ad0e 9a3e
000003e0: 9a2b 003f 7fe0 f83d 856e 513e a685 32be
000003f0: 7988 a4bd e9e2 4fbe dd6d 6fbe 0043 263c
-0.1406589 0.24069849 0.29879948 0.0019371355 -0.045950484 0.038882755 -0.04695879 -0.29188642
-0.012281969 0.0031273884 0.1302338 -0.098934956 0.28819105 -0.21484433 0.28708017 -0.011195485
-0.09508636 -0.25809503 -0.052106787 -0.08944159 0.34041145 -0.24081515 0.24211138 0.24407168
0.25141367 0.038371745 -0.026452044 -0.06853426 0.100573696 0.21947184 0.122791015 0.19483645
0.08201174 0.01929536 -0.12505907 0.14997989 0.04159598 0.06705479 -0.11439636 -0.09933695
0.059228446 -0.17642696 -0.20996456 -0.2086124 0.09961876 0.26573807 0.040872335 -0.023978725
0.18882093 -0.25314745 -0.08205799 -0.5474574 0.085453525 0.23978133 0.17157356 -0.0760592
0.13546808 0.10491005 -0.15078464 -0.008108233 -0.044406466 0.1960799 -0.11791419 0.20258217
-0.17621073 -0.034934547 -0.15984344 0.1334845 0.23594242 0.30681887 -0.25602272 0.12845789
-0.26700404 -0.021294396 0.16931295 0.07551038 0.094673075 -0.051515896 -0.086103216 0.20096529
0.20140499 -0.02469109 0.16093262 0.17794009 0.20478305 -0.100989275 -0.10444872 0.037731264
-0.13301085 0.016216967 0.06588138 -0.13435523 0.27601957 -0.07199376 -0.38127863 -0.01014666
0.14158078 -0.034899894 0.10675518 0.13753435 -0.12633526 -0.25361216 -0.07756659 0.11663565
-0.005263748 -0.09764376 0.06094757 0.37797692 0.2222285 0.058872085 0.2542935 0.024332402
0.18533836 -0.17166819 -0.2237574 0.4004653 0.27711967 -0.099039935 -0.09003209 0.14930026
0.25245664 -0.2170883 0.08206497 0.26154673 0.12226562 0.10255412 0.029579114 0.19724174
0.025679082 0.18525858 -0.3122841 -0.11776207 -0.08942055 0.2122357 0.09228347 -0.1148474
0.12698561 -0.064787894 -0.07716102 0.1828884 -0.17823574 -0.02826258 0.08743001 -0.020631855
0.009147683 0.16671263 -0.039122656 -0.21622217 -0.054076206 0.042459834 -0.18992315 -0.013983767
-0.169477 -0.069928676 -0.27880108 0.09805899 0.17313127 -0.312647 -0.09485667 -0.21614635
-0.2248353 -0.003135544 0.21378459 0.041442376 -0.0860013 -0.10281891 0.22965847 0.022470703
0.07360354 -0.12492834 -0.06505039 0.058326405 0.06799062 -0.20634109 0.15390864 -0.19986355
-0.05862913 -0.1610071 0.23943418 0.17711256 0.118999444 -0.126007 -0.20997389 -0.27489075
-0.20102078 -0.17062324 0.084198184 0.25274584 0.20337442 -0.021192657 0.1499078 0.008288731
0.023796126 -0.15784496 0.17343323 -0.14285922 -0.4253507 -0.094788976 0.059070017 -0.23533785
0.14889748 -0.39223924 -0.27712288 -0.19399609 -0.17764984 -0.13517396 -0.10929542 -0.014585068
-0.055426348 0.025066847 -0.032456182 0.19868113 0.23044814 -0.029515803 -0.107669234 0.11439726
0.16721028 0.13262336 0.1327078 0.07348094 -0.059024412 -0.19768448 -0.11127371 0.08087712
0.1658854 0.113542914 0.13313909 -0.119306095 -0.2626123 -0.048862897 -0.2978468 -0.029721584
0.12012217 -0.45063773 -0.20581718 0.13465363 0.12637644 -0.10227138 0.14497939 0.20288646
-0.080012396 0.18376023 -0.0063870763 -0.50108373 -0.0011452243 0.29490978 0.09643762 0.30089322
0.5006653 0.12152194 0.20452316 -0.17433795 -0.080338426 -0.20301403 -0.23381753 0.01014781

hiden_layers.3.bias f4 [64]
00000000: 8d0e 8d3d d8dc ecbd c680 193e 57ba 003e
00000010: 3c96 87be 4b2c 863d 23e8 2abd b9d0 0fbe
00000020: d4dc b03e 81fe 37bb 8343 753d 44dd f23c
00000030: ccf9 84bd 9b7d ab3b f612 d03d bb06 a5be
00000040: 6ad9 72bc 84c6 54be 04ab 6fbc 6c69 8ebc
00000050: c665 d0bb 7e31 6c3d ac33 87be 6873 853c
00000060: d4e2 9b3d 11ed 0c3e 0080 3fbe 2292 b0bc
00000070: 10a1 983d 8615 b43d 26ad 1d3b bb8e 98bd
00000080: 4ceb ce3d 2ab1 c8bd 3dad a8bc 3304 9d3d
00000090: ab3b a33d 12df 643e d8fd b6bc 77c6 82bd
000000a0: 573f 103e 572e 04be 9368 813d 11e6 dabd
000000b0: 7da6 41bb bb11 30bd 47ce 3a3e 3d8f 5e3e
000000c0: b133 a0bd 5644 eebc 06d1 56be f323 03be
000000d0: 08f7 063e 6ca9 d33e 2066 3bbe d333 94bd
000000e0: 14be 283e 2504 173e 655c 7a3d 4440 abbc
000000f0: 07c5 0ebe e85a 933e 2e96 21be 1303 783c
0.06887541 -0.1156556 0.1499053 0.12571083 -0.26481807 0.06551417 -0.04172529 -0.14044465
0.34543478 -0.002807528 0.059878837 0.029646523 -0.064929575 0.005233479 0.101598665 -0.32231697
-0.014822343 -0.20778853 -0.014628176 -0.017384253 -0.0063597886 0.057664387 -0.2640661 0.016290382
0.076116234 0.13762309 -0.18701172 -0.021554057 0.07452595 0.08793168 0.0024059503 -0.07449099
0.10103473 -0.09799416 -0.020590419 0.076668166 0.07970365 0.2235072 -0.022337839 -0.063855104
0.14086662 -0.12908302 0.06318774 -0.10688413 -0.0029548698 -0.04298566 0.18242751 0.21734329
-0.07822359 -0.02908532 -0.20978174 -0.12806682 0.13180172 0.41340196 -0.18300676 -0.07236447
0.16478759 0.14747675 0.06112327 -0.020904668 -0.13942347 0.28780293 -0.15779945 0.015137452

hiden_layers.4.weight f4 [64, 64]
00000000: eecc 95bd c27a 2d3e 455a bbbc 246c 4dbe
00000010: 5e73 b53d a014 3ebc d9ae 703d 2490 fd3d
00000020: 702d 0cbf 1933 ca3b c8b9 88bc bd9e 093e
00000030: 0da3 8fbc 5850 23be 4b35 53be e9eb 8c3d
00000040: 7e26 15be 315b 943c a2e9 343e ffe7 383e
00000050: e8f7 77be 8e39 ac3d a6c2 ecbc d356 1fbd
00000060: 9b2b 933d cc72 fabd 2e7a 313e ec74 9c3d
00000070: b807 b5be da5c 45be 4c79 6fbe 161e e4bd
00000080: 310c 773e e9b0 b33d d896 dd3d 5001 09be
00000090: 92b8 a73d ca75 5fbc 3e4a cf3c f9dd 95bb
000000a0: 639a 86be b260 863c 0a2b 6d3e ba0b 3a3e
000000b0: a76e 98bd 9c0b 213e db47 d23d d251 6ebe
000000c0: 4266 66be a001 34be 8236 5a3b 3204 0a3e
000000d0: a6de 41be 299a cc3d fb25 733e 12d9 623b
000000e0: 7f31 f63d 6194 773d 1313 07be 5037 21be
000000f0: a1a7 a33e 95d5 a1be 2d9d 9dbc 3d79 d6bd
00000100: c1e5 db3d 8e60 09be 799d 9ebe 8e2c 3c3e
00000110: 3a6d c5bd f357 10be 7788 d0bb 8b8d 80bd
00000120: 46a3 e9be 6768 edbc 27d6 b2bd df9e 343e
00000130: f86b 9d3e 839d 8a3d 3889 0fbe 4d51 663e
00000140: 6147 bdbe cfb8 853d e90a dd3d c074 dd3d
00000150: f27e 9d3e 17fc 453e 9ef9 273e 864b 983e
00000160: b803 213d 281a 48be 4f1c d5be 828f 843d
00000170: e2de 92bd bc27 2e3b 344b d0be 1a7c 2bbe
00000180: 4c45 933e 2b14 243d e9b9 843c 75cc 89bc
00000190: 2323 17be de16 253e 3716 e53d 8e97 ecbd
000001a0: 55f9 233e e726 3ebe fdb2 7d3e 0352 4c3e
000001b0: 7cf8 25be 1ab5 9e3e c0f6 963d c27e 42bc
000001c0: 57da aebe c0c1 c4bd 3727 15be 2e7b 093e
000001d0: a563 103e 8235 83be 81ec 883e 247b e03d
000001e0: b235 e03d 7aae 45be 6449 113e 2e5a 5a3d
000001f0: 75bb b93e 26a8 103e 6820 5f3c 3853 de3d
00000200: 1d1c 31be 4e82 b1be 832e 36be 908b 83be
00000210: 5980 fcbd 2888 95bd 6e74 0f3e 8ca6 f3bb
00000220: 29b8 18bd 640d 22be 9c22 81bd 1b4d 15be
00000230: db7b 18bd 2579 8c3e 131a c23e 79ab 92bc
00000240: 35a8 d93d 407e 9abc afe7 a5bd a13b 9f3c
00000250: 0ee4 acbe 0b64 60be b0fa 41bd 042b e0bb
00000260: e726 7bbe 2d32 52be 92ee 97bd 85a9 683e
00000270: 2038 28be 2327 113e 1557 06be f64c 543e
00000280: 92f9 bdbc 1177 66be 5309 54be 716f 413d
00000290: 9071 b7bb a006 8f3d 697c 93be a37a 923e
000002a0: 980d 2f3e 68b8 073e a56f ccbe 05c6 a5bd
000002b0: 37ba a3bd a63f 2c3c 6e9e 9b3d face ff3d
000002c0: 145d 853e afc2 c0bd b8a2 453e f97f 37be
000002d0: 7dcf 0fbe 3556 c53d f310 80bd 930d afbc
000002e0: 5674 44be 8b40 18bb 8954 f13d 5b4f 3a3e
000002f0: dd13 77be 534b 2cbd c389 403e 6405 6d3e
00000300: 0ec6 373e cdf9 91be 4212 f7bd c143 503e
00000310: 4901 703e f568 be3d 0237 ad3e 885b eabd
00000320: 17b1 ee3d fef4 003e b13a 1eba 5c74 babd
00000330: 1abc d53d 280c f6bd 9a07 013d 197d 0d3e
00000340: 8a7c 1abe 3761 9d3c 74c7 5bbe ad20 17be
00000350: d103 60be 7fcf 9c3c 3a15 f43e 3110 9e3d
00000360: bc58 a33d e7ba 65be 790d 9d3e 491e b8be
00000370: 64e8 80bc c9f4 c3bd f0c9 3fbd 805d 1cbf
00000380: ab3b 73be b9bc 7d3e 7910 28be abfb 1abd
00000390: f6bb c53c ea43 32be a562 f83d 8d95 313e
000003a0: b36b 44be 7d53 053e 8582 343e db18 e03e
000003b0: 84a3 2bbe 57fc b8be 5669 27be bfdd b0be
000003c0: f272 90bd afc3 153e 0e90 503d 188b 853e
000003d0: 2233 18be 0d5e 6f3e 03d1 503e 7859 ab3e
000003e0: f3ef 14be b86e e7bd 894c dabc 3a2b a9be
000003f0: 196d 6d3d 89a5 8abe ddde c63d eef7 d13d
-0.07314478 0.1694136 -0.022870192 -0.20060784 0.08859895 -0.011601597 0.058760498 0.12381008
-0.5475683 0.006170642 -0.01669015 0.1343946 -0.017533803 -0.15948617 -0.20625798 0.06880934
-0.14565465 0.01810989 0.17667249 0.1805725 -0.24215662 0.08409415 -0.02890141 -0.03890116
0.071860515 -0.12228927 0.17331764 0.076394886 -0.3535745 -0.19273701 -0.23386115 -0.11138551
0.24125744 0.08773977 0.10819787 -0.13379407 0.08189501 -0.013638923 0.025303956 -0.0045735803
-0.26289663 0.01640353 0.2316095 0.18168536 -0.0744298 0.15727085 0.102676116 -0.232734
-0.22499946 -0.17578745 0.003329665 0.13478163 -0.1893259 0.09990341 0.23744957 0.0034614247
0.120211594 0.06044424 -0.1319087 -0.15743756 0.31963828 -0.31608263 -0.019239986 -0.10472343
0.107371815 -0.13415739 -0.30979517 0.18376371 -0.09639974 -0.1409605 -0.006363924 -0.06276997
-0.4563238 -0.028980447 -0.087322526 0.1763873 0.30746436 0.06768324 -0.14017189 0.22491951
-0.3696852 0.0652939 0.107930966 0.10813284 0.30760914 0.19334446 0.16403815 0.2974512
0.039310187 -0.19541228 -0.4162316 0.064726844 -0.07171418 0.0026573977 -0.40682375 -0.1674656
0.28763807 0.040058296 0.01620193 -0.016821126 -0.14759497 0.16122004 0.11185878 -0.11552344
0.16013081 -0.18569528 0.2477531 0.1995316 -0.1620807 0.30997545 0.073712826 -0.011871042
-0.34150955 -0.096072674 -0.1456574 0.13425896 0.14100511 -0.2562676 0.26742938 0.10960987
0.109477416 -0.19304839 0.14188153 0.05330866 0.3627583 0.14126644 0.013618566 0.108557165
-0.1729588 -0.34669727 -0.1779118 -0.25692415 -0.12329168 -0.0730136 0.14009258 -0.0074356254
-0.037285004 -0.1582542 -0.06305429 -0.14580195 -0.037227493 0.27436176 0.37910518 -0.01790403
0.10627786 -0.018859029 -0.08100831 0.019437613 -0.33767742 -0.21913163 -0.047358215 -0.0068410654
-0.24526559 -0.20526953 -0.074185506 0.22720917 -0.1642766 0.14175086 -0.13119157 0.20732483
-0.023190293 -0.22506358 -0.20706682 0.04722542 -0.0055982545 0.069836855 -0.28805855 0.2860919
0.1709503 0.13253939 -0.39928928 -0.0809441 -0.07994502 0.010513222 0.075985774 0.124906495
0.26047575 -0.09412133 0.19300354 -0.17919911 -0.14043994 0.09635583 -0.06253233 -0.021368777
-0.19185004 -0.002323183 0.11783702 0.18194334 -0.24128671 -0.042064022 0.18802552 0.23146588
0.17946646 -0.28510895 -0.12064029 0.20338346 0.2343799 0.09297363 0.3383103 -0.114432395
0.11654871 0.12593457 -0.00060359674 -0.09104225 0.10436268 -0.12014037 0.03150139 0.13817252
-0.1508657 0.019211395 -0.21462804 -0.14758559 -0.21876456 0.01914191 0.47672445 0.07717932
0.07975909 -0.22434579 0.3067434 -0.35960606 -0.015735812 -0.095681734 -0.046823442 -0.6108017
-0.2375323 0.24779023 -0.16412534 -0.037837666 0.024137478 -0.1740872 0.1212819 0.17342205
-0.19181709 0.1302013 0.17627914 0.43768963 -0.16761595 -0.3613002 -0.16348776 -0.3454418
-0.07053174 0.14625429 0.05091863 0.26082683 -0.14863256 0.23375721 0.20392232 0.33466697
-0.14544658 -0.11300415 -0.026647823 -0.33040792 0.05796537 -0.27079418 0.097104765 0.10252367

hiden_layers.4.bias f4 [64]
00000000: 9481 2cbe 7e36 27be 91f3 fabd 0de6 2abe
00000010: b961 d5bd 0bdb 653d 5965 a53d 229d 1fbe
00000020: 590e 0fbe c558 043e ee98 683e 1623 65bb
00000030: daff 143e 1eb1 48bc e543 2a3d 4793 a4bd
00000040: 5164 d83d 60c3 333e 4cd8 00be e4a0 02be
00000050: 5a00 863e b158 3cbd f6fc e1bb 97f6 413d
00000060: 679f 2a3e ddd8 b0be 6a4f 53be 70fc 44be
00000070: 4df2 9ebd bbb2 72be 740b 80be a24f fc3c
00000080: eeb8 19be 5cd9 3bbd b66b 00bf 3ba7 a3be
00000090: 08bd 82bd aa48 38be e625 5bbe b521 5cbe
000000a0: bec6 dabd e42c 39be 2477 e6bd ad40 20bd
000000b0: 0d91 343e 6ed2 a23d d6f3 8d3d 0c67 283e
000000c0: 13bb 1ebe e96f 59be 4290 e63d d6a5 fc39
000000d0: c50b 18be cab1 093e 853c fe3c ad6f 65be
000000e0: 4362 5cbe 5507 cbbc ba0c 903d 5ecd 8d3e
000000f0: d16e 243e ccf2 443e a080 d43e 3857 11be
-0.16846305 -0.16329381 -0.12253488 -0.1668932 -0.1041903 0.0561171 0.08075971 -0.15587285
-0.13970317 0.12924488 0.22714588 -0.003496354 0.14550725 -0.012249259 0.041568656 -0.080359034
0.10566009 0.17554998 -0.1258251 -0.12756687 0.26172143 -0.04598302 -0.0068966104 0.047354307
0.1666237 -0.34540454 -0.20635763 -0.19236922 -0.07761059 -0.23700993 -0.25008738 0.03079969
-0.15011951 -0.045861587 -0.50164354 -0.31963524 -0.06383711 -0.17996469 -0.21401176 -0.21497233
-0.10682438 -0.1808353 -0.11253193 -0.03912418 0.17633457 0.079502925 0.06931274 0.1644556
-0.1550105 -0.21234097 0.11257984 0.00048188743 -0.1484824 0.13446727 0.031034717 -0.22405882
-0.21521859 -0.02478377 0.070336774 0.27695745 0.16057898 0.19233245 0.41504383 -0.14193428
