results/1_first_try/epoch2550/model_weights.pth (torch, 484214 bytes, 88 tensors)

init_layer.0.weight f4 [64, 3]
0	0xbe029d00	-0.12755203
1	0xbd38fa56	-0.045160614
2	0x3e00e050	0.12585568
3	0x3e91dbf0	0.28488111
4	0xbcb47b1f	-0.022031365
5	0x3ba3b78f	0.004996247
6	0xbe0152d8	-0.12629259
7	0xbe30dd6d	-0.17271967
8	0xbb50e7c0	-0.0031876415
9	0x3e97e677	0.29668018
10	0x3dab57b8	0.083663404
11	0x3d2a1514	0.041524008
12	0xbb8dd254	-0.0043280516
13	0x3e374572	0.17897585
14	0x3daad035	0.083404936
15	0xbe18edb6	-0.1493443
16	0xbeb35ea7	-0.35033152
17	0x3d02d584	0.031941906
18	0x3dee143c	0.11624953
19	0x3c7d4282	0.015457751
20	0x3e7ab34e	0.24482462
21	0x3ea114d8	0.31461215
22	0x3e7ec813	0.2488101
23	0x3e1bf909	0.15231718
24	0x3e9c14eb	0.3048471
25	0xbea6c71d	-0.32573786
26	0x3c571f66	0.013130045
27	0xbe5b3565	-0.21407087
28	0xbe14495c	-0.1448111
29	0x3e388d97	0.18022762
30	0xbea0ff60	-0.31444836
31	0x3d9b3a57	0.07579487
32	0x3c16326f	0.009167298
33	0x3df1bae7	0.11803227
34	0x3e3e7d59	0.18602504
35	0xbd624378	-0.055240124
36	0xbd8d19ed	-0.068897106
37	0xbdb85ce6	-0.09002094
38	0x3c015a0d	0.007895005
39	0xbdc13cd4	-0.0943543
40	0x3d0d24b0	0.034458816
41	0x3e0066aa	0.12539163
42	0x3e11e254	0.14246494
43	0xbe7d6b0a	-0.24747863
44	0xbd94a5c0	-0.07258177
45	0x3e649269	0.22321476
46	0xbe442612	-0.19155148
47	0xbdb72cb3	-0.089440726
48	0x398a108e	0.00026333745
49	0x3cdd1087	0.02698542
50	0x3de59587	0.11210161
51	0x3ea525e4	0.3225547
52	0x3e2fd283	0.17170148
53	0xbddb304e	-0.10702573
54	0x3e1850ad	0.14874525
55	0x3de26576	0.110545084
56	0xbe2d78c2	-0.16940597
57	0xbe8384e1	-0.25687316
58	0x3da20346	0.079107806
59	0xbdff0f54	-0.124540955
60	0x3e55ecbc	0.20891088
61	0xbdc2369e	-0.09483074
62	0xbd1e7206	-0.03868296
63	0x3eab995d	0.33515444
64	0x3cd71ad7	0.026257915
65	0xbc5e1883	-0.013555649
66	0xbd423947	-0.047417905
67	0xbea90828	-0.33014035
68	0x3cc49827	0.023998333
69	0xbdccaeab	-0.09994253
70	0x3e13c307	0.14429866
71	0xbc54072c	-0.012941163
72	0xbd08ba5a	-0.033380844
73	0xbcf37a92	-0.029721532
74	0x3e23dea6	0.16002902
75	0xbdc7f685	-0.09763817
76	0x3e5bd013	0.21466093
77	0xbd968fe8	-0.07351667
78	0x3d8cb0b8	0.06869644
79	0x3e348752	0.17629746
80	0x3e34fa7f	0.17673682
81	0xbe523af4	-0.20530301
82	0xbe3d5380	-0.18488884
83	0x3cec0df6	0.02881525
84	0xbc394e60	-0.01131019
85	0x3b8a206e	0.0042152917
86	0xbe0d6737	-0.13808905
87	0x3dec7412	0.11545576
88	0xbeae7ea2	-0.34080988
89	0x3d210a70	0.039316595
90	0xbec27a61	-0.37983993
91	0xbddc7e39	-0.107662626
92	0xbd57ae0d	-0.052656222
93	0xbdf45f52	-0.119322434
94	0xbb86747d	-0.004103242
95	0x3d90d3c5	0.07071642
96	0xbdd0d332	-0.10196532
97	0x3e641186	0.2227231
98	0x3e33a50e	0.17543432
99	0xbea21467	-0.3165619
100	0x3e9b128b	0.30287585
101	0xbd11644e	-0.03549605
102	0x3da6882c	0.081314415
103	0xbdcfbe9b	-0.10143777
104	0x3cea3fdd	0.028594906
105	0xbddc3211	-0.10751737
106	0xbe31c908	-0.17361844
107	0xbe01232e	-0.12611076
108	0xbdc52c41	-0.096275814
109	0x3d8737ea	0.06602462
110	0x3d8f3ce6	0.06994037
111	0xbe5878c2	-0.21139815
112	0xbd04b3d9	-0.03239808
113	0x3cb729d7	0.022358818
114	0x3e3e7367	0.1859871
115	0xbe4052cf	-0.18781589
116	0xbab0033e	-0.0013428701
117	0xbeafd4a4	-0.3434192
118	0x3e35b16b	0.17743461
119	0x3e005f0b	0.12536256
120	0x3d47b495	0.0487562
121	0xbb2885f9	-0.002571462
122	0xbe4fe59c	-0.20302433
123	0xbdd41ee2	-0.10357453
124	0x3d97a4c8	0.074044764
125	0xbe27d883	-0.16391186
126	0x3d1afc90	0.03783852
127	0xbdc70396	-0.09717481
128	0x3e157069	0.14593662
129	0x3d6f08a7	0.05835786
130	0xbd3ffc20	-0.046871305
131	0x3dd9d1b6	0.10635702
132	0x3e14d6ac	0.14535016
133	0xbe443b0e	-0.19163153
134	0xbdad8de8	-0.08474332
135	0xbec9058a	-0.39262038
136	0xbe29a418	-0.16566503
137	0x3da01466	0.07816391
138	0xbd82dcd3	-0.06389775
139	0xbe04fad0	-0.12986302
140	0x3d7c021a	0.06152544
141	0x3d1a7d15	0.037716944
142	0x3e9eef11	0.31041768
143	0x3c0450c9	0.008075901
144	0x3e1b5783	0.15170102
145	0x3ea788ee	0.32721657
146	0x3c8e538b	0.01737382
147	0x3e1d0ebe	0.15337655
148	0xbe704d24	-0.23466927
149	0x3e260739	0.16213693
150	0xbe17339d	-0.14765783
151	0xbe750936	-0.23929295
152	0xbcc9f546	-0.024653088
153	0xbeceb2a1	-0.40370658
154	0xbdd8343b	-0.10556837
155	0xbd8fd0b6	-0.0702223
156	0x3eb61af6	0.35567445
157	0xbe872170	-0.26392698
158	0x3cc7ab89	0.024373787
159	0xbe00af71	-0.12566926
160	0xbe4147fa	-0.18875113
161	0x3cc71941	0.024304034
162	0x3e353db3	0.17699318
163	0xbe567c7d	-0.20945926
164	0xbdfa0a7f	-0.12209033
165	0x3e6c6451	0.23085143
166	0x3d3b02fe	0.04565715
167	0x3c722c3e	0.014781056
168	0x3e456b0f	0.19279121
169	0x3db62d2f	0.08895337
170	0x3dc69164	0.096957
171	0x3d5bcc9b	0.053661924
172	0xbbdfeb13	-0.006833443
173	0xbe003e9b	-0.12523882
174	0x3dbd3c1d	0.09239981
175	0x3ec3f1d9	0.38270453
176	0x3bc2c52a	0.005943914
177	0x3dc29456	0.09500949
178	0x3e06f93d	0.13181014
179	0xbdbd3f73	-0.092406176
180	0xbe5ac058	-0.21362436
181	0xbe356a6c	-0.17716378
182	0xbce34464	-0.027742572
183	0xbe3e796a	-0.18601003
184	0x3c394f0c	0.01131035
185	0xbc5868dd	-0.013208595
186	0x3ebb6d33	0.3660675
187	0xbd858cd3	-0.06521001
188	0x3c356984	0.01107252
189	0x3eb54b86	0.35409182
190	0x3c6d19ca	0.014471481
191	0x3da6f911	0.081529744

init_layer.0.bias f4 [64]
0	0x3d7f479f	0.062324163
1	0x3e335df7	0.17516313
2	0xbdd9d7c2	-0.10636856
3	0x3e1c904b	0.15289418
4	0x3d0b2dda	0.033979274
5	0xbda4ed87	-0.08053117
6	0xbde2b111	-0.11068929
7	0x3e279dd6	0.16368803
8	0x3db61ddf	0.08892416
9	0xbe242552	-0.16029862
10	0xbe0a8da1	-0.1353059
11	0x3d9ea2db	0.07745906
12	0xbd57d839	-0.05269644
13	0xbdb9fb2f	-0.090811126
14	0x3d883967	0.06651574
15	0x3df7d3ae	0.121009216
16	0x3c4894a0	0.012242466
17	0x3e31ece2	0.1737552
18	0x3e13b5b2	0.1442478
19	0xbe095f04	-0.13415152
20	0x3e05291b	0.13003962
21	0x3e240620	0.16017962
22	0xbd6cf263	-0.057848345
23	0xbdedf57c	-0.11619088
24	0x3ddb9be8	0.10723096
25	0xbdc10238	-0.09424251
26	0x3e07c020	0.13256884
27	0xbdd160ad	-0.102235176
28	0xbd4f2c01	-0.050579075
29	0x3db26e2e	0.08712421
30	0xbe28e72a	-0.16494432
31	0xbdfe3ff2	-0.1241454
32	0xbde0e884	-0.10981849
33	0xbe04a08f	-0.12951873
34	0x3de39192	0.1111175
35	0xbe09868e	-0.13430235
36	0xbd83ba49	-0.064320154
37	0xbe08352a	-0.1330153
38	0x3dd7b56d	0.10532651
39	0xbe200df2	-0.1563032
40	0xbd8cdc6e	-0.06877981
41	0xbe005e43	-0.12535958
42	0xbd9d96f5	-0.076948084
43	0x3d9a2e8e	0.07528411
44	0x3e06e29f	0.13172387
45	0xbe1a4d76	-0.15068612
46	0xbdd21e58	-0.10259694
47	0xbd6bd811	-0.057579104
48	0x3cb684c5	0.022280106
49	0x3de60d5f	0.11233019
50	0xbe0e7484	-0.13911635
51	0xbe269625	-0.16268213
52	0x3e112b1f	0.14176606
53	0xbd9b8c99	-0.07595176
54	0x3e116865	0.1419998
55	0x3e272ec9	0.16326441
56	0x3e0a4e86	0.13506517
57	0xbde2f107	-0.110811286
58	0x3d3d150d	0.046162654
59	0x3cdbdf2c	0.026839815
60	0xbe226285	-0.15857895
61	0xbe05d2ee	-0.13068745
62	0x3e25adee	0.1617963
63	0x3e10083d	0.14065643

hiden_layers.0.weight f4 [64, 64]
0	0xbe27ebd4	-0.16398555
1	0x3db495d5	0.08817641
2	0x3dda087e	0.10646151
3	0x3e4768fc	0.19473642
4	0xbe2e4e52	-0.17022064
5	0x3d33d34e	0.043902688
6	0x3d347f23	0.04406656
7	0xbd9bdd61	-0.07610584
8	0x3c11db00	0.008902311
9	0xbdadf749	-0.084944315
10	0xbd005f01	-0.031340603
11	0x3e3348ac	0.17508191
12	0x3b4f3b25	0.0031620946
13	0x3e1f4ccd	0.15556641
14	0x3e2f4d4a	0.17119327
15	0xbe12f7c8	-0.14352334
16	0xbd1010ca	-0.03517226
17	0xbdae257e	-0.08503245
18	0x3cfba29f	0.030717192
19	0xbe519859	-0.20468272
20	0x3d17e835	0.037086684
21	0x3e44ee47	0.1923152
22	0x3c434e88	0.011920579
23	0xbeab4109	-0.33448055
24	0x3e3f7ad2	0.18699196
25	0xbcfab2a3	-0.030602759
26	0xbd767ea4	-0.060179368
27	0xbe1caecb	-0.15301053
28	0xbe02ccbb	-0.12773411
29	0x3c8d3ee1	0.017241897
30	0xbeae84af	-0.34085605
31	0xbda889d3	-0.08229413
32	0xbddd5de6	-0.10808925
33	0xbdca8426	-0.098884866
34	0x3e1244fe	0.14284131
35	0xbd4c8d7f	-0.04993963
36	0xbbb3fdef	-0.0054929177
37	0xbde0d4de	-0.10978101
38	0x3e621f8d	0.22082348
39	0x3d390d28	0.045178562
40	0x3dba68bf	0.0910201
41	0xbe0f58c9	-0.13998713
42	0x3d8cb629	0.06870682
43	0xbd424f48	-0.04743889
44	0xbb217a1d	-0.0024639436
45	0xbd201253	-0.039079975
46	0xbccaa9be	-0.024739143
47	0xbe2d6519	-0.16933097
48	0x3e59a100	0.21252823
49	0xbdc942a4	-0.09827164
50	0xbe3b2875	-0.18277152
51	0xbd9ad017	-0.07559221
52	0x3dc9f354	0.09860864
53	0xbd2f8f0f	-0.04286104
54	0x3e6283f7	0.22120653
55	0x3e98f593	0.29874858
56	0xbdbe68d5	-0.09297339
57	0xbe17fcf2	-0.14842585
58	0xbdd27542	-0.102762714
59	0x3db5bebc	0.0887427
60	0xbbcc7495	-0.0062394836
61	0xbe9e233d	-0.3088626
62	0x3e1fd66a	0.15609136
63	0xbd699db0	-0.05703515
64	0xbded2c61	-0.1158073
65	0x3cbeda9c	0.0232976
66	0xbe962ce3	-0.2933112
67	0x3ed26769	0.4109452
68	0xbe0c661e	-0.1371083
69	0xbdc5d280	-0.0965929
70	0x3e313c64	0.17308193
71	0x3b854df5	0.004068131
72	0x3dfe7645	0.12424902
73	0xbe8baa05	-0.27278152
74	0x3d58b589	0.0529075
75	0xbd89ecb1	-0.067345984
76	0xbe1d6591	-0.15370776
77	0xbd6366f9	-0.055518124
78	0x3de82b24	0.113363534
79	0x3e85fc75	0.26169172
80	0xbc97253c	-0.018450372
81	0x3ea7d3f5	0.32778898
82	0x3dfa9926	0.12236242
83	0xbe0cb0d7	-0.13739334
84	0x3e21882a	0.15774599
85	0x3d338c8b	0.043835204
86	0x3db81ef1	0.089902766
87	0xbdf17242	-0.11789371
88	0xbd9d2e9e	-0.07674907
89	0xbdf15fac	-0.11785826
90	0x3e960fce	0.29308933
91	0x3d4182f3	0.047244024
92	0x3dbec06a	0.09314044
93	0x3e54beee	0.20775959
94	0xbed7681a	-0.4207161
95	0xbe8a45bd	-0.2700633
96	0xbd69d77a	-0.05709026
97	0xbded744c	-0.115944475
98	0x3e204a91	0.15653445
99	0x3d67d894	0.05660303
100	0x3d659034	0.056045726
101	0xbe9231d2	-0.28553635
102	0xbb4dd514	-0.0031407522
103	0x3c645de0	0.013938397
104	0xbc7d71f6	-0.015469065
105	0xbdc653b0	-0.09683931
106	0xbe50a539	-0.20375527
107	0x3d00a64f	0.031408604
108	0x3e4db5b3	0.20088844
109	0xbeba9215	-0.36439577
110	0x3e12c399	0.14332427
111	0xbda0bcd3	-0.07848515
112	0x3cb8ca9c	0.02255755
113	0xbd71a9a3	-0.05899967
114	0xbe1f0cc3	-0.15532212
115	0xbeb015c0	-0.34391594
116	0x3e865f01	0.26244357
117	0xbe863f59	-0.26220205
118	0x3e7fed90	0.24992967
119	0x3eb34049	0.35009983
120	0xbd523eac	-0.0513293
121	0xbd5fbaf5	-0.054621655
122	0xbe0474ca	-0.12935176
123	0xbdb24d3a	-0.08706136
124	0x3de58ab4	0.11208096
125	0xbe296a7f	-0.16544531
126	0x3ecea479	0.40359858
127	0x3ddb32be	0.10703038
128	0x3d765803	0.06014253
129	0xbe0a189a	-0.13485947
130	0x3e99c271	0.3003116
131	0xbdcf41a6	-0.10119943
132	0xbe9f3c69	-0.31100777
133	0x3d15bf27	0.03655925
134	0xbc7ee61b	-0.015557791
135	0xbea8557c	-0.3287772
136	0x3d30819d	0.04309236
137	0x3c728fa1	0.014804752
138	0x3ce870f9	0.028374182
139	0x3dbd1acd	0.092336275
140	0x3e37484f	0.17898677
141	0xbe518e4e	-0.20464441
142	0x3e8a3f50	0.2700143
143	0xbe0a15ab	-0.13484828
144	0xbe099fff	-0.1343994
145	0xbe8e4ee6	-0.2779457
146	0x3d327fc6	0.043578885
147	0x3d569ed3	0.05239756
148	0xbd52bf6d	-0.05145209
149	0xbe7efd40	-0.24901295
150	0xbdc679ba	-0.09691186
151	0x3cd71f8f	0.026260165
152	0xbd87b4d8	-0.0662629
153	0xbdfd1385	-0.12357239
154	0xbe3c4e4e	-0.18389246
155	0x3e77015a	0.2412161
156	0x3cdf87c4	0.027286418
157	0xbe1be105	-0.15222557
158	0x3ebaa240	0.36451912
159	0x3e6b340a	0.2296907
160	0xbe576037	-0.21032797
161	0xbd3327eb	-0.04373924
162	0x3e205e1e	0.15660903
163	0x3ecefa25	0.4042522
164	0xbdaac810	-0.0833894
165	0xbd120840	-0.0356524
166	0xbd0eb706	-0.034842514
167	0x3d82ba05	0.06383137
168	0xbe004195	-0.12525018
169	0x3da83052	0.08212341
170	0x3e4bea9f	0.1991372
171	0x3e096e5c	0.13421005
172	0x3e3e871e	0.1860623
173	0x3db3100e	0.087432966
174	0x3e0c5f48	0.13708222
175	0xbbd0e863	-0.006375359
176	0xbcdbeb3e	-0.02684557
177	0x3c60f917	0.013731263
178	0x3e40732c	0.18793935
179	0x3dcb4251	0.09924758
180	0xbc49d41b	-0.012318636
181	0xbca63c49	-0.020292418
182	0xbde17c22	-0.110100046
183	0xbdbf9591	-0.093546994
184	0xbeb8588d	-0.3600506
185	0x3ea3a755	0.31963602
186	0xbe5dc584	-0.21657377
187	0xbe223b33	-0.15842895
188	0x3ecd6a27	0.4012005
189	0xbcf1154a	-0.029429097
190	0xbe942a4b	-0.28938517
191	0x3d201447	0.039081838
192	0x3e22a487	0.15883075
193	0xbe830568	-0.25590062
194	0x3d29077e	0.04126691
195	0xbe29386e	-0.16525432
196	0x3e04af7c	0.12957567
197	0x3e1c1ae6	0.15244636
198	0xbcc66161	-0.024216356
199	0xbe1f0135	-0.15527804
200	0xbe8b7fc2	-0.2724591
201	0xbd620a6c	-0.05518572
202	0x3e2d5a70	0.1692903
203	0xbc6e404f	-0.0145417
204	0xbd32d232	-0.04365749
205	0xbc376c02	-0.011195185
206	0xbda2bccd	-0.07946167
207	0xbe77a4be	-0.24183938
208	0xbd47c4d2	-0.048771687
209	0x3d19177f	0.037375923
210	0x3cd15b97	0.025556369
211	0xbcaf2c78	-0.021383509
212	0x3c834a24	0.016026564
213	0xbe8976de	-0.268485
214	0xbe39cf23	-0.18145423
215	0xba6dbbac	-0.0009068798
216	0x3e3f4560	0.18678808
217	0x3dc7b4ee	0.097513065
218	0xbd25ff70	-0.040526807
219	0xbac6b086	-0.0015158809
220	0xbd6e7d6f	-0.05822509
221	0xbe67a9fe	-0.2262344
222	0xbd515c66	-0.05111351
223	0x3e05ff0e	0.13085577
224	0xbd2931b1	-0.041307155
225	0x3e365f32	0.17809752
226	0xbe64003a	-0.22265711
227	0x3ce59bff	0.028028486
228	0x3cd9e77e	0.026599642
229	0xbd5c6630	-0.05380839
230	0x3a861ee6	0.0010232597
231	0x3d991dbd	0.07476375
232	0xbe52d9a0	-0.2059083
233	0x3d15f6bb	0.036612254
234	0x3db8d3c2	0.090247646
235	0x3e0f5940	0.1399889
236	0xbdb92540	-0.09040308
237	0x3e1bac0c	0.1520235
238	0x3de65216	0.112461254
239	0x3d012ed9	0.031538818
240	0x3d78ee43	0.0607741
241	0xbe076f12	-0.13225964
242	0x3e46caec	0.19413346
243	0x3c0b4344	0.008499924
244	0xbe9aec7b	-0.30258545
245	0x3e3f5578	0.18684947
246	0x3d8ca588	0.0686751
247	0x3c58b78d	0.013227356
248	0xbe6a7a61	-0.22898246
249	0xbd317fc5	-0.04333474
250	0xbdfd1b1e	-0.12358688
251	0x3da1477e	0.07874964
252	0xbdad32b8	-0.084569395
253	0x3dfa0843	0.12208607
254	0xbe4af9bc	-0.19821829
255	0xbe13a6de	-0.14419124

hiden_layers.0.bias f4 [64]
0	0x3e06e495	0.13173135
1	0x3db2c15b	0.08728286
2	0xbe32e6b4	-0.17470819
3	0xbdb4e873	-0.08833399
4	0x3dd610cc	0.104524225
5	0x3ddcdbb0	0.107840896
6	0x3e2e2bdd	0.1700892
7	0xbdf39502	-0.11893655
8	0xbe2eba64	-0.1706329
9	0xbe096a13	-0.1341937
10	0xbe1eac18	-0.15495336
11	0x3dcd5d56	0.10027568
12	0x3e2de4c6	0.16981801
13	0xbdf120c1	-0.117738254
14	0x3de43035	0.11142007
15	0xbe481c47	-0.19542037
16	0xbe1bd96f	-0.15219663
17	0xbda6f49c	-0.08152124
18	0x3de5f021	0.112274416
19	0x3cbb84fa	0.022890557
20	0x3d05e709	0.032691035
21	0x3dcd7d48	0.10033661
22	0xbd8eaaa0	-0.06966138
23	0xbdaddcf5	-0.0848941
24	0xbcf18f01	-0.029487135
25	0x3d3eddc2	0.046598203
26	0x3d917dfb	0.07104107
27	0xbdac9f04	-0.08428767
28	0x3dd95b00	0.1061306
29	0x3dedc754	0.116102844
30	0x3dff92a2	0.1247914
31	0xbdc4870b	-0.0959607
32	0xbc168d79	-0.009189003
33	0xbdc119ef	-0.094287746
34	0xbdc5189e	-0.09623836
35	0x3d772359	0.060336445
36	0xbd01beb4	-0.03167601
37	0x3dc6c85f	0.097061865
38	0x3db76757	0.089552574
39	0xbd5cd21f	-0.053911325
40	0xbe283537	-0.1642655
41	0x3df3c019	0.11901874
42	0xbdd3859e	-0.1032822
43	0xba5af0d0	-0.0008351924
44	0xbda4ce84	-0.08047202
45	0x3ca41b22	0.02003247
46	0xbddcc112	-0.10779013
47	0x3bcb9754	0.006213108
48	0x3d8225c6	0.06354861
49	0xbd801424	-0.062538415
50	0x3ddb5c70	0.107109904
51	0xbdc20413	-0.09473433
52	0x3e1bceed	0.15215655
53	0xbde5afc0	-0.11215162
54	0x3de8e0e6	0.11371021
55	0x3e27bde3	0.1638103
56	0xbdd05c9d	-0.101739146
57	0x3e231acc	0.15928191
58	0x3d519f82	0.05117751
59	0x3d9e7a26	0.07738142
60	0x3deb4908	0.11488539
61	0x3c5a38a7	0.013319171
62	0xbd217129	-0.03941456
63	0xbe1b893b	-0.15189068

hiden_layers.1.weight f4 [64, 64]
0	0xbdda058b	-0.106455885
1	0xbdd7969a	-0.10526772
2	0xbebccec7	-0.3687651
3	0x3e3a7c00	0.18211365
4	0xbf133ecb	-0.5751769
5	0x3ddfb658	0.10923451
6	0xbc8b10bc	-0.016975753
7	0xbe592e26	-0.2120901
8	0x3dab874e	0.08375417
9	0x3dda141a	0.10648365
10	0x3cf915ca	0.030405898
11	0xbe81eb52	-0.25374848
12	0x3df47442	0.11936237
13	0xbcc694b0	-0.024240822
14	0xbd4da8c8	-0.05020979
15	0xbe6d2c20	-0.23161364
16	0xbda7cfce	-0.081939325
17	0x3eb91a54	0.361529
18	0xbd98e18d	-0.074648954
19	0x3e11953a	0.14217082
20	0x3df55154	0.11978403
21	0xbd83b204	-0.06430438
22	0x3d0ffa25	0.035150666
23	0xbd2ad6dc	-0.041708812
24	0xbe094e79	-0.13408841
25	0xbe33218c	-0.17493266
26	0x3d412132	0.0471508
27	0x3e97c92b	0.29645666
28	0xbe3cd677	-0.18441187
29	0xbeba791b	-0.3642052
30	0xbe9cc53d	-0.3061923
31	0x3cc7d584	0.024393804
32	0xbeb0a789	-0.3450282
33	0x3eab5172	0.33460575
34	0xbe81e04c	-0.25366437
35	0xbecf52fb	-0.40492997
36	0xbe1c9938	-0.15292823
37	0xbd93b084	-0.07211402
38	0xbd3a16e4	-0.045431986
39	0x3dc621e8	0.09674436
40	0x3d9a43cd	0.07532463
41	0x3e9b1646	0.3029043
42	0xbdc6725f	-0.09689783
43	0x3e8735db	0.26408276
44	0x3edafbd8	0.42770267
45	0xbe11a26e	-0.14222118
46	0x3d18ab80	0.03727293
47	0xbde2a78d	-0.11067114
48	0x3db742a3	0.08948257
49	0xbe9532b0	-0.29140234
50	0x3cadc7c1	0.021213414
51	0x3e7d94eb	0.24763839
52	0xbe40931a	-0.18806115
53	0x3e460f20	0.19341707
54	0xbd3e71c7	-0.046495225
55	0xbe420578	-0.18947399
56	0x3e17693c	0.14786237
57	0xbe117c68	-0.14207613
58	0xbebb6806	-0.366028
59	0x3e28eb4b	0.16496007
60	0x3e273ed2	0.16332558
61	0xbe125157	-0.14288841
62	0xbd7eb829	-0.062187348
63	0xbe78d4b7	-0.24299894
64	0x3d492a86	0.04911282
65	0xbcbb5269	-0.022866445
66	0xbe2aa58a	-0.1666471
67	0x3dd08914	0.101823956
68	0xbddd92cc	-0.10819015
69	0xbcb463ca	-0.02202024
70	0xbe7e2bf6	-0.24821457
71	0x3c3f1854	0.011663515
72	0x3e6b91b9	0.23004808
73	0xbdc169d9	-0.09444017
74	0x3e61b17c	0.22040361
75	0x3dc97e44	0.098385364
76	0x3d4d8e6a	0.050184645
77	0xbd3055a6	-0.04305043
78	0x3e311a31	0.17295147
79	0x3dc1a3b0	0.09455049
80	0x3e15f806	0.14645395
81	0xbd8c77e6	-0.06858806
82	0x3dd6f502	0.1049595
83	0x3dc0f77b	0.09422203
84	0x3d69868d	0.057013083
85	0x3e68275c	0.22671264
86	0xbe3c2eb9	-0.18377198
87	0x3dc8f51d	0.09812377
88	0x3e3dd0ca	0.18536678
89	0x3e6737e5	0.22579916
90	0x3e53cabb	0.20682804
91	0xbd4574d5	-0.048207123
92	0xbe09cb36	-0.13456425
93	0x3d941b86	0.07231812
94	0xbcff6eab	-0.0311807
95	0x3e1bc66a	0.15212408
96	0x3e440ab3	0.19144706
97	0x3e2b83db	0.16749518
98	0xbe4fe6da	-0.20302907
99	0xbe259d5e	-0.16173312
100	0xbeac17df	-0.33611962
101	0xbd861ca1	-0.06548429
102	0xbcdda27e	-0.027055021
103	0xbe55916b	-0.20856254
104	0xbe295846	-0.1653758
105	0xbe8aa2a4	-0.2707721
106	0xbdae83f3	-0.08521261
107	0xbe2f7a98	-0.1713661
108	0x3d022e0f	0.031782206
109	0xbd3feff1	-0.046859685
110	0xbd8f01fd	-0.06982801
111	0xbef0d769	-0.47039345
112	0x3e784627	0.24245511
113	0x3d911ccd	0.070855714
114	0xbe37d1b2	-0.17951086
115	0x3d3c46b1	0.045965854
116	0x3d28caf5	0.04120918
117	0xbd314c39	-0.043285582
118	0xbdd0fec0	-0.1020484
119	0xbd6fa492	-0.058506556
120	0xbc116ab0	-0.008875534
121	0x3e148803	0.1450501
122	0xbe6d3ce7	-0.23167764
123	0x3de61c41	0.11235858
124	0xbcbd3125	-0.023094723
125	0xbd81450a	-0.06311996
126	0xbdb75f23	-0.08953693
127	0x3e769889	0.24081625
128	0x3da1b7a1	0.078963526
129	0x3ea11820	0.31463718
130	0x3d5eebf8	0.054424256
131	0x3d8aebfe	0.06783293
132	0x3ef271e6	0.47352523
133	0x3e808af8	0.25106025
134	0xbdf4d406	-0.11954503
135	0x3e8919d6	0.26777524
136	0x3cb111ae	0.021614876
137	0xbe1c0551	-0.15236403
138	0xbe89cb47	-0.269129
139	0x3de71aff	0.11284446
140	0x3d276cbd	0.040875185
141	0x3d4d93d4	0.050189808
142	0x3e313811	0.17306544
143	0x3eaa2f87	0.33239385
144	0xbda6e826	-0.081497476
145	0xbde8b9be	-0.113635525
146	0x3e20ca6b	0.15702216
147	0x3dd8cb07	0.105855994
148	0x3de189c7	0.11012607
149	0xbe74c117	-0.23901783
150	0xbe55abb0	-0.20866275
151	0xbe82bf77	-0.255367
152	0xbd67f079	-0.056625817
153	0x3ded06ec	0.11573586
154	0xbd9254c1	-0.07145072
155	0xbe472968	-0.19449389
156	0x3ebd27ae	0.36944336
157	0x3ef61bc2	0.48068053
158	0x3ed176bf	0.4091091
159	0x3e91d34a	0.28481513
160	0x3e88cb38	0.26717544
161	0xbe85bfa6	-0.2612278
162	0xbdf277b7	-0.1183924
163	0xbd63b78a	-0.05559496
164	0xbd379e73	-0.044828843
165	0xbdd68baf	-0.10475861
166	0x3cfbd4ab	0.030741056
167	0xbdba2336	-0.09088747
168	0xbe283cf9	-0.16429509
169	0xbe5ebcf1	-0.21751763
170	0xbe8d3499	-0.2757919
171	0xbdf08560	-0.11744189
172	0xbe947ca5	-0.29001346
173	0x3df70228	0.12060958
174	0xbe308838	-0.17239463
175	0x3db942bb	0.09045931
176	0x3c757689	0.014981874
177	0x3e9e5a0f	0.30928084
178	0x3e076f30	0.13226008
179	0xbe63e180	-0.2225399
180	0x3d798239	0.060915206
181	0xbeaf574f	-0.342463
182	0x3e18ac1e	0.14909407
183	0xbd2f645e	-0.042820327
184	0xbe8b2245	-0.27174583
185	0x3e80e73f	0.25176427
186	0xbe0a45d8	-0.13503206
187	0x3e0cc37b	0.13746445
188	0xbda6080f	-0.08107006
189	0x3d7c0c2b	0.06153504
190	0xbde0b835	-0.10972635
191	0x3d6bd5e9	0.057577047
192	0x3e1a4285	0.15064438
193	0x3d8337e1	0.064071424
194	0xbe146a18	-0.14493597
195	0x3e0d7655	0.13814671
196	0x3f0d8071	0.5527411
197	0xbe718660	-0.23586416
198	0xbc8c86cf	-0.017154125
199	0xbe14a08b	-0.14514367
200	0xbd3a1f42	-0.045439966
201	0xbd449e88	-0.04800275
202	0xbe0385d6	-0.12844023
203	0x3ebe1ae0	0.3712988
204	0x3e905860	0.28192425
205	0x3e4a97ba	0.19784442
206	0xbe011cef	-0.12608694
207	0x3e0e03f8	0.13868701
208	0xbd2406c8	-0.04004553
209	0xbdf3abb5	-0.11897985
210	0x3d926f06	0.07150082
211	0x3e3e5768	0.1858803
212	0x3d1f23a2	0.03885234
213	0xbe89a159	-0.2688091
214	0x3e12ac4f	0.14323543
215	0x3de0da84	0.109791785
216	0x3da0a8f0	0.07844722
217	0x3be1f32e	0.0068954444
218	0xbdfbb52d	-0.12290416
219	0xbdbcecbe	-0.092248425
220	0x3ecddd6d	0.40207997
221	0x3eb9ecf5	0.36313596
222	0x3e5863d6	0.21131834
223	0x3e52bc4d	0.20579644
224	0x3e725d81	0.23668481
225	0xbde40786	-0.111342475
226	0xbe19a4a4	-0.15004212
227	0x3dbc722b	0.09201463
228	0x3db7a756	0.08967464
229	0x3e376e1e	0.179131
230	0x3d71735a	0.0589479
231	0x3e66d3a2	0.22541669
232	0xbcbcb6c6	-0.023036372
233	0xbcc2b3fd	-0.023767466
234	0x3dd8112b	0.105501495
235	0x3e1e9ec0	0.15490246
236	0xbe4b42a0	-0.19849634
237	0xbe3608b8	-0.17776763
238	0xbe80a27a	-0.2512396
239	0xbda81136	-0.08206408
240	0xbb9593e1	-0.0045647477
241	0x3e16ae91	0.1471503
242	0xbcef3893	-0.029201781
243	0x3de0c47e	0.10974978
244	0x3e750df0	0.23931098
245	0xbd43a7a3	-0.047767293
246	0xbe02a284	-0.12757307
247	0x3c09c5a3	0.008408937
248	0xbdeffe1c	-0.117183894
249	0xbe2b6cf6	-0.16740784
250	0x3e60a234	0.21936876
251	0xbcfc0338	-0.030763254
252	0xbdfa2bbd	-0.12215374
253	0x3e6ea8ff	0.23306654
254	0x3d8fa1b5	0.07013265
255	0xbe5099d9	-0.20371188

hiden_layers.1.bias f4 [64]
0	0xbd2bf6cd	-0.041983414
1	0x3d2790e1	0.04090965
2	0x3e5a4158	0.21313989
3	0x3d81d7f6	0.063400194
4	0x3d74eb55	0.059794743
5	0x3d85578c	0.06510839
6	0xbccdf4a9	-0.025141077
7	0x3e0fbc16	0.14036593
8	0x3e1e9bb6	0.15489087
9	0xbcd4463d	-0.025912398
10	0xbd2a8efe	-0.041640274
11	0xbe164648	-0.14675248
12	0x3d6356a1	0.055502538
13	0x3d5ea044	0.05435206
14	0x3e21ba58	0.15793741
15	0xbd7fa8af	-0.06241673
16	0xbb374467	-0.0027964355
17	0xbd706c80	-0.058697224
18	0x3d0a502d	0.033767868
19	0xbe3d7a9e	-0.18503806
20	0x3d844ab2	0.064595595
21	0xbd9680e1	-0.073488005
22	0xbe11d086	-0.14239702
23	0x3d74b3fc	0.05974196
24	0x3d2b298f	0.04178768
25	0x3d3f7109	0.046738658
26	0x3d8f5578	0.06998724
27	0xbc122554	-0.0089200325
28	0xbda6511a	-0.08120938
29	0xbcd53007	-0.026023878
30	0x3d9445fd	0.07239912
31	0xbb5b1e25	-0.0033434716
32	0xbd8c1e9a	-0.06841774
33	0x3daf49e6	0.08559017
34	0xbdb3949b	-0.087685786
35	0xbd2ec99b	-0.042672735
36	0xbd814d93	-0.06313624
37	0x3deaaedd	0.11459134
38	0xbdd7b4be	-0.10532521
39	0x3de0f710	0.109846234
40	0x3d9f5dc0	0.07781553
41	0xbd9219c0	-0.07133818
42	0xbe3fd02b	-0.18731754
43	0x3e335fe0	0.17517042
44	0xbcaf26f7	-0.021380885
45	0x3d2eb32f	0.04265135
46	0xbda082d2	-0.07837452
47	0x3dea6f53	0.11447015
48	0xbe09f9c4	-0.13474184
49	0x3de00e39	0.10940213
50	0x3dc0c261	0.09412075
51	0x3d39a84b	0.045326512
52	0xbd3431a4	-0.043992653
53	0xbd7c466e	-0.061590604
54	0x3cb73f7c	0.022369139
55	0xbe61518c	-0.22003764
56	0x3d149b83	0.03628112
57	0xbdf4a020	-0.11944604
58	0xbc1f0603	-0.009706023
59	0xbc5d0894	-0.013490815
60	0xbe3d50ed	-0.18487902
61	0xbcd3acac	-0.025839172
62	0x3d96f3ff	0.07370757
63	0x3d5b71bc	0.053575262

hiden_layers.2.weight f4 [64, 64]
0	0xbdfb230d	-0.12262545
1	0x3e2231cb	0.15839307
2	0x3cc4ccfc	0.024023525
3	0x3cea704f	0.028618006
4	0xbcaf8fec	-0.021430932
5	0xbdf19b40	-0.1179719
6	0xbe8b33a6	-0.27187842
7	0xbe8d8d72	-0.27646977
8	0xbed12ab2	-0.40852886
9	0xbd6db881	-0.058037285
10	0x3d8928f4	0.06697264
11	0xbdcd0f18	-0.100126445
12	0xbd5833ef	-0.052783903
13	0x3dff28f7	0.12458985
14	0xbd5abc37	-0.053402152
15	0x3e527ed8	0.205562
16	0x3ed4e343	0.41579637
17	0xbcaf5837	-0.021404369
18	0xbdd342ae	-0.103154525
19	0xbe6d91ba	-0.23200122
20	0x3e4970da	0.19671956
21	0x3e210499	0.1572441
22	0xbe82ed49	-0.2557166
23	0x3ebca104	0.36841595
24	0x3b78b239	0.0037948026
25	0xbe5ce4dd	-0.2157168
26	0xbe39b265	-0.18134458
27	0x3ca7e14e	0.020493176
28	0x3c0b248d	0.008492601
29	0xbe16fdab	-0.14745204
30	0x3e5e0a8d	0.21683712
31	0xbc81dfcf	-0.01585379
32	0xbe4068b9	-0.18789949
33	0x3dd1d58b	0.10245808
34	0xbe8380ce	-0.25684208
35	0xbe6ad4ce	-0.22932741
36	0x3e8de66d	0.27714863
37	0x3e0ecbf6	0.13944992
38	0x3bbb1028	0.005708713
39	0x3d8ea9b3	0.06965961
40	0xbde3741e	-0.11106132
41	0x3e59e8d2	0.2128022
42	0xbd15d5b0	-0.03658074
43	0x3e3b7baa	0.18308893
44	0x3e05c7e9	0.13064541
45	0x3c277a08	0.010221966
46	0x3de2e930	0.11079633
47	0x3e9ab7bf	0.30218312
48	0x3e3863ce	0.18006822
49	0x3e63861b	0.22219126
50	0xbe2af6b7	-0.16695677
51	0xbe4c38b4	-0.19943506
52	0xbe03d6fd	-0.1287498
53	0x3da301e0	0.07959342
54	0x3df0c11f	0.11755585
55	0x3e7a137b	0.24421494
56	0xbd392cf7	-0.045208897
57	0x3d8e35d9	0.069438644
58	0x3e623ee3	0.22094302
59	0x3b079d6d	0.0020693198
60	0xbdfd276d	-0.123610355
61	0x3e1dd33c	0.15412611
62	0x3df55f3c	0.11981055
63	0x3df83c18	0.12120837
64	0x3d32e031	0.043670837
65	0x3e386403	0.18006901
66	0x3e7d3f22	0.24731115
67	0x3e532d5e	0.20622775
68	0x3dfabbce	0.12242852
69	0x3e896bc9	0.26840046
70	0x3e1b821c	0.15186352
71	0x3e7237dd	0.23654123
72	0x3dc966ff	0.09834098
73	0x3d8828cd	0.06648407
74	0x3e641527	0.22273694
75	0x3d069bbc	0.032863364
76	0xbd000d34	-0.03126259
77	0xbdc88cb4	-0.09792462
78	0xbd846786	-0.06465058
79	0x3e0ae64e	0.13564417
80	0x3dffad53	0.12484231
81	0xbe0dacea	-0.13835493
82	0xbe3a9975	-0.18222602
83	0xbe6e603e	-0.23278901
84	0xbac778dc	-0.0015218514
85	0xbe588d13	-0.21147566
86	0xbe098dfd	-0.1343307
87	0xbd49a582	-0.049230106
88	0x3de2ef38	0.110807836
89	0x3e57700c	0.21038836
90	0x3e25a1f3	0.1617506
91	0x3e12ac61	0.1432357
92	0xbe99a869	-0.300113
93	0x3e5d0a2b	0.2158591
94	0xbd9ad54a	-0.07560213
95	0xbe50babc	-0.20383734
96	0xbda0677f	-0.0783224
97	0x3e2dd030	0.16973948
98	0xbcd59c7f	-0.0260756
99	0x3d6a6d7d	0.057233322
100	0x3e30ec79	0.17277707
101	0x3e3f97ac	0.18710202
102	0x3e14abd9	0.1451868
103	0xbd436f2a	-0.047713436
104	0x3deb3a0b	0.1148568
105	0xbee9d764	-0.45672143
106	0xbd89ca98	-0.06728095
107	0x3c8f9a22	0.017529551
108	0x3e31a62b	0.17348544
109	0xbd17e37d	-0.037082184
110	0xbe8ae8a3	-0.27130613
111	0x3e30344d	0.17207451
112	0xbe81b539	-0.25333574
113	0x3daecb4a	0.08534868
114	0xbd37a280	-0.044832706
115	0xbe576884	-0.21035963
116	0xbe8db8e6	-0.2768013
117	0x3c9a5568	0.018839553
118	0xbd2e7868	-0.042595297
119	0xbdb59646	-0.08866553
120	0x3eaaf0f1	0.3338695
121	0xbe4d966b	-0.20076911
122	0xbe8aa4a9	-0.2707875
123	0x3eb54bb4	0.3540932
124	0xbd39c758	-0.045356125
125	0x3e636b1c	0.22208828
126	0x3e5cf353	0.21577196
127	0xbd983805	-0.0743256
128	0x3e65af4e	0.22430155
129	0xbe62487f	-0.22097968
130	0xbed729c7	-0.4202406
131	0xbe1bf766	-0.15231094
132	0x3e0e8744	0.13918787
133	0x3de7ea60	0.11324
134	0x3e2edb6f	0.17075895
135	0xbd0f523d	-0.034990538
136	0xbe2fdbfd	-0.17173763
137	0x3ebc5a61	0.36787704
138	0xbc6c0130	-0.01440458
139	0x3e740362	0.23829415
140	0x3e1fa58d	0.15590496
141	0x3e38ed99	0.18059386
142	0xbe2e8b68	-0.17045367
143	0x3e4562cb	0.19275968
144	0x3c4300ba	0.011902029
145	0xbd83939d	-0.064246394
146	0xbd0b9ab4	-0.034083083
147	0xbdcead23	-0.10091617
148	0xbe7c6eb8	-0.24651611
149	0x3d8c7b44	0.068594486
150	0x3e828320	0.25490665
151	0xbdcf3b5f	-0.10118746
152	0xbde34f74	-0.11099139
153	0xbe785284	-0.24250227
154	0xbd6d4caf	-0.05793446
155	0xbd42ce22	-0.047559865
156	0x3e696391	0.22791888
157	0x3d5a36b1	0.053274814
158	0x3daeda1b	0.08537694
159	0x3e63dea8	0.22252905
160	0x3cd8a9a6	0.026448082
161	0xbe191638	-0.14949882
162	0x3d689c99	0.05678997
163	0xbcec20af	-0.028824179
164	0x3e5a63f7	0.21327196
165	0xbdedbb84	-0.116080314
166	0xbe3724d0	-0.17885137
167	0x3cc79be8	0.024366334
168	0x3e0c18d0	0.1368134
169	0x3e81cf20	0.25353336
170	0xbdf9613e	-0.121767506
171	0xbdf7af6e	-0.120940074
172	0x3e0a328b	0.13495843
173	0xbb85650b	-0.004070883
174	0x3d92925d	0.07156823
175	0x3d812633	0.06306114
176	0x3f00c921	0.503069
177	0xbb982023	-0.004642503
178	0xbec56ebd	-0.3856105
179	0x3e7ab4c2	0.24483016
180	0xbe22d3e2	-0.1590114
181	0x3e864e47	0.26231596
182	0x3e1b1256	0.15143713
183	0x3c6590bc	0.014011558
184	0xbe4f6dee	-0.20256779
185	0x3e29e549	0.16591372
186	0xbe37d839	-0.17953576
187	0xbdbd3276	-0.0923814
188	0x3c89dd66	0.016829204
189	0x3e916971	0.28400758
190	0x3c574c0c	0.01314069
191	0x3e09d83d	0.13461395
192	0x3e1ce173	0.15320377
193	0xbe43c1b8	-0.19116867
194	0xbe88fc8b	-0.26755175
195	0x3e0774b6	0.13228115
196	0xbe73c5ec	-0.2380597
197	0xbd94967e	-0.072552666
198	0x3d951279	0.07278914
199	0xbebc9486	-0.36832064
200	0xbdfe333c	-0.12412116
201	0x3e8f8fd3	0.28039417
202	0x3e8d39f6	0.27583283
203	0xbe53b0a2	-0.20672849
204	0x3e291058	0.16510141
205	0xbc956bc8	-0.01823987
206	0xbe34a26a	-0.17640081
207	0x3e08c27e	0.13355443
208	0x3d9fda3f	0.07805299
209	0xbe4637a8	-0.19357169
210	0xbeae2603	-0.34013376
211	0xbdc4a839	-0.096023984
212	0xbe730930	-0.23733974
213	0xbd904022	-0.07043482
214	0x3e0f09a6	0.13968524
215	0xbde5e4ee	-0.112253055
216	0xbdbaf951	-0.091295846
217	0xbe4942ec	-0.19654435
218	0x3c2986ad	0.010347051
219	0x3d3516ea	0.044211306
220	0xbd88ca64	-0.06679228
221	0x3e8cc7a9	0.2749608
222	0x3d312d6d	0.043256212
223	0xbe427cad	-0.18992873
224	0xbe296f07	-0.1654626
225	0xbe9f315b	-0.31092343
226	0x3e8fd6ff	0.28093717
227	0x3e7c244a	0.24623218
228	0xbdc72751	-0.09724296
229	0x3e2f2eea	0.1710774
230	0x3d8785ef	0.06617343
231	0xbe1f0f4b	-0.15533178
232	0x3e0bf60e	0.13668081
233	0xbdf184cc	-0.11792907
234	0x3d3598f4	0.04433532
235	0x3db8c002	0.090209976
236	0x3dc18d5b	0.094507895
237	0xbe36bad0	-0.17844701
238	0x3bc3950e	0.0059686964
239	0xbd85a3e6	-0.06525402
240	0x3eac5423	0.3365794
241	0x3d57ec27	0.052715447
242	0x3d53f0c9	0.051743302
243	0xbe7a7805	-0.24459846
244	0xbd40c958	-0.047067016
245	0xbdbdc9ec	-0.09267029
246	0x3dacbf26	0.08434896
247	0xbb656f60	-0.0035009012
248	0x3e14fb41	0.14548971
249	0x3caac53e	0.020846006
250	0xbd4225bf	-0.04739928
251	0x3ea2b517	0.31778786
252	0x3da46d7a	0.080286935
253	0xbd637668	-0.055532843
254	0x3e56bad3	0.20969705
255	0x3d23a09e	0.0399481

hiden_layers.2.bias f4 [64]
0	0x3ccaf7dc	0.024776392
1	0xbda9b167	-0.0828579
2	0xbc97ef7f	-0.018546818
3	0xbc0468bf	-0.008081614
4	0xbd06012d	-0.032715965
5	0xbd27eebb	-0.040999155
6	0xbbde3338	-0.006781008
7	0xbc856dce	-0.01628771
8	0x3ce04340	0.027375817
9	0x3d3ec52b	0.046574753
10	0xbd9c3555	-0.0762736
11	0xbe1effcf	-0.1552727
12	0x3d6dfb18	0.05810079
13	0x3bf634dd	0.007513626
14	0x3db601d6	0.08887069
15	0x3d4b438e	0.049624972
16	0x3dad0d08	0.08449751
17	0xbe6ffac1	-0.23435499
18	0x3d72497c	0.05915211
19	0x3d1a8249	0.037721906
20	0x3e34d561	0.17659523
21	0x3cf35549	0.029703753
22	0x3ea67017	0.32507393
23	0x3df7fad1	0.12108386
24	0xbd957c10	-0.07299054
25	0xbde43df8	-0.11144632
26	0x3c868cc6	0.016424548
27	0xbe0db7e1	-0.13839675
28	0xbb4e75dd	-0.0031503357
29	0xbda70120	-0.081545115
30	0x3df22856	0.118241
31	0xbd51b9e6	-0.051202677
32	0xbd8d17dd	-0.06889317
33	0xbc47b42f	-0.012188955
34	0xbda67b25	-0.08128957
35	0x3e568848	0.20950425
36	0x3bf517ab	0.007479628
37	0x3d95c9ba	0.07313867
38	0x3cfb312c	0.030663095
39	0x3ddc12d4	0.10745779
40	0x3dbaa4f2	0.09113492
41	0xbda785b2	-0.08179797
42	0xbd89840c	-0.06714639
43	0x3d7fda97	0.062464323
44	0x3e40ed69	0.18840565
45	0x3e2ac72e	0.16677544
46	0xbd0b61a1	-0.034028653
47	0x3d3c74c2	0.046009786
48	0x3e1365b6	0.14394268
49	0xbe22e064	-0.1590591
50	0xbce063ef	-0.027391402
51	0xbe552cb3	-0.20817833
52	0x3d151a86	0.036402248
53	0x3e01875e	0.12649295
54	0xbb965752	-0.004588046
55	0xbda5e4c8	-0.08100277
56	0xbe454793	-0.19265585
57	0x3c51b3da	0.012799228
58	0x3be928cb	0.0071154586
59	0xbddd7974	-0.10814181
60	0xbdb331c0	-0.087497234
61	0x3e001ec3	0.12511735
62	0x3e12dd3b	0.14342205
63	0x3dd8ec47	0.10591941

hiden_layers.3.weight f4 [64, 64]
0	0xbdf3d699	-0.11906166
1	0x3e0c56ad	0.13704939
2	0x3e9fbc52	0.31198364
3	0x3cc31b70	0.023816794
4	0xbd802b33	-0.062582396
5	0x3e58623c	0.21131223
6	0xbc9b2eb9	-0.018943178
7	0xbe83c120	-0.2573328
8	0xbd26a88c	-0.040688083
9	0xbe2f67d1	-0.17129447
10	0x3e34023a	0.17578974
11	0xbd0054e3	-0.031330954
12	0x3e878093	0.26465282
13	0xbe69e5ed	-0.22841616
14	0x3e3e9030	0.1860969
15	0x3e1c4b1e	0.1526303
16	0x3dcf9634	0.10136071
17	0xbe73b1d1	-0.237983
18	0xbde70ed8	-0.11282128
19	0x3e18f04b	0.14935414
20	0x3ec6fc43	0.38864335
21	0xbe3246a0	-0.17409754
22	0x3e55f845	0.20895489
23	0x3dbcd3be	0.09220074
24	0x3e65fd73	0.22459964
25	0x3d8b4f56	0.068022415
26	0xbda2f8e0	-0.079576254
27	0x3ef81fe0	0.4846182
28	0xbd445c1f	-0.047939416
29	0x3e913831	0.28363183
30	0xbe159614	-0.14608032
31	0x3e126e38	0.14299858
32	0x3e19eb9c	0.15031284
33	0x3d9eb172	0.07748689
34	0xbd8c6783	-0.06855681
35	0x3e8322fe	0.25612634
36	0x3d5df047	0.054184224
37	0xbb0f244a	-0.0021841698
38	0xbe2e4394	-0.17017967
39	0xbe07c259	-0.13257731
40	0x3c8c7c3b	0.017149081
41	0xbf1fdd35	-0.6244691
42	0xbe7d252b	-0.2472121
43	0xbd9b3634	-0.07578698
44	0x3e9a233a	0.30105
45	0x3e1f7c33	0.15574722
46	0x3e2f9db8	0.17150009
47	0x3d022b83	0.031779777
48	0x3e0363db	0.1283106
49	0xbe7240f4	-0.2365759
50	0x3e218aa3	0.15775542
51	0xbf9fd438	-1.2486639
52	0x3e0dfdb9	0.13866319
53	0x3e6e3bde	0.23265025
54	0x3e87ed9a	0.26548463
55	0xbdd58366	-0.10425453
56	0x3d9e4a75	0.07729045
57	0x3daef266	0.085423276
58	0xbd60913d	-0.05482601
59	0x3d36e305	0.044650096
60	0xbd33bdb3	-0.043882083
61	0x3e18d985	0.14926727
62	0xbe1a84ba	-0.15089694
63	0x3e16bf8b	0.14721505
64	0xbe22c2a4	-0.15894562
65	0xbd40402c	-0.0469362
66	0xbe8ca403	-0.2746888
67	0x3da1db6c	0.079031795
68	0x3e6e57ac	0.23275632
69	0x3e90ba39	0.28267077
70	0xbe996f93	-0.29967937
71	0x3de7eaa9	0.11324055
72	0xbe84ebbc	-0.259611
73	0xbdf8c7ab	-0.12147459
74	0x3df4769c	0.119366854
75	0x3cc22006	0.02369691
76	0x3d9c0553	0.07618203
77	0xbdb89965	-0.09013633
78	0xbdfb9b1a	-0.12285443
79	0x3e38d073	0.18048267
80	0x3d28dfde	0.04122912
81	0xbcbe67ef	-0.023242919
82	0x3e1964f8	0.14979923
83	0x3e4496ce	0.19198152
84	0x3e176f00	0.14788437
85	0xbdbe07b6	-0.092788145
86	0xbda4904f	-0.08035337
87	0xbb057830	-0.0020365827
88	0xbe16bc19	-0.14720191
89	0x3c56df00	0.013114691
90	0x3db215a8	0.08695537
91	0xbe1ac3c8	-0.15113747
92	0x3ea41a34	0.3205124
93	0xbd5e151d	-0.054219354
94	0xbece4f4f	-0.40294883
95	0xbb8880f1	-0.0041657616
96	0x3c8cdb1f	0.017194329
97	0xbdac2ad5	-0.08406607
98	0x3dc1182d	0.09428439
99	0x3db91718	0.09037608
100	0xbde92e28	-0.11385757
101	0xbe9e23f1	-0.30886796
102	0xbd879604	-0.0662041
103	0x3e18366f	0.14864515
104	0x3bbbd864	0.005732583
105	0xbdca50c3	-0.09878685
106	0x3d5eea22	0.054422505
107	0x3ed153be	0.40884203
108	0x3e805fc6	0.2507307
109	0x3d9f01df	0.07764029
110	0x3e929bbd	0.28634444
111	0x3e0ed20a	0.13947311
112	0x3e8b0cf5	0.27158323
113	0xbe0dcd88	-0.13847935
114	0xbe792495	-0.24330361
115	0x3eb22711	0.3479543
116	0x3e788704	0.24270254
117	0xbc3cdc01	-0.011527062
118	0xbd650811	-0.055915896
119	0x3e66be5d	0.22533555
120	0x3e7b616f	0.24548887
121	0xbe5a62d9	-0.2132677
122	0x3ddcdb68	0.10784036
123	0x3eaed79b	0.3414887
124	0x3db057e2	0.08610512
125	0x3dcdd054	0.10049501
126	0x3d46b764	0.04851474
127	0x3eae5a28	0.3405316
128	0x3dd19f57	0.1023547
129	0x3e2d034c	0.16895789
130	0xbe8a0a52	-0.26961
131	0xbe142c70	-0.14470077
132	0xbd734987	-0.059396293
133	0x3e675955	0.22592671
134	0x3d4d749c	0.050160035
135	0xbda967d5	-0.082717575
136	0x3dc6f7c2	0.09715225
137	0xbd61ab9c	-0.0550953
138	0xbd5089bd	-0.050912607
139	0x3e57e5ad	0.21083708
140	0xbe469ba2	-0.19395307
141	0xbd87eebc	-0.06637332
142	0x3d71f84c	0.059074685
143	0xbe2aeb99	-0.16691436
144	0xbd06042a	-0.032718815
145	0x3e421c23	0.18956046
146	0xbd6368e3	-0.05551995
147	0xbe86b4b8	-0.26309752
148	0xbdc92107	-0.098207526
149	0x3d93b6b4	0.07212582
150	0xbe6044f5	-0.21901305
151	0xbd30129e	-0.042986505
152	0xbe15340b	-0.14570634
153	0xbd75ef70	-0.0600428
154	0xbe6e9c78	-0.23301876
155	0x3e839d05	0.25705734
156	0x3e33d8c9	0.17563166
157	0xbe9628ee	-0.29328102
158	0x3bc845d8	0.0061118416
159	0xbe70837a	-0.23487654
160	0xbe7da0b3	-0.24768333
161	0x3cb6c2bf	0.022309659
162	0x3e7e858b	0.2485563
163	0x3ca4ed68	0.020132735
164	0xbe175132	-0.14777067
165	0xbe040168	-0.12891161
166	0x3e3deeb9	0.18548097
167	0xbbf59bc7	-0.0074953767
168	0x3d5d68c3	0.054054987
169	0xbc921fad	-0.01783737
170	0x3d76e755	0.06027921
171	0x3cd76fa4	0.026298352
172	0x3da7b132	0.08188094
173	0xbe451bd0	-0.19248891
174	0x3e3fba54	0.18723422
175	0xbe6146f7	-0.21999727
176	0xbd93db8e	-0.07219611
177	0xbdd7ed0a	-0.105432585
178	0x3df66a0d	0.12031946
179	0x3e8bd18b	0.27308306
180	0x3dbb1d51	0.09136451
181	0xbe2a6330	-0.166394
182	0xbe4a6858	-0.19766366
183	0xbe9f011d	-0.31055537
184	0xbe0dc673	-0.13845234
185	0xbe56d969	-0.20981373
186	0x3debf674	0.115216166
187	0x3e526cae	0.2054927
188	0x3e7998e6	0.24374732
189	0xbd4595c2	-0.048238523
190	0x3e04c240	0.12964725
191	0x3d04ed85	0.03245308
192	0xbd86b0ce	-0.065766916
193	0xbe1ebfd9	-0.15502872
194	0x3e0c686b	0.13711707
195	0xbe2b9e59	-0.16759624
196	0xbeceabba	-0.40365392
197	0xbdff5c74	-0.12468806
198	0x3d2e18cc	0.042504117
199	0xbe85cd1d	-0.26133052
200	0x3e14877f	0.14504813
201	0xbefdebab	-0.49593863
202	0xbe953d60	-0.29148388
203	0xbe55cd37	-0.20879065
204	0xbe5c0073	-0.21484546
205	0xbe30817f	-0.17236899
206	0xbdd6a387	-0.10480409
207	0x3cab9947	0.020947112
208	0xbdccd1ac	-0.10000929
209	0x3c91097e	0.017704722
210	0xbcefde87	-0.029280914
211	0x3e1ef18e	0.15521833
212	0x3e8010c6	0.25012797
213	0xbc9b7573	-0.018976903
214	0xbdb612c3	-0.08890297
215	0x3dcff95b	0.10154983
216	0x3e6cea6e	0.23136303
217	0x3e0356be	0.12826058
218	0x3e83e4c4	0.25760472
219	0x3d55e60b	0.05222134
220	0xbd2e2f8e	-0.04252582
221	0xbdea98b3	-0.11454906
222	0xbe1a54f0	-0.15071464
223	0x3db5c20c	0.08874902
224	0x3e29b018	0.1657108
225	0x3dd091a8	0.10184032
226	0x3e0952f4	0.1341055
227	0xbe1ae10e	-0.15124914
228	0xbe8f8f5d	-0.28039065
229	0xbcbf5bd3	-0.023359215
230	0xbe64e7e2	-0.22354081
231	0xbd30d5c1	-0.0431726
232	0x3e05177b	0.12997238
233	0xbecc9544	-0.3995763
234	0xbe576690	-0.21035218
235	0x3e2ca337	0.16859137
236	0x3e0a508d	0.1350729
237	0xbdd97bd6	-0.10619323
238	0x3e2c25a9	0.16811241
239	0x3e9385f0	0.28813124
240	0xbe053f2d	-0.13012381
241	0x3e3fb661	0.18721916
242	0xbd9e6c34	-0.07735482
243	0xbef9fcbd	-0.48825637
244	0xbe099a60	-0.13437796
245	0x3e9f04a7	0.31058237
246	0x3dc8c07e	0.0980234
247	0x3ea234bb	0.31680855
248	0x3f01b4cc	0.506665
249	0x3e01ed24	0.12688118
250	0x3e53e83a	0.20694056
251	0xbe0eb9db	-0.13938086
252	0xbe1c8673	-0.15285663
253	0xbe53913d	-0.20660873
254	0xbe7217a1	-0.23641826
255	0x3e35a2d8	0.17737901

hiden_layers.3.bias f4 [64]
0	0x3e16cc34	0.14726335
1	0xbdc5abf1	-0.09651936
2	0x3dd8f57f	0.105937
3	0x3ddb05cb	0.10694464
4	0xbe86bc7c	-0.26315677
5	0xbcb17000	-0.021659851
6	0xbdbfc45f	-0.09363627
7	0xbe69b7c4	-0.22824007
8	0x3ef14924	0.47126114
9	0xbd51e2e7	-0.05124178
10	0x3dd1783a	0.102280095
11	0xbea75cb5	-0.32687917
12	0xbe5930a2	-0.21209958
13	0xbda6233a	-0.08112188
14	0xbe40bf70	-0.18823028
15	0xbee3d1bc	-0.44495952
16	0x3cd94e94	0.026526727
17	0xbe607214	-0.21918517
18	0xbd19856b	-0.037480753
19	0x3cfbeb94	0.03075198
20	0xbda14f5c	-0.07876465
21	0x3e720058	0.23632944
22	0xbe49f40e	-0.19722006
23	0xbc5bbe81	-0.013412119
24	0x3d2499a7	0.040185597
25	0x3e6b7bf5	0.22996505
26	0xbe59afb8	-0.21258438
27	0xbd2b1354	-0.04176648
28	0x3d8a89b6	0.067645475
29	0x3dbf0daa	0.09328778
30	0x3d63da68	0.05562821
31	0xbcdf1687	-0.027232422
32	0x3d95ede6	0.07320766
33	0xbdd12341	-0.10211802
34	0xbbbfbfba	-0.005851713
35	0x3d6f3682	0.058401592
36	0x3e9a86dd	0.30181018
37	0x3ef18b35	0.4717652
38	0x3e28748f	0.16450714
39	0xbe046ada	-0.12931386
40	0x3e4ef691	0.20211245
41	0xbe2e163e	-0.17000672
42	0x3cf5d614	0.030009307
43	0xbdb8252e	-0.089914665
44	0x3d92764d	0.0715147
45	0x3e151749	0.14559664
46	0x3e4a9c75	0.19786246
47	0x3e83a1c5	0.25709358
48	0xbe41c31b	-0.18922083
49	0xbca4e976	-0.020130854
50	0xbe4139ff	-0.1886978
51	0xbe86527c	-0.26234806
52	0x3e2336ad	0.15938826
53	0x3ea13c56	0.31491345
54	0xbe05e281	-0.13074686
55	0xbe79df27	-0.24401532
56	0x3df1935f	0.11795687
57	0x3e30ed6f	0.17278074
58	0x3e0660b7	0.13122831
59	0x3d66a941	0.056313757
60	0xbcab8aaf	-0.020940153
61	0x3ead37ac	0.33831537
62	0xbe3ec712	-0.18630627
63	0x3db62723	0.088941835

hiden_layers.4.weight f4 [64, 64]
0	0xbd92c085	-0.071656264
1	0x3e165c17	0.14683567
2	0x3dea5593	0.11442103
3	0xbe948e60	-0.29014874
4	0x3e05ef77	0.1307963
5	0xbc269877	-0.010168186
6	0x3d72144a	0.05910138
7	0x3dc3f9c2	0.09569122
8	0xbed1957e	-0.40934366
9	0x3d0f0b5a	0.034922935
10	0xbd534274	-0.051577047
11	0x3dd73331	0.10507811
12	0xbcd7930f	-0.02631524
13	0xbe62c7ac	-0.22146481
14	0xbe7e83a9	-0.24854912
15	0x3d92f9ad	0.07176528
16	0xbe0adf53	-0.13561754
17	0xbcb86337	-0.022508247
18	0x3e5aa316	0.21351275
19	0x3e3ca29f	0.1842141
20	0xbee26533	-0.44217834
21	0x3dcfd0cb	0.10147246
22	0xbd107d83	-0.035275947
23	0xbd4049ca	-0.04694537
24	0x3d7aeb89	0.06125978
25	0xbdabf800	-0.083969116
26	0x3dd53150	0.10409796
27	0x3d207c27	0.0391809
28	0xbe828565	-0.25492397
29	0xbea44d43	-0.32090196
30	0xbe87881d	-0.26471034
31	0xbdca47b9	-0.09876961
32	0x3e466f04	0.19378287
33	0x3d90c43e	0.0706868
34	0x3e0b231b	0.1358761
35	0xbe1f2a4d	-0.1554348
36	0x3ddb6ad8	0.10713738
37	0x3bb7e277	0.0056117135
38	0xbe104af5	-0.14091094
39	0xbcb7b209	-0.022423761
40	0xbe0f506b	-0.13995521
41	0x3d58d9bd	0.052942026
42	0x3e8243f2	0.25442463
43	0x3e343207	0.17597209
44	0xbdd94349	-0.10608537
45	0x3e340c6a	0.1758286
46	0x3ddd7121	0.10812593
47	0xbe2e9391	-0.1704848
48	0xbe708dd3	-0.23491602
49	0xbe712ec0	-0.2355299
50	0xbd2a3b3b	-0.041560393
51	0x3dd858d2	0.10563816
52	0xbe1ff5ba	-0.15621081
53	0x3dc78b34	0.09743348
54	0x3e4d0a91	0.20023562
55	0xbd8340b2	-0.06408824
56	0x3eafa941	0.34308818
57	0x3dababa9	0.08382351
58	0xbe1b29bd	-0.1515264
59	0xbe0b1577	-0.13582407
60	0x3e27d762	0.16390756
61	0xbe994770	-0.29937315
62	0xbd2e12dd	-0.04249846
63	0xbe0ba9c5	-0.1363898
64	0x3df7b843	0.12095692
65	0xbe2bcdf5	-0.16777785
66	0xbe7f9c62	-0.24961999
67	0x3d0e030a	0.034670867
68	0xbd604967	-0.054757502
69	0xbe843c7c	-0.25827396
70	0x3c9093d5	0.017648617
71	0xbd2a9f57	-0.041655865
72	0xbecf513f	-0.40491673
73	0xbd251b36	-0.040309153
74	0xbd9b686e	-0.07588278
75	0x3e30b5b1	0.1725681
76	0x3e9f9cd3	0.31174335
77	0xbdf9b1de	-0.121921286
78	0xbe115895	-0.14193948
79	0x3e1716dd	0.14754815
80	0xbeafb227	-0.34315607
81	0x3d48a925	0.048989434
82	0x3e03a9fd	0.12857814
83	0x3e1d6db9	0.15373887
84	0x3eef7608	0.46769738
85	0x3e4f96fa	0.20272437
86	0x3e1215c7	0.1426612
87	0x3e1dc304	0.15406424
88	0xbc0cea1f	-0.008600741
89	0xbe572b7c	-0.21012682
90	0xbe8ec7dd	-0.2788686
91	0x3d8d8da9	0.06911785
92	0xbe969991	-0.29414037
93	0xbd8e2ac9	-0.06941754
94	0xbee2b306	-0.4427721
95	0xbe399dd1	-0.18126608
96	0x3ebff8e9	0.3749459
97	0x3e40febe	0.18847176
98	0xbd1b5ab3	-0.037928294
99	0xbbc48007	-0.0059967074
100	0xbca54937	-0.020176513
101	0x3d575b88	0.052577525
102	0x3ea28a0c	0.31745946
103	0xbe2b704c	-0.16742057
104	0x3e26ad25	0.16276987
105	0xbe69b453	-0.22822694
106	0x3ea4ddb3	0.32200393
107	0x3cb1a8c3	0.021686917
108	0xbe19d6ed	-0.15023394
109	0x3edb2b5a	0.42806512
110	0x3da7bc96	0.08190267
111	0xbd85564f	-0.06510603
112	0xbe9f0996	-0.31062
113	0xbea88bf6	-0.32919282
114	0xbe3c84d5	-0.18410046
115	0x3d8a0ebd	0.06741092
116	0x3e200c11	0.15629603
117	0xbfaf9660	-1.3717766
118	0x3e71308d	0.23553677
119	0xbd8272ae	-0.0636953
120	0xbe2bcd9b	-0.16777651
121	0xbe340104	-0.17578512
122	0x3dea2160	0.11432147
123	0x3e205bef	0.1566007
124	0x3f0b77d2	0.54479706
125	0x3e88c1d1	0.2671037
126	0xbc858052	-0.01629654
127	0x3e6c73d8	0.23091066
128	0xbe75a9c7	-0.23990546
129	0xbeda2c4f	-0.4261193
130	0x3e0cb925	0.13742502
131	0xbe9a541b	-0.30142292
132	0xbd60ebcc	-0.054912373
133	0xbd757403	-0.05992509
134	0x3e2170d4	0.15765697
135	0x3d7c9722	0.06166757
136	0xbdd19155	-0.10232798
137	0xbe22fd06	-0.15916833
138	0xbd5d9a78	-0.05410239
139	0xbd597f9d	-0.053100217
140	0x3cbed635	0.023295501
141	0x3e8bdf7d	0.27318946
142	0x3e9cf85f	0.30658242
143	0xbe4d9437	-0.2007607
144	0x3ce803bf	0.028322099
145	0x3bb667b7	0.005566563
146	0xbda8d7fe	-0.08244322
147	0x3d8ff0eb	0.07028373
148	0xbf4b8168	-0.79494333
149	0xbe7fa3be	-0.24964806
150	0xbe8aaff6	-0.27087373
151	0x3e62bdfa	0.22142783
152	0xbe71d910	-0.23617959
153	0xbe37a6aa	-0.17934671
154	0xbf0f6a8f	-0.5602197
155	0x3e75cb45	0.24003322
156	0xbe7533da	-0.23945561
157	0x3ea31eae	0.31859344
158	0xbdf3279b	-0.118727885
159	0x3e6d9ae5	0.23203619
160	0xbca86545	-0.020556102
161	0xbddb1f27	-0.10699301
162	0xbe0d091b	-0.13773005
163	0x3e0012e6	0.12507209
164	0x3e7931ec	0.2433545
165	0x3dedfad6	0.11620109
166	0xbf2c0977	-0.6720194
167	0x3e8dab76	0.27669877
168	0x3e7d9718	0.24764669
169	0xbea47ba8	-0.32125592
170	0xbed4eed1	-0.41588452
171	0xbdde9152	-0.108675614
172	0xbcdeb33a	-0.027185071
173	0xbde5ec8f	-0.112267606
174	0x3df8265c	0.121166915
175	0x3eb06a9a	0.3445633
176	0x3e8a3e47	0.2700064
177	0xbdb71904	-0.08940318
178	0x3edef2da	0.43544656
179	0xbe1516a5	-0.1455942
180	0xbdd680d2	-0.10473789
181	0x3e0b3c69	0.13597263
182	0xbe9758de	-0.29559988
183	0xbe5dbd10	-0.21654153
184	0x3df20487	0.1181727
185	0xbb9ebf4d	-0.004844582
186	0x3ce4e00d	0.027938867
187	0x3e3d93cd	0.18513413
188	0xbea24db8	-0.3169992
189	0x3d952e50	0.07284224
190	0x3dd9a613	0.10627379
191	0x3eba4c98	0.3638656
192	0x3d198c0b	0.03748707
193	0xbe47fa41	-0.19529058
194	0xbe2e0e99	-0.16997756
195	0x3e824581	0.25443652
196	0x3e645ecc	0.22301787
197	0x3e1f062c	0.15529698
198	0x3eb57b5f	0.35445687
199	0xbe73eb43	-0.23820214
200	0x3e1fe2f9	0.15613927
201	0x3ded47c8	0.11585957
202	0x3d0be7c5	0.03415658
203	0x3e69307d	0.22772403
204	0xbe2464ac	-0.16054028
205	0xbe75ce27	-0.24004422
206	0x3cb64336	0.022248846
207	0x3e9fe065	0.31225887
208	0xbee1134c	-0.43960035
209	0x3e0fd09e	0.14044425
210	0xbe616d12	-0.22014263
211	0xbe209039	-0.15680017
212	0xbd7d0957	-0.061776485
213	0x3d83eefa	0.064420655
214	0x3ee574f2	0.44815785
215	0x3e45ce8a	0.1931707
216	0x3e63d630	0.22249675
217	0xbda6b65b	-0.0814025
218	0x3db6250f	0.08893787
219	0xbeb1ce4b	-0.34727702
220	0xbc07100e	-0.008243574
221	0xbf131ae4	-0.57462907
222	0x3a2f7dff	0.0006694495
223	0xbf1816c2	-0.59409726
224	0xbeb7926c	-0.358539
225	0x3e8c3d78	0.27390647
226	0xbe5ea26c	-0.21741647
227	0xbd26ce40	-0.04072404
228	0x3df5dd26	0.12005071
229	0x3c3d42b6	0.01155155
230	0x3db6e20a	0.08929832
231	0x3de8257f	0.11335277
232	0xbda42f1c	-0.08016798
233	0x3e5a28c7	0.21304618
234	0x3e0773c1	0.1322775
235	0x3eee2f7b	0.465206
236	0xbe1e4bfd	-0.15458675
237	0xbe1022f9	-0.14075841
238	0xbe28df49	-0.16491427
239	0xbe89bbd4	-0.26901114
240	0xbdd8915a	-0.105745986
241	0x3e4b5b62	0.19859079
242	0xbd249079	-0.040176842
243	0x3e3d8960	0.18509436
244	0xbda104c9	-0.07862241
245	0x3ebab363	0.36464986
246	0x3e518ed3	0.2046464
247	0x3ef8162e	0.48454422
248	0x3ce4234f	0.027848868
249	0xbd912cd5	-0.07088629
250	0xbd64c977	-0.055856194
251	0xbeae81e5	-0.34083477
252	0xbd222c81	-0.039593223
253	0xbd89e233	-0.06732597
254	0xbd9d1d3b	-0.07671591
255	0x3d323580	0.043508053

hiden_layers.4.bias f4 [64]
0	0xbe08d51d	-0.13362546
1	0x3d3a4c8b	0.045483153
2	0xbc53091b	-0.012880589
3	0x3d375b27	0.044764664
4	0xbcabaaf1	-0.020955535
5	0x3c0f6932	0.008753108
6	0x3db5f4ea	0.08884604
7	0xbe12e001	-0.14343263
8	0xbdf72be2	-0.12068917
9	0x3e45711a	0.19281426
10	0x3e3b7cc0	0.18309307
11	0xbd1023a2	-0.035190232
12	0x3dc18e65	0.09450988
13	0xbd01fa6b	-0.031732958
14	0x3d6c944d	0.05775862
15	0xbd28c321	-0.041201714
16	0x3d6d1e47	0.057890203
17	0x3e586d03	0.21135335
18	0xbdf4cb7c	-0.11952874
19	0xbe4b8ef2	-0.19878748
20	0x3e5f7a75	0.21824057
21	0xbde3e9c5	-0.111285724
22	0xbc8d4a7b	-0.01724743
23	0xbd5b196f	-0.053491052
24	0x3e344f56	0.1760839
25	0xbe8d4680	-0.2759285
26	0xbe754b7e	-0.23954579
27	0xbe693f9f	-0.22778176
28	0x3df1aeb1	0.11800898
29	0xbe990da1	-0.2989321
30	0xbe98df44	-0.29857838
31	0x3ced2754	0.028949417
32	0xbe799217	-0.24372135
33	0x3d791e4b	0.060819905
34	0xbf166f9e	-0.58764064
35	0xbee3d674	-0.44499552
36	0xbd0c9d1f	-0.03432953
37	0xbe0b76ad	-0.1361949
38	0xbe3311d9	-0.17487277
39	0xbe221ae1	-0.15830566
40	0xbdc71fba	-0.09722848
41	0xbe9e7a82	-0.3095284
42	0xbdbe4802	-0.09291078
43	0xbd0a92c4	-0.033831373
44	0x3eb77b54	0.3583628
45	0x3e29ecbc	0.16594213
46	0x3d7fe751	0.06247646
47	0xbd0a1f37	-0.033721175
48	0xbe38d529	-0.18050064
49	0xbe2d2499	-0.16908492
50	0x3e1d1bf7	0.15342699
51	0x3cbe127d	0.023202175
52	0xbe8d09ce	-0.27546543
53	0x3db7ad84	0.08968642
54	0x3cf4c308	0.029878154
55	0xbe9361c7	-0.28785536
56	0xbef99774	-0.48748362
57	0xbca5568b	-0.020182868
58	0x3da985c8	0.0827747
59	0x3ea6e76d	0.3259844
60	0x3e1cd0b1	0.15313984
61	0x3e3ab717	0.18233906
62	0x3eaf0bdf	0.34188744
63	0xbe24dad3	-0.160991
