results/2_same_with_zoom/epoch750/model_weights.pth (torch, 484214 bytes, 88 tensors)

init_layer.0.weight f4 [64, 3]
000000 8a 6c 83 be c9 ea c6 bd 43 8a 14 3e c0 0e 02 3e
       -0.25668746 -0.097127505 0.14505868 0.12700939
000010 34 0f ed ba 05 e4 9b bc bb c6 6a bd 7a eb 53 be
       -0.0018086196 -0.019029627 -0.05731843 -0.20695296
000020 c6 d7 c5 bd 89 79 40 3e a2 f8 de 3d c3 a8 b5 3d
       -0.09660296 0.18796362 0.10887267 0.08870079
000030 dd 05 18 3c 53 be 85 3e 7a e8 25 3e b9 51 0d be
       0.009278742 0.26121768 0.16201964 -0.13800706
000040 f1 10 8d be eb 17 03 3e 30 74 89 3e 7d 56 e4 3c
       -0.27551988 0.12802093 0.26846457 0.027873272
000050 dc 1f 41 3e f7 3f 71 3e 75 4b 07 3e ef 55 33 3d
       0.1885981 0.23559557 0.13212378 0.043783125
000060 a8 16 68 3e 77 d5 94 be 91 21 37 3d 58 bc e7 bd
       0.22664893 -0.2906911 0.044709746 -0.113152206
000070 70 ef 3d be df 09 2e 3e 87 9a 64 be ca 9f b6 3b
       -0.1854837 0.16995953 -0.22324573 0.0055732476
000080 01 b7 5b 3d fe 64 9e 3d 9b 1c 44 3e bc 6a 23 be
       0.053641323 0.077341065 0.19151537 -0.15958685
000090 66 de 50 3a 88 2c ae bd b0 2e 3c bd 93 1a 06 be
       0.000796771 -0.085045874 -0.045942962 -0.13096075
0000a0 1d 5b 3e bc ef b1 ec 3d b2 d9 a4 3d 1f 39 84 be
       -0.011618403 0.11557376 0.080493346 -0.2582483
0000b0 2d 60 3f bd 74 31 6b 3e c9 ef 45 be 23 e5 20 be
       -0.04672258 0.22968084 -0.19329752 -0.15712409
0000c0 e9 58 ae 3d 3e 7f 00 be a3 ad 50 3e 02 79 4d 3e
       0.08513052 -0.12548539 0.20378737 0.20065692
0000d0 f8 99 61 3e 05 09 95 bd 26 b0 cd 3c 49 42 8f bc
       0.2203139 -0.07277111 0.025108408 -0.017487662
0000e0 b8 bc b5 bd fe 7b da bd 26 bf 13 3e ad cf 8a bd
       -0.08873886 -0.10668181 0.14428386 -0.06777892
0000f0 96 0a 0d 3e 36 b1 e5 bd 5e 40 80 bd eb 4f 72 3e
       0.1377357 -0.11215441 -0.06262277 0.23663299
000100 5b 82 e9 bc c6 0f 45 bd 89 72 e7 3c b2 38 6c be
       -0.028504541 -0.048110746 0.028252857 -0.23068503
000110 17 18 e0 bd 11 9b 95 bd 8d c7 0e 3e b3 94 ed bb
       -0.10942095 -0.07304967 0.1394331 -0.0072503923
000120 8e 3b 64 bd 06 a4 f8 bd 34 d8 39 3e 68 56 e3 bd
       -0.05572086 -0.1214066 0.18148881 -0.11100465
000130 2c 28 4a 3e 6f 4e 9e bd 32 9a 49 3d 72 1c 79 3e
       0.19741887 -0.07729804 0.049219318 0.24327257
000140 7e f5 26 3e d7 33 fa bd ad 9d 6e be 21 2f 1a 3d
       0.16304585 -0.12216919 -0.23302336 0.037642602
000150 dc a5 f8 3b 0a dd 54 3c d5 dd da bc 56 f0 76 3d
       0.0075881314 0.012992153 -0.026717106 0.060287796
000160 8c f5 8d be 5f a6 97 3c db 18 92 be 1b 4c f8 bd
       -0.277264 0.01851195 -0.28534588 -0.12123891
000170 59 86 8a bd 6f d8 70 bd 4f c2 9c 3d 26 04 86 3e
       -0.06763906 -0.058800157 0.07654249 0.2617504
000180 6f db b0 bd 3e 24 73 3e 06 5d 83 3d ce cb 78 be
       -0.08635604 0.23744294 0.06414227 -0.24296495
000190 6d de 83 3e 52 1f 1f bd d5 03 93 bc 5f d0 b9 bd
       0.25755635 -0.03884823 -0.017946163 -0.09072947
0001a0 2c e7 b7 bd 9c a6 8a bd 08 06 33 be 00 45 84 be
       -0.089796394 -0.067700595 -0.1748277 -0.25833893
0001b0 8a 09 1d 3d 22 d1 17 bd b3 67 2e be 14 93 3b be
       0.038339175 -0.03706468 -0.17031746 -0.18317825
0001c0 40 8e 98 bd ec 4c c9 bb 55 27 2e 3e 3c eb 0c be
       -0.07449007 -0.006143203 0.17007191 -0.1376161
0001d0 37 71 5c 3e 30 12 45 be 64 3e 20 3e f3 36 aa 3e
       0.21527563 -0.19245219 0.156488 0.33245048
0001e0 e5 a1 6a 3e 33 b8 0b 3d 9c 58 5f be 67 43 53 bc
       0.2291332 0.034111213 -0.21811146 -0.012894488
0001f0 f4 98 c0 bd ce 63 2a be 69 99 c5 3d 30 ac b7 bd
       -0.094041735 -0.16639635 0.09648401 -0.08968389
000200 22 7a 8c 3e c2 ce 20 3d 24 48 32 bd a6 bd 97 3d
       0.2743693 0.03925968 -0.04352583 0.074092194
000210 60 1b f5 3d 1b 8f 66 be d2 40 fe bd d5 5a 9e be
       0.11968112 -0.22515528 -0.12414707 -0.30928674
000220 3e 60 86 be 14 4f 0f 3e 81 7c 91 bc 23 5e 26 be
       -0.26245302 0.1399501 -0.017759563 -0.16246848
000230 c1 f5 9e 3d 11 c5 f4 3d a5 d2 2c 3e af be 99 3d
       0.077617176 0.1195165 0.1687723 0.07507073
000240 05 44 68 3e 87 84 6d 3e d8 8e b6 bc e1 1b f2 3d
       0.22682197 0.23195086 -0.02228491 0.11821724
000250 d0 0a 90 be 91 c8 16 3e 67 3d 79 bd 38 d1 6b be
       -0.2813325 0.14724948 -0.060849573 -0.2302903
000260 66 e2 dc bd 77 f6 ac be 53 c1 f5 bd c3 65 56 bd
       -0.107853696 -0.33781788 -0.11999764 -0.05234314
000270 1e 5f 57 3e 78 32 88 be 69 cf 07 3d 71 13 f1 bd
       0.21032378 -0.26601005 0.033156786 -0.11771286
000280 ed 78 3e be 5f f2 c4 3c 48 8d f7 3d 16 4d 4d be
       -0.18600817 0.024041353 0.12087494 -0.20048937
000290 61 0b 54 be 09 dc 3e 3e 06 06 65 3b f7 de 37 3e
       -0.20707466 0.18638624 0.0034946217 0.17956148
0002a0 de 5b 3d 3e 08 45 75 3d 71 c0 4e 3e 11 85 8d 3c
       0.18492076 0.059880286 0.20190598 0.017275365
0002b0 ff 9d 9d bc ae 41 4e 3d db 39 65 3e 04 a5 74 3e
       -0.019240377 0.050355606 0.22385351 0.23891073
0002c0 b8 a5 f1 3c 77 71 07 3e c3 1d 26 3e 2f c0 ea bd
       0.029497966 0.13226877 0.1622229 -0.11462437
0002d0 5d 61 23 be 6f 42 78 be c4 5b 6d bd d9 84 24 be
       -0.1595511 -0.24244092 -0.057948843 -0.16066302
0002e0 28 30 bd 3d fb 34 35 bd 5c 39 83 3e d9 e9 03 bd
       0.09237701 -0.04423998 0.256297 -0.032205436
0002f0 9a 76 12 3d 5b 85 73 3e 79 b2 c3 3c cf de b2 3d
       0.03575764 0.2378134 0.023888813 0.087339036

init_layer.0.bias f4 [64]
000000 fb 4f df bd 11 b0 59 3d f1 b6 a5 bd 09 af ba bc
       -0.10903927 0.053146426 -0.08091534 -0.022788541
000010 ee be a0 bd 08 fb 93 bd 34 ce d3 3d 65 82 e3 3d
       -0.07848917 -0.07225615 0.103420645 0.11108855
000020 89 2e 7c bd 82 6e 94 3d b7 b2 c8 bd 81 51 81 bd
       -0.061567817 0.0724764 -0.09799712 -0.06314374
000030 bb 0a 49 3d 19 db 57 bd 7a de 40 bd f9 74 ab 3d
       0.0490825 -0.052699182 -0.04708717 0.0837192
000040 08 98 ab bd 31 e4 eb 3c ee c0 0c 3c e4 53 6c 3c
       -0.08378607 0.028795334 0.00859092 0.014424298
000050 49 07 9b 3d fe a3 96 3d 27 cc 65 3d 40 c4 ee bb
       0.07569749 0.07355498 0.056102898 -0.0072865784
000060 87 2e e1 3d 0d b4 9e bd 34 95 99 3d df 32 a5 3b
       0.109952025 -0.07749186 0.07499161 0.0050414647
000070 a7 f8 37 b8 ce 41 80 bd 4a c1 e2 bd 44 8f b5 bd
       -4.3862176e-05 -0.06262551 -0.11072023 -0.088652164
000080 4b 85 c3 3c b9 2c 3f bc 5a 82 7f bd 28 7d e2 bd
       0.02386727 -0.011668378 -0.062380172 -0.11059028
000090 c5 ee c9 3d 73 b7 b3 bd 5d 03 d3 3d fe c3 4d 3d
       0.09859995 -0.087752245 0.10303376 0.05023574
0000a0 b6 26 e3 3d e4 62 a1 3d ef c7 56 bd b5 19 98 3c
       0.11091368 0.0788019 -0.052436765 0.018566946
0000b0 3c c2 96 3d 93 7c ea bd 00 da 82 3d 3b 30 79 bd
       0.07361266 -0.11449542 0.063892365 -0.06083701
0000c0 64 8e 8d 3d e6 d3 c1 3d 33 52 70 3d 05 1b de bd
       0.069119245 0.094642445 0.05867214 -0.10844997
0000d0 97 59 ac bb e9 36 5e 3d be c7 dc 3d 2d bf cf 3d
       -0.0052597034 0.054251585 0.10780285 0.10143886
0000e0 35 d3 cd 3d e2 e7 92 ba 5c 31 a9 3d 92 cd aa 3d
       0.1005005 -0.0011208022 0.08261368 0.08339991
0000f0 b7 28 d3 bd fa 4e d5 bd b5 6a b9 3d 96 a4 c0 3d
       -0.103105 -0.10415454 0.09053556 0.09406392

hiden_layers.0.weight f4 [64, 64]
000000 92 ea 28 be 4e 07 78 bc 27 70 7c 3e 75 a3 fe 3c
       -0.16495731 -0.01513846 0.24652158 0.031083802
000010 a6 65 27 be 58 2d 0d bd d1 ba 26 3e 72 09 4e be
       -0.1634737 -0.03446707 0.16282202 -0.2012079
000020 c0 4e db bd 21 22 8f bd fa 22 2d 3d b7 bb 72 3e
       -0.1070838 -0.069889314 0.042269684 0.2370442
000030 c2 41 94 3e 64 42 ad 3d 42 87 35 3e 51 b1 4e be
       0.2895642 0.08459929 0.17727378 -0.20184828
000040 6f ad 0e bd cb 86 f1 bd 70 a2 5c 3e 12 01 35 bc
       -0.034833368 -0.11793288 0.2154634 -0.011047618
000050 23 25 32 bd 2f 7e 58 3d 8c 8f 8b 3d e0 ad 44 be
       -0.043492448 0.052854713 0.06814489 -0.19206953
000060 ed ab 76 3d 60 0f d7 3d 7e fe dc bd db c6 1c be
       0.060222555 0.105009794 -0.10790728 -0.15310232
000070 0c b0 7b 3e 09 5b 94 bd 63 4d 4c be 50 8c 6c 3e
       0.24578875 -0.07243926 -0.19951396 0.231004
000080 0f e4 18 be 12 f2 18 3d 7f 6b e0 3e f6 ae 9c be
       -0.14930747 0.03734023 0.43832013 -0.30602235
000090 0e 16 9f 3d e1 56 99 3d c0 99 44 3e c7 98 7c 3e
       0.077678785 0.07487274 0.19199276 0.24667655
0000a0 bd 1c a3 3d 0c 42 15 3d 58 82 bb 3e b8 e3 d7 be
       0.07964466 0.03643994 0.36622882 -0.42165923
0000b0 c3 6b a5 bc 7a cb 0e bd 13 e1 c6 bd 8a 3a b0 be
       -0.020192986 -0.03486202 -0.09710898 -0.34419662
0000c0 04 74 26 3e c1 6c 54 be 45 dc 51 bd fd a4 15 3d
       0.16255194 -0.20744611 -0.051235456 0.0365343
0000d0 e1 8c 53 bd 9e db 60 3c bb a6 dd 3d ac d5 77 3e
       -0.051648024 0.013724236 0.10822817 0.24202603
0000e0 7b fe c4 bc 5d 8a b2 be 02 72 25 be 11 f7 01 3e
       -0.024047127 -0.34871188 -0.16156772 0.12691905
0000f0 84 09 d4 3d c0 22 f4 bc df 34 61 bd 30 7b 30 be
       0.103533775 -0.029801726 -0.054982062 -0.17234492
000100 0d d2 69 bc 7c 91 5f be d6 4d 4e be aa f4 24 3e
       -0.014271271 -0.21832842 -0.2014688 0.16108957
000110 37 1d 31 be a5 ad b1 bd 62 87 29 3e de 2e 4f be
       -0.17296301 -0.08675698 0.1655555 -0.20232722
000120 c0 46 5f 3c 2a 25 31 be ab 7f 7f 3e d4 9d 14 be
       0.013627708 -0.17299333 0.24951045 -0.14513332
000130 de 9b b8 bb bc ed 8d 3d 7a 51 8c 3c fa 2f 09 3e
       -0.005633815 0.0693011 0.017128695 0.13397208
000140 76 9c 33 bc 1b 7d 26 3e 8a 4c 9d bc 16 72 b7 bb
       -0.010962596 0.16258661 -0.019201536 -0.005598317
000150 97 98 96 bd ea d2 6c be 3f 6d d9 3d 36 e5 13 3e
       -0.07353323 -0.23127332 0.1061654 0.14442906
000160 fb e5 e4 bc 17 a0 87 bd 80 11 65 3e ec 77 24 3e
       -0.027941694 -0.066223316 0.22369957 0.16061372
000170 d4 97 fd 3d c7 96 e6 3d 1d ab 16 be 5c 75 c5 bd
       0.123824745 0.11259227 -0.14713712 -0.09641525
000180 76 15 8d 3c 74 d2 dc 3c 83 25 03 3e e6 dc 06 3e
       0.017222147 0.02695582 0.12807278 0.13170204
000190 67 cf 3b 3e 78 66 71 bc ee 6d 3c bd f7 8f 42 3e
       0.18340836 -0.014733903 -0.046003275 0.1900023
0001a0 3b fe ea bd 02 ea 3b bd 09 8d 48 be 07 67 4b 3c
       -0.11474272 -0.045877464 -0.1958505 0.0124147
0001b0 fc 1d af 3d ce e1 40 be d1 20 35 3e 36 99 47 be
       0.08550641 -0.18836138 0.176883 -0.19492039
0001c0 0d ea 84 bd a7 9f a9 bd af a7 9d bd 22 04 cf bd
       -0.06489954 -0.082824044 -0.07697999 -0.1010821
0001d0 dd 0f c9 3d d7 f3 0a be 33 b4 00 3e 9e 36 00 3e
       0.09817479 -0.1356958 0.1256874 0.12520835
0001e0 c3 6d 41 be 91 95 c5 bd 50 dd 40 be c1 33 3f be
       -0.18889527 -0.09647668 -0.18834424 -0.18672086
0001f0 5c 54 4c 3e b4 9c 30 3e 02 93 22 3e 4d b6 d9 bd
       0.19954056 0.17247277 0.15876392 -0.10630474
000200 31 c1 07 3e 6c f7 e6 bc a9 6a 5f 3e a2 13 99 3c
       0.1325729 -0.028194152 0.21818031 0.01868612
000210 5b 42 4b be 0c 75 23 3c c7 17 1d bd d3 41 3e be
       -0.19849531 0.009976637 -0.038352754 -0.18579797
000220 40 21 54 3e 36 d7 ad bd d0 fd 91 bc 1d b1 22 3e
       0.20715809 -0.08488314 -0.017821223 0.15887876
000230 63 0c d1 3d 11 1b 6d be 97 2b 8a 3e cb a1 c5 bd
       0.10207441 -0.23154856 0.2698638 -0.0965
000240 80 91 07 bd 92 71 34 be b7 f8 9d 3d cd e2 0e be
       -0.033097744 -0.17621449 0.07713454 -0.13953705
000250 be 99 63 3a c8 04 d1 bd ed 62 1d be 27 c4 8e bd
       0.0008682272 -0.1020599 -0.15369768 -0.06971007
000260 c8 12 f9 bc b2 ca 11 be a5 c8 85 bd 5f 52 46 3e
       -0.030404463 -0.14237478 -0.065324105 0.1936736
000270 42 18 33 bd d0 2c c1 bd 69 93 7c 3e 72 17 60 3e
       -0.043724306 -0.094323754 0.24665608 0.21883944
000280 8f ab 77 be da c9 38 be 92 d4 88 3e 72 45 8b 3e
       -0.24186538 -0.1804575 0.26724678 0.2720142
000290 b8 26 f0 bd 71 43 d9 bd 5f d4 01 bd a2 7b 5a bd
       -0.11726135 -0.106085666 -0.031696673 -0.05334056
0002a0 5d ca 5c be 62 05 94 bd 08 80 65 3e c0 2e 4a 3e
       -0.2156157 -0.07227589 0.22412121 0.19744396
0002b0 b9 53 4d 3e 2e 2c 76 3d 12 15 26 bd ca 8a e4 3c
       0.20051469 0.060100727 -0.040547438 0.027898211
0002c0 db 2d b4 bc 49 b0 79 3d 05 0a e9 bd 58 aa b9 bc
       -0.021994522 0.060959134 -0.11378864 -0.022664234
0002d0 50 17 0e 3e 69 40 5f bd 84 ed 02 be 42 3e 38 3c
       0.1387608 -0.054504786 -0.12785918 0.011245312
0002e0 f4 c9 80 be 72 eb 39 3e f9 c6 3d be f1 bf 44 be
       -0.25154078 0.18156222 -0.18532933 -0.19213845
0002f0 65 57 66 3e d7 b9 23 be 4e a2 fe bd c1 cf 21 3e
       0.22494276 -0.15988861 -0.12433301 0.15801908
000300 02 af de 3d 3b a7 fc bd b4 8a 6d bc 53 a6 33 bd
       0.10873224 -0.12336584 -0.014498401 -0.04385979
000310 a8 fd 0e 3e fc 3b b2 3d 97 95 ea bc 23 c0 f3 bd
       0.1396395 0.08702847 -0.028635783 -0.119018815
000320 79 26 b3 be 50 6f 2c be a1 5c 45 3d c2 16 49 3d
       -0.3499029 -0.16839337 0.04818404 0.04909397
000330 9d f2 f1 bd ac 59 4e bd f2 88 74 bd 1f 23 15 be
       -0.11813853 -0.050378487 -0.059700914 -0.14564179
000340 97 82 19 be 50 d6 2b 3e ef b1 20 3e 21 2e 68 bd
       -0.14991222 0.16780972 0.15692876 -0.056684617
000350 cf bd 31 3e e6 07 f9 bd c6 b4 3c be 40 0c 6d bd
       0.17357562 -0.1215971 -0.18428335 -0.05787301
000360 21 35 6d 3e 1c 71 6f 3d 54 4f 4d ba cc d0 80 bd
       0.23164798 0.05845748 -0.000783195 -0.06289825
000370 48 f8 e5 bd 99 d4 7a be ef 06 45 be 8b 11 d1 3c
       -0.112289965 -0.24495162 -0.19240926 0.02552106
000380 ed 46 a2 bd 6a 29 15 3e ca c3 54 be 54 69 09 bd
       -0.07923684 0.1456658 -0.20777813 -0.033547714
000390 04 1f f2 bb be b1 45 be fa 4d a5 3c ed ec 28 3d
       -0.0073889513 -0.19306085 0.020178784 0.041241575
0003a0 2f dd 25 be 2f fa 5d bc 12 69 06 3c f0 98 58 3e
       -0.16197656 -0.013548418 0.008203762 0.21152091
0003b0 ea e1 47 3c 75 56 6f 3c db f8 92 3d 59 06 a1 3d
       0.012199858 0.014608015 0.07176372 0.07862539
0003c0 76 82 08 3e ce 3d 0f be 2a 50 2c 3e d3 fd ed bd
       0.13331017 -0.1398842 0.16827455 -0.11620679
0003d0 0b 2a 81 be de 97 0d 3e 6a f9 36 3e f2 d1 bb 3d
       -0.2522739 0.13827464 0.17868581 0.09170903
0003e0 c0 0c 36 be 12 c2 0b be ba 2f 7e bd cb a2 1f 3e
       -0.17778301 -0.1364825 -0.062057234 0.15589444
0003f0 19 35 0c be b3 34 c1 bd bd 1b 9f bb 3a 40 88 bd
       -0.1369213 -0.0943388 -0.0048556016 -0.06652875

hiden_layers.0.bias f4 [64]
000000 e3 3a 2b bc 12 e6 3a 3d 86 6f b4 bd 6b 32 98 3d
       -0.010451051 0.04562957 -0.08810334 0.074314915
000010 65 f9 8e 3a 8f 23 7a bd c3 0b b3 3d be 2d b9 bd
       0.0010908066 -0.061069068 0.08742478 -0.09041928
000020 72 4d 42 bc 9e 58 a5 3c a0 24 91 3d ec 03 31 3d
       -0.011859285 0.020183858 0.07087064 0.04321663
000030 8e a4 b0 3d 6e 71 d6 bd 0e e5 c0 bc 43 ce b5 bd
       0.08625136 -0.10470854 -0.023546722 -0.08877232
000040 d1 04 b5 3b c0 45 08 bd 46 a3 95 3d 7a 15 95 ba
       0.005524256 -0.033269644 0.073065326 -0.0011374198
000050 a8 b2 38 bd da 52 93 3d be 0e 21 bd 1c 28 8b bc
       -0.045092255 0.07193537 -0.0393207 -0.0169869
000060 20 8b 26 3c 2e 88 82 3d 43 d8 5a bd f7 0b 59 bd
       0.010165006 0.063736305 -0.0534289 -0.052989926
000070 68 00 64 bc b4 a9 04 3a d0 44 b7 3c 20 8a 8c 3d
       -0.0139161125 0.0005060688 0.02237168 0.06862283
000080 ef a1 62 3d 6f 81 2c 3d 8d d3 39 bd 5b 97 70 3d
       0.055330213 0.042115625 -0.045367766 0.058738094
000090 b0 64 8b bd 49 d8 a3 3d 7a 9a 90 3d 53 20 e9 3b
       -0.06806314 0.080002375 0.07060714 0.007114449
0000a0 02 4b ab 3d 64 4e 55 bd f4 6b 96 3d ee c4 d2 bb
       0.08363916 -0.052076712 0.07344809 -0.0064321673
0000b0 38 74 80 bd e5 86 1d bd 82 63 d8 bd 65 7e 57 bd
       -0.06272167 -0.038458724 -0.105658546 -0.052610774
0000c0 24 c5 49 bc 4e a8 75 3d df 22 a3 3d e7 5a 06 bd
       -0.012315068 0.05997496 0.079656355 -0.032801535
0000d0 19 22 b5 3d a5 84 47 3d 5f 63 39 3b d3 8a ad 3b
       0.08844394 0.048710484 0.002828799 0.00529609
0000e0 eb 80 a3 bd a3 7c 2b bd 6a a6 2c 39 b7 a1 60 bd
       -0.079835735 -0.04186691 0.00016465192 -0.054841723
0000f0 6b 83 63 bd f6 4b 8f 3d 0a 14 c5 bd 80 54 e5 bc
       -0.05554525 0.0699691 -0.09622963 -0.027994394

hiden_layers.1.weight f4 [64, 64]
000000 c8 a0 69 3e 1e a4 af 3d bb 94 42 be b9 9f 69 3d
       0.2281524 0.08576225 -0.19002049 0.05703709
000010 a2 a5 38 be c7 e0 3f 3e e4 e4 e6 bd ef 68 ea bd
       -0.18031934 0.1873809 -0.11274126 -0.11445796
000020 96 31 ae bc 3d 79 dd bb ad ee 7f bc 00 6d 9f bd
       -0.021263879 -0.0067588375 -0.01562087 -0.07784462
000030 f1 5b b3 3d ab 50 9b 3d 9a 8c f2 3c cc 07 75 bd
       0.08757771 0.075837456 0.02960806 -0.05982189
000040 47 c5 02 3d 2c 83 05 3e 36 95 e5 3d 04 db 8d bc
       0.03192642 0.1303832 0.112101 -0.017316349
000050 c4 fe 50 3e 9a 7b 04 be 62 b2 2a 3d a3 45 12 be
       0.20409685 -0.12937775 0.041674025 -0.14284377
000060 b3 31 a4 3c a1 62 57 be a2 83 9b bd 44 28 2d 3e
       0.02004323 -0.21033718 -0.07593466 0.16909891
000070 49 21 6a 3d b6 99 68 ba c3 65 19 bd 69 1c 0b 3e
       0.05716065 -0.00088730024 -0.037450563 0.13585056
000080 3a 3d 48 be 25 a2 40 3e 1a 2b 30 be 0b 53 26 be
       -0.19554606 0.18811853 -0.17203942 -0.16242616
000090 55 32 13 bd c3 b8 62 3c b4 99 ba bc f9 dd 2b 3e
       -0.035936672 0.013837996 -0.02277837 0.16783895
0000a0 e3 f2 b4 3d 61 59 2f 3e 0f ee 17 be 84 45 ca 3d
       0.088353895 0.17123939 -0.14836906 0.0987654
0000b0 7e 23 61 3e 76 94 67 3d 59 9e 38 3e 37 d1 4d be
       0.21986195 0.056538068 0.18029155 -0.2009934
0000c0 e1 de 55 bd 10 21 24 be 67 be 0b bd e1 da c5 3d
       -0.052214507 -0.16028237 -0.03411713 0.096608885
0000d0 ac b6 0b be 33 d6 6d bb a9 54 02 bd c5 50 3f be
       -0.13643903 -0.0036291003 -0.03181902 -0.18683155
0000e0 54 70 71 3e 87 cc 0a be e4 f7 1e be 8e 73 d7 3d
       0.23578006 -0.13554583 -0.1552425 0.10520087
0000f0 85 a0 b7 3d 87 a5 49 3d c1 ac dc 3b 2f 09 06 be
       0.089661635 0.049230125 0.006734461 -0.13089441
000100 82 d2 2d 3b 8c 64 56 bd e6 2f 56 be e6 bd c0 3d
       0.0026523178 -0.052341983 -0.2091671 0.0941122
000110 0b a6 13 be aa 89 0e be 96 b2 06 be 71 bc bf bd
       -0.14418809 -0.13919702 -0.13154063 -0.09362114
000120 af e6 cc 3d ea 9c bb bd 48 e7 68 3e 64 0f ab 3d
       0.10004937 -0.09160788 0.22744477 0.08352545
000130 d0 6a 6e 3d 5e f9 26 bd d9 15 d4 bc c8 f0 7c 3a
       0.058207333 -0.04076516 -0.025889324 0.00096489163
000140 cb c6 e8 3d 18 63 63 bd 04 f0 2a 3e 12 30 11 3e
       0.11366042 -0.055514425 0.16693121 0.14178494
000150 0a 4b 37 3d f3 45 35 3e c2 e1 89 be 10 39 89 3d
       0.044749297 0.17702465 -0.26930052 0.06700337
000160 cf d4 9d bd b2 07 45 3e 05 15 7b 3c c9 fa c3 bc
       -0.07706606 0.19241217 0.015324836 -0.023923295
000170 a1 03 f3 bd 4d a2 cd 3c e6 c3 ea bd 89 0f 70 3e
       -0.118659265 0.025101805 -0.11463146 0.23443426
000180 0f 92 5b 3e 9a 93 2c 3e 6f 75 48 be ba a1 f9 bd
       0.21442436 0.1685318 -0.19576047 -0.1218905
000190 12 6b 47 be 00 4c 11 3d 72 b2 05 be dc 5a 65 be
       -0.19474438 0.03547287 -0.13056353 -0.22397941
0001a0 b7 f6 54 be 66 58 5f be 37 dd 0a 3e 7a 04 a5 bd
       -0.20797239 -0.21811065 0.1356095 -0.080574945
0001b0 53 66 5b 3d 56 e9 23 3e ca 6b 2c bf 3b 35 63 be
       0.05356438 0.1600698 -0.67351973 -0.22188275
0001c0 e8 40 23 3e 06 83 8d 3e d9 55 3c be 4b 17 cb bd
       0.15942729 0.27639025 -0.18392123 -0.09916552
0001d0 0d 9b 99 3e 65 b6 fd bc 0e 5f 33 3e c9 3d 2c bd
       0.30001107 -0.030970762 0.17516729 -0.04205111
0001e0 e8 be 78 bd fc 45 6e 3d fc ea a1 bd 43 b8 df 3d
       -0.060728937 0.05817221 -0.07906148 0.10923817
0001f0 e1 91 5f 3d 9a 68 34 3e 18 ac 43 3d db 05 3a 3e
       0.05458248 0.17618027 0.047771543 0.18166296
000200 9c 89 a0 3e 2d a1 96 3d b3 bf 55 bd bb 2f 8c 3d
       0.31354988 0.073549606 -0.05218477 0.06845041
000210 36 98 af 3d f0 dd 3a 3e 9d 2f ab bd d8 fb eb 3d
       0.08573954 0.18248725 -0.08358691 0.11522645
000220 77 fc 45 3e 28 82 1d bd dd a8 43 be 9f 05 42 bd
       0.19334589 -0.038454205 -0.19107385 -0.047368642
000230 4e 65 95 3d df 30 15 bd c7 0b b7 3d 4d fc 3a bd
       0.07294713 -0.03642356 0.08937793 -0.04565077
000240 b3 ac 3d be b8 54 9f bd 1f 94 70 3d 57 3b 02 3e
       -0.18522911 -0.07779831 0.05873501 0.12717949
000250 f1 3e eb 3c b1 8c 58 be b3 3b 29 be 18 0b 5c be
       0.028716536 -0.2114742 -0.1652668 -0.21488607
000260 b2 38 e1 bd bc 5d a7 3d 93 55 25 be cd 34 aa bd
       -0.10997142 0.08172175 -0.16145925 -0.08310852
000270 3a 16 3e 3e 03 1d 73 3d 85 dc 51 3e 18 78 59 3e
       0.18563166 0.05935384 0.20494278 0.21237218
000280 04 2f e9 3d cd 8e 1f be 9d 88 09 bd 9d be a5 bd
       0.11385921 -0.15581818 -0.03357755 -0.08092997
000290 45 5e 8d bd 95 b8 e9 bd 4f 1b 32 3d f3 fc f0 bd
       -0.06902746 -0.11412159 0.043483075 -0.11766996
0002a0 3a 70 c5 bd b4 c4 d4 bd 0f c0 25 be ee 5f 37 bd
       -0.09640546 -0.10389081 -0.16186546 -0.04476922
0002b0 68 c7 ae 3d 17 42 9a 3c 29 49 c7 bd f6 a2 bc 3d
       0.085341275 0.018830342 -0.09730751 0.0921077
0002c0 66 f1 77 3c 8b 4f 21 bd 40 cb 70 3d 15 ca 2c be
       0.0151332375 -0.0393825 0.058787584 -0.16873963
0002d0 b3 5e 38 3d 79 4b 24 be 4b 58 94 3b 63 b9 02 3d
       0.045012187 -0.16044416 0.004527127 0.03191508
0002e0 77 27 66 be 82 22 e9 3d 49 77 cc bd 85 42 e1 3b
       -0.22475992 0.11383535 -0.09983689 0.006874385
0002f0 4d 29 83 3d be c1 9a 3d e8 02 57 bc f1 bd c8 bc
       0.06404362 0.07556485 -0.0131232515 -0.024504634
000300 03 8d 76 bc fd c1 85 bd 10 d0 34 be a8 dd 17 3e
       -0.015048268 -0.06531141 -0.17657495 0.14830649
000310 3e 9c 6a 3e dd 38 79 be 3d 7a 8a bd 10 c1 13 be
       0.22911164 -0.24338098 -0.06761596 -0.14429116
000320 0b c1 77 3b 11 c2 65 3b 49 d4 0c be f9 e8 8d 3e
       0.0037804272 0.00350583 -0.13752855 0.27716807
000330 b5 51 8b 3e e2 9f c2 3d 14 98 50 bc 86 6a b1 3d
       0.27210775 0.095031515 -0.012731571 0.08662896
000340 9a ee 64 bd 57 ea d2 bd 80 a8 c4 3d 54 71 5c 3e
       -0.05589161 -0.10298603 0.09602451 0.21527606
000350 b3 aa 9d bc f0 34 55 be 95 06 d3 3d da 13 eb 3d
       -0.019246435 -0.20820975 0.1030399 0.11478396
000360 61 dc 6a 3d bd 7f b7 3d 2b 1a d1 bc 96 33 97 bd
       0.057339076 0.08959911 -0.025525173 -0.07382886
000370 57 ee 09 3e 17 23 21 3e 28 9b f2 3d b4 1d 36 3e
       0.13469826 0.15736042 0.11846 0.17784768
000380 74 d0 24 3e 45 2d 38 bc a8 2a 08 be af 75 1d 3d
       0.16095144 -0.011241262 -0.13297522 0.03844231
000390 f2 16 96 3d 9d 50 26 3d 5d 6e ef 3d fe c3 26 3e
       0.07328595 0.040604223 0.11690972 0.16285703
0003a0 18 db fe 3d 0a 2d 82 bc 2e 3f 60 3e 43 8f 1f 3e
       0.124441326 -0.015890617 0.21899101 0.15581994
0003b0 03 b3 fd bd 08 57 28 be 28 8b 81 be f1 6f e5 bd
       -0.123876594 -0.1643945 -0.2530148 -0.11202992
0003c0 87 4b c8 3d ec c2 8c 3d cc ce 10 bd d5 04 ec 3d
       0.09780031 0.06873116 -0.035353467 0.11524359
0003d0 eb f3 3c 3e 89 48 4b bd 85 6c 8d be f1 6d 31 bd
       0.18452422 -0.04962972 -0.27621856 -0.04331774
0003e0 d0 d0 59 be 0f cf ac bd d3 7b de 3d 11 53 82 3c
       -0.21271062 -0.08437931 0.10863461 0.01590875
0003f0 c7 da 21 be 2f 1a 81 3e d8 fe c4 3d f4 6a 61 be
       -0.15806113 0.2521529 0.0961892 -0.22013456

hiden_layers.1.bias f4 [64]
000000 b8 51 0f bd 5b 4b 86 3d 50 9f 38 3d 01 c6 c4 3c
       -0.034990042 0.06557342 0.045073807 0.024020197
000010 74 13 6f bc a4 a2 a0 bd 54 b6 52 bd 58 66 5b bd
       -0.01459204 -0.07843521 -0.051443413 -0.0535644
000020 5c 75 aa bd b1 ec 8f bd 4b 57 5f 3d 14 98 85 bd
       -0.08323166 -0.07027567 0.05452661 -0.06523147
000030 a0 a8 53 bd a7 75 80 bc e6 80 52 bd 8a 2a a6 bd
       -0.051674485 -0.015681101 -0.05139246 -0.081135824
000040 41 42 bd 3c 66 ae 1f bd f4 f0 65 bd e8 14 79 3d
       0.023102881 -0.03898468 -0.056137994 0.060810953
000050 df 59 69 bd be a1 b4 3c cc e6 7d bc dc 5d a4 3d
       -0.056970473 0.022049781 -0.015496921 0.08025715
000060 af 63 2a 3d 74 15 7d bd 5c 33 83 3d 3f 17 90 bb
       0.041598972 -0.061788037 0.064062804 -0.0043973024
000070 db 5d 80 bd 76 0e 83 bd 7e e1 1c bd d8 b7 57 bd
       -0.062679015 -0.063992426 -0.038300984 -0.05266556
000080 08 fd 50 bd 5d 1f 34 3d 49 4e 8d 3d a8 94 87 3d
       -0.05102256 0.043975223 0.06899697 0.06620151
000090 4e 82 58 3d 5b 02 5a bd 00 8e 24 3d 6a 79 af 3c
       0.052858643 -0.053224903 0.040174484 0.0214202
0000a0 b3 b8 0b bc ae 17 84 bb 3f c9 1c bd ba 16 42 bd
       -0.008527922 -0.004031143 -0.03827786 -0.047384955
0000b0 17 4c 3e bd 08 fe 4b 3d c9 68 a7 bd 57 48 a8 3d
       -0.046459284 0.04980281 -0.08174283 0.08216923
0000c0 4b a5 29 3d 1c 75 59 bd f0 7c 8d 3d b6 c2 37 bd
       0.0414174 -0.0530902 0.069085956 -0.044863425
0000d0 b2 af 03 bd 7c 2d 45 3d 06 18 86 bd 35 e0 76 3d
       -0.032149978 0.04813908 -0.06547551 0.060272414
0000e0 ce 0b 3d bd 87 35 74 3d 88 6c 52 3d 53 fc 8d 3d
       -0.046153836 0.05962136 0.051373035 0.06932893
0000f0 f5 a0 32 3d 65 9e 8e 3c fa 45 ea 3c bc b1 5e 3d
       0.04361053 0.017409513 0.02859782 0.05436872

hiden_layers.2.weight f4 [64, 64]
000000 d1 79 5a be c1 3d c8 3e ae f0 67 3d 37 15 a1 3a
       -0.21335532 0.39109614 0.056626014 0.0012289648
000010 9d 64 43 bd b2 e4 8f bd 44 8a 73 be 79 a6 40 be
       -0.047703374 -0.07026042 -0.23783213 -0.18813504
000020 9d ca cf be b0 bd 70 be 2c 23 a9 3d 79 b0 0e be
       -0.4058427 -0.2350986 0.08258662 -0.13934506
000030 2c b0 ff bd 0d 65 ff 3d b2 67 18 be 02 f5 47 3e
       -0.12484774 0.12470446 -0.14883307 0.19527057
000040 3e 10 43 3e 49 df a4 3c 03 23 91 bc 40 3d 2c bd
       0.19049165 0.020126002 -0.01771689 -0.0420506
000050 0b 7d 4c 3e cf 6d 5b 3e af 37 52 bd 75 a0 81 3e
       0.19969575 0.21428607 -0.051322635 0.25317731
000060 ac 7d 63 3e 8c d9 38 be 43 3d 79 be f3 d3 42 be
       0.22215909 -0.18051738 -0.24339776 -0.19026165
000070 80 72 11 3e c4 2f f8 bd 32 da 5a 3e 95 53 0f be
       0.14203835 -0.121184856 0.21372297 -0.13996728
000080 db e4 1f be 90 40 97 3d 03 36 3b be d3 fe d6 bc
       -0.15614645 0.07385361 -0.18282323 -0.026244557
000090 ec 51 18 3e 43 75 99 3c 43 b3 90 3d e2 dc 28 bd
       0.14875 0.018732673 0.070654415 -0.041226275
0000a0 82 35 24 be 5e 41 14 3c c8 0f 0d bc c4 89 8e 3d
       -0.16036037 0.009048788 -0.00860972 0.069598705
0000b0 9b c1 00 3e 01 55 0f be 1a c4 f5 3c ca a2 23 3e
       0.12573855 -0.1399727 0.030000735 0.15980068
0000c0 a4 6a e8 3c 57 fd ce bc c9 8f a4 3d e8 37 ed be
       0.028371163 -0.025267286 0.08035237 -0.46331716
0000d0 02 31 d2 bd 64 92 12 3e 94 d9 e0 3d 42 ed 40 3e
       -0.10263254 0.14313656 0.10979 0.18840507
0000e0 49 ba 50 be fc e1 22 3e 46 8a 9e 3e 68 89 9f 3b
       -0.20383562 0.15906519 0.3096487 0.004868675
0000f0 e3 28 97 bd bd 16 c6 3c 36 9b 6a 3d 52 a6 bc 3e
       -0.073808454 0.024180764 0.057276927 0.36845642
000100 a3 7d ae 3d 95 cf 8c ba b3 9e 1c 3e 99 46 1a 3e
       0.08520057 -0.0010743017 0.15294914 0.15065993
000110 a1 e3 67 3e 41 72 0b 3e 4d 23 1c 3e d3 6b 69 3e
       0.22645427 0.13617803 0.15247841 0.22795038
000120 79 40 db 3d 7c a2 36 3e 0d b7 3e 3e f4 6e 24 3e
       0.107056566 0.1783542 0.18624516 0.1605795
000130 b3 23 cf bd 4a a1 40 bd 73 dc 4f bd 44 34 30 3e
       -0.10114231 -0.047028817 -0.050747346 0.17207438
000140 0c 83 d6 bd db 4c 8c 3d 1b 79 6c be b8 f1 11 be
       -0.10474214 0.068505965 -0.23093073 -0.14252365
000150 79 08 fa 3c bb 9c 06 be 36 f8 b1 bc b7 5d 3f be
       0.030521618 -0.13145725 -0.021724802 -0.18688093
000160 2b 1f 33 bd 6f de bc 3d c9 d0 61 3e 3a 29 fa 3d
       -0.043730896 0.09222113 0.22052301 0.122148946
000170 6f e2 ec bd b8 73 7f 3d d0 f5 07 bd b6 c3 7a bd
       -0.11566626 0.062366217 -0.03319341 -0.0612218
000180 ac 10 e7 ba 54 47 51 3e 25 19 ba bd d7 f2 04 3e
       -0.001762887 0.20437366 -0.09086827 0.12983261
000190 aa 2d fe 3d ea 7c 9c 3d 14 d1 76 3d 3b b3 4b be
       0.124110535 0.07641013 0.060257986 -0.1989259
0001a0 f7 b9 a9 bd de 4d ee bd 84 33 07 bc 71 c2 98 3c
       -0.08287423 -0.11635946 -0.008252028 0.018647404
0001b0 6b 60 da 3c be e1 63 be 4b bb a2 bd c0 da 5e 3e
       0.026657304 -0.22254083 -0.079458795 0.21763134
0001c0 09 c5 2d be 58 48 52 3e 68 06 d2 bd 41 57 94 bd
       -0.16969694 0.2053541 -0.10255128 -0.07243205
0001d0 0c 66 13 be 31 8e 23 3e 88 b4 f3 bd d2 ee dd be
       -0.14394397 0.1597221 -0.11899668 -0.43346268
0001e0 2f 29 05 3f ce 19 12 bd 82 45 b9 bd 9e 05 32 3e
       0.52015966 -0.03566914 -0.09046461 0.17384955
0001f0 de e6 8c 3d 8d 72 4a 3e 67 51 d4 3d 83 56 5a be
       0.06879972 0.1977026 0.10367089 -0.21322064
000200 92 3f 5b 3e 61 79 8b be e6 b1 bf bd 83 d9 00 be
       0.21410969 -0.27241042 -0.09360103 -0.12582974
000210 bf ff 0e 3e 99 83 73 3d 49 a4 39 3e a1 3d b4 3c
       0.13964747 0.059451673 0.18129076 0.022002043
000220 61 2e 63 bd cf b4 81 3e 31 fd 4b 3b 29 90 53 3e
       -0.055464152 0.25333259 0.0031126256 0.20660461
000230 e4 41 1d 3c 53 1b 2c 3e 44 3e 1c be 9e 8c 37 3e
       0.009598229 0.16807298 -0.15258127 0.17924735
000240 a0 5b a0 3d 15 0b 54 be 5b 1b 12 3e dc 87 52 be
       0.07829976 -0.20707352 0.14268248 -0.20559639
000250 71 e1 48 be 40 30 7a 3d 57 83 17 3e 21 1f 3c be
       -0.19617249 0.06108117 0.14796196 -0.1837125
000260 2f ef 8e bd 70 10 9e bd 40 3e cf bd ef 08 0a bd
       -0.069792144 -0.07717979 -0.10119295 -0.033699926
000270 9f 6e 9c 3d 1d 44 cb 3d dd 64 ce 3d 51 f2 92 3e
       0.07638287 0.09925101 0.10077832 0.28700498
000280 ae d1 f1 bd c1 a4 22 be ed d1 85 bd 1b 8b e7 3d
       -0.11807571 -0.15883161 -0.06534181 0.11305829
000290 40 bd 2e 3e ff 31 b8 bc d9 77 5d be f5 15 42 3e
       0.1706438 -0.022484777 -0.2162775 0.18953688
0002a0 b9 e8 3e 3e f9 73 37 3c e4 43 0a be 83 5b e3 bd
       0.18643464 0.011197084 -0.1350246 -0.11101439
0002b0 99 2f 1d 3e 25 d1 e2 3c 18 1f ab bc 78 cb 41 bd
       0.15350188 0.027687619 -0.02088885 -0.047313184
0002c0 f3 32 45 3e e2 22 85 3d 4e b4 79 be 0c 47 99 3e
       0.19257717 0.06500794 -0.24385187 0.29937017
0002d0 9c 24 28 be df 00 2b 3e 2c 04 1f 3e ec d4 74 bb
       -0.16420215 0.16699551 0.15528935 -0.0037358357
0002e0 4c 24 6a be d4 19 e7 3d b8 3b 75 be f0 54 ef bd
       -0.22865409 0.11284223 -0.23948562 -0.116861224
0002f0 32 cf 4c 3d 74 8a 2c 3b 97 28 15 3e 8e e3 e2 3d
       0.050002284 0.0026327642 0.14566265 0.11078559
000300 c6 72 36 bc 3d 3d 14 be 02 ef 5a bb 50 84 87 3e
       -0.011135763 -0.14476486 -0.003340662 0.26468134
000310 8f 53 98 be 58 67 23 be 0a ac 15 3e 34 b0 1b be
       -0.2975125 -0.15957391 0.14616409 -0.15203935
000320 c0 65 52 3d 31 80 03 3e d6 64 3d 3e 80 7b 44 be
       0.051366568 0.1284187 0.18495497 -0.19187737
000330 cd 63 c9 3d 2a d6 0d 3e b8 82 63 bd 77 7b 3e bd
       0.098334886 0.13851228 -0.055544585 -0.046504464
000340 11 e3 47 3d 78 3d 9d be e8 b6 46 be 44 7f 0a bd
       0.04880053 -0.3071096 -0.1940571 -0.033812776
000350 6b 89 57 be ae aa 4b bd 8b 73 f0 3d 18 b7 f4 bb
       -0.21048515 -0.04972332 0.11740788 -0.0074681155
000360 06 8b 1a bc 8e 45 1d bd a2 ef 11 3e 2b c6 34 3d
       -0.00943256 -0.03839641 0.14251569 0.0441343
000370 af 99 a7 bd 64 e2 56 3e 5a 7d 71 3d a0 98 60 be
       -0.0818361 0.20984799 0.058957435 -0.21933222
000380 15 6e 8d be 34 f6 dc bd 5b 95 c1 3e 09 38 49 3e
       -0.27623048 -0.10789147 0.37809262 0.19650282
000390 96 de 0e 3e 28 1c c9 3d 69 32 bf bc 41 ea 73 bd
       0.13952097 0.098198235 -0.023339467 -0.059549574
0003a0 ea 82 85 3e 17 a4 76 be e2 0a 64 3b 1e 59 13 bc
       0.26076442 -0.24086033 0.0034796526 -0.008993415
0003b0 a1 ec aa 3c 18 4d 79 3d 5a 0b d7 bd 3a 94 44 3c
       0.020864787 0.060864538 -0.10500212 0.011998231
0003c0 8d 81 a2 bd 11 c6 98 3d 5c c1 5f 3e 5f f6 6e be
       -0.07934866 0.07459653 0.21851104 -0.2333617
0003d0 2b 01 18 bd 2a f1 db bd ba 4a d0 3d c5 fa 29 bd
       -0.03711049 -0.10739358 0.10170503 -0.041498918
0003e0 69 c0 52 3d 7c 9f d5 bd aa 29 b1 bd a6 cb b0 3e
       0.051453028 -0.1043081 -0.08650525 0.3453037
0003f0 b4 09 47 3e 80 48 57 be 00 55 81 3e 4c b4 28 bc
       0.19437295 -0.2102375 0.25260162 -0.010296892

hiden_layers.2.bias f4 [64]
000000 9c a1 56 3d b8 a8 9d bc 00 7a 3c bd e1 df 2f 3d
       0.052400216 -0.01924549 -0.046014786 0.042938117
000010 a9 35 a5 bc f3 d0 d5 3c f8 11 d6 bc bc 78 85 3b
       -0.020167189 0.026100611 -0.026131615 0.0040732305
000020 d4 70 8c bd 78 08 a4 bc 6d 8a ff 3b e3 b6 3c bd
       -0.06857458 -0.02002357 0.007798484 -0.046072852
000030 48 35 34 3d d9 14 7b bc 85 4c 11 bd 63 e6 fe 3c
       0.043996125 -0.015324795 -0.035473365 0.031115716
000040 3c 40 80 3c cf 86 0d bd 8e 4c 62 bd 07 71 35 3d
       0.01565563 -0.03455239 -0.05524879 0.044297244
000050 fa 3f 96 bd 3e a2 a7 39 fc 46 87 3d bc 9a 3a bb
       -0.07336421 0.00031973602 0.06605336 -0.0028473577
000060 b1 3f d2 bb f7 7a 0b 3d b7 b0 41 3d 8e e7 5e 39
       -0.006416284 0.034052815 0.04728767 0.0002125783
000070 bb de 84 bd f5 96 22 3d 0b c8 03 3e a0 60 16 bd
       -0.06487795 0.039694745 0.12869279 -0.036713243
000080 e3 83 e1 bc 01 44 65 bd 1a 69 73 bd 37 17 03 3c
       -0.027528709 -0.055973057 -0.059426405 0.00800114
000090 ec c4 7d 3d c4 b7 4e bd e3 27 5e bd fa e5 54 3d
       0.061955377 -0.05046822 -0.054237258 0.051977135
0000a0 93 36 22 3c d4 63 a0 3c c2 8b 6e bd ee d0 50 3d
       0.009900707 0.019578852 -0.058238752 0.0509805
0000b0 52 1f 8a ba b4 be 27 3d d9 6c 39 bd 32 b5 63 3d
       -0.0010537899 0.040953353 -0.04526982 0.055592723
0000c0 f5 b8 58 3d 68 09 4b bd 4a 0f 19 3d 16 a7 f2 bb
       0.052910764 -0.049569517 0.037368096 -0.007405172
0000d0 6b 23 8a bd 25 f3 2b bd 8b 45 a3 ba 83 3f db bc
       -0.06745037 -0.041979928 -0.0012456639 -0.026763683
0000e0 60 d3 e1 3c 5b 67 92 bc 44 e7 5b bd 52 58 02 3d
       0.027566612 -0.01787155 -0.05368735 0.03182251
0000f0 55 03 ae 3d c9 2d 3f bd fa bb fa bc 20 46 53 3d
       0.08496729 -0.046674524 -0.030607212 0.05158055

hiden_layers.3.weight f4 [64, 64]
000000 0c 9c 09 be bb 5b 4a 3e a0 cc 55 3e 0c ed 14 bd
       -0.13438433 0.19761555 0.2087884 -0.036358878
000010 cc 5d ad bd 45 73 1e 3e 05 da c6 bd dc 97 83 be
       -0.08465156 0.1547366 -0.09709553 -0.25701797
000020 4a 23 60 3d 01 b9 6a 3d 43 fc 20 3e 1c 2c 11 3d
       0.054721154 0.05730534 0.1572123 0.035442457
000030 e0 d2 3a 3e e9 80 2f be 11 94 84 3e 63 a0 a6 bd
       0.18244505 -0.17139019 0.25894216 -0.0813606
000040 b4 7f e2 bd b0 76 18 be 9b a5 fe 3d ac fc 40 be
       -0.11059514 -0.14889026 0.124339305 -0.18846387
000050 58 ed 83 3e 7c f8 83 be 35 2b 23 3e ef 68 2a 3e
       0.25767016 -0.25775516 0.15934451 0.16641591
000060 a2 a2 05 3e 56 36 a3 bb 27 72 d7 bd 93 8f 80 bd
       0.1305032 -0.0049808426 -0.1051982 -0.062773846
000070 e0 1d 56 3e 13 91 0b 3e 28 8a de bd 87 2f 95 3e
       0.20909834 0.1362956 -0.10866195 0.29137823
000080 cb 25 c7 3d f4 8c 00 3e 83 b9 ca bd aa db 0c 3e
       0.09724005 0.1255377 -0.09898665 0.1375567
000090 13 14 90 ba 0b 21 6b 3d 79 25 d1 3d b5 12 d5 bd
       -0.0010992311 0.05740456 0.102122255 -0.10403959
0000a0 64 73 99 3d 5d 16 14 3e c0 da 36 be f5 b4 56 be
       0.07492712 0.14461656 -0.17856884 -0.20967467
0000b0 b8 33 f9 3d 0b 7d 49 3e 2a 6a a5 3d 61 e6 ca bd
       0.12168068 0.19676606 0.0807689 -0.099072225
0000c0 ab c5 38 3e a5 f9 30 be ae 9a 08 be a8 10 3d be
       0.18044154 -0.17282732 -0.13340256 -0.18463385
0000d0 02 4d 3f 3e 09 9f 62 3e ab 24 c3 3d 58 6a 03 be
       0.1868172 0.2213098 0.09528478 -0.12833536
0000e0 43 85 c2 3d bb bb c2 3d bf de 35 be 65 4a 2b ba
       0.09498074 0.09508463 -0.17760752 -0.0006534218
0000f0 e2 d6 87 3d b1 af 67 3e 6d 7c db bd 39 11 46 3e
       0.066327825 0.22625615 -0.10717092 0.19342507
000100 fa f2 52 be 5f ff d1 bc 15 3f 12 3c f3 3f 9a 3d
       -0.206005 -0.025634466 0.008926173 0.075317286
000110 aa 95 f8 bc 57 09 e5 3d 93 e7 39 be c2 e6 d1 3d
       -0.030344803 0.11183422 -0.18154745 0.10249092
000120 ac b3 01 be dd 88 40 be a9 e9 40 3e de 9a d4 3d
       -0.12666196 -0.18802209 0.18839134 0.10381101
000130 80 ca 41 3e 6b 07 ed bb 7c aa ca 3c e2 e0 4b 3e
       0.18924904 -0.0072335503 0.024739496 0.19910005
000140 ba 82 37 3e 66 1f 2a bd 27 0f 6a 3e 02 c3 2e 3e
       0.17920962 -0.04153385 0.22857343 0.17066577
000150 18 4e 65 3e 79 2a fb bd ba 30 7f bd b5 8a 7a 3e
       0.22393072 -0.122639604 -0.06230233 0.24466975
000160 aa e8 73 bd 32 be c1 3d 6b 79 58 3e a6 1e 42 be
       -0.059548058 0.09460105 0.21140067 -0.18957004
000170 c1 71 46 3e fa 5b fc bc 8f b8 75 be 64 b8 33 3e
       0.19379331 -0.030805577 -0.23996185 0.17550808
000180 dc 0d 21 3e 9b 5a 37 bd 2d 76 31 3e 79 97 00 3e
       0.15727943 -0.044764142 0.17330237 0.12557782
000190 f3 5d a8 bd 9e c7 d7 bd e3 da 38 be d2 bb 9d 3d
       -0.082210444 -0.10536121 -0.18052249 0.077018395
0001a0 f2 6a f3 3c 5b 5f 1d bd bf dd 62 3d 5c 8c 66 3e
       0.029714081 -0.038421016 0.055387255 0.2251448
0001b0 f0 96 3c 3d 76 54 a9 3d a3 4a 15 3e 24 53 03 bd
       0.046042383 0.08268063 0.14579253 -0.03206171
0001c0 a9 a9 0c 3e a5 d8 2a be 5c 08 e9 bd e2 d9 2a 3e
       0.13736595 -0.16684206 -0.113785475 0.16684678
0001d0 d2 c2 19 3e 26 1f b8 bd 62 37 79 bd 9f fb 3a 3e
       0.15015724 -0.08990316 -0.060843833 0.18260048
0001e0 62 93 43 3e d2 6a 19 be 6a 42 dd 3d 41 7a c5 3c
       0.19099191 -0.14982155 0.10803683 0.024106147
0001f0 62 52 8a 3e eb 74 12 3e 7a d0 9c bb 15 ec fa 3d
       0.27015978 0.14302413 -0.0047855945 0.1225206
000200 ba 68 5e be a7 c9 2a 3e af de 19 bd 5b 93 aa bd
       -0.21719638 0.16678487 -0.037565883 -0.08328887
000210 56 a9 2f be 21 7f de 3d 36 f4 df 3d 48 cf 4e be
       -0.1715444 0.10864092 0.109352514 -0.20196259
000220 f0 30 63 3e fe 31 4c bd e0 63 62 bd a3 89 3e 3e
       0.22186637 -0.049852364 -0.05527103 0.18607192
000230 15 54 db bd c7 f1 c7 3c 93 f0 20 3e 95 59 37 3a
       -0.10709397 0.02440728 0.15716772 0.0006994245
000240 35 81 9c 3d f8 71 11 3e ec 6e 0e be 74 3d 52 be
       0.07641832 0.14203632 -0.13909501 -0.20531255
000250 0e 7f e8 3d 12 55 f3 3b 81 c6 51 be 57 4e 0b 3e
       0.11352359 0.0074259127 -0.2048588 0.13604103
000260 2f 59 46 bd 4e b8 9a 3d 7f 4a 5b be 9d c4 17 3e
       -0.048424896 0.075546846 -0.21415137 0.14821096
000270 69 f0 b6 3e f9 7a 5c be 10 86 29 be b0 ea b2 bd
       0.35730293 -0.21531285 -0.16555047 -0.08736169
000280 1a 09 67 be b5 bc a1 3e 93 57 4f 3e a4 a3 26 3c
       -0.22562066 0.31589285 0.2024825 0.010170851
000290 e9 c4 9b bd 52 86 60 bd 9f 6d f1 3d 0d b3 2c 3d
       -0.07605917 -0.054815598 0.11788487 0.042162944
0002a0 88 48 4d 3e 97 98 70 be 10 1c b1 3c 51 21 a4 3c
       0.200472 -0.23495708 0.021619827 0.020035418
0002b0 cb 57 07 bc 42 85 29 be 96 3b 03 3e 31 6a 69 be
       -0.008260678 -0.1655474 0.12815699 -0.22794415
0002c0 df 1d 23 be a6 0c 22 be cb 37 62 3e 3e 66 2b 3e
       -0.15929364 -0.15825137 0.22091596 0.16738221
0002d0 be 16 6f 3c eb 3c 8c bd 19 f9 86 be 41 3a 54 be
       0.0145928245 -0.06847557 -0.2636192 -0.20725347
0002e0 9c 03 44 be 3d 7c 1d be cd 67 4a 3d db c3 b9 3d
       -0.19142002 -0.15379424 0.0494154 0.090705596
0002f0 b6 86 90 3d 0a 19 cb 3d 39 c7 a7 3c 54 f4 dc bc
       0.07056944 0.09916885 0.020480739 -0.026971973
000300 68 b4 ad 3c 17 9f ec bd 43 d7 e1 3d 02 6d 71 bd
       0.021204188 -0.115537815 0.11027386 -0.05894185
000310 83 22 53 be 25 54 b4 bd 47 5c b6 3d 07 9a 0f be
       -0.20618634 -0.08805112 0.08904319 -0.140236
000320 bb 6d cf 3d c2 ad 0e be 08 18 3d be d5 a8 f7 bd
       0.10128351 -0.13933471 -0.18466198 -0.12092749
000330 5d 9d 58 be 86 1b 35 be 96 71 86 bd c9 77 bb bc
       -0.2115378 -0.1768628 -0.065646335 -0.022884266
000340 73 23 29 bd 30 3c c4 3d 48 fd 34 3e 5e 61 9d 3b
       -0.041293573 0.09581792 0.17674744 0.004802867
000350 3a e7 0c 3e e2 24 04 be 51 d2 3a be 66 3b 0c bd
       0.13760081 -0.12904695 -0.18244292 -0.034236334
000360 76 b7 63 3e 7a 8f db 3c 5f 27 99 3d 67 29 e9 3d
       0.22237954 0.026801813 0.074782126 0.1138485
000370 ca 55 5e 3e f2 a7 74 be 74 88 6d 3d 4f 9f 9e 3d
       0.21712413 -0.23892191 0.05799146 0.077452295
000380 d2 a6 05 3e 40 34 43 3e 5a fc d9 3d f5 34 fc bd
       0.13051918 0.190629 0.10643835 -0.12314788
000390 48 29 8e be f2 20 95 bb ab 87 7d bd ec 4e 52 bd
       -0.2776587 -0.0045510465 -0.06189696 -0.051344797
0003a0 5e 7a 06 3e 00 e5 45 be de 52 1d be 54 7e 78 bd
       0.13132617 -0.19325638 -0.15363643 -0.06066735
0003b0 4f 63 01 3e 00 50 10 be 50 74 56 3e 53 5e 04 3e
       0.1263554 -0.14093018 0.20942807 0.12926607
0003c0 ca 36 1b be 03 50 33 3e c6 17 f5 bd 2c 8c 22 be
       -0.15157619 0.17510991 -0.11967425 -0.15873784
0003d0 e1 e1 18 3e 86 93 35 3e c7 d4 ee 3e 41 44 20 3e
       0.14929916 0.17732057 0.4664671 0.15651037
0003e0 3c ad 42 3e de db ea 3d f2 a6 44 3e 83 c3 30 be
       0.19011396 0.114677176 0.1920431 -0.17262082
0003f0 dd 0d ed bd 22 ef 2e be cc cf 02 be 49 95 b8 3c
       -0.1157491 -0.1708341 -0.1277458 0.022532122

hiden_layers.3.bias f4 [64]
000000 1e 92 31 bd ca ac 5c bc c7 5a 30 bd 01 89 c0 bc
       -0.04335224 -0.0134689305 -0.043055322 -0.023502829
000010 96 4d ab bc bd de 03 bd d9 7e 27 3d 9e a0 99 3c
       -0.02091102 -0.03219484 0.040892456 0.018753346
000020 b3 31 0e bc 3a c1 73 3c a0 0c 10 3c 49 7a 2b 3d
       -0.008678841 0.014877612 0.008792073 0.041864667
000030 09 fe 87 3d 16 d1 36 3d 0f 92 c7 bc 42 1b 01 bd
       0.0664025 0.044632994 -0.024361638 -0.031520136
000040 81 f5 72 bc 13 7d 36 3d a7 10 8b bb a1 8d 0c 3d
       -0.0148290405 0.044552874 -0.0042439285 0.034314755
000050 58 2e 23 3c 4e db 61 bd a4 65 1a 3d 83 cb d5 3c
       0.00995978 -0.055140786 0.03769459 0.026098019
000060 86 cc c3 bc c5 d5 c5 3c 11 0f 1c bd 41 6c 2c bd
       -0.023901235 0.024149785 -0.038100306 -0.042095426
000070 94 99 e7 bc 7b 45 e5 bc eb cb 57 3c 61 cb b4 3c
       -0.028271474 -0.027987232 0.013171176 0.022069635
000080 3b e4 84 bc 10 ac 35 3b a0 a8 00 bd d8 7c 43 3d
       -0.01622211 0.0027720965 -0.031410813 0.047726482
000090 f5 0c d7 3b e4 e9 f0 3c 30 73 13 3d 82 fb 30 3d
       0.006562824 0.029408403 0.035998523 0.043208607
0000a0 b5 f1 3c bd 81 31 8a bd 2e 81 56 3d 0e 8f 37 bb
       -0.046128947 -0.06747723 0.05236929 -0.0028008851
0000b0 20 9b 0d bd 85 14 3d 3d ba 4d 99 bc fd c4 8e 3c
       -0.034571767 0.046162147 -0.01871382 0.017427916
0000c0 dc 82 29 bd 65 06 80 3c a5 b5 2c bc 8d b4 73 ba
       -0.041384563 0.01562805 -0.010541354 -0.00092966185
0000d0 fa 61 de bd db 7e cd bb cf e8 4e 3d 29 d3 3c bd
       -0.10858531 -0.006271226 0.050514992 -0.046099816
0000e0 d9 68 91 3c 14 77 f7 bc 52 5d 41 bd d9 ac 61 bd
       0.01775019 -0.030208148 -0.047208138 -0.05509648
0000f0 4c 87 0e 3d 74 b4 d6 3c 1d e4 35 bd 34 fb be bc
       0.034796998 0.026209094 -0.044407 -0.023313142

hiden_layers.4.weight f4 [64, 64]
000000 97 92 51 be 7e b2 24 3d ec 2d d2 3d 43 20 4f be
       -0.20466076 0.040209286 0.10262665 -0.2022715
000010 c2 71 33 3e e1 7f b7 bd 4e a4 f1 bc b0 2b f2 3c
       0.17523864 -0.08959938 -0.029497292 0.029561847
000020 8f bc 5c bd 00 cf 89 bd 05 9f 80 bd f9 71 53 3d
       -0.05389076 -0.06728935 -0.062803306 0.051622365
000030 9d e4 14 3d 8d 8d 07 be 7d 4d ec bd 44 b1 72 bd
       0.036350835 -0.13237591 -0.11538217 -0.059251085
000040 ad 32 14 3b ba 99 c4 bd ca 73 c2 3d d3 02 09 3e
       0.0022613213 -0.095996335 0.09494741 0.13379984
000050 88 aa 25 be 97 e3 7a 3d de 1a 7c be fa ca 1e 3d
       -0.16178334 0.061252203 -0.24619624 0.038767792
000060 87 5e 78 bd f5 52 28 be 70 f5 7e 3d b9 cd 8d 3d
       -0.060637023 -0.16437896 0.062245786 0.06924004
000070 ee 26 40 be c5 f2 07 be 5e 4f 03 be cd 16 a5 3c
       -0.1876485 -0.13276203 -0.12823245 0.020152474
000080 7a 02 4e 3e e0 50 6b bd cf 57 37 3d 61 15 83 be
       0.20118132 -0.057450175 0.044761475 -0.25602248
000090 df 67 45 3e 8a 26 c4 bd 04 fe bc 3a 85 f9 ad bc
       0.19277905 -0.09577663 0.0014418964 -0.021237144
0000a0 1c b7 05 be bd 32 5d bd 7c 27 a4 3e ac 0c 96 3d
       -0.13058132 -0.054003466 0.32061374 0.07326636
0000b0 1a 2a e3 3b c0 66 05 3e c6 6b 59 3e da 2e 43 be
       0.006932509 0.13027477 0.21232519 -0.19060841
0000c0 75 fb 36 be 2b fa f5 bd b6 fd bb 3d 64 b1 2a 3e
       -0.1786936 -0.120106064 0.09179251 0.16669232
0000d0 e6 bd 46 be a3 fc 4e 3e fd 49 50 3e a1 5c 88 bd
       -0.19408378 0.20213561 0.20340724 -0.066582926
0000e0 cd 97 56 3e db 07 b3 bd aa 3e 62 be 26 e2 cc be
       0.20956345 -0.08741733 -0.22094217 -0.40016288
0000f0 ef f1 6f 3d 03 cf 42 be 77 18 31 bd 14 80 44 bd
       0.058580335 -0.19024281 -0.043236222 -0.047973707
000100 35 59 cd bc 18 da 1d be f3 3e 05 be ad 76 a7 3d
       -0.025066951 -0.15415227 -0.13012294 0.081769325
000110 6c 56 d9 3d df f8 62 3d ac 69 6a be 20 1e 63 bc
       0.10612187 0.055413123 -0.22891873 -0.013862163
000120 b4 e3 26 be 68 b2 33 bd d8 e5 fd bd 5e 23 ff 3d
       -0.162978 -0.043871313 -0.12397355 0.12457918
000130 15 7a 65 3e ca 8e 16 3e 10 01 6e bd 03 f4 88 3d
       0.22409852 0.14702907 -0.058106482 0.066871665
000140 e5 c6 3b be 8e a3 00 be cb 02 5b 3d d3 9a d7 3c
       -0.18337591 -0.12562391 0.05346946 0.026318943
000150 20 79 11 3e 9a c7 61 3e 18 01 97 3e 4f 8f 8a 3d
       0.14206362 0.22048798 0.29493022 0.06765615
000160 8f c8 11 be 63 93 76 be 66 df 24 be ca 2c 35 3e
       -0.14236663 -0.24079661 -0.16100845 0.17692867
000170 63 97 84 bc c1 36 51 3d a6 be 1c be 0a b1 6d be
       -0.016185468 0.051077608 -0.15307102 -0.23212066
000180 e5 b9 87 3e f3 7d 0b 3e d0 88 6a 3e 59 95 bb bd
       0.26509014 0.13622265 0.22903752 -0.09159345
000190 4f 4a 33 be 3b 63 03 3d aa 58 b2 3d ba 30 cb bc
       -0.17508815 0.032077055 0.087083176 -0.024803508
0001a0 04 cb 60 3e 6e 68 c8 bd bd b8 ce 3d c1 f8 2f 3e
       0.21952444 -0.097855434 0.1009383 0.17184736
0001b0 43 a7 cd bb 79 25 21 3e b5 73 86 bc a9 df 4f bd
       -0.0062760427 0.15736951 -0.016412595 -0.05075041
0001c0 6b 87 06 be 69 ee 7b 3e fa f0 20 be 2f b1 a0 bd
       -0.13137595 0.24602665 -0.15716925 -0.07846295
0001d0 41 b7 b9 3d fd b5 95 bd 5d 09 6b 3e 99 38 82 3d
       0.09068156 -0.07310102 0.2295279 0.063584514
0001e0 98 ac b5 bc 6e 1d 26 be d0 79 0c 3e f7 7e 4a be
       -0.022177026 -0.16222164 0.13718343 -0.19774996
0001f0 59 89 98 3e c0 aa 94 3c db d6 b8 3d a3 56 49 3e
       0.29792288 0.018147826 0.090253554 0.19661956
000200 76 34 37 be 5f 69 80 be b6 2f 49 be 25 75 67 be
       -0.17891106 -0.25080392 -0.19647107 -0.22603281
000210 7a b7 5d bc d9 c3 bb bd b2 bc 78 bb 6e 6f 4d 3e
       -0.013532514 -0.09168214 -0.0037954268 0.20062038
000220 72 60 28 bd 49 82 b3 bd 70 c3 e9 3d c3 84 8b 3b
       -0.041107602 -0.08765084 0.1141423 0.00425777
000230 e7 48 31 3d 58 bd 42 3e 57 54 bd 3d 9f 39 18 be
       0.043282416 0.19017541 0.09244602 -0.1486573
000240 de 7a 12 3c 12 4d 82 3e b6 7c 39 be 8e 1d 13 3e
       0.008940427 0.25449425 -0.1811398 0.14366743
000250 9a de 54 be e3 75 8a be c7 c1 d7 3c e2 78 96 3d
       -0.20788041 -0.27043065 0.026337517 0.07347275
000260 e4 04 a0 be b5 34 78 be 17 ce d0 bb d0 94 06 3e
       -0.3125373 -0.24238856 -0.006372224 0.13142705
000270 84 2a ac be 51 bf 11 3d 23 70 f8 bd 04 57 81 3e
       -0.33626187 0.035582844 -0.121307634 0.252617
000280 63 4c 1f be f8 38 80 3d 6f 83 4c be 40 54 dd 3d
       -0.15556483 0.06260866 -0.19972013 0.10807085
000290 cc d1 46 bd f3 74 68 3d 5e 00 bd bc 98 e8 8e 3e
       -0.04853992 0.056752156 -0.023071464 0.2791183
0002a0 d5 14 c3 3d 91 6b 01 3e d1 26 15 be e4 4d c1 3a
       0.09525458 0.1263869 -0.14565589 0.0014747945
0002b0 19 e1 51 be f8 db 29 3d cd ea a8 3d eb b1 89 3e
       -0.20496024 0.041469544 0.0824791 0.26893553
0002c0 83 4a 63 3e 10 89 c9 3d bd 68 1b 3e 51 a8 48 be
       0.22196393 0.09840596 0.15176673 -0.19595458
0002d0 b7 5f 85 be 0a 13 59 3e 8c 2b 87 3e 64 a1 4e 3d
       -0.26049587 0.21198669 0.2640041 0.050446883
0002e0 50 64 b8 bd 15 ad 4f 3e 23 42 4e 3d dc 04 25 3d
       -0.09003508 0.2028087 0.05035604 0.040287837
0002f0 7a 63 42 bc b1 39 c2 ba 20 8b 68 3d dc 89 e4 3d
       -0.011864537 -0.0014818219 0.056773305 0.11159107
000300 69 c8 b1 3d 97 d0 b4 bd d2 f6 99 bd ee 80 52 3e
       0.08680803 -0.08828848 -0.0751778 0.20556995
000310 a5 2c ff 3d 55 a3 61 3e f4 a3 a9 3c b6 a0 58 be
       0.12459687 0.22034962 0.020708062 -0.21155056
000320 92 8a 3c 3e fe 4b fc 3d c2 e7 15 3e a5 e5 9c bd
       0.18412235 0.12319182 0.1463919 -0.07660989
000330 ab 4e ca bd 62 40 2c be 82 41 6e 3e eb 5b 83 3e
       -0.09878286 -0.16821435 0.23267177 0.25656065
000340 16 f5 05 3d 41 6e b4 3c c0 31 60 be 8a 51 ab be
       0.032704435 0.02202523 -0.21893978 -0.33460647
000350 27 62 29 be 38 c6 c3 3d fe 07 29 3e 2c 10 1f 3e
       -0.16541348 0.095592916 0.16506955 0.15533513
000360 fd 95 29 3e 5f db 04 be 03 80 71 3e 8e b7 a0 bd
       0.16561122 -0.12974308 0.23583989 -0.0784751
000370 83 cd 1e be 79 57 9c 3d f3 28 76 bc 37 a4 ba be
       -0.15508084 0.076338716 -0.0150244115 -0.3645341
000380 22 1f 8c bd c3 3b 4f 3d ea 50 f0 bd 22 69 41 be
       -0.068418756 0.050594103 -0.11734183 -0.18887761
000390 dc 5d 44 3d eb 2c e4 bd 22 54 10 be 4a 87 b7 3d
       0.047941074 -0.1114138 -0.14094594 0.08961351
0003a0 e4 c0 fa bc c0 e4 35 3d 4b 89 59 be 20 bc 6c 3e
       -0.030609556 0.044407606 -0.2124378 0.23118639
0003b0 35 96 fe 3d 46 99 17 be 3f 3a 14 be 8e 17 69 be
       0.124309935 -0.14804563 -0.14475344 -0.22762892
0003c0 b1 b5 85 bc 7b 86 37 3e d7 25 f3 3c 47 bc 51 3e
       -0.016321989 0.17922394 0.02968113 0.20481978
0003d0 4f 28 98 bd 59 39 f4 3d ed 31 05 3e 87 27 b7 3e
       -0.07429563 0.11925001 0.13007326 0.35772344
0003e0 3b 21 86 be 78 f9 d4 3b 96 e6 40 3e 9a 53 08 3d
       -0.26197228 0.0064994656 0.18837962 0.033282854
0003f0 12 d0 c5 3d 0f 5d f7 bc 44 1a 62 3e 8a 4e 66 3e
       0.09658827 -0.030195741 0.22080332 0.22490898
