results/1_first_try/epoch1400/model_weights.pth (torch, 484214 bytes, 88 tensors)

init_layer.0.weight f4 [64, 3]
-0.30766144 -0.065414794 0.1556326 0.25605074 -0.060582284 -0.0018696032 -0.08037786 -0.22608614
-0.13532276 0.13447383 -0.0072217043 0.047912765 -0.010844183 0.19601591 0.21196258 -0.11331463
-0.27108395 0.12838627 0.31438863 -0.02195931 0.26877323 0.33312723 0.27533463 0.17268544
0.17116767 -0.39418244 -0.03744727 -0.06260553 -0.065190285 0.2044994 -0.06371476 -0.016903646
0.12776676 0.039590772 0.06797496 -0.19387072 -0.14714143 -0.021177562 -0.0367214 0.0019751706
0.016224165 0.21495177 0.09354353 -0.2749536 0.0020739466 0.24780214 -0.21016933 -0.26940668
0.21523218 -0.121694505 0.19018771 0.23356667 0.27047467 -0.05655713 0.094504125 -0.025567822
-0.2620503 -0.1655577 0.086449504 -0.24361445 0.13057686 -0.16925582 -0.0041042697 0.23227933
-0.059619848 -0.009976324 0.037649363 -0.17453238 -0.1509044 0.0023911563 0.15809625 -0.10454532
-0.0010607304 -0.083794706 0.14876986 -0.123869926 0.23798524 -0.04630391 -0.005153089 0.22642483
0.100837454 -0.16106555 -0.22530481 0.04529988 0.015084422 0.06256389 -0.19045226 -0.0061095334
-0.2542553 0.14212707 -0.30585113 -0.061961185 -0.08249508 -0.093728796 0.036478836 0.29165712
-0.046558864 0.17796312 0.09902087 -0.2696688 0.35207453 -0.022150684 -0.048725836 -0.018698977
-0.14320649 -0.021988263 -0.1092588 -0.23574413 0.057137307 -0.0027872208 -0.20727095 -0.2354234
-0.066544876 0.012909457 0.29387462 -0.13185756 0.14993238 -0.30380547 0.13622081 0.1754123
0.27394855 0.05683074 -0.2011576 -0.07080062 -0.038621794 -0.14956747 0.121380165 -0.14112855
0.14862002 -0.03772772 -0.020590335 0.213952 0.08039143 -0.18869516 -0.15381607 -0.054875936
-0.05242537 0.12250611 0.0072568436 -0.12436732 -0.10409553 0.04234127 0.13618827 0.13375373
0.09630816 0.26713556 -0.021543749 0.06249907 -0.2547716 0.16549817 -0.050709046 -0.21309589
-0.12738726 -0.3528294 -0.14190112 -0.04390261 0.17894006 -0.26683834 0.09902131 -0.14602092
-0.18711169 -0.013914319 0.13204983 -0.14289232 -0.19042867 0.23939155 0.010592072 0.1821635
0.18411593 0.017708903 0.11733717 0.13478602 -0.043396145 0.026567124 0.25182122 0.29839548
-0.0026483375 0.029752888 0.065691926 0.009498432 -0.11181704 -0.30011424 0.046802003 -0.06104809
-0.025948059 0.015638586 0.2585443 -0.010860915 0.050678503 0.23176424 0.11627441 0.040834405
00000000: cd85 9dbe 31f8 85bd 275e 1f3e 1519 833e
00000010: 2125 78bd 790d f5ba 269d a4bd 2083 67be
00000020: 0d92 0abe 82b3 093e 0ca4 ecbb 2d40 443d
00000030: cdab 31bc 65b8 483e b80c 593e 8011 e8bd
00000040: 84cb 8abe b177 033e 8cf7 a03e 03e4 b3bc
00000050: a59c 893e a78f aa3e a9f8 8c3e 74d4 303e
00000060: 9446 2f3e 48d2 c9be 4f62 19bd 5437 80bd
00000070: 7c82 85bd 4a68 513e e27c 82bd 8479 8abc
00000080: 4ad5 023e ef29 223d 7536 8b3d 0c86 46be
00000090: 3eac 16be 917c adbc 2e69 16bd dd71 013b
000000a0: 8ae8 843c 511c 5c3e c093 bf3d b8c6 8cbe
000000b0: 0deb 073b d8bf 7d3e a136 57be acef 89be
000000c0: d365 5c3e f83a f9bd 91c0 423e 1a2c 6f3e
000000d0: a87b 8a3e 73a8 67bd 618b c13d 9c73 d1bc
000000e0: 752b 86be f587 29be 700c b13d 1176 79be
000000f0: f1b5 053e 6651 2dbe 1c7d 86bb a2da 6d3e
00000100: f133 74bd bc73 23bc 3836 1a3d 9eb8 32be
00000110: af86 1abe f2b4 1c3b fce3 213e db1b d6bd
00000120: 3508 8bba 8f9c abbd 2057 183e 84af fdbd
00000130: 67b2 733e 2ba9 3dbd 3edb a8bb e9db 673e
00000140: de83 ce3d 5eee 24be 4eb6 66be 5e8c 393d
00000150: a724 773c 7f21 803d eb05 43be 7b32 c8bb
00000160: c02d 82be c289 113e 8598 9cbe 03cb 7dbd
00000170: 2ef3 a8bd e2f4 bfbd d56a 153d 1554 953e
00000180: 82b4 3ebd f73b 363e 74cb ca3d 0712 8abe
00000190: 1d43 b43e 5a75 b5bc be94 47bd 992e 99bc
000001a0: b9a4 12be bb20 b4bc 14c3 dfbd e966 71be
000001b0: cf08 6a3d cea9 36bb d63e 54be d512 71be
000001c0: ae48 88bd 3082 533c bc76 963e ab05 07be
000001d0: e087 193e 648c 9bbe 787d 0b3e 489f 333e
000001e0: fc42 8c3e 5ac7 683d 42fc 4dbe eaff 90bd
000001f0: e331 1ebd 3728 19be 2a96 f83d 0184 10be
00000200: d92f 183e 6288 1abd 10ad a8bc 3c16 5b3e
00000210: 43a4 a43d 4e39 41be f681 1dbe 97c5 60bd
00000220: fcbb 56bd 7ce4 fa3d d1ca ed3b 4bb4 febd
00000230: 0a30 d5bd 0a6e 2d3d f074 0b3e bdf6 083e
00000240: 363d c53d fec5 883e 847c b0bc 06ff 7f3d
00000250: 6c71 82be 5a78 293e 4ab4 4fbd cf35 5abe
00000260: ce71 02be 0ea6 b4be 874e 11be 39d3 33bd
00000270: 103c 373e 099f 88be afcb ca3d 8286 15be
00000280: 359a 3fbe e2f8 63bc 1238 073e 5d52 12be
00000290: bcff 42be 0f23 753e 5f8a 2d3c 1289 3a3e
000002a0: e388 3c3e 4312 913c 784e f03d 5905 0a3e
000002b0: 28c0 31bd 4ca3 d93c b6ee 803e 4bc7 983e
000002c0: bb8f 2dbb 54bc f33c 7d89 863d 509f 1b3c
000002d0: 5500 e5bd 93a8 99be 75b3 3f3d 900d 7abd
000002e0: 0691 d4bc 7e1c 803c eb5f 843e fbf1 31bc
000002f0: 4394 4f3d 9b53 6d3e 4721 ee3d fa41 273d

init_layer.0.bias f4 [64]
-0.15643856 0.081817135 -0.08941043 0.08033295 -0.06934749 -0.0016674323 0.15810709 0.13226368
-0.005054454 0.083880894 0.029698009 -0.018364796 -0.087661795 0.12006533 0.103683084 0.106086016
0.16099209 0.07621545 -0.21357118 0.05054722 0.0865827 0.059245553 0.04393009 0.04046858
0.038543124 -0.12229338 0.14419866 -0.060626466 -0.12040169 -0.07608623 -0.094480224 -0.09375312
0.06700603 -0.051489946 -0.0591085 0.110571906 0.03903522 -0.121989764 0.09995848 -0.12091008
0.122475825 -0.06687216 0.075679585 -0.09598662 0.05452335 0.120754704 -0.06157498 -0.061255984
-0.05805676 0.040833596 0.04583521 -0.09396996 -0.040666945 -0.07335736 0.058728434 0.12706916
0.10622557 0.0969799 0.10838557 0.046734024 -0.0037414152 -0.038106363 0.08804529 0.099221006
00000000: 6e31 20be be8f a73d d11c b7bd 9a85 a43d
00000010: 0f06 8ebd be8d daba d3e6 213e 2170 073e
00000020: d59f a5bb bfc9 ab3d 3d49 f33c c571 96bc
00000030: 0788 b3bd d0e4 f53d cc57 d43d a043 d93d
00000040: 1cdb 243e d916 9c3d 67b2 5abe 9a0a 4f3d
00000050: 4552 b13d 77ab 723d 0af0 333d 62c2 253d
00000060: 65df 1d3d f474 fabd d0a8 133e 7553 78bd
00000070: 2995 f6bd 19d3 9bbd d97e c1bd a301 c0bd
00000080: 753a 893d 1fe7 52bd c11b 72bd 8673 e23d
00000090: 65e3 1f3d c5d5 f9bd 08b7 cc3d b49f f7bd
000000a0: 9bd4 fa3d 45f4 88bd e6fd 9a3d a294 c4bd
000000b0: e053 5f3d 3e4e f73d 0c36 7cbd 8ee7 7abd
000000c0: edcc 6dbd 2141 273d b3bd 3b3d 5373 c0bd
000000d0: 6292 26bd 623c 96bd 3a8d 703d 6b1e 023e
000000e0: cb8c d93d 669d c63d 41f9 dd3d 2d6c 3f3d
000000f0: 8832 75bb 6b15 1cbd 1751 b43d 6234 cb3d

hiden_layers.0.weight f4 [64, 64]
-0.098641664 0.016772188 0.22621788 0.059251875 -0.21393026 -0.018577743 0.07250739 -0.17066686
-0.03546975 -0.16029716 -0.03604421 0.26655406 0.08773452 -0.013093383 0.16273601 -0.23848239
-0.10168159 -0.113922074 0.098094 -0.09567507 -0.10550124 0.115117624 0.023014085 -0.26983008
0.04073368 0.09050164 -0.16150527 -0.15828039 0.030336317 0.04636221 -0.21160072 -0.005081608
-0.1955243 -0.07899421 0.29687336 -0.0039598164 0.025328128 0.031166239 0.2413521 0.09704734
0.03566679 0.05206428 0.01801635 -0.03661667 -0.059820324 -0.13499337 0.07141797 -0.22433369
0.25933897 -0.22686078 -0.1509816 0.02440655 0.0037456835 0.00042622187 0.18916714 0.17043641
-0.2017184 -0.18957372 -0.16908853 0.071480654 0.03166692 -0.06925697 -0.0029797251 -0.15497415
-0.059088442 -0.20272967 -0.1830253 0.14410485 -0.14311218 -0.123414844 0.20086081 -0.16369186
0.002648352 -0.24609753 0.10984853 -0.07198557 0.04070763 -0.02265303 -0.025832906 0.14303258
0.00015308723 0.2275732 0.03988501 0.0015957308 -0.101083055 -0.22168277 0.11433838 0.19327131
-0.112563014 -0.020313414 0.19794816 0.11804632 0.17188182 0.07169084 -0.1709318 -0.14129934
-0.0019061287 0.03541691 0.21966174 0.12345856 0.23605312 -0.040954668 -0.082008764 0.15019242
-0.05262231 0.033904687 -0.2507164 -0.0493586 0.10839601 -0.2997622 0.21519761 -0.19157307
-0.04388997 -0.15261596 -0.09166072 -0.14189221 0.103397 -0.16441558 0.15260439 0.10671053
-0.21266769 -0.13648227 -0.16656078 -0.21032262 0.205406 0.246592 0.16010906 -0.11081208
0.21830477 -0.22474174 0.19258091 -0.12883076 -0.17504863 -0.012949575 -0.114648454 -0.25412044
-0.19694169 -0.07310367 0.011766852 0.15429191 0.2977996 -0.2178442 0.06339804 -0.22456457
-0.23654713 -0.23390557 0.060988203 -0.016248487 -0.18994345 -0.27168432 -0.208241 0.058473423
-0.028670233 0.029240416 0.029121546 0.23220111 0.0036366084 -0.23416373 0.33340862 0.2755549
-0.12958035 0.17001635 0.21080145 0.172819 -0.08690674 0.0021126529 -0.1598442 0.15725805
-0.28498176 -0.013973785 0.12784974 0.27020392 0.121795535 0.047327656 -0.06988154 -0.014129327
-0.03500574 -0.004052409 -0.09868387 0.06823816 -0.16523544 0.03727674 -0.19901083 -0.048509438
-0.28744853 -0.23209664 -0.2612383 -0.17689465 0.17905363 -0.0171285 -0.28895575 0.06287761
0.13559158 -0.1470617 -0.0055747987 -0.04646849 0.11206881 0.11065344 -0.039064713 -0.15035759
-0.22574678 -0.10706374 0.05586934 0.014584213 -0.029641747 -0.07120334 0.03574949 -0.11259806
-0.066422574 0.17541994 0.11492986 -0.093304165 0.16766146 -0.100999035 -0.14572622 -0.06287549
0.25121957 0.06100152 -0.024476565 -0.05823342 -0.17439853 -0.23261459 -0.13209765 0.023113107
-0.11431542 0.09947919 -0.16624393 0.038241815 -0.037161656 -0.1110369 -0.0037599665 -0.062287364
-0.16559651 -0.033081327 0.066090524 0.1979689 0.0339491 0.08043268 0.08230721 0.0223792
0.07047327 -0.10147074 0.22873704 -0.059439257 -0.26027176 0.1764511 0.20076257 0.06855852
-0.18158916 -0.36071774 -0.116253436 0.13384596 -0.11183896 -0.096382596 -0.051855758 -0.07148019
00000000: a404 cabd d465 893c a9a5 673e 18b2 723d
00000010: 8910 5bbe 5a30 98bc c17e 943d 4bc3 2ebe
00000020: bb48 11bd f024 24be 18a3 13bd c679 883e
00000030: 28ae b33d a185 56bc 45a4 263e ba34 74be
00000040: 703e d0bd fa4f e9bd 82e5 c83d 4bf1 c3bd
00000050: 0911 d8bd cac2 eb3d 0988 bc3c 2b27 8abe
00000060: 5cd8 263d ed58 b93d a361 25be 4114 22be
00000070: de83 f83c 4de6 3d3d dcad 58be 9e83 a6bb
00000080: 8637 48be b7c7 a1bd c9ff 973e 59c1 81bb
00000090: ef7c cf3c 5750 ff3c 0125 773e c1c0 c63d
000000a0: 5717 123d 5b41 553d 0697 933c 5dfb 15bd
000000b0: 2806 75bd b43b 0abe 9643 923d bbb7 65be
000000c0: 14c8 843e 314e 68be ec9a 1abe 3ff0 c73c
000000d0: 247a 753b 8876 df39 08b5 413e e286 2e3e
000000e0: 458f 4ebe 9d1f 42be 8b25 2dbe 7364 923d
000000f0: 2cb5 013d 99d6 8dbd 7e47 43bb 8bb1 1ebe
00000100: b906 72bd 5e98 4fbe fc6a 3bbe 3990 133e
00000110: 008c 12be ecc0 fcbd 75ae 4d3e d79e 27be
00000120: f98f 2d3b fe00 7cbe 44f8 e03d 2c6d 93bd
00000130: 0bbd 263d d992 b9bc 889f d3bc 2277 123e
00000140: 0a86 2039 f308 693e 775e 233d d727 d13a
00000150: a204 cfbd cf00 63be 3e2a ea3d eae8 453e
00000160: 7087 e6bd 5168 a6bc ecb2 4a3e 45c2 f13d
00000170: ca01 303e a6d2 923d bf08 2fbe c6b0 10be
00000180: 11d7 f9ba 5211 113d 02ef 603e d7d7 fc3d
00000190: e9b7 713e 15c0 27bd 36f4 a7bd 0bcc 193e
000001a0: 7e8a 57bd a4df 0a3d e65d 80be 3e2c 4abd
000001b0: bafe dd3d 6e7a 99be c35c 5c3e bb2b 44be
000001c0: f8c5 33bd 5c47 1cbe 9eb8 bbbd 314c 11be
000001d0: cec1 d33d 8f5c 28be 5344 1c3e 0d8b da3d
000001e0: 8fc5 59be 02c2 0bbe e98e 2abe d05e 57be
000001f0: f355 523e 9d82 7c3e a1f3 233e 72f1 e2bd
00000200: 498b 5f3e b322 66be ee33 453e 36ec 03be
00000210: f33f 33be 742a 54bc cfcc eabd 131c 82be
00000220: 15ab 49be 60b7 95bd c1c9 403c b3fe 1d3e
00000230: 3079 983e 8d12 5fbe d5d6 813d 41f4 65be
00000240: 6939 72be f184 6fbe c4ce 793d 8c1b 85bc
00000250: 8980 42be 351a 8bbe 213d 55be d481 6f3d
00000260: d6dd eabc 9989 ef3c 4f90 ee3c 21c6 6d3e
00000270: 2a54 6e3b 9ec8 6fbe 89b4 aa3e 8815 8d3e
00000280: b6b0 04be c418 2e3e 56dc 573e 77f7 303e
00000290: 29fc b1bd 6f74 0a3b 33ae 23be 4108 213e
000002a0: 21e9 91be 4df2 64bc 0beb 023e 2b58 8a3e
000002b0: f06f f93d a5da 413d 0e1e 8fbd b17e 67bc
000002c0: 2e62 0fbd 12ca 84bb c51a cabd 73c0 8b3d
000002d0: 7b33 29be 7faf 183d 7fc9 4bbe d5b1 46bd
000002e0: 742c 93be beaa 6dbe 07c1 85be df23 35be
000002f0: d659 373e 1151 8cbc 02f2 93be fac5 803d
00000300: 85d8 0a3e 5897 16be cdac b6bb be55 3ebd
00000310: 5584 e53d 459e e23d 5202 20bd 57f7 19be
00000320: 2a2a 67be 3c44 dbbd 40d7 643d 9ff2 6e3c
00000330: 40d3 f2bc 0fd3 91bd 0f6e 123d d099 e6bd
00000340: 8f08 88bd 49a1 333e 5960 eb3d 4116 bfbd
00000350: 72af 2b3e 95d8 cebd 4139 15be ddc4 80bd
00000360: da9f 803e bbdc 793d 1483 c8bc 2b86 6ebd
00000370: 8795 32be 8532 6ebe 9b44 07be b357 bd3c
00000380: 341e eabd bfbb cb3d d93b 2abe 73a3 1c3d
00000390: d236 18bd 5067 e3bd c569 76bb 0921 7fbd
000003a0: 2292 29be 4980 07bd 785a 873d 5cb8 4a3e
000003b0: 360e 0b3d e4b9 a43d af90 a83d 9654 b73c
000003c0: 4a54 903d e4cf cfbd 0b3a 6a3e 9476 73bd
000003d0: 5742 85be 99af 343e b494 4d3e 6968 8c3d
000003e0: 82f2 39be ffaf b8be 4816 eebd ea0e 093e
000003f0: d30b e5bd 3d64 c5bd b466 54bd 3564 92bd

hiden_layers.0.bias f4 [64]
-0.1492792 0.019976659 -0.047894217 0.08495316 -0.083273426 -0.09891282 0.078288354 0.042117395
0.13070503 0.039059002 0.07114595 -0.13820072 0.047839794 -0.09331617 -0.38163704 0.06327699
0.033765 -0.110592686 0.06606679 -0.047920834 -0.09028495 0.024473824 -0.10000416 0.0014315224
0.06886188 0.07914494 0.064277604 0.0069803763 -0.0064922157 -0.08055367 -0.0058511053 0.02218607
0.120573744 -0.073976755 -0.10487026 0.109458126 -0.081106655 -0.04648273 0.12198019 -0.08572153
-0.03431203 -0.08619923 0.19002035 -0.07319475 0.0085391225 0.027792007 -0.09669415 0.033667393
-0.06578604 0.07201303 0.005581179 0.077897325 -0.0810734 0.10258244 -0.27202126 0.017455487
-0.11730047 -0.14429502 -0.023999175 -0.15828554 -0.11281459 -0.08214659 -0.088321626 0.049688753
00000000: a6dc 18be 17a6 a33c ba2c 44bd ecfb ad3d
00000010: 428b aabd ce92 cabd a555 a03d 4a83 2c3d
00000020: 8ad7 053e 55fc 1f3d f8b4 913d 7d84 0dbe
00000030: a9f3 433d 8c1c bfbd ee65 c3be 5e97 813d
00000040: 2b4d 0a3d 6b7e e2bd 064e 873d a348 44bd
00000050: 51e7 b8bd 547d c83c fbce ccbd eca1 bb3a
00000060: 7507 8d3d be16 a23d faa3 833d a4bb e43b
00000070: a7bc d4bb 53f9 a4bd a1ba bfbb 90bf b53c
00000080: 5eef f63d 2081 97bd 38c6 d6bd 952b e03d
00000090: 3f1b a6bd ad64 3ebd c0d0 f93d c58e afbd
000000a0: c58a 0cbd 3989 b0bd b294 423e 21e7 95bd
000000b0: ade7 0b3c 10ac e33c 9507 c6bd d2e6 093d
000000c0: d5ba 86bd 917b 933d 53e2 b63b a288 9f3d
000000d0: d009 a6bd be16 d23d 5f46 8bbe cffe 8e3c
000000e0: 3b3b f0bd 13c2 13be eb99 c4bc 9b15 22be
000000f0: 560b e7bd 793c a8bd f8e1 b4bd 6f86 4b3d

hiden_layers.1.weight f4 [64, 64]
-0.030041534 0.14455459 0.26656312 0.14872585 -0.2733062 0.2887322 -0.10167282 -0.032100644
0.023931062 -0.035878003 -0.15728876 -0.06865706 -0.23101307 -0.024409417 0.008098934 -0.050457194
0.24698892 0.28179502 -0.25895992 0.30133647 0.26193818 -0.16640496 0.056233898 -0.08938693
-0.12365923 -0.4107606 -0.08435668 0.17157847 0.10612099 -0.06443668 -0.18545973 -0.050008222
-0.25427213 0.3425807 -0.04853083 -0.2982244 0.1053263 -0.122907676 -0.20692782 0.014420799
0.08472284 0.07181944 -0.18580648 0.21038689 0.25952747 0.045137387 0.09230628 -0.37674525
0.055178255 0.0029526942 -0.20242698 0.064433746 -0.137766 -0.08521378 -0.31267282 -0.27581018
0.25805756 0.3078731 -0.2965198 0.053233135 -0.08498071 0.058215763 0.21206447 -0.14835173
-0.04422345 -0.20163475 -0.30028564 0.2325421 -0.24721308 0.024719842 -0.14747764 -0.043283008
0.2721637 0.19345534 0.25431505 0.15039302 0.10986469 0.068573125 -0.35972673 0.34537926
-0.08038208 -0.24178116 0.25190917 0.015244228 0.06304106 0.2573891 -0.30114356 0.29077953
-0.057567704 0.24388939 0.27541167 0.29909703 -0.22348253 -0.096193366 0.10023593 0.29624268
0.31826493 0.045062587 -0.37598217 -0.11587963 -0.22003949 0.19246788 -0.058133747 -0.3459935
-0.4442855 -0.30077478 0.11817657 -0.19932537 0.026317168 0.13311623 -0.17020656 -0.3637506
0.4187527 0.046261378 -0.09628688 -0.1037253 0.042718932 -0.0068773264 0.0761389 0.07639449
-0.06763038 -0.008902428 -0.20325139 0.17304075 0.15871453 -0.020064907 0.009988905 0.54842687
0.09909416 0.107724495 -0.056778736 0.12392321 0.058057334 0.1624965 -0.11657413 0.3218641
0.28214467 -0.06652273 -0.15878925 -0.048734467 0.023943083 0.008973453 0.029088449 0.14231108
-0.07143102 -0.13338995 0.1294868 0.08534577 0.021569328 -0.27150717 -0.2471922 -0.12387118
0.026196698 0.1129296 -0.03380525 -0.012643719 0.069201544 0.07533496 0.2253964 0.31651658
0.13517939 -0.16727355 -0.21561551 -0.08608288 -0.09590285 -0.12703513 0.06026579 -0.13433607
-0.2243693 -0.19276005 -0.13373795 -0.11938003 -0.011015367 0.093129024 -0.030106563 0.062012505
0.011472878 0.046539035 0.014876131 -0.26124972 0.044168673 -0.16868751 0.058891043 0.011466249
-0.12656789 0.055130668 0.17199104 0.055503085 0.038090445 0.09960321 -0.049593456 0.22919868
0.18246612 -0.0678781 -0.10051676 0.12532625 0.19978298 -0.21199314 -0.08541066 -0.14467351
0.08357608 0.017690461 -0.11921106 0.38455057 0.23131797 0.2517966 -0.08249645 0.12416548
-0.028366365 -0.16495807 -0.0075810137 0.06055663 -0.027736006 -0.19482036 0.08082834 0.12415351
0.13030739 0.06969475 -0.13356131 0.041570935 -0.0020335729 0.27043018 0.17000155 0.16100256
0.18245608 0.0041361633 -0.07574691 0.02146084 0.215659 0.028128613 0.16614017 0.19938436
0.06111001 -0.024970269 0.27695143 0.14936027 -0.24714252 -0.039254844 -0.21234575 -0.06792308
-0.04206081 0.13378735 -0.0008879455 0.07090409 0.24912508 -0.057478968 -0.3743506 -0.031213647
-0.14429647 -0.014048575 0.38885328 0.06842888 -0.12975326 0.2012554 0.20369266 -0.20626654
00000000: aa19 f6bc 1e06 143e f67a 883e 974b 183e
00000010: caee 8bbe b5d4 933e d739 d0bd f77b 03bd
00000020: 130b c43c d0f4 12bd 4e10 21be 139c 8cbd
00000030: b18e 6cbe 42f6 c7bc 64b1 043c 34ac 4ebd
00000040: aaea 7c3e 7047 903e 6596 84be c648 9a3e
00000050: c31c 863e 1066 2abe 8455 663d 7f10 b7bd
00000060: 0d41 fdbd 374f d2be 32c3 acbd 44b2 2f3e
00000070: f655 d93d 61f7 83bd 28e9 3dbe 6cd5 4cbd
00000080: f52f 82be bd66 af3e 43c8 46bd deb0 98be
00000090: 51b5 d73d 05b7 fbbd e3e4 53be 3745 6c3c
000000a0: 2b83 ad3d 1216 933d 0e44 3ebe a96f 573e
000000b0: c9e0 843e fbe1 383d 130b bd3d c1e4 c0be
000000c0: 9802 623d fd81 413b 0549 4fbe d7f5 833d
000000d0: 8812 0dbe 9084 aebd a716 a0be fe36 8dbe
000000e0: 1f20 843e 8ba1 9d3e 71d1 97be fd0a 5a3d
000000f0: 5e0a aebd a773 6e3d 6e27 593e 84e9 17be
00000100: a623 35bd 5779 4ebe 0abf 99be 841f 6e3e
00000110: 6d25 7dbe 4481 ca3c 6104 17be 8649 31bd
00000120: 0a59 8b3e 2819 463e 9535 823e a100 1a3e
00000130: bd00 e13d 1170 8c3d 1a2e b8be 8dd5 b03e
00000140: 5c9f a4bd 7b95 77be 3dfa 803e edc2 793c
00000150: ac1b 813d 81c8 833e 7d2f 9abe 0ee1 943e
00000160: 1dcc 6bbd 24be 793e c202 8d3e 3f23 993e
00000170: 9bd8 64be 0701 c5bd 7f48 cd3d 1fad 973e
00000180: 9ff3 a23e 8c93 383d bc80 c0be 4d52 edbd
00000190: 0852 61be 4d16 453e a71d 6ebd 0f26 b1be
000001a0: 6479 e3be 27ff 99be 8f06 f23d f31b 4cbe
000001b0: 1a97 d73c 9f4f 083e a14a 2ebe 853d babe
000001c0: c166 d63e 927c 3d3d 0e32 c5bd ee6d d4bd
000001d0: 0cfa 2e3d 325b e1bb b6ee 9b3d b774 9c3d
000001e0: cc81 8abd 7ddb 11bc 2221 50be 9831 313e
000001f0: 1086 223e 295f a4bc 81a8 233c b465 0c3f
00000200: e1f1 ca3d a99e dc3d d290 68bd 74cb fd3d
00000210: 87cd 6d3d 7c65 263e 6bbe eebd 5fcb a43e
00000220: 4475 903e 123d 88bd a699 22be cb9d 47bd
00000230: 4924 c43c 6405 133c e64a ee3c ffb9 113e
00000240: 6d4a 92bd 6097 08be 3098 043e c3c9 ae3d
00000250: 29b2 b03c fd02 8bbe f41f 7dbe 2cb0 fdbd
00000260: 759a d63c a247 e73d 6077 0abd 9a27 4fbc
00000270: 8ab9 8d3d 3749 9a3d 50ce 663e 760e a23e
00000280: 776c 0a3e c249 2bbe 50ca 5cbe 394c b0bd
00000290: b768 c4bd 7f15 02be 43d9 763d 658f 09be
000002a0: 11c1 65be e462 45be 9af2 08be 847d f4bd
000002b0: cc79 34bc 6eba be3d 0aa2 f6bc d300 7e3d
000002c0: bdf8 3b3c b79f 3e3d 04bb 733c 86c2 85be
000002d0: 36ea 343d 6bbc 2cbe bc37 713d efdc 3b3c
000002e0: 039b 01be b2d0 613d 6b1e 303e 3457 633d
000002f0: ba04 1c3d c5fc cb3d 8222 4bbd 0fb3 6a3e
00000300: 66d8 3a3e ac03 8bbd bbdb cdbd 8655 003e
00000310: e993 4c3e bb14 59be c9eb aebd 4b25 14be
00000320: f029 ab3d 96eb 903c ee24 f4bd d0e3 c43e
00000330: 9ede 6c3e 7ceb 803e e6f3 a8bd 794a fe3d
00000340: 9460 e8bc c5ea 28be 276a f8bb 3b0a 783d
00000350: 9f36 e3bc fd7e 47be 5489 a53d 3244 fe3d
00000360: 4d6f 053e 1fbc 8e3d 4cc4 08be 4946 2a3d
00000370: b145 05bb d375 8a3e e314 2e3e dbdd 243e
00000380: c4d5 3a3e a788 873b 3221 9bbd a5ce af3c
00000390: b7d5 5c3e fa6d e63c a620 2a3e 6a2b 4c3e
000003a0: 7d4e 7a3d 738e ccbc 94cc 8d3e e6f1 183e
000003b0: ee12 7dbe b0c9 20bd 2a71 59be 411b 8bbd
000003c0: f547 2cbd 8dff 083e 04c5 68ba 2a36 913d
000003d0: a51a 7f3e 116f 6bbd e2aa bfbe c3b3 ffbc
000003e0: 74c2 13be ff2b 66bc c717 c73e 7124 8c3d
000003f0: 0ade 04be e515 4e3e cf94 503e 8937 53be

hiden_layers.1.bias f4 [64]
0.04375002 0.021838386 0.04371309 -0.11052092 -0.20646608 -0.043806333 -0.01888956 -0.08294231
-0.08482088 -0.0078626 0.09251167 -0.059586894 0.056764014 -0.06319741 -0.17117976 0.01516367
0.08999095 0.0010143105 -0.1111427 -0.07191324 0.069080986 0.040626958 0.06501552 0.16242996
-0.048080843 -0.06803775 0.17364223 0.070982285 -0.19233553 -0.022505604 0.059533175 -0.05069643
-0.15907434 -0.08133908 0.09515824 0.10961115 0.109355 -0.16066603 0.11131065 -0.16915558
0.17261386 0.08011476 -0.054752655 -0.091770284 -0.052873313 -0.08476298 -0.1288525 0.05509311
0.059615362 -0.072889365 -0.019243762 0.0041818996 0.032718513 0.10533915 -0.045937728 0.042634536
-0.060474016 0.08627029 -0.002041469 -0.0012824822 0.05672799 -0.0046835262 -0.048261363 0.051783253
00000000: 3933 333d 6ae6 b23c 7f0c 333d cb58 e2bd
00000010: d86b 53be 456e 33bd 47be 9abc a8dd a9bd
00000020: 92b6 adbd 22d2 00bc c276 bd3d 6311 74bd
00000030: 6281 683d a56d 81bd bf49 2fbe 0b71 783c
00000040: 2d4d b83d 9df2 843a c99e e3bd 4047 93bd
00000050: 557a 8d3d 7468 263d db26 853d 0a54 263e
00000060: 6bf0 44bd 6057 8bbd 45cf 313e 295f 913d
00000070: 9bf3 44be ac5d b8bc 0fd9 733d 0fa7 4fbd
00000080: 62e4 22be 1b95 a6bd 53e2 c23d d07b e03d
00000090: 84f5 df3d a385 24be d7f6 e33d 1f37 2dbe
000000a0: b0c1 303e 3513 a43d 5244 60bd 0ff2 bbbd
000000b0: b091 58bd 3798 adbd e9f1 03be 50a9 613d
000000c0: 3d2f 743d 0547 95bd 18a5 9dbc 5108 893b
000000d0: d903 063d 0dbc d73d 3329 3cbd 8da1 2e3d
000000e0: 9ab3 77bd 7aae b03d 2bca 05bb f618 a8ba
000000f0: 9c5b 683d 4478 99bb b5ad 45bd ad1a 543d

hiden_layers.2.weight f4 [64, 64]
-0.1178555 0.36095437 0.34034067 -0.029202525 -0.0072593424 -0.19501464 -0.16542614 -0.49984297
-0.47994012 -0.28537133 0.20004535 0.08955026 -0.15383177 0.043194834 -0.010394477 0.22558337
0.2233965 0.009546993 0.03841806 -0.07375697 0.14267083 0.22157595 -0.14864126 0.1584187
0.093935795 -0.1575209 -0.315069 -0.10008527 0.056893274 -0.08582272 0.18797572 0.038991883
-0.111653306 -0.07107106 -0.23550454 -0.08814983 0.18474324 0.040367767 -0.08197706 0.03285811
-0.18836251 0.07898337 -0.08031911 0.02306856 0.06599676 -0.09379077 0.09237672 0.19946842
-0.028244093 -0.22572836 -0.07103464 -0.33992895 0.027859801 0.05369515 0.034888238 0.15486605
-0.18776979 0.14963822 0.3168936 -0.16400124 -0.1478736 0.06719327 0.10670119 0.23657203
0.065682516 0.005954571 0.105703965 0.18368883 0.20230481 0.14046234 0.35589212 0.27123544
0.08895246 0.13212816 0.19811496 0.08325278 -0.06357679 -0.12814724 -0.06551549 0.051209643
-0.101145715 -0.08024855 -0.20996237 -0.12178337 0.0778733 -0.11333342 0.0020271551 0.045297902
-0.041633505 0.044530958 0.23564452 0.082031235 -0.11338528 0.088352986 -0.015243475 -0.05031675
0.012357404 0.22117278 -0.10218488 0.1625364 0.16041686 0.07402188 0.030138787 -0.35231304
-0.14921866 -0.08618066 -0.010829363 0.024604037 -0.012745736 -0.036203876 -0.067772225 0.22390787
-0.16491562 0.2622377 -0.061279576 -0.10663763 -0.1319453 0.21166292 -0.12390072 -0.18071644
0.20274416 -0.010764622 -0.09274581 0.5476798 0.057653 0.21314743 0.12971541 -0.14584301
0.23824126 -0.21992517 -0.1379061 -0.21009205 0.15792061 0.036030717 -0.26528314 0.05084579
-0.10532033 0.20832631 0.06447014 0.20865335 -0.01477192 0.14012088 -0.21001759 0.22297218
0.108829305 -0.060201515 0.103295594 -0.20846447 -0.18172118 0.1237064 0.27536154 -0.16643527
-0.13341819 -0.07001617 -0.11829633 -0.10972001 0.16673477 0.01990205 0.07804233 0.23812614
-0.102093674 -0.11447525 -0.027146343 0.13639922 0.1487575 -0.015491294 -0.2141138 0.22464171
0.17632167 0.009738209 -0.0850676 -0.08565146 0.094581544 -0.054509334 -0.09362817 0.09260224
0.22929364 0.07798788 -0.10505853 0.2063512 -0.10515577 0.11963418 0.043227967 -0.13314518
-0.22505715 0.16977535 -0.22367533 -0.5355227 0.10262525 -0.019965505 0.1035423 0.1723056
-0.039408326 -0.16045442 0.027892897 0.0977024 -0.22808872 -0.16524965 0.08188047 -0.27134869
0.043462995 0.06510346 0.19456157 -0.24849136 0.083580844 0.06480524 -0.14462599 0.08924791
0.16424967 -0.22576612 -0.2771417 -0.016871898 -0.07957882 0.05340984 0.24068943 -0.05618681
-0.17075442 -0.13838187 0.124657944 0.10470952 -0.054627728 0.16197392 0.16064611 -0.3073777
-0.3469299 -0.12692708 0.22710843 0.35197577 0.10825317 0.036296163 0.083563626 -0.17052206
0.20860417 -0.111122906 -0.03643506 -0.101452984 -0.020317024 -0.19890502 -0.087428875 0.06458085
0.031139333 -0.024917942 0.17211881 -0.10721174 -0.04042385 -0.035531685 -0.029595561 -0.07870863
0.033037674 0.038476042 -0.07500151 0.2522883 0.3196908 -0.16383992 0.1367354 0.0030802255
00000000: 395e f1bd 03cf b83e 2241 ae3e 223a efbc
00000010: c7df edbb ebb1 47be 7865 29be 6beb ffbe
00000020: b6ba f5be 311c 92be b0d8 4c3e 2066 b73d
00000030: 1386 1dbe 11ed 303d 994d 2abc 54ff 663e
00000040: 0dc2 643e fe6a 1c3c 415c 1d3d e50d 97bd
00000050: 4d18 123e cee4 623e 6a35 18be 8338 223e
00000060: 6961 c03d 294d 21be b950 a1be 82f9 ccbd
00000070: ec08 693d d2c3 afbd b57c 403e f4b5 1f3d
00000080: 7daa e4bd b48d 91bd 1a28 71be e687 b4bd
00000090: 552d 3d3e ac58 253d 97e3 a7bd 3a96 063d
000000a0: 1ae2 40be 08c2 a13d 587e a4bd 47fa bc3c
000000b0: 4f29 873d 6015 c0bd 0130 bd3d 7341 4c3e
000000c0: 2860 e7bc 5625 67be 9c7a 91bd 2b0b aebe
000000d0: 3d3a e43c 72ef 5b3d f8e6 0e3d 3595 1e3e
000000e0: b946 40be c33a 193e e13f a23e f1ef 27be
000000f0: 2d6c 17be a09c 893d 2786 da3d f03f 723e
00000100: 8e84 863d 901e c33b 527b d83d ed18 3c3e
00000110: fe28 4f3e 5cd5 0f3e 7e37 b63e 5fdf 8a3e
00000120: b52c b63d 9b4c 073e a6de 4a3e 6f80 aa3d
00000130: 8c34 82bd 0839 03be fc2c 86bd 34c1 513d
00000140: 7c25 cfbd 5a59 a4bd 6000 57be 8f69 f9bd
00000150: 097c 9f3d 5a1b e8bd 05da 043b 4b8a 393d
00000160: e587 2abd 1866 363d cc4c 713e feff a73d
00000170: 8b36 e8bd 69f2 b43d c5bf 79bc f018 4ebd
00000180: b676 4a3c 1e7b 623e 4e46 d1bd f16f 263e
00000190: 5144 243e c998 973d 9ee5 f63c 6062 b4be
000001a0: c7cc 18be 7c7f b0bd a46d 31bc 688e c93c
000001b0: 7ed3 50bc 844a 14bd 2acc 8abd 1b48 653e
000001c0: a4df 28be 0544 863e 4b00 7bbd d464 dabd
000001d0: ab1c 07be 2abe 583e a9bf fdbd bb0d 39be
000001e0: 2a9c 4f3e 195e 30bc 84f1 bdbd be34 0c3f
000001f0: 8d25 6c3d 5243 5a3e 1ed4 043e df57 15be
00000200: 84f5 733e 1034 61be 4237 0dbe 5f22 57be
00000210: f1b5 213e f294 133d 31d3 87be ad43 503d
00000220: 2fb2 d7bd 7e53 553e ec08 843d 39a9 553e
00000230: ec05 72bc d97b 0f3e da0e 57be d252 643e
00000240: e6e1 de3d dd95 76bd a48c d33d b677 55be
00000250: 1e15 3abe c859 fd3d 30fc 8c3e 026e 2abe
00000260: c79e 08be a364 8fbd 5945 f2bd e2b4 e0bd
00000270: 85bc 2a3e a009 a33c a8d4 9f3d 57d7 733e
00000280: 7d16 d1bd 0072 eabd 0262 debc 3dac 0b3e
00000290: e353 183e 32cf 7dbc a640 5bbe 7a08 663e
000002a0: ab8d 343e 028d 1f3c ec37 aebd 086a afbd
000002b0: f8b3 c13d 2e45 5fbd 20c0 bfbd 3ea6 bd3d
000002c0: f4cb 6a3e 1cb8 9f3d ed28 d7bd bb4d 533e
000002d0: e95b d7bd c402 f53d cf0f 313d 3657 08be
000002e0: 6275 66be 97d9 2d3e 250b 65be 0418 09bf
000002f0: 302d d23d b38e a3bc fc0d d43d e170 303e
00000300: a06a 21bd 2a4e 24be a57f e43c 3218 c83d
00000310: 1790 69be 3437 29be f3b0 a73d 37ee 8abe
00000320: 4106 323d f654 853d 263b 473e 8574 7ebe
00000330: 6f2c ab3d 9cb8 843d d618 14be 9cc7 b63d
00000340: 1131 283e 3c2f 67be 84e5 8dbe ef36 8abc
00000350: 38fa a2bd 47c4 5a3d 4a77 763e 2424 66bd
00000360: 3fda 2ebe fab3 0dbe aa4c ff3d f271 d63d
00000370: 53c1 5fbd 7edc 253e 6a80 243e 9c60 9dbe
00000380: cca0 b1be 2cf9 01be 1d8f 683e 2b36 b43e
00000390: d7b3 dd3d 49ab 143d 6823 ab3d 569d 2ebe
000003a0: 559c 553e 6894 e3bd ee3c 15bd 95c6 cfbd
000003b0: e36f a6bc c2ad 4bbe e90d b3bd f742 843d
000003c0: ea17 ff3c b620 ccbc ea3f 303e d491 dbbd
000003d0: 7b93 25bd ac89 11bd 6472 f2bc fd31 a1bd
000003e0: 8352 073d 0e99 1d3d 649a 99bd ef2b 813e
000003f0: 83ae a33e a7c5 27be 5d04 0c3e 9cdd 493b

hiden_layers.2.bias f4 [64]
0.039633658 -0.05061097 0.0012871027 0.16243897 -0.022513853 0.052175403 0.01204532 0.26539454
-0.057650898 -0.038716998 0.06951569 0.05879832 0.060014796 0.04772793 -0.055718295 -0.07499177
0.048396956 -0.12956642 -0.067946255 0.03835008 -0.100477666 -0.11554727 0.14613266 -0.17092963
-0.061422683 0.04714297 -0.06994516 0.054459665 -0.069874816 0.0942875 0.10949074 -0.1769191
-0.05560519 -0.06534302 0.017635956 -0.097997464 0.098769076 0.14026897 0.017722458 0.08690486
0.048378386 0.054658964 0.03924768 0.05140541 0.122512445 -0.0844943 -0.0078058825 0.0355964
0.016386237 0.009343351 0.4205003 -0.023420306 -0.06382942 -0.092058755 -0.17268653 -0.050053425
-0.090038136 -0.021142995 0.057814624 0.01757808 0.09429267 -0.043926165 -0.07223076 -0.06942985
00000000: e756 223d 734d 4fbd 00b4 a83a 6756 263e
00000010: f96e b8bc e0b5 553d bc59 453c cbe1 873e
00000020: 5923 6cbd b795 1ebd 3e5e 8e3d 82d6 703d
00000030: 13d2 753d 5d7e 433d de38 64bd 4995 99bd
00000040: e33b 463d 0fad 04be 6827 8bbd f914 1d3d
00000050: 3cc7 cdbd 0ca4 ecbd cda3 153e 2d08 2fbe
00000060: 5a96 7bbd fd18 413d 683f 8fbd 1911 5f3d
00000070: 871a 8fbd ce19 c13d ae3c e03d 482a 35be
00000080: 45c2 63bd 90d2 85bd 4879 903c e5b2 c8bd
00000090: 7147 ca3d aba2 0f3e b02e 913c 2dfb b13d
000000a0: 6a28 463d 14e2 5f3d 2dc2 203d 7b8e 523d
000000b0: cee7 fa3d 590b adbd 7dc8 ffbb 88cd 113d
000000c0: 6e3c 863c db14 193c d14b d73e f1db bfbc
000000d0: 00b9 82bd 4d89 bcbd bdd4 30be d204 4dbd
000000e0: ea65 b8bd 1334 adbc 07cf 6c3d e8ff 8f3c
000000f0: 841c c13d eceb 33bd b8ed 93bd 3d31 8ebd

hiden_layers.3.weight f4 [64, 64]
-0.29360294 0.38934827 0.12978067 0.030666456 0.07278769 0.017811459 -0.09459639 -0.21575217
0.041577704 0.14799689 0.25424114 -0.07409303 0.21628793 -0.15087771 0.129901 -0.18503697
-0.13643187 -0.22278686 0.18048917 -0.15394582 0.5335027 -0.34319988 0.20763634 0.17072427
0.12397235 0.14215417 0.0068611694 -0.02955835 0.24398251 0.18319453 -0.09954412 0.2946386
0.05656724 0.023621332 -0.082135014 0.10505003 0.061273884 0.094106026 0.11501169 -0.05481846
0.043717127 0.06906025 -0.22244671 -0.05918318 0.12405181 0.316305 0.00092008675 -0.10191613
0.23536113 -0.23027557 -0.07400176 -0.19332801 0.24635093 0.16415454 0.08715341 -0.057285827
0.063091606 0.06088099 -0.24240619 0.08659378 -0.003936959 0.112189054 -0.084369354 0.13619892
-0.23604004 -0.0043481286 -0.031994443 0.10203543 -0.006945264 0.14903475 -0.282599 0.029243594
0.062425267 -0.19829354 0.21387865 0.21044831 0.20531532 -0.046870824 -0.17778859 0.123137034
0.10584034 -0.009694065 0.13149571 0.24235201 0.2277054 -0.16687016 -0.019802485 0.107048355
-0.12208551 0.07510542 0.1944901 -0.23154569 0.18110605 -0.16761665 -0.35352194 0.22737546
0.057658054 -0.14659381 0.55114716 0.0759732 -0.040475138 -0.2682578 -0.20082955 0.11333055
0.06572225 0.0047373883 -0.04607543 0.23120919 0.110490985 0.06400087 0.08839964 0.016745672
0.21932687 -0.13210973 -0.17565322 0.18328632 0.20509328 0.12973584 -0.06923677 0.19121973
0.30903485 -0.09812425 0.111482084 -0.005686853 0.17411515 0.06698789 0.024096962 0.31533307
0.23656033 0.22077447 -0.10093603 -0.121854596 -0.24571861 0.19273551 0.10458687 -0.09810314
0.07680769 -0.028298054 -0.09160271 0.12446002 -0.07738346 -0.045430172 0.13235794 0.025448477
-0.03663904 0.14900236 -0.17104134 -0.17272624 0.022412928 0.09260171 -0.103999645 0.17601745
0.049400363 -0.013705076 -0.17597859 -0.037876386 0.048426837 -0.14142056 -0.11201257 -0.05454561
-0.2298848 -0.045972213 -0.03268524 0.105866015 -0.057020474 -0.024990406 0.07382294 0.058572035
0.3036089 -0.18490075 -0.11083315 0.045702722 0.034981582 -0.24083222 0.22872123 -0.1376346
-0.1407526 -0.15667237 0.26327026 0.1299391 0.06471258 -0.06374305 -0.18093586 -0.20805459
-0.21245778 -0.15579943 0.09022155 0.15550992 0.1960018 -0.07669007 0.0017784932 0.1605256
0.06079303 -0.13094729 -0.020494353 0.0050907717 -0.15195014 -0.063612066 0.18606324 -0.2835775
0.044528604 -0.19970773 -0.2490938 -0.2916508 -0.1957899 -0.24063393 -0.1580302 0.054961096
-0.16088273 0.08320448 -0.005904725 -0.099768125 0.16035776 -0.019824143 -0.07003785 -0.070885204
0.06679429 0.11702419 0.06483094 0.2056585 0.1768513 -0.15117243 0.07092351 0.03822177
0.255991 0.28547853 0.13201901 -0.3539137 -0.2793362 -0.030453399 -0.1560341 -0.10878532
0.024572665 -0.5513043 -0.30807948 0.005437439 -0.019178737 -0.15340814 0.23143403 0.10969
-0.08748083 0.04755039 -0.043664098 -0.24044693 0.049640298 0.17065392 -0.06567485 0.3958937
0.05555859 0.12289406 0.17781052 -0.115564756 -0.011706419 -0.2523064 -0.1570414 -0.033791326
00000000: 2053 96be a858 c73e 39e5 043e 3838 fb3c
00000010: b611 953d 56e9 913c c1bb c1bd 23ee 5cbe
00000020: 624d 2a3d 7f8c 173e e52b 823e 16be 97bd
00000030: 957a 5d3e b07f 1abe c504 053e 557a 3dbe
00000040: ccb4 0bbe 3d22 64be 27d2 383e f9a3 1dbe
00000050: a293 083f e5b7 afbe 9f9e 543e 58d2 2e3e
00000060: 37e5 fd3d dd90 113e a9d3 e03b 5a24 f2bc
00000070: 8dd6 793e 5997 3b3e cadd cbbd dfda 963e
00000080: 0db3 673d 8681 c13c 6736 a8bd 7824 d73d
00000090: 53fa 7a3d a9ba c03d 408b eb3d 5289 60bd
000000a0: bb10 333d 766f 8d3d 12c9 63be 106a 72bd
000000b0: e00e fe3d bbf2 a13e fa31 713a 67b9 d0bd
000000c0: 8202 713e 5ccd 6bbe 3c8e 97bd c7f7 45be
000000d0: 6b43 7c3e 2118 283e 7d7d b23d 8ba4 6abd
000000e0: 2c36 813d 585e 793d 5439 78be 1458 b13d
000000f0: 9b01 81bb 60c3 e53d d7c9 acbd bb77 0b3e
00000100: 7bb4 71be bf7a 8ebb 9b0c 03bd f4f7 d03d
00000110: 1995 e3bb 919c 183e d1b0 90be 4390 ef3c
00000120: a3b1 7f3d 760d 4bbe 0103 5b3e c37f 573e
00000130: 2e3e 523e 9ffb 3fbd 360e 36be 452f fc3d
00000140: d2c2 d83d dbd3 1ebc d0a6 063e 202b 783e
00000150: 9b2b 693e 03e0 2abe d238 a2bc 2b3c db3d
00000160: f807 fabd dfd0 993d 6a28 473e 501a 6dbe
00000170: dd73 393e b3a3 2bbe d400 b5be 1dd5 683e
00000180: da2a 6c3d b01c 16be fb17 0d3f d697 9b3d
00000190: 42c9 25bd 1659 89be 43a6 4dbe d919 e83d
000001a0: 6399 863d 183c 9b3b 97b9 3cbd 1ac2 6c3e
000001b0: 1949 e23d e312 833d df0a b53d 382e 893c
000001c0: 3997 603e c647 07be 70de 33be 69af 3b3e
000001d0: f903 523e 79d9 043e 02cc 8dbd 1bcf 433e
000001e0: d139 9e3e 5ef5 c8bd b850 e43d c858 babb
000001f0: 3e4b 323e f230 893d fe66 c53c 5673 a13e
00000200: df3c 723e b412 623e 8db7 cebd e78e f9bd
00000210: a99d 7bbe 755c 453e a431 d63d 4dea c8bd
00000220: 5a4d 9d3d 52d1 e7bc 349a bbbd e5e4 fe3d
00000230: 387b 9ebd fd14 3abd d788 073e 5379 d03c
00000240: d112 16bd 1394 183e 7625 2fbe 26df 30be
00000250: 519b b73c f7a5 bd3d c4fd d4bd eb3d 343e
00000260: 0958 4a3d 418b 60bc bb33 34be 4524 1bbd
00000270: 385b 463d 8dd0 10be d966 e5bd 386b 5fbd
00000280: ec66 6bbe 5c4d 3cbd f5e0 05bd 48d0 d83d
00000290: 4d8e 69bd aeb8 ccbc 7b30 973d 3be9 6f3d
000002a0: a072 9b3e 9f56 3dbe 7efc e2bd c732 3b3d
000002b0: d948 0f3d b99c 76be e635 6a3e 16f0 0cbe
000002c0: 7321 10be b96e 20be 5ccb 863e c10e 053e
000002d0: 0788 843d b78b 82bd 4047 39be 430c 55be
000002e0: 888e 59be e389 1fbe 13c6 b83d fe3d 1f3e
000002f0: b2b4 483e af0f 9dbd 541c e93a d360 243e
00000300: 1d02 793d 0c17 06be c6e3 a7bc 7dd0 a63b
00000310: d198 1bbe 0b47 82bd 5d87 3e3e 1231 91be
00000320: a063 363d 2f80 4cbe 7212 7fbe 4153 95be
00000330: 267d 48be be68 76be abd2 21be e31e 613d
00000340: 71be 24be 1c67 aa3d 6c7c c1bb 3b53 ccbd
00000350: d334 243e 3e66 a2bc 0170 8fbd 432c 91bd
00000360: 72cb 883d 61aa ef3d 15c6 843d 2498 523e
00000370: 8218 353e f2cc 1abe 5840 913d 6e8e 1c3d
00000380: 4111 833e 3e2a 923e fe2f 073e 2d34 b5be
00000390: 2805 8fbe 6879 f9bc 67c7 1fbe d6ca debd
000003a0: 9d4c c93c 4722 0dbf 98bc 9dbe 8b2c b23b
000003b0: ba1c 9dbc 0617 1dbe 0bfd 6c3e 27a5 e03d
000003c0: 2629 b3bd 33c4 423d 20d9 32bd b837 76be
000003d0: a053 4b3d e7bf 2e3e 8980 86bd 94b2 ca3e
000003e0: 6791 633d e2af fb3d f613 363e 37ad ecbd
000003f0: 48cc 3fbc 4e2e 81be 76cf 20be c668 0abd

hiden_layers.3.bias f4 [64]
-0.026518619 -0.01060105 0.099127 -0.03818445 -0.077470236 -0.12002306 0.054327153 -0.025590764
-0.12728043 0.07800299 0.2068278 -0.08306837 0.1676429 -0.043563798 -0.05940076 -0.117054224
0.0049605668 0.13473466 -0.02851154 0.06279376 0.20097214 -0.15130644 -0.007038472 -0.008112907
-0.1011531 0.077520594 -0.25478587 0.017482806 0.047807913 -0.02685894 0.018942509 0.12906109
-0.061669413 -0.005529392 -0.02681631 -0.06836186 0.116075605 0.31721336 -0.021322682 -0.0038959084
-0.08042594 0.045757685 0.10097882 -0.01292604 -0.052339375 -0.12137775 0.07408765 0.05522234
0.08601837 -0.0717946 -0.10535907 -0.059304237 -0.05505165 -0.059973557 0.07156546 -0.1732857
0.075003624 -0.14207579 -0.14652172 0.058978472 -0.109679826 0.03165031 0.06405059 -0.018695407
00000000: 933d d9bc 07b0 2dbc 1903 cb3d 4c67 1cbd
00000010: b7a8 9ebd a6ce f5bd 2686 5e3d b9a3 d1bc
00000020: cd55 02be 08c0 9f3d abca 533e c01f aabd
00000030: 95aa 2b3e f46f 32bd 364e 73bd 20ba efbd
00000040: 408c a23b e2f7 093e 0891 e9bc 049a 803d
00000050: a4cb 4d3e 13f0 1abe fca2 e6bb 00ec 04bc
00000060: 5b29 cfbd 1ec3 9e3d 4b73 82be 1a38 8f3c
00000070: 3bd2 433d 4807 dcbc 522d 9b3c 9728 043e
00000080: 1199 7cbd e72f b5bb e1ad dbbc 4e01 8cbd
00000090: 0cb9 ed3d ca69 a23e e8ac aebc 7f52 7fbb
000000a0: 5bb6 a4bd 696c 3b3d fccd ce3d bec7 53bc
000000b0: d061 56bd e694 f8bd 44bb 973d d230 623d
000000c0: 662a b03d 0c09 93bd 7fc6 d7bd 00e9 72bd
000000d0: d77d 61bd d5a6 75bd e990 923d ce71 31be
000000e0: 809b 993d 517c 11be ca09 16be 6993 713d
000000f0: d19f e0bd c1a3 013d f52c 833d 1c27 99bc

hiden_layers.4.weight f4 [64, 64]
-0.24078642 -0.0676619 -0.007982787 -0.21300438 0.05969608 -0.016281558 -0.3354298 0.28046268
0.09602924 -0.021924276 -0.12825613 0.11718744 0.13222061 -0.111498415 -0.16344614 -0.07402253
-0.073562555 0.010826607 0.18994714 0.2800621 -0.3836812 0.023088777 -0.2422278 -0.08659105
-0.023121014 -0.08851639 0.11085188 0.17906791 -0.08148058 -0.17707205 -0.056239437 -0.033571336
0.15065612 0.035810318 0.18182603 -0.03128798 0.1173916 0.012476388 0.025103891 -0.107836954
-0.28614202 0.0471629 0.19299299 0.112807736 0.04227862 0.3606929 0.4589179 -0.19803679
-0.26988336 -0.18418452 0.12259859 -0.061707366 -0.09816179 0.17973039 0.085155234 -0.55268866
0.117028564 0.043213062 -0.26569924 -0.27523646 0.25758415 -0.13610719 0.022347067 -0.23258369
0.017560635 -0.44661456 -0.079188585 0.056396957 -0.2822582 0.03306965 -0.3236254 -0.09672342
-0.019644637 -0.10475446 -0.028726477 -0.1912306 0.041491553 0.14115518 -0.11854296 0.016127802
-0.5068856 -0.0853002 0.46704674 0.26736057 0.15750934 -0.025268167 0.5017442 0.14239922
-0.27571622 -0.30592695 -0.09357665 0.19210167 -0.09543127 -0.10218263 -0.36251017 0.17261447
0.19937031 -0.037259005 -0.012393656 -0.036961168 -0.07863305 -0.14442438 0.03486934 0.04974292
0.113201685 -0.27299285 0.07276317 0.37360945 -0.10603972 0.24940652 0.014507128 -0.04454931
-0.33370405 0.29347864 -0.21054134 -0.0016988005 -0.07233559 -0.102846995 0.27147767 -0.12330196
0.011643613 -0.17968829 0.07027907 0.017031383 0.14122067 -0.18953319 0.033648722 0.1454028
0.00023410241 0.006997442 -0.16977595 -0.13349727 -0.08558111 -0.15897611 -0.2327245 -0.014511594
0.11681357 -0.2554945 -0.0509207 -0.19745861 0.011462527 0.23878506 0.03807344 -0.06847603
-0.18400156 0.13539836 -0.018031303 0.22278252 -0.14997338 -0.2523713 -0.105150126 -0.12253948
-0.28569502 -0.2366081 0.10465425 0.15188673 -0.071985625 0.26305148 -0.25965202 0.22295633
-0.29456148 0.043187954 -0.12929119 0.37067017 -0.12160921 0.26898307 0.023997603 0.19008188
0.05261179 -0.021435255 -0.26997045 0.13922183 0.021471111 0.09512774 -0.0026708727 0.119445615
0.08757833 0.08020411 0.32817167 -0.2638679 -0.2213385 0.2816005 0.0032534217 0.060459457
0.050912835 0.29011634 0.16456784 0.20147699 -0.062045317 -0.027243393 0.08411971 0.312653
0.079093695 -0.022204988 -0.028417392 0.2624974 0.2556692 0.03623627 0.05254783 -0.16889767
0.028322857 -0.04789244 0.2425048 0.1653297 0.033585645 -0.16486737 0.32394928 0.2635016
0.17594701 -0.02539464 -0.42987856 -0.34281072 0.025650876 0.046273828 0.20196795 0.08104691
0.2093848 -0.30095795 0.08623587 -0.104713775 -0.06674542 0.023430439 -0.06199378 -0.26335308
-0.07122393 0.09118251 -0.15910155 -0.16024663 0.18976434 -0.04676664 -0.050231878 0.03135896
-0.055959143 0.019130409 -0.19523814 0.22459252 0.12675427 -0.11593846 -0.15459354 -0.15368861
0.14761586 0.14753692 -0.098942235 0.12886629 0.072189964 0.11909144 0.068215355 0.17710474
-0.25788248 -0.07894058 0.17490532 0.10403511 0.15060031 -0.088235915 0.34700972 0.21460569
00000000: b790 76be 5292 8abd 3cca 02bc d21d 5abe
00000010: e083 743d e760 85bc 74bd abbe ce98 8f3e
00000020: faaa c43d 8a9a b3bc 9355 03be f8ff ef3d
00000030: d764 073e 4859 e4bd 6d5e 27be 2099 97bd
00000040: f7a7 96bd 1562 313c 8181 423e 4d64 8f3e
00000050: dd71 c4be ad24 bd3c 900a 78be a656 b1bd
00000060: 4868 bdbc 1548 b5bd 4f06 e33d 945d 373e
00000070: 4adf a6bd 6052 35be 535b 66bd 1982 09bd
00000080: 9945 1a3e d7ad 123d 9a30 3a3e d327 00bd
00000090: 026b f03d c469 4c3c ada6 cd3c 9fd9 dcbd
000000a0: 3581 92be e32d 413d f49f 453e be07 e73d
000000b0: 592c 2d3d bdac b83e 49f7 ea3e 28ca 4abe
000000c0: 272e 8abe de9a 3cbe f814 fb3d ddc0 7cbd
000000d0: 0c09 c9bd 3e0b 383e de65 ae3d 017d 0dbf
000000e0: acac ef3d 2e00 313d bb09 88be cbeb 8cbe
000000f0: 12e2 833e af5f 0bbe 3211 b73c 6b2a 6ebe
00000100: 52db 8f3c aaaa e4be a02d a2bd 7f00 673d
00000110: 2684 90be 0b74 073d 3ab2 a5be ee16 c6bd
00000120: caed a0bc 8289 d6bd ca53 ebbc f4d1 43be
00000130: 0cf3 293d fc8a 103e a7c6 f2bd 741e 843c
00000140: 41c3 01bf dfb1 aebd c020 ef3e 7ce3 883e
00000150: 214a 213e 30ff cebc 4f72 003f 1ad1 113e
00000160: ad2a 8dbe 75a2 9cbe 1da5 bfbd 4db6 443e
00000170: 7871 c3bd 2045 d1bd ef9a b9be d9c1 303e
00000180: bb27 4c3e e69c 18bd c30e 4bbc 9864 17bd
00000190: 5d0a a1bd fce3 13be 27d3 0e3d 3bbf 4b3d
000001a0: 49d6 e73d b8c5 8bbe db04 953d bd49 bf3e
000001b0: 5a2b d9bd 6c64 7f3e 4eaf 6d3c 5679 36bd
000001c0: 42db aabe d542 963e 2698 57be 49aa deba
000001d0: af24 94bd 72a1 d2bd 1fff 8a3e bd85 fcbd
000001e0: dac4 3e3c 3500 38be 79ee 8f3d 6685 8b3c
000001f0: 279c 103e fd14 42be 3ed3 093d 79e4 143e
00000200: 6379 7539 cc4a e53b bfd9 2dbe 82b3 08be
00000210: 2645 afbd a2ca 22be 554f 6ebe 09c2 6dbc
00000220: f43b ef3d 2dd0 82be 3992 50bd 9732 4abe
00000230: 53cd 3b3c 1284 743e e5f2 1b3d 293d 8cbd
00000240: e86a 3cbe dea5 0a3e 62b6 93bc 1a21 643e
00000250: 9f92 19be d036 81be f358 d7bd fbf5 fabd
00000260: 9e46 92be 6549 72be f854 d63d 3288 1b3e
00000270: 336d 93bd afae 863e 1cf1 84be aa4e 643e
00000280: c3d0 96be dae5 303d e964 04be 7bc8 bd3e
00000290: 400e f9bd 26b8 893e 9f96 c43c d3a4 423e
000002a0: 767f 573d fd98 afbc 9139 8abe 2b90 0e3e
000002b0: 2fe4 af3c 55d2 c23d cf09 2fbb e79f f43d
000002c0: 445c b33d 0d42 a43d 1e06 a83e b219 87be
000002d0: 8fa6 62be f12d 903e 5c37 553b 56a4 773d
000002e0: fa89 503d 218a 943e 7984 283e fc4f 4e3e
000002f0: 3b23 7ebd 892d dfbc f446 ac3d 0e14 a03e
00000300: e0fb a13d 3ce7 b5bc 97cb e8bc 0f66 863e
00000310: 13e7 823e 7c6c 143d 653c 573d 83f3 2cbe
00000320: 5605 e83c dd2a 44bd 2e53 783e 304c 293e
00000330: 1a91 093d fed2 28be aedc a53e afe9 863e
00000340: 742b 343e 6c08 d0bc 0b19 dcbe e384 afbe
00000350: c921 d23c a089 3d3d b0d0 4e3e ecfb a53d
00000360: f868 563e 2917 9abe 6f9c b03d 2d74 d6bd
00000370: d3b1 88bd 31f1 bf3c 31ed 7dbd 37d6 86be
00000380: dadd 91bd e5bd ba3d 84eb 22be b117 24be
00000390: 9551 423e 608e 3fbd f1bf 4dbd 4172 003d
000003a0: 6a35 65bd 60b7 9c3c 82ec 47be 95fb 653e
000003b0: dfcb 013e 2571 edbd c54d 1ebe 8c60 1dbe
000003c0: 9d28 173e eb13 173e 3aa2 cabd 86f5 033e
000003d0: 55d8 933d 37e6 f33d 7eb4 8b3d f25a 353e
000003e0: 2c09 84be 99ab a1bd 611a 333e 5c10 d53d
000003f0: f836 1a3e 08b5 b4bd 42ab b13e 98c1 5b3e

hiden_layers.4.bias f4 [64]
-0.11863222 0.08158926 0.010028925 -0.008330861 0.01758323 -0.0044727097 0.002479134 -0.054573715
0.057170883 0.22459036 -0.052332584 0.11520111 0.071124494 -0.021730948 -0.015474798 0.028797502
0.04600602 0.030673185 0.0057803355 -0.030211972 0.123808965 0.12127512 -0.0627151 -0.05848689
0.108581364 0.13550185 -0.20904052 0.014586285 -0.070569456 0.009920992 0.061388683 0.038032517
-0.016114632 -0.017486174 -0.018460885 0.015710365 -0.10928308 0.05462489 0.021715313 -0.06404006
-0.14284684 0.25427815 0.0021975813 0.019923715 -0.08621587 0.35817063 -0.16181481 0.0069477158
0.13341954 -0.16577126 -0.00059074553 0.15477166 -0.011818655 0.101696655 0.13976313 0.03117619
-0.19648698 -0.0026901565 -0.09990818 -0.034288034 0.010846245 0.050662324 0.1928507 0.027578646
00000000: 73f5 f2bd 4518 a73d 5c50 243c 2a7e 08bc
00000010: b50a 903c cf8f 92bb f778 223b b088 5fbd
00000020: 042c 6a3d 04fb 653e b15a 56bd 8fee eb3d
00000030: b8a9 913d 1a05 b2bc 028a 7dbc bde8 eb3c
00000040: cf70 3c3d 5546 fb3c f868 bd3b 197f f7bc
00000050: 8e8f fd3d 175f f83d c670 80bd f38f 6fbd
00000060: e85f de3d ffc0 0a3e b80e 56be 50fb 6e3c
00000070: b886 90bd a88b 223c b372 7b3d fcc7 1b3d
00000080: d502 84bc 2a3f 8fbc 483b 97bc 06b3 803c
00000090: cfcf dfbd 59be 5f3d 50e4 b13c 6f27 83bd
000000a0: 7146 12be bf30 823e 4c05 103b 0f37 a33c
000000b0: f291 b0bd 2462 b73e c8b2 25be aaa9 e33b
000000c0: 229f 083e f1bf 29be 43dc 1aba 767c 1e3e
000000d0: 08a3 41bc 5646 d03d 111e 0f3e 3665 ff3c
000000e0: e233 49be 564d 30bb a99c ccbd 9c71 0cbd
000000f0: 73b4 313c 4c83 4f3d a77a 453e 9dec e13c
