results/1_first_try/epoch2200/model_weights.pth (torch, 484214 bytes, 88 tensors)

init_layer.0.weight f4 [64, 3]
-0.31130084 -0.067050055 0.15522331 0.25555962 -0.06594292 -0.0033558211 -0.0796641 -0.2320378
-0.13753636 0.13263051 -0.013356103 0.04699091 -0.012501018 0.1968436 0.21218954 -0.10856681
-0.2817231 0.13181372 0.31461996 -0.024868876 0.26658762 0.33967838 0.28957793 0.18653634
0.16772215 -0.41374677 -0.03814844 -0.062136687 -0.063206226 0.2041754 -0.06480267 -0.0139738545
0.12803619 0.03776807 0.06861484 -0.19600068 -0.14574541 -0.017615134 -0.03527167 -0.00032458725
0.015571982 0.21310088 0.08701419 -0.2942212 0.0023676974 0.25032747 -0.2257426 -0.27257273
0.2166766 -0.12078481 0.18953827 0.23347756 0.28565183 -0.049648818 0.09360173 -0.030420866
-0.2569316 -0.16449797 0.07348111 -0.24141802 0.1283374 -0.1664201 -0.0054943794 0.23078573
-0.06587638 -0.010000576 0.03536783 -0.16593781 -0.15077668 0.0030166288 0.16225813 -0.10558923
-0.0016011435 -0.08255564 0.15135147 -0.11913306 0.24267875 -0.04487252 -0.0034036636 0.22545275
0.10119365 -0.15889916 -0.23002689 0.04549065 0.017016938 0.059885927 -0.18907546 -0.006715914
-0.25166073 0.143316 -0.30983433 -0.064350985 -0.08068727 -0.09127898 0.039036486 0.29272205
-0.048268896 0.17392924 0.09770179 -0.27256483 0.3740005 -0.023190778 -0.047519956 -0.020363787
-0.14325649 -0.021507768 -0.10461087 -0.22791432 0.055664293 -0.005730033 -0.20880337 -0.234879
-0.066440664 0.016914086 0.29643038 -0.15763791 0.14945653 -0.30565113 0.14152084 0.17849456
0.27296832 0.06321722 -0.20153224 -0.06923798 -0.037910543 -0.15038651 0.11976798 -0.15535584
0.1492725 -0.03651475 -0.020528365 0.21510701 0.075130254 -0.18880308 -0.15224856 -0.052424774
-0.052333064 0.12133798 0.010030848 -0.118709154 -0.104403354 0.04253796 0.12691996 0.13408457
0.093129575 0.27093923 -0.026589151 0.059646234 -0.26295775 0.16722949 -0.049928512 -0.21547538
-0.12806816 -0.35452998 -0.14252779 -0.047073603 0.18016034 -0.27318943 0.10201792 -0.14221036
-0.18811946 -0.014374546 0.12932779 -0.14577809 -0.18654011 0.2409303 0.013297081 0.18488255
0.18186554 0.016815286 0.10558776 0.13399011 -0.042439245 0.025192676 0.2524687 0.30155116
-0.002682151 0.028305737 0.076669596 0.0116186645 -0.11049034 -0.3088723 0.046429984 -0.053519268
-0.028488759 0.019169774 0.2570974 -0.011620853 0.05098896 0.23539947 0.11342643 0.03561772
00000000: d362 9fbe 8a51 89bd dcf2 1e3e b6d8 823e
00000010: 150d 87bd 56ed 5bbb ef26 a3bd 519b 6dbe
00000020: 55d6 0cbe 4bd0 073e 8ed3 5abc 8a79 403d
00000030: 12d1 4cbc 5e91 493e 3748 593e 4758 debd
00000040: 033e 90be 2dfa 063e de15 a13e d0b9 cbbc
00000050: 2c7e 883e 53ea ad3e 8f43 943e 6203 3f3e
00000060: 5bbf 2b3e 9ed6 d3be 8a41 1cbd 0a83 7ebd
00000070: 4472 81bd 5b13 513e 43b7 84bd 98f2 64bc
00000080: eb1b 033e b1b2 1a3d f085 8c3d 67b4 48be
00000090: 493e 15be 9d4d 90bc 0779 10bd 5d2d aab9
000000a0: a021 7f3c 1e37 5a3e 7f34 b23d 29a4 96be
000000b0: 5f2b 1b3b ec2a 803e 1129 67be a78e 8bbe
000000c0: 78e0 5d3e 075e f7bd 5216 423e be14 6f3e
000000d0: f540 923e 8f5c 4bbd 44b2 bf3d 2e35 f9bc
000000e0: 8a8c 83be 2872 28be 447d 963d 4936 77be
000000f0: e16a 033e 086a 2abe 320a b4bb 1853 6c3e
00000100: 32ea 86bd 75d9 23bc dcdd 103d 9aeb 29be
00000110: 3465 1abe a2b2 453b ff26 263e 2b3f d8bd
00000120: 76dd d1ba ee12 a9bd e1fb 1a3e 09fc f3bd
00000130: c780 783e 3fcc 37bd 0010 5fbb 16dd 663e
00000140: 9e3e cf3d 76b6 22be 2b8c 6bbe 6754 3a3d
00000150: 1b67 8b3c f24a 753d ff9c 41be 2b11 dcbb
00000160: add9 80be 6ec1 123e 9ba2 9ebe 73ca 83bd
00000170: 5e3f a5bd 79f0 babd b9e4 1f3d aadf 953e
00000180: 9bb5 45bd 821a 323e e017 c83d 9e8d 8bbe
00000190: fe7c bf3e 96fa bdbc 49a4 42bd f5d1 a6bc
000001a0: d4b1 12be 0f31 b0bc 393e d6bd 5f62 69be
000001b0: 3e00 643d 00c3 bbbb 8dd0 55be 1f84 70be
000001c0: 0b12 88bd 698f 8a3c b9c5 973e d56b 21be
000001d0: 220b 193e 4e7e 9cbe d7ea 103e 47c7 363e
000001e0: 81c2 8b3e 0878 813d 785e 4ebe a4cc 8dbd
000001f0: 1648 1bbd ecfe 19be ea48 f53d 9a15 1fbe
00000200: e4da 183e 7e90 15bd 1a2b a8bc 0345 5c3e
00000210: e4dd 993d 9855 41be 0ce7 1bbe 5cbb 56bd
00000220: 325b 56bd 0c80 f83d 6d58 243c c91d f3bd
00000230: 6dd1 d5bd 493c 2e3d 4ef7 013e 774d 093e
00000240: b8ba be3d 8cb8 8a3e 7ed1 d9bc 9c4f 743d
00000250: 66a2 86be 353e 2b3e d781 4cbd 94a5 5cbe
00000260: 4d24 03be f484 b5be cef2 11be 40d0 40bd
00000270: f47b 383e 7cdf 8bbe c5ee d03d 989f 11be
00000280: 63a2 40be 3783 6bbc 816e 043e da46 15be
00000290: 5f04 3fbe 6fb6 763e 00dc 593c da51 3d3e
000002a0: f63a 3a3e 36c0 893c 653e d83d b434 093e
000002b0: c6d4 2dbd df60 ce3c 9443 813e ea64 9a3e
000002c0: 07c7 2fbb 6fe1 e73c f304 9d3d 365c 3e3c
000002d0: c248 e2bd 8324 9ebe 5e2d 3e3d 0537 5bbd
000002e0: 4261 e9bc ee09 9d3c 45a2 833e 6465 3ebc
000002f0: cdd9 503d 8f0c 713e 1e4c e83d e3e3 113d

init_layer.0.bias f4 [64]
-0.15817557 0.082440674 -0.08977949 0.08042215 -0.06954719 -0.00045137623 0.16101246 0.13145459
-0.008822355 0.084434986 0.03089338 -0.019164067 -0.088734835 0.121492326 0.10988394 0.10367826
0.16323382 0.07604592 -0.21753761 0.050752476 0.08743471 0.05967791 0.044340473 0.04169478
0.037692107 -0.11905668 0.14658846 -0.062102795 -0.123245835 -0.0752227 -0.09943911 -0.093653284
0.06752298 -0.048709612 -0.058770392 0.11195059 0.039162014 -0.12480272 0.10341993 -0.12148357
0.12454932 -0.06625625 0.076370195 -0.0961781 0.054366373 0.12284951 -0.06030716 -0.06324557
-0.06008164 0.04001231 0.04877562 -0.09429161 -0.04346585 -0.0731555 0.057546083 0.12871474
0.10858918 0.09903955 0.10612884 0.046262685 0.00083173 -0.034692563 0.089182526 0.10092855
00000000: c7f8 21be a8d6 a83d 4fde b7bd 5eb4 a43d
00000010: c26e 8ebd b1a6 ecb9 73e0 243e 089c 063e
00000020: a48b 10bc 40ec ac3d 1d14 fd3c f6fd 9cbc
00000030: 9cba b5bd f8d0 f83d d50a e13d 4555 d43d
00000040: c426 273e f7bd 9b3d 2ec2 5ebe d4e1 4f3d
00000050: f810 b33d d370 743d 5b9e 353d 25c8 2a3d
00000060: 0a63 1a3d fdd3 f3bd 491b 163e 805f 7ebd
00000070: 5068 fcbd 5c0e 9abd bba6 cbbd 4bcd bfbd
00000080: 7d49 8a3d bb83 47bd 39b9 70bd 5a46 e53d
00000090: 5968 203d 9298 ffbd d4cd d33d 61cc f8bd
000000a0: b713 ff3d 5bb1 87bd fa67 9c3d 06f9 c4bd
000000b0: 46af 5e3d 8698 fb3d a404 77bd e586 81bd
000000c0: 2a18 76bd f3e3 233d f2c8 473d f61b c1bd
000000d0: 3f09 32bd 8dd2 95bd 71b5 6b3d cccd 033e
000000e0: 0164 de3d 3fd5 ca3d 145a d93d f17d 3d3d
000000f0: 7508 5a3a ca19 0ebd 54a5 b63d a1b3 ce3d

hiden_layers.0.weight f4 [64, 64]
-0.0968088 0.01583549 0.23257396 0.056238648 -0.21175581 -0.016534911 0.075320564 -0.17415655
-0.03538155 -0.1586393 -0.034221508 0.26507825 0.09059849 -0.015043376 0.1591491 -0.24259245
-0.10192054 -0.11691469 0.09684907 -0.08661969 -0.10743643 0.11363554 0.020829419 -0.2687245
0.039788067 0.092812635 -0.15673687 -0.15479699 0.031569496 0.043855604 -0.21221714 -0.0010803865
-0.19297466 -0.08162041 0.30352834 -0.005245808 0.022842426 0.03293794 0.24301721 0.09972443
0.032589387 0.06311121 0.012208662 -0.03411113 -0.0621387 -0.13459489 0.070067264 -0.2238201
0.25750428 -0.24059168 -0.15274513 0.022785587 0.0005413492 0.004443893 0.18635671 0.1690752
-0.20468117 -0.19205388 -0.1724061 0.06882568 0.033339303 -0.06721381 -0.0036732936 -0.15738216
-0.058621455 -0.20228982 -0.18288249 0.14410111 -0.14078201 -0.12164844 0.20479852 -0.16013049
-0.0014240318 -0.24410102 0.11181896 -0.07295492 0.040900342 -0.023209285 -0.028133195 0.13955419
0.002341076 0.22672369 0.036697503 -0.0010213042 -0.101282105 -0.22156717 0.11204872 0.19493082
-0.11299123 -0.01974109 0.20601395 0.119928 0.17131594 0.068395555 -0.17286305 -0.13867863
0.0043509356 0.03645522 0.22119404 0.123551294 0.23466483 -0.040987767 -0.08026056 0.15183836
-0.05411309 0.03503722 -0.2502379 -0.048516717 0.10590207 -0.29568326 0.20950899 -0.1929229
-0.047967914 -0.16885059 -0.09291701 -0.14488712 0.10150268 -0.16261362 0.15007673 0.10882586
-0.21225433 -0.13640505 -0.16694069 -0.21022417 0.20681319 0.24701256 0.16114853 -0.11097876
0.23124461 -0.24190305 0.19691712 -0.15335053 -0.1727268 -0.010632299 -0.12184357 -0.26664636
-0.21468881 -0.072499834 0.013126769 0.15223183 0.3386461 -0.2184234 0.062112916 -0.23096728
-0.24287567 -0.2391195 0.060590275 -0.017023277 -0.20421554 -0.28404334 -0.21405593 0.055614263
-0.028534632 0.032926228 0.02827587 0.23697516 0.0047418973 -0.23325558 0.34418076 0.28199214
-0.12858774 0.19956656 0.21222582 0.1680282 -0.09271817 0.02552029 -0.17315155 0.16918607
-0.29426786 -0.011724957 0.12397688 0.27851403 0.11515968 0.045070942 -0.06953647 -0.00962605
-0.03710743 -0.004802384 -0.0986895 0.07598739 -0.17477119 0.045652412 -0.20668633 -0.05777851
-0.30119193 -0.25561523 -0.26835546 -0.19730629 0.182452 -0.0009467438 -0.3061557 0.049114928
0.12732987 -0.13984181 -0.0050926227 -0.048376776 0.1073583 0.10589395 -0.03665315 -0.15286507
-0.23305997 -0.10868249 0.054531004 0.017197125 -0.028917152 -0.07430495 0.038088657 -0.102339596
-0.065705135 0.17910023 0.11598473 -0.08946526 0.16910784 -0.09457704 -0.14124607 -0.05974902
0.24822608 0.061166916 -0.02596002 -0.06339847 -0.17198786 -0.2370642 -0.13571125 0.018450202
-0.11683929 0.10242844 -0.16156009 0.043048076 -0.033825867 -0.11537792 0.0006018847 -0.07428116
-0.15750372 -0.02879687 0.06193989 0.19398153 0.038767498 0.07946847 0.086414084 0.017567476
0.07497934 -0.10463222 0.23244472 -0.060471233 -0.2693641 0.17329198 0.20577623 0.0700886
-0.18166581 -0.3618782 -0.11513271 0.13024034 -0.11818505 -0.09299818 -0.046532035 -0.06853782
00000000: b143 c6bd 6eb9 813c de27 6e3e 7f5a 663d
00000010: 84d6 58be 3974 87bc ab41 9a3d 1856 32be
00000020: 3fec 10bd 5772 22be da2b 0cbd 56b8 873e
00000030: b38b b93d 7e78 76bc fbf7 223e 286a 78be
00000040: b7bb d0bd f870 efbd ce58 c63d aa65 b1bd
00000050: a207 dcbd c0b9 e83d 75a2 aa3c 4296 89be
00000060: d0f8 223d 8d14 be3d a17f 20be 1a83 1ebe
00000070: 044f 013d efa1 333d 734f 59be c19b 8dba
00000080: 269b 45be 9a28 a7bd 1168 9b3e 07e5 abbb
00000090: 0a20 bb3c efe9 063d 81d9 783e 523c cc3d
000000a0: 737c 053d 7340 813d d706 483c 1db8 0bbd
000000b0: 2685 7ebd 3ed3 09be 6d7f 8f3d 1931 65be
000000c0: 9ad7 833e aa5d 76be 3869 1cbe d7a8 ba3c
000000d0: 54e9 0d3a 149e 913b 4bd4 3e3e 0d22 2d3e
000000e0: f197 51be c6a9 44be 3a8b 30be 7af4 8c3d
000000f0: cb8e 083d 65a7 89bd a4bb 70bb ca28 21be
00000100: 0d1d 70bd 1025 4fbe 8c45 3bbe 3e8f 133e
00000110: 2929 10be d122 f9bd b4b6 513e 3ff9 23be
00000120: 94a6 baba 9ef5 79be 5701 e53d 6469 95bd
00000130: 1e87 273d 6621 bebc 9677 e6bc 4be7 0e3e
00000140: bd6c 193b 412a 683e 1f50 163d 48dd 85ba
00000150: fe6c cfbd 81e2 62be cd79 e53d f29b 473e
00000160: f267 e7bd 11b8 a1bc 52f5 523e d09c f53d
00000170: 726d 2f3e f812 8c3d 0303 31be c501 0ebe
00000180: 4b92 8e3b 1252 153d b180 623e 7608 fd3d
00000190: fa4b 703e cae2 27bd a65f a4bd 847b 1b3e
000001a0: b0a5 5dbd 3083 0f3d 2f1f 80be 77b9 46bd
000001b0: 2fe3 d83d cc63 97be 8689 563e 958d 45be
000001c0: 017a 44bd 2be7 2cbe 464b bebd 4a5d 14be
000001d0: a3e0 cf3d 2f84 26be b7ad 193e 18e0 de3d
000001e0: 3359 59be c4ad 0bbe 80f2 2abe 0145 57be
000001f0: d6c6 533e dcf0 7c3e 1f04 253e d548 e3bd
00000200: 63cb 6c3e 6fb5 77be a4a4 493e ec07 1dbe
00000210: 4bdf 30be 1833 2ebc 1f89 f9bd df85 88be
00000220: 62d7 5bbe cb7a 94bd a911 573c a9e2 1b3e
00000230: 0663 ad3e 62aa 5fbe 1d6a 7e3d b082 6cbe
00000240: 66b4 78be bedb 74be 822d 783d 6674 8bbc
00000250: e11d 51be 216e 91be 7a31 5bbe c8cb 633d
00000260: 76c1 e9bc a7dd 063d cca2 e73c 9ea9 723e
00000270: eb61 9b3b 8dda 6ebe 7638 b03e 4661 903e
00000280: 81ac 03be 2d5b 4c3e ba51 593e 960f 2c3e
00000290: 06e3 bdbd ed0f d13c a44e 31be 1d3f 2d3e
000002a0: 47aa 96be 091a 40bc 97e7 fd3d 6499 8e3e
000002b0: d7d8 eb3d 4f9c 383d 2369 8ebd 94b6 1dbc
000002c0: f6fd 17bd 515d 9dbb b81d cabd 479f 9b3d
000002d0: 38f7 32be 06fe 3a3d 95a5 53be 29a9 6cbd
000002e0: d435 9abe 00e0 82be e365 89be a90a 4abe
000002f0: b2d4 3a3e e72e 78ba 71c0 9cbe bc2c 493d
00000300: c362 023e b132 0fbe 04e0 a6bb ba26 46bd
00000310: abde db3d edde d83d 9d21 16bd a988 1cbe
00000320: 46a7 6ebe ed94 debd e75b 5f3d fce0 8c3c
00000330: aae3 ecbc 322d 98bd da02 1c3d 6c97 d1bd
00000340: 6a90 86bd 0d66 373e 6789 ed3d 9039 b7bd
00000350: 9b2a 2d3e 9bb1 c1bd cfa2 10be 63bb 74bd
00000360: fa2e 7e3e 298a 7a3d 1caa d4bc 0fd7 81bd
00000370: 961d 30be f5c0 72be e4f7 0abe e124 973c
00000380: 7049 efbd 00c6 d13d 0270 25be 2e53 303d
00000390: fe8c 0abd 424b ecbd ccc7 1d3a b920 98bd
000003a0: a848 21be 6ae7 ebbc afb4 7d3d 18a3 463e
000003b0: abca 1e3d 5dc0 a23d def9 b03d abe9 8f3c
000003c0: c58e 993d 6b49 d6bd fd05 6e3e afb0 77bd
000003d0: 17ea 89be 7473 313e 01b7 523e 9d8a 8f3d
000003e0: 9a06 3abe 1948 b9be b3ca ebbd b95d 053e
000003f0: 010b f2bd d475 bebd 6098 3ebd 8e5d 8cbd

hiden_layers.0.bias f4 [64]
-0.15320535 0.020604221 -0.0561669 0.08591281 -0.09259676 -0.10454154 0.0733121 0.039786845
0.13439386 0.039146703 0.07562053 -0.1411997 0.049327724 -0.08763723 -0.3910075 0.062427707
0.03589359 -0.11777595 0.067928486 -0.036862727 -0.0902665 0.019902296 -0.099194184 0.0007980277
0.07253664 0.089988686 0.06455801 0.0072785295 -0.0043203197 -0.07965403 -0.010769573 0.018254064
0.12461519 -0.07769488 -0.10645756 0.11289901 -0.084021464 -0.050407305 0.12587667 -0.08312408
-0.035760414 -0.0844599 0.20323491 -0.07684679 0.011168022 0.026954629 -0.09687368 0.04028315
-0.067626156 0.07323502 0.008904712 0.08286514 -0.07581325 0.10735609 -0.2716733 0.017707685
-0.12317501 -0.14940222 -0.02345878 -0.16164263 -0.115336664 -0.07993233 -0.09508979 0.044706706
00000000: dde1 1cbe 2fca a83c 430f 66bd 0ef3 af3d
00000010: 5fa3 bdbd e019 d6bd a724 963d 88f7 223d
00000020: 8b9e 093e 4b58 203d f0de 9a3d a796 10be
00000030: de0b 4a3d 267b b3bd 2332 c8be 32b4 7f3d
00000040: 2805 133d 8434 f1bd 171e 8b3d 5ffd 16bd
00000050: a5dd b8bd 240a a33c 5226 cbbd bb32 513a
00000060: 178e 943d fd4b b83d fd36 843d bb80 ee3b
00000070: 7891 8dbb a721 a3bd dd72 30bc 8c89 953c
00000080: 4036 ff3d 7e1e 9fbd 6c06 dabd 9937 e73d
00000090: 7213 acbd e477 4ebd d0e5 003e f53c aabd
000000a0: 8379 12bd 50f9 acbd d01c 503e da61 9dbd
000000b0: 14fa 363c f4cf dc3c b565 c6bd f2ff 243d
000000c0: 957f 8abd 3efc 953d 12e5 113c 33b5 a93d
000000d0: fa43 9bbd 82dd db3d c318 8bbe b50f 913c
000000e0: 2e43 fcbd e5fc 18be a12c c0bc a585 25be
000000f0: a135 ecbd 90b3 a3bd 70be c2bd 611e 373d

hiden_layers.1.weight f4 [64, 64]
-0.024360394 0.1479654 0.32231748 0.15077323 -0.26676768 0.29320934 -0.08332696 -0.022593718
0.023117792 -0.041439172 -0.19507873 -0.025583735 -0.2745115 -0.07734658 -0.01079919 -0.049435362
0.27590516 0.29684332 -0.32002282 0.32176816 0.2665721 -0.17462525 0.044930257 -0.10092096
-0.12449218 -0.44740066 -0.08654075 0.16860458 0.113535345 -0.07573955 -0.19682638 -0.0554037
-0.25560775 0.3552431 -0.00047851473 -0.3053163 0.13474223 -0.13371003 -0.23259427 0.015108857
0.08250193 0.07086003 -0.19331452 0.2250127 0.26772407 0.03393652 0.059178136 -0.39309183
0.071955755 0.036122117 -0.22996904 0.046567045 -0.15287296 -0.08987311 -0.3336315 -0.28042784
0.27996534 0.35917553 -0.2936822 0.06726449 -0.10226533 0.053304367 0.22598042 -0.1342349
-0.045887515 -0.20218359 -0.2884938 0.22730017 -0.2417246 0.024944173 -0.15945812 -0.0601818
0.27385545 0.1921168 0.24410243 0.15389524 0.10161539 0.090528 -0.3733937 0.34646836
-0.07811759 -0.23830818 0.24017528 0.009916292 0.037529614 0.2532269 -0.3128496 0.2944484
-0.053853266 0.2334763 0.27361944 0.29864776 -0.22472538 -0.08881914 0.10849342 0.30339116
0.31401902 0.046947427 -0.372156 -0.11078127 -0.21536338 0.19881465 -0.062338404 -0.33706427
-0.44617724 -0.30051666 0.102754265 -0.19391984 0.020624198 0.1402691 -0.16374846 -0.36562592
0.41640547 0.049698845 -0.090605676 -0.105346285 0.047493167 -0.00708518 0.08230199 0.0761979
-0.0644753 0.004884529 -0.20126432 0.17390567 0.16016692 -0.011875196 0.021021578 0.5524524
0.10283194 0.10848346 -0.06499343 0.124830835 0.057622243 0.159566 -0.12625785 0.32065994
0.28936243 -0.06908583 -0.15705521 -0.048256833 0.024936726 0.0252457 0.023345439 0.14208567
-0.06218725 -0.13539504 0.13430186 0.077864416 0.01761764 -0.28558785 -0.2577748 -0.12626886
0.028911505 0.11924616 -0.028757768 -0.010061906 0.070869915 0.08085513 0.2263649 0.3278527
0.1326331 -0.1686474 -0.21334475 -0.07846778 -0.09589523 -0.12770014 0.05917123 -0.1319727
-0.22763592 -0.18119606 -0.12943059 -0.11805473 -0.017142314 0.097077005 -0.023212938 0.06463512
0.008752313 0.064429276 0.00817303 -0.26105797 0.048829768 -0.16895084 0.058049038 0.013563985
-0.12355243 0.046800487 0.17205988 0.062271554 0.039722398 0.106013454 -0.052231807 0.244199
0.1843726 -0.06671805 -0.09712667 0.12474453 0.1926391 -0.21505575 -0.09633511 -0.13834614
0.087116845 0.015840199 -0.12136421 0.38531122 0.23149988 0.26112062 -0.08709956 0.12723243
-0.021473244 -0.16001241 -0.0104608815 0.053724278 -0.030626193 -0.20086439 0.06997372 0.1116266
0.13147034 0.06559414 -0.13258533 0.041770913 -0.0031937251 0.27211872 0.16807768 0.16954195
0.18216965 0.011881184 -0.07495741 0.02415486 0.21666439 0.024542611 0.16606723 0.19847235
0.056660034 -0.026138367 0.27795917 0.14996302 -0.25816673 -0.03618762 -0.21402323 -0.06942977
-0.042762283 0.15005836 -0.0039595575 0.070258684 0.26076266 -0.05793373 -0.37874696 -0.031929653
-0.14376558 -0.012602564 0.38859826 0.07308689 -0.13298546 0.20617887 0.20275214 -0.19982302
00000000: 738f c7bc 3e84 173e cc06 a53e 4c64 1a3e
00000010: c695 88be 891f 963e 53a7 aabd 7616 b9bc
00000020: 8661 bd3c 1fbc 29bd b8c2 47be fb94 d1bc
00000030: c58c 8cbe e267 9ebd 16ef 30bc bc7c 4abd
00000040: 7143 8d3e d9fb 973e 08da a3be ccbe a43e
00000050: 237c 883e f6d0 32be ca08 383d a6af cebd
00000060: c2f5 febd b311 e5be 473c b1bd aea6 2c3e
00000070: 3885 e83d 561d 9bbd db8c 49be fdee 62bd
00000080: 05df 82be 6ce2 b53e 29e1 fab9 6b52 9cbe
00000090: def9 093e 48eb 08be 312d 6ebe 248b 773c
000000a0: c6f6 a83d 101f 913d 3ef4 45be bb69 663e
000000b0: 2113 893e 0501 0b3d c664 723d 5543 c9be
000000c0: 8a5d 933d c9f4 133d 017d 6bbe 16bd 3e3d
000000d0: bb8a 1cbe 650f b8bd bfd1 aabe 3d94 8fbe
000000e0: 9e57 8f3e dbe5 b73e 835d 96be f7c1 893d
000000f0: 7c70 d1bd ae55 5a3d 6967 673e e074 09be
00000100: 8cf4 3bbd 3709 4fbe 76b5 93be 60c1 683e
00000110: a786 77be b957 cc3c fd48 23be 3181 76bd
00000120: c836 8c3e 44ba 443e fdf5 793e b796 1d3e
00000130: bb1b d03d be66 b93d 762d bfbe 4d64 b13e
00000140: 1dfc 9fbd 0f07 74be 82f0 753e f177 223c
00000150: a7b8 193d f5a6 813e d32d a0be f1c1 963e
00000160: 3e95 5cbd 6914 6f3e d917 8c3e 5ce8 983e
00000170: 691e 66be cfe6 b5bd cc31 de3d 1656 9b3e
00000180: 1ac7 a03e f24b 403d 3b8b bebe 4ae1 e2bd
00000190: 3888 5cbe 1196 4b3e 8e56 7fbd b093 acbe
000001a0: 5871 e4be 52dd 99be d470 d23d ec92 46be
000001b0: 14f4 a83c b4a2 0f3e adad 27be 5233 bbbe
000001c0: 1933 d53e 0491 4b3d 788f b9bd cbbf d7bd
000001d0: 3288 423d cc2a e8bb f28d a83d a50d 9c3d
000001e0: a00b 84bd 660e a03b 3c18 4ebe 5414 323e
000001f0: cc02 243e 2f90 42bc 7235 ac3c 856d 0d3f
00000200: 8d99 d23d 942c de3d 471b 85bd 4fa7 ff3d
00000210: 4d05 6c3d 4565 233e bd49 01be 8a2d a43e
00000220: 5027 943e df7c 8dbd 15d3 20be f5a8 45bd
00000230: 1b48 cc3c 12d0 ce3c ef3e bf3c e87e 113e
00000240: 0fb8 7ebd ffa4 0abe 6d86 093e 6177 9f3d
00000250: de52 903c 9238 92be 0ffb 83be a04c 01be
00000260: d2d7 ec3c 5537 f43d 6995 ebbc b1da 24bc
00000270: 3f24 913d 6097 a53d 33cc 673e 4fdc a73e
00000280: f9d0 073e e7b1 2cbe 0c77 5abe b7b3 a0bd
00000290: b864 c4bd d3c3 02be 885d 723d da23 07be
000002a0: 6419 69be 768b 39be 7489 04be aec6 f1bd
000002b0: 0a6e 8cbc 4fd0 c63d 0f29 bebc 6b5f 843d
000002c0: dd65 0f3c 7ff3 833d 2ce8 053c 64a9 85be
000002d0: b901 483d 7301 2dbe d4c4 6d3d 7a3b 5e3c
000002e0: 0e09 fdbd deb1 3f3d 7730 303e 7510 7f3d
000002f0: f4b3 223d 951d d93d 05f1 55bd 4d0f 7a3e
00000300: 2ccc 3c3e 79a3 88bd 59ea c6bd 0f7a ff3d
00000310: 2f43 453e 9337 5cbe 584b c5bd 9caa 0dbe
00000320: 516a b23d 4ec3 813c cd8d f8bd 8347 c53e
00000330: 4e0e 6d3e 9ab1 853e 4161 b2bd 3849 023e
00000340: a8e8 afbc 4bda 23be 1e64 2bbc fd0d 5c3d
00000350: c8e3 fabc 65af 4dbe 624e 8f3d 7d9c e43d
00000360: 29a0 063e 3856 863d 73c4 07be fa17 2b3d
00000370: d14d 51bb 2553 8b3e 8e1c 2c3e 689c 2d3e
00000380: ae8a 3a3e 4ca9 423c 4583 99bd 6ae0 c53c
00000390: 45dd 5d3e 960d c93c 870d 2a3e 563c 4b3e
000003a0: 5a14 683d 2120 d6bc aa50 8e3e e88f 193e
000003b0: 6e2e 84be 7839 14bd e828 5bbe 3231 8ebd
000003c0: 8127 2fbd e6a8 193e 2dbf 81bb c9e3 8f3d
000003d0: af82 853e eb4b 6dbd 1feb c1be abc8 02bd
000003e0: 4937 13be fc7a 4ebc 5af6 c63e 94ae 953d
000003f0: 572d 08be 8e20 533e 429e 4f3e 689e 4cbe

hiden_layers.1.bias f4 [64]
0.023842176 0.018719869 0.0402384 -0.11183997 -0.20892823 -0.045934945 -0.01726407 -0.08378267
-0.08965534 -0.0028908558 0.093644306 -0.06574603 0.05815881 -0.06793583 -0.17674872 0.014415755
0.09226426 0.001686465 -0.12021816 -0.062849976 0.07280424 0.037697658 0.06801278 0.1618766
-0.049625587 -0.070630595 0.18297301 0.07402534 -0.2101675 0.004208729 0.059977513 -0.04875983
-0.15322603 -0.085640594 0.09854709 0.11439132 0.10982865 -0.1672558 0.121011086 -0.1626351
0.1956741 0.08348183 -0.06235129 -0.096724905 -0.054259725 -0.08375758 -0.13983162 0.056684293
0.058411192 -0.07757539 -0.030386792 -0.00078792043 0.027952014 0.11469095 -0.050242443 0.04419366
-0.05632861 0.08727002 -0.009980854 -0.0020323764 0.0611876 -0.004879719 -0.05161397 0.05285627
00000000: ab50 c33c 695a 993c 05d1 243d 5b0c e5bd
00000010: 48f1 55be 4826 3cbd 616d 8dbc 4096 abbd
00000020: 389d b7bd 8374 3dbb 96c8 bf3d dba5 86bd
00000030: ef37 6e3d f121 8bbd 9efd 34be 0f30 6c3c
00000040: 0bf5 bc3d 600c dd3a f034 f6bd 7db7 80bd
00000050: 641a 953d dc68 1a3d 494a 8b3d fbc2 253e
00000060: 3344 4bbd c6a6 90bd 475d 3b3e 999a 973d
00000070: 2636 57be 61e9 893b fbaa 753d 63b8 47bd
00000080: 49e7 1cbe 5664 afbd 0fd3 c93d ff45 ea3d
00000090: d8ed e03d 1b45 2bbe a9d4 f73d d189 26be
000000a0: cb5e 483e 86f8 aa3d 1164 7fbd b517 c6bd
000000b0: 723f 5ebd 1889 abbd 0530 0fbe ca2d 683d
000000c0: 9340 6f3d d9df 9ebd b9ed f8bc 728c 4eba
000000d0: 9ffb e43c 17e3 ea3d 05cb 4dbd 6904 353d
000000e0: d4b8 66bd a0ba b23d bc86 23bc 9e31 05bb
000000f0: d99f 7a3d 0de6 9fbb 2c69 53bd d17f 583d

hiden_layers.2.weight f4 [64, 64]
-0.11879455 0.36414388 0.35690847 -0.024199387 -0.0038941496 -0.19753568 -0.17128143 -0.5066822
-0.48129538 -0.2855824 0.20669235 0.09090182 -0.15565854 0.03411941 -0.0068173306 0.22032347
0.22272538 0.013446267 0.037663728 -0.0769061 0.14608923 0.21383455 -0.15206254 0.1503348
0.091929466 -0.15511294 -0.32033253 -0.0994509 0.057600074 -0.08312626 0.19260404 0.034885276
-0.11313661 -0.07541618 -0.23772177 -0.088766724 0.18239224 0.045873888 -0.082137085 0.030042306
-0.19445033 0.0784292 -0.08305221 0.026089888 0.07199355 -0.09499223 0.08652419 0.20144594
-0.034213774 -0.23018381 -0.07496144 -0.34859943 0.022722524 0.054823328 0.031544283 0.15532266
-0.18874209 0.14671493 0.32125 -0.16572694 -0.15163873 0.07024822 0.1174776 0.23550232
0.05631778 0.009509979 0.097638376 0.18571287 0.20390813 0.13225394 0.36132777 0.27179196
0.089031905 0.12705655 0.20065822 0.08189344 -0.06885772 -0.12771302 -0.06653302 0.07158511
-0.090143055 -0.07526875 -0.20500551 -0.11753388 0.075466886 -0.10760631 0.004405249 0.044151317
-0.044584356 0.047113985 0.23392203 0.08547394 -0.11170389 0.0904881 -0.022068806 -0.052675087
0.008249123 0.21816656 -0.099354036 0.16210125 0.16299771 0.074939616 0.033560127 -0.35332868
-0.14855532 -0.07737984 -0.019647669 0.026799792 -0.00742784 -0.031014295 -0.06428848 0.24885194
-0.16508806 0.2626981 -0.06508834 -0.10869679 -0.12528941 0.21891913 -0.121495366 -0.17959386
0.1984778 -0.012796343 -0.09403816 0.5483607 0.05725726 0.20592088 0.12719497 -0.1518021
0.23789619 -0.22567765 -0.14085557 -0.21455862 0.15783559 0.03838684 -0.26456094 0.05085711
-0.10425933 0.20713006 0.06745764 0.20831315 -0.017875379 0.14197011 -0.2093691 0.20887958
0.11117711 -0.06241252 0.10500396 -0.20781693 -0.17953464 0.12345921 0.2857287 -0.16841006
-0.15438053 -0.07317006 -0.12353923 -0.10208855 0.16799468 0.01153522 0.07710184 0.2375663
-0.10123288 -0.11313531 -0.025714062 0.13682187 0.14696242 -0.01581441 -0.21426208 0.22882709
0.17457105 0.0023514798 -0.082609415 -0.08685036 0.04546151 -0.056992617 -0.0955405 0.10634495
0.22801954 0.07666383 -0.104595296 0.20630272 -0.101888396 0.11832185 0.0328905 -0.13688457
-0.2280991 0.17006572 -0.22030795 -0.527662 0.10264125 -0.032099582 0.10467131 0.1654052
-0.049182914 -0.16767065 0.020392949 0.14164862 -0.20556848 -0.16645284 0.074023165 -0.27881995
0.05045468 0.06685967 0.18525779 -0.24870011 0.050867192 0.073628925 -0.11397417 0.075888224
0.15525945 -0.2201253 -0.26842812 -0.007122484 -0.086699046 0.04958734 0.2570461 -0.0041439873
-0.18523267 -0.13198037 0.13164061 0.11362675 -0.049481783 0.15156563 0.16015925 -0.3155553
-0.3324688 -0.12911764 0.23913543 0.33555284 0.09736161 0.07517738 0.06706844 -0.16713317
0.19061005 -0.11211295 -0.032669343 -0.090851225 -0.026307475 -0.20460826 -0.08228608 0.06272508
-0.02334924 -0.022711225 0.16696762 -0.13826571 -0.020130074 -0.03270348 -0.011985118 -0.088709764
0.040207807 0.0074831243 -0.06173362 0.26193348 0.32898834 -0.15096557 0.14728966 0.0051759686
00000000: 8f4a f3bd 1171 ba3e b5bc b63e cb3d c6bc
00000010: fd34 7fbb cb46 4abe 6664 2fbe edb5 01bf
00000020: 596c f6be db37 92be 29a7 533e bc2a ba3d
00000030: f464 1fbe cbc0 0b3d ea63 dfbb 7a9c 613e
00000040: 1f12 643e bb4d 5c3c 4845 1a3d f280 9dbd
00000050: 6a98 153e 72f7 5a3e 48b6 1bbe 5ef1 193e
00000060: 8445 bc3d edd5 1ebe a002 a4be eaac cbbd
00000070: 0eee 6b3d 1a3e aabd fe39 453e dde3 0e3d
00000080: 2bb4 e7bd cc73 9abd 566d 73be 54cb b5bd
00000090: 08c5 3a3e 42e6 3b3d 7d37 a8bd 481b f63c
000000a0: fd1d 47be 7d9f a03d 4717 aabd 76ba d53c
000000b0: 5b71 933d 498b c2bd 9833 b13d d847 4e3e
000000c0: be23 0cbd 4eb5 6bbe 6285 99bd a07b b2be
000000d0: 9624 ba3c 6d8e 603d 9434 013d e70c 1f3e
000000e0: 9b45 41be 703c 163e e17a a43e 53b4 29be
000000f0: 2f47 1bbe 4cde 8f3d 1998 f03d 8527 713e
00000100: 79ad 663d becf 1b3c a1f6 c73d 842b 3e3e
00000110: 4bcd 503e 946d 073e f4ff b83e 5128 8b3e
00000120: 5c56 b63d 1d1b 023e 5979 4d3e bfb7 a73d
00000130: 4705 8dbd 34c7 02be 7742 88bd 379b 923d
00000140: ec9c b8bd 8126 9abd f7ec 51be 9ab5 f0bd
00000150: 628e 9a3d b260 dcbd e859 903b 03d8 343d
00000160: 169e 36bd 98fa 403d 4289 6f3e f60c af3d
00000170: 02c5 e4bd d351 b93d a4c9 b4bc d5c1 57bd
00000180: 5427 073c 0e67 5f3e 217a cbbd dffd 253e
00000190: dfe8 263e f179 993d 5876 093d 7fe7 b4be
000001a0: e31e 18be 5279 9ebd 26f4 a0bc 3d8b db3c
000001b0: 3d65 f3bb b111 febc aea9 83bd 0bd3 7e3e
000001c0: d80c 29be 5e80 863e 094d 85bd 6c9c debd
000001d0: de4b 00be 562c 603e 90d2 f8bd 74e7 37be
000001e0: c43d 4b3e c1a7 51bc 1497 c0bd 5e61 0c3f
000001f0: 9786 6a3d ecdc 523e 663f 023e 0272 1bbe
00000200: 0f9b 733e 0b18 67be 713c 10be 41b5 5bbe
00000210: a79f 213e 853b 1d3d 8874 87be 8c4f 503d
00000220: ea85 d5bd e719 543e 3b27 8a3d 0b50 553e
00000230: 636f 92bc 9d60 113e da64 56be 87e4 553e
00000240: d3b0 e33d 45a4 7fbd 510c d73d f6cd 54be
00000250: eed7 37be 2fd8 fc3d 084b 923e b073 2cbe
00000260: ee15 1ebe 2fda 95bd 2302 fdbd cd13 d1bd
00000270: cc06 2c3e 38fe 3c3c 92e7 9d3d 9544 733e
00000280: 2f53 cfbd 7cb3 e7bd 4ca6 d2bc 081b 0c3e
00000290: 517d 163e 398d 81bc 8567 5bbe a651 6a3e
000002a0: c1c2 323e 491b 1a3b 202f a9bd 9ade b1bd
000002b0: d935 3a3d 1771 69bd bdaa c3bd 62cb d93d
000002c0: f47d 693e ed01 9d3d 0f36 d6bd 0541 533e
000002d0: ddaa d0bd ba52 f23d 30b8 063d 782b 0cbe
000002e0: cf92 69be b525 2e3e 6898 61be db14 07bf
000002f0: 9335 d23d da7a 03bd e95d d63d fb5f 293e
00000300: 0674 49bd dbb1 2bbe 1d0f a73c 560c 113e
00000310: 8b80 52be 9d72 2abe 7599 973d 7dc1 8ebe
00000320: 91a9 4e3d b9ed 883d 38b4 3d3e 3eab 7ebe
00000330: 1e5a 503d c3ca 963d 4a6b e9bd 496b 9b3d
00000340: 55fc 1e3e 8768 61be 696f 89be ba63 e9bb
00000350: 458f b1bd 181c 4b3d 8c9b 833e 49ca 87bb
00000360: a2ad 3dbe dd25 07be cccc 063e 24b5 e83d
00000370: 69ad 4abd 0534 1b3e c900 243e 7790 a1be
00000380: 5a39 aabe 6a37 04be ebdf 743e 95cd ab3e
00000390: 8665 c73d 99f6 993d 2e5b 893d f524 2bbe
000003a0: 482f 433e 799b e5bd 4ad0 05bd 3510 babd
000003b0: c682 d7bc d484 51be 9b85 a8bd 0276 803d
000003c0: e846 bfbc e40c babc 8ff9 2a3e 8795 0dbe
000003d0: d3e7 a4bc 16f4 05bd 3a5d 44bc 77ad b5bd
000003e0: f1b0 243d ff34 f53b 64dc 7cbd 251c 863e
000003f0: 2971 a83e b896 1abe 1ad3 163e 2c9b a93b

hiden_layers.2.bias f4 [64]
0.03541127 -0.047117323 0.0017953449 0.16922909 -0.022443043 0.052003052 -0.0014172613 0.268906
-0.06704313 -0.02971252 0.075663425 0.069280714 0.08171457 0.059091453 -0.05723711 -0.074208155
0.048517827 -0.131645 -0.06132972 0.03255311 -0.10182742 -0.14382079 0.13886641 -0.17634664
-0.062191453 0.054536972 -0.06786876 0.049455717 -0.069285884 0.09128463 0.115482345 -0.18224367
-0.058797937 -0.07623184 0.0198372 -0.118724346 0.11410122 0.14196084 0.021894982 0.08733836
0.050344788 0.061708815 0.03721062 0.05333661 0.13400301 -0.08921 -0.00751924 0.059658557
0.016240884 0.01357077 0.4382481 -0.011295351 -0.0684562 -0.093933 -0.20609938 -0.04936358
-0.092647165 -0.02807218 0.06735421 0.02026417 0.09197798 -0.055238653 -0.087306686 -0.07332763
00000000: 680b 113d 18fe 40bd c751 eb3a 644a 2d3e
00000010: 79da b7bc 2701 553d 66c3 b9ba 0cae 893e
00000020: e94d 89bd ac67 f3bc 6df5 9a3d 0ce3 8d3d
00000030: f859 a73d e109 723d 7671 6abd 72fa 97bd
00000040: a1ba 463d f2cd 06be df34 7bbd 6956 053d
00000050: e58a d0bd c245 13be ff32 0e3e 3794 34be
00000060: 77bc 7ebd 2962 5f3d c7fe 8abd 1492 4a3d
00000070: c2e5 8dbd 70f3 ba3d 0282 ec3d 169e 3abe
00000080: 1bd6 70bd 701f 9cbd a081 a23c c025 f3bd
00000090: e7ad e93d 2f5e 113e 1b5d b33c 74de b23d
000000a0: 5636 4e3d 62c2 7c3d 2a6a 183d 7d77 5a3d
000000b0: 1638 093e bcb3 b6bd f563 f6bb 885c 743d
000000c0: 9a0b 853c ef57 5e3c 0e62 e03e 2310 39bc
000000d0: c432 8cbd f25f c0bd b70b 53be 7731 4abd
000000e0: ccbd bdbd a1f7 e5bc 01f1 893d 0b01 a63c
000000f0: f45e bc3d ed41 62bd d9cd b2bd cc2c 96bd

hiden_layers.3.weight f4 [64, 64]
-0.31163806 0.41294804 0.124242336 0.024272863 0.07715379 0.033028536 -0.11985546 -0.25496712
0.057912417 0.15500863 0.25165352 -0.082745515 0.20671529 -0.15067226 0.09900585 -0.17171815
-0.14607474 -0.21699913 0.14664865 -0.17362115 0.5433834 -0.34008923 0.20245111 0.21809068
0.11375495 0.13690881 0.027669823 -0.001958016 0.24841361 0.17746516 -0.11066968 0.32718283
0.07070032 0.029508157 -0.09199736 0.07109034 0.065166585 0.09790354 0.11320946 -0.06022581
0.038147777 0.040106475 -0.21556109 -0.06429364 0.11351002 0.32167915 -0.00464298 -0.09538398
0.25481495 -0.24970083 -0.08128081 -0.20635386 0.2555684 0.14917974 0.091526456 -0.03204911
0.05855721 0.07293715 -0.24730818 0.09839589 -0.019458989 0.11744945 -0.07858589 0.13129948
-0.22323127 -0.010739932 -0.04707132 0.107077956 -0.000265456 0.14671339 -0.29585925 0.06510361
0.07713027 -0.19807445 0.20251442 0.20349582 0.20457888 -0.04532616 -0.19126135 0.11772644
0.117633276 -0.022332279 0.12589401 0.24799883 0.22620903 -0.17973077 0.0030423752 0.09505254
-0.12718017 0.07791216 0.21343195 -0.23736846 0.18790755 -0.17077541 -0.33181277 0.26509103
0.04719362 -0.15937784 0.56126845 0.05186008 -0.047516935 -0.25568357 -0.1986998 0.11962503
0.06489617 -0.0104025835 -0.033607002 0.21650103 0.112661995 0.08396765 0.09146665 0.019203978
0.22394297 -0.12416856 -0.1595459 0.19068108 0.19546694 0.160396 -0.05799976 0.1944129
0.3030524 -0.095038936 0.09485841 -0.0090702195 0.19518253 0.06052776 0.02760682 0.34649757
0.30579928 0.23225586 -0.10281774 -0.120581575 -0.24336772 0.19838889 0.088768765 -0.09471776
0.05891865 -0.00959946 -0.091216244 0.13154717 -0.0800736 -0.053137016 0.13346034 0.039990477
-0.02683118 0.13484907 -0.17862472 -0.17613882 0.03588122 0.10076024 -0.113928266 0.19125019
0.048656207 -0.0021522266 -0.15567045 -0.04968979 0.055834293 -0.13979727 -0.118808225 -0.052388497
-0.22628053 -0.039642792 -0.04589381 0.12102708 -0.06449298 -0.030363454 0.07202554 0.054231796
0.29964224 -0.17494115 -0.106543794 0.06407875 0.0400959 -0.22739787 0.23584342 -0.118179515
-0.15530382 -0.14768007 0.25622228 0.11637419 0.053527955 -0.05278419 -0.19032204 -0.21166463
-0.21953857 -0.1565312 0.060044188 0.15618695 0.21376969 -0.07417087 0.008835314 0.16361189
0.027605498 -0.1416341 -0.032857276 0.013981721 -0.15709953 -0.0413453 0.14062773 -0.32037646
0.052600935 -0.21489936 -0.26516867 -0.2990083 -0.18156643 -0.25973308 -0.15919407 0.08183066
-0.15643859 0.120813176 -0.031523023 -0.08950637 0.15522176 -0.0142042255 -0.07425137 -0.071713716
0.048950296 0.12083818 0.05434688 0.2089155 0.17027873 -0.13246833 0.073176324 0.034389906
0.26561642 0.29171672 0.11937876 -0.39598674 -0.27185994 -0.05032501 -0.18075652 -0.10541506
0.02832183 -0.5258048 -0.3173021 -0.040945668 -0.0064247474 -0.17303626 0.24028546 0.09706502
-0.08555686 0.030634722 -0.042281326 -0.2520424 0.061159786 0.20411032 -0.07585622 0.37349954
0.08603585 0.13580137 0.18939048 -0.12851621 -0.01988788 -0.26829046 -0.1702382 0.010994811
00000000: 068f 9fbe ed6d d33e c472 fe3d e2d7 c63c
00000010: ce02 9e3d ee48 073d c876 f5bd 0d8b 82be
00000020: 9235 6d3d 95ba 1e3e bbd8 803e 7b76 a9bd
00000030: 2cad 533e d449 1abe 94c3 ca3d e2d6 2fbe
00000040: 9e94 15be 0535 5ebe 102b 163e bec9 31be
00000050: 2d1b 0b3f 2d20 aebe 584f 4f3e 2a53 5f3e
00000060: 5bf8 e83d d331 0c3e d3ab e23c 0f52 00bb
00000070: 2360 7e3e 6db9 353e c9a6 e2bd 8284 a73e
00000080: 54cb 903d 17bb f13c 1d69 bcbd d097 913d
00000090: 0f76 853d a781 c83d 5dda e73d 57af 76bd
000000a0: d840 1c3d b046 243d 0cbc 5cbe 62ac 83bd
000000b0: f177 e83d 21b3 a43e 2424 98bb ad58 c3bd
000000c0: 1b77 823e 93b1 7fbe 8e76 a6bd 6d4e 53be
000000d0: dcd9 823e 93c2 183e 3972 bb3d ed45 03bd
000000e0: afd9 6f3d 1360 953d 5b3e 7dbe c983 c93d
000000f0: 7568 9fbc 5689 f03d a4f1 a0bd 5f73 063e
00000100: bd96 64be 8af6 2fbc dbcd 40bd b04b db3d
00000110: e72c 8bb9 093c 163e dd7a 97be 0b55 853d
00000120: 7af6 9d3d 07d4 4abe f15f 4f3e 3561 503e
00000130: 207d 513e eca7 39bd 04da 43be 8f1a f13d
00000140: b7e9 f03d 2ff2 b6bc 5cea 003e 68f3 7d3e
00000150: 57a3 673e 580b 38be 9662 473b e8aa c23d
00000160: 853b 02be 6990 9f3d e88d 5a3e b810 73be
00000170: d66a 403e c0df 2ebe 5de3 a9be 03ba 873e
00000180: 194e 413d f233 23be 4aaf 0f3f 3c6b 543d
00000190: 1ea1 42bd f5e8 82be f677 4bbe f8fd f43d
000001a0: 48e8 843d 996f 2abc 7fa7 09bd 72b2 5d3e
000001b0: 55bb e63d 3bf7 ab3d de52 bb3d a951 9d3c
000001c0: 4e51 653e 164c febd 0060 23be e741 433e
000001d0: 7c28 483e d93e 243e 2891 6dbd 2d14 473e
000001e0: af29 9b3e c6a3 c2bd 2045 c23d 429b 14bc
000001f0: eedd 473e f5eb 773d b327 e23c 2168 b13e
00000200: b991 9c3e 7bd4 6d3e 1b92 d2bd 79f3 f6bd
00000210: 6335 79be 7526 4b3e 66cc b53d 63fb c1bd
00000220: af54 713d 0e47 1dbc 95cf babd 4db4 063e
00000230: a1fd a3bd 33a6 59bd d4a9 083e 0ecd 233d
00000240: 10cd dbbc e015 0a3e 66e9 36be bc5d 34be
00000250: 30f8 123d 625b ce3d 3953 e9bd 17d7 433e
00000260: bb4b 473d 5f0c 0dbb 1368 1fbe 8587 4bbd
00000270: 80b2 643d 0427 0fbe ba51 f3bd 5295 56bd
00000280: 15b6 67be 7b60 22bd 26fb 3bbd 0cdd f73d
00000290: e514 84bd c7bc f8bc 2082 933d 2922 5e3d
000002a0: b56a 993e c623 33be a233 dabd b83b 833d
000002b0: 993b 243d fdda 68be f080 713e 1a08 f2bd
000002c0: f707 1fbe 7239 17be 912f 833e 9755 ee3d
000002d0: 2140 5b3d 3c34 58bd c8e3 42be 9dbe 58be
000002e0: b8ce 60be b749 20be e5f0 753d 79ef 1f3e
000002f0: 71e6 5a3e e6e6 97bd fec1 103c e089 273e
00000300: ed24 e23c 8808 11be 5a95 06bd 9713 653c
00000310: b3de 20be b059 29bd b700 103e 6208 a4be
00000320: 1474 573d 940e 5cbe 30c4 87be 9e17 99be
00000330: 8dec 39be bcfb 84be c503 23be d596 a73d
00000340: 7031 20be e66c f73d 491e 01bd 1e4f b7bd
00000350: 74f2 1e3e d7b8 68bc 1a11 98bd a4de 92bd
00000360: 1b80 483d 027a f73d d69a 5e3d f2ed 553e
00000370: 8c5d 2e3e c7a5 07be 78dd 953d 6edc 0c3d
00000380: e0fe 873e e55b 953e da7c f43d c6be cabe
00000390: 3a31 8bbe 9921 4ebd 3d18 39be dae3 d7bd
000003a0: 2f03 e83c 259b 06bf 6c75 a2be a5b6 27bd
000003b0: b086 d2bb 6b30 31be 640d 763e 06ca c63d
000003c0: 6f38 afbd abf5 fa3c 2f2f 2dbd b40b 81be
000003d0: af82 7a3d 4c02 513e 825a 9bbd 553b bf3e
000003e0: 9033 b03d 840f 0b3e 94ef 413e c199 03be
000003f0: e8eb a2bc 5e5d 89be ec52 2ebe 9423 343c

hiden_layers.3.bias f4 [64]
-0.034254204 -0.0038005826 0.08893026 -0.03955014 -0.07840981 -0.11559151 0.051390763 -0.02730696
-0.12687138 0.086947165 0.21604905 -0.099240325 0.18058738 -0.05197557 -0.069446795 -0.116750166
0.0028887584 0.139311 -0.02537317 0.07657121 0.20753708 -0.1573623 -0.011862306 -0.004773146
-0.10113502 0.085480325 -0.25251627 0.0151728345 0.058507506 -0.022360874 0.00829648 0.13682796
-0.06074559 -0.005160218 -0.03277685 -0.066219494 0.12175739 0.33256435 -0.022084473 0.0019656133
-0.08885451 0.05459374 0.10302114 -0.009870714 -0.067536846 -0.13718486 0.08158978 0.06064042
0.083837844 -0.08379279 -0.11349181 -0.059169784 -0.06441166 -0.0645356 0.079606645 -0.17853364
0.105560526 -0.14695127 -0.15704739 0.05563971 -0.11258726 0.027091501 0.06300628 -0.028512215
00000000: 234e 0cbd 3213 79bb 1121 b63d 54ff 21bd
00000010: 5395 a0bd 3ebb ecbd 1f7f 523d d9b2 dfbc
00000020: 92ea 01be 5b11 b23d f63b 5d3e 833e cbbd
00000030: e6eb 383e 56e4 54bd 1f3a 8ebd b61a efbd
00000040: 5351 3d3b 8ba7 0e3e 65db cfbc 5ed1 9c3d
00000050: 9a84 543e 9523 21be 1e5a 42bc 0d68 9cbb
00000060: e11f cfbd 4f10 af3d d049 81be 7b97 783c
00000070: 91a5 6f3d 272e b7bc f6ed 073c a11c 0c3e
00000080: 5ed0 78bd 0c17 a9bb 0541 06bd 169e 87bd
00000090: f05b f93d e045 aa3e 7fea b4bc 85d1 003b
000000a0: 5af9 b5bd af9d 5f3d bffc d23d c6b8 21bc
000000b0: c250 8abd 307a 0cbe 8b18 a73d 1762 783d
000000c0: 2db3 ab3d 8e9b abbd 656e e8bd 045c 72bd
000000d0: 43ea 83bd 3e2b 84bd cf08 a33d 86d1 36be
000000e0: 1e30 d83d 657a 16be 08d1 20be 77e6 633d
000000f0: 2694 e6bd ffee dd3c 7009 813d 7392 e9bc

hiden_layers.4.weight f4 [64, 64]
-0.22997873 -0.09615082 -0.004551691 -0.22462857 0.083105326 0.017047405 -0.34245446 0.26867452
0.12636581 -0.030319653 -0.12080972 0.113931224 0.123201065 -0.10637932 -0.16027847 -0.08632097
-0.09278707 0.0084659085 0.2205279 0.25999957 -0.37471598 0.031506415 -0.25599334 -0.08196949
-0.030193932 -0.09357902 0.10850552 0.17408833 -0.09659331 -0.20094617 -0.035071135 -0.023308946
0.15785553 0.016026355 0.16259186 -0.033199865 0.106400914 0.020353576 0.0014419972 -0.11152341
-0.2693572 0.07734039 0.19011787 0.11969662 0.056039367 0.3637133 0.42129612 -0.19701056
-0.24922444 -0.17901272 0.12147958 -0.07195979 -0.11351692 0.18407999 0.08121391 -0.5550777
0.114571676 0.05246591 -0.25605205 -0.29405007 0.25032863 -0.12799191 0.016989222 -0.21832961
0.018326908 -0.4421566 -0.07436258 0.08351629 -0.30123317 0.03131957 -0.33398238 -0.094879255
-0.018869394 -0.10569306 -0.02119526 -0.19901358 0.036248367 0.13875689 -0.11573465 0.016202953
-0.5259062 -0.093160756 0.463726 0.26240012 0.16404872 -0.024938744 0.50109017 0.15291049
-0.27109206 -0.30230334 -0.094880395 0.19743747 -0.09550731 -0.08862038 -0.38690057 0.18212818
0.19273402 -0.043714955 0.0018434877 -0.046183832 -0.07738273 -0.14317876 0.03254553 0.0395905
0.120904334 -0.2761859 0.073131084 0.36886024 -0.10628844 0.24977845 0.010105246 -0.04134212
-0.34689394 0.29165187 -0.20654914 0.014179051 -0.07485522 -0.09914754 0.27750582 -0.12165353
0.0046196803 -0.18522969 0.07071659 0.019166434 0.14534561 -0.19297475 0.035154015 0.15316041
-0.008144988 0.0054772785 -0.182085 -0.08842437 -0.06713062 -0.15062155 -0.25996527 -0.013188617
0.11351119 -0.27927473 -0.056843083 -0.16911118 0.00452446 0.24467234 0.028967844 -0.07525317
-0.18441872 0.12512375 -0.004533969 0.28208816 -0.16413577 -0.23922035 -0.114833735 -0.111708984
-0.28635773 -0.24700807 0.11913445 0.15465337 -0.026799358 0.24479687 -0.26668757 0.27683923
-0.30363306 0.111657634 -0.11317554 0.32507542 -0.10829158 0.24942821 0.033396322 0.21675241
0.021141728 -0.021130312 -0.21266748 0.14317663 0.012271517 0.08541967 -0.010868431 0.12804702
0.08519916 0.04955553 0.3221914 -0.2616389 -0.2435906 0.27228546 -0.025057862 0.078364424
0.05575997 0.3034403 0.17155291 0.21302785 -0.06450126 -0.04803629 0.09305145 0.34786266
0.07987088 -0.001466315 -0.036601793 0.26415282 0.29878685 0.034657586 0.045336813 -0.1637787
0.032997053 -0.050098635 0.23168968 0.14403792 0.022753786 -0.16302338 0.32649907 0.2491082
0.17364812 -0.02529964 -0.42445284 -0.34660074 0.020814018 0.04296066 0.23400152 0.07563151
0.20300068 -0.30154157 0.10365479 -0.10664041 -0.071757354 -0.018417072 -0.06274901 -0.26269335
-0.040790673 0.0877546 -0.15720733 -0.14464036 0.18271405 -0.05147166 -0.05600962 0.034777973
-0.050825447 0.017774953 -0.19765185 0.23226507 0.1294711 -0.106631935 -0.14453802 -0.15531752
0.15927927 0.1560968 -0.08504878 0.12469025 0.088082135 0.12630516 0.06901984 0.17261654
-0.26156238 -0.07779303 0.17479248 0.091388084 0.1625453 -0.09020238 0.34841058 0.2155466
00000000: 8b7f 6bbe b9ea c4bd 5a26 95bb 0805 66be
00000010: 2033 aa3d 00a7 8b3c 3156 afbe b58f 893e
00000020: 0a66 013e ec60 f8bc 166b f7bd c654 e93d
00000030: d750 fc3d 67dd d9bd 0a20 24be 0cc9 b0bd
00000040: 2607 bebd 98b4 0a3c 11d2 613e aa1e 853e
00000050: c6da bfbe df0c 013d 8f11 83be 9fdf a7bd
00000060: 4459 f7bc 5ba6 bfbd 2438 de3d 3644 323e
00000070: b7d2 c5bd d5c4 4dbe c0a6 0fbd 67f2 bebc
00000080: e1a4 213e b449 833c 7b7e 263e 95fc 07bd
00000090: b9e8 d93d 8bbc a63c 6601 bd3a 6366 e4bd
000000a0: 30e9 89be a364 9e3d 42ae 423e 8023 f53d
000000b0: 8989 653d a138 ba3e 20b4 d73e 23bd 49be
000000c0: b134 7fbe 1c4f 37be 49ca f83d a85f 93bd
000000d0: 8f7b e8bd 777f 3c3e 7a53 a63d 9219 0ebf
000000e0: 8ea4 ea3d 7ee6 563d 4119 83be bb8d 96be
000000f0: 132b 803e 5010 03be fb2c 8b3c cc91 5fbe
00000100: 5022 963c 5a62 e2be 694b 98bd 970a ab3d
00000110: 3c3b 9abe f348 003d bdff aabe 0e50 c2bd
00000120: fd93 9abc 9a75 d8bd afa1 adbc 37ca 4bbe
00000130: 2b79 143d 4916 0e3e 4a06 edbd 0ebc 843c
00000140: caa1 06bf 11cb bebd 7f6d ed3e 4f59 863e
00000150: 63fc 273e 564c ccbc 7247 003f 9194 1c3e
00000160: 94cc 8abe 81c7 9abe a750 c2bd 0c2d 4a3e
00000170: 5699 c3bd 9a7e b5bd d517 c6be cf7f 3a3e
00000180: 115c 453e 740e 33bd 2fa1 f13a 422b 3dbd
00000190: d67a 9ebd 749d 12be 764e 053d a629 223d
000001a0: b19c f73d 3d68 8dbe c0c5 953d 40db bc3e
000001b0: c1ad d9bd ecc5 7f3e 7990 253c 5b56 29bd
000001c0: 159c b1be 6553 953e 9e81 53be 404f 683c
000001d0: b24d 99bd de0d cbbd 3e15 8e3e 7c25 f9bd
000001e0: b060 973b daac 3dbe dcd3 903d ed02 9d3c
000001f0: 7bd5 143e 2c9b 45be a8fd 0f3d 15d6 1c3e
00000200: 8e72 05bc be7a b33b 7e74 3abe d617 b5bd
00000210: c77b 89bd 893c 1abe 2b1a 85be 1215 58bc
00000220: 8e78 e83d 19fd 8ebe 4bd4 68bd 7b2b 2dbe
00000230: ec41 943b 638b 7a3e f94d ed3c 561e 9abd
00000240: 43d8 3cbe 7120 003e b091 94bb dc6d 903e
00000250: 3513 28be 2ef6 74be f32d ebbd aec7 e4bd
00000260: 7b9d 92be afef 7cbe c3fc f33d 745d 1e3e
00000270: 548a dbbc 08ac 7a3e 468b 88be dfbd 8d3e
00000280: cb75 9bbe c2ac e43d 94c8 e7bd 4970 a63e
00000290: fac7 ddbd 1c6a 7f3e 95ca 083d 58f4 5d3e
000002a0: 6b31 ad3c 7a19 adbc 81c5 59be e59c 123e
000002b0: 790e 493c 82f0 ae3d 8111 32bc c21e 033e
000002c0: e67c ae3d bdfa 4a3d 45f6 a43e 89f5 85be
000002d0: d06f 79be 0069 8b3e 2546 cdbc 877d a03d
000002e0: 9164 643d 875c 9b3e 91ab 2f3e f923 5a3e
000002f0: 3d19 84bd b3c1 44bd c291 be3d 0e1b b23e
00000300: 5893 a33d 5e31 c0ba c3eb 15bd 0a3f 873e
00000310: 97fa 983e 1df5 0d3d 18b3 393d 9bb5 27be
00000320: eb27 073d 3a34 4dbd 0f40 6d3e ad7e 133e
00000330: 2666 ba3c 9aef 26be e32a a73e 3816 7f3e
00000340: d0d0 313e 3141 cfbc e251 d9be a775 b1be
00000350: 2982 aa3c 84f7 2f3d 189e 6f3e b1e4 9a3d
00000360: 69df 4f3e a863 9abe f648 d43d 4a66 dabd
00000370: 85f5 92bd 66df 96bc 8e82 80bd be7f 86be
00000380: 1f14 27bd afb8 b33d f5fa 20be 9a1c 14be
00000390: 6419 3b3e f3d3 52bd 586a 65bd 5973 0e3d
000003a0: 582e 50bd c79c 913c 3f65 4abe e5d6 6d3e
000003b0: 1294 043e d861 dabd c601 14be 8e0b 1fbe
000003c0: 1b1a 233e d7d7 1f3e 0e2e aebd 9a5d ff3d
000003d0: 6864 b43d 2456 013e 465a 8d3d 64c2 303e
000003e0: 81eb 85be f451 9fbd cdfc 323e ad29 bb3d
000003f0: 4672 263e 07bc b8bd df62 b23e 3fb8 5c3e

hiden_layers.4.bias f4 [64]
-0.11897227 0.08165516 0.028761351 -0.016131552 0.022097206 -0.0132193165 -0.0072564264 -0.056582585
0.058516398 0.23922576 -0.054668415 0.10387916 0.07236681 -0.018125294 -0.0002899532 0.012932607
0.048418865 0.033788543 0.004705423 -0.03534177 0.14391787 0.13283218 -0.06187394 -0.06895126
0.11202816 0.15378478 -0.21271761 0.008028747 -0.07558932 0.01711607 0.07054954 0.043605406
-0.0334132 -0.013331534 -0.011386695 0.0199334 -0.14649843 0.054607306 0.018744735 -0.057170596
-0.15610762 0.26107654 0.0008319649 0.021960195 -0.080033906 0.3591578 -0.16886628 0.015645942
0.13610362 -0.16875073 -0.009443381 0.16411269 -0.011848772 0.10149856 0.14268783 0.035737723
-0.19826466 -0.015268827 -0.12076308 -0.03390956 0.017451737 0.054037508 0.19249654 0.03202982
00000000: bca7 f3bd d23a a73d ed9c eb3c 5126 84bc
00000010: 3305 b53c d595 58bc 51c7 edbb 24c3 67bd
00000020: e4ae 6f3d 99f7 743e fdeb 5fbd 99be d43d
00000030: 0d35 943d 7f7b 94bc dc04 98b9 49e3 533c
00000040: dc52 463d db65 0a3d f32f 9a3b 88c2 10bd
00000050: 355f 133e 2905 083e 876f 7dbd 5136 8dbd
00000060: 056f e53d c279 1d3e a5d2 59be 018b 033c
00000070: 93ce 9abd 0037 8c3c 477c 903d 959b 323d
00000080: 48dc 08bd 826c 5abc 438f 3abc 5f4b a33c
00000090: af03 16be e9ab 5f3d 8f8e 993c b72b 6abd
000000a0: adda 1fbe d3ab 853e 3818 5a3a dee5 b33c
000000b0: d1e8 a3bd 88e3 b73e 48eb 2cbe eb2b 803c
000000c0: bf5e 0b3e fecc 2cbe 69b8 1abc 280d 283e
000000d0: 5a21 42bc 7ade cf3d c21c 123e b861 123d
000000e0: e405 4bbe 1a2a 7abc a252 f7bd c0e4 0abd
000000f0: f2f6 8e3c 6f56 5d3d d01d 453e b331 033d
