results/1_first_try/epoch1450/model_weights.pth (torch, 484214 bytes, 88 tensors)

init_layer.0.weight f4 [64, 3]
0	0xbe9dbfff	-0.30810544
1	0xbd860346	-0.06543593
2	0x3e1f6ee9	0.15569653
3	0x3e830e26	0.25596732
4	0xbd78e458	-0.06076464
5	0xbb045ca8	-0.002019683
6	0xbda47318	-0.08029765
7	0xbe67ea88	-0.2264806
8	0xbe0ae57a	-0.13564101
9	0x3e09809a	0.13427964
10	0xbc005342	-0.00783235
11	0x3d4473aa	0.04796187
12	0xbc325a71	-0.010885821
13	0x3e48ddb9	0.1961583
14	0x3e59479a	0.2121872
15	0xbde6e730	-0.11274564
16	0xbe8b610e	-0.27222484
17	0x3e03fce8	0.12889445
18	0x3ea10735	0.3145081
19	0xbcb4cd4c	-0.02207055
20	0x3e89b9fc	0.26899707
21	0x3eaadec8	0.33373094
22	0x3e8dcbf8	0.27694678
23	0x3e31eb6d	0.17374964
24	0x3e2e9990	0.17050767
25	0xbeca54f9	-0.39517954
26	0xbd1890af	-0.037247356
27	0xbd8008f9	-0.062517114
28	0xbd84de72	-0.064877406
29	0x3e517431	0.2045448
30	0xbd8280aa	-0.06372197
31	0xbc8a394f	-0.01687303
32	0x3e030168	0.12793505
33	0x3d217479	0.039417718
34	0x3d8af6ea	0.06785376
35	0xbe46d2cf	-0.19416355
36	0xbe16814d	-0.14697762
37	0xbcaa65e3	-0.020800536
38	0xbd165a00	-0.036706924
39	0x3aed0884	0.0018084203
40	0x3c80555b	0.0156657
41	0x3e5c09f5	0.21488173
42	0x3dbd12c0	0.09232092
43	0xbe8dacef	-0.27671
44	0x3b18bfe4	0.0023307735
45	0x3e7e1446	0.24812421
46	0xbe58ba60	-0.21164846
47	0xbe8a2fbd	-0.26989546
48	0x3e5c933f	0.21540545
49	0xbdfaa92e	-0.122393
50	0x3e4299da	0.19004002
51	0x3e6f0f8b	0.23345773
52	0x3e8afe5c	0.27147186
53	0xbd65a75b	-0.056067806
54	0x3dc12918	0.09431666
55	0xbcd94a2e	-0.02652463
56	0xbe85f0b0	-0.26160192
57	0xbe295e16	-0.16539797
58	0x3dae1e02	0.08501817
59	0xbe796440	-0.24354649
60	0x3e0571c5	0.13031681
61	0xbe2d0c3e	-0.16899201
62	0xbb8760b9	-0.0041314033
63	0x3e6daff8	0.23211658
64	0xbd776b38	-0.060404986
65	0xbc218bf8	-0.009860031
66	0x3d1947a1	0.037421826
67	0xbe3200ea	-0.17383161
68	0xbe1aedc9	-0.1512977
69	0x3b21c0f7	0.0024681666
70	0x3e220799	0.15823211
71	0xbdd6ce6d	-0.10488591
72	0xba90dfcd	-0.0011053026
73	0xbdabb9bf	-0.08385038
74	0x3e18b3b4	0.14912301
75	0xbdfc368c	-0.123150915
76	0x3e747c8b	0.23875634
77	0xbd3d416e	-0.046204977
78	0xbba300b4	-0.004974449
79	0x3e66a8e0	0.22525358
80	0x3dceb343	0.10092785
81	0xbe24a624	-0.16079003
82	0xbe672625	-0.22573145
83	0x3d395ba4	0.04525341
84	0x3c7732e8	0.015087821
85	0x3d803b99	0.06261367
86	0xbe42f883	-0.19040112
87	0xbbca7838	-0.006178882
88	0xbe821455	-0.25406137
89	0x3e11cc57	0.14238106
90	0xbe9cd994	-0.3063475
91	0xbd7f9c38	-0.06240484
92	0xbda83f22	-0.08215167
93	0xbdbf86c1	-0.09351874
94	0x3d150a9d	0.036387075
95	0x3e95708d	0.29187432
96	0xbd3f4153	-0.046693157
97	0x3e354455	0.17701848
98	0x3dcaafc1	0.09896804
99	0xbe8a2b0a	-0.2698596
100	0x3eb53cff	0.353981
101	0xbcb6d716	-0.022319358
102	0xbd4749dc	-0.048654422
103	0xbc9acfb2	-0.018897865
104	0xbe12d63e	-0.1433954
105	0xbcb4964c	-0.022044323
106	0xbddefeca	-0.10888441
107	0xbe711d1d	-0.23546262
108	0x3d6979df	0.05700099
109	0xbb41f421	-0.0029594975
110	0xbe548c79	-0.20756711
111	0xbe70f5e7	-0.23531304
112	0xbd87c54b	-0.066294275
113	0x3c591f0a	0.013252029
114	0x3e96a0a3	0.2941943
115	0xbe092a76	-0.13395104
116	0x3e19d5de	0.1502299
117	0xbe9baf2e	-0.3040709
118	0x3e0b485e	0.13601825
119	0x3e33faf0	0.17576194
120	0x3e8c3df5	0.2739102
121	0x3d6ad29f	0.05732977
122	0xbe4e2450	-0.2013104
123	0xbd90adc4	-0.07064393
124	0xbd1f6574	-0.038915113
125	0xbe196529	-0.14979996
126	0x3df794bc	0.12088916
127	0xbe12087d	-0.1426105
128	0x3e185540	0.1487627
129	0xbd1a1110	-0.03761393
130	0xbcaae07b	-0.020858994
131	0x3e5b6aba	0.21427432
132	0x3da37d6a	0.07982905
133	0xbe414bc7	-0.18876563
134	0xbe1d8b03	-0.1538506
135	0xbd5f27ce	-0.05448132
136	0xbd4f5593	-0.05061872
137	0x3dfad7e4	0.12248209
138	0x3bf22b22	0.0073903957
139	0xbdfcf2a4	-0.123509675
140	0xbdd58e69	-0.10427553
141	0x3d2dad74	0.042401746
142	0x3e0a8be4	0.13529927
143	0x3e093dbc	0.13402456
144	0x3dc4484c	0.09584102
145	0x3e88dcfe	0.26731104
146	0xbcb342f1	-0.021882506
147	0x3d7e9d25	0.062161583
148	0xbe82bf40	-0.25536537
149	0x3e29ae5c	0.16570419
150	0xbd4fa38c	-0.05069308
151	0xbe5a7d00	-0.21336746
152	0xbe02b029	-0.12762512
153	0xbeb4ca11	-0.35310414
154	0xbe10f3e2	-0.14155534
155	0xbd34838b	-0.04407076
156	0x3e37630a	0.17908874
157	0xbe88d1e0	-0.26722622
158	0x3dcb9273	0.09940042
159	0xbe153a2e	-0.14572975
160	0xbe3fcb31	-0.18729855
161	0xbc66ab8a	-0.014078984
162	0x3e06fda5	0.13182695
163	0xbe12e980	-0.14346886
164	0xbe42aaed	-0.19010516
165	0x3e7562b0	0.23963428
166	0x3c3086e1	0.010774345
167	0x3e3ac903	0.18240742
168	0x3e3c731c	0.18403286
169	0x3c8ec11f	0.017426072
170	0x3dede21f	0.11615395
171	0x3e09e81c	0.13467449
172	0xbd311d3a	-0.043240763
173	0x3cd903c8	0.02649106
174	0x3e80f254	0.25184882
175	0x3e98ddd9	0.29856756
176	0xbb31b7ac	-0.0027117534
177	0x3cf1379b	0.02944546
178	0x3d877881	0.06614781
179	0x3c1c73fc	0.009549137
180	0xbde4bd7c	-0.11168954
181	0xbe99c959	-0.3003643
182	0x3d4086a4	0.047003403
183	0xbd771a6b	-0.06032793
184	0xbcd718e3	-0.026256984
185	0x3c822374	0.015886046
186	0x3e844b2b	0.258386
187	0xbc37f9ab	-0.011228959
188	0x3d4fc262	0.050722487
189	0x3e6d9460	0.23201132
190	0x3dee839b	0.116461955
191	0x3d24b087	0.040207412

init_layer.0.bias f4 [64]
0	0xbe205f00	-0.1566124
1	0x3da7b5da	0.08188982
2	0xbdb70794	-0.08936992
3	0x3da490fa	0.080354646
4	0xbd8e1c02	-0.06938936
5	0xbad50866	-0.0016253113
6	0x3e2212d0	0.15827489
7	0x3e077738	0.13229072
8	0xbbb1d690	-0.005427189
9	0x3dabefdf	0.08395361
10	0x3cf47d9d	0.029845053
11	0xbc973a61	-0.018460454
12	0xbdb3afbf	-0.08773755
13	0x3df627fa	0.12019344
14	0x3dd4fba3	0.103995584
15	0x3dd922b2	0.10602321
16	0x3e250f39	0.16119088
17	0x3d9c2bee	0.076255664
18	0xbe5b277e	-0.21401784
19	0x3d4f5286	0.05061581
20	0x3db162c3	0.086614154
21	0x3d72d7fc	0.05928801
22	0x3d34146b	0.043964785
23	0x3d269395	0.04066809
24	0x3d1db4d0	0.038502514
25	0xbdf9ccff	-0.12197303
26	0x3e13ef31	0.14446713
27	0xbd7885ce	-0.06067448
28	0xbdf73b19	-0.12071819
29	0xbd9bcae9	-0.076070614
30	0xbdc2664b	-0.09492167
31	0xbdbfe460	-0.09369731
32	0x3d89707e	0.06710909
33	0xbd51d334	-0.05122681
34	0xbd71fbba	-0.059077956
35	0x3de2aff3	0.11068716
36	0x3d1fc3c8	0.03900507
37	0xbdfa53ff	-0.12223052
38	0x3dcd2fa8	0.10018855
39	0xbdf7dd8f	-0.12102806
40	0x3dfb2f18	0.12264842
41	0xbd88d741	-0.066816814
42	0x3d9acd0a	0.07558639
43	0xbdc485eb	-0.09595855
44	0x3d5f76d5	0.054556686
45	0x3df7b311	0.12094701
46	0xbd7c187f	-0.0615468
47	0xbd7bbd4d	-0.06145983
48	0xbd6eaf5f	-0.058272716
49	0x3d26c26e	0.040712766
50	0x3d3ce3ae	0.04611557
51	0xbdc0bf79	-0.094115205
52	0xbd281da7	-0.041043904
53	0xbd96180f	-0.073288076
54	0x3d6ffeda	0.058592655
55	0x3e02381c	0.12716717
56	0x3dd9ae26	0.10628919
57	0x3dc6f051	0.097138055
58	0x3dddb67c	0.10825822
59	0x3d3eccc2	0.04658199
60	0xbb664a6f	-0.003513958
61	0xbd1acd2c	-0.037793323
62	0x3db4860b	0.08814629
63	0x3dcb6197	0.09930723

hiden_layers.0.weight f4 [64, 64]
0	0xbdc98c2f	-0.09841191
1	0x3c897369	0.016778665
2	0x3e6833c6	0.22676
3	0x3d716b74	0.058940366
4	0xbe5ad500	-0.21370316
5	0xbc95a943	-0.018269187
6	0x3d95d0f5	0.07315246
7	0xbe2eba1e	-0.17063186
8	0xbd101af6	-0.035181962
9	0xbe23d9d8	-0.1600107
10	0xbd127108	-0.035752326
11	0x3e8855be	0.26627916
12	0x3db44dc5	0.08803896
13	0xbc59c9ba	-0.013292724
14	0x3e265d0a	0.16246429
15	0xbe749e85	-0.23888595
16	0xbdcfe3f2	-0.10150899
17	0xbde9f5a6	-0.11423807
18	0x3dc88e3a	0.097927526
19	0xbdc2fb0e	-0.09520541
20	0xbdd84d45	-0.10561613
21	0x3deba79f	0.115065806
22	0x3cba9aad	0.022778833
23	0xbe8a29f6	-0.2698514
24	0x3d26de55	0.040739376
25	0x3db9978d	0.09062109
26	0xbe24cd55	-0.16093953
27	0xbe21a12a	-0.15784135
28	0x3cf902b1	0.030396791
29	0x3d3d0232	0.04614467
30	0xbe58eb52	-0.21183518
31	0xbb95f01e	-0.0045757433
32	0xbe47fe84	-0.19530684
33	0xbda2ac32	-0.07943
34	0x3e98645f	0.29764077
35	0xbb87639b	-0.004131747
36	0x3ccc951a	0.02497344
37	0x3d0048ba	0.031319357
38	0x3e778d20	0.24174929
39	0x3dc750c6	0.09732203
40	0x3d108992	0.035287447
41	0x3d5a7355	0.053332645
42	0x3c9042a1	0.017609896
43	0xbd147738	-0.03624651
44	0xbd75f09b	-0.060043912
45	0xbe0a10fa	-0.13483039
46	0x3d9211f2	0.07132329
47	0xbe65a615	-0.22426637
48	0x3e84b12f	0.2591643
49	0xbe69da92	-0.22837284
50	0xbe1ad8ea	-0.15121809
51	0x3cc52623	0.024066037
52	0x3b80f2c9	0.0039351922
53	0x3a6f41d1	0.0009126934
54	0x3e416703	0.18886952
55	0x3e2ea13e	0.17053697
56	0xbe4ec922	-0.20193914
57	0xbe425fe4	-0.18981892
58	0xbe2d723b	-0.16938107
59	0x3d9163f4	0.07099143
60	0x3d0244cb	0.031803887
61	0xbd8d2ac5	-0.06892923
62	0xbb3ed8b2	-0.002912086
63	0xbe1ee3dc	-0.15516609
64	0xbd71b90b	-0.05901436
65	0xbe4f8ba4	-0.20268112
66	0xbe3b46dd	-0.18288751
67	0x3e13816d	0.14404841
68	0xbe126735	-0.14297183
69	0xbdfbfce4	-0.123040944
70	0x3e4e1556	0.20125327
71	0xbe276532	-0.16347197
72	0x3b241822	0.0025038798
73	0xbe7bbe56	-0.24584326
74	0x3de1725a	0.11008139
75	0xbd939f54	-0.07208124
76	0x3d270422	0.040775426
77	0xbcbbb3d2	-0.022912893
78	0xbcd4fb7a	-0.02599882
79	0x3e1228e7	0.14273416
80	0x39c0d411	0.00036779096
81	0x3e68cba9	0.2273394
82	0x3d21ff94	0.03955038
83	0x3b0cccfb	0.0021484483
84	0xbdcefdaa	-0.10106976
85	0xbe62fc3b	-0.22166531
86	0x3de9ce0e	0.11416255
87	0x3e4619c8	0.19345772
88	0xbde6cece	-0.112699136
89	0xbca656b9	-0.020305024
90	0x3e4ba76f	0.1988809
91	0x3df26f31	0.11837614
92	0x3e2ff7f5	0.17184432
93	0x3d9238d6	0.07139747
94	0xbe2f353c	-0.17110151
95	0xbe1077de	-0.14108226
96	0xbaaa8138	-0.0013008481
97	0x3d111f11	0.035430018
98	0x3e619b8e	0.22031996
99	0x3dfd31d4	0.123630196
100	0x3e719dfc	0.23595423
101	0xbd27b62d	-0.04094522
102	0xbda7984f	-0.081833474
103	0x3e19fa92	0.15036991
104	0xbd58433a	-0.052798487
105	0x3d0ccc7e	0.034374706
106	0xbe8062b8	-0.25075316
107	0xbd4a10de	-0.049332492
108	0x3ddd9963	0.10820272
109	0xbe992d73	-0.29917488
110	0x3e5bdc14	0.21470672
111	0xbe449876	-0.19198784
112	0xbd3644c7	-0.044499185
113	0xbe1df171	-0.15424134
114	0xbdbb8a09	-0.091571875
115	0xbe119316	-0.14216265
116	0x3dd3ca0b	0.10341271
117	0xbe280cb2	-0.16411093
118	0x3e1c0f91	0.15240313
119	0x3ddae69c	0.106885165
120	0xbe59cac8	-0.21268761
121	0xbe0bc541	-0.13649465
122	0xbe2ac1ec	-0.16675538
123	0xbe576d17	-0.21037708
124	0x3e52a577	0.20570932
125	0x3e7c9bc8	0.24668801
126	0x3e240e2e	0.16021034
127	0xbde31709	-0.11088378
128	0x3e608a23	0.21927695
129	0xbe67aa20	-0.22623491
130	0x3e451352	0.19245651
131	0xbe055bb1	-0.13023259
132	0xbe330e05	-0.17485817
133	0xbc4ff82a	-0.012693444
134	0xbdeb4271	-0.11487282
135	0xbe82866a	-0.25493175
136	0xbe4b91f0	-0.1987989
137	0xbd9519df	-0.07280325
138	0x3c467ccb	0.012114714
139	0x3e1da349	0.1539432
140	0x3e999b3b	0.30001244
141	0xbe5ecaba	-0.21757022
142	0x3d81b194	0.063326985
143	0xbe668fcd	-0.22515793
144	0xbe726cfc	-0.23674387
145	0xbe6fee44	-0.23430735
146	0x3d784cc2	0.060620077
147	0xbc8472bd	-0.016167993
148	0xbe438881	-0.19095041
149	0xbe8bb20a	-0.2728427
150	0xbe55cbe2	-0.20878556
151	0x3d6f10f6	0.058365785
152	0xbce936fd	-0.028468603
153	0x3cf0bd2f	0.029387085
154	0x3cf190d5	0.029488007
155	0x3e6e2066	0.23254547
156	0x3b6195b5	0.0034421508
157	0xbe6fd1ac	-0.23419827
158	0x3eab1c9b	0.33420262
159	0x3e8d5dbc	0.27610576
160	0xbe042bf7	-0.12907396
161	0x3e31305b	0.17303602
162	0x3e57aaef	0.210613
163	0x3e30b987	0.17258273
164	0xbdb32764	-0.087477475
165	0x3b6f3666	0.003650093
166	0xbe24a4a9	-0.16078438
167	0x3e22122e	0.15827248
168	0xbe924d1a	-0.2857445
169	0xbc673cf7	-0.014113656
170	0x3e02c76d	0.12771387
171	0x3e8aa480	0.2707863
172	0x3df82601	0.12116624
173	0x3d42511b	0.04744063
174	0xbd8fecf0	-0.07027614
175	0xbc635fcb	-0.013877819
176	0xbd1075c1	-0.03526855
177	0xbb8349ff	-0.0040066238
178	0xbdca0cb6	-0.09865706
179	0x3d8d107b	0.06887909
180	0xbe2a61e9	-0.16638912
181	0x3d1a8c68	0.037731558
182	0xbe4c8875	-0.19973929
183	0xbd483bc2	-0.048885114
184	0xbe9378e5	-0.28803173
185	0xbe6f0dbc	-0.23345083
186	0xbe86000e	-0.26171917
187	0xbe357640	-0.1772089
188	0x3e37a8c4	0.17935473
189	0xbc8484f7	-0.016176684
190	0xbe94a249	-0.29030064
191	0x3d7dcf12	0.061965056
192	0x3e0a10ed	0.13483019
193	0xbe1609ee	-0.14652225
194	0xbbadfdb1	-0.0053097834
195	0xbd3f6ad3	-0.046732735
196	0x3de42af6	0.11141007
197	0x3de1e47a	0.110299066
198	0xbd1f29d5	-0.038858254
199	0xbe1a00bd	-0.15039344
200	0xbe667dba	-0.22508898
201	0xbddb9ded	-0.10723481
202	0x3d642cc2	0.055706747
203	0x3c73abf9	0.014872544
204	0xbcf16562	-0.029467288
205	0xbd927577	-0.07151311
206	0x3d15d567	0.03658047
207	0xbde44178	-0.111453
208	0xbd880ddb	-0.06643268
209	0x3e33fa66	0.17575988
210	0x3deb963b	0.115032636
211	0xbdbdf039	-0.092743345
212	0x3e2bfc7c	0.16795534
213	0xbdcdea3d	-0.10054443
214	0xbe1490f3	-0.14508419
215	0xbd8046f5	-0.06263534
216	0x3e807acc	0.25093687
217	0x3d78bcfb	0.0607271
218	0xbccb86e5	-0.024844596
219	0xbd7020f4	-0.058625177
220	0xbe325d41	-0.17418386
221	0xbe6e800e	-0.23291036
222	0xbe0783c4	-0.13233858
223	0x3cb89680	0.022532701
224	0xbdeb04cd	-0.11475525
225	0x3dcb1337	0.09915774
226	0xbe29b823	-0.16574149
227	0x3d1f4849	0.038887296
228	0xbd16811f	-0.036744233
229	0xbde40baa	-0.11135037
230	0xbb6301e7	-0.0034638585
231	0xbd81ffcc	-0.063476175
232	0xbe28c932	-0.16483
233	0xbd05817e	-0.032594196
234	0x3d868a83	0.06569388
235	0x3e4a35b0	0.19747043
236	0x3d0dcf83	0.034621727
237	0x3da4a644	0.08039525
238	0x3da9a9a1	0.08284307
239	0x3cb18f07	0.021674646
240	0x3d8fc80c	0.07020578
241	0xbdd00961	-0.10158039
242	0x3e6af0b4	0.22943383
243	0xbd73e8ee	-0.05954831
244	0xbe8594e7	-0.26090166
245	0x3e348755	0.1762975
246	0x3e4e39c4	0.20139223
247	0x3d8c6d91	0.06856836
248	0xbe3a1cc6	-0.18175039
249	0xbeb8c343	-0.36086473
250	0xbdedc0e6	-0.11609058
251	0x3e08abde	0.13346812
252	0xbde59e78	-0.11211866
253	0xbdc4ac56	-0.09603183
254	0xbd53105f	-0.051529285
255	0xbd921ec5	-0.07134775

hiden_layers.0.bias f4 [64]
0	0xbe196744	-0.14980799
1	0x3ca4eede	0.020133432
2	0xbd456529	-0.048192177
3	0x3daebfa6	0.08532648
4	0xbdab8ef7	-0.08376878
5	0xbdcb9a48	-0.09941536
6	0x3d9f8dc1	0.07790709
7	0x3d2b2b61	0.041789416
8	0x3e062567	0.13100205
9	0x3d207ad9	0.039179657
10	0x3d927a5d	0.07152245
11	0xbe0db9d5	-0.1384042
12	0x3d43c81c	0.04779826
13	0xbdbeb19e	-0.093112215
14	0xbec3fd58	-0.38279223
15	0x3d813683	0.063092254
16	0x3d0a194f	0.033715542
17	0xbde3b67a	-0.11118789
18	0x3d878a28	0.06618148
19	0xbd3fc01a	-0.04681406
20	0xbdb95006	-0.090484664
21	0x3cc3d5d0	0.023905665
22	0xbdccd845	-0.10002188
23	0x3a8f9d6c	0.001095695
24	0x3d8d1c9e	0.06890224
25	0x3da3aac8	0.07991558
26	0x3d83c71f	0.06434464
27	0x3be57902	0.0070029506
28	0xbbccba63	-0.006247805
29	0xbda4a43b	-0.08039137
30	0xbbc1a38c	-0.005909389
31	0x3cb1f656	0.021723907
32	0x3df79384	0.12088683
33	0xbd97fa4b	-0.074207865
34	0xbdd70298	-0.104985416
35	0x3de08cc6	0.109643504
36	0xbda6cbb3	-0.08144321
37	0xbd3f5915	-0.046715815
38	0x3dfaedad	0.12252364
39	0xbdaf7c7b	-0.08568665
40	0xbd0d6588	-0.034520656
41	0xbdb029eb	-0.08601745
42	0x3e439471	0.19099595
43	0xbd96420b	-0.073368154
44	0x3c0e5247	0.008686609
45	0x3ce2955f	0.027659116
46	0xbdc6bdc3	-0.09704163
47	0x3d0c88b2	0.03431005
48	0xbd86e8ef	-0.06587397
49	0x3d9405ca	0.07227667
50	0x3bbc7e06	0.005752328
51	0x3da06f55	0.07833735
52	0xbda5cb16	-0.08095376
53	0x3dd2ceb9	0.102933355
54	0xbe8b2d12	-0.27182823
55	0x3c8e6e8a	0.017386694
56	0xbdf15dbf	-0.11785459
57	0xbe141cb4	-0.14464074
58	0xbcc489b0	-0.023991436
59	0xbe227789	-0.15865912
60	0xbde79078	-0.11306852
61	0xbda85072	-0.08218469
62	0xbdb5e5e2	-0.08881737
63	0x3d4a2a14	0.049356535

hiden_layers.1.weight f4 [64, 64]
0	0xbcf240ef	-0.029571978
1	0x3e144e7d	0.14483066
2	0x3e8b3bba	0.27194005
3	0x3e182c92	0.14860752
4	0xbe8bbbf4	-0.27291834
5	0x3e93d23a	0.28871328
6	0xbdceffd8	-0.10107392
7	0xbcfe619d	-0.031052405
8	0x3cc6a490	0.024248391
9	0xbd14123d	-0.036150206
10	0xbe2481cd	-0.1606514
11	0xbd85d909	-0.06535537
12	0xbe70e750	-0.23525739
13	0xbce75299	-0.028237628
14	0x3baecb35	0.0053342828
15	0xbd4c2cc5	-0.049847383
16	0x3e7fac5d	0.24968095
17	0x3e90a671	0.28251985
18	0xbe8773bc	-0.26455486
19	0x3e9b0b89	0.30282238
20	0x3e86275e	0.2620191
21	0xbe2bfb74	-0.1679514
22	0x3d60fd5d	0.054929126
23	0xbdb96d71	-0.090540774
24	0xbdfcbe36	-0.12340967
25	0xbed3e059	-0.413821
26	0xbdad630a	-0.08466156
27	0x3e2f70bd	0.1713285
28	0x3ddb0030	0.10693395
29	0xbd845ed5	-0.064634
30	0xbe3f1226	-0.18659267
31	0xbd4d057d	-0.050054062
32	0xbe81dc94	-0.253636
33	0x3eafea15	0.34358278
34	0xbd394caf	-0.045239147
35	0xbe98c676	-0.29838914
36	0x3ddd765a	0.108135894
37	0xbdff5629	-0.124676056
38	0xbe55f003	-0.20892338
39	0x3c66ba8a	0.01408256
40	0x3dabecd5	0.083947815
41	0x3d91c2af	0.07117211
42	0xbe3e7ce2	-0.18602327
43	0x3e5878a2	0.21139768
44	0x3e84b096	0.25915974
45	0x3d3659c5	0.044519205
46	0x3db5b55b	0.088724814
47	0xbec20e0c	-0.37901342
48	0x3d6684b9	0.056278918
49	0x3bd2f5b6	0.0064379824
50	0xbe52b361	-0.2057624
51	0x3d822686	0.06355004
52	0xbe0d7153	-0.13812761
53	0xbdae545a	-0.085121825
54	0xbea17dc0	-0.31541252
55	0xbe8d7a9e	-0.27632612
56	0x3e84c13b	0.25928673
57	0x3ea03802	0.3129273
58	0xbe979c4f	-0.29611441
59	0x3d5bbf6d	0.053649355
60	0xbdb45df0	-0.0880698
61	0x3d70666d	0.05869143
62	0x3e5a4d84	0.21318632
63	0xbe16a3b0	-0.1471088
64	0xbd3409cf	-0.043954667
65	0xbe4e7b69	-0.20164265
66	0xbe98d64c	-0.29850996
67	0x3e6d9729	0.23202194
68	0xbe7c5177	-0.24640451
69	0x3cc866c1	0.02446306
70	0xbe18692d	-0.14883871
71	0xbd382e93	-0.04496629
72	0x3e8b3384	0.2718774
73	0x3e459527	0.19295178
74	0x3e8179cb	0.25288233
75	0x3e1abfc2	0.15112212
76	0x3ddecdee	0.10879122
77	0x3d8f4c94	0.06997028
78	0xbeb83456	-0.3597743
79	0x3eb0a835	0.34503332
80	0xbda45844	-0.08024648
81	0xbe7704e7	-0.24122964
82	0x3e801440	0.2501545
83	0x3c6cdd4f	0.014457061
84	0x3d74e4d4	0.05978854
85	0x3e8396fe	0.25701135
86	0xbe9b3ac7	-0.3031828
87	0x3e94eea7	0.29088327
88	0xbd6bdd5d	-0.057584155
89	0x3e7833f3	0.24238567
90	0x3e8cd51b	0.27506337
91	0x3e98f594	0.2987486
92	0xbe64dffe	-0.22351071
93	0xbdc36067	-0.09539872
94	0x3dcf6ce8	0.10128194
95	0x3e9861ff	0.29762265
96	0x3ea2c65b	0.31791958
97	0x3d3af61b	0.04564486
98	0xbec02405	-0.3752748
99	0xbdecc6da	-0.115613654
100	0xbe607f02	-0.2192345
101	0x3e45bbdb	0.19309942
102	0xbd709be7	-0.05874243
103	0xbeb0c56f	-0.3452563
104	0xbee37861	-0.4442778
105	0xbe9a0f30	-0.30089712
106	0x3ded1080	0.11575413
107	0xbe4b561e	-0.1985707
108	0x3cd5cdfe	0.026099201
109	0x3e08e5c1	0.13368894
110	0xbe2e2c66	-0.17009124
111	0xbeba8097	-0.3642623
112	0x3ed64329	0.41848114
113	0x3d3fe73f	0.046851393
114	0xbdc4a218	-0.096012294
115	0xbdd54730	-0.104139686
116	0x3d2c0f65	0.04200687
117	0xbbeeea04	-0.0072910804
118	0x3d9d812a	0.07690652
119	0x3d9b982c	0.07597384
120	0xbd898e25	-0.06716565
121	0xbbe067b6	-0.006848301
122	0xbe4fe2d6	-0.20301375
123	0x3e318aae	0.17338058
124	0x3e22b511	0.15889384
125	0xbc9d3121	-0.019188466
126	0x3c3fe1ae	0.011711521
127	0x3f0c962a	0.5491663
128	0x3dcb19f6	0.09917061
129	0x3ddc6dd5	0.10763136
130	0xbd6b4d4b	-0.05744676
131	0x3dfed46d	0.12442861
132	0x3d6c07dc	0.057624683
133	0x3e2663ea	0.16249052
134	0xbdef9824	-0.116989404
135	0x3ea4e5c2	0.3220654
136	0x3e91004d	0.28320542
137	0xbd884c63	-0.066551946
138	0xbe226405	-0.15858467
139	0xbd483771	-0.048880998
140	0x3cc5eeea	0.024161775
141	0x3c21b6cb	0.009870241
142	0x3ce97f6c	0.028503142
143	0x3e120d42	0.1426287
144	0xbd91ddb6	-0.07122366
145	0xbe08dc36	-0.13365254
146	0x3e05043b	0.12989895
147	0x3dad63a6	0.08466272
148	0x3cad1c80	0.021131754
149	0xbe8b9f08	-0.2726977
150	0xbe7d85d0	-0.24758077
151	0xbdfdb188	-0.12387377
152	0x3cd9282b	0.026508411
153	0x3de85e5a	0.11346121
154	0xbd0719d6	-0.032983623
155	0xbc4463fd	-0.01198673
156	0x3d8d3e93	0.06896701
157	0x3d9b18aa	0.07573064
158	0x3e66f191	0.22553088
159	0x3ea28368	0.3174088
160	0x3e0a5808	0.13510144
161	0xbe2b9b13	-0.16758375
162	0xbe5ca9d6	-0.21549162
163	0xbdaecb1c	-0.08534834
164	0xbdc4e1d3	-0.09613385
165	0xbe01b51b	-0.12666743
166	0x3d76bcc5	0.06023862
167	0xbe0a140e	-0.13484213
168	0xbe665a8f	-0.22495483
169	0xbe44742c	-0.19184941
170	0xbe089f0e	-0.13341925
171	0xbdf4a31a	-0.11945172
172	0xbc455ac8	-0.01204557
173	0x3dbff4e7	0.09372883
174	0xbcf1f205	-0.02953435
175	0x3d7e76e0	0.062125087
176	0x3c3f818b	0.0116886
177	0x3d4413f7	0.047870602
178	0x3c6a6162	0.014305444
179	0xbe85b00a	-0.2611087
180	0x3d351d53	0.04421742
181	0xbe2c8ef6	-0.1685141
182	0x3d71dfd5	0.059051353
183	0x3c4087bd	0.0117511125
184	0xbe016355	-0.12635548
185	0x3d5f2d4b	0.054486554
186	0x3e2fd196	0.17169794
187	0x3d665181	0.056230072
188	0x3d1c4488	0.038151294
189	0x3dcc44bc	0.099740475
190	0xbd4c276a	-0.049842276
191	0x3e6c0ea2	0.23052457
192	0x3e3b1338	0.1826905
193	0xbd8aab61	-0.06770969
194	0xbdcd359a	-0.10019989
195	0x3e006a9d	0.1254067
196	0x3e4bcf70	0.1990335
197	0xbe59251b	-0.21205561
198	0xbdaf4cf8	-0.085596025
199	0xbe13c171	-0.14429261
200	0x3daba0ab	0.08380254
201	0x3c8fbaf8	0.017545208
202	0xbdf487d1	-0.119399674
203	0x3ec4f0de	0.38465017
204	0x3e6cd75f	0.23129033
205	0x3e812579	0.25223902
206	0xbda9c928	-0.08290321
207	0x3dfe8af8	0.1242885
208	0xbce4abd8	-0.027913973
209	0xbe2886ad	-0.16457625
210	0xbc00bbc6	-0.007857269
211	0x3d76d98b	0.06026606
212	0xbce5ed2b	-0.028067192
213	0xbe4837fc	-0.19552606
214	0x3da4aab4	0.080403715
215	0x3dfbc3bd	0.122931935
216	0x3e0572e9	0.13032116
217	0x3d8de609	0.06928641
218	0xbe08b7c0	-0.13351345
219	0x3d2a5e4b	0.04159383
220	0xbb0cae4d	-0.0021466196
221	0x3e8a84d1	0.27054456
222	0x3e2d527d	0.16925998
223	0x3e25346d	0.1613328
224	0x3e3ac67a	0.18239775
225	0x3b9945e0	0.004677519
226	0xbd9aefdb	-0.0756528
227	0x3cb21e3b	0.02174293
228	0x3e5cf32d	0.21577139
229	0x3ce5e7bd	0.028064603
230	0x3e2a0641	0.16603948
231	0x3e4bf5ed	0.19918032
232	0x3d7932c3	0.060839426
233	0xbccab32a	-0.024743635
234	0x3e8dda02	0.2770539
235	0x3e19034d	0.14942665
236	0xbe7dfd4b	-0.24803655
237	0xbd1ff8b4	-0.03905554
238	0xbe5987c6	-0.212432
239	0xbd8b3dce	-0.06798898
240	0xbd2c2bb4	-0.042033866
241	0x3e0ae1f3	0.13562755
242	0xba916029	-0.001109128
243	0x3d911178	0.0708341
244	0x3e8000b3	0.25000533
245	0xbd6b4c9c	-0.057446107
246	0xbebfebf1	-0.37484697
247	0xbd006659	-0.031347606
248	0xbe13980d	-0.14413472
249	0xbc62db1d	-0.013846186
250	0x3ec71b10	0.38887835
251	0x3d8ce6cf	0.06879961
252	0xbe052d51	-0.13005568
253	0x3e4e539d	0.20149083
254	0x3e50844b	0.20362966
255	0xbe52d6b9	-0.20589723

hiden_layers.1.bias f4 [64]
0	0x3d2d1875	0.042259652
1	0x3cad5d10	0.02116254
2	0x3d31eaa1	0.04343665
3	0xbde2cb66	-0.110739514
4	0xbe536154	-0.20642596
5	0xbd3440fa	-0.04400728
6	0xbc997059	-0.01873033
7	0xbda9e097	-0.0829479
8	0xbdaec719	-0.085340686
9	0xbbf5f970	-0.007506542
10	0x3dbe20c7	0.092835955
11	0xbd75f776	-0.06005045
12	0x3d69579a	0.05696831
13	0xbd822a44	-0.06355718
14	0xbe2feee2	-0.1718097
15	0x3c795b3c	0.015219506
16	0x3db81397	0.089881115
17	0x3a8d2d95	0.0010771031
18	0xbde528a2	-0.11189391
19	0xbd9125ec	-0.07087311
20	0x3d8dfe28	0.06933242
21	0x3d26070a	0.040534057
22	0x3d85cc0e	0.06533061
23	0x3e267409	0.16255201
24	0xbd43fbec	-0.047847673
25	0xbd8bb180	-0.06820965
26	0x3e32b1f9	0.17450704
27	0x3d9215d7	0.07133072
28	0xbe46b380	-0.19404411
29	0xbcaef662	-0.021357719
30	0x3d74f260	0.05980146
31	0xbd4e4662	-0.05036009
32	0xbe216d8c	-0.15764445
33	0xbda72e48	-0.08163124
34	0x3dc3c6d5	0.095594086
35	0x3de1f852	0.110336915
36	0x3de0244b	0.10944422
37	0xbe257e6b	-0.16161506
38	0x3de5fc7d	0.11229799
39	0xbe2c64cf	-0.1683533
40	0x3e33709a	0.17523423
41	0x3da42b27	0.08016043
42	0xbd62144a	-0.05519513
43	0xbdbcec1b	-0.09224721
44	0xbd583d68	-0.052792937
45	0xbdad410e	-0.08459674
46	0xbe054673	-0.13015155
47	0x3d62bc13	0.055355143
48	0x3d74fcd8	0.059811443
49	0xbd95b2e3	-0.073095106
50	0xbc9f41ee	-0.019440617
51	0x3b77b5a5	0.0037797478
52	0x3d023679	0.03179023
53	0x3dd97289	0.10617549
54	0xbd3d1fb1	-0.0461728
55	0x3d2edba0	0.04268992
56	0xbd7829bb	-0.060586672
57	0x3db0d50f	0.08634388
58	0xbb363b84	-0.002780647
59	0xbac96d79	-0.0015367708
60	0x3d692ea7	0.056929257
61	0xbb97a368	-0.004627634
62	0xbd46cf67	-0.048537638
63	0x3d54245a	0.05179248

hiden_layers.2.weight f4 [64, 64]
0	0xbdf15cf6	-0.11785309
1	0x3eb8eb05	0.36116806
2	0x3eaef0ee	0.3416819
3	0xbceb3475	-0.028711537
4	0xbbe6cb4f	-0.0070432792
5	0xbe47bef7	-0.19506441
6	0xbe2a3742	-0.16622642
7	0xbf00107f	-0.5002517
8	0xbef59e91	-0.4797254
9	0xbe922741	-0.28545573
10	0x3e4d603f	0.20056246
11	0x3db8061f	0.089855425
12	0xbe1db871	-0.1540239
13	0x3d2dbaa7	0.042414334
14	0xbc25df59	-0.010124051
15	0x3e662f54	0.22478992
16	0x3e64b9c1	0.22336484
17	0x3c232877	0.009958378
18	0x3d1dce2f	0.03852671
19	0xbd96cfa7	-0.07363825
20	0x3e1246db	0.14284842
21	0x3e620183	0.22070889
22	0xbe1899a1	-0.14902355
23	0x3e21903e	0.1577768
24	0x3dbffae5	0.09374026
25	0xbe20fcfb	-0.15721504
26	0xbea19eac	-0.3156637
27	0xbdcd693f	-0.1002984
28	0x3d68cefa	0.056838013
29	0xbdb02d12	-0.086023465
30	0x3e40e4b3	0.18837242
31	0x3d1dc7fc	0.038520798
32	0xbde4931a	-0.1116087
33	0xbd920cb5	-0.0713133
34	0xbe715058	-0.23565805
35	0xbdb4c8eb	-0.088273846
36	0x3e3cfb92	0.18455341
37	0x3d272ec9	0.040816102
38	0xbda83add	-0.08214352
39	0x3d077695	0.033072073
40	0xbe4168a4	-0.18887573
41	0x3da18456	0.07886569
42	0xbda4ae3b	-0.08041044
43	0x3cbf30cc	0.023338698
44	0x3d87847e	0.06617068
45	0xbdc04816	-0.09388749
46	0x3dbc37a8	0.09190303
47	0x3e4ce09e	0.2000756
48	0xbcea9b76	-0.028638583
49	0xbe67afa5	-0.22625597
50	0xbd9279cc	-0.07152137
51	0xbeae6ff4	-0.34069788
52	0x3ce2af57	0.0276715
53	0x3d5b3da9	0.0535256
54	0x3d0efa9b	0.034906965
55	0x3e1e5ad9	0.15464343
56	0xbe4063da	-0.1878809
57	0x3e18f8ca	0.14938655
58	0x3ea2657d	0.31718054
59	0xbe282ec5	-0.16424091
60	0xbe17f710	-0.1484034
61	0x3d8aaf7a	0.06771751
62	0x3ddc0d5e	0.10744737
63	0x3e7240da	0.23657551
64	0x3d851286	0.06497674
65	0x3bd9967f	0.006640255
66	0x3dd6d961	0.104906805
67	0x3e3c0d50	0.18364453
68	0x3e4f8dc7	0.20268928
69	0x3e0e7a96	0.1391395
70	0x3eb6597c	0.35615146
71	0x3e8acd3d	0.2710971
72	0x3db585c1	0.08863402
73	0x3e06d74f	0.13168071
74	0x3e4b05c8	0.19826424
75	0x3daa0d43	0.08303311
76	0xbd831381	-0.064002044
77	0xbe032ed2	-0.1281083
78	0xbd8639a4	-0.06553963
79	0x3d52ad18	0.051434606
80	0xbdcd6cf2	-0.10030545
81	0xbda384c5	-0.07984308
82	0xbe56ad42	-0.2096453
83	0xbdf8e5fc	-0.12153241
84	0x3d9ef795	0.07762066
85	0xbde7017b	-0.11279579
86	0x3adf1a12	0.0017021319
87	0x3d39096d	0.045175005
88	0xbd2bb78b	-0.041923087
89	0x3d387335	0.045031745
90	0x3e70f1d9	0.23529758
91	0x3da9935e	0.08280061
92	0xbde795a7	-0.11307841
93	0x3db5d8b0	0.088792205
94	0xbc80a2e2	-0.015702669
95	0xbd4fa6f6	-0.050696336
96	0x3c446538	0.011987023
97	0x3e623166	0.22089157
98	0xbdd0a64c	-0.101879686
99	0x3e2676ed	0.16256304
100	0x3e24872d	0.1606719
101	0x3d97db16	0.07414834
102	0x3cf9876b	0.03046008
103	0xbeb49894	-0.35272658
104	0xbe18ceed	-0.14922686
105	0xbdaf9bf1	-0.08574665
106	0xbc3c8766	-0.011506891
107	0x3cca149a	0.024668027
108	0xbc4fd624	-0.012685332
109	0xbd129d39	-0.03579447
110	0xbd8969f4	-0.06709662
111	0x3e6777df	0.22604321
112	0xbe28cacd	-0.16483612
113	0x3e8637f2	0.26214558
114	0xbd7b4a4c	-0.061350152
115	0xbddaaa42	-0.10677005
116	0xbe06a507	-0.1314889
117	0x3e59475a	0.21218625
118	0xbdfd6419	-0.12372608
119	0xbe38d4eb	-0.18049972
120	0x3e4f8aed	0.2026784
121	0xbc35a12c	-0.01108579
122	0xbdbdbd3c	-0.09264609
123	0x3f0c358e	0.5476922
124	0x3d6c8c01	0.057750706
125	0x3e59cad1	0.21268775
126	0x3e04b039	0.12957849
127	0xbe155599	-0.14583434
128	0x3e73c693	0.23806219
129	0xbe618121	-0.22021915
130	0xbe0d23b4	-0.13783151
131	0xbe57453f	-0.21022509
132	0x3e21a823	0.15786795
133	0x3d141e6d	0.03616183
134	0xbe87e1ba	-0.26539403
135	0x3d500285	0.050783653
136	0xbdd7b206	-0.10532002
137	0x3e5536fe	0.20821759
138	0x3d840267	0.06445771
139	0x3e558dd1	0.2085488
140	0xbc79e618	-0.0152526125
141	0x3e102381	0.14076044
142	0xbe570d3f	-0.21001147
143	0x3e63bee7	0.22240792
144	0x3de00cbd	0.1093993
145	0xbd771c38	-0.060329646
146	0x3dd3d193	0.103427075
147	0xbe557542	-0.20845512
148	0xbe39e6ce	-0.18154451
149	0x3dfda360	0.12384677
150	0x3e8d78e1	0.27631286
151	0xbe2a75af	-0.16646455
152	0xbe0a922e	-0.13532326
153	0xbd900801	-0.070327766
154	0xbdf2c3cb	-0.11853751
155	0xbddfabc0	-0.109214306
156	0x3e2ad1be	0.16681573
157	0x3c9f0bde	0.019414838
158	0x3d9fde84	0.07806113
159	0x3e73acf5	0.23796447
160	0xbdd0f82d	-0.10203586
161	0xbdea5b2d	-0.11443172
162	0xbcdceceb	-0.02696844
163	0x3e0bbd0a	0.13646331
164	0x3e18354e	0.14864084
165	0xbc7eaf70	-0.015544757
166	0xbe5b3abb	-0.21409123
167	0x3e662516	0.22475085
168	0x3e34730f	0.17622016
169	0x3c1abd48	0.009444542
170	0xbdae32f9	-0.08505816
171	0xbdaf96b5	-0.08573667
172	0x3db9eed5	0.09078757
173	0xbd60efc1	-0.054916147
174	0xbdbfee12	-0.0937158
175	0x3dbee308	0.093206465
176	0x3e6acdb6	0.22930035
177	0x3d9f5ccb	0.07781371
178	0xbdd753c7	-0.10514026
179	0x3e5370e8	0.20648539
180	0xbdd6dcfb	-0.104913674
181	0x3df4c375	0.11951343
182	0x3d2fc833	0.042915534
183	0xbe088b96	-0.13334498
184	0xbe669ddd	-0.22521158
185	0x3e2de024	0.16980034
186	0xbe64f65d	-0.22359605
187	0xbf0905a9	-0.5352426
188	0x3dd26071	0.10272301
189	0xbcad2193	-0.021134173
190	0x3dd486f0	0.103773
191	0x3e30022b	0.17188327
192	0xbd23ad30	-0.039960086
193	0xbe2438fb	-0.16037361
194	0x3ce76b58	0.028249428
195	0x3dc470c2	0.09591819
196	0xbe68d767	-0.2273842
197	0xbe2a2746	-0.16616544
198	0x3da645d4	0.081187874
199	0xbe8b3093	-0.27185497
200	0x3d31db25	0.043421883
201	0x3d835012	0.064117566
202	0x3e46738a	0.19380012
203	0xbe7ec64b	-0.2488033
204	0x3da4cc2c	0.08046755
205	0x3d85b3c3	0.065284275
206	0xbe12ba78	-0.14328945
207	0x3db6187f	0.08891391
208	0x3e279896	0.163668
209	0xbe668938	-0.22513282
210	0xbe8d54eb	-0.2760385
211	0xbc893c7f	-0.01675248
212	0xbda227ab	-0.07917722
213	0x3d5bb230	0.05363673
214	0x3e7857e3	0.24252276
215	0xbd496669	-0.04916993
216	0xbe300e8d	-0.1719305
217	0xbe0dc351	-0.13844039
218	0x3dff3f06	0.12463193
219	0x3dd91ac5	0.10600809
220	0xbd5dbab4	-0.054133132
221	0x3e24e725	0.161038
222	0x3e24baf7	0.16086946
223	0xbe9dacdc	-0.30795944
224	0xbeb1aa98	-0.34700465
225	0xbe01a0f6	-0.12659058
226	0x3e67e5b5	0.2264622
227	0x3eb4a7e8	0.35284352
228	0x3ddc80c6	0.10766749
229	0x3d1e7cb0	0.03869313
230	0x3dab0a27	0.08351546
231	0xbe2e5bd8	-0.17027223
232	0x3e550b5c	0.20805115
233	0xbde24aed	-0.11049447
234	0xbd131655	-0.03590997
235	0xbdd03b81	-0.101675995
236	0xbcb2f8ec	-0.02184721
237	0xbe4bc4a9	-0.19899239
238	0xbdb28689	-0.08717067
239	0x3d846f78	0.064665735
240	0x3d01bda8	0.03167501
241	0xbccee7ba	-0.02525698
242	0x3e2f853f	0.17140673
243	0xbdd90beb	-0.10597976
244	0xbd1cf151	-0.038316075
245	0xbd0eb82b	-0.034843605
246	0xbd03aac6	-0.032145284
247	0xbda3d0e9	-0.07998831
248	0x3d089e4b	0.033354085
249	0x3d19b1cd	0.03752308
250	0xbd980e13	-0.074245594
251	0x3e81c340	0.25344276
252	0x3ea4702e	0.32116836
253	0xbe2750ab	-0.16339366
254	0x3e0c1699	0.13680495
255	0x3b80e6ef	0.0039337794

hiden_layers.2.bias f4 [64]
0	0x3d209940	0.03920865
1	0xbd4e7be9	-0.05041114
2	0x3aab60a0	0.0013075061
3	0x3e27f1c3	0.16400819
4	0xbcb784ea	-0.022402246
5	0x3d56e04e	0.052460007
6	0x3c367fe4	0.01113889
7	0x3e88171d	0.26580134
8	0xbd6eb798	-0.058280557
9	0xbd1d7e84	-0.038450733
10	0x3d8fdd65	0.070246495
11	0x3d71b15d	0.059007037
12	0x3d79d809	0.060997043
13	0x3d47a0fa	0.048737504
14	0xbd64feb7	-0.055906978
15	0xbd9a6e3f	-0.07540559
16	0x3d4b7f15	0.04968174
17	0xbe04ceaf	-0.12969469
18	0xbd8a33e4	-0.067481786
19	0x3d1bb544	0.038014665
20	0xbdce00f5	-0.10058776
21	0xbdf33c60	-0.1187675
22	0x3e151097	0.1455711
23	0xbe2f3f1a	-0.17113915
24	0xbd7c09bf	-0.061532732
25	0x3d4420d9	0.04788289
26	0xbd8f32c6	-0.06992106
27	0x3d5db9c6	0.054132245
28	0xbd8eed91	-0.06978906
29	0x3dc16265	0.094425954
30	0x3de0e59e	0.10981296
31	0xbe35bd10	-0.17747903
32	0xbd65e50b	-0.056126636
33	0xbd877b88	-0.066153586
34	0x3c9246ed	0.017856086
35	0xbdca9fb2	-0.09893741
36	0x3dce44da	0.10071726
37	0x3e0fb3fe	0.14033505
38	0x3c98e757	0.018664999
39	0x3db2f1a3	0.08737495
40	0x3d47c057	0.048767414
41	0x3d615bd7	0.055019226
42	0x3d1f5731	0.03890151
43	0x3d521f78	0.051299542
44	0x3dfcb5d4	0.123393685
45	0xbdae73f0	-0.08518207
46	0xbbf1cb65	-0.007378983
47	0x3d185675	0.037191827
48	0x3c875e5d	0.016524488
49	0x3c1b1b55	0.009466966
50	0x3ed7f42e	0.42178482
51	0xbcb485b9	-0.02203642
52	0xbd835d34	-0.064142615
53	0xbdbd718a	-0.092501715
54	0xbe3319da	-0.1749033
55	0xbd4c0976	-0.04981371
56	0xbdb92ba6	-0.090415284
57	0xbcb11a0d	-0.021618867
58	0x3d6c5c40	0.057705164
59	0x3c92c7a8	0.01791747
60	0x3dc02b3d	0.09383247
61	0xbd35406f	-0.0442509
62	0xbd971407	-0.07376867
63	0xbd8edf98	-0.06976241

hiden_layers.3.weight f4 [64, 64]
0	0xbe96af7e	-0.29430765
1	0x3ec67243	0.3875905
2	0x3e04407f	0.12915228
3	0x3cf3fc31	0.02978334
4	0x3d95db58	0.07317227
5	0x3ca79c3b	0.020460239
6	0xbdc4c399	-0.0960762
7	0xbe6043de	-0.2190089
8	0x3d32109a	0.043472864
9	0x3e181a00	0.14853668
10	0x3e81ddc7	0.25364515
11	0xbd98e936	-0.074663565
12	0x3e5ca165	0.21545942
13	0xbe1b043b	-0.15138333
14	0x3e002eb3	0.12517814
15	0xbe3c796e	-0.18405697
16	0xbe0c9b41	-0.137311
17	0xbe635edb	-0.22204153
18	0x3e34044f	0.17579769
19	0xbe1ee8f7	-0.15518557
20	0x3f0861ae	0.5327405
21	0xbeaf900e	-0.34289593
22	0x3e546fd7	0.20745789
23	0x3e30e24a	0.17273822
24	0x3df9f66b	0.122052036
25	0x3e119fe0	0.14221144
26	0x3c10c129	0.0088351155
27	0xbcf1c668	-0.029513553
28	0x3e7a4d64	0.24443585
29	0x3e3b17c9	0.18270792
30	0xbdcd77e0	-0.1003263
31	0x3e976937	0.2957246
32	0x3d6efd46	0.05834701
33	0x3cc81829	0.024425583
34	0xbda84c08	-0.08217627
35	0x3dd13d38	0.10216755
36	0x3d7a6d6a	0.0611395
37	0x3dbfcb80	0.093649864
38	0x3dea96b5	0.11454526
39	0xbd62b377	-0.055346932
40	0x3d30e646	0.043188356
41	0x3d887c45	0.066643275
42	0xbe633b71	-0.22190644
43	0xbd7307cf	-0.05933362
44	0x3dfbb511	0.12290395
45	0x3ea20f8d	0.3165249
46	0x39b9f37f	0.00035467368
47	0xbdce0e11	-0.10061277
48	0x3e73a723	0.23794226
49	0xbe6d9071	-0.23199631
50	0xbd98c003	-0.07458498
51	0xbe469808	-0.19393933
52	0x3e7d29df	0.24723004
53	0x3e262681	0.16225626
54	0x3db31051	0.087433465
55	0xbd61bd7a	-0.05511234
56	0x3d816ba7	0.06319361
57	0x3d7df82a	0.062004246
58	0xbe7864cd	-0.24257202
59	0x3db3baf3	0.08775892
60	0xbb2523c0	-0.002519831
61	0x3de6671d	0.11250136
62	0xbdac013b	-0.08398672
63	0x3e0b5437	0.13606344
64	0xbe6e465f	-0.23269032
65	0xbba333ec	-0.004980555
66	0xbd03e026	-0.032196186
67	0x3dd159d9	0.10222215
68	0xbbd08a5d	-0.0063641504
69	0x3e1899df	0.14902447
70	0xbe917fd6	-0.28417844
71	0x3d043a89	0.032282386
72	0x3d80d4d0	0.06290591
73	0xbe4ae46b	-0.19813697
74	0x3e5ab9ff	0.21360014
75	0x3e5778d6	0.21042189
76	0x3e5299b8	0.20566452
77	0xbd41546f	-0.047199663
78	0xbe388199	-0.18018188
79	0x3df96dee	0.121791705
80	0x3ddbf769	0.10740549
81	0xbc1f54e1	-0.009724827
82	0x3e05663a	0.13027278
83	0x3e7934aa	0.24336496
84	0x3e684350	0.22681928
85	0xbe2bc860	-0.16775656
86	0xbc8ebe96	-0.017424863
87	0x3ddaacfa	0.10677524
88	0xbdfc2eee	-0.12313639
89	0x3d9bee34	0.07613793
90	0x3e489ea2	0.19591764
91	0xbe6e0335	-0.23243411
92	0x3e3a1148	0.18170655
93	0xbe2c72c4	-0.16840655
94	0xbeb3de8c	-0.35130727
95	0x3e68d4c2	0.2273741
96	0x3d66e933	0.05637474
97	0xbe176909	-0.14786161
98	0x3f0d1c17	0.55120987
99	0x3d9b46e6	0.07581882
100	0xbd267161	-0.04063547
101	0xbe891488	-0.26773477
102	0xbe4e283b	-0.20132534
103	0x3de93a69	0.11388094
104	0x3d86d0b7	0.06582778
105	0x3b551c58	0.0032518115
106	0xbd39ab39	-0.045329306
107	0x3e6b72ce	0.22993013
108	0x3de3a248	0.11114937
109	0x3d851890	0.064988256
110	0x3db63f6b	0.08898815
111	0x3c900ca2	0.017584149
112	0x3e60c824	0.21951348
113	0xbe075390	-0.1321547
114	0xbe3314da	-0.17488423
115	0x3e3c1232	0.18366316
116	0x3e509505	0.20369346
117	0x3e04e5b1	0.12978245
118	0xbd8b96fa	-0.06815906
119	0x3e435c3c	0.19078153
120	0x3e9db003	0.3079835
121	0xbdc84cd8	-0.09780282
122	0x3de17f46	0.110106036
123	0xbbdb0693	-0.0066841333
124	0x3e352156	0.17688498
125	0x3d89a164	0.06720236
126	0x3cc5854c	0.024111412
127	0x3ea34b56	0.31893414
128	0x3e7971a8	0.24359763
129	0x3e62e7a3	0.22158675
130	0xbdcc7bca	-0.099845484
131	0xbdf9e3bf	-0.12201642
132	0xbe7b7686	-0.24556932
133	0x3e4620b5	0.19348414
134	0x3dd106db	0.10206386
135	0xbdc8c2f1	-0.09802807
136	0x3d9a6454	0.07538667
137	0xbcde45a2	-0.027132813
138	0xbdbc7b9c	-0.09203264
139	0x3e001c2e	0.1251075
140	0xbd9f2196	-0.07770078
141	0xbd3e7cf1	-0.046505872
142	0x3e06ed19	0.13176383
143	0x3cda1220	0.02661997
144	0xbd12aedc	-0.03581129
145	0x3e17cdb2	0.1482456
146	0xbe2fe299	-0.17176284
147	0xbe31588b	-0.17318933
148	0x3cbf904d	0.023384238
149	0x3dc07246	0.09396796
150	0xbdd72387	-0.10504823
151	0x3e36accf	0.17839359
152	0x3d4a85ca	0.049443997
153	0xbc540334	-0.012940217
154	0xbe3389fc	-0.17533106
155	0xbd1fed4e	-0.03904467
156	0x3d47180e	0.048606925
157	0xbe11331e	-0.14179656
158	0xbde58561	-0.11207081
159	0xbd5b0863	-0.053474795
160	0xbe6a932a	-0.22907701
161	0xbd394626	-0.045232914
162	0xbd08c123	-0.033387315
163	0x3ddb4924	0.1070731
164	0xbd6bb6a3	-0.057547223
165	0xbcc1e97e	-0.023670908
166	0x3d96c3da	0.073615745
167	0x3d6d3a8b	0.05791716
168	0x3e9b573d	0.30339995
169	0xbe3be102	-0.18347552
170	0xbde1f1e6	-0.110324666
171	0x3d3d959e	0.046285264
172	0x3d12ffad	0.035888363
173	0xbe759797	-0.23983608
174	0x3e6b4dc8	0.2297889
175	0xbe0bd54c	-0.13655585
176	0xbe123c15	-0.14280732
177	0xbe1fa2a6	-0.15589389
178	0x3e867c60	0.26266766
179	0x3e0460bc	0.12927526
180	0x3d7f6da2	0.062360413
181	0xbd82baf2	-0.06383313
182	0xbe3a59b4	-0.18198282
183	0xbe54ecce	-0.20793459
184	0xbe5b066c	-0.21389169
185	0xbe2010d7	-0.15631424
186	0x3db4273c	0.08796546
187	0x3e1f8b51	0.15580489
188	0x3e4a174c	0.1973545
189	0xbd9da32b	-0.076971374
190	0x3b2ceb7d	0.002638548
191	0x3e249d62	0.16075662
192	0x3d6e8869	0.05823556
193	0xbe06eab2	-0.13175467
194	0xbcb103b0	-0.021608204
195	0x3bccd37c	0.006250797
196	0xbe1c66bd	-0.15273567
197	0xbd80c829	-0.062881775
198	0x3e3b05ca	0.18263927
199	0xbe919ede	-0.2844152
200	0x3d3090a3	0.043106686
201	0xbe4bbeda	-0.19897023
202	0xbe7f20fe	-0.2491493
203	0xbe968189	-0.29395702
204	0xbe47552e	-0.19466087
205	0xbe773a2a	-0.24143282
206	0xbe2325c6	-0.15932378
207	0x3d6874df	0.056752082
208	0xbe23fde1	-0.16014816
209	0x3db06b58	0.08614224
210	0xbbd955b1	-0.0066325297
211	0xbdcb2d29	-0.09920723
212	0x3e24362f	0.16036294
213	0xbca3c00e	-0.01998904
214	0xbd8f4dda	-0.06997271
215	0xbd925615	-0.07145325
216	0x3d878131	0.06616438
217	0x3df07b5b	0.11742278
218	0x3d83a9b3	0.06428852
219	0x3e52043b	0.20509426
220	0x3e347720	0.17623568
221	0xbe180ff9	-0.14849843
222	0x3d94d0bb	0.07266375
223	0x3d14bd21	0.03631318
224	0x3e831d7d	0.25608435
225	0x3e9230b5	0.28552786
226	0x3e053f26	0.1301237
227	0xbeb66285	-0.3562204
228	0xbe8e495c	-0.27790344
229	0xbd002a74	-0.031290486
230	0xbe212d43	-0.15739922
231	0xbddd29be	-0.10798977
232	0x3ccfbeb2	0.025359485
233	0xbf0cc53e	-0.5498847
234	0xbe9e535e	-0.3092298
235	0x3a8f24ab	0.0010920962
236	0xbc927efb	-0.017882815
237	0xbe1e5e74	-0.15465719
238	0x3e6d92ef	0.23200582
239	0x3ddada3f	0.106861584
240	0xbdb37e14	-0.08764282
241	0x3d3eefef	0.046615537
242	0xbd3234f4	-0.04350753
243	0xbe769a1c	-0.24082226
244	0x3d4bec46	0.049785875
245	0x3e322e1b	0.174004
246	0xbd885716	-0.06657235
247	0x3ec91cda	0.39279824
248	0x3d696716	0.056983076
249	0x3dfcf870	0.12352073
250	0x3e37209b	0.17883532
251	0xbdeea63b	-0.116528
252	0xbc423a06	-0.011854654
253	0xbe81f8af	-0.25385043
254	0xbe22280d	-0.1583559
255	0xbcf14171	-0.02945015

hiden_layers.3.bias f4 [64]
0	0xbcdf6624	-0.027270384
1	0xbc2bc687	-0.010484344
2	0x3dc952a4	0.098302156
3	0xbd1ba4c2	-0.037998922
4	0xbd9f01a3	-0.07763984
5	0xbdf4adcd	-0.11947212
6	0x3d5d9af6	0.05410286
7	0xbcd37923	-0.025814598
8	0xbe022c41	-0.12712194
9	0x3da0805b	0.07836982
10	0x3e53ebd2	0.20695427
11	0xbdaddbb1	-0.084891684
12	0x3e2bbdd1	0.16771628
13	0xbd339efe	-0.0438528
14	0xbd758a8e	-0.05994659
15	0xbdef2b6c	-0.11678204
16	0x3b9b3913	0.0047370284
17	0x3e0a8e45	0.13530834
18	0xbce65847	-0.028118266
19	0x3d83c835	0.06434671
20	0x3e4e7e05	0.2016526
21	0xbe1b84c8	-0.15187371
22	0xbbf20d56	-0.0073868437
23	0xbc00c671	-0.007859812
24	0xbdcf7d00	-0.10131264
25	0x3da12075	0.07867519
26	0xbe8384c6	-0.25687236
27	0x3c905607	0.017619146
28	0x3d498b90	0.049205363
29	0xbcd988e8	-0.02655454
30	0x3c9680ca	0.018371958
31	0x3e047f69	0.12939228
32	0xbd7ea2fa	-0.062167145
33	0xbb9f448d	-0.004860467
34	0xbcddea90	-0.027089387
35	0xbd8b6b37	-0.06807559
36	0x3deee3fc	0.11664578
37	0x3ea316e7	0.3185341
38	0xbcad42da	-0.021150041
39	0xbb62c57d	-0.0034602575
40	0xbda6e813	-0.081497334
41	0x3d3faca7	0.046795513
42	0x3dd0189f	0.10160946
43	0xbc49a746	-0.0123079475
44	0xbd5b4551	-0.053532902
45	0xbdfb8924	-0.12282017
46	0x3d990d82	0.074732795
47	0x3d63ba8f	0.055597838
48	0x3db03e34	0.08605614
49	0xbd952a4f	-0.0728346
50	0xbdd9af8e	-0.106291875
51	0xbd72e780	-0.059302807
52	0xbd637449	-0.05553082
53	0xbd76e00b	-0.060272258
54	0x3d924dca	0.07143743
55	0xbe325107	-0.17413722
56	0x3d9ee76a	0.077589825
57	0xbe13498b	-0.14383523
58	0xbe171e2d	-0.14757605
59	0x3d70815a	0.05871711
60	0xbde0cfd6	-0.109771416
61	0x3d00bed5	0.03143199
62	0x3d82f778	0.06394857
63	0xbc9da90b	-0.019245645

hiden_layers.4.weight f4 [64, 64]
0	0xbe759c0c	-0.23985308
1	0xbd9d330e	-0.076757535
2	0xbbe80de3	-0.0070817336
3	0xbe5d84b0	-0.21632648
4	0x3d7a62e0	0.06112945
5	0xbc4f7af6	-0.0126635935
6	0xbeabeccf	-0.33579108
7	0x3e8f232b	0.2795652
8	0x3dd06a5d	0.10176537
9	0xbcb90e68	-0.022589877
10	0xbe03a8da	-0.1285738
11	0x3df3424d	0.1187788
12	0x3e0535e7	0.13008843
13	0xbde3be42	-0.11120273
14	0xbe275c15	-0.1634372
15	0xbd9cc2dd	-0.07654355
16	0xbd9a22b9	-0.07526154
17	0x3c1f6600	0.009728909
18	0x3e46897e	0.19388387
19	0x3e8e49a5	0.2779056
20	0xbec3d279	-0.38246515
21	0x3ccd0545	0.025026927
22	0xbe7c166a	-0.24617925
23	0xbdb2df26	-0.087339684
24	0xbcbd7e4c	-0.023131512
25	0xbdb5e9df	-0.08882498
26	0x3de21c1c	0.11040518
27	0x3e369051	0.1782849
28	0xbda9b391	-0.08286203
29	0xbe3668da	-0.17813435
30	0xbd640ca7	-0.05567613
31	0xbd04849b	-0.032353025
32	0x3e1af156	0.15131125
33	0x3d08c2b9	0.033388827
34	0x3e3afe68	0.18261111
35	0xbcfeb026	-0.031089853
36	0x3deea810	0.11653149
37	0x3c6503a6	0.013977921
38	0x3cd00587	0.02539326
39	0xbde3c73f	-0.111219876
40	0xbe91d298	-0.28480983
41	0x3d506157	0.05087408
42	0x3e4580e5	0.1928745
43	0x3de5f641	0.1122861
44	0x3d31e555	0.0434316
45	0x3eb96494	0.36209548
46	0x3ee97a9a	0.4560135
47	0xbe4aa334	-0.1978882
48	0xbe88a85c	-0.26690948
49	0xbe3be0d1	-0.1834748
50	0x3dfa4011	0.12219251
51	0xbd80276d	-0.0625752
52	0xbdcb3aca	-0.099233225
53	0x3e38ff93	0.18066244
54	0x3dad679f	0.0846703
55	0xbf0dd65d	-0.5540522
56	0x3df02bb7	0.11727088
57	0x3d361b25	0.04445948
58	0xbe88542e	-0.26626724
59	0xbe8d755e	-0.27628607
60	0x3e8353b1	0.2564979
61	0xbe0b40d3	-0.13598947
62	0x3cacd85c	0.021099262
63	0xbe6cb619	-0.2311634
64	0x3c8f4bbf	0.017492173
65	0xbee4f8cb	-0.44721064
66	0xbda18721	-0.07887102
67	0x3d6f90b2	0.0584876
68	0xbe916d08	-0.28403497
69	0x3d0559b0	0.032556236
70	0xbea63d9b	-0.32468876
71	0xbdc5e2e4	-0.096624166
72	0xbc9ecab6	-0.01938377
73	0xbdd676b0	-0.104718566
74	0xbcfda670	-0.030963153
75	0xbe44c1e9	-0.19214596
76	0x3d2b378e	0.041801028
77	0x3e107196	0.1410583
78	0xbdf20e41	-0.11819125
79	0x3c7d059f	0.015443235
80	0xbf022914	-0.5084393
81	0xbdb0339d	-0.086035945
82	0x3eeef285	0.46669403
83	0x3e88d90c	0.26728094
84	0x3e211a7c	0.15732759
85	0xbcce06ab	-0.025149664
86	0x3f00384d	0.5008591
87	0x3e12962c	0.14315099
88	0xbe8d0d67	-0.27549288
89	0xbe9c8c62	-0.30575854
90	0xbdbf8f3f	-0.09353494
91	0x3e451ce3	0.192493
92	0xbdc33e76	-0.09533398
93	0xbdccbdde	-0.09997152
94	0xbeba8bac	-0.36434686
95	0x3e30e701	0.17275621
96	0x3e4c4251	0.19947173
97	0xbd17b088	-0.037033588
98	0xbc3b3cf4	-0.011428107
99	0xbd1c83c7	-0.03821161
100	0xbd9fefb6	-0.07809393
101	0xbe13cda6	-0.14433917
102	0x3d0e6e2a	0.03477303
103	0x3d463455	0.04838975
104	0x3de8479e	0.11341785
105	0xbe8c152a	-0.27359897
106	0x3d94c5c7	0.072642855
107	0x3ebf02de	0.37306875
108	0xbdd95cd0	-0.10613406
109	0x3e7f1f57	0.24914299
110	0x3c7107b5	0.01471131
111	0xbd36a0bc	-0.044586882
112	0xbeab63e5	-0.3347465
113	0x3e963c2c	0.29342782
114	0xbe57e65e	-0.21083972
115	0xbacd4ed5	-0.0015663753
116	0xbd968c06	-0.07350926
117	0xbdd275f6	-0.102764055
118	0x3e8ab765	0.27093044
119	0xbdfd2d11	-0.12362111
120	0x3c36887a	0.011140937
121	0xbe383a96	-0.17991099
122	0x3d8f93d0	0.07010615
123	0x3c902296	0.017594617
124	0x3e10bfc1	0.14135648
125	0xbe425b1f	-0.18980072
126	0x3d0b5f09	0.03402618
127	0x3e15806a	0.14599767
128	0x39c3ff7e	0.00037383655
129	0x3b7c528e	0.0038501355
130	0xbe30a0d8	-0.17248857
131	0xbe041615	-0.12899049
132	0xbdaf7a5f	-0.08568262
133	0xbe224d5e	-0.15849826
134	0xbe6fd3e0	-0.23420668
135	0xbc6ff7ed	-0.014646512
136	0x3ded236d	0.115790226
137	0xbe837747	-0.2567694
138	0xbd57334f	-0.052539166
139	0xbe487890	-0.19577241
140	0x3c2a08a0	0.010378033
141	0x3e72b33d	0.23701186
142	0x3d1c5108	0.038163215
143	0xbd8dcf48	-0.069243014
144	0xbe3b5723	-0.18294959
145	0x3e09cd7e	0.13457295
146	0xbc82bc77	-0.015959008
147	0x3e6dc8dc	0.23221153
148	0xbe1adfc9	-0.1512443
149	0xbe80b0f0	-0.25134993
150	0xbdce8c5e	-0.10085367
151	0xbdef85d5	-0.11695448
152	0xbe92bed6	-0.2866122
153	0xbe7287f3	-0.23684673
154	0x3dda0fc7	0.106475405
155	0x3e1c21c7	0.1524726
156	0xbd9250c7	-0.07144313
157	0x3e866306	0.26247424
158	0xbe856499	-0.26053312
159	0x3e705655	0.23470433
160	0xbe976e0e	-0.29576153
161	0x3d50834c	0.050906464
162	0xbe03fa1d	-0.1288838
163	0x3ebc2400	0.36746216
164	0xbdf658f9	-0.12028689
165	0x3e89ed56	0.26938885
166	0x3cccb73e	0.02498972
167	0x3e4513e2	0.19245866
168	0x3d499b14	0.04922016
169	0xbcb9749a	-0.022638608
170	0xbe8625c9	-0.26200703
171	0x3e11ed7e	0.14250752
172	0x3cb0a46d	0.02156278
173	0x3dc310bd	0.09524677
174	0xbb88abf3	-0.0041708886
175	0x3df56661	0.11982418
176	0x3db25d31	0.08709181
177	0x3da4259c	0.08014986
178	0x3ea73daf	0.32664248
179	0xbe870b87	-0.26375982
180	0xbe655310	-0.22394967
181	0x3e8f720f	0.28016707
182	0x3adeeb73	0.0017007425
183	0x3d777897	0.060417738
184	0x3d51e328	0.051242024
185	0x3e94e426	0.29080313
186	0x3e29c032	0.16577223
187	0x3e4f9ba3	0.20274214
188	0xbd7de182	-0.06198264
189	0xbcf6891c	-0.030094676
190	0x3dad982e	0.084762916
191	0x3ea1a295	0.31569353
192	0x3da1b7ad	0.078963615
193	0xbcac9064	-0.021064945
194	0xbceaef71	-0.028678628
195	0x3e86d30f	0.263329
196	0x3e856d8d	0.26060143
197	0x3d137589	0.036000762
198	0x3d56ce5f	0.052442905
199	0xbe2c4907	-0.16824733
200	0x3ce93cc0	0.02847135
201	0xbd44c3c6	-0.048038267
202	0x3e76fe6a	0.24120489
203	0x3e27bfc2	0.16381744
204	0x3d098431	0.033573333
205	0xbe287284	-0.16449934
206	0x3ea605ec	0.32426393
207	0x3e85f3f1	0.26162675
208	0x3e31ff3a	0.17382517
209	0xbccf52af	-0.025307981
210	0xbedbb259	-0.42909506
211	0xbeaf682e	-0.3425917
212	0x3cd25a19	0.025677728
213	0x3d3ce1ec	0.046113893
214	0x3e5207bf	0.20510767
215	0x3da8ea1a	0.08247776
216	0x3e551f92	0.20812824
217	0xbe9a2eb1	-0.30113748
218	0x3db34742	0.08753826
219	0xbdd6a5e7	-0.10480862
220	0xbd8925ce	-0.06696664
221	0x3ca02236	0.019547563
222	0xbd800d28	-0.06252509
223	0xbe86d1ae	-0.26331848
224	0xbd8e800f	-0.06958019
225	0x3dba4712	0.09095587
226	0xbe22dc72	-0.15904406
227	0xbe22bf17	-0.15893207
228	0x3e41741d	0.1889195
229	0xbd3ffece	-0.04687386
230	0xbd4f11c7	-0.050554063
231	0x3d03bd26	0.032162808
232	0xbd65a221	-0.05606282
233	0x3c9b187a	0.01893257
234	0xbe483474	-0.1955126
235	0x3e66cf94	0.22540122
236	0x3e021224	0.12702233
237	0xbdec3224	-0.11533001
238	0xbe1d940c	-0.15388507
239	0xbe1da7c8	-0.15396035
240	0x3e178553	0.14796953
241	0x3e1746e2	0.14773133
242	0xbdc8c34b	-0.09802874
243	0x3e0453e7	0.12922631
244	0x3d99993e	0.07499932
245	0x3df5905e	0.119904265
246	0x3d8e1a42	0.06938602
247	0x3e34cab9	0.17655458
248	0xbe84436e	-0.25832695
249	0xbda169f5	-0.07881538
250	0x3e336819	0.17520179
251	0x3dd2c285	0.10291008
252	0x3e1b4627	0.1516348
253	0xbdb4bd83	-0.08825209
254	0x3eb1683e	0.34649843
255	0x3e5b4cef	0.21416067

hiden_layers.4.bias f4 [64]
0	0xbdf2e869	-0.11860735
1	0x3da76d9c	0.08175203
2	0x3c3d2a65	0.011545752
3	0xbc113b18	-0.008864187
4	0x3c8acd23	0.01694352
5	0xbb9f7ef4	-0.004867429
6	0x3b014cf4	0.0019729706
7	0xbd65ece8	-0.056134135
8	0x3d69558a	0.056966342
9	0x3e6703d7	0.22560059
10	0xbd58dbb2	-0.052943893
11	0x3de90590	0.11378014
12	0x3d9141c0	0.07092619
13	0xbcaf5da0	-0.021406949
14	0xbc6a7385	-0.014309769
15	0x3ce827d5	0.028339306
16	0x3d3fdfd3	0.046844315
17	0x3cfe5ab5	0.031049112
18	0x3bb96440	0.0056577027
19	0xbcfbe47a	-0.030748595
20	0x3e00d426	0.12580928
21	0x3df9f5c4	0.12205079
22	0xbd7ea900	-0.06217289
23	0xbd73bb26	-0.05950465
24	0x3dde8fee	0.10867296
25	0x3e0c84dd	0.13722558
26	0xbe56e71d	-0.209866
27	0x3c665098	0.014057301
28	0xbd91dc2a	-0.07122071
29	0x3c28a84f	0.010294034
30	0x3d7fbd9c	0.062436685
31	0x3d1dba64	0.038507834
32	0xbc9196ff	-0.017772196
33	0xbc8e7f06	-0.017394554
34	0xbc907fbe	-0.017639037
35	0x3c8219d5	0.015881458
36	0xbde57f38	-0.11205906
37	0x3d61116c	0.054948255
38	0x3cb2c7dc	0.021823816
39	0xbd819002	-0.063262954
40	0xbe134d0d	-0.14384861
41	0x3e8271f6	0.2547757
42	0x3b1363d5	0.0022489924
43	0x3ca7dbbf	0.020490525
44	0xbdb1338f	-0.08652412
45	0x3eb75b56	0.3581187
46	0xbe25c1c6	-0.161872
47	0x3bff8283	0.0077975406
48	0x3e0946ca	0.1340591
49	0xbe2a36a6	-0.16622409
50	0xbaa9cb8c	-0.0012954338
51	0x3e1f7a7a	0.15574065
52	0xbc447667	-0.01199112
53	0x3dcffed4	0.101560265
54	0x3e0f5286	0.13996324
55	0x3cfff0e3	0.031242793
56	0xbe49b065	-0.19696195
57	0xbb2a4f23	-0.002598711
58	0xbdcf5fef	-0.1012572
59	0xbd0abded	-0.033872534
60	0x3c3fbaf8	0.011702292
61	0x3d54310d	0.05180459
62	0x3e45e715	0.19326432
63	0x3ce2d6ab	0.027690252
