results/1_first_try/epoch1300/model_weights.pth (torch, 484214 bytes, 88 tensors)

init_layer.0.weight f4 [64, 3]
-0.13741979 -0.08137811 0.11214616 0.25452653 0.025728945 -0.011604445 -0.12694049 -0.22908762
-0.002896509 0.28264108 0.056788526 0.0039300425 -0.004615909 0.29204085 0.06111487 -0.14420012
-0.35109732 0.052252464 0.13839032 0.105876505 0.23675117 0.31135386 0.23132153 0.14593151
0.2827301 -0.3801483 0.026256368 -0.20630042 -0.18174788 0.16682884 -0.28277773 0.025037782
0.028714903 0.11930453 0.24016985 -0.061004568 -0.069593996 -0.15370895 0.010862359 -0.100058
0.013473702 0.11267851 0.14660029 -0.29246527 -0.037443664 0.23097792 -0.20722692 -0.08753177
0.003865173 -0.04823995 0.08855679 0.3109726 0.2425394 -0.104636304 0.15959139 0.028764395
-0.16259389 -0.25721928 0.13703744 -0.12591426 0.20458151 -0.1296461 -0.03492104 0.32153684
0.004129539 -0.040537387 -0.040925156 -0.32719544 0.024411472 -0.11127214 0.1996695 -0.0033211599
-0.038072824 -0.106871046 0.13010193 -0.10087167 0.24628343 -0.058665965 0.07817048 0.27269098
0.19432296 -0.1915685 -0.25254753 0.03882391 -0.011725928 -0.012923064 -0.10337934 0.10669838
-0.3363686 0.039898116 -0.35276914 -0.14675319 -0.044915777 -0.14429434 0.050604034 0.08686763
-0.10523606 0.2576572 0.1539682 -0.321306 0.30764756 -0.026631748 0.07670052 -0.13464394
-0.0050997525 -0.12087604 -0.23411639 -0.13708512 -0.10658725 0.0248876 0.046379928 -0.19808495
-0.069871455 -0.005986885 0.17609075 -0.23258536 -0.008586614 -0.31865183 0.149978 0.09627032
0.055033892 0.007976435 -0.17573906 -0.121185794 -0.01648837 -0.15453187 0.03249404 -0.12447744
0.12798652 0.060315274 -0.060306966 0.09535064 0.15960036 -0.24299431 -0.09048158 -0.37490618
-0.22665592 0.07910111 -0.057335347 -0.20378113 0.05265235 0.052638747 0.29826662 0.01755923
0.166185 0.33366317 0.03333721 0.16064367 -0.30032837 0.16229574 -0.13309905 -0.26739717
-0.01796532 -0.39453176 -0.13478571 -0.06724721 0.3334858 -0.29118928 0.04252983 -0.13459821
-0.19925658 0.028449712 0.19015555 -0.21959871 -0.12991267 0.22074214 0.01689244 0.016089275
0.20826837 0.07184183 0.13559055 0.05692689 0.004688894 -0.090583995 0.14130156 0.36808273
0.015769267 0.09245002 0.19489893 -0.066654325 -0.19973034 -0.23344828 -0.023219874 -0.18201949
0.04663852 -0.006223911 0.3486168 -0.068850756 0.013514465 0.3296804 0.058178607 0.10452879
00000000: c6b7 0cbe 91a9 a6bd e3ac e53d 4d51 823e
00000010: 82c5 d23c 9220 3ebc b0fc 01be f295 6abe
00000020: 5bd3 3dbb 55b6 903e 169b 683d 96c7 803b
00000030: 0d41 97bb 6186 953e 9653 7a3d 32a9 13be
00000040: 07c3 b3be ae06 563d 31b6 0d3e c8d5 d83d
00000050: e66e 723e c669 9f3e 8ddf 6c3e 126f 153e
00000060: 00c2 903e cca2 c2be 9817 d73c 6b40 53be
00000070: 1e1c 3abe 2ed5 2a3e 3ec8 90be 091c cd3c
00000080: 843b eb3c ef55 f43d 16ef 753e eddf 79bd
00000090: 4c87 8ebd e165 1dbe 09f8 313c 35eb ccbd
000000a0: cdc0 5c3c fec3 e63d 631e 163e 02be 95be
000000b0: 875e 19bd 7a85 6c3e 4b33 54be db43 b3bd
000000c0: d84e 7d3b 4197 45bd 435d b53d cd37 9f3e
000000d0: 405c 783e 8f4b d6bd ed6b 233e 4fa3 eb3c
000000e0: 037f 26be 3fb2 83be 8b53 0c3e abef 00be
000000f0: d17d 513e f2c1 04be 5d09 0fbd 7aa0 a43e
00000100: 1551 873b 880a 26bd 23a1 27bd 2986 a7be
00000110: 91fa c73c a6e2 e3bd 2976 4c3e d1a7 59bb
00000120: 40f2 1bbd 35df dabd 7139 053e ce95 cebd
00000130: b931 7c3e b94b 70bd d817 a03d 279e 8b3e
00000140: 99fc 463e 882a 44be e94d 81be d205 1f3d
00000150: 1b1e 40bc 42bb 53bc 8cb8 d3bd ae84 da3d
00000160: 8138 acbe 356c 233d 289e b4be 7846 16be
00000170: 9bf9 37bd e5c1 13be 2d46 4f3d a8e7 b13d
00000180: 0186 d7bd a5eb 833e d7a9 1d3e 3882 a4be
00000190: fb83 9d3e d32a dabc 2a15 9d3d 1ae0 09be
000001a0: d31b a7bb db8d f7bd 35bc 6fbe 0b60 0cbe
000001b0: 6b4a dabd 15e1 cb3c e1f8 3d3d c8d6 4abe
000001c0: c418 8fbd a22d c4bb 2251 343e db2a 6ebe
000001d0: dfae 0cbc 5526 a3be d593 193e 6029 c53d
000001e0: 386b 613d 98af 023c f1f4 33be 4230 f8bd
000001f0: 9e12 87bc 9a3d 1ebe 7818 053d 07ee febd
00000200: e60e 033e 260d 773d 7004 77bd 3247 c33d
00000210: 476e 233e 80d3 78be 684e b9bd b4f3 bfbe
00000220: 7d18 68be c3ff a13d 78d8 6abd 00ac 50be
00000230: fea9 573d ba9b 573d 67b6 983e 60d8 8f3c
00000240: 672c 2a3e e6d5 aa3e 998c 083d c67f 243e
00000250: a4c4 99be db30 263e 1e4b 08be 48e8 88be
00000260: 022c 93bc 1100 cabe 4405 0abe e8b8 89bd
00000270: a7be aa3e c316 95be c233 2e3d 1dd4 09be
00000280: eb09 4cbe 5f0f e93c 23b8 423e 7cde 60be
00000290: d407 05be 3a0a 623e 0462 8a3c a8cd 833c
000002a0: 4e44 553e cf21 933d 40d8 0a3e 2c2c 693d
000002b0: 4ba5 993b 1a84 b9bd 5bb1 103e 5775 bc3e
000002c0: 8d2e 813c 7056 bd3d 9693 473e 1082 88bd
000002d0: 1c86 4cbe 110d 6fbe 9b37 bebc 5163 3abe
000002e0: 0808 3f3d f3f1 cbbb e77d b23e a001 8dbd
000002f0: c66b 5d3c dfcb a83e b14c 6e3d 3113 d63d

init_layer.0.bias f4 [64]
0.06510399 0.11867807 -0.09172335 0.1349334 0.026427982 -0.07451335 -0.10078143 0.17351973
0.09011977 -0.16976254 -0.11499794 0.07330565 -0.029256186 -0.09344391 0.058650848 0.12463621
0.0115227075 0.17272003 0.14611688 -0.14169471 0.120060906 0.13820311 -0.042990793 -0.12198867
0.105381474 -0.09211431 0.1377768 -0.081482716 -0.053618807 0.09487961 -0.15735696 -0.10629742
-0.11492616 -0.13204986 0.08719394 -0.13749623 -0.05756223 -0.11261266 0.06873605 -0.14480786
-0.06875897 -0.12734003 -0.07994151 0.08387399 0.12638016 -0.145532 -0.092153504 -0.029381368
0.020631177 0.12921296 -0.13501692 -0.15705512 0.13944034 -0.06102584 0.12962244 0.12635434
0.13103665 -0.11003637 0.030840961 0.0322008 -0.1401341 -0.115252584 0.1511117 0.13917275
00000000: 3e55 853d 7d0d f33d 74d9 bbbd fb2b 0a3e
00000010: 7f7f d83c 759a 98bd 7f66 cebd 28af 313e
00000020: b790 b83d 3bd6 2dbe 0a84 ebbd 4621 963d
00000030: abaa efbc 855f bfbd df3b 703d 4541 ff3d
00000040: bdc9 3c3c 85dd 303e aa9f 153e 6b18 11be
00000050: 7ee2 f53d 1e85 0d3e 1d17 30bd 32d5 f9bd
00000060: 3ed2 d73d 6da6 bcbd 5d15 0d3e 69e0 a6bd
00000070: 659f 5bbd 3e50 c23d 2f22 21be 76b2 d9bd
00000080: 685e ebbd 1438 07be bd92 b23d d0cb 0cbe
00000090: 5fc6 6bbd 77a1 e6bd 7cc5 8c3d 8348 14be
000000a0: 81d1 8cbd 6d65 02be 60b8 a3bd 20c6 ab3d
000000b0: cd69 013e 5706 15be faba bcbd 32b1 f0bc
000000c0: b702 a93c 6750 043e e041 0abe 0fd3 20be
000000d0: 73c9 0e3e 3bf6 79bd bfbb 043e 0863 013e
000000e0: 792e 063e c05a e1bd 2fa6 fc3c fce4 033d
000000f0: 507f 0fbe 8c09 ecbd 07bd 1a3e 4d83 0e3e

hiden_layers.0.weight f4 [64, 64]
-0.17216784 0.096552074 0.0954941 0.20810516 -0.15359017 0.0028161826 0.10706592 -0.04121394
0.012503649 -0.05325303 -0.0484846 0.18065001 -0.025349993 0.20139755 0.16349544 -0.15696321
-0.004856079 -0.0772639 -0.016390104 -0.23137368 0.029351637 0.20456596 -0.012493725 -0.3166382
0.19164938 -0.032562986 -0.043219075 -0.18474545 -0.14701235 0.005100797 -0.37043503 -0.053951688
-0.05452015 -0.103274666 0.12443144 -0.06141389 0.012982924 -0.108385175 0.22425535 0.048342288
0.06804584 -0.16313267 0.12383083 -0.035321537 -0.030412655 -0.067643315 0.005302205 -0.13413744
0.2603914 -0.07600247 -0.19008605 -0.1102033 0.106106505 -0.06501888 0.18966359 0.29833838
-0.06925014 -0.13340156 -0.05398815 0.07815176 -0.013169257 -0.30312827 0.17076053 -0.02111377
-0.04803409 -0.10165279 -0.24154271 0.28112793 -0.13512418 -0.05777462 0.17198814 -0.0254496
0.09618673 -0.21526922 0.14827797 -0.13965118 -0.051882923 -0.009680219 0.09678112 0.21132098
0.013905307 0.23714024 0.06953725 -0.12858503 0.09339565 -0.079399295 0.10618443 -0.13034612
-0.02725049 -0.15179563 0.30651444 0.15168831 0.0628544 0.2242283 -0.30969283 -0.21186487
-0.034178197 -0.08502713 0.16903055 0.055820845 0.11435511 -0.15177467 -0.019429818 0.08255908
-0.06223234 -0.118627295 -0.18411136 0.058944907 0.17331082 -0.23443285 0.17888848 -0.13744985
-0.043943103 -0.024642875 -0.13351244 -0.24821295 0.22993779 -0.17581093 0.21031545 0.23716992
-0.07019541 -0.09351179 -0.15039839 -0.17918013 0.16346987 -0.066073455 0.3207192 0.043228168
0.096788704 -0.12321328 0.28912565 -0.085545346 -0.2733979 0.033658262 -0.0050000865 -0.29371896
0.10321026 0.04429797 0.017183816 0.079712495 0.18565358 -0.17689581 0.27612442 -0.1282223
-0.093692444 -0.3006516 0.016762115 -0.016420761 -0.03612529 -0.23640873 -0.107588865 0.0071103317
-0.029003328 -0.15403432 -0.13375989 0.25408185 -0.015591776 -0.13299894 0.34364006 0.2466628
-0.19683714 -0.11060653 0.17369546 0.35071024 -0.056362472 -0.043264046 -0.010044267 0.04714744
-0.16714223 0.033118594 0.21844764 0.17271972 0.18739654 0.10793241 0.1407489 -0.004111265
-0.019922031 0.06329845 0.1523268 0.07017268 0.06135178 -0.013488096 -0.1162499 -0.0673916
-0.30798724 0.27978054 -0.19975048 -0.18236415 0.38397095 -0.05308319 -0.23620832 0.084672615
0.18207978 -0.24679251 0.01685366 -0.1570854 0.15235554 0.13724366 -0.03893931 -0.16420177
-0.29466206 -0.07918187 0.16683479 0.010239888 -0.06744117 -0.02335246 -0.08435226 -0.23800342
-0.045063917 0.053632054 0.046173017 -0.028828144 0.021019513 -0.26262766 -0.20933574 -0.008895524
0.22291943 0.113080665 -0.031210462 -0.016275302 -0.08253546 -0.25322974 -0.057080466 0.11751331
-0.05633243 0.19089516 -0.21095894 0.013208307 0.020743798 -0.06827135 -0.007478641 0.07239454
-0.23040864 0.009918741 0.060144853 0.16486284 -0.08286701 0.14510193 0.077397205 0.043402255
0.059838448 -0.16066158 0.17368916 0.0042878906 -0.3118585 0.16730298 0.07729579 0.027671846
-0.21630079 -0.09612725 -0.1218201 0.09855695 -0.102032594 0.10961849 -0.19359472 -0.1371839
00000000: c44c 30be 18bd c53d 6992 c33d 8519 553e
00000010: be46 1dbe b48f 383b 6145 db3d f3cf 28bd
00000020: 1bdc 4c3c d91f 5abd ca97 46bd 51fc 383e
00000030: caaa cfbc 293b 4e3e 596b 273e f7ba 20be
00000040: be1f 9fbb 893c 9ebd 8a44 86bc 39ed 6cbe
00000050: d872 f03c bd79 513e 7bb2 4cbc 671e a2be
00000060: bc3f 443e c460 05bd 7c06 31bd e92d 3dbe
00000070: 688a 16be 9624 a73b a9a9 bdbe 72fc 5cbd
00000080: 8550 5fbd ab81 d3bd e9d5 fe3d 228d 7bbd
00000090: 54b6 543c 0cf9 ddbd 32a3 653e 9002 463d
000000a0: 9e5b 8b3d 400c 27be 059b fd3d 51ad 10bd
000000b0: f623 f9bc 9488 8abd 1fbe ad3b 535b 09be
000000c0: 0652 853e 2fa7 9bbd eba5 42be 45b2 e1bd
000000d0: 5e4e d93d 9e28 85bd 2c37 423e cfbf 983e
000000e0: 04d3 8dbd 6b9a 08be ae22 5dbd 080e a03d
000000f0: dec3 57bc a133 9bbe d9db 2e3e c9f6 acbc
00000100: 65bf 44bd 572f d0bd f956 77be 00f0 8f3e
00000110: fe5d 0abe 14a5 6cbd a91d 303e ae7b d0bc
00000120: 8cfd c43d 896f 5cbe 2ed6 173e b800 0fbe
00000130: 3083 54bd c899 1ebc 2e35 c63d 8764 583e
00000140: 16d3 633c e4d4 723e 8c69 8e3d cbab 03be
00000150: 3846 bf3d 199c a2bd 3977 d93d 7479 05be
00000160: 6b3c dfbc 5070 1bbe 76ef 9c3e 2e54 1b3e
00000170: cfb9 803d 1a9c 653e 0f90 9ebe 1bf3 58be
00000180: 70fe 0bbd b422 aebd 5816 2d3e 66a4 643d
00000190: 0333 ea3d d26a 1bbe 482b 9fbc bc14 a93d
000001a0: 57e7 7ebd def2 f2bd b087 3cbe 3770 713d
000001b0: 6478 313e 2a0f 70be 8b2e 373e a7bf 0cbe
000001c0: affd 33bd dbdf c9bc 7cb7 08be 892b 7ebe
000001d0: d074 6b3e c807 34be ef5c 573e acdc 723e
000001e0: 9cc2 8fbd 1c83 bfbd 0902 1abe ff7a 37be
000001f0: a564 273e 8551 87bd 4f35 a43e 0510 313d
00000200: 2839 c63d 3f57 fcbd 4708 943e 6632 afbd
00000210: cffa 8bbe 3fdd 093d c4d7 a3bb 5562 96be
00000220: e75f d33d ca71 353d 13c5 8c3c 4e40 a33d
00000230: f91b 3e3e 2d24 35be 2e60 8d3e b54c 03be
00000240: d3e1 bfbd 02ef 99be b450 893c d584 86bc
00000250: 1df8 13bd 2115 72be 8d57 dcbd c9fd e83b
00000260: 6398 edbc 2cbb 1dbe 5af8 08be 0417 823e
00000270: a674 7fbc e030 08be 97f1 af3e 2c95 7c3e
00000280: ad8f 49be ad85 e2bd 39dd 313e 4b90 b33e
00000290: 56dc 66bd a435 31bd b690 24bc ad1d 413d
000002a0: 5527 2bbe 5da7 073d bdb0 5f3e 70dd 303e
000002b0: e1e4 3f3e ab0b dd3d 7b20 103e cab7 86bb
000002c0: 8733 a3bc 9ea2 813d 8ffb 1b3e b2b6 8f3d
000002d0: 014c 7b3d 2dfd 5cbc 6d14 eebd 9b04 8abd
000002e0: 81b0 9dbe 653f 8f3e 648b 4cbe abbd 3abe
000002f0: d797 c43e c26d 59bd 98e0 71be d668 ad3d
00000300: 1f73 3a3e 2db7 7cbe b010 8a3c ffda 20be
00000310: 1703 1c3e 9a89 0c3e d37e 1fbd 8224 28be
00000320: f2dd 96be 1b2a a2bd bdd6 2a3e 34c5 273c
00000330: 991e 8abd a84d bfbc e1c0 acbd 2bb7 73be
00000340: f194 38bd 49ad 5b3d eb1f 3d3d 0029 ecbc
00000350: 1d31 ac3c 2277 86be 1c5c 56be 88be 11bc
00000360: fe44 643e d696 e73d 15ad ffbc c853 85bc
00000370: 5a08 a9bd 54a7 81be 35cd 69bd d1aa f03d
00000380: d6bc 66bd 057a 433e 9f05 58be a867 583c
00000390: e6ee a93c d9d1 8bbd 630f f5bb 9743 943d
000003a0: 3ef0 6bbe 3782 223c 735a 763d ced1 283e
000003b0: 2eb6 a9bd 9a95 143e 6d82 9e3d 90c6 313d
000003c0: 2919 753d 7884 24be 92db 313e 6f81 8c3b
000003d0: ebab 9fbe 7951 2b3e 414d 9e3d 11b0 e23c
000003e0: f47d 5dbe 5dde c4bd d17c f9bd 3ad8 c93d
000003f0: 77f6 d0bd a97f e03d b23d 46be f079 0cbe

hiden_layers.0.bias f4 [64]
0.0889211 0.10284112 -0.1455995 -0.04856885 0.11747532 0.11607025 0.13475251 -0.11806128
-0.07894397 -0.0954481 -0.16090651 0.104079865 0.079201885 -0.11437016 0.10198933 -0.113096245
-0.14148673 0.06589388 0.0924337 0.06773052 0.03186056 0.07631838 -0.030912431 -0.092247404
-0.027730703 0.054999378 0.0678975 -0.09731676 0.113509424 0.13043018 0.12367397 -0.058157403
0.033149403 -0.10536352 -0.059727862 -0.0045805164 -0.028813979 0.10778938 0.081499375 -0.017826436
-0.1371091 0.09205343 -0.09275567 0.0017360375 -0.09328886 0.025989367 -0.1084702 0.008556105
0.062892966 0.016306581 0.12735876 -0.09673503 0.103294805 -0.10103842 0.113398224 0.11328754
-0.041962896 0.16398187 0.050868902 0.07577215 0.12480975 0.013492563 -0.011908586 -0.12139144
00000000: 441c b63d 5d9e d23d 0918 15be 21f0 46bd
00000010: e796 f03d 3db6 ed3d 90fc 093e 1dca f1bd
00000020: 60ad a1bd 4b7a c3bd adc4 24be d327 d53d
00000030: 9934 a23d e73a eabd c8df d03d 019f e7bd
00000040: e6e1 10be 5ff3 863d e14d bd3d 4db6 8a3d
00000050: 3880 023d d04c 9c3d 113c fdbc 35ec bcbd
00000060: 802b e3bc 0747 613d d80d 8b3d 024e c7bd
00000070: a177 e83d 7d8f 053e c748 fd3d 7536 6ebd
00000080: abc7 073d d4c8 d7bd 34a5 74bd 2818 96bb
00000090: 4b0b ecbc aec0 dc3d 25e9 a63d bf08 92bc
000000a0: 5466 0cbe 8286 bc3d aff6 bdbd c18b e33a
000000b0: 3b0e bfbd a7e7 d43c a025 debd e82e 0c3c
000000c0: 07ce 803d 6195 853c 566a 023e 041d c6bd
000000d0: 3a8c d33d 3bed cebd 543d e83d 4c03 e83d
000000e0: 49e1 2bbd ddea 273e e95b 503d 6e2e 9b3d
000000f0: 419c ff3d e90f 5d3c 3b1c 43bc 139c f8bd

hiden_layers.1.weight f4 [64, 64]
-0.10741539 -0.09486395 -0.35673118 0.19774657 -0.5728397 0.09646394 -0.0066339793 -0.21648423
0.022060227 0.10808717 -0.0056492575 -0.25929412 0.10115438 -0.039986603 -0.20570369 -0.21063802
-0.062415868 0.3319725 -0.061638266 0.15607327 0.19497806 0.007211515 0.015073962 -0.054100975
-0.19839424 -0.21981496 -0.032630906 0.29661673 -0.16468617 -0.35903865 -0.31063795 -0.00010399006
-0.3783283 0.32879138 -0.27192578 -0.34255123 -0.16158946 -0.081613354 -0.05636188 0.12155956
0.11255615 0.31681448 -0.076358676 0.33260605 0.46822983 -0.19731453 0.06831221 -0.032028817
0.14761476 -0.2992397 0.027361566 0.30218422 -0.1977417 0.19492094 0.010650972 -0.17806931
0.13246487 -0.1957472 -0.31373248 0.067197576 0.15473974 -0.17042892 -0.071754456 -0.27521735
0.05035251 -0.018515443 -0.16561486 0.09870599 -0.10296152 -0.038563322 -0.24980424 0.0063146967
0.22208649 -0.09682172 0.24001232 0.09806211 0.0479091 -0.056870494 0.1790624 0.0918927
0.14735785 -0.072560325 0.10988926 0.09568158 0.03926536 0.23691987 -0.20228688 0.0947885
0.18574992 0.2613294 0.20552932 -0.04888044 -0.12902744 0.078409255 -0.03169735 0.15814504
0.18692127 0.16339898 -0.20389277 -0.15479247 -0.3333208 -0.061214603 -0.04676425 -0.2069075
-0.16546446 -0.266665 -0.087412834 -0.17783464 0.021124074 -0.043230187 -0.08118059 -0.49060637
0.23066443 0.06666849 -0.17639188 0.026422884 0.042284887 -0.04779268 -0.11055415 -0.060387503
-0.009394906 0.16865578 -0.22785474 0.1119777 -0.020929826 -0.059000734 -0.08230205 0.23591457
0.06092524 0.28450844 0.007957172 0.083462164 0.47695446 0.24275282 -0.13877752 0.15203089
0.07823979 -0.10955462 -0.25708923 0.07772882 0.042903587 0.015757896 0.42161128 0.11914924
-0.13346015 -0.10488243 0.11143592 -0.006690602 0.06291949 -0.24272457 -0.3290782 -0.18448359
-0.053997155 0.27380544 -0.08503456 -0.14299582 0.35162055 0.52161515 0.3869413 0.25898904
0.25545692 -0.20233716 -0.047205277 -0.12963186 0.06882782 0.0009093896 0.00013715905 -0.1679139
-0.25702244 -0.15086456 -0.23426493 -0.121051155 -0.26915455 0.13925302 -0.34155375 0.065180115
-0.052422334 0.1952192 0.14936185 -0.44936225 0.054257926 -0.43362933 0.1468114 -0.06740495
-0.1902118 0.3427367 -0.10318396 0.090177774 0.0010759098 0.20676139 0.024238862 0.034978006
0.15518068 0.060665235 -0.20107427 0.11951102 0.55147576 -0.21566756 -0.04899372 -0.16651946
-0.0011604659 -0.038829505 -0.13141419 0.30978528 0.28472427 0.11694151 -0.0064669717 0.094230376
-0.06584923 -0.13786545 0.08626266 0.11962752 -0.01712067 -0.23292392 0.1313053 0.116172485
0.14580475 0.061400082 -0.084176406 -0.05620395 0.39710763 0.38596147 0.18336469 0.16271943
0.1852561 -0.09580038 -0.1033967 0.07729447 0.08629552 0.1780767 0.09891468 0.16458467
0.002821553 -0.017848365 0.15835528 0.076822035 -0.13669449 -0.095944464 -0.2459469 -0.15592419
-0.007232361 0.09884861 -0.029361501 0.076465555 0.2195576 -0.06804834 -0.20691317 -0.036125477
-0.12297079 -0.06343045 0.16961035 0.020449305 -0.1273692 0.22767843 0.063446544 -0.2012203
00000000: 9afc dbbd 0848 c2bd 78a5 b6be 147e 4a3e
00000010: 9fa5 12bf e38e c53d da61 d9bb 0bae 5dbe
00000020: a6b7 b43c ce5c dd3d 681d b9bb 33c2 84be
00000030: 072a cf3d fec8 23bd fda3 52be 7eb1 57be
00000040: c8a7 7fbd 4df8 a93e 6878 7cbd acd1 1f3e
00000050: 54a8 473e 934e ec3b c7f8 763c fc98 5dbd
00000060: dc27 4bbe 2c17 61be fca7 05bd 26de 973e
00000070: 7ea3 28be ead3 b7be f00b 9fbe 3d15 dab8
00000080: 3fb4 c1be 5857 a83e db39 8bbe e062 afbe
00000090: b577 25be e724 a7bd b7db 66bd 38f4 f83d
000000a0: d783 e63d 8235 a23e f061 9cbd 574b aa3e
000000b0: d2bb ef3e d20c 4abe 46e7 8b3d a630 03bd
000000c0: 5328 173e f235 99be 5d25 e03c e4b7 9a3e
000000d0: cd7c 4abe 5b99 473e 6a81 2e3c cd57 36be
000000e0: dfa4 073e f471 48be 8ba1 a0be e29e 893d
000000f0: 1874 1e3e eb84 2ebe 00f4 92bd 4ae9 8cbe
00000100: 6f3e 4e3d b3ad 97bc f196 29be 5e26 ca3d
00000110: 7ddd d2bd 93f4 1dbd afcc 7fbe 84eb ce3b
00000120: a46a 633e 774a c6bd cac5 753e cad4 c83d
00000130: 553c 443d 09f1 68bd 225c 373e 3d32 bc3d
00000140: fae4 163e 829a 94bd 9f0d e13d b4f4 c33d
00000150: b7d4 203d 1f9b 723e 4b24 4fbe 7920 c23d
00000160: 3a35 3e3e f8cc 853e 4776 523e db36 48bd
00000170: c51f 04be 0895 a03d 15d5 01bd c6f0 213e
00000180: 4a68 3f3e 1052 273e 44c9 50be eb81 1ebe
00000190: 06a9 aabe 2abc 7abd df8b 3fbd 8fdf 53be
000001a0: 846f 29be 5188 88be 8005 b3bd 491a 36be
000001b0: 650c ad3c 2312 31bd 0242 a6bd c230 fbbe
000001c0: 4c33 6c3e 7d89 883d 13a0 34be ce74 d83c
000001d0: eb32 2d3d 42c2 43bd 376a e2bd e358 77bd
000001e0: 18ed 19bc 1ab4 2c3e c152 69be 9054 e53d
000001f0: 0775 abbc c1aa 71bd fa8d a8bd 9793 713e
00000200: bf8c 793d 17ab 913e cc5e 023c 36ee aa3d
00000210: 6033 f43e 3294 783e b21b 0ebe fcad 1b3e
00000220: 2f3c a03d 2c5e e0bd 33a1 83be 4a30 9f3d
00000230: acbb 2f3d b416 813c 6fdd d73e 8404 f43d
00000240: c7a9 08be 99cc d6bd 8438 e43d d63c dbbb
00000250: efdb 803d ca8c 78be f07c a8be 44e9 3cbe
00000260: 1f2c 5dbd 3a30 8c3e 9926 aebd 7f6d 12be
00000270: 9c07 b43e 9288 053f 2c1d c63e 369a 843e
00000280: 40cb 823e 7931 4fbe 525a 41bd 37be 04be
00000290: 9af5 8c3d 1a64 6e3a 5ad2 0f39 9ff1 2bbe
000002a0: 7298 83be 3d7c 1abe 25e3 6fbe abe9 f7bd
000002b0: a0ce 89be 5898 0e3e 22e0 aebe 277d 853d
000002c0: cdb8 56bd 8be7 473e 50f2 183e cf12 e6be
000002d0: 8f3d 5e3d aa04 debe ba55 163e 9b0b 8abd
000002e0: e2c6 42be 2f7b af3e 1d52 d3bd 20af b83d
000002f0: 8b05 8d3a 42b9 533e 9490 c63c 1945 0f3d
00000300: afe7 1e3e 1c7c 783d 6ae6 4dbe 32c2 f43d
00000310: 842d 0d3f f5d7 5cbe a4ad 48bd 1484 2abe
00000320: c61a 98ba b00b 1fbd 7191 06be 2d9c 9e3e
00000330: 61c7 913e 087f ef3d e4e8 d3bb dbfb c03d
00000340: f6db 86bd 9a2c 0dbe 7aaa b03d 46ff f43d
00000350: a640 8cbc 9c83 6ebe e674 063e d7eb ed3d
00000360: d74d 153e a77e 7b3d ae64 acbd 1d36 66bd
00000370: b151 cb3e be9c c53e f4c3 3b3e ec9f 263e
00000380: c6b3 3d3e fd32 c4bd a6c1 d3bd 904c 9e3d
00000390: b5bb b03d bd59 363e c893 ca3d e288 283e
000003a0: cee9 383b bc36 92bc e327 223e df54 9d3d
000003b0: a4f9 0bbe 887e c4bd 81d9 7bbe 97aa 1fbe
000003c0: 71fd ecbb 2471 ca3d 8887 f0bc f999 9c3d
000003d0: b5d3 603e ee5c 8bbd 0ce1 53be 4ff8 13bd
000003e0: 1cd8 fbbd d3e7 81bd 56ae 2d3e 4d85 a73c
000003f0: 126d 02be 8924 693e 43f0 813d b20c 4ebe

hiden_layers.1.bias f4 [64]
-0.033536896 0.04010033 0.21254976 0.06123216 0.06690628 0.06427453 -0.05501113 0.1582272
0.15186702 -0.03344973 -0.044566434 -0.10227985 0.04053963 0.08401601 0.16785797 -0.08233924
-0.01254372 -0.072600566 0.028904773 -0.14651074 0.08106831 -0.07492009 -0.099872775 0.05427842
0.040137026 0.05114699 0.09234269 0.017783899 -0.08765865 -0.032685105 0.10114721 0.03932067
-0.08834489 0.105406895 -0.13676637 -0.028006854 -0.06921693 0.070460245 -0.07852848 0.14221907
0.08708872 -0.087182656 0.0050449646 0.13381541 -0.030801246 0.050159678 -0.08692874 0.10972351
-0.17796181 0.09556659 0.08940094 0.060507283 -0.047372818 -0.0110880295 -0.07280069 -0.20915502
0.0697859 -0.07667574 -0.04790265 -0.010071908 -0.09840421 -0.02497829 0.08912099 -0.07995901
00000000: fc5d 09bd 3e40 243d a5a6 593e 93ce 7a3d
00000010: 2906 893d 5da2 833d 5a53 61bd 5006 223e
00000020: 0783 1b3e 9602 09bd 4b8b 36bd 1978 d1bd
00000030: e20c 263d 9610 ac3d f6e2 2b3e 7aa1 a8bd
00000040: 2d84 4dbc 9baf 94bd b4c9 ec3c e906 16be
00000050: 2407 a63d b46f 99bd 198a ccbd 0c53 5e3d
00000060: b966 243d 827f 513d 2a1e bd3d 8aaf 913c
00000070: 6186 b3bd d1e0 05bd 4526 cf3d b60e 213d
00000080: 2aee b4bd 92df d73d 7c0c 0cbe a16e e5bc
00000090: 9bc1 8dbd 764d 903d 8ad3 a0bd e0a1 113e
000000a0: 925b b23d d28c b2bd 3b50 a53b e806 093e
000000b0: e552 fcbc 3c74 4d3d b207 b2bd b8b6 e03d
000000c0: 9f3b 36be 6bb8 c33d d717 b73d 7cd6 773d
000000d0: 000a 42bd 91aa 35bc 8718 95bd bc2c 56be
000000e0: e9eb 8e3d 2c08 9dbd 9235 44bd a504 25bc
000000f0: 2588 c9bd 459f ccbc 1185 b63d 8dc1 a3bd

hiden_layers.2.weight f4 [64, 64]
-0.13817655 0.20479877 0.011361071 0.011430651 -0.014871737 -0.12083927 -0.27260822 -0.3029016
-0.4220275 -0.06715742 0.06325991 -0.09697743 -0.058965486 0.10771422 -0.05117721 0.21482751
0.4063316 -0.0137396855 -0.075979814 -0.22238243 0.19650428 0.16547106 -0.2577448 0.3551436
0.0076822317 -0.21545881 -0.19283624 0.029325085 0.010354274 -0.14291318 0.20316002 -0.020409055
-0.1810194 0.07411615 -0.24647951 -0.2246682 0.2762567 0.13463815 0.017883161 0.060574435
-0.109011896 0.22010311 -0.028542846 0.18561974 0.14324386 0.005736861 0.114827685 0.23514603
0.15037197 0.18181308 -0.20465487 -0.18770099 -0.14781515 0.079045616 0.107802294 0.25080997
-0.045398172 0.07323851 0.21528214 0.010679316 -0.13168107 0.114695564 0.11133164 0.13339551
0.031830084 0.06598495 0.29839218 0.20262073 0.13843454 0.27246982 0.14646798 0.25207436
0.1111089 0.11953838 0.21401736 0.070031546 -0.052586 -0.07718526 -0.03984069 0.13543917
0.09418865 -0.17208208 -0.13699427 -0.27058038 0.027789583 -0.1748723 -0.10618195 -0.0031757543
0.052666456 0.1806915 0.22092707 0.12999637 -0.25912532 0.20095196 -0.045521945 -0.17702167
-0.043421485 0.18063621 -0.048460707 0.076824166 0.16596107 0.21392167 0.117563404 -0.06831776
0.047005787 -0.50012 -0.09140815 -0.006599402 0.15762544 0.010789489 -0.32949647 0.19250575
-0.28127736 0.10015146 -0.0662398 -0.18358111 -0.26101917 0.021658216 -0.08822367 -0.10923375
0.34869343 -0.22735904 -0.25631294 0.34834862 -0.020401146 0.21365222 0.26204956 -0.17316326
0.2583025 -0.2174441 -0.41883343 -0.13459617 0.09251943 0.124211214 0.16522169 -0.028344579
-0.17336386 0.38345045 0.06261036 0.22973873 0.17093477 0.15643586 -0.19153309 0.19735841
-0.046868432 -0.063705765 0.015152377 -0.15684025 -0.24244939 0.058690403 0.23654017 -0.08948165
-0.14494993 -0.29471374 -0.06426555 -0.03666728 0.21668808 0.017629666 0.100399025 0.2034151
0.013373646 -0.17760831 0.06837232 -0.041181654 0.25665268 -0.10310107 -0.192769 0.038404215
0.14929558 0.26248026 -0.13938728 -0.09119898 0.15584116 -0.004660364 0.07633662 -0.0025025036
0.57181275 0.09997742 -0.3272183 0.23537274 -0.18265311 0.23802446 0.18416329 -0.0117926765
-0.18987392 0.13283686 -0.17391157 -0.10026568 -0.0004237592 0.36547393 0.013731667 0.13127835
0.13923198 -0.22461216 -0.24555807 0.16083589 -0.3088616 -0.057302713 0.08265534 -0.2969784
-0.07660802 0.28924772 0.26175585 -0.1942325 0.18829343 -0.0018116476 -0.18179196 0.103172645
0.05120394 -0.17502178 -0.30446061 -0.10320441 -0.28112462 -0.06762579 0.15022558 -0.113489434
-0.06486646 -0.14246015 0.0469026 0.092751786 -0.06195313 0.23439832 0.043063086 -0.19989273
-0.156154 -0.27230793 0.33658746 0.23765822 -0.0760028 0.16973001 0.066930555 -0.15554722
0.117305614 -0.09166791 0.055948853 0.07866716 0.10211906 -0.19875132 0.030412685 -0.08183657
0.19546005 0.020099288 0.103970386 -0.23026027 -0.016998656 -0.08686218 0.09677894 -0.0027418379
0.15165856 0.016675297 -0.037374415 0.3212375 0.11185809 -0.047880635 0.18960865 -0.0075464365
00000000: 277e 0dbe c5b6 513e c923 3a3c a047 3b3c
00000010: 96a8 73bc 947a f7bd 4e93 8bbe eb15 9bbe
00000020: fd13 d8be d489 89bd 698e 813d 1a9c c6bd
00000030: cb85 71bd 4699 dc3d 329f 51bd befb 5b3e
00000040: b20a d03e 6b1c 61bc 4e9b 9bbd 38b8 63be
00000050: 6b38 493e 3f71 293e 20f7 83be 62d5 b53e
00000060: 3bbb fb3b 3ca1 5cbe dd76 45be 293b f03c
00000070: f9a4 293c d557 12be 2e09 503e e430 a7bc
00000080: 265d 39be 35ca 973d 2065 7cbe 6c0f 66be
00000090: 8571 8d3e 95de 093e b57f 923c e61c 783d
000000a0: a141 dfbd b662 613e b0d2 e9bc 1a13 3e3e
000000b0: 85ae 123e 47fc bb3b c72a eb3d 1fca 703e
000000c0: 1cfb 193e 352d 3a3e 0c91 51be b034 40be
000000d0: db5c 17be abe2 a13d 73c7 dc3d 2a6a 803e
000000e0: 6ff3 39bd 12fe 953d ec72 5c3e 4cf8 2e3c
000000f0: 67d7 06be 82e5 ea3d d801 e43d d598 083e
00000100: 4360 023d 1e23 873d dcc6 983e cf7b 4f3e
00000110: c9c1 0d3e 2a81 8b3e b4fb 153e e40f 813e
00000120: 108d e33d 8ad0 f43d 5e27 5b3e b36c 8f3d
00000130: 6b64 57bd 4e13 9ebd fe2f 23bd 91b0 0a3e
00000140: fbe5 c03d 4936 30be 3a48 0cbe 8389 8abe
00000150: fba6 e33c b911 33be ec75 d9bd 5120 50bb
00000160: c8b8 573d 3107 393e b53a 623e c51d 053e
00000170: 13ac 84be 5ac6 4d3e 3875 3abd 2b45 35be
00000180: bada 31bd b3f8 383e bc7e 46bd fd55 9d3d
00000190: b3f1 293e 480e 5b3e 15c5 f03d 2fea 8bbd
000001a0: 2489 403d dd07 00bf 3234 bbbd cc3f d8bb
000001b0: 9068 213e 66c6 303c c3b3 a8be 3a20 453e
000001c0: 9603 90be 351c cd3d bba8 87bd b0fc 3bbe
000001d0: 4ea4 85be 926c b13c 9dae b4bd f2b5 dfbd
000001e0: f287 b23e cfd0 68be 733b 83be c05a b23e
000001f0: 4e20 a7bc a6c7 5a3e 5c2b 863e b651 31be
00000200: 3a40 843e aba9 5ebe 5671 d6be 94d3 09be
00000210: d47a bd3d 7362 fe3d e02f 293e e432 e8bc
00000220: 4c86 31be 9e53 c43e dc39 803d a140 6b3e
00000230: 8609 2f3e b930 203e 4021 44be 5318 4a3e
00000240: 1df9 3fbd 2b78 82bd ad41 783c bb9a 20be
00000250: a744 78be 5965 703d 9637 723e 2842 b7bd
00000260: c16d 14be b8e4 96be a89d 83bd 6e30 16bd
00000270: 7be3 5d3e 176c 903c 019e cd3d 0c4c 503e
00000280: 231d 5b3c f4de 35be c906 8c3d 18ae 28bd
00000290: fb67 833e a726 d3bd 3d65 45be bd4d 1d3d
000002a0: f1e0 183e d063 863e 8abb 0ebe 88c6 babd
000002b0: d394 1f3e f7b5 98bb 6056 9c3d 0b01 24bb
000002c0: 5262 123f f6c0 cc3d 2889 a7be 8d05 713e
000002d0: 6b09 3bbe afbc 733e 4d95 3c3e 1236 41bc
000002e0: 4f6e 42be 6306 083e e015 32be 1858 cdbd
000002f0: ff2b deb9 661f bb3e c9fa 603c d56d 063e
00000300: d492 0e3e bb00 66be 9373 7bbe 2ab2 243e
00000310: 1c23 9ebe 40b6 6abd 3447 a93d 8e0d 98be
00000320: aae4 9cbd 4718 943e dd04 863e e2e4 46be
00000330: fecf 403e ce74 edba ac27 3abe 2e4c d33d
00000340: 39bb 513d e938 33be 43e2 9bbe d55c d3bd
00000350: 91ef 8fbe 647f 8abd bcd4 193e 266d e8bd
00000360: b5d8 84bd 13e1 11be f11c 403d a6f4 bd3d
00000370: 91c2 7dbd 1d06 703e eb62 303d aeb0 4cbe
00000380: d6e6 1fbe f26b 8bbe 3155 ac3e ad5c 733e
00000390: 5ba7 9bbd b4cd 2d3e e312 893d c547 1fbe
000003a0: ed3d f03d 63bc bbbd a02a 653d 3f1c a13d
000003b0: cc23 d13d 7785 4bbe 0624 f93c ee99 a7bd
000003c0: ae26 483e 43a7 a43c 6dee d43d 59c9 6bbe
000003d0: c440 8bbc cce4 b1bd 0934 c63d 68b0 33bb
000003e0: 624c 1b3e a29a 883c ea15 19bd 3e79 a43e
000003f0: db15 e53d 7c1e 44bd c528 423e 1948 f7bb

hiden_layers.2.bias f4 [64]
0.01326657 -0.058019534 0.022861322 -0.036493864 -0.017582197 -0.022588124 -0.020349765 0.046541452
0.0073065422 0.03935243 -0.0050284923 -0.05493246 0.008463213 -0.014250414 0.077231936 0.051305104
0.05943278 -0.14871545 0.05914275 0.06742561 0.16422269 -0.01851089 0.12850384 0.08470316
-0.053720746 -0.14589898 0.019434594 -0.11563932 0.008700048 -0.014476805 0.10635178 -0.018341346
-0.06118088 -0.04234985 -0.033447087 0.10591041 -0.0032737567 0.052982774 0.00013894329 0.04488054
0.04919424 -0.08220557 -0.075002 0.06164077 0.16566359 0.0534533 -0.038182877 0.054940406
0.093048446 -0.09179469 0.020422177 -0.19289349 0.029544264 -0.0146500245 -0.020274172 -0.10771925
-0.15938649 0.03230388 -0.004460492 -0.10718661 -0.11311108 0.10517386 0.10639323 0.0997065
00000000: 075c 593c e4a5 6dbd ab47 bb3c 977a 15bd
00000010: 8a08 90bc bb0a b9bc 8db4 a6bc 40a2 3e3d
00000020: b86b ef3b 0330 213d 0dc6 a4bb dc00 61bd
00000030: 4aa9 0a3c 927a 69bc c72b 9e3d 4d25 523d
00000040: c96f 733d dd48 18be ab3f 723d 7016 8a3d
00000050: fe29 283e 26a4 97bc 8396 033e da78 ad3d
00000060: 490a 5cbd 8b66 15be 4c35 9f3c 4fd4 ecbd
00000070: a58a 0e3c 1f30 6dbc f6ce d93d 9740 96bc
00000080: cd98 7abd 0977 2dbd d0ff 08bd 8fe7 d83d
00000090: 868c 56bb 7704 593d 4eb1 1139 a8d4 373d
000000a0: e67f 493d 655b a8bd a69a 99bd 087b 7c3d
000000b0: b7a3 293e d9f1 5a3d a665 1cbd 3109 613d
000000c0: 2f90 be3d dbfe bbbd 694c a73c df85 45be
000000d0: d006 f23c a806 70bc 0516 a6bc e99b dcbd
000000e0: 3636 23be 1351 043d 5229 92bb a784 dbbd
000000f0: c8a6 e7bd 6565 d73d b2e4 d93d ec32 cc3d

hiden_layers.3.weight f4 [64, 64]
-0.26427376 0.1669244 0.33421373 -0.0070970636 -0.04555482 0.04413162 -0.054751616 -0.28380942
-0.033559676 0.088252306 0.1479512 -0.06922977 0.35447997 -0.23877053 0.2255066 0.012124624
0.082302235 -0.3618585 -0.0910685 -0.09334723 0.4300205 -0.20390967 0.22792307 0.12516287
0.24218227 0.06612963 -0.020108338 -0.0926931 0.110058315 0.24074386 0.17746605 0.17947218
0.05622885 0.051938675 -0.093098104 0.27358752 0.043015957 0.062211975 -0.089511536 -0.1198728
0.051274013 -0.31907302 -0.13107757 -0.22991094 0.11118861 0.35576624 0.124385 -0.00024502672
0.15171868 -0.2527874 0.019812265 -0.7363983 0.07338186 0.24435775 0.2251439 -0.08671262
0.16966905 0.08028923 -0.07892714 -0.017193299 -0.072157145 0.19582953 -0.15055765 0.17914425
-0.0995595 -0.023972629 -0.21761364 0.14617777 0.231091 0.3039411 -0.23670423 0.09538278
-0.261362 -0.090724446 0.13496535 0.055185862 0.06835901 -0.044442456 -0.08311248 0.19242111
0.24265754 -0.009625953 0.1680773 0.18704492 0.16166916 -0.12549001 -0.08017606 0.066468656
-0.14499226 0.004338076 0.07318863 -0.10634197 0.29088724 -0.06357489 -0.40480328 0.013572647
0.1378275 -0.06506706 0.07937638 0.15673576 -0.08784018 -0.27864727 -0.036735117 0.13396852
0.034834143 -0.1329027 0.064810835 0.5224862 0.2864944 0.046699926 0.24981725 0.10803069
0.23788996 -0.18642743 -0.22558975 0.39714184 0.26713783 -0.09263558 -0.095715575 0.16901995
0.25734967 -0.17098635 0.076113604 0.26894757 0.092069335 0.108372636 0.054103963 0.2515495
0.061135918 0.18257064 -0.30899483 -0.11687638 -0.061246563 0.23343775 0.08595491 -0.102830924
0.11577616 -0.03675266 -0.06907246 0.1913983 -0.18706004 -0.031404376 0.076003924 -0.0701281
-0.0043629915 0.20101812 -0.03849863 -0.2542985 -0.09096406 0.053479273 -0.20319329 -0.04126841
-0.14603089 -0.07470105 -0.2611758 0.032683585 0.18528649 -0.30152452 -0.070303 -0.22579484
-0.18942995 0.0012315667 0.21648411 0.027433066 -0.09060052 -0.10316297 0.17590961 0.013679449
0.06340729 -0.064354286 -0.030408729 0.043230552 0.098231815 -0.22753824 0.17699856 -0.23660329
-0.058089472 -0.13776356 0.15899798 0.23927276 0.09891679 -0.14508536 -0.21054943 -0.29159674
-0.18746424 -0.13594931 0.10327543 0.25628084 0.22693478 -0.03157 0.14956442 0.07017682
0.032892875 -0.15520841 0.19495335 -0.16027415 -0.41043591 -0.10096672 0.04595539 -0.25860748
0.1433831 -0.45909473 -0.29054075 -0.20498551 -0.21276248 -0.17041524 -0.10810395 0.00079904805
-0.07279962 0.037008695 -0.02848471 0.17425527 0.22662276 -0.015644033 -0.09116806 0.0868705
0.22902454 0.13162182 0.23579024 0.056133118 -0.018741718 -0.12002142 -0.11398341 0.09377413
0.14992818 0.11587948 0.13505699 -0.14635865 -0.28113687 -0.03391239 -0.284318 -0.048222095
0.13490906 -0.45057836 -0.2012491 0.16066901 0.137719 -0.1149678 0.17328581 0.2582142
-0.12880328 0.20265922 -0.082677804 -0.47486466 -0.11686575 0.30534974 0.092135705 0.3026557
0.515963 0.11190697 0.20341106 -0.13686733 -0.13504542 -0.21205986 -0.24361621 0.06697262
00000000: e44e 87be 3bee 2a3e 101e ab3e 7c8e e8bb
00000010: b197 3abd 5cc3 343d 3b43 60bd 784f 91be
00000020: df75 09bd a0bd b43d 8580 173e 56c8 8dbd
00000030: 667e b53e 4380 74be 34eb 663e 5ca6 463c
00000040: 138e a83d 8445 b9be 1f82 babd d52c bfbd
00000050: a62b dc3e b2cd 50be aa64 693e b22a 003e
00000060: a1fe 773e f96e 873d 3eba a4bc e1d5 bdbd
00000070: 4166 e13d 8f85 763e a9b9 353e 8ec7 373e
00000080: 3950 663d a6bd 543d 38aa bebd aa13 8c3e
00000090: 8031 303d fcd1 7e3d d351 b7bd df7f f5bd
000000a0: b304 523d 8a5d a3be 3339 06be c66d 6bbe
000000b0: dbb6 e33d fe26 b63e 90bd fe3d ee76 80b9
000000c0: 245c 1b3e 5a6d 81be 554d a23c 9984 3cbf
000000d0: 3b49 963d eb38 7a3e 1f8c 663e 6396 b1bd
000000e0: b9bd 2d3e ae6e a43d 8da4 a1bd f6d8 8cbc
000000f0: 20c7 93bd 8987 483e c92b 1abe 9771 373e
00000100: dae5 cbbd 3f62 c4bc 1cd6 5ebe a0af 153e
00000110: 1ea3 6c3e 2b9e 9b3e 9862 72be 0c58 c33d
00000120: 3dd1 85be bdcd b9bd 5b34 0a3e 920a 623d
00000130: cfff 8b3d 4b09 36bd e036 aabd 0a0a 453e
00000140: 387b 783e 2cb6 1dbc 751c 2c3e b488 3f3e
00000150: 9a8c 253e 7480 00be 5933 a4bd b820 883d
00000160: da78 14be 6b26 8e3b ece3 953d d2c9 d9bd
00000170: 2cef 943e 8d33 82bd 6042 cfbe cf5f 5e3c
00000180: a722 0d3e e141 85bd 1590 a23d 577f 203e
00000190: 8de5 b3bd dbaa 8ebe 9077 16bd 0b2f 093e
000001a0: 3fae 0e3d a517 08be 8bbb 843d a8c1 053f
000001b0: 65af 923e 6c48 3f3d 18d0 7f3e 323f dd3d
000001c0: 6d99 733e d5e6 3ebe 0001 67be 2d56 cb3e
000001d0: 4ac6 883e b9b7 bdbd 8706 c4bd 9113 2d3e
000001e0: 56c3 833e 0c17 2fbe 73e1 9b3d 7fb3 893e
000001f0: d98e bc3d 79f2 dd3d 1e9c 5d3d 19cb 803e
00000200: a869 7a3d ccf3 3a3e 9234 9ebe e25c efbd
00000210: addd 7abd 4e0a 6f3e 2109 b03d 0599 d2bd
00000220: 0d1c ed3d f589 16bd dd75 8dbd eafd 433e
00000230: ab8c 3fbe e0a1 00bd f2a7 9b3d 529f 8fbd
00000240: 6df7 8ebb b2d7 4d3e bdb0 1dbd 6a33 82be
00000250: 5d4b babd 150d 5b3d e711 50be 1009 29bd
00000260: 1f89 15be ddfc 98bd d6b8 85be 39df 053d
00000270: bebb 3d3e 6c61 9abe 05fb 8fbd c336 67be
00000280: edf9 41be 856c a13a 03ae 5d3e 4fbb e03c
00000290: c48c b9bd 1b47 d3bd a621 343e c51f 603c
000002a0: aedb 813d 2ecc 83bd ba1b f9bc 8512 313d
000002b0: c32d c93d c9ff 68be 1c3f 353e 2248 72be
000002c0: 3aef 6dbd e411 0dbe 5ed0 223e eb03 753e
000002d0: e394 ca3d 4291 14be 459a 57be 2b4c 95be
000002e0: a0f6 3fbe 4c36 0bbe 1282 d33d 3e37 833e
000002f0: 9761 683e 8b4f 01bd 6a27 193e ddb8 8f3d
00000300: aeba 063d f4ee 1ebe daa1 473e e81e 24be
00000310: a824 d2be a4c7 cebd b83b 3c3d 3368 84be
00000320: 05d3 123e 770e ebbe c2c1 94be b9e7 51be
00000330: 68de 59be 5581 2ebe 9b65 ddbd 3577 513a
00000340: f817 95bd 6e96 173d c458 e9bc f96f 323e
00000350: cc0f 683e ea27 80bc 52b6 babd 29e9 b13d
00000360: 6985 6a3e dfc7 063e ff72 713e d7eb 653d
00000370: 3b88 99bc cacd f5bd 2270 e9bd a70c c03d
00000380: c686 193e 3952 ed3d 614c 0a3e 0bdf 15be
00000390: 2cf1 8fbe b8e7 0abd 2192 91be 8884 45bd
000003a0: 9a25 0a3e 35b2 e6be 3e14 4ebe 6b86 243e
000003b0: 3606 0d3e 3d74 ebbd d671 313e a734 843e
000003c0: 02e5 03be e685 4f3e fb52 a9bd 7621 f3be
000003d0: 4f57 efbd cd56 9c3e a5b1 bc3d b0f5 9a3e
000003e0: 2716 043f 7b2f e53d fd4a 503e f326 0cbe
000003f0: 5949 0abe 3826 59be 8776 79be f128 893d

hiden_layers.3.bias f4 [64]
0.09278561 -0.10679599 0.111765355 0.10930632 -0.27381253 -0.059678312 -0.04218607 -0.1690863
0.40525073 0.002769755 0.041140046 -0.23980425 -0.1535531 -0.035552256 -0.04148284 -0.3803169
-0.009871826 -0.22196013 -0.028253825 0.015086084 -0.054496393 0.17586245 -0.24448662 0.027514877
0.0511692 0.16732207 -0.18420409 -0.014208762 0.07989342 0.087905034 0.042789575 -0.050836414
0.11046123 -0.10383147 -0.023778142 0.04130178 0.13425231 0.26629782 -0.05719283 -0.114476725
0.1717451 -0.16968076 0.09329662 -0.082709335 0.026344756 0.09230692 0.20524137 0.23453383
-0.110695235 -0.03996423 -0.15883715 -0.16829844 0.15648858 0.34046876 -0.1900321 -0.24726017
0.13480055 0.1620543 0.09850188 0.023105815 -0.076976195 0.27910638 -0.17809404 0.021203622
00000000: 6206 be3d dbb7 dabd 3ce5 e43d fedb df3d
00000010: 2831 8cbe 3f71 74bd 4dcb 2cbd f624 2dbe
00000020: 067d cf3e c784 353b 7782 283d 3f8f 75be
00000030: 063d 1dbe 3e9f 11bd e9e9 29bd e6b8 c2be
00000040: 70bd 21bc 8449 63be 9174 e7bc 9f2b 773c
00000050: 9c37 5fbd 4915 343e b35a 7abe e166 e13c
00000060: cc96 513d 7a56 2b3e ff9f 3cbe decb 68bc
00000070: 299f a33d 8e07 b43d 1f44 2f3d d839 50bd
00000080: 7f39 e23d 98a5 d4bd 61ca c2bc 0e2c 293d
00000090: 7079 093e 3058 883e 0743 6abd c672 eabd
000000a0: f3dd 2f3e cbc0 2dbe 4c12 bf3d 8363 a9bd
000000b0: f5d0 d73c 690b bd3d cb2a 523e a329 703e
000000c0: 2fb4 e2bd 88b1 23bd 35a6 22be 6d56 2cbe
000000d0: 8b3e 203e ec51 ae3e c697 42be c531 7dbe
000000e0: 2809 0a3e 90f1 253e 5bbb c93d 6848 bd3c
000000f0: b2a5 9dbd 08e7 8e3e 495e 36be 38b3 ad3c

hiden_layers.4.weight f4 [64, 64]
-0.04080673 0.15100424 0.10150634 -0.28475586 0.07933853 -0.010699467 0.07164501 0.09696956
-0.49738604 0.024754254 -0.041833412 0.123466566 -0.026342655 -0.19944574 -0.23932096 0.12595731
-0.13830432 0.00051507476 0.20592833 0.18248014 -0.42100638 0.09808677 -0.04796321 -0.02070908
0.048631288 -0.08269704 0.16586895 0.0504052 -0.3460842 -0.23658428 -0.26157537 -0.108069055
0.29666707 0.10643725 0.11946785 -0.15812992 0.10704341 -0.0052303 0.026741134 -0.018696217
-0.13714813 -0.00017882024 0.23931961 0.18693498 -0.09498889 0.13963112 0.081687525 -0.1767686
-0.23214701 -0.17808834 -0.036801826 0.116018444 -0.15887369 0.06153136 0.22428368 -0.04142023
0.16298215 0.09279125 -0.14774306 -0.14667533 0.2800564 -0.3011316 -0.04270725 -0.12851742
0.15258121 -0.11896951 -0.24749167 0.08984803 -0.08946568 -0.22583678 -0.01610516 -0.0037697118
-0.37663668 -0.08050681 -0.029323554 0.21117039 0.3516449 -0.06062388 -0.10375381 0.18680893
-0.39629284 0.100563616 0.084427804 0.10491387 0.50614774 0.16541193 0.23981862 0.29006884
0.034961782 -0.24611251 -0.41333947 0.1114904 -0.26731905 -0.15852869 -0.39910084 -0.23412558
0.38734353 0.1241587 -0.08703292 0.03416658 -0.084149025 -0.0103789745 0.2618143 -0.1369391
0.24323297 -0.112453856 0.27379122 0.061243556 -0.10963718 0.35186535 0.12635079 -0.08180301
-0.27808434 -0.32098636 -0.29661545 0.13864386 0.11535213 -1.1130016 0.2905517 0.07357924
0.15433463 -0.21095437 0.16724615 0.12216431 0.4363111 0.20523253 0.01898838 0.13857149
-0.184545 -0.4167218 -0.020194229 -0.32986706 0.035837736 -0.073078044 0.15369399 0.08007643
0.060170256 -0.13292833 -0.062768616 -0.15836674 0.13431257 0.16141713 0.31404424 -0.21337958
0.12158655 -0.0020593242 -0.07141248 0.038349014 -0.832621 -0.22551942 -0.10238937 0.18107837
-0.18222912 -0.2545351 -0.3987493 0.22665969 -0.13844146 0.10974327 -0.13251951 0.22264063
0.023215378 -0.21480337 -0.17076956 0.1390304 0.11086301 0.073496245 -0.55385846 0.28303415
0.3091609 -0.12586047 -0.40209004 -0.10206949 -0.03786815 0.1072688 0.0891145 0.26815116
0.26339787 -0.17843206 0.17455117 -0.15520881 -0.12928808 -0.06428363 -0.1688979 -0.086174175
-0.19779499 -0.07439141 0.06927322 0.18533769 -0.36308587 -0.005935903 0.1880169 0.150837
0.3209245 -0.26718816 -0.12415382 0.24571373 0.15876822 0.12125229 0.41513592 -0.23601495
0.16731374 0.12148213 0.011983071 0.03329596 -0.107772715 -0.24551164 0.0054853302 0.3199274
-0.19797643 0.11740012 -0.20924388 -0.29040274 -0.1255336 -0.01652732 0.41305646 0.03708924
0.15709883 -0.140058 0.1330979 -0.35523444 -0.0666519 -0.27119055 -0.026263332 -0.67442137
-0.3879033 0.28887722 -0.22244619 -0.052343845 0.13414192 -0.03708538 0.00937271 0.15871881
-0.1543622 0.24319582 0.15825006 0.47386396 -0.16763467 -0.25115263 -0.33228126 -0.21651188
-0.0675171 0.20192562 0.13573341 0.2333288 -0.118519925 0.2634814 0.32248142 0.3937443
-0.11714746 -0.08453077 0.014954166 -0.36926287 0.1365345 -0.21242154 0.043330442 0.06460984
00000000: f524 27bd dba0 1a3e 8ee2 cf3d 85cb 91be
00000010: 3d7c a23d d14c 2fbc 9eba 923d fa97 c63d
00000020: 62a9 febe 6fc9 ca3c 8359 2bbd 0adc fc3d
00000030: 8dcc d7bc 813b 4cbe 8e10 75be f4fa 003e
00000040: a69f 0dbe 1506 073a e0de 523e 13dc 3a3e
00000050: 268e d7be b7e1 c83d 1275 44bd 17a6 a9bc
00000060: 9a31 473d 115d a9bd 8dd9 293e af75 4e3d
00000070: f331 b1be 2643 72be 35ed 85be 4f53 ddbd
00000080: bfe4 973e c6fb d93d 8fab f43d cfec 21be
00000090: 9339 db3d f062 abbb 3910 db3c cf28 99bc
000000a0: 8f70 0cbe b181 3bb9 3310 753e e26b 3f3e
000000b0: 8989 c2bd 76fb 0e3e ca4b a73d d402 35be
000000c0: f2b7 6dbe ca5c 36be 83bd 16bd 149b ed3d
000000d0: c9af 22be 4f08 7c3d 9faa 653e 42a8 29bd
000000e0: cbe4 263e 5709 be3d f549 17be 0f32 16be
000000f0: 8d63 8f3e ec2d 9abe cced 2ebd 129a 03be
00000100: 403e 1c3e 49a6 f3bd 756e 7dbe 3e02 b83d
00000110: c839 b7bd c241 67be f8ee 83bc 450d 77bb
00000120: 86d6 c0be c1e0 a4bd f337 f0bc 0d3d 583e
00000130: cd0a b43e bf50 78bd e17c d4bd d74a 3f3e
00000140: e5e6 cabe 4cf4 cd3d 7ce8 ac3d 15dd d63d
00000150: e692 013f bf61 293e 0393 753e e783 943e
00000160: 1634 0f3d eb04 7cbe 3ba1 d3be 1455 e43d
00000170: 0bde 88be 5855 22be f256 ccbe 9ebe 6fbe
00000180: e451 c63e eb46 fe3d 513e b2bd 41f2 0b3d
00000190: 5356 acbd 930c 2abc 860c 863e c339 0cbe
000001a0: 1012 793e 354e e6bd 5d2e 8c3e 86da 7a3d
000001b0: 7589 e0bd b227 b43e 1a62 013e 5688 a7bd
000001c0: 1261 8ebe 5358 a4be fbdd 97be a8f8 0d3e
000001d0: bd3d ec3d d676 8ebf 31c3 943e b6b0 963d
000001e0: e609 1e3e 6c04 58be 9342 2b3e 4831 fa3d
000001f0: 2b64 df3e 7a28 523e 858d 9b3c afe5 0d3e
00000200: 5df9 3cbe 8f5c d5be 5e6e a5bc 56e4 a8be
00000210: 97ca 123d f1a9 95bd f561 1d3e 1dff a33d
00000220: 1675 763d 5d1e 08be d58c 80bd e42a 22be
00000230: 3c89 093e 884a 253e 68ca a03e 2d80 5abe
00000240: 5e02 f93d baf5 06bb b540 92bd db13 1d3d
00000250: a626 55bf 90ee 66be 85b1 d1bd 9c6c 393e
00000260: 459a 3abe 6d52 82be de28 ccbe 7a19 683e
00000270: 99c3 0dbe 14c1 e03d 32b3 07be e8fb 633e
00000280: 2d2e be3c 6af5 5bbe 37de 2ebe fc5d 0e3e
00000290: 250c e33d 3385 963d abc9 0dbf dae9 903e
000002a0: 564a 9e3e 91e1 00be bfde cdbe cf09 d1bd
000002b0: a21b 1bbd bfaf db3d aa81 b63d 1c4b 893e
000002c0: 16dc 863e e5b6 36be 8bbd 323e 0fef 1ebe
000002d0: 1864 04be 23a7 83bd 92f3 2cbe 167c b0bd
000002e0: c58a 4abe 865a 98bd 1edf 8d3d 2ac9 3d3e
000002f0: 64e6 b9be f781 c2bb 8187 403e 0475 1a3e
00000300: 3750 a43e e3cc 88be 5c44 febd 619c 7b3e
00000310: 2394 223e 1f53 f83d b28c d43e e7ad 71be
00000320: 4b54 2b3e 9fcb f83d a554 443c 5861 083d
00000330: f1b7 dcbd 6767 7bbe 49be b33b 86cd a33e
00000340: 55ba 4abe 796f f03d 0744 56be abaf 94be
00000350: e18b 00be 4d64 87bc 237c d33e e3ea 173d
00000360: 84de 203e 5d6b 0fbe d14a 083e 4ae1 b5be
00000370: cb80 88bd 7dd9 8abe 3326 d7bc e1a6 2cbf
00000380: 439b c6be b7e7 933e efc8 63be 8066 56bd
00000390: 805c 093e d7e6 17bd ff8f 193c 2f87 223e
000003a0: 2011 1ebe 5308 793e 4e0c 223e 4c9e f23e
000003b0: 6ca8 2bbe 1497 80be c520 aabe 4ab5 5dbe
000003c0: 6846 8abd 97c5 4e3e b3fd 0a3e bfed 6e3e
000003d0: 93ba f2bd 09e7 863e 491c a53e da98 c93e
000003e0: 02eb efbd 781e adbd 5102 753c 0610 bdbe
000003f0: b3cf 0b3e 0885 59be 437b 313d 2a52 843d

hiden_layers.4.bias f4 [64]
-0.1555682 -0.015536635 -0.08042513 -0.090553425 -0.05854982 0.05961215 0.033990804 -0.16110344
-0.1419384 0.16322961 0.22201797 -0.044298287 0.14297085 -0.016029112 0.06235005 -0.03039397
0.060048856 0.22459517 -0.12651768 -0.1766876 0.25847882 -0.103770316 -0.056185804 0.0032579927
0.1796832 -0.38290843 -0.23145491 -0.2092847 -0.034815706 -0.31586063 -0.27504757 0.0772666
-0.1774788 -0.027079294 -0.5461886 -0.42663816 -0.048655916 -0.21528472 -0.17788044 -0.22280404
-0.105739586 -0.17427586 -0.111953914 -0.04517882 0.22716762 0.17433031 0.12504438 0.20005779
-0.13349193 -0.23821574 0.14806618 -0.044553034 -0.24849017 0.07934314 0.025983194 -0.2740014
-0.44648612 -0.0062415926 0.08165426 0.371627 0.25496343 0.18959074 0.35108924 -0.18720703
00000000: 454d 1fbe 5f8d 7ebc eeb5 a4bd 1374 b9bd
00000010: f0d1 6fbd df2b 743d f139 0b3d 4df8 24be
00000020: 4d58 11be aa25 273e ae58 633e 1f72 35bd
00000030: f366 123e 7c4f 83bc c462 7f3d c6fc f8bc
00000040: caf5 753d 47fc 653e da8d 01be 98ed 34be
00000050: 5657 843e 8885 d4bd 1623 66bd 0c84 553b
00000060: dffe 373e 930c c4be 8402 6dbe ba4e 56be
00000070: ea9a 0ebd 7cb8 a1be 09d3 8cbe f43d 9e3d
00000080: 01bd 35be 65d5 ddbc 04d3 0bbf 5170 dabe
00000090: 6d4b 47bd 9973 5cbe 4a26 36be be26 64be
000000a0: ff8d d8bd 5f75 32be 1848 e5bd 6d0d 39bd
000000b0: a19e 683e a583 323e a20b 003e f3db 4c3e
000000c0: 1cb2 08be d4ee 73be a99e 173e 3e7d 36bd
000000d0: 3574 7ebe a87e a23d b5da d43c e949 8cbe
000000e0: d499 e4be 4686 ccbb 593a a73d e545 be3e
000000f0: 918a 823e 1324 423e f8c1 b33e 33b3 3fbe
