results/1_first_try/epoch2500/model_weights.pth (torch, 484214 bytes, 88 tensors)

init_layer.0.weight f4 [64, 3]
-0.12761956 -0.046039697 0.12535284 0.28447658 -0.021019315 0.0049890177 -0.12645042 -0.17191471
-0.0031446859 0.29629135 0.08314389 0.04052878 -0.0041718287 0.17990644 0.08313427 -0.14943905
-0.34900463 0.032125484 0.11637447 0.016378738 0.24499573 0.31468064 0.25009656 0.1519619
0.30426446 -0.32647932 0.013219853 -0.21416292 -0.14529055 0.18036073 -0.31456417 0.07467921
0.009621333 0.118187904 0.18598986 -0.05532187 -0.068794124 -0.09005129 0.007949706 -0.09440722
0.033353735 0.12481186 0.14239192 -0.24887595 -0.07165352 0.22337079 -0.19214939 -0.08902985
0.00028465793 0.026921187 0.11180392 0.3224372 0.17277518 -0.10713144 0.14875181 0.10988367
-0.1692738 -0.25684538 0.07994976 -0.124156944 0.20906097 -0.095264904 -0.03842647 0.33473414
0.025769273 -0.014317299 -0.047746133 -0.32961583 0.023931215 -0.100252196 0.14437218 -0.012964789
-0.03332506 -0.030301683 0.15973385 -0.09790287 0.2141003 -0.07346398 0.06880858 0.1769314
0.17711191 -0.20548573 -0.18530552 0.02870668 -0.0113998195 0.003790296 -0.13770005 0.11541029
-0.34029588 0.039341334 -0.37968096 -0.10828706 -0.052650917 -0.11923508 -0.004553405 0.07104374
-0.102024205 0.22335698 0.17499125 -0.31678328 0.3031808 -0.035510223 0.081571214 -0.10166014
0.02810828 -0.10771839 -0.17386958 -0.12629114 -0.096441105 0.06587929 0.06900871 -0.21142474
-0.031242639 0.021843636 0.18596813 -0.18696782 -0.001586222 -0.34286216 0.17758879 0.12464999
0.048711352 -0.0023556335 -0.2024798 -0.10394407 0.0739486 -0.16404347 0.03776685 -0.097330146
0.1458333 0.058383245 -0.04665326 0.10637826 0.14566992 -0.19195966 -0.08499404 -0.3914207
-0.16605629 0.078502916 -0.06405811 -0.1305926 0.06127577 0.03765168 0.30997074 0.0079638185
0.15182893 0.32653093 0.017424129 0.15354165 -0.23558334 0.16229914 -0.14783593 -0.23938458
-0.024656609 -0.40337577 -0.105755724 -0.07018311 0.35465905 -0.2640736 0.024838503 -0.12580828
-0.18813154 0.024277408 0.17726079 -0.20920321 -0.12217023 0.23058629 0.044893406 0.014914288
0.19274993 0.08802276 0.09709723 0.05358111 -0.006413584 -0.12456002 0.09252703 0.38103983
0.006204149 0.09495152 0.13232028 -0.09210195 -0.21364653 -0.17693104 -0.02778896 -0.18586692
0.011771844 -0.01310245 0.36596483 -0.06479579 0.01110485 0.35381383 0.015385372 0.082072854
00000000: b4ae 02be 1f94 3cbd 7f5c 003e eaa6 913e
00000010: b330 acbc ea7a a33b 387c 01be 690a 30be
00000020: 1317 4ebb 80b3 973e 5847 aa3d 8201 263d
00000030: d6b3 88bb 6539 383e 4d42 aa3d 8d06 19be
00000040: bcb0 b2be 0396 033d bd55 ee3d b42c 863c
00000050: 29e0 7a3e d21d a13e a80c 803e e69b 1b3e
00000060: 8dc8 9b3e 4c28 a7be 1598 583c 864d 5bbe
00000070: 0cc7 14be 7cb0 383e 8e0e a1be 6af1 983d
00000080: cca2 1d3c 800c f23d 2074 3e3e 2f99 62bd
00000090: efe3 8cbd d06c b8bd 7c3f 023c 9358 c1bd
000000a0: ed9d 083d 5c9d ff3d 30cf 113e 56d9 7ebe
000000b0: 15bf 92bd 50bb 643e cfc2 44be 4855 b6bd
000000c0: 243e 9539 d289 dc3c 74f9 e43d 7d16 a53e
000000d0: faeb 303e ba67 dbbd 6552 183e b10a e13d
000000e0: 1c56 2dbe 3d81 83be b3bc a33d ff45 febd
000000f0: 1414 563e 3f1a c3bd 1365 1dbd 4662 ab3e
00000100: 151a d33c 1b93 6abc 7391 43bd 68c3 a8be
00000110: 650b c43c 0651 cdbd 4dd6 133e 446a 54bc
00000120: dc7f 08bd 3c3b f8bc 4591 233e 4d81 c8bd
00000130: 1c3d 5b3e 4874 96bd 83eb 8c3d 812d 353e
00000140: d35c 353e da6a 52be bbc0 3dbe 452a eb3c
00000150: 4fc6 3abc 9d66 783b 3e01 0dbe 3b5c ec3d
00000160: 433b aebe 6124 213d 8b65 c2be 9bc5 ddbd
00000170: 7da8 57bd 8631 f4bd bb34 95bb 617f 913d
00000180: 11f2 d0bd b1b7 643e e830 333e 6b31 a2be
00000190: 843a 9b3e 2b73 11bd cf0e a73d 3133 d0bd
000001a0: 5643 e63c 769b dcbd de0a 32be 7752 01be
000001b0: ea82 c5bd b9eb 863d 7054 8d3d ba7f 58be
000001c0: 90f0 ffbc 6df1 b23c 6e6e 3e3e 7e74 3fbe
000001d0: c7e8 cfba a18b afbe d6d9 353e 7e48 ff3d
000001e0: 8e85 473d f960 1abb dd56 4fbe a1e0 d4bd
000001f0: 5d72 973d 03fb 27be 6ab1 1a3d 0755 c7bd
00000200: 5355 153e 4523 6f3d 7d17 3fbd d8dc d93d
00000210: 7f2a 153e 1391 44be 5b11 aebd 4b68 c8be
00000220: a90a 2abe 23c6 a03d e630 83bd 11ba 05be
00000230: 4dfc 7a3d a638 1a3d 7cb4 9e3e ad7a 023c
00000240: 0b79 1b3e 102f a73e 0cbd 8e3c 063a 1d3e
00000250: c23c 71be bf31 263e 4d62 17be 3b21 75be
00000260: a8fc c9bc 4587 cebe 7596 d8bd 2abc 8fbd
00000270: df95 b53e a834 87be 1e7a cb3c e3d3 00be
00000280: 8ea5 40be 6ae1 c63c da83 353e 5e39 56be
00000290: 6334 fabd d01e 6c3e 26e2 373d 0f5b 743c
000002a0: 3d60 453e 4745 b43d eada c63d de77 5b3d
000002b0: 0b29 d2bb 5319 ffbd d07e bd3d a717 c33e
000002c0: 2d4c cb3b f175 c23d f87e 073e f29f bcbd
000002d0: 28c6 5abe 692d 35be aca5 e3bc e653 3ebe
000002e0: b1de 403c a9ab 56bc be5f bb3e a8b3 84bd
000002f0: 1ef1 353c 1627 b53e ed12 7c3c d015 a83d

init_layer.0.bias f4 [64]
0.062279675 0.1741623 -0.10596669 0.15264045 0.03390176 -0.0806693 -0.11045726 0.16393675
0.089133956 -0.16020331 -0.1354432 0.07730362 -0.05182462 -0.09072094 0.06668401 0.121116124
0.012287567 0.17368096 0.14380373 -0.13406046 0.12985347 0.15979528 -0.057628825 -0.11608475
0.107105516 -0.09414168 0.13264982 -0.102002196 -0.05060245 0.08723647 -0.16489324 -0.123750664
-0.109925054 -0.12988125 0.11071602 -0.13425557 -0.06431379 -0.13270731 0.105734654 -0.15632096
-0.0688059 -0.12530121 -0.07698766 0.07532571 0.13164453 -0.15054366 -0.10224714 -0.057158817
0.022303265 0.11241207 -0.13887936 -0.16244052 0.14192683 -0.0759427 0.14184836 0.16260463
0.13481556 -0.110775575 0.04616923 0.02671783 -0.15808971 -0.1303232 0.16164821 0.14060217
00000000: f918 7f3d 9a57 323e 1005 d9bd c74d 1c3e
00000010: 92dc 0a3d f235 a5bd 6a37 e2bd 09df 273e
00000020: dd8b b63d 560c 24be 9fb1 0abe 5c51 9e3d
00000030: 0e46 54bd e6cb b9bd a091 883d bb0b f83d
00000040: cb51 493c 6cd9 313e 4941 133e 2547 09be
00000050: 4ff8 043e 60a1 233e 340c 6cbd d7bd edbd
00000060: 235a db3d 5acd c0bd 5bd5 073e 87e6 d0bd
00000070: 8444 4fbd 09a9 b23d c6d9 28be fd70 fdbd
00000080: 6320 e1bd 97ff 04be 15bf e23d 4b7a 09be
00000090: f3b6 83bd 6de4 07be 698b d83d 9a12 20be
000000a0: 1cea 8cbd f64e 00be b5ab 9dbd 5e44 9a3d
000000b0: d3cd 063e 1e28 1abe f366 d1bd 5d1f 6abd
000000c0: 56b5 b63c 4d38 e63d 6436 0ebe cf56 26be
000000d0: 4455 113e d987 9bbd b240 113e d481 263e
000000e0: 170d 0a3e 4ede e2bd f21b 3d3d 5adf da3c
000000f0: 45e2 21be 7273 05be 1c87 253e 04fa 0f3e

hiden_layers.0.weight f4 [64, 64]
-0.16368566 0.08814637 0.10706899 0.19470629 -0.17065264 0.044482708 0.045358308 -0.075594775
0.009768243 -0.083619826 -0.031495716 0.17397456 0.0039770408 0.15637873 0.17179967 -0.14335665
-0.03463793 -0.0857019 0.029343357 -0.20516142 0.037133817 0.19219887 0.013074611 -0.33486366
0.1873405 -0.03155284 -0.059995532 -0.152488 -0.1282863 0.018372046 -0.3409242 -0.0816517
-0.107573815 -0.09965458 0.14311975 -0.04993958 -0.005265178 -0.10950628 0.22140649 0.045161173
0.090355545 -0.14055018 0.07015949 -0.04694667 -0.0024172796 -0.038699146 -0.02341771 -0.17005931
0.2122746 -0.09725758 -0.18235885 -0.075731695 0.099270925 -0.042052355 0.22109258 0.29858077
-0.09290416 -0.1483576 -0.10318212 0.08732714 -0.0059789564 -0.30881184 0.1562275 -0.056816872
-0.11554666 0.020053266 -0.29240063 0.40825436 -0.13731283 -0.09657242 0.17291375 0.0028559207
0.12300771 -0.27222097 0.05482957 -0.06801865 -0.15256675 -0.055192433 0.112851135 0.26090953
-0.018538713 0.326525 0.12191595 -0.13648087 0.15623797 0.040711768 0.089609094 -0.1170195
-0.07673846 -0.1171447 0.29272395 0.049006373 0.09324111 0.20655851 -0.41808262 -0.2694005
-0.056991838 -0.1144802 0.15584724 0.057148132 0.056521777 -0.2828852 -0.004454029 0.014862053
-0.01555756 -0.096536435 -0.20372184 0.0311101 0.20034724 -0.36248183 0.14370511 -0.07833358
0.022054745 -0.059559762 -0.15469915 -0.34159943 0.26096255 -0.26125398 0.24942888 0.34773853
-0.052398585 -0.05462139 -0.1290297 -0.087549254 0.11343406 -0.16292524 0.40140277 0.10533748
0.05979086 -0.13440296 0.29954785 -0.10092937 -0.31082737 0.035400998 -0.015932722 -0.3289094
0.0430021 0.01431613 0.027910272 0.09315811 0.17820294 -0.20496152 0.26975504 -0.13479784
-0.1347592 -0.2773813 0.044051845 0.052189417 -0.051245295 -0.24848944 -0.09816446 0.026465062
-0.06656907 -0.123241365 -0.18408602 0.2406294 0.027638532 -0.15285105 0.36422443 0.22932766
-0.21026254 -0.043717064 0.15640776 0.40434954 -0.083553776 -0.03601974 -0.034934197 0.063544
-0.12492287 0.08223491 0.19872089 0.13389109 0.18596236 0.086922474 0.13638066 -0.0056205327
-0.026031258 0.013714359 0.18718913 0.098968364 -0.012113064 -0.021159053 -0.11018077 -0.09321158
-0.3601161 0.31991005 -0.2153029 -0.15784127 0.40083817 -0.029613506 -0.2887817 0.039406113
0.15898484 -0.25617173 0.041381933 -0.16578498 0.12940599 0.1528104 -0.024489634 -0.1572672
-0.27341542 -0.055344135 0.16957574 -0.014366652 -0.043823484 -0.011223401 -0.07971352 -0.24204125
-0.048848134 0.03713343 0.025778953 -0.021007529 0.015796458 -0.26881337 -0.1815751 -0.00041476157
0.18689375 0.098735176 -0.041651748 -0.0013179351 -0.058130074 -0.22773732 -0.050324067 0.13085951
-0.041584432 0.17902163 -0.22308157 0.02903381 0.02673663 -0.053643826 0.00046179016 0.07492594
-0.20594256 0.03683822 0.089891516 0.13971095 -0.09056707 0.15253985 0.11219752 0.032061026
0.060282942 -0.13323948 0.19463608 0.009394397 -0.30325213 0.18682225 0.06862771 0.012951914
-0.22962384 -0.043531667 -0.12412414 0.079002224 -0.0840519 0.12230965 -0.19852993 -0.1447351
00000000: 379d 27be 1686 b43d fd46 db3d 1661 473e
00000010: 91bf 2ebe 8033 363d a2c9 393d 6fd1 9abd
00000020: fb0a 203c df40 abbd a701 01bd 6326 323e
00000030: d651 823b bf21 203e 41ec 2f3e 16cc 12be
00000040: 81e0 0dbd 7a84 afbd 7b61 f03c d615 52be
00000050: a119 183d c8cf 443e e536 563c 4073 abbe
00000060: 30d6 3f3e 8d3d 01bd e0bd 75bd d025 1cbe
00000070: 7c5d 03be f980 963c 9e8d aebe 0239 a7bd
00000080: a94f dcbd b317 ccbd fc8d 123e 728d 4cbd
00000090: 8487 acbb d444 e0bd 62b8 623e ecfa 383d
000000a0: 540c b93d 63ec 0fbe c7af 8f3d 274b 40bd
000000b0: 396b 1ebb ff82 1ebd 7fd6 bfbc 0724 2ebe
000000c0: 835e 593e fb2e c7bd 47bc 3abe 3819 9bbd
000000d0: 8e4e cb3d 173f 2cbd 1866 623e 94df 983e
000000e0: 8944 bebd 0eeb 17be 2651 d3bd 92d8 b23d
000000f0: 1feb c3bb 961c 9ebe 1afa 1f3e cfb8 68bd
00000100: baa3 ecbd bf46 a43c 89b5 95be b706 d13e
00000110: bc9b 0cbe c3c7 c5bd 4d10 313e 662a 3b3b
00000120: 77eb fb3d 8c60 8bbe f994 603d 5d4d 8bbd
00000130: 753a 1cbe 7611 62bd 7f1e e73d ef95 853e
00000140: 80de 97bc 492e a73e 12af f93d a4c1 0bbe
00000150: d9fc 1f3e 62c1 263d f984 b73d eba7 efbd
00000160: 0e29 9dbd 8fe9 efbd eadf 953e e8ba 483d
00000170: 32f5 be3d 1384 533e ed0e d6be ddee 89be
00000180: 4670 69bd 9874 eabd 6b96 1f3e 2914 6a3d
00000190: 6183 673d 54d6 90be 1af3 91bb f87f 733c
000001a0: 23e5 7ebc e5b4 c5bd 759c 50be 9cda fe3c
000001b0: d427 4d3e 3897 b9be 6f27 133e 5b6d a0bd
000001c0: 27ac b43c f0f4 73bd 7469 1ebe 1fe6 aebe
000001d0: e29c 853e 15c3 85be 496a 7f3e c90a b23e
000001e0: e69f 56bd aeba 5fbd 5d20 04be 064d b3bd
000001f0: 1e50 e83d e0d5 26be aa84 cd3e 2dbb d73d
00000200: 43e7 743d eea0 09be 565e 993e 0fb4 cebd
00000210: c424 9fbe a300 113d 5785 82bc d066 a8be
00000220: f822 303d 348e 6a3c 15a4 e43c aec9 be3d
00000230: d57a 363e 6fe1 51be 551d 8a3e 7208 0abe
00000240: 51fe 09be ec04 8ebe b56f 343d 92c4 553d
00000250: 96e6 51bd 0474 7ebe 730a c9bd 42cd d83c
00000260: 5d55 88bd f865 fcbd 0c81 3cbe 8e67 763e
00000270: 346a e23c fc84 1cbe a07b ba3e dfd4 6a3e
00000280: 104f 57be aa10 33bd 5b29 203e e706 cf3e
00000290: 3e1e abbd 6f89 13bd 2917 0fbd 5b23 823d
000002a0: 90d7 ffbd c76a a83d 7d7d 4b3e bf1a 093e
000002b0: eb6c 3e3e 6904 b23d 5fa7 0b3e 722c b8bb
000002c0: 813f d5bc 31b2 603c 82ae 3f3e edaf ca3d
000002d0: df75 46bc c055 adbc 75a6 e1bd b6e5 bebd
000002e0: 2361 b8be 40cb a33e 5d78 5cbe 24a1 21be
000002f0: a93a cd3e 0698 f2bc 32db 93be 4e68 213d
00000300: eccc 223e f128 83be 1a80 293d 8ac3 29be
00000310: 0183 043e 547a 1c3e 7c9e c8bc a70a 21be
00000320: 1bfd 8bbe 88b0 62bd 43a5 2d3e 1b62 6bbc
00000330: 4180 33bd 5be2 37bc d840 a3bd a9d9 77be
00000340: fb14 48bd 3919 183d 622e d33c fb17 acbc
00000350: 9367 813c e8a1 89be d3ee 39be 5b74 d9b9
00000360: 1361 3f3e ab35 ca3d 069b 2abd 90be acba
00000370: cd19 6ebd f933 69be 9c20 4ebd 0900 063e
00000380: 7054 2abd 7251 373e 7f6f 64be 50d8 ed3c
00000390: c706 db3c a1b9 5bbd 6d1c f239 c572 993d
000003a0: 9be2 52be ace3 163d 0b19 b83d 6310 0f3e
000003b0: 3a7b b9bd 6833 1c3e d0c7 e53d 6c52 033d
000003c0: 3feb 763d ee6f 08be ae4e 473e f5ea 193c
000003d0: dd43 9bbe 554e 3f3e af8c 8c3d 4434 543c
000003e0: 8322 6bbe 434e 32bd cc34 febd ebcb a13d
000003f0: 6723 acbd 7b7d fa3d 6e4b 4bbe 7035 14be

hiden_layers.0.bias f4 [64]
0.13106015 0.08717622 -0.17457105 -0.08828262 0.10477262 0.10759406 0.17036998 -0.119231254
-0.16901198 -0.13361283 -0.15489115 0.099930875 0.16840367 -0.118003 0.111354165 -0.19376989
-0.15144473 -0.0792803 0.11182608 0.0233422 0.03233438 0.099352136 -0.06929461 -0.08518654
-0.029435514 0.046628464 0.07099218 -0.08464818 0.10588275 0.11648467 0.12464357 -0.095778406
-0.008773251 -0.09486518 -0.09586937 0.060486518 -0.0316108 0.09711787 0.0893652 -0.05173058
-0.16361772 0.1188287 -0.10317472 -0.0007720182 -0.08053181 0.020235797 -0.10800512 0.0063525685
0.06342131 -0.061951395 0.10700028 -0.094894245 0.15135159 -0.111959614 0.113730356 0.16368161
-0.10125649 0.15912168 0.05115596 0.07736239 0.115355246 0.013200398 -0.039293885 -0.15150012
00000000: a234 063e 7289 b23d c1c2 32be 85cd b4bd
00000010: 0793 d63d 465a dc3d 7875 2e3e 842f f4bd
00000020: 7a11 2dbe cdd1 08be c99b 1ebe 8fa8 cc3d
00000030: 0372 2c3e 8fab f1bd a70d e43d 9d6b 46be
00000040: 5414 1bbe b65d a2bd 1205 e53d 2438 bf3c
00000050: 0e71 043d 2279 cb3d 55ea 8dbd 4876 aebd
00000060: bf22 f1bc 7dfd 3e3d 5964 913d 065c adbd
00000070: 0ed9 d83d 848f ee3d 2145 ff3d 7827 c4bd
00000080: afbd 0fbc ad48 c2bd 2957 c4bd b6c0 773d
00000090: 547a 01bd bce5 c63d 1a05 b73d 72e3 53bd
000000a0: 678b 27be 765c f33d 454d d3bd 4461 4aba
000000b0: dded a4bd 8bc5 a53c ca31 ddbd 3529 d03b
000000c0: 08e3 813d bfc0 7dbd f622 db3d ea57 c2bd
000000d0: e9fb 1a3e 154b e5bd 76eb e83d 279c 273e
000000e0: 905f cfbd cbf0 223e e988 513d 2c70 9e3d
000000f0: 5f3f ec3d 7b46 583c a0f2 20bd d922 1bbe

hiden_layers.1.weight f4 [64, 64]
-0.10663635 -0.10518066 -0.36791766 0.18252937 -0.57534325 0.109607995 -0.017057654 -0.21242
0.08227963 0.10690945 0.030046921 -0.25437766 0.11887955 -0.02334534 -0.05059529 -0.23108253
-0.08127752 0.36166805 -0.07480933 0.14119883 0.1221872 -0.06384245 0.03394664 -0.04133106
-0.13494334 -0.17608611 0.045697544 0.2971912 -0.18389693 -0.36419404 -0.30694935 0.024973283
-0.34385058 0.33483994 -0.2535535 -0.4031935 -0.15436801 -0.07214563 -0.044516496 0.09711224
0.0748866 0.30311164 -0.09817509 0.26461723 0.42617735 -0.14340498 0.035140328 -0.1090833
0.08992743 -0.2910534 0.020974668 0.24688372 -0.1881154 0.1932745 -0.04501029 -0.18966575
0.14762938 -0.14217997 -0.36608616 0.16526763 0.16300026 -0.14370014 -0.06237933 -0.24368832
0.04913214 -0.02276922 -0.16658378 0.10177586 -0.108117454 -0.02249074 -0.24827774 0.011584046
0.22988328 -0.09447818 0.22127025 0.09839593 0.05015825 -0.042971205 0.17307462 0.09455942
0.14643104 -0.06864125 0.1050175 0.094244316 0.05666549 0.22673188 -0.1839719 0.098066926
0.18561414 0.22650474 0.20696357 -0.048175 -0.13446039 0.072413005 -0.0311999 0.15238601
0.19142911 0.16741739 -0.20302053 -0.16160525 -0.3362464 -0.0654188 -0.026742607 -0.20849945
-0.16539599 -0.2707114 -0.08513742 -0.17163886 0.031125616 -0.046556257 -0.06995459 -0.4717033
0.24207403 0.0708025 -0.17947403 0.0453397 0.0411986 -0.043389734 -0.102642536 -0.05856598
-0.008928202 0.14539744 -0.23178963 0.11243354 -0.023059532 -0.06313589 -0.089551955 0.24075335
0.0794973 0.31370655 0.053011023 0.068264686 0.4738924 0.25127563 -0.11965025 0.26700744
0.022830633 -0.15208176 -0.2693696 0.11223866 0.041220464 0.0488803 0.17601882 0.32799402
-0.08279054 -0.11333092 0.15622637 0.10368767 0.10990697 -0.23865464 -0.21192816 -0.25399953
-0.056470342 0.1179905 -0.071050815 -0.19329935 0.3682781 0.48113015 0.40772533 0.28412837
0.2661041 -0.259955 -0.11790461 -0.05722512 -0.043717537 -0.1036172 0.031412307 -0.09283734
-0.16507912 -0.21671093 -0.27564523 -0.11753384 -0.28884748 0.12061898 -0.1761885 0.0892709
0.014246253 0.3078121 0.13234 -0.22629726 0.061238855 -0.34343544 0.14881553 -0.04322767
-0.2721979 0.2534217 -0.13489714 0.13772108 -0.08017568 0.063259035 -0.108016886 0.05809283
0.15143281 0.06424157 -0.14614774 0.13675357 0.5534251 -0.23500569 -0.017410062 -0.14491872
-0.0454841 -0.04866091 -0.12919776 0.3714996 0.28298312 0.19553305 -0.124706 0.13759406
-0.040574927 -0.1210994 0.07158353 0.18559773 0.03774478 -0.26746613 0.14421535 0.10941151
0.07912551 0.0077029387 -0.1225257 -0.092368916 0.40155885 0.36425474 0.21172181 0.20412058
0.23502946 -0.11166681 -0.14958486 0.092254505 0.09006804 0.17881677 0.05814121 0.22451827
-0.022817353 -0.024239289 0.10569967 0.1541392 -0.19633488 -0.17710087 -0.25070006 -0.08307157
-0.004351408 0.14596097 -0.02923041 0.110152975 0.2393967 -0.04955875 -0.12813924 0.008232469
-0.11773472 -0.16634335 0.21890146 -0.029833807 -0.12249283 0.23338807 0.07009264 -0.20319265
00000000: 2964 dabd f568 d7bd b45f bcbe fbe8 3a3e
00000010: b249 13bf 287a e03d 7ebc 8bbc a184 59be
00000020: 3982 a83d 57f3 da3d f624 f63c ca3d 82be
00000030: 1f77 f33d ba3e bfbc 023d 4fbd e6a0 6cbe
00000040: d474 a6bd 8e2c b93e a235 99bd 6d96 103e
00000050: 483d fa3d d5bf 82bd a20b 0b3d c24a 29bd
00000060: 962e 0abe eb4f 34be 592d 3b3d 7229 983e
00000070: 7a4f 3cbe a477 babe 7728 9dbe c594 cc3c
00000080: 2f0d b0be 2470 ab3e c4d1 81be 616f cebe
00000090: a612 1ebe 17c1 93bd ee56 36bd c8e2 c63d
000000a0: 255e 993d 7331 9b3e 0610 c9bd e97b 873e
000000b0: eb33 da3e c1d8 12be 4eef 0f3d 1167 dfbd
000000c0: df2b b83d f404 95be 11d3 ab3c 16cf 7c3e
000000d0: 53a1 40be c0e9 453e b65c 38bd bd37 42be
000000e0: 282c 173e a097 11be a56f bbbe eb3b 293e
000000f0: 8ae9 263e 2126 13be 7881 7fbd 6e89 79be
00000100: c83e 493d 8486 babc f094 2abe dd6f d03d
00000110: af6c ddbd 803e b8bc 853c 7ebe 03cb 3d3c
00000120: 8666 6b3e c77d c1bd ab94 623e ce83 c93d
00000130: bd72 4d3d 9302 30bd 793a 313e 5fa8 c13d
00000140: 05f2 153e c993 8cbd 6a13 d73d 2a03 c13d
00000150: 131a 683d 672c 683e 2163 3cbe 50d7 c83d
00000160: a211 3e3e dcf0 673e 42ee 533e 2653 45bd
00000170: fcaf 09be 454d 943d ef96 ffbc 140b 1c3e
00000180: fe05 443e 776f 2b3e 9de4 4fbe d97b 25be
00000190: 7d28 acbe 4bfa 85bd 5013 dbbc e180 55be
000001a0: 915d 29be af9a 8abe 875c aebd 19c2 2fbe
000001b0: 26fb fe3c c6b1 3ebd 5a44 8fbd 1883 f1be
000001c0: 41e2 773e e700 913d 0ac8 37be 1fb6 393d
000001d0: ddbf 283d 6fb9 31bd 4036 d2bd e2e2 6fbd
000001e0: 9847 12bc 11e3 143e 435a 6dbe 8e43 e63d
000001f0: 58e7 bcbc 644d 81bd 0467 b7bd 0c88 763e
00000200: 7bcf a23d 259e a03e 1622 593d 5bce 8b3d
00000210: 06a2 f23e 33a7 803e 310b f5bd 33b5 883e
00000220: 4f07 bb3c 52bb 1bbe d0ea 89be 62dd e53d
00000230: cad6 283d b636 483d 473e 343e d5ee a73e
00000240: 168e a9bd 0b1a e8bd cef9 1f3e 335a d43d
00000250: e816 e13d e261 74be b203 59be 3a0c 82be
00000260: 724d 67bd 01a5 f13d 1783 91bd 44f0 45be
00000270: f28e bc3e b156 f63e 60c1 d03e 4679 913e
00000280: cc3e 883e d218 85be f977 f1bd e364 6abd
00000290: 2911 33bd 4135 d4bd 31aa 003d 8121 bebd
000002a0: 800a 29be 78e9 5dbe 5f21 8dbe 95b5 f0bd
000002b0: d1e3 93be 1507 f73d c26a 34be a9d3 b63d
000002c0: 1e69 693c 8c99 9d3e 2384 073e 78ba 67be
000002d0: 98d5 7a3d c5d6 afbe 1963 183e 7f0f 31bd
000002e0: 865d 8bbe 7dc0 813e 7a22 0abe c106 0d3e
000002f0: 2633 a4bd f48d 813d f537 ddbd bff2 6d3d
00000300: 3411 1b3e 1691 833d c1a7 15be 2109 0c3e
00000310: 44ad 0d3f 55a5 70be 8c9f 8ebc 9365 14be
00000320: 894d 3abd aa50 47bd 6b4c 04be 3235 be3e
00000330: 2ae3 903e d139 483e dc65 ffbd 75e5 0c3e
00000340: e531 26bd f602 f8bd 639a 923d 550d 3e3e
00000350: 459a 1a3d 52f1 88be 30ad 133e 2413 e03d
00000360: 8e0c a23d ef68 fc3b c1ee fabd ea2b bdbd
00000370: 1f99 cd3e 997f ba3e 9acd 583e fc04 513e
00000380: 90ab 703e 92b1 e4bd c62c 19be eeef bc3d
00000390: 9875 b83d be1b 373e 7a25 6e3d 1ee8 653e
000003a0: 75eb babc 7991 c6bc 1279 d83d abd6 1d3e
000003b0: 030c 49be ee59 35be c25b 80be 6d21 aabd
000003c0: 4296 8ebb cb76 153e 9d74 efbc e297 e13d
000003d0: 6924 753e 1efe 4abd ef36 03be 7ae1 063c
000003e0: e71e f1bd e955 2abe b427 603e 0766 f4bc
000003f0: 85dd fabd 48fd 6e3e bb8c 8f3d bc11 50be

hiden_layers.1.bias f4 [64]
-0.04170708 0.040825553 0.21370773 0.06299455 0.05998655 0.06538073 -0.025649937 0.14033921
0.15455958 -0.02586849 -0.041721296 -0.1472445 0.05549037 0.054690726 0.15808196 -0.06266662
-0.0028501605 -0.058851924 0.03347705 -0.18457592 0.06497324 -0.07279066 -0.14204992 0.06028088
0.04160465 0.04686246 0.06932359 -0.0086296145 -0.08039288 -0.025864335 0.07233973 -0.0034972213
-0.06799862 0.085764244 -0.08962509 -0.0432674 -0.06313392 0.114726685 -0.10558008 0.110431425
0.07696439 -0.07182252 -0.18585478 0.17439654 -0.02101375 0.04327306 -0.078513704 0.11460859
-0.13527758 0.109238505 0.09416248 0.04515113 -0.044285018 -0.06134286 0.021213673 -0.21981828
0.03694226 -0.11925264 -0.009720278 -0.013186319 -0.18392126 -0.025911203 0.07394051 0.052031137
00000000: 0bd5 2abd b238 273d 33d6 5a3e 4903 813d
00000010: 75b4 753d 55e6 853d d11f d2bc 15b5 0f3e
00000020: de44 1e3e 28ea d3bc f3e3 2abd 43c7 16be
00000030: df49 633d 6203 603d 3de0 213e 5b57 80bd
00000040: c2c9 3abb b70e 71bd 3b1f 093d 7801 3dbe
00000050: b110 853d 4513 95bd 8975 11be 16e9 763d
00000060: a369 2a3d daf2 3f3d 87f9 8d3d 3a63 0dbc
00000070: 06a5 a4bd 71e1 d3bc da26 943d a331 65bb
00000080: dc42 8bbd 2aa5 af3d 5c8d b7bd 2839 31bd
00000090: 5b4c 81bd d3f5 ea3d 5e3a d8bd df29 e23d
000000a0: 829f 9d3d af17 93bd b750 3ebe 0295 323e
000000b0: 0725 acbc 183f 313d cbcb a0bd e9b7 ea3d
000000c0: 3586 0abe 70b8 df3d 42d8 c03d 64f0 383d
000000d0: 3564 35bd a742 7bbd 4cc8 ad3c 0b18 61be
000000e0: c450 173d ba3a f4bd cd41 1fbc 6e0b 58bc
000000f0: db55 3cbe bb43 d4bc 1f6e 973d 9a1e 553d

hiden_layers.2.weight f4 [64, 64]
-0.12241548 0.15865235 0.023738233 0.028479662 -0.021040358 -0.11795713 -0.27184355 -0.27656412
-0.40861773 -0.05827435 0.06714843 -0.10015613 -0.05271831 0.12452334 -0.053257503 0.20557551
0.41579607 -0.021368591 -0.103254534 -0.23187171 0.19665134 0.15726751 -0.25569406 0.3683404
0.003816902 -0.21589936 -0.1813768 0.020252855 0.008475181 -0.14752626 0.21699075 -0.01589768
-0.18786882 0.10258593 -0.25676513 -0.22933622 0.27731055 0.13937531 0.0057750614 0.06963064
-0.11104712 0.21277578 -0.03652919 0.18302414 0.13075338 0.010235174 0.11075746 0.30221558
0.18023491 0.22224164 -0.16729459 -0.19949251 -0.12886763 0.07955653 0.1175177 0.2437492
-0.045146137 0.06948539 0.22086447 0.0020728544 -0.1236877 0.1541192 0.11976357 0.121235766
0.043673813 0.18044826 0.24760641 0.20469908 0.12244337 0.26829818 0.15198514 0.23668078
0.09835158 0.06619579 0.2224316 0.033056557 -0.03164222 -0.09858341 -0.06441425 0.13584043
0.12547281 -0.13874932 -0.18254404 -0.23351328 -0.0009974659 -0.21051617 -0.13483714 -0.050032094
0.11057454 0.21005166 0.16206834 0.14281525 -0.29981273 0.21573724 -0.07537864 -0.20365421
-0.077497624 0.16982646 -0.026309235 0.057538763 0.17237005 0.18616953 0.14536798 -0.048481833
0.11379663 -0.45589912 -0.06641554 0.018442959 0.17338449 -0.037345402 -0.27040923 0.17215566
-0.25333425 0.08544791 -0.044887576 -0.21045011 -0.2761152 0.018964224 -0.043577317 -0.08888261
0.3339602 -0.20253736 -0.269532 0.35443333 -0.045568176 0.22125633 0.21463557 -0.07383013
0.22411768 -0.22131583 -0.42059454 -0.15210882 0.13842195 0.11320328 0.17069116 -0.03502895
-0.17180133 0.36811835 -0.015287035 0.23842768 0.15614642 0.18040419 -0.17034718 0.19291134
0.012078927 -0.064143874 -0.034639698 -0.10149913 -0.24631676 0.06867706 0.2549345 -0.101005405
-0.11116721 -0.24285758 -0.05804782 -0.047433566 0.22792087 0.054870185 0.085763074 0.22250532
0.026416404 -0.14957392 0.05667169 -0.028716657 0.21354593 -0.1159266 -0.17885685 0.024397774
0.13667038 0.2537502 -0.12161441 -0.12096546 0.13519593 -0.004211002 0.07170151 0.06306763
0.5035478 -0.005413324 -0.38599283 0.24500802 -0.15951897 0.26189238 0.15143071 0.014639098
-0.20240533 0.16544029 -0.17940122 -0.09202557 0.016784482 0.2840083 0.013034224 0.13440505
0.15238912 -0.19125982 -0.267135 0.13264513 -0.23718369 -0.0724534 0.07329188 -0.3671727
-0.123626985 0.2808917 0.27539933 -0.20652422 0.16468911 -0.017384628 -0.17566842 0.13325238
0.07866127 -0.19352038 -0.33983213 -0.096062675 -0.2375293 -0.07034248 0.14075868 -0.11233969
-0.090250395 -0.19535354 0.011307442 0.043571904 -0.06641564 0.27388573 0.042823594 -0.18950118
-0.1653846 -0.31057394 0.28136474 0.24631904 -0.097658426 0.17084502 0.06639752 -0.15532327
0.1362557 -0.11779437 0.044479463 0.089547925 0.09255583 -0.17856987 0.0061738538 -0.0635025
0.3370378 0.053797618 0.05276221 -0.24425569 -0.04454713 -0.09180818 0.084083624 -0.0039328746
0.14518121 0.020650815 -0.047046613 0.31683442 0.08088335 -0.05661409 0.20952018 0.039328672
00000000: f8b4 fabd c375 223e af76 c23c 2e4e e93c
00000010: d45c acbc 8293 f1bd 142f 8bbe d099 8dbe
00000020: 5836 d1be 16b1 6ebd 1e85 893d a81e cdbd
00000030: 28ef 57bd 1806 ff3d 8a24 5abd 6382 523e
00000040: 39e3 d43e 2f0d afbc 1d77 d3bd c76f 6dbe
00000050: f85e 493e bc0a 213e 55ea 82be 1d97 bc3e
00000060: fd24 7a3b b914 5dbe d7ba 39be 51e9 a53c
00000070: 7cdb 0a3c 2011 17be d332 5e3e da3b 82bc
00000080: af60 40be 9218 d23d b876 83be 1dd7 6abe
00000090: a6fb 8d3e 67b8 0e3e ba3c bd3b 829a 8e3d
000000a0: ac6c e3bd e5e1 593e a29f 15bd ae6a 3b3e
000000b0: 37e4 053e 6eb1 273c cfd4 e23d 00bc 9a3e
000000c0: 808f 383e 5093 633e 464f 2bbe c447 4cbe
000000d0: e0f5 03be 89ee a23d 1fad f03d 6499 793e
000000e0: 28eb 38bd 5b4e 8e3d 4c2a 623e bad8 073b
000000f0: fa4f fdbd 6cd1 1d3e 9a46 f53d 754a f83d
00000100: 50e3 323d 6ec7 383e 898c 7d3e a39c 513e
00000110: 97c3 fa3d 615e 893e fea1 1b3e 725c 723e
00000120: 8e6c c93d a991 873d 1cc5 633e 5066 073d
00000130: 469b 01bd 19e6 c9bd 9eeb 83bd c119 0b3e
00000140: f27b 003e 4d14 0ebe d3ec 3abe 1b1e 6fbe
00000150: 67bd 82ba 8d91 57be bf12 0abe 74ee 4cbd
00000160: e874 e23d c817 573e 3ef5 253e 293e 123e
00000170: 0e81 99be 39ea 5c3e 1e60 9abd bb8a 50be
00000180: 13b7 9ebd fde6 2d3e 7786 d7bc c4ad 6b3d
00000190: c681 303e 3aa3 3e3e 58db 143e e394 46bd
000001a0: 350e e93d 9c6b e9be df04 88bd b015 973c
000001b0: b48b 313e 7ef7 18bd 1473 8abe 9349 303e
000001c0: 07b5 81be 50ff ae3d 09dc 37bd 3c80 57be
000001d0: f95e 8dbe dc5a 9b3c 217e 32bd 1608 b6bd
000001e0: d5fc aa3e f465 4fbe 1900 8abe 4978 b53e
000001f0: b2a5 3abd 0591 623e 6dc9 5b3e 4034 97bd
00000200: 1b7f 653e 9ea0 62be 2b58 d7be 6ac2 1bbe
00000210: 7cbe 0d3e 1fd7 e73d aac9 2e3e 847a 0fbd
00000220: b0ec 2fbe 027a bc3e 7976 7abc 6326 743e
00000230: d9e4 1f3e e0bb 383e 7e6f 2ebe 8d8a 453e
00000240: b1e6 453c dd5d 83bd 5be2 0dbd c7de cfbd
00000250: 763a 7cbe 8fa6 8c3d c686 823e ecdb cebd
00000260: a2ab e3bd a8af 78be 8dc3 6dbd b349 42bd
00000270: 1764 693e 8fbf 603d 8da4 af3d 6fd8 633e
00000280: 3767 d83c e829 19be 9320 683d 323f ebbc
00000290: c9ab 5a3e ed6a edbd 4026 37be d7dd c73c
000002a0: 52f3 0b3e 8ceb 813e fa10 f9bd bdbc f7bd
000002b0: cd70 0a3e 72fc 89bb 3ed8 923d 9a29 813d
000002c0: 82e8 003f 4162 b1bb daa0 c5be 62e3 7a3e
000002d0: f158 23be c216 863e a710 1b3e d4d8 6f3c
000002e0: 5843 4fbe 2e69 293e f4b4 37be e777 bcbd
000002f0: 9c7f 893c 8969 913e 7f8d 553c 7aa1 093e
00000300: e50b 1c3e 9dd9 43be ebc5 88be 20d4 073e
00000310: 48e0 72be 7362 94bd 0e1a 963d 0ffe bbbe
00000320: 2530 fdbd 09d1 8f3e 2401 8d3e 167b 53be
00000330: 43a4 283e 356a 8ebc 6ce2 33be 5073 083e
00000340: 2919 a13d 352a 46be 7afe adbe 82bc c4bd
00000350: e13a 73be b80f 90bd 0b23 103e 5a12 e6bd
00000360: 33d5 b8bd c20a 48be d942 393c 7478 323d
00000370: ec04 88bd c03a 8c3e cb67 2f3d 990c 42be
00000380: 955a 29be 8c03 9fbe 0a0f 903e 0f3b 7c3e
00000390: 2401 c8bd fff1 2e3e 6cfb 873d 100d 1fbe
000003a0: 9d86 0b3e 2d3e f1bd 1930 363d e764 b73d
000003b0: e98d bd3d 05db 36be 0a4e ca3b 990d 82bd
000003c0: 3890 ac3e e45a 5c3d 301d 583d 2a1e 7abe
000003d0: 0d77 36bd ed05 bcbd 0934 ac3d 58df 80bb
000003e0: 62aa 143e e62b a93c f3b3 40bd 1f38 a23e
000003f0: 2ba6 a53d 2de4 67bd 758c 563e 1a17 213d

hiden_layers.2.bias f4 [64]
0.024579756 -0.082486555 -0.01835137 -0.008428985 -0.032714646 -0.04007069 -0.0067673074 -0.015837703
0.027259834 0.046285875 -0.0755214 -0.15461192 0.057053465 0.0071167373 0.08888381 0.04978168
0.08400937 -0.23425986 0.059235845 0.037762307 0.17684099 0.030424532 0.32116017 0.12181484
-0.0734697 -0.11124895 0.01650876 -0.13817802 -0.0030867294 -0.08127088 0.11795902 -0.050871383
-0.069171846 -0.012425153 -0.08074671 0.20975266 0.007308994 0.07300423 0.030385487 0.10668325
0.09286651 -0.08178755 -0.067343466 0.062443923 0.18839198 0.16673602 -0.033051483 0.046466377
0.14368829 -0.15770492 -0.02724061 -0.20812328 0.036761217 0.124294534 -0.004897225 -0.08137603
-0.19219895 0.012742874 0.006989889 -0.10790274 -0.08764315 0.12494739 0.14176363 0.105805635
00000000: 7c5b c93c b6ee a8bd 9d55 96bc ba19 0abc
00000010: cbff 05bd 2a21 24bd 4ac0 ddbb 12be 81bc
00000020: 0450 df3c 4296 3d3d f7aa 9abd 9652 1ebe
00000030: e5b0 693d 8533 e93b b708 b63d e0e7 4b3d
00000040: 1b0d ac3d d1e1 6fbe 49a1 723d a6ac 1a3d
00000050: ce15 353e de3c f93c 1b6f a43e 0f7a f93d
00000060: 4877 96bd 7dd6 e3bd 613d 873c 8a7e 0dbe
00000070: ba4a 4abb 5971 a6bd 8094 f13d 835e 50bd
00000080: f8a9 8dbd de92 4bbc 885e a5bd 67c9 563e
00000090: 4980 ef3b 3e83 953d fcea f83c bf7c da3d
000000a0: cc30 be3d 3b80 a7bd 5feb 89bd 33c5 7f3d
000000b0: d4e9 403e d9bc 2a3e fe60 07bd 8753 3e3d
000000c0: 0623 133e 667d 21be b327 dfbc 451e 55be
000000d0: ee92 163d 228e fe3d e778 a0bb 7aa8 a6bd
000000e0: cdcf 44be 7dc7 503c 700b e53b 1dfc dcbd
000000f0: 407e b3bd 6be4 ff3d 7c2a 113e a0b0 d83d

hiden_layers.3.weight f4 [64, 64]
-0.1185155 0.13719045 0.3123053 0.024018079 -0.06282918 0.21100283 -0.018802932 -0.2573816
-0.040561344 -0.17105022 0.17562887 -0.031392608 0.264929 -0.22827622 0.18624471 0.15152298
0.101841725 -0.23803152 -0.1126894 0.15139197 0.38838163 -0.17423013 0.20906648 0.09247552
0.22397053 0.06788042 -0.08036853 0.47992137 -0.048356585 0.28261662 -0.14434627 0.14307657
0.1498748 0.0774221 -0.06863496 0.2554308 0.054406945 -0.0020580634 -0.17010154 -0.13245152
0.017235614 -0.62414634 -0.2462174 -0.07589768 0.3005548 0.1565709 0.17135991 0.031553466
0.12840633 -0.23662296 0.15815416 -1.2481736 0.13935293 0.23281305 0.2653479 -0.10423983
0.077390514 0.08479022 -0.054891918 0.044118136 -0.03764645 0.14934073 -0.15078679 0.14702937
-0.15876642 -0.046802532 -0.27454612 0.07937915 0.23295508 0.28322455 -0.29949105 0.1138792
-0.2592445 -0.12085212 0.11970723 0.023963012 0.07521524 -0.08979094 -0.12278502 0.1829552
0.042917743 -0.022980886 0.149424 0.19108032 0.14740804 -0.09271067 -0.08037646 -0.0014839098
-0.14813437 0.013422023 0.08695898 -0.14965722 0.32008666 -0.054306056 -0.4028746 -0.004369193
0.018665053 -0.08379737 0.09443504 0.09164583 -0.11428208 -0.30893657 -0.065222524 0.14859168
0.0056271795 -0.098974735 0.054598127 0.41021985 0.25207657 0.078050815 0.28593817 0.13971712
0.2715573 -0.13873018 -0.242955 0.34841388 0.24305706 -0.011506408 -0.056320906 0.2254581
0.24518947 -0.21169053 0.107836 0.34161526 0.08472046 0.1003966 0.048657816 0.33977616
0.10099446 0.16882756 -0.26943374 -0.14486238 -0.059104096 0.22549953 0.05082076 -0.082714014
0.09671608 -0.055848736 -0.05112851 0.21075082 -0.19403091 -0.06596985 0.05887261 -0.16365275
-0.033808313 0.1893896 -0.055542756 -0.26370525 -0.098510005 0.07228814 -0.21897264 -0.043560408
-0.1443471 -0.059984762 -0.23222168 0.25314876 0.17624137 -0.29192775 0.0032439406 -0.23525223
-0.24570952 0.02204826 0.24819392 0.0211837 -0.14608671 -0.1282372 0.18510057 -0.0073833507
0.053977195 -0.01950217 0.058767162 0.02657348 0.08458279 -0.19190937 0.18776046 -0.21869321
-0.0723305 -0.10647742 0.121244535 0.271249 0.090966575 -0.16585793 -0.19755596 -0.31059232
-0.13907056 -0.20666045 0.115649894 0.20839907 0.24202707 -0.048509635 0.12966728 0.03195149
-0.06475707 -0.15482442 0.13815123 -0.16745956 -0.4038424 -0.124542296 0.042773515 -0.261419
0.14586926 -0.4950797 -0.29161292 -0.20854613 -0.21445693 -0.17200655 -0.104621194 0.020227231
-0.09960069 0.01766884 -0.02894147 0.15500908 0.2501492 -0.019043969 -0.08902059 0.10150798
0.23130725 0.12800176 0.25647512 0.052002724 -0.042557564 -0.1146298 -0.14918739 0.08892123
0.16537903 0.101723544 0.13398418 -0.15031849 -0.27966604 -0.023638515 -0.2231373 -0.042855293
0.13022761 -0.40046477 -0.20997228 0.16776665 0.13461366 -0.10719242 0.16795744 0.2869414
-0.12948862 0.18711354 -0.07698866 -0.4888272 -0.13406017 0.31144422 0.09760048 0.31702584
0.50608635 0.12691098 0.20655815 -0.13914147 -0.15284832 -0.20646754 -0.23618533 0.17710501
00000000: 41b8 f2bd a77b 0c3e 7be6 9f3e 90c1 c43c
00000010: 96ac 80bd 2011 583e 9b08 9abc 85c7 83be
00000020: a723 26bd ca27 2fbe 0ed8 333e 8995 00bd
00000030: c6a4 873e 3ec1 69be efb6 3e3e d728 1b3e
00000040: 6592 d03d 89be 73be b3c9 e6bd 7f06 1b3e
00000050: f5d9 c63e 6269 32be 8615 563e ce63 bd3d
00000060: 8858 653e e404 8b3d 4198 a4bd 41b8 f53e
00000070: 8e11 46bd 20b3 903e 82cf 13be aa82 123e
00000080: c878 193e 7a8f 9e3d 7c90 8cbd d3c7 823e
00000090: d1d9 5e3d 93e0 06bb 192f 2ebe 5fa1 07be
000000a0: b431 8d3c 0ec8 1fbf 6a20 7cbe 3e70 9bbd
000000b0: 52e2 993e 1f54 203e f978 2f3e 353e 013d
000000c0: f37c 033e 4a4d 72be 2af3 213e 27c4 9fbf
000000d0: 89b2 0e3e 8b66 6e3e aedb 873e b17b d5bd
000000e0: eb7e 9e3d 7fa6 ad3d 59d6 60bd 38b5 343d
000000f0: 2a33 1abd c7ec 183e da67 1abe de8e 163e
00000100: aa93 22be 03b4 3fbd 4f91 8cbe 8991 a23d
00000110: c78b 6e3e cf02 913e e456 99be 7f39 e93d
00000120: b2bb 84be 5181 f7bd 1029 f53d 144e c43c
00000130: 730a 9a3d 50e4 b7bd b676 fbbd 9c58 3b3e
00000140: 84ca 2f3d 6942 bcbc 9b02 193e 8faa 433e
00000150: 22f2 163e 17df bdbd 6a9c a4bd c07f c2ba
00000160: 89b0 17be 0be8 5b3c 8d17 b23d be3f 19be
00000170: 66e2 a33e 0770 5ebd 9445 cebe 732b 8fbb
00000180: 74e7 983c f59d abbd 2967 c13d cfb0 bb3d
00000190: b90c eabd ef2c 9ebe 6393 85bd 6b28 183e
000001a0: 3464 b83b 44b3 cabd 49a2 5f3d 5608 d23e
000001b0: 2e10 813e 1bd9 9f3d 7d66 923e 0112 0f3e
000001c0: 8f09 8b3e 490f 0ebe 32c9 78be 4e63 b23e
000001d0: f3e3 783e 6085 3cbc c0b0 66bd 7dde 663e
000001e0: f312 7b3e 67c5 58be 1fd9 dc3d 32e8 ae3e
000001f0: ec81 ad3d bc9c cd3d 6b4d 473d 24f7 ad3e
00000200: 2fd6 ce3d 22e1 2c3e 38f3 89be ce56 14be
00000210: 2317 72bd 59e9 663e 6e29 503d f765 a9bd
00000220: 1513 c63d a5c1 64bd 216c 51bd 10cf 573e
00000230: 0ab0 46be 331b 87bd 6824 713d 9694 27be
00000240: 967a 0abd 59ef 413e cd80 63bd 6004 87be
00000250: 9dbf c9bd ce0b 943d 5d3a 60be 666c 32bd
00000260: bacf 13be 95b2 75bd 85cb 6dbe b79c 813e
00000270: 9e78 343e 8e77 95be 4b98 543b f6e5 70be
00000280: 479b 7bbe 8d9e b43c 8c26 7e3e 7089 ad3c
00000290: c197 15be 9d50 03be 018b 3d3e 09f0 f1bb
000002a0: 3117 5d3d 04c3 9fbc d6b5 703d a0b0 d93c
000002b0: be39 ad3d e483 44be 4744 403e 1df1 5fbe
000002c0: 0322 94bd d510 dabd 0e4f f83d 26e1 8a3e
000002d0: af4c ba3d a9d6 29be 1c4c 4abe f505 9fbe
000002e0: 8368 0ebe cc9e 53be dad9 ec3d 9166 553e
000002f0: f2d5 773e 0ab2 46bd 80c7 043e 91df 023d
00000300: 5b9f 84bd 4b8a 1ebe 8477 0d3e 857a 2bbe
00000310: 6ec4 cebe 0810 ffbd 4833 2f3d b6d8 85be
00000320: c05e 153e 167b fdbe 4a4e 95be 1e8d 55be
00000330: 999a 5bbe 7c22 30be a343 d6bd 94b3 a53c
00000340: 72fb cbbd 3ebe 903c a916 edbc b3ba 1e3e
00000350: 8e13 803e 1902 9cbc 6d50 b6bd 6ae3 cf3d
00000360: cfdb 6c3e e512 033e b550 833e cf00 553d
00000370: d750 2ebd 07c3 eabd 94c4 18be 551c b63d
00000380: 1f59 293e 6f54 d03d 2633 093e 17ed 19be
00000390: 6330 8fbe 8fa5 c1bc 1b7e 64be 0889 2fbd
000003a0: 635a 053e b809 cdbe f902 57be 05cb 2b3e
000003b0: 2ad8 093e b387 dbbd 09fd 2b3e fce9 923e
000003c0: aa98 04be b19a 3f3e 3bac 9dbd 8f47 fabe
000003d0: 1247 09be 9e75 9f3e c3e2 c73d 3651 a23e
000003e0: e08e 013f f4f4 013e fb83 533e 1a7b 0ebe
000003f0: 4584 1cbe 3a6c 53be 91da 71be 045b 353e

hiden_layers.3.bias f4 [64]
0.1471071 -0.096078314 0.10662366 0.107683636 -0.2630491 -0.023089439 -0.09370748 -0.22725944
0.47124588 -0.04969495 0.10249907 -0.32666254 -0.21120915 -0.08136604 -0.18857278 -0.44502318
0.02648401 -0.21888894 -0.038810946 0.030118529 -0.078431346 0.23602739 -0.19791228 -0.012229923
0.040020328 0.22767553 -0.21266353 -0.039854158 0.067680426 0.093271606 0.056730915 -0.027913455
0.07327888 -0.10230645 -0.005521386 0.055767063 0.30044636 0.46955428 0.16442794 -0.12940365
0.20202981 -0.16966082 0.030232059 -0.089424185 0.07094485 0.1454737 0.19783953 0.2575708
-0.18959843 -0.020189214 -0.1886919 -0.25920615 0.15901686 0.31501117 -0.13156277 -0.24407743
0.11799571 0.17229179 0.13103728 0.055476826 -0.021702463 0.33836833 -0.1867529 0.08894169
00000000: 3ea3 163e b5c4 c4bd 815d da3d 3d89 dc3d
00000010: 5fae 86be 1026 bdbc b5e9 bfbd b3b6 68be
00000020: 2447 f13e ef8c 4bbd 08eb d13d 5040 a7be
00000030: 3647 58be 3da3 a6bd 3919 41be 14da e3be
00000040: fff4 d83c 6c24 60be 3af8 1ebd 22bb f63c
00000050: 9da0 a0bd 2ab1 713e 84a9 4abe 0460 48bc
00000060: 5bec 233d c623 693e 78c4 59be 1d3e 23bd
00000070: 099c 8a3d 2f05 bf3d ad5e 683d c2aa e4bc
00000080: 3d13 963d 0b86 d1bd beec b4bb 016c 643d
00000090: 1bd4 993e 6b69 f03e cc5f 283e 6482 04be
000000a0: e7e0 4e3e 91bb 2dbe 39a9 f73c 0724 b7bd
000000b0: 894b 913d 0ff7 143e 7296 4a3e 52e0 833e
000000c0: 1726 42be da63 a5bc 7338 41be abb6 84be
000000d0: 51d5 223e 2549 a13e 64b8 06be 6fef 79be
000000e0: bca7 f13d 426d 303e a32e 063e ab3b 633d
000000f0: 5dc9 b1bc 9d3e ad3e 273c 3fbe 1027 b63d

hiden_layers.4.weight f4 [64, 64]
-0.07017502 0.14682439 0.11379472 -0.28991783 0.1298358 -0.010289974 0.05985856 0.09578184
-0.4112325 0.034773856 -0.051925063 0.10524891 -0.026411623 -0.21994673 -0.2484681 0.07258207
-0.13544689 -0.0222726 0.2129865 0.1844083 -0.44107613 0.10160034 -0.034888115 -0.04571532
0.061261587 -0.084000655 0.10385657 0.039256338 -0.2578494 -0.3207336 -0.26484457 -0.09872429
0.19664395 0.070817344 0.13584405 -0.15578051 0.10704222 0.005534379 -0.14036155 -0.02244756
-0.1411073 0.053435523 0.25443944 0.17628282 -0.10616317 0.17365263 0.10884852 -0.17015173
-0.23487571 -0.23066206 -0.04176826 0.105615206 -0.15629658 0.098330304 0.20036706 -0.06390854
0.34357324 0.08431046 -0.15116219 -0.1362232 0.16484188 -0.29956517 -0.04223911 -0.13731879
0.122116975 -0.16771668 -0.24939647 0.035084184 -0.054790784 -0.25809476 0.018048754 -0.04161257
-0.40550196 -0.04034032 -0.07578281 0.17366333 0.31177995 -0.122608915 -0.14186399 0.14835441
-0.34349573 0.04926339 0.12839106 0.15333779 0.46773976 0.2024504 0.14363824 0.1547365
-0.008330933 -0.21019451 -0.27910206 0.06917878 -0.29748854 -0.07021571 -0.44236365 -0.1816216
0.37571347 0.18862857 -0.038160976 -0.0059639784 -0.020342456 0.051888045 0.31723416 -0.16735268
0.16179228 -0.22795713 0.32163107 0.02175264 -0.15021059 0.427504 0.082248285 -0.06577853
-0.3105185 -0.3313601 -0.18321843 0.06810876 0.15618846 -1.3720398 0.23564045 -0.06207539
-0.16401967 -0.17596489 0.11445926 0.15655556 0.5460785 0.2665328 -0.016196966 0.23050173
-0.23970355 -0.42608288 0.13712335 -0.30138758 -0.055036824 -0.059920672 0.15798996 0.06177618
-0.10399409 -0.15912795 -0.05410562 -0.053003587 0.023354761 0.2724971 0.3066123 -0.20095006
0.02838755 0.0054598614 -0.082469575 0.07026194 -0.79483837 -0.24969721 -0.2706771 0.2214381
-0.23630589 -0.17941651 -0.56022227 0.24001962 -0.24152169 0.31858742 -0.118750066 0.23185767
-0.018944789 -0.107056096 -0.13765351 0.12526333 0.24326137 0.116211005 -0.67214173 0.27675295
0.24745871 -0.3213547 -0.41582528 -0.108655095 -0.027182192 -0.11183484 0.12128648 0.34446976
0.27001494 -0.08782661 0.43550754 -0.14579602 -0.10481562 0.13625291 -0.29568216 -0.21562485
0.11837359 -0.0048176185 0.02773538 0.18510011 -0.3168268 0.072709836 0.10641913 0.36734137
0.038410947 -0.19458845 -0.17004885 0.2543057 0.22250877 0.1555273 0.35487577 -0.23796825
0.15896918 0.11540421 0.034659527 0.22174866 -0.16110928 -0.24279152 0.022336587 0.31188196
-0.43834028 0.14035921 -0.22022104 -0.1575792 -0.06281756 0.06326701 0.44827357 0.19502766
0.2220047 -0.081383996 0.091291994 -0.34723687 -0.0069691716 -0.5727805 0.00030674177 -0.5968796
-0.36072588 0.27368662 -0.21737137 -0.040589828 0.12328312 0.008557823 0.08777496 0.113452494
-0.08131514 0.21374913 0.13293187 0.46520433 -0.15449096 -0.14270234 -0.16563915 -0.26932973
-0.10684905 0.19652587 -0.039521843 0.18542464 -0.079952545 0.36248145 0.20567961 0.4829331
0.026961494 -0.07074673 -0.056933146 -0.34049627 -0.039625257 -0.0655923 -0.077741705 0.04352439
00000000: ecb7 8fbd 2259 163e 350d e93d 1c70 94be
00000010: adf3 043e 4797 28bc 402e 753d 4529 c43d
00000020: 118d d2be 086f 0e3d 60af 54bd be8c d73d
00000030: 305d d8bc b739 61be 6c6e 7ebe e9a5 943d
00000040: 97b2 0abe 0775 b6bc 2219 5a3e 88d5 3c3e
00000050: bbd4 e1be d713 d03d d7e6 0ebd fd3f 3bbd
00000060: 6eed 7a3d 8908 acbd c1b2 d43d 41cb 203d
00000070: d604 84be 3237 a4be b599 87be f62f cabd
00000080: 085d 493e af08 913d b41a 0b3e ed84 1fbe
00000090: f438 db3d bc59 b53b f0ba 0fbe f2e3 b7bc
000000a0: 6f7e 10be 35df 5a3d e345 823e 7c83 343e
000000b0: 136c d9bd ffd1 313e f9eb de3d 413c 2ebe
000000c0: 4283 70be ad32 6cbe 3215 2bbd c94c d83d
000000d0: 360c 20be 6661 c93d 062d 4d3e 7be2 82bd
000000e0: d5e8 af3e f6aa ac3d 43ca 1abe 187e 0bbe
000000f0: 4fcc 283e 9b60 99be eb02 2dbd 4c9d 0cbe
00000100: 7718 fa3d ecbd 2bbe ca61 7fbe 6fb4 0f3d
00000110: 4d6c 60bd ff24 84be fbda 933c f171 2abd
00000120: f49d cfbe e43b 25bd 0534 9bbd cdd4 313e
00000130: 9fa1 9f3e 621a fbbd cb44 11be 38ea 173e
00000140: acde afbe 69c8 493d f278 033e 9504 1d3e
00000150: 967b ef3e 284f 4f3e e715 133e 3f73 1e3e
00000160: 777e 08bc 3b3d 57be 77e6 8ebe 9bad 8d3d
00000170: 6b50 98be 41cd 8fbd 7d7d e2be 03fb 39be
00000180: 845d c03e d927 413e af4e 1cbd 7a6d c3bb
00000190: 39a5 a6bc 8f88 543d 846c a23e 805e 2bbe
000001a0: e0ac 253e 986d 69be d4ac a43e 9832 b23c
000001b0: ced0 19be cee1 da3e ca71 a83d e5b6 86bd
000001c0: 48fc 9ebe 08a8 a9be 9d9d 3bbe 9b7c 8b3d
000001d0: deef 1f3e 009f afbf bb4b 713e c442 7ebd
000001e0: c6f4 27be 2430 34be 9e69 ea3d 1a50 203e
000001f0: cdcb 0b3f fd76 883e 80af 84bc a508 6c3e
00000200: d974 75be 8927 dabe 106a 0c3e 794f 9abe
00000210: 4b6e 61bd 616f 75bd 1fc8 213e 0509 7d3d
00000220: dafa d4bd 70f2 22be db9d 5dbd 4a1a 59bd
00000230: 7c52 bf3c bd84 8b3e 4afc 9c3e dac5 4dbe
00000240: 028d e83c a3e8 b23b cfe5 a8bd 7ee5 8f3d
00000250: 877a 4bbf a0b0 7fbe 3096 8abe abc0 623e
00000260: 2cfa 71be f6b8 37be ba6a 0fbf b4c7 753e
00000270: 7651 77be e41d a33e 3c33 f3bd 196c 6d3e
00000280: 1a32 9bbc 3a40 dbbd 0bf5 0cbe 0845 003e
00000290: 8219 793e 0900 ee3d 7b11 2cbf 90b2 8d3e
000002a0: d165 7d3e 9a88 a4be 0de7 d4be 9086 debd
000002b0: 30ad debc aa09 e5bd 0c65 f83d 575e b03e
000002c0: 663f 8a3e 70de b3bd d8fa de3e 8d4b 15be
000002d0: 92a9 d6bd e285 0b3e a763 97be c3cc 5cbe
000002e0: da6d f23d 1ddd 9dbb 4f35 e33c e28a 3d3e
000002f0: 1f37 a2be e5e8 943d 46f2 d93d 2b14 bc3e
00000300: cc54 1d3d 3242 47be 4921 2ebe 5b34 823e
00000310: 57d9 633e 8c42 1f3e 47b2 b53e f3ad 73be
00000320: d1c8 223e 0b59 ec3d 26f7 0d3d 1512 633e
00000330: d5f9 24be 579e 78be 38fb b63c feae 9f3e
00000340: 236e e0be 53ba 0f3e a081 61be 715c 21be
00000350: 7ea6 80bd 2292 813d 1d84 e53e 55b5 473e
00000360: 3355 633e a7ac a6bd 4cf7 ba3d 08c9 b1be
00000370: a65d e4bb bea1 12bf 2fd2 a039 1acd 18bf
00000380: 10b1 b8be a720 8c3e 9a96 5ebe 8541 26bd
00000390: dc7b fc3d 1c36 0c3c 5cc3 b33d c859 e83d
000003a0: 8d88 a6bd 0de1 5a3e 4b1f 083e 432f ee3e
000003b0: e132 1ebe 9020 12be 4f9d 29be 96e5 89be
000003c0: add3 dabd 143e 493e a8e1 21bd f5df 3d3e
000003d0: 29be a3bd 2b97 b93e ad9d 523e 0243 f73e
000003e0: 5ade dc3c a9e3 90bd bb32 69bd 8755 aebe
000003f0: 184e 22bd 4155 86bd 0b37 9fbd a146 323d

hiden_layers.4.bias f4 [64]
-0.13383342 0.04489134 -0.012835851 0.044101555 -0.020711813 0.00992441 0.087769985 -0.14415336
-0.120660536 0.19408356 0.18217221 -0.035497192 0.09550896 -0.03155853 0.05756097 -0.041272968
0.057835042 0.21220614 -0.11882963 -0.19873223 0.21766655 -0.11116589 -0.017057426 -0.05433886
0.17576633 -0.27959883 -0.23952399 -0.22748525 0.115901224 -0.298877 -0.29784584 0.029857093
-0.2431244 0.058554836 -0.5871931 -0.4455631 -0.034422033 -0.13508068 -0.17463131 -0.15943308
-0.097058736 -0.30949748 -0.093786046 -0.03522719 0.35759607 0.16693021 0.061879627 -0.032129087
-0.1809876 -0.16910654 0.1537365 0.023889903 -0.27658373 0.08982548 0.029917808 -0.28965175
-0.48733938 -0.020087302 0.082732946 0.32691813 0.15119016 0.18230174 0.3413353 -0.16281223
00000000: a10b 09be fbdf 373d 764d 52bc d5a3 343d
00000010: d2ab a9bc fe99 223c c0c0 b33d f09c 13be
00000020: df1c f7bd d7bd 463e 5a8b 3a3e 8165 11bd
00000030: 349a c33d 8443 01bd 0dc5 6b3d d80d 29bd
00000040: 70e4 6c3d 914c 593e f35c f3bd 7680 4bbe
00000050: fbe3 5e3e f1aa e3bd 04bc 8bbc 6d92 5ebd
00000060: 17fc 333e 9427 8fbe c745 75be e5f1 68be
00000070: 9f5d ed3d 6806 99be 407f 98be dd96 f43c
00000080: 9af5 78be 32d7 6f3d 4952 16bf d920 e4be
00000090: 1efe 0cbd 9752 0abe 8dd2 32be 6d42 23be
000000a0: bbc6 c6bd 7476 9ebe e612 c0bd 634a 10bd
000000b0: d516 b73e c1ef 2a3e 7e75 7d3d ca99 03bd
000000c0: d054 39be 442a 2dbe 1a6d 1d3e c2b4 c33c
000000d0: 629c 8dbe 6cf6 b73d 3116 f53c 3c4d 94be
000000e0: 8c84 f9be 208e a4bc e46f a93d d061 a73e
000000f0: 98d1 1a3e 4fad 3a3e 80c3 ae3e 40b8 26be
