results/1_first_try/epoch100/model_weights.pth (torch, 484214 bytes, 88 tensors)

init_layer.0.weight f4 [64, 3]
0	0xbe7b8b5f	-0.24564885
1	0xbdafa804	-0.08576968
2	0x3e2c8cf3	0.16850643
3	0x3e6bc6ad	0.23025008
4	0x3ce911de	0.028450903
5	0xbcba269d	-0.02272349
6	0xbdae2c5e	-0.08504556
7	0xbe64ed50	-0.22356153
8	0xbddb47b2	-0.10707034
9	0x3e8e702a	0.2781995
10	0x3d9c0363	0.076178335
11	0x3d355909	0.044274364
12	0xbbb9088d	-0.0056467713
13	0x3e934f5a	0.28771478
14	0x3e088c49	0.13334765
15	0xbe14943f	-0.14509676
16	0xbea0dcd6	-0.31418484
17	0x3deb9d96	0.115046665
18	0x3e790347	0.24317656
19	0x3d7f9443	0.062397253
20	0x3e5add76	0.21373543
21	0x3e8c2a40	0.27375984
22	0x3e7628df	0.24039029
23	0x3e46b046	0.1940318
24	0x3e8b6946	0.27228755
25	0xbea456b3	-0.32097396
26	0x3d84c2a4	0.06482437
27	0xbe1cb555	-0.15303548
28	0xbe4c36b5	-0.19942744
29	0x3e455249	0.1926967
30	0xbe7b7c50	-0.2455914
31	0xbbf97140	-0.0076123774
32	0x3d684297	0.05670413
33	0x3dc3d8e1	0.09562851
34	0x3e74ac51	0.23893858
35	0xbe1315fa	-0.14363852
36	0xbd503b8c	-0.05083804
37	0xbe1e760d	-0.1547472
38	0xbb8e9db7	-0.004352297
39	0xbd54350b	-0.0518084
40	0x3c920f08	0.017829433
41	0x3e365182	0.1780453
42	0x3e05f6ce	0.1308243
43	0xbe94a20e	-0.29029888
44	0xbceb7625	-0.02874286
45	0x3e62a63c	0.22133726
46	0xbe66c129	-0.22534622
47	0xbe341baa	-0.17588678
48	0x3e0b05aa	0.1357638
49	0xbdfa28db	-0.12214824
50	0x3e18bc17	0.149155
51	0x3e8699ac	0.26289117
52	0x3e788b5e	0.24271914
53	0xbe101845	-0.14071758
54	0x3e05d297	0.13068615
55	0x3c17a4b9	0.009255582
56	0xbe59d73c	-0.21273512
57	0xbe5c6b26	-0.21525249
58	0x3e1447e9	0.14480557
59	0xbe3160d1	-0.17322089
60	0x3e1454d8	0.1448549
61	0xbe07a153	-0.13245134
62	0xbd5d256d	-0.05399077
63	0x3e8eea62	0.27913195
64	0xbbcd009c	-0.006256176
65	0xbd7a72a4	-0.061144486
66	0xbb6aebd1	-0.0035846124
67	0xbe90acbd	-0.2825679
68	0xbdcf4fd6	-0.10122649
69	0xbd81e4cf	-0.0634247
70	0x3e3da05b	0.18518202
71	0xbcb5c7be	-0.022189971
72	0xbd935d21	-0.07195497
73	0xbdff6001	-0.12469483
74	0x3e464eb9	0.19365968
75	0xbdb054bf	-0.08609914
76	0x3e633a0a	0.22190109
77	0xbdb282bb	-0.08716341
78	0x3d83b2e5	0.06430606
79	0x3e8cb321	0.27480415
80	0x3e571226	0.21003017
81	0xbe25f65c	-0.1620726
82	0xbe757242	-0.23969367
83	0x3d89e426	0.06732969
84	0x3d91170b	0.07084473
85	0x3dc82782	0.097731605
86	0xbe3aa4c1	-0.18226911
87	0x3da33875	0.07969753
88	0xbe98d87b	-0.29852661
89	0x3d9395a6	0.072062775
90	0xbea11cc2	-0.31467253
91	0xbe1891a1	-0.14899303
92	0xbd8a266f	-0.06745612
93	0xbdc742c8	-0.097295344
94	0x3dec02a5	0.11523942
95	0x3e4fe85e	0.20303485
96	0xbd9ca235	-0.07648126
97	0x3e7f285d	0.24917741
98	0x3e48090b	0.195347
99	0xbe9b90c8	-0.30383897
100	0x3e95065f	0.29106423
101	0xbda8545b	-0.082192145
102	0x3cd867ac	0.026416622
103	0xbde336a7	-0.110944085
104	0xbdadd922	-0.084886804
105	0xbda7e02e	-0.08197056
106	0xbe6d8cda	-0.23198262
107	0xbe2b7d94	-0.16747123
108	0xbcfd3753	-0.03091017
109	0xbcb1b93c	-0.021694772
110	0xbdf0a697	-0.117505245
111	0xbe1b03bb	-0.15138142
112	0xbdc4f1e9	-0.09616453
113	0xbc39f13f	-0.011349021
114	0x3e3b16b1	0.18270375
115	0xbe24fca1	-0.16111995
116	0x3df468cc	0.11934051
117	0xbe8a62af	-0.27028415
118	0x3e37ede9	0.1796185
119	0x3e350220	0.17676592
120	0x3e26782f	0.16256784
121	0x3d1bfbb9	0.03808186
122	0xbe78b0b7	-0.24286161
123	0xbd82de6f	-0.06390082
124	0xbd055dab	-0.03256003
125	0xbe3cf9d3	-0.18454675
126	0x3de4f3cb	0.11179312
127	0xbde98b2a	-0.114034966
128	0x3e4b44ad	0.19850416
129	0x3c1619c5	0.009161417
130	0xbd050421	-0.03247464
131	0x3dfb97c9	0.1228481
132	0x3e0efaac	0.13962811
133	0xbe72f701	-0.23727037
134	0xbe1f6ff9	-0.15570058
135	0xbeab9162	-0.33509356
136	0xbe7b074a	-0.245145
137	0x3df4b8ac	0.11949286
138	0xbc9d59f0	-0.019207925
139	0xbe3f1c55	-0.18663152
140	0x3d84aa93	0.06477847
141	0x3dd55013	0.104156636
142	0x3e56a60b	0.20961778
143	0x3d787aad	0.060663868
144	0x3e6aaf15	0.22918351
145	0x3e8c3ee9	0.27391747
146	0x3cc62acf	0.024190335
147	0x3e02be7d	0.12767978
148	0xbe96ee38	-0.2947862
149	0x3e480e38	0.19536674
150	0xbdc07273	-0.093968295
151	0xbe86cad9	-0.26326635
152	0xbda7c20b	-0.08191308
153	0xbeb13fc7	-0.3461897
154	0xbe0dc3ed	-0.13844271
155	0xbdb7bd41	-0.08971644
156	0x3e8f5ebb	0.2800196
157	0xbe99802d	-0.29980603
158	0x3dbdbc5c	0.09264442
159	0xbe0c635b	-0.13709776
160	0xbe3cd719	-0.18441428
161	0xbc2d564d	-0.010579658
162	0x3e2ea251	0.17054106
163	0xbe83077d	-0.2559165
164	0xbe48b148	-0.19598877
165	0x3e5047f4	0.20339948
166	0xbb779749	-0.0037779382
167	0x3e187da2	0.14891675
168	0x3e360be8	0.1777798
169	0x3daf3623	0.08555248
170	0x3e49fe16	0.19725832
171	0x3bfd8df4	0.0077378694
172	0xbd5f744d	-0.054554272
173	0x3c6e1d40	0.014533341
174	0x3e41d48a	0.18928733
175	0x3e9013bc	0.28140056
176	0x3d48a58f	0.048986014
177	0x3da22228	0.07916671
178	0x3e474681	0.19460489
179	0xbdaf7299	-0.0856678
180	0xbe1bd8db	-0.15219443
181	0xbe77fba1	-0.24217083
182	0xbd51feef	-0.051268514
183	0xbdffe5f6	-0.124950334
184	0x3d5ebf93	0.05438192
185	0xbca4961f	-0.020091115
186	0x3e99de5d	0.30052462
187	0xbd618662	-0.055059798
188	0x3d18ed63	0.037335765
189	0x3e8dcee4	0.27696908
190	0x3d57d18d	0.052690078
191	0x3e1cd9e3	0.15317492

init_layer.0.bias f4 [64]
0	0x3d931af8	0.07182878
1	0x3d310919	0.043221567
2	0xbd7018e9	-0.058617506
3	0x3d45836b	0.048221033
4	0x3c362e0d	0.011119378
5	0xbc9ffec8	-0.019530669
6	0xbdc765ab	-0.097361885
7	0x3ddefc3e	0.10887955
8	0x3c593a8b	0.013258587
9	0xbde18b5f	-0.11012911
10	0xbd1cfe4d	-0.038328458
11	0x3d1e194d	0.038598347
12	0xbca7c42f	-0.02047929
13	0xbd89399d	-0.06700442
14	0x3cef85f5	0.02923868
15	0x3d88ef62	0.06686284
16	0xbda1f30d	-0.079076864
17	0x3de2484d	0.110489465
18	0x3dd57f78	0.10424703
19	0xbda9e8fe	-0.08296393
20	0x3da7d803	0.08195498
21	0x3db35564	0.08756521
22	0xbc0ba78a	-0.008523831
23	0xbdc4fb0b	-0.09618195
24	0x3dc1710d	0.09445391
25	0xbd76cd36	-0.0602543
26	0x3db19df7	0.086727075
27	0xbcfbc3ca	-0.030733008
28	0xbdc9ef67	-0.098601155
29	0x3d7f8a3e	0.062387697
30	0xbdc56b2a	-0.096395805
31	0xbdc18ab3	-0.09450283
32	0xbd975a0d	-0.07390223
33	0xbd8323c8	-0.06403309
34	0x3d84b007	0.06478887
35	0xbdca8497	-0.09888571
36	0xbd1473ac	-0.036243126
37	0xbd47d8a7	-0.0487906
38	0xbc5ba1e1	-0.013405294
39	0xbda0e435	-0.07856027
40	0xbd588eae	-0.052870445
41	0xbdd3db03	-0.103445075
42	0xbd9bf665	-0.076153554
43	0x3d92cc23	0.07167842
44	0x3dafae7e	0.085782036
45	0xbd9bd00c	-0.07608041
46	0xbd824531	-0.063608535
47	0xbd4a0540	-0.049321413
48	0xbd70f862	-0.058830626
49	0x3d9f623e	0.0778241
50	0xbdc92043	-0.098206066
51	0xbdcd9aeb	-0.10039314
52	0x3da89a00	0.08232498
53	0x3c1c2bef	0.009531959
54	0x3dac1d94	0.08404079
55	0x3d3fb678	0.046804875
56	0x3d8fc7c0	0.07020521
57	0xbc9cb101	-0.01912737
58	0xbc48e4bb	-0.012261565
59	0x3c4f10f0	0.012638316
60	0xbdc3cd1f	-0.09560608
61	0xbd9cb811	-0.076522954
62	0x3dc8064d	0.09766827
63	0x3d9ef360	0.07761264

hiden_layers.0.weight f4 [64, 64]
0	0xbe274b03	-0.16337208
1	0x3cb14a41	0.021641852
2	0x3de6efc9	0.11276204
3	0x3ddc4393	0.10755076
4	0xbe39c0d3	-0.18139963
5	0xbb5a6619	-0.0033325015
6	0x3daa4f20	0.08315873
7	0xbe08c2ca	-0.13355556
8	0xbc7a9a78	-0.015295617
9	0xbd9f5774	-0.07780352
10	0xb9acabbb	-0.00032934346
11	0x3e3e0c9d	0.18559499
12	0x3c4ed8e7	0.012624956
13	0x3e3e38e2	0.18576387
14	0x3e1e627d	0.15467258
15	0xbe2a9630	-0.16658854
16	0xbcfc1080	-0.030769587
17	0xbd94332d	-0.072363235
18	0xbbfdc163	-0.0077440008
19	0xbe33b900	-0.1755104
20	0xbd182319	-0.037142847
21	0x3e05a571	0.13051392
22	0xbc5419b6	-0.012945583
23	0xbe901867	-0.28143618
24	0x3e483c93	0.19554357
25	0xbc1d13d0	-0.009587243
26	0xbdaf9cef	-0.085748546
27	0xbe31e66e	-0.17373058
28	0xbdff66e9	-0.124708004
29	0xbbe2f6a5	-0.006926375
30	0xbe7d2338	-0.24720466
31	0xbd7a7c54	-0.061153725
32	0xbdafbee2	-0.0858133
33	0xbd6800a5	-0.05664124
34	0x3e2763be	0.16346642
35	0xbcf0643d	-0.029344672
36	0xbd02dcbf	-0.0319488
37	0xbc251cb8	-0.010077648
38	0x3e5a258e	0.21303388
39	0x3d9c2d6f	0.07625853
40	0x3d9af5f4	0.07566443
41	0xbdfaed46	-0.122522876
42	0x3dcf6a00	0.1012764
43	0xbd2c9045	-0.042129774
44	0xbcfb4623	-0.030673092
45	0xbd8469c1	-0.064654835
46	0xbc2b3a7f	-0.010450958
47	0xbe5cc796	-0.21560511
48	0x3e52cfbf	0.20587061
49	0xbdbf7a5d	-0.09349511
50	0xbe337986	-0.17526826
51	0x3a98a5c7	0.0011646085
52	0x3d53cbdc	0.051708087
53	0xbd25f485	-0.040516395
54	0x3e4786bc	0.19484991
55	0x3e69b371	0.22822358
56	0xbe096453	-0.13417177
57	0xbdcdc5b9	-0.10047478
58	0xbdf2e988	-0.11860949
59	0x3dae6a98	0.08516425
60	0x3c655926	0.013998305
61	0xbe386d0c	-0.18010348
62	0x3d786976	0.06064745
63	0xbddd2f3c	-0.10800025
64	0xbceb10d9	-0.028694557
65	0xbe2f29f6	-0.1710585
66	0xbe5c7b6e	-0.2153146
67	0x3e4c2fd1	0.19940116
68	0xbe1a0268	-0.1503998
69	0xbd8995b8	-0.0671801
70	0x3e3d4c41	0.1848612
71	0xbe0e0837	-0.13870321
72	0x3d825e58	0.06365651
73	0xbe376f68	-0.17913592
74	0x3e4dacc8	0.20085442
75	0xbe181e0f	-0.14855216
76	0xbc2367b2	-0.009973453
77	0x3d2ff683	0.0429597
78	0x3d931791	0.07182229
79	0x3e2638ed	0.16232653
80	0x3d0063a1	0.031345014
81	0x3e41197c	0.18857378
82	0x3a4af4d0	0.00077421684
83	0xbd90e3bb	-0.07074686
84	0xbc9162d8	-0.017747328
85	0xbe28677b	-0.16445725
86	0x3dd7f4f7	0.1054477
87	0x3d59bc41	0.05315805
88	0xbca90fab	-0.020637354
89	0xbdd78c00	-0.1052475
90	0x3e826390	0.25466585
91	0x3e25b9ed	0.16184206
92	0x3d93f7f5	0.072250284
93	0x3e2d702f	0.16937326
94	0xbe44e48e	-0.19227812
95	0xbe02413a	-0.12720194
96	0x3b327449	0.0027229956
97	0xbce2c309	-0.02768089
98	0x3e0606b4	0.13088495
99	0x3dc757dd	0.097335555
100	0x3e2da1e5	0.16956289
101	0xbcff4e38	-0.031165227
102	0xbd2e8173	-0.04260392
103	0x3e1e91e2	0.15485337
104	0xbdbf213e	-0.09332512
105	0xbdb15a85	-0.08659843
106	0xbe2d8c08	-0.16947949
107	0x3d8838db	0.06651469
108	0x3dde2ded	0.108486034
109	0xbe4f43bc	-0.20240682
110	0x3e3e7297	0.185984
111	0xbe31f611	-0.17379023
112	0xbd743986	-0.05962517
113	0xbd4f6347	-0.050631788
114	0xbdd20f13	-0.102567814
115	0xbe18cbad	-0.14921446
116	0x3e270849	0.16311754
117	0xbe1a465c	-0.15065902
118	0x3e1945ff	0.14968108
119	0x3e240bb1	0.16020085
120	0xbe0309f7	-0.1279677
121	0xbd7baca1	-0.06144393
122	0xbe3559cd	-0.17710038
123	0xbe4536e3	-0.19259219
124	0x3e4ad297	0.19806896
125	0x3e00e1d5	0.12586148
126	0x3e640950	0.22269177
127	0xbd060d9c	-0.032727823
128	0x3db5168a	0.088421896
129	0xbd7a949b	-0.061176877
130	0x3e4839de	0.19553325
131	0xbc1f2d2e	-0.0097153615
132	0xbe5f4e45	-0.21807201
133	0xbc809f8d	-0.01570108
134	0xbc169e44	-0.009193007
135	0xbe41c4bb	-0.18922703
136	0x3d9f340b	0.07773598
137	0xbd2a6c5d	-0.04160725
138	0xbcdb7418	-0.026788756
139	0x3e06a8a6	0.13150272
140	0x3e21be91	0.15795352
141	0xbe3ffd95	-0.18749078
142	0x3e5bf9d6	0.21482024
143	0xbe00a2a0	-0.12562037
144	0xbdb7fe52	-0.089840546
145	0xbe55459a	-0.20827332
146	0x3d58a695	0.05289324
147	0xbd8c795d	-0.06859086
148	0xbc63a57e	-0.013894437
149	0xbe2b5264	-0.16730648
150	0xbe1b57a1	-0.15170147
151	0x3c04f12e	0.008114142
152	0xbc66b05e	-0.014080135
153	0xbe1567af	-0.14590333
154	0xbd17a157	-0.0370191
155	0x3e543161	0.20721962
156	0xbc701c7d	-0.01465523
157	0xbe228fb1	-0.15875126
158	0x3e82732d	0.25478497
159	0x3e64527a	0.22297087
160	0xbe36dfaf	-0.17858766
161	0xbdf6a23d	-0.12042663
162	0x3e36ddd7	0.17858063
163	0x3e6d801f	0.23193406
164	0xbdaed81b	-0.085373126
165	0xbe0cf294	-0.13764411
166	0xbbaeac46	-0.005330595
167	0x3d191f34	0.037383273
168	0xbe3d6786	-0.18496522
169	0xbd11d305	-0.035601635
170	0x3e523c62	0.20530847
171	0x3e4a756a	0.19771352
172	0x3e3c039d	0.18360753
173	0x3d3a18ba	0.045433737
174	0x3cd0e59f	0.025500117
175	0x3c2030ef	0.009777292
176	0xba77d788	-0.0009454419
177	0x3d95496a	0.07289393
178	0xbd2f4c60	-0.042797446
179	0xbc2936b5	-0.010327985
180	0x3d842788	0.064528525
181	0xbd2e60e1	-0.04257286
182	0xbe094f12	-0.13409069
183	0x3d3ea64d	0.046545316
184	0xbe66b2e7	-0.22529183
185	0x3e347997	0.17624508
186	0xbe2cc1b5	-0.16870768
187	0xbe1aeefd	-0.1513023
188	0x3e70260b	0.23452012
189	0xbe1f230f	-0.15540718
190	0xbe0ef8e5	-0.13962133
191	0x3e1ee0b8	0.15515411
192	0x3e108839	0.14114465
193	0xbe1954d8	-0.14973772
194	0x3be20fe7	0.0068988684
195	0xbd8736a7	-0.06602221
196	0x3e249577	0.16072641
197	0x3de4deff	0.11175346
198	0xbca4d640	-0.020121694
199	0xbe0948b1	-0.13406636
200	0xbe7c5f67	-0.24645768
201	0xbe239e25	-0.15978296
202	0x3da80373	0.08203783
203	0x3d58d699	0.05293903
204	0xbdf934a9	-0.12168247
205	0xbdb4d32d	-0.08829341
206	0xbd2baf20	-0.04191506
207	0xbe1edca4	-0.15513855
208	0xbd9bdf37	-0.07610934
209	0x3e0b5e92	0.13610294
210	0x3e149c25	0.1451269
211	0xbd9c6aa3	-0.07637527
212	0x3e08a13e	0.13342759
213	0xbe174594	-0.14772636
214	0xbe521283	-0.20514874
215	0xbd6e4d3f	-0.058179136
216	0x3e44fe25	0.19237573
217	0x3dab976a	0.08378489
218	0xbccf6e32	-0.0253211
219	0xbd67773e	-0.056510203
220	0xbdd5a5cd	-0.104320146
221	0xbe69fef4	-0.22851163
222	0xbe11d5cb	-0.14241712
223	0x3d358501	0.044316296
224	0xbdd0dbd7	-0.10198181
225	0x3df4cd59	0.119532295
226	0xbe408f20	-0.18804598
227	0x3aa38c64	0.0012477753
228	0xbd0256a7	-0.03182092
229	0xbe2f1010	-0.17095971
230	0x39f44683	0.00046591842
231	0xbcf1fd60	-0.029539764
232	0xbe3585da	-0.17726842
233	0xbc94b51f	-0.018152772
234	0x3d2418d9	0.04006276
235	0x3e3c34c1	0.18379499
236	0xbc56051e	-0.0130627435
237	0x3d87f30f	0.066381566
238	0x3d5af207	0.05345347
239	0x3dbf22ff	0.09332847
240	0x3de538ba	0.1119246
241	0xbe2113ee	-0.15730259
242	0x3e262365	0.1622444
243	0xbd94655a	-0.07245894
244	0xbe6c5b93	-0.23081808
245	0x3e090075	0.1337908
246	0x3e23ffcf	0.16015552
247	0x3d91fa09	0.071277685
248	0xbe3acb7a	-0.18241683
249	0xbe27461a	-0.16335335
250	0xbda6d90b	-0.081468664
251	0x3e086d6d	0.13322993
252	0xbde5b55d	-0.11216233
253	0xbc2dc6a0	-0.010606438
254	0xbdaaa87c	-0.08332917
255	0xbda755c8	-0.08170658

hiden_layers.0.bias f4 [64]
0	0x3d83d1c5	0.06436495
1	0x3d25759b	0.04039536
2	0xbdb6c685	-0.08924583
3	0xbcc8740b	-0.024469396
4	0x3dab5b19	0.08366985
5	0x3d608e81	0.054823402
6	0x3dabf5f1	0.08396519
7	0xbda129fd	-0.07869337
8	0xbd02f838	-0.031975
9	0xbd8ef55b	-0.069803916
10	0xbdb106ab	-0.0864385
11	0x3d872a21	0.06599832
12	0x3d138e4d	0.03602438
13	0xbd17a832	-0.037025638
14	0x3d914c46	0.07094626
15	0xbd5794e1	-0.052632216
16	0xbdae5275	-0.08511821
17	0xbca4dff4	-0.02012632
18	0x3d857999	0.065173335
19	0x3d27961a	0.040914632
20	0x3d0b1351	0.03395397
21	0x3d192d20	0.03739655
22	0x3b5660d2	0.0032711518
23	0xbd77868f	-0.06043106
24	0xbd1d491d	-0.038399804
25	0x3cbf7de6	0.023375463
26	0x3d4eb83d	0.050468672
27	0xbd7dd310	-0.061968863
28	0x3dab0275	0.08350078
29	0x3dade851	0.084915765
30	0x3d930324	0.071783334
31	0xbd1379cd	-0.03600483
32	0x3d3b9823	0.045799386
33	0xbda4bccb	-0.08043822
34	0xbd44a0bb	-0.048004847
35	0xbc5c7208	-0.013454922
36	0xbd20c61a	-0.039251424
37	0x3d9e84c3	0.07740166
38	0x3d87c6f3	0.066297434
39	0x3bea414f	0.0071488987
40	0xbdbc8b60	-0.09206271
41	0x3d3020d3	0.043000054
42	0xbc277a24	-0.010221992
43	0x3c37b172	0.01121174
44	0xbd629f4e	-0.055327706
45	0x3c29c477	0.010361782
46	0xbd8d9654	-0.069134384
47	0xbd2ce9c4	-0.042215124
48	0x3d10e210	0.03537184
49	0xba92681b	-0.0011169942
50	0x3dc3d1af	0.09561478
51	0xbd5e2df5	-0.054243047
52	0x3d4d5476	0.050129376
53	0xbd2ee776	-0.042701207
54	0x3d1eec7d	0.03879975
55	0x3d9084a2	0.07056548
56	0xbd3fa3c1	-0.046787027
57	0x3dbf348f	0.09336197
58	0x3bfa0b02	0.0076307068
59	0x3cd696d7	0.026194973
60	0x3d9c515d	0.07632706
61	0x3b14c06b	0.0022697698
62	0xbd06a2b3	-0.032870006
63	0xbd8bcd3d	-0.068262555

hiden_layers.1.weight f4 [64, 64]
0	0xb937961d	-0.00017508162
1	0x3d1c8843	0.038215887
2	0xbe53f88e	-0.20700285
3	0x3cf4afd7	0.029869003
4	0xbe9f1215	-0.31068483
5	0x3e163739	0.14669503
6	0xbde64ddf	-0.112453215
7	0xbde2e29c	-0.110783786
8	0xbcc93883	-0.02456308
9	0x3c58287d	0.013193247
10	0x3cf25ce6	0.029585313
11	0xbe040da6	-0.12895831
12	0x3db7bf8b	0.08972081
13	0x3d851499	0.06498069
14	0xbcfc1365	-0.030770967
15	0xbdcbb1bd	-0.0994601
16	0x3d17c932	0.03705711
17	0x3e1eecce	0.15520021
18	0x3dc96d8b	0.09835347
19	0x3df6b401	0.12046052
20	0x3e4d3a6f	0.20041822
21	0xbe03deee	-0.1287801
22	0x3d7dd802	0.06197358
23	0xbe153592	-0.14571217
24	0xbc6135ca	-0.0137457345
25	0xbe71b085	-0.23602493
26	0xbdb85ea3	-0.090024255
27	0x3e5fa8cc	0.21841735
28	0xbd738502	-0.059453018
29	0xbdccf6fc	-0.10008046
30	0xbe0842ec	-0.13306779
31	0x3e12b100	0.14325333
32	0xbe6847a7	-0.22683583
33	0x3e5fa69d	0.21840902
34	0xbe415ad3	-0.18882303
35	0xbe323f0f	-0.17406867
36	0xbd9ae5ed	-0.07563386
37	0xbd121ff7	-0.035675015
38	0xbc052230	-0.008125827
39	0x3e4701b8	0.1943425
40	0x3e03a961	0.12857582
41	0x3e2fe666	0.17177734
42	0xbde59ace	-0.11211167
43	0x3e229756	0.15878043
44	0x3e8c9548	0.27457643
45	0x3d59f25c	0.053209648
46	0x3e423c94	0.18968421
47	0xbe2cc51a	-0.16872063
48	0x3c568d3c	0.013095196
49	0xbe1c44c2	-0.15260604
50	0xbd9c064c	-0.076183885
51	0x3e1a1f62	0.15051034
52	0xbda3e1a6	-0.080020234
53	0x3d61e4a0	0.055149674
54	0xbd92fc07	-0.07176977
55	0xbe20602c	-0.15661687
56	0x3e511ca1	0.20421077
57	0xbe3b64fc	-0.18300241
58	0xbe548e84	-0.2075749
59	0x3df6b7d1	0.12046779
60	0x3d8f749a	0.07004662
61	0x3c07cc2f	0.008288427
62	0x3c5a5263	0.013325307
63	0xbe139d7f	-0.14415549
64	0x3da90a43	0.082539104
65	0xbc478873	-0.012178528
66	0xbe53eb64	-0.20695263
67	0x3de671d5	0.112521805
68	0xbdd7e6c0	-0.10542059
69	0xbbe83db8	-0.0070874356
70	0xbe2a3980	-0.16623497
71	0xbdb6759d	-0.08909152
72	0x3d95e5bf	0.07319211
73	0xbe023b8a	-0.12718025
74	0x3e2b4cee	0.16728565
75	0x3de51844	0.11186269
76	0x3ddbd6fa	0.10734363
77	0xbd4a1aed	-0.049342085
78	0x3d881491	0.06644548
79	0x3ab26fe5	0.001361367
80	0x3d9f76e0	0.077863455
81	0xbdb3c7ed	-0.08778367
82	0x3e0f6518	0.14003408
83	0x3cd5bbdc	0.026090555
84	0x3d88dd1b	0.066827975
85	0x3e50be06	0.20384988
86	0xbe442634	-0.19155198
87	0x3d1bf94f	0.038079556
88	0x3cc7d57e	0.024393793
89	0x3e2ea310	0.17054391
90	0x3c9285f3	0.017886138
91	0xbdb53238	-0.08847469
92	0xbc82a339	-0.015946971
93	0x3cc8d217	0.024514241
94	0xbdc64487	-0.09681039
95	0x3e1c0d6e	0.15239498
96	0x3e33dceb	0.17564742
97	0x3e14a43b	0.14515774
98	0xbe358fc1	-0.17730619
99	0xbdca0d59	-0.09865827
100	0xbe61abbe	-0.2203817
101	0x3cfb23a3	0.030656641
102	0xbe0f108b	-0.13971154
103	0xbe53b678	-0.20675075
104	0xbe53574a	-0.20638767
105	0xbe5143aa	-0.20435968
106	0x3cf31875	0.029674748
107	0xbe01ec4e	-0.126878
108	0x3dcc3e28	0.09972793
109	0x3dbfed69	0.09371454
110	0xbc2b7048	-0.010463782
111	0xbe68a831	-0.2272041
112	0x3e4c09f8	0.19925678
113	0x3d7c734d	0.061633397
114	0xbe1f5a08	-0.15561688
115	0xbd460487	-0.04834416
116	0x3d48abaf	0.048991855
117	0xbcf248f9	-0.029575812
118	0x3e0b4f15	0.13604386
119	0xbd3ab1f7	-0.045579877
120	0xbccee0dc	-0.025253706
121	0x3da2da3d	0.07951782
122	0xbdaafb81	-0.08348752
123	0x3de5b9cc	0.112170786
124	0x3dacbb86	0.08434205
125	0xbc9ae3c7	-0.01890744
126	0x3c2e3c4d	0.010634494
127	0x3e12b019	0.14324988
128	0x3db98995	0.09059445
129	0x3e6adb71	0.22935273
130	0xbb2d51a2	-0.0026446362
131	0x3d82c0e9	0.06384451
132	0x3e6295fc	0.22127527
133	0x3e5b65e9	0.21425594
134	0xbdf5a673	-0.11994638
135	0x3e0e863d	0.13918395
136	0x3e2d4c66	0.16923675
137	0xbdd5c08e	-0.104371175
138	0xbe5ac593	-0.21364431
139	0x3d222bd0	0.039592564
140	0x3d8078b7	0.062730245
141	0x3c892632	0.016741846
142	0x3e92ed42	0.28696638
143	0x3d7c5476	0.061603986
144	0xbe0b5ee4	-0.13610417
145	0xbdf58539	-0.11988301
146	0x3dbdeb8d	0.09273443
147	0xbcecbac0	-0.028897643
148	0x3ce5b5e1	0.028040828
149	0xbe7cb3c1	-0.24677946
150	0xbe8853aa	-0.2662633
151	0xbe4a4343	-0.19752221
152	0xbd61a4cc	-0.055088803
153	0x3e331f1c	0.17492336
154	0xbe0b0f48	-0.13580048
155	0xbddf8875	-0.10914699
156	0x3e5cb2a5	0.21552522
157	0x3e5215d3	0.20516138
158	0x3ea38682	0.3193856
159	0x3e822464	0.2541839
160	0x3e4eadad	0.2018344
161	0xbe3401e3	-0.17578845
162	0xbda8e266	-0.08246307
163	0xbde9db8e	-0.1141883
164	0x3d6a49ad	0.05719917
165	0xbdb581a0	-0.08862615
166	0xb94086bf	-0.00018360744
167	0xbdfc95c6	-0.123332545
168	0xbe5aa6f1	-0.21352746
169	0xbe0fe1bb	-0.14050953
170	0xbe281717	-0.16415058
171	0xbde47d92	-0.11156763
172	0xbdb21444	-0.086952716
173	0x3da574a7	0.0807889
174	0xbe6b83c1	-0.22999479
175	0x3d2f0595	0.042729933
176	0xbd6e7158	-0.05821356
177	0x3d82be77	0.063839845
178	0x3dfc7af1	0.12328137
179	0xbe8bed53	-0.27329502
180	0x3d8edc7b	0.06975647
181	0xbea8f165	-0.3299667
182	0x3e0ed302	0.1394768
183	0x3c99e2a1	0.018784823
184	0xbe0d5dcc	-0.13805312
185	0x3e7270db	0.23675863
186	0xbd732691	-0.05936295
187	0x3d578088	0.05261281
188	0x3c28fec2	0.010314645
189	0x3e30720f	0.1723101
190	0x3ca6a0a0	0.020340264
191	0xbbacdfe4	-0.0052757133
192	0x3e20f0a6	0.157168
193	0xbbd39cde	-0.006457909
194	0xbe30da6e	-0.17270824
195	0x3e35586d	0.17709513
196	0x3eadb1dc	0.33924758
197	0xbe27bb08	-0.1637994
198	0xbd8b2f58	-0.067961395
199	0xbe193c0b	-0.14964311
200	0x3ce5b7a7	0.028041674
201	0x3b1e76c6	0.0024179681
202	0xbe271074	-0.1631487
203	0x3e82aca5	0.25522342
204	0x3e6965ae	0.22792694
205	0x3df5cd5d	0.120020606
206	0xbceebbf9	-0.029142367
207	0x3e014368	0.1262337
208	0xbd0a9713	-0.03383548
209	0xbdd06b7a	-0.101767495
210	0x3ccfee9a	0.025382329
211	0x3e06cec4	0.13164812
212	0x3cbe0b2e	0.02319869
213	0xbe4f620a	-0.20252243
214	0x3dbabee2	0.09118439
215	0x3e1d6fd5	0.15374692
216	0x3dbb36d8	0.0914132
217	0x3dc7734f	0.0973879
218	0xb9b2b55d	-0.00034085932
219	0xbd5dc4cb	-0.054142755
220	0x3e77fcbe	0.24217507
221	0x3e79dcb1	0.24400593
222	0x3e19d413	0.15022306
223	0x3e1a0501	0.15040971
224	0x3e3d68dc	0.18497032
225	0xbcd34bbd	-0.02579295
226	0xbe11f2fe	-0.1425285
227	0x3d1e906f	0.03871196
228	0x3db7287a	0.08943267
229	0x3d1b38cf	0.037895974
230	0x3dffd418	0.124916255
231	0x3e059835	0.13046344
232	0x3daf5925	0.08561925
233	0xbcc51ccc	-0.024061583
234	0x3e1b9a40	0.1519556
235	0x3de27962	0.11058308
236	0xbe1f6982	-0.15567592
237	0xbdbc5846	-0.09196524
238	0xbe651c4b	-0.22374074
239	0xbe0c1606	-0.13680276
240	0x3ca56989	0.020191925
241	0x3df8e27f	0.12152576
242	0xbc228e78	-0.0099216625
243	0x3d4acf25	0.049513955
244	0x3e1d14c6	0.15339956
245	0xbd6d8774	-0.057990506
246	0xbe5922ce	-0.21204683
247	0xbd9441e5	-0.07239131
248	0xbe126d27	-0.14299451
249	0xbd4884ac	-0.04895465
250	0x3e1222ad	0.1427104
251	0x3c5a9cb9	0.01334303
252	0xbe2219e6	-0.15830192
253	0x3e50f711	0.20406748
254	0x3da9eebe	0.082974896
255	0xbe58b0da	-0.21161214

hiden_layers.1.bias f4 [64]
0	0xbd890a92	-0.06691469
1	0x3cc3b12a	0.02388819
2	0x3dd5501e	0.10415672
3	0x3d85ba9b	0.06529733
4	0x3c93c6ad	0.018039072
5	0x3d759c73	0.059963655
6	0xbd269dec	-0.04067795
7	0x3d5a529f	0.05330145
8	0x3db01004	0.08596805
9	0x3d0a9f3c	0.033843264
10	0xbd410c33	-0.047130775
11	0xbd490974	-0.04908128
12	0x3d295348	0.04133919
13	0x3d8c2901	0.068437584
14	0x3d906507	0.070505194
15	0xbd62d10a	-0.055375136
16	0xbd360379	-0.044436906
17	0xbd19a226	-0.037508152
18	0x3c886a1e	0.016652163
19	0xbd79cd1d	-0.060986627
20	0xbd390747	-0.045172956
21	0xbcd1d72b	-0.025615295
22	0xbd5526e5	-0.052039046
23	0x3d3434e8	0.043995768
24	0x3bc5075b	0.0060128397
25	0x3cb15a2b	0.02164944
26	0x3d8d7aee	0.069082126
27	0x3d00cf84	0.031447902
28	0xbd19b69f	-0.037527677
29	0xbd3fa10d	-0.04678445
30	0xbc88eb75	-0.016713837
31	0x3a9aa477	0.0011798282
32	0xbd81c36f	-0.06336104
33	0x3d167379	0.036731217
34	0x3cf01a29	0.02930935
35	0x3c345e10	0.011008754
36	0xbd414699	-0.047186468
37	0xbc7c47e4	-0.015397999
38	0xbd9fffce	-0.07812463
39	0x3d51cf12	0.05122287
40	0x3d7c97d5	0.061668236
41	0xbd6d8500	-0.057988167
42	0xbcb75084	-0.02237726
43	0x3d484b95	0.048900206
44	0xbcfebae4	-0.031094976
45	0x3d28c3e9	0.04120246
46	0xbd8084a7	-0.062753014
47	0x3d7d02ef	0.061770376
48	0xbddddbfd	-0.10832975
49	0x3c0321d6	0.008003673
50	0x3d1bda03	0.03804971
51	0x3d4162b3	0.047213268
52	0xbd8a045d	-0.067391135
53	0xbcbbda24	-0.022931166
54	0x3d5ac5c8	0.053411275
55	0xbdfed7ed	-0.12443528
56	0x3d5a392d	0.053277183
57	0xbcab18c9	-0.020885842
58	0xbd3d8cbf	-0.046276804
59	0xbcce49c9	-0.025181668
60	0xbaaedf50	-0.0013341699
61	0x3c1a8d10	0.009433046
62	0x3d818bd4	0.06325498
63	0xbd220b66	-0.03956165

hiden_layers.2.weight f4 [64, 64]
0	0xbe2958ab	-0.1653773
1	0x3e1780e1	0.14795257
2	0x3d01d981	0.03170157
3	0xbd52e12c	-0.051484272
4	0xbd9c034d	-0.07617817
5	0xbdee5c97	-0.11638754
6	0xbe2e542e	-0.170243
7	0xbe795f10	-0.2435267
8	0xbea8fa48	-0.3300345
9	0xbd7a83f8	-0.06116101
10	0x3dcb08fd	0.09913824
11	0xbdac2930	-0.084062934
12	0xbd719ab5	-0.05898543
13	0x3df2f6f9	0.118635125
14	0xbddeb526	-0.10874395
15	0x3e40fe21	0.18846942
16	0x3e1668bd	0.14688392
17	0xbd69a8c8	-0.057045728
18	0x3ac15fe3	0.0014753308
19	0xbe45ca17	-0.19315372
20	0x3e189e73	0.14904194
21	0x3e384bd1	0.17997672
22	0xbe07988a	-0.13241783
23	0x3e1eb7f9	0.15499867
24	0x3c820a98	0.015874192
25	0xbe3a473f	-0.1819124
26	0xbe5b4e20	-0.21416521
27	0x3cda73c2	0.026666526
28	0x3cb83933	0.022488212
29	0xbd683db0	-0.056699455
30	0x3e3373e1	0.17524673
31	0x3ca34070	0.019928187
32	0xbe3fe6f1	-0.18740441
33	0x3d53f993	0.051751684
34	0xbe435fd1	-0.1907952
35	0xbde00524	-0.109384805
36	0x3e4f60eb	0.20251815
37	0x3d8344b2	0.06409587
38	0x3dbe9adc	0.09306881
39	0xbc9dc92a	-0.019260962
40	0xbdc17820	-0.0944674
41	0x3db6fb93	0.08934703
42	0xbcb95a9d	-0.022626216
43	0x3e00e641	0.12587835
44	0x3ddf2688	0.10896021
45	0xbdfee79b	-0.12446519
46	0x3d7b67a0	0.06137812
47	0x3e04b75e	0.12960574
48	0x3dde9f71	0.10870255
49	0xbd96e39c	-0.07367632
50	0xbdfa38bf	-0.12217855
51	0xbe503ceb	-0.20335738
52	0xbdaa1a04	-0.08305743
53	0x3dfa3eaf	0.12218987
54	0x3df12ec7	0.117765
55	0x3e420feb	0.18951385
56	0xbdb4a60c	-0.088207334
57	0x3e26d26b	0.16291206
58	0x3e272486	0.16322526
59	0x3d14f9bb	0.036370974
60	0xbd70b6f5	-0.05876823
61	0x3cbcd508	0.0230508
62	0x3de38164	0.11108664
63	0x3e2961f0	0.16541266
64	0x3db94d0e	0.090479
65	0x3c12a3a5	0.008950149
66	0x3e0a00c6	0.13476858
67	0x3dfef790	0.124495625
68	0x3e574a74	0.21024495
69	0x3e443b94	0.19163352
70	0x3e098b69	0.13432087
71	0x3e8320b0	0.25610876
72	0x3e0a32b8	0.1349591
73	0x3e2b354e	0.16719553
74	0x3e3017f1	0.17196633
75	0x3e28bc07	0.16477977
76	0xbd91e0a7	-0.07122927
77	0xbc9edf09	-0.01939346
78	0xbc637fad	-0.013885421
79	0x3e093774	0.1340006
80	0xbdd99cac	-0.10625586
81	0xbbc08462	-0.0058751563
82	0xbe749bb0	-0.23887515
83	0xbe356c8a	-0.17717186
84	0x3c94f819	0.018184708
85	0xbdcbc407	-0.099494986
86	0x3ce4201d	0.027847344
87	0xbdc84e73	-0.09780588
88	0xbd4530d5	-0.048142273
89	0x3dc33744	0.095320255
90	0x3e79512b	0.2434737
91	0x3de16ac3	0.11006691
92	0xbdae1911	-0.08500875
93	0x3d0fec4d	0.035137463
94	0x3c400696	0.01172032
95	0xbd82bc1e	-0.06383537
96	0x3d6319dc	0.055444583
97	0x3e7243f0	0.23658729
98	0xbd62e7b6	-0.055396758
99	0x3e273078	0.16327083
100	0x3e367139	0.17816629
101	0x3d5c1733	0.053733062
102	0x3d12e4a5	0.035862584
103	0xbe5afc6a	-0.21385351
104	0xbdb533f3	-0.08847799
105	0xbe2b085d	-0.16702409
106	0xbbca7145	-0.0061780536
107	0xbb1a4a51	-0.0023542831
108	0x3cd00e00	0.0253973
109	0xbe1eee14	-0.15520507
110	0xbe0c0fee	-0.13677952
111	0x3e804911	0.25055745
112	0xbe46a4bd	-0.1939878
113	0x3e642dfd	0.22283168
114	0xbdc6e311	-0.09711278
115	0xbdc6ff3b	-0.0971665
116	0xbdfaef2a	-0.12252648
117	0x3e2fefdc	0.17181343
118	0xbde8f75b	-0.11375304
119	0xbe562220	-0.20911455
120	0x3e66f9cb	0.22556226
121	0xbdc1754a	-0.09446199
122	0xbde8d985	-0.113696136
123	0x3e473bf1	0.1945646
124	0x3d899cf5	0.0671939
125	0x3e5e43cd	0.21705551
126	0x3dd28817	0.10279863
127	0xbe71a091	-0.23596407
128	0x3e45737c	0.19282335
129	0xbe220b49	-0.15824617
130	0xbde42126	-0.11139135
131	0xbd9930f3	-0.074800394
132	0x3dc3cf34	0.09561005
133	0x3daac05c	0.08337471
134	0x3e34aaa5	0.1764322
135	0xbc8af49e	-0.016962346
136	0xbe391051	-0.1807263
137	0x3e777312	0.2416499
138	0x3d222e53	0.03959496
139	0x3e326a40	0.17423344
140	0x3d53b99e	0.05169069
141	0x3dd63a2d	0.10460315
142	0xbe35a18e	-0.1773741
143	0x3e427b22	0.18992284
144	0x3d4a9fba	0.049468733
145	0xbe3105eb	-0.17287414
146	0x3e3079da	0.17233983
147	0xbe752ced	-0.23942919
148	0xbe3a5b22	-0.18198827
149	0x3cc6de4a	0.024275918
150	0x3e1c41aa	0.15259424
151	0xbd93daba	-0.07219453
152	0xbc84f292	-0.016228948
153	0xbde286e9	-0.11060888
154	0xbdd359c5	-0.103198566
155	0xbdb23d1a	-0.087030604
156	0x3dbdc3b1	0.09265841
157	0x3ddd7fc0	0.10815382
158	0x3da44a8f	0.080220334
159	0x3e2d6a88	0.1693517
160	0xbdb5018f	-0.08838188
161	0xbe4b66e2	-0.19863465
162	0xbcb029c3	-0.021504289
163	0x3d305bdd	0.043056358
164	0x3e46dd68	0.19420397
165	0xbcc1704f	-0.023613123
166	0xbe303e65	-0.17211302
167	0x3e43a1a8	0.19104636
168	0x3e6ea7eb	0.23306243
169	0x3c09f6f9	0.008420699
170	0xbe435db4	-0.19078714
171	0xbdda1967	-0.10649376
172	0x3e5a37a2	0.21310285
173	0x3d8c1719	0.06840343
174	0xbd26e7b1	-0.040748302
175	0xbd2e7aaf	-0.04259747
176	0x3e815f19	0.25267866
177	0x3d0d9f3e	0.034575693
178	0xbe344742	-0.17605308
179	0x3e2e73f7	0.17036425
180	0xbe849b40	-0.25899696
181	0x3e1193e3	0.1421657
182	0x3e4c8f99	0.19976653
183	0xbd45cc70	-0.04829067
184	0xbe290991	-0.16507556
185	0x3da2e06f	0.079529636
186	0xbe65ee51	-0.22454192
187	0xbdd5c83f	-0.104385845
188	0xbc978d41	-0.018499972
189	0x3d4186ca	0.047247685
190	0x3e2776a6	0.16353855
191	0x3e47b8a4	0.19504029
192	0x3d324fc4	0.0435331
193	0xbe6a5148	-0.22882569
194	0xbd87e1a9	-0.06634838
195	0x3e62aa87	0.22135364
196	0xbe2dc05e	-0.16967914
197	0xbda5e7b0	-0.081008315
198	0x3d6783cf	0.056522187
199	0xbdf78d01	-0.12087441
200	0x3db2c886	0.08729653
201	0x3e3e9417	0.1861118
202	0x3e4a6a3c	0.19767088
203	0xbe413b26	-0.1887022
204	0x3df6c7ab	0.120498024
205	0x3d9b1e55	0.07574145
206	0xbd6d4a8a	-0.057932414
207	0x3ca88a5b	0.020573786
208	0x3d99908d	0.07498274
209	0xbe73c769	-0.23806538
210	0xbe577a34	-0.2104271
211	0x3ca08ed0	0.019599348
212	0xbe6ba8b4	-0.23013574
213	0xbd8c2594	-0.06843105
214	0x3e054514	0.13014632
215	0xbd841797	-0.06449812
216	0xbd51836f	-0.051150735
217	0xbd1c5bcc	-0.03817348
218	0x3dfc6d76	0.123255655
219	0x3dbf5c30	0.09343755
220	0xbdae9997	-0.08525389
221	0x3e35c7cb	0.17751996
222	0x3d9b1077	0.075715
223	0xbe2d0c5b	-0.16899244
224	0xbe70f39d	-0.23530431
225	0xbdd786e4	-0.10523775
226	0x3e7cfc6c	0.24705666
227	0x3de52cd6	0.111901924
228	0xbce1a721	-0.027545514
229	0x3de5528c	0.11197385
230	0xbc804b3e	-0.015660878
231	0xbe0bfbb5	-0.13670237
232	0x3e3e0026	0.18554744
233	0xbe71fcb1	-0.2363155
234	0x3d50a3fa	0.05093763
235	0x3c88ec0e	0.016714122
236	0x3d810aef	0.063009135
237	0xbe06a8d7	-0.13150345
238	0xbd27ef5e	-0.040999763
239	0xbd5358af	-0.051598247
240	0xbd83d0e3	-0.06436326
241	0x3dbba11f	0.09161591
242	0x3e01de5d	0.12682481
243	0xbe64fb74	-0.22361547
244	0xbd827992	-0.06370844
245	0xbde8d36c	-0.113684505
246	0x3df22d7f	0.11825084
247	0xbd638f65	-0.055556674
248	0x3e418b0b	0.18900697
249	0xbd4e0913	-0.050301623
250	0xbde86fec	-0.113494724
251	0x3e772a54	0.2413724
252	0x3d535454	0.051594093
253	0xbddb3cb5	-0.10704938
254	0x3e86509e	0.2623338
255	0xbcc0d274	-0.023537852

hiden_layers.2.bias f4 [64]
0	0xbd0de2dc	-0.034640178
1	0x3d146421	0.036228303
2	0x3d228cc8	0.03968504
3	0x3ba271a3	0.004957394
4	0xbc5d6136	-0.013511946
5	0xbd44c00d	-0.048034716
6	0x3b91f770	0.0044545457
7	0xbd8a213c	-0.0674462
8	0xbc5f3c62	-0.013625236
9	0xbc8bfeb1	-0.01708922
10	0xbd063b6c	-0.032771513
11	0xbd3faefd	-0.04679774
12	0x3c44d6ce	0.012014104
13	0xbc715c5f	-0.014731496
14	0x3d561f66	0.052276038
15	0x3d976101	0.07391549
16	0xbca7d8ad	-0.020489061
17	0xbd002541	-0.031285528
18	0x3d73f629	0.05956093
19	0x3caf2ab9	0.021382676
20	0x3d8e9a56	0.06963031
21	0xbcb9bfc5	-0.02267445
22	0x3c706037	0.014671377
23	0x3d1cd102	0.038285263
24	0x3c2bde31	0.010489986
25	0xbca096f4	-0.01960323
26	0x3d90a1d1	0.07062114
27	0xbb371478	-0.0027935784
28	0xbcfc67f9	-0.030811297
29	0x3c1604e3	0.0091564385
30	0x3ced1528	0.028940752
31	0x3d33be99	0.04388294
32	0x3cf3890e	0.029728439
33	0xbc64e535	-0.013970663
34	0xbc4ea474	-0.012612451
35	0x3c8c0c23	0.017095631
36	0x3d63c380	0.055606365
37	0x3b188752	0.0023274017
38	0xbc016095	-0.007896562
39	0x3c8ebc1e	0.017423686
40	0x3d891ae1	0.0669458
41	0xbcf59dad	-0.029982412
42	0xbb2d8ea7	-0.0026482733
43	0x3b6d9e40	0.0036257654
44	0x3ccf38b1	0.025295587
45	0x3cb5be6d	0.022185529
46	0xbc99e585	-0.018786201
47	0x3c7731bf	0.015087544
48	0x3c6c5d12	0.014426487
49	0xbd2f9b63	-0.042872798
50	0x3bafbe06	0.0053632287
51	0xbd4ee386	-0.050509952
52	0xbd78f5e7	-0.060781386
53	0x3c8b3608	0.016993538
54	0xbbc3d671	-0.005976491
55	0x3d916c54	0.0710074
56	0xbc36407e	-0.011123775
57	0xbd1cddaa	-0.038297333
58	0xbc7fc427	-0.015610731
59	0xbd4adfe4	-0.049529925
60	0xbd85cb96	-0.065329716
61	0x3d78bb13	0.060725283
62	0xbbd77757	-0.0065755057
63	0x3c62aa9e	0.013834624

hiden_layers.3.weight f4 [64, 64]
0	0xbde36181	-0.11102582
1	0x3e701c2d	0.23448248
2	0x3e4428ec	0.19156235
3	0x3c9fdc3b	0.019514194
4	0xbd767f75	-0.060180146
5	0x3e0ebfcd	0.13940354
6	0xbd651778	-0.055930585
7	0xbe7a3ba2	-0.2443681
8	0x3c00cea8	0.007861771
9	0x3d8907da	0.06690951
10	0x3e03f167	0.12885056
11	0xbde002a8	-0.10938007
12	0x3e487ca2	0.19578794
13	0xbe3a69cd	-0.18204422
14	0x3ec0b391	0.37636998
15	0xbd5480c6	-0.05188062
16	0xbdf3a2bd	-0.11896274
17	0xbe266185	-0.16248138
18	0x3d11483a	0.03546927
19	0xbe0cda15	-0.13755067
20	0x3e606a0a	0.2191545
21	0xbebb0ede	-0.3653478
22	0x3e6c7f3c	0.23095411
23	0x3e7033e4	0.23457295
24	0x3e55b4a6	0.20869693
25	0x3dae02b4	0.08496609
26	0xbd99a23d	-0.075016476
27	0xbda06328	-0.078314126
28	0x3e09456b	0.13405387
29	0x3e298b3c	0.1655702
30	0x3d02fe36	0.031980716
31	0x3e596484	0.2122975
32	0x3d8d25a1	0.06891943
33	0xbba3b870	-0.004996352
34	0xbe0f7d0b	-0.14012544
35	0x3e1332b4	0.1437481
36	0x3d92d9a9	0.07170422
37	0x3e09e357	0.1346563
38	0xbb71110d	-0.0036783845
39	0xbd9b2d8c	-0.07577047
40	0x3d2c2938	0.042031497
41	0x3de48911	0.11158956
42	0xbe66b247	-0.22528945
43	0xbe0c76d3	-0.13717203
44	0x3da3b9f9	0.07994456
45	0x3e5243b9	0.20533647
46	0x3c80f666	0.015742492
47	0xbd84326c	-0.0645493
48	0x3e49b7ef	0.19699071
49	0xbe6fc7e1	-0.23416092
50	0xbe0ac1b2	-0.13550451
51	0xbe30b060	-0.17254782
52	0x3e20645e	0.15663287
53	0x3e517e32	0.20458296
54	0x3dac9d08	0.08428389
55	0xbdddc981	-0.108294494
56	0x3dadf159	0.08493299
57	0x3da9be18	0.08288211
58	0xbe5091e7	-0.20368157
59	0x3d6d8c02	0.05799485
60	0x3cf0eeb8	0.029410705
61	0x3e77a919	0.241856
62	0xbd8621c3	-0.06549408
63	0x3e6ad398	0.22932279
64	0xbe3d167e	-0.18465611
65	0xbcdf7bd3	-0.027280724
66	0xbda5d116	-0.080965206
67	0x3d837449	0.06418664
68	0x3dd298f4	0.1028308
69	0x3e3d1224	0.18463951
70	0xbe875bbb	-0.26437172
71	0x3d864915	0.06556908
72	0xbe6acbd3	-0.22929315
73	0xbe4ac7b7	-0.19802748
74	0x3e13a44b	0.14418142
75	0x3db23636	0.08701746
76	0x3df5c426	0.12000303
77	0xbd714a1a	-0.05890856
78	0xbda0482c	-0.07826266
79	0x3e57b081	0.21063425
80	0x3e0cf1c1	0.13764097
81	0xbdba51ce	-0.09097634
82	0x3e3acd74	0.18242437
83	0x3e28763b	0.16451351
84	0x3e7c4cd8	0.24638689
85	0xbdbafd94	-0.091303974
86	0xbda52598	-0.08063811
87	0x3e03017f	0.1279354
88	0xbe0e72b9	-0.1391095
89	0x3da0b42b	0.07846864
90	0x3e2ae26c	0.16687936
91	0xbe3d03c3	-0.18458466
92	0x3e2c7c65	0.16844328
93	0xbd451515	-0.04811581
94	0xbe8d49ac	-0.2759527
95	0x3e04b29c	0.12958759
96	0x3e54673f	0.2074251
97	0xbd7d304d	-0.06181364
98	0x3e383452	0.17988709
99	0x3db6ca1c	0.08925268
100	0xbdf510e3	-0.119661115
101	0xbe50a1f4	-0.2037428
102	0xbe038ea3	-0.1284738
103	0x3d9f82c9	0.07788617
104	0x3d3e3bb2	0.04644365
105	0x3ca12917	0.019672913
106	0x3d410e0b	0.047132533
107	0x3e486b21	0.19572116
108	0x3daa22d8	0.08307427
109	0x3d922d1d	0.07137511
110	0x3e4710c3	0.19439988
111	0x3d02b77c	0.031913266
112	0x3e1f667e	0.15566441
113	0xbe28a694	-0.16469795
114	0xbe3126d1	-0.17299964
115	0x3e7ae1d1	0.24500205
116	0x3e2bffbe	0.16796777
117	0xbd78a014	-0.060699537
118	0xbdbe032b	-0.09277948
119	0x3e5245c5	0.20534427
120	0x3e65a1f4	0.22425061
121	0xbe0c4945	-0.13699825
122	0x3e123d81	0.14281274
123	0x3e0e6180	0.13904381
124	0x3dddbcf6	0.10827057
125	0x3da47cb1	0.080315955
126	0xbc2f85ec	-0.010713082
127	0x3e14043f	0.14454745
128	0xbce5657d	-0.028002495
129	0x3e1f6407	0.15565501
130	0xbe30adc4	-0.17253786
131	0xbd90d3c5	-0.07071642
132	0xbdf068e3	-0.117387556
133	0x3e144362	0.1447883
134	0x3e184b04	0.14872366
135	0xbe19c7e7	-0.15017663
136	0x3e04d760	0.12972784
137	0xbcb2b5be	-0.021815177
138	0xbacb90c2	-0.0015530812
139	0x3d9a4561	0.07532764
140	0xbdc9830d	-0.09839449
141	0x3b1d50c7	0.0024004446
142	0x3d83dbd7	0.064384155
143	0xbb16d40a	-0.0023014569
144	0x3d91509d	0.07095454
145	0x3df6df58	0.12054318
146	0xbe3baee9	-0.18328442
147	0xbe171e42	-0.14757636
148	0x3c47939d	0.01218119
149	0x3d408256	0.046999298
150	0xbe0e98ea	-0.1392552
151	0x3cb47b8e	0.022031572
152	0xbda8aa48	-0.082356036
153	0x3d7498dc	0.05971609
154	0xbe877e17	-0.26463386
155	0x3e193262	0.14960626
156	0x3e3bfbb1	0.18357731
157	0xbe7bef29	-0.24602951
158	0xbe0c7e9b	-0.13720171
159	0xbe2aa7e0	-0.16665602
160	0xbe80372f	-0.25042102
161	0xbce6018d	-0.028076911
162	0x3e20bad8	0.15696275
163	0x3d49275e	0.04910981
164	0xbd74dcd5	-0.059780914
165	0xbdff5c69	-0.12468798
166	0x3dfd1234	0.123569876
167	0x3d7f86dc	0.06238447
168	0x3e13e5bd	0.14443107
169	0xbe5c7d75	-0.21532233
170	0xbdef0efb	-0.11672779
171	0x3d77b5d0	0.060476124
172	0x3c591bf2	0.013251292
173	0xbe2566c8	-0.16152489
174	0x3e17eb81	0.14835931
175	0xbe3c940c	-0.1841585
176	0xbdefe96d	-0.11714444
177	0xbe38d646	-0.18050489
178	0x3e832de1	0.2562094
179	0x3e53f57d	0.20699115
180	0x3dab1e13	0.083553456
181	0xbded2b89	-0.11580569
182	0xbe2cc745	-0.1687289
183	0xbe92e257	-0.2868831
184	0xbe24c93e	-0.16092393
185	0xbe2f9fad	-0.17150755
186	0x3d752a06	0.05985453
187	0x3e44a227	0.19202481
188	0x3e2709af	0.16312288
189	0xbd07e6bd	-0.033179034
190	0x3d3a3434	0.04545994
191	0x3d456ebe	0.048201315
192	0x3db2930f	0.087194555
193	0xbe079526	-0.1324049
194	0x3ddaad8c	0.10677633
195	0xbdb5eedf	-0.08883452
196	0xbe5b9b4f	-0.21445964
197	0xbd11c2b6	-0.03558608
198	0x3d964e42	0.07339145
199	0xbe3f551d	-0.18684812
200	0x3d8c6036	0.06854288
201	0xbe27675a	-0.16348019
202	0xbe83874d	-0.25689164
203	0xbe2a5e63	-0.16637568
204	0xbe646793	-0.22305135
205	0xbe5cff35	-0.21581729
206	0xbdce682e	-0.100784644
207	0xbd18a0f7	-0.037262883
208	0xbe03936b	-0.12849204
209	0x3e104e90	0.14092469
210	0x3d02a6c1	0.03189731
211	0x3dc819d1	0.09770549
212	0x3d97bf1b	0.07409497
213	0xbd1093f9	-0.035297368
214	0xbe22df14	-0.1590541
215	0xbc581fd1	-0.013191179
216	0x3e0d36d1	0.13790442
217	0x3ddabe6b	0.106808506
218	0x3dbb58cd	0.09147797
219	0x3b913087	0.0044308337
220	0x3df0a5a1	0.11750341
221	0xbe5671bb	-0.20941822
222	0x3dbd4ae9	0.092428036
223	0x3daa422b	0.08313402
224	0x3e01afb1	0.12664677
225	0x3e24faa1	0.16111232
226	0x3e0e10b1	0.13873555
227	0xbe0ddefa	-0.1385459
228	0xbe95560b	-0.29167208
229	0xbd49c7b3	-0.049262714
230	0xbe6424f7	-0.22279726
231	0xbd79baea	-0.06096927
232	0x3db620e4	0.08892992
233	0xbe83360e	-0.25627178
234	0xbe2be4a4	-0.16786438
235	0x3ce8d144	0.028420098
236	0x3dbf6f14	0.09347358
237	0xbe213e0c	-0.15746325
238	0x3e2e520b	0.17023484
239	0x3df59179	0.11990637
240	0xbddce46f	-0.10785758
241	0x3e52ac15	0.20573457
242	0xbdaaa2c1	-0.08331824
243	0xbe0b9042	-0.13629249
244	0x3d66171f	0.056174394
245	0x3e49468b	0.19655816
246	0x3d9afa82	0.07567312
247	0x3e85d3eb	0.26138243
248	0x3e2137c2	0.15743926
249	0x3de2e4f5	0.11078826
250	0x3e342a43	0.17594247
251	0xbd9536cf	-0.072858445
252	0xbd1eef3d	-0.038802374
253	0xbe5eb05e	-0.21746966
254	0xbe082627	-0.13295804
255	0xbbcc1dea	-0.006229152

hiden_layers.3.bias f4 [64]
0	0x3cefc749	0.029269831
1	0xbcd7739a	-0.02630024
2	0x3d378476	0.04480406
3	0x3ccd596e	0.025067057
4	0x3cc98151	0.024597796
5	0xbb57e967	-0.0032945515
6	0xbca4746e	-0.02007505
7	0xbc12593a	-0.008932406
8	0x3e03360d	0.12813587
9	0xbcdefa35	-0.027218917
10	0x3c72d322	0.014820846
11	0xbcf5371f	-0.02993351
12	0xbb2ce477	-0.0026381293
13	0x3ce4bfe6	0.027923536
14	0xbc1878f9	-0.009306186
15	0xbd4924c3	-0.049107324
16	0x3cd1b7ed	0.025600398
17	0xbdb596e8	-0.08866674
18	0x3cadc798	0.021213338
19	0xbb2706d5	-0.002548625
20	0x3cfdeee2	0.030997697
21	0x3d8fe538	0.07026142
22	0xbd03653e	-0.032078974
23	0x3ca5dbd6	0.020246428
24	0xbc7bdc33	-0.015372324
25	0x3cb14af0	0.021642178
26	0xbc5b9b42	-0.013403716
27	0xbd24a2a2	-0.04019416
28	0x3cb42ee9	0.021995025
29	0x3d726f5d	0.059188236
30	0xbcea9f00	-0.02864027
31	0xbc745546	-0.014912909
32	0x3cb8b0bf	0.022545217
33	0x3cc3eb64	0.023915954
34	0x3d18ca7c	0.03730248
35	0xbc598273	-0.01327573
36	0x3c83d740	0.01609385
37	0x3d9813fb	0.07425686
38	0x3cfd8cd4	0.030950941
39	0xbc32a6e1	-0.010904045
40	0x3d0734e9	0.033009443
41	0xbd247dc0	-0.040158987
42	0x3bb60d86	0.0055558113
43	0xbd0d9e5d	-0.034574855
44	0xbcf4bc90	-0.02987507
45	0x3d1faf57	0.038985576
46	0x3cbe3a09	0.023221033
47	0x3cf5e740	0.030017495
48	0x3bae2583	0.0053145303
49	0xbc9744ca	-0.018465418
50	0xbd1b7a6f	-0.03795856
51	0xbdb32ca7	-0.08748751
52	0xbc0caec8	-0.008586593
53	0x3d168822	0.03675092
54	0xbd2b865f	-0.041876193
55	0x3c8fa1bd	0.017533178
56	0xbb0b507c	-0.002125769
57	0x3da8dfb7	0.08245795
58	0xbc97bf03	-0.018523699
59	0x3b2e9264	0.0026637549
60	0xbd3a5cca	-0.045498647
61	0x3dd11a2a	0.102100685
62	0xbc940e7e	-0.018073317
63	0xbb873cfd	-0.0041271434

hiden_layers.4.weight f4 [64, 64]
0	0xbe0e336e	-0.13886806
1	0x3d4811d9	0.048845146
2	0x3de7e93c	0.11323783
3	0xbe2fcd96	-0.17168269
4	0x3c609e6e	0.013709648
5	0xbcf96f58	-0.0304486
6	0xbd2e9ac9	-0.042628083
7	0x3db4833e	0.08814095
8	0xbe3ea5fa	-0.18618003
9	0x3c9627d2	0.018329535
10	0xbd9c5804	-0.07633975
11	0x3e03b518	0.1286205
12	0x3ca74cf1	0.02042243
13	0xbe352689	-0.17690481
14	0xbe098a34	-0.13431627
15	0x3d289437	0.041156974
16	0xbd6030ae	-0.054733925
17	0xba68ea36	-0.0008884998
18	0x3dfaf58a	0.12253864
19	0x3e5ac90e	0.21365759
20	0xbe44d225	-0.19220789
21	0x3d968b70	0.07350814
22	0xbe04ddc4	-0.12975222
23	0xbcd910e1	-0.026497306
24	0x3dab6a01	0.08369828
25	0xbe0eadf8	-0.13933551
26	0x3df9f1c4	0.12204316
27	0x3ddd0d1f	0.10793518
28	0xbe37ff7d	-0.17968555
29	0xbe3ab753	-0.18233995
30	0xbe400e37	-0.18755423
31	0xbd24bb81	-0.04021788
32	0x3e208d98	0.15679014
33	0x3cc25efc	0.023726933
34	0x3d80bd16	0.06286065
35	0xbe43a1d6	-0.19104704
36	0x3e2ef007	0.1708375
37	0xbd26063d	-0.040533293
38	0xbd7e3bd3	-0.06206877
39	0xbc0cce58	-0.008594118
40	0xbe0a8d5e	-0.1353049
41	0xbc808027	-0.015686108
42	0x3e62abab	0.22135799
43	0x3e24fef0	0.16112876
44	0xbd5078ef	-0.05089658
45	0x3e2c51a9	0.16828026
46	0x3e23a48e	0.15980741
47	0xbe3f2dcd	-0.18669815
48	0xbe407c68	-0.18797457
49	0xbd751435	-0.059833724
50	0x3d403a99	0.046930883
51	0x3df3fdc9	0.1191364
52	0xbe3b8401	-0.18312074
53	0x3dc38d1a	0.09548397
54	0x3e4c7d16	0.19969591
55	0xbdb81472	-0.08988275
56	0x3dacef00	0.08444023
57	0xbd742160	-0.05960214
58	0xbe4edc38	-0.20201194
59	0xbe11b71c	-0.14230007
60	0x3e1a0f35	0.15044864
61	0xbe59b09f	-0.21258782
62	0x3cfd227d	0.030900234
63	0xbe020ab6	-0.12699398
64	0x3d4f8eea	0.050673403
65	0xbe288fd7	-0.1646112
66	0xbe0966d0	-0.13418126
67	0x3d14ff2e	0.03637617
68	0x3b99113c	0.004671244
69	0xbd15a0fe	-0.036530487
70	0xbe2606d0	-0.16213536
71	0xbd4ec5c0	-0.050481558
72	0xbe486456	-0.19569525
73	0xbd2876c8	-0.041128904
74	0xbded68bf	-0.11592244
75	0x3dd74e5d	0.105129935
76	0x3e98921d	0.29798976
77	0x3e3067c4	0.17227083
78	0xbe0938ba	-0.13400546
79	0x3deb5071	0.11489952
80	0xbe82cf35	-0.2554871
81	0x3cb6726c	0.022271357
82	0x3e1ae20c	0.15125293
83	0x3da192ee	0.07889353
84	0x3e0e0b1c	0.13871425
85	0x3e365f7e	0.17809865
86	0x3e6e3306	0.23261651
87	0x3e06ce6e	0.13164684
88	0xbe63e9bb	-0.2225713
89	0xbe605a1a	-0.21909371
90	0xbe4728f7	-0.1944922
91	0x3d8c03ce	0.06836663
92	0x3be332fa	0.006933567
93	0x3d3606e0	0.04444015
94	0xbeb6f261	-0.35731795
95	0xbe360bde	-0.17777964
96	0x3e878085	0.2646524
97	0x3c94dc85	0.018171558
98	0x3e5cf081	0.2157612
99	0xbd148a51	-0.03626472
100	0xbe6c9ec4	-0.2310744
101	0x3d87af7c	0.06625268
102	0x3d8aa8ba	0.06770463
103	0xbd03c579	-0.032170746
104	0x3da9b5b3	0.082866095
105	0xbe248ca9	-0.16069283
106	0x3e689874	0.22714406
107	0x3e5e5430	0.21711802
108	0xbe279556	-0.16365561
109	0x3e84bbb1	0.25924447
110	0x3c8eded9	0.017440246
111	0xbc5a5cbd	-0.013327775
112	0xbe450363	-0.19239573
113	0x3dbb2b5f	0.09139132
114	0xbe4b2d62	-0.19841531
115	0x3d2f6b31	0.042826835
116	0x3dcff4b1	0.10154093
117	0xbd97f1c7	-0.07419162
118	0x3eab6807	0.33477804
119	0x3d4a3400	0.049365997
120	0x3dac7e55	0.084225334
121	0xbd8c510c	-0.06851396
122	0x3df27986	0.11839585
123	0xbc9777d4	-0.018489756
124	0x3eb9a2dc	0.36257064
125	0x3d39541a	0.04524622
126	0x3d94f402	0.07273103
127	0x3e133af3	0.14377956
128	0xbe38d872	-0.18051317
129	0xbe132bb4	-0.1437214
130	0xbe1cab07	-0.15299617
131	0xbe66cbe6	-0.22538719
132	0xbdc0da44	-0.09416631
133	0xbd19aaa3	-0.037516247
134	0xbd5dd195	-0.05415495
135	0x3e126cfe	0.1429939
136	0x3c76c59e	0.015061764
137	0xbe68805f	-0.2270522
138	0x3e3392ad	0.17536421
139	0xbe0e2167	-0.1387993
140	0xbd8a86de	-0.06764005
141	0x3e4f4ac8	0.2024337
142	0x3ea921ec	0.33033693
143	0xbd9f43d0	-0.07776606
144	0x3cbd573d	0.023112888
145	0x3e2478ad	0.16061659
146	0xbdfda7ef	-0.123855464
147	0x3cff86c2	0.031192187
148	0xbe15816f	-0.14600156
149	0xbe3835cf	-0.17989276
150	0xbdcefa63	-0.10106351
151	0xbcae531c	-0.021279864
152	0xbe50a0f1	-0.20373894
153	0xbe4afc08	-0.19822705
154	0xbd2e01c6	-0.04248216
155	0x3ec6a2a4	0.3879596
156	0xbe3834f5	-0.17988952
157	0x3dda7ebc	0.10668704
158	0xbdd90757	-0.10597103
159	0x3e37d24b	0.17951314
160	0xbde77a66	-0.113026425
161	0xbe3e0fff	-0.1856079
162	0xbe427e0b	-0.18993394
163	0x3e0ba217	0.13636051
164	0xbc5bb5c4	-0.0134100355
165	0x3d65fac3	0.056147348
166	0xbe83c95b	-0.2573956
167	0x3e789763	0.242765
168	0x3e6421be	0.22278497
169	0x3de847f4	0.11341849
170	0xbed4813a	-0.41504842
171	0xbdb5cf7f	-0.08877467
172	0xbd56e984	-0.05246879
173	0xbc35a40c	-0.011086475
174	0x3e0e20a6	0.13879642
175	0x3e3322f3	0.17493801
176	0x3e5450b6	0.20733914
177	0x3b734cde	0.0037124674
178	0x3e4e4f83	0.20147519
179	0xbe617c02	-0.22019961
180	0xbe19053d	-0.14943404
181	0x3e68c6e8	0.22732127
182	0xbd1370e7	-0.035996344
183	0x3c7a41ce	0.015274478
184	0xbe2e37f0	-0.17013526
185	0xbceb0711	-0.028689893
186	0x3e75932f	0.23981927
187	0x3e5317b6	0.20614514
188	0xbc20e121	-0.0098193
189	0xbb579e0d	-0.0032900602
190	0x3d122e16	0.035688482
191	0x3e81e1c5	0.2536756
192	0x3e02ea16	0.12784609
193	0xbd9c1d48	-0.076227725
194	0xbe14af10	-0.14519906
195	0x3e8c6de1	0.2742758
196	0x3e243f67	0.16039811
197	0x3d421d8d	0.047391463
198	0x3e55defb	0.20885842
199	0xbdad14e2	-0.08451249
200	0x3e378991	0.17923571
201	0x3de355f2	0.11100377
202	0x3dc01d28	0.09380561
203	0xbd863e11	-0.06554807
204	0xbd5a2083	-0.05325366
205	0xbe145595	-0.14485772
206	0x3d5fadb2	0.054609008
207	0x3e28f03f	0.16497897
208	0xbd7b9bad	-0.06142776
209	0x3d6f0cdf	0.058361884
210	0xbe7294e3	-0.23689608
211	0xbe9476d9	-0.28996924
212	0xbe2a26d7	-0.16616379
213	0x3cb848dd	0.022495681
214	0x3e5a8bb3	0.21342354
215	0x3e0371b1	0.12836339
216	0x3e3cd772	0.18441561
217	0xbe34b5ff	-0.17647551
218	0x3e66d8c6	0.2254363
219	0xbe6c0ff6	-0.23052964
220	0xbd9be039	-0.076111265
221	0x3d6c9bbe	0.057765715
222	0xbd061888	-0.03273824
223	0xbf0ae1dc	-0.54250884
224	0xbdc9395f	-0.09825396
225	0x3e68513f	0.22687243
226	0xbe405666	-0.18782958
227	0xbd6bd3c4	-0.057575002
228	0x3dfee5a4	0.12446144
229	0xbdeed6bf	-0.11662053
230	0x3dc8574b	0.09782275
231	0x3e52c084	0.20581251
232	0xbde6a039	-0.11261029
233	0x3dccf678	0.10007948
234	0x3d26325a	0.040575363
235	0x3e8ead14	0.27866423
236	0xbd3f83c2	-0.046756513
237	0xbe77c6ed	-0.24196978
238	0xbe1b9961	-0.15195228
239	0xbea22fc8	-0.3167708
240	0xbdb65de6	-0.089046285
241	0x3e7f347f	0.2492237
242	0xbca58a39	-0.020207511
243	0x3e802790	0.25030184
244	0xbe2452a8	-0.16047156
245	0x3dae517e	0.08511637
246	0x3e42b80f	0.19015525
247	0x3eb03474	0.3441502
248	0xbe3b7835	-0.18307574
249	0xbe263c04	-0.16233832
250	0x3cca9e37	0.024733646
251	0xbd107c7a	-0.03527496
252	0x3e0ab333	0.13544922
253	0xbd3fd8f9	-0.04683778
254	0x3e0e5251	0.13898589
255	0x3dc722fb	0.09723469

hiden_layers.4.bias f4 [64]
0	0xbdd986d6	-0.10621421
1	0xbdb5e165	-0.08880881
2	0xbcaca7f7	-0.021076186
3	0xbdd0289b	-0.10163995
4	0xbbd85bf8	-0.0066027604
5	0xbcec9628	-0.028880194
6	0x3c63bf5e	0.013900606
7	0xbc6ddc13	-0.014517802
8	0x3d495340	0.04915166
9	0x3d72b45e	0.059254043
10	0x3b7fcf2b	0.0039033394
11	0xbc13f9f6	-0.009031763
12	0x3da1d59c	0.07902071
13	0xbd85ac4b	-0.06527003
14	0x3c1c0cc5	0.009524529
15	0x3ce3ac02	0.02779198
16	0x3ba40ac7	0.0050061676
17	0x3baaad74	0.0052086655
18	0xbba994b3	-0.005175197
19	0x3cc399c5	0.023877034
20	0x3db5878e	0.08863746
21	0x3cb895c7	0.022532357
22	0xbd8ff50a	-0.07029159
23	0xbcc21745	-0.023692736
24	0x3d72b541	0.05925489
25	0xbcd9a861	-0.026569547
26	0xbd33ec95	-0.043926794
27	0xbcd4f82d	-0.025997246
28	0xbc8a5419	-0.016885804
29	0xbe15b119	-0.14618339
30	0xbcd188ff	-0.02557802
31	0x3c15d972	0.009146081
32	0x3b20d79e	0.002454258
33	0x3c69ba10	0.014265552
34	0xbdd474ac	-0.10373816
35	0xbd842e58	-0.06454152
36	0x3ca3baa6	0.019986462
37	0x3d17d6ab	0.037069958
38	0xbd07edd0	-0.03318578
39	0xbd189b03	-0.037257206
40	0x3da245b4	0.07923451
41	0xbc6afb9f	-0.014342218
42	0x3d15b118	0.036545843
43	0x3ca3f38d	0.020013595
44	0x3c21ef99	0.009883785
45	0xbce2c813	-0.027683293
46	0x3d8619c8	0.06547886
47	0x3c9cc8b9	0.01913868
48	0xbd264520	-0.040593266
49	0xbdbc5b7c	-0.09197137
50	0x3d85ed09	0.065393515
51	0x3d256052	0.04037506
52	0xbc770655	-0.015077193
53	0x3d1a1f38	0.03762743
54	0x3d4f4678	0.050604314
55	0xbc631601	-0.013860227
56	0xbdf58afc	-0.119894
57	0x3dde9ff2	0.10870351
58	0xbda7e192	-0.08197321
59	0xbc43433c	-0.011917885
60	0x3c825b47	0.015912665
61	0xbb06e4f1	-0.0020583237
62	0x3dc12dfc	0.09432599
63	0xbc2c86b3	-0.010530162
