results/1_first_try/epoch2100/model_weights.pth (torch, 484214 bytes, 88 tensors)

init_layer.0.weight f4 [64, 3]
000000 fb 00 04 be 41 73 64 bd e9 bb f7 3d a7 e1 8f 3e
       -0.12890999 -0.055773977 0.12096388 0.28101847
000010 bc 66 88 bb 2d 91 fa 39 cd 7d 03 be 77 c8 2b be
       -0.0041626375 0.0004779188 -0.12840958 -0.1677569
000020 68 ef 7b bb 9c 34 96 3e 50 f3 a4 3d 8d 1c f3 3c
       -0.0038442258 0.29337013 0.08054221 0.0296767
000030 d7 42 3a bb 6c 32 46 3e 26 96 a1 3d 3e eb 1a be
       -0.0028421187 0.19355172 0.07889967 -0.151288
000040 d8 2d ab be 74 c3 05 3d 7a 23 f3 3d f0 2b bf 3c
       -0.33433414 0.0326571 0.11872001 0.02333638
000050 0e 46 7c 3e 28 97 a1 3e d9 ec 81 3e 8f 9f 18 3e
       0.24636099 0.31560636 0.25376013 0.14904617
000060 a2 d6 98 3e 0f ac aa be ee 06 9b 3c a1 8c 5a be
       0.29851252 -0.33334395 0.018924203 -0.21342708
000070 18 34 1f be 0f 3c 3a 3e e6 b8 a0 be c8 ab 73 3d
       -0.15547216 0.18186973 -0.31391066 0.059489995
000080 40 56 8e 3c 1e 56 f5 3d d6 ac 3e 3e ea b5 63 bd
       0.017375112 0.11979316 0.18620619 -0.05559341
000090 59 0e 8a bd 81 2e ac bd f8 6d 09 3c c2 84 c2 bd
       -0.06741018 -0.084073074 0.008388035 -0.09497978
0000a0 2c 18 cc 3c fa 9a f3 3d 70 45 0f 3e c1 63 86 be
       0.02491387 0.11894794 0.13991332 -0.2624798
0000b0 54 14 69 bd d3 03 67 3e ac 04 45 be 03 af af bd
       -0.056904152 0.22560053 -0.19240063 -0.08578303
0000c0 0a e9 3e 3a f6 b4 c7 3c 50 57 da 3d df 69 a4 3e
       0.00072826503 0.024378281 0.10661185 0.32112023
0000d0 79 5a 3a 3e 98 d5 dc bd 60 5d 18 3e 58 36 d8 3d
       0.18198575 -0.10782927 0.1487937 0.1055724
0000e0 48 31 2c be 0f a0 83 be b7 e4 c7 3d f8 e9 f8 bd
       -0.16815674 -0.25708053 0.09760421 -0.12154001
0000f0 cc 14 59 3e 6a 0f ce bd 5a b9 10 bd 9d dd a9 3e
       0.2119934 -0.10061534 -0.035333015 0.3317689
000100 44 41 83 3c 09 1e af bc a0 11 45 bd d9 87 a9 be
       0.016022332 -0.021376627 -0.04811251 -0.33111456
000110 70 43 d0 3c b8 c9 d6 bd 8c 95 16 3e dc e9 59 bc
       0.025422782 -0.104876935 0.14705485 -0.013300385
000120 dd 3f 07 bd f3 a5 13 bd 53 32 20 3e e6 12 cf bd
       -0.03301989 -0.036046933 0.15644197 -0.101110265
000130 69 23 56 3e 36 fb 94 bd 27 c3 8f 3d a8 13 3a 3e
       0.20911945 -0.07274477 0.07019644 0.18171561
000140 c6 8c 39 3e 2c 4a 53 be a5 e1 44 be 36 57 e6 3c
       0.18120107 -0.20633763 -0.19226702 0.028117757
000150 27 04 4b bc 7f 79 48 3a 94 6e 08 be 55 99 e5 3d
       -0.012391127 0.0007647499 -0.13323432 0.112108864
000160 a8 f8 ad be d4 0c 25 3d ab d0 c1 be 93 03 e6 bd
       -0.33978772 0.040295437 -0.37854514 -0.112311505
000170 7f 0c 59 bd 8c 61 f6 bd ba 37 56 3a 6f 6f 99 3d
       -0.052990433 -0.12030324 0.0008171756 0.074919574
000180 c8 4a d0 bd 38 67 6c 3e 7a 51 2e 3e 33 d2 a3 be
       -0.101705134 0.2308625 0.17023268 -0.31996307
000190 50 cb 9d 3e 3a 57 10 bd 94 20 ab 3d 85 1d cc bd
       0.30819178 -0.035239436 0.08355823 -0.09966568
0001a0 4c d2 b7 3c 47 ec e0 bd fb cf 30 be 44 49 03 be
       0.022439145 -0.10982566 -0.17266838 -0.12820917
0001b0 1a 12 c9 bd 03 7a 86 3d 67 75 6e 3d 33 0d 59 be
       -0.09817906 0.06566241 0.058217432 -0.21196441
0001c0 5a 07 ad bc fb 95 76 3c 1b 3b 40 3e 92 bf 41 be
       -0.02112167 0.015050407 0.18772547 -0.18920735
0001d0 44 5b ff ba e8 cb ad be 07 6f 3a 3e b3 2f e7 3d
       -0.0019482155 -0.3394463 0.18206416 0.11288395
0001e0 f8 c6 45 3d 96 40 cb ba 44 9d 49 be 10 e9 dc bd
       0.048285455 -0.0015506919 -0.19688898 -0.10786641
0001f0 a3 09 8b 3d b7 f4 27 be 59 14 18 3d 01 3d d0 bd
       0.067889474 -0.16401945 0.03712878 -0.101678856
000200 b2 5e 13 3e 36 57 71 3d 48 b8 32 bd 3b b6 d8 3d
       0.14391592 0.05892106 -0.043632776 0.10581633
000210 85 f0 18 3e 71 06 4c be 4f f3 ae bd 64 16 c5 be
       0.14935501 -0.19924332 -0.08542501 -0.38493645
000220 3e 12 33 be 01 d8 a4 3d ac d3 83 bd 22 e6 0b be
       -0.17487428 0.08049012 -0.064368576 -0.13662007
000230 f4 3d 6c 3d 1a 38 17 3d c0 93 97 3e fc 3d 04 3c
       0.05767627 0.036918737 0.29604912 0.008071419
000240 38 ee 1c 3e 1e 4a a6 3e ad 61 87 3c 1d 83 20 3e
       0.15325248 0.32478422 0.016526068 0.15675016
000250 ef f9 7e be 14 01 2a 3e a3 a8 17 be 9c 27 73 be
       -0.2490003 0.16601974 -0.14810424 -0.23745579
000260 ac 86 c7 bc d5 0e cd be 6e 76 dd bd fa 9e 8e bd
       -0.024356209 -0.40050378 -0.10813604 -0.06963916
000270 63 6f b1 3e 87 4a 87 be d2 1a ed 3c 31 d4 03 be
       0.34655294 -0.26424047 0.028943453 -0.12873913
000280 43 3e 40 be f8 f1 c4 3c 44 e8 38 3e a5 0e 55 be
       -0.18773751 0.024041161 0.18057352 -0.20806368
000290 f7 88 f8 bd 50 16 6a 3e b4 e6 16 3d 9b eb 7e 3c
       -0.12135499 0.22860074 0.03684111 0.015559102
0002a0 aa 2f 46 3e 8f b5 a0 3d ff 78 d5 3d 23 35 59 3d
       0.1935412 0.078471296 0.10423469 0.05302919
0002b0 71 e5 b6 bb cf 91 ec bd 9c 2d c6 3d fb b1 be 3e
       -0.0055815508 -0.11551248 0.09676668 0.37245163
0002c0 e1 c7 10 3c 00 bb c0 3d 78 44 0c 3e 50 32 b1 bd
       0.008836717 0.094106674 0.13697994 -0.086521745
0002d0 a2 8b 5b be 4a 75 2e be 46 b3 e6 bc 71 30 3e be
       -0.21439984 -0.1703693 -0.028161656 -0.18573166
0002e0 7e 9f b7 3c 6f 84 43 bc 78 16 ba 3e 27 55 8b bd
       0.022414919 -0.01193343 0.36345267 -0.06803351
0002f0 ec 4c 41 3c 98 5c b4 3e 47 77 b7 3c 9a ed b1 3d
       0.011798125 0.35226893 0.022395743 0.08687897

init_layer.0.bias f4 [64]
000000 12 a0 7f 3d 0e 9f 26 3e 1e 53 cf bd 3a dc 18 3e
       0.062408514 0.16271612 -0.10123275 0.1492776
000010 2a e8 08 3d dd 10 a8 bd cf c0 dc bd 08 b4 2a 3e
       0.033424534 -0.082063414 -0.10778963 0.16670239
000020 c9 a4 b9 3d 41 42 24 be 24 d5 09 be 03 6a 9b 3d
       0.090646334 -0.16040899 -0.13460213 0.075885795
000030 28 2f 2c bd b8 8c b7 bd d2 a7 8a 3d 32 5c fb 3d
       -0.04203716 -0.08962387 0.067702904 0.12273444
000040 ca c1 57 3c b0 33 32 3e 68 3e 0f 3e ef b2 08 be
       0.0131687615 0.1740253 0.1398865 -0.13349508
000050 dd 9a 03 3e c5 25 1f 3e 86 4c 5d bd b8 25 ef bd
       0.12852044 0.15541752 -0.054028057 -0.11677116
000060 bd 3c da 3d 02 12 c0 bd a9 13 09 3e 53 81 cb bd
       0.10656116 -0.09378435 0.13386406 -0.09936776
000070 5c 4b 52 bd 0e cd b6 3d 72 29 28 be 0c ad f4 bd
       -0.0513414 0.0892583 -0.1642206 -0.119470686
000080 e3 1c e3 bd 42 06 07 be d3 9f da 3d 1e c1 09 be
       -0.11089494 -0.13185981 0.10675015 -0.13452575
000090 89 76 82 bd fc 79 04 be 8a 38 de 3d b8 09 20 be
       -0.06370265 -0.12937158 0.10850628 -0.15628707
0000a0 c8 e3 8d bd 1c 64 00 be ee 7d 9e bd f0 42 9c 3d
       -0.069282115 -0.12538189 -0.07738863 0.07629955
0000b0 5f a5 05 3e 70 90 18 be 5c 92 ca bd c7 2c 5b bd
       0.13051365 -0.14898849 -0.09891197 -0.0535095
0000c0 ef 3a ba 3c a7 3f eb 3d ad 1b 0c be 1a f9 22 be
       0.02273318 0.1148675 -0.13682432 -0.15915337
0000d0 b3 95 12 3e f5 ef 9a bd bc 19 0f 3e da 4a 20 3e
       0.14314918 -0.075652994 0.1397466 0.15653554
0000e0 7f 65 08 3e e8 33 e3 bd d8 7f 3c 3d 2e 6d d4 3c
       0.13319968 -0.11093885 0.04602036 0.025930967
0000f0 75 f3 1d be e9 91 02 be ff 4f 24 3e ba 89 0e 3e
       -0.15424903 -0.12750973 0.16046141 0.13919726

hiden_layers.0.weight f4 [64, 64]
000000 76 10 1d be f5 1f ba 3d d8 d8 df 3d 45 cc 4a 3e
       -0.1533831 0.090881266 0.109300315 0.19804485
000010 62 e3 2c be b8 08 39 3d 78 33 85 3d ab 59 85 bd
       -0.16883615 0.04517433 0.065039575 -0.065112434
000020 d3 09 ad 3c 15 80 8c bd 47 51 12 bd 04 3f 28 3e
       0.021122849 -0.06860367 -0.035722043 0.16430289
000030 91 db 21 3c 3b 09 2f 3e b3 94 35 3e e0 db 10 be
       0.009879009 0.17093365 0.17732506 -0.14146376
000040 c4 f1 ba bc 71 30 b9 bd b6 fa 40 3c d3 a1 5b be
       -0.022820361 -0.090424426 0.011778524 -0.2144845
000050 9a 1a 23 3d 50 91 46 3e 99 1c 97 3c 2e 4b af be
       0.03982029 0.1939137 0.018446254 -0.34237045
000060 f3 9b 49 3e 66 0d 3a bd ba 0b 59 bd 1c 00 1a be
       0.19688396 -0.045422934 -0.0529897 -0.15039104
000070 c9 e5 0e be 1d a5 00 3d db 10 b1 be 80 09 97 bd
       -0.13954844 0.031407464 -0.34583172 -0.07374859
000080 e7 40 c0 bd 68 cd e2 bd 29 94 19 3e c7 dc 61 bd
       -0.09387379 -0.110743344 0.14997925 -0.05514219
000090 50 9a b2 ba 4a 82 e0 bd f1 81 6b 3e 02 9a 33 3d
       -0.0013626311 -0.10962351 0.22998787 0.043848045
0000a0 4f 56 a0 3d 9b bc 1a be 48 f6 ba 3d 3a 46 16 bd
       0.07828962 -0.1511101 0.09129006 -0.036688067
0000b0 9b d0 58 bb f8 f4 18 bd 62 8d 18 bc 72 6d 32 be
       -0.0033083323 -0.037342995 -0.009311052 -0.17424563
0000c0 ba ef 5c 3e 8e 29 a9 bd 16 63 3b be d4 01 a7 bd
       0.21575823 -0.08259879 -0.18299517 -0.081546456
0000d0 84 88 e0 3d 90 66 17 bd 6b 39 5e 3e 25 cb 99 3e
       0.10963538 -0.036963046 0.2170159 0.300378
0000e0 5f 2e b3 bd f1 46 1d be be 05 cd bd e4 d2 8d 3d
       -0.08749079 -0.15359093 -0.10010861 0.0692499
0000f0 7a 7f f7 bb 08 90 9f be 4e f7 24 3e 6c a4 4d bd
       -0.007553038 -0.31164575 0.16109964 -0.050205633
000100 69 9a df bd 71 a2 87 bb 0d c4 90 be 90 79 c5 3e
       -0.10918123 -0.0041392376 -0.28274575 0.38569307
000110 f6 8a 0e be 8c ba c1 bd 34 6c 2e 3e a9 1a 06 bc
       -0.13920197 -0.09459409 0.17033464 -0.008185067
000120 2d ab e6 3d 16 b4 87 be d4 17 94 3d c9 92 9e bd
       0.11263118 -0.26504582 0.07231107 -0.07742841
000130 8b 2b 0e be ce ee 4e bd 96 54 de 3d 28 a7 81 3e
       -0.13883798 -0.05052071 0.10855977 0.25322843
000140 80 f8 90 bc 97 c4 9f 3e 23 20 ed 3d 89 f5 04 be
       -0.017696619 0.31204674 0.11578395 -0.12984289
000150 21 9a 12 3e 3c cf 66 3c 23 e4 b4 3d 82 e4 ea bd
       0.14316608 0.014087494 0.08832576 -0.11469366
000160 2e bb 96 bd 0a 20 ec bd f0 be 94 3e 68 83 88 3d
       -0.073599204 -0.115295485 0.29051924 0.06665689
000170 4e 48 bc 3d 1c 47 4c 3e f1 0e ca be 5b 05 86 be
       0.091934785 0.19949001 -0.39464524 -0.2617596
000180 39 e2 64 bd 84 5b d3 bd 98 72 1e 3e 07 1e 7b 3d
       -0.055879805 -0.103201896 0.15473402 0.061307933
000190 84 07 7e 3d 09 9f 84 be b6 7b 52 bc 82 7e ce 3c
       0.062018886 -0.25902584 -0.012846878 0.025206808
0001a0 cf f5 99 bc 71 07 c5 bd 55 36 4f be 82 fa ff 3c
       -0.018793968 -0.0962056 -0.2023557 0.031247381
0001b0 a7 e5 48 3e a5 87 ae be bc a9 18 3e 7b eb a6 bd
       0.19618855 -0.34087864 0.14908499 -0.08150383
0001c0 b8 7a 76 3c 46 43 7e bd f6 56 18 be ab b7 a3 be
       0.015043907 -0.062075876 -0.14876923 -0.31976065
0001d0 e2 5f 7f 3e 5a e5 7f be 53 5e 7a 3e c9 8f a8 3e
       0.2493892 -0.24989834 0.24450044 0.329222
0001e0 e3 e2 7a bd 26 53 6b bd 79 83 02 be 20 be c6 bd
       -0.061251532 -0.057452343 -0.12745465 -0.09704232
0001f0 82 83 00 3e 42 73 14 be b1 0e c4 3e 49 cc b7 3d
       0.12550166 -0.14497092 0.3829246 0.08974511
000200 46 36 56 3d 08 cd 06 be c8 90 94 3e c9 52 c8 bd
       0.052297853 -0.1316415 0.2901671 -0.09781415
000210 fa 30 9d be bb 66 a7 3c 99 84 a7 bc f0 73 a8 be
       -0.3070143 0.020434728 -0.02044897 -0.32900953
000220 f7 45 1c 3d 87 af f0 3b 48 ac ca 3c b9 60 d6 3d
       0.03815266 0.0073451432 0.024740353 0.10467667
000230 9e 6b 2c 3e 2e ad 55 be a8 f0 86 3e 53 fa 0b be
       0.16837928 -0.20866844 0.2635548 -0.1366971
000240 25 4b 0f be 00 00 8a be c2 8e 4e 3d 96 92 55 3d
       -0.13993509 -0.26953125 0.050429113 0.05214175
000250 ff b8 51 bd b2 a8 79 be 50 0d ea bd 54 e1 00 3d
       -0.051201817 -0.24380758 -0.114283204 0.03146489
000260 3c 6f 95 bd 90 9a ee bd 57 f6 3f be 3b 45 6d 3e
       -0.07296607 -0.11650574 -0.18746315 0.2317094
000270 b1 69 09 3d f6 fc 26 be 88 c1 b8 3e a5 49 67 3e
       0.03354806 -0.16307434 0.36085153 0.22586687
000280 35 ed 54 be 76 f9 22 bd 26 55 1b 3e ae c2 cf 3e
       -0.20793612 -0.039788686 0.151692 0.40578216
000290 d9 33 ad bd c1 a3 21 bd 81 72 1f bd b6 7c 7f 3d
       -0.08457155 -0.03946281 -0.03892756 0.062374793
0002a0 1e 3a f3 bd 22 ad af 3d 90 08 46 3e 2c 65 03 3e
       -0.11876319 0.08577944 0.19339204 0.12831563
0002b0 18 b6 3a 3e 73 cf a2 3d 43 00 02 3e 04 c0 b4 3b
       0.18233526 0.07949724 0.12695412 0.005516054
0002c0 ea bd 6a bc d9 c7 2b 3c dc d0 35 3e 1d 52 c4 3d
       -0.014327506 0.010484659 0.17755455 0.09585974
0002d0 cf 20 5f bc b6 79 05 bd c1 d1 e7 bd f0 a2 b9 bd
       -0.013618662 -0.032586776 -0.11319304 -0.09064281
0002e0 67 ca b8 be d8 ff a6 3e f4 35 4c be fb bc 17 be
       -0.3609192 0.32617068 -0.19942456 -0.14818184
0002f0 a0 a3 ca 3e 2a 4d f7 bc 3a d0 91 be af e5 2b 3d
       0.3957796 -0.030188162 -0.28479177 0.04196709
000300 1b c5 27 3e ee 59 85 be ce ab 26 3d c6 12 2f be
       0.16383784 -0.26045173 0.04069119 -0.17097005
000310 10 6b 0b 3e c7 7b 1e 3e 7f 9c c4 bc 69 af 33 be
       0.1361506 0.15476905 -0.024000404 -0.17547382
000320 25 3e 95 be 69 0b 6c bd 68 dc 33 3e a3 9d 30 bc
       -0.29148975 -0.05762807 0.17564547 -0.010779771
000330 14 f2 43 bd a7 fc 15 bc 51 63 b6 bd 9a 36 7f be
       -0.047838286 -0.009154475 -0.08905662 -0.24923173
000340 f9 10 39 bd 99 88 0f 3d f8 a2 e8 3c 3c 73 81 bc
       -0.045182202 0.03504238 0.028398022 -0.015802018
000350 3f 17 1e 3c a8 1f 8c be ad d1 3e be 67 e5 20 3c
       0.009649097 -0.27367902 -0.18634672 0.009820319
000360 75 a9 45 3e 7c 0e f7 3d 27 79 44 bd b7 03 dd 38
       0.19302924 0.120633096 -0.047967102 0.00010538793
000370 14 87 7c bd 37 49 81 be d3 e8 2d bd 12 4a 07 3e
       -0.061652258 -0.2525117 -0.042458367 0.1321185
000380 bc 4d 24 bd 9d 9c 48 3e 4d fc 6c be c0 25 10 3d
       -0.040113196 0.19590993 -0.2314312 0.03519225
000390 0c f9 03 3d b8 d7 4f bd a0 34 37 bc 5c 20 a7 3d
       0.03221993 -0.050742835 -0.01118198 0.08160469
0003a0 36 1a 59 be 3b a7 17 3d 06 a4 ab 3d 8f 24 0d 3e
       -0.21201405 0.037024718 0.08380894 0.13783477
0003b0 2e 8c c6 bd 9b 97 21 3e f3 15 db 3d d0 fd 2b 3d
       -0.09694706 0.15780489 0.10697546 0.0419901
0003c0 e2 0b 64 3d e8 97 1b be 81 dc 4a 3e 69 dc 93 3c
       0.055675395 -0.15194666 0.19810678 0.018049436
0003d0 ab 32 a2 be de 4a 3d 3e 23 3b 82 3d df 36 20 3c
       -0.31679282 0.18485591 0.06358936 0.009778707
0003e0 25 54 6f be 5e f6 56 bd 02 6a 03 be 3d d1 a9 3d
       -0.23371942 -0.052481048 -0.12833408 0.08291862
0003f0 c2 8d a3 bd f0 30 01 3e 27 92 51 be 3c 37 1a be
       -0.079860225 0.12616324 -0.20465909 -0.15060133

hiden_layers.0.bias f4 [64]
000000 7c de 00 3e 89 6e b4 3d 48 cc 33 be fb c3 b0 bd
       0.12584871 0.088101454 -0.17558396 -0.0863113
000010 89 0e de 3d 16 7f d8 3d 73 ca 2b 3e 17 05 f6 bd
       0.10842616 0.10571115 0.16776447 -0.120126896
000020 79 a5 1e be 28 ee 01 be 5c db 1e be 00 2a c8 3d
       -0.1549281 -0.12688506 -0.15513366 0.09773636
000030 08 9b 1a 3e d0 e0 f0 bd 2d c6 e2 3d 88 82 2c be
       0.15098202 -0.117616296 0.11072955 -0.16846669
000040 66 f3 15 be 11 d1 4f bd a0 e0 da 3d 43 8f d7 3c
       -0.1464363 -0.05073649 0.10687375 0.02631343
000050 9a 90 f0 3c 1a 10 b9 3d a1 5a 76 bd 90 7b b6 bd
       0.029365826 0.09036274 -0.060145024 -0.089102864
000060 2b 3e f0 bc 8e fd 44 3d f9 cd 8e 3d 59 0a ba bd
       -0.029326519 0.04809337 0.0697288 -0.09084005
000070 b6 de d6 3d 1d 4d fa 3d 1f 99 fe 3d 12 5a b6 bd
       0.104916975 0.122217394 0.12431549 -0.08903898
000080 de 71 72 bb f0 17 cf bd 05 c1 b9 bd 83 a5 7f 3d
       -0.003699414 -0.101119876 -0.09070019 0.062413704
000090 84 83 01 bd ee 9e c9 3d 2a 0c b3 3d 26 ba 08 bd
       -0.031619564 0.098447666 0.087425545 -0.03338065
0000a0 d9 47 20 be 6e c6 e9 3d 78 32 d0 bd 43 c7 9c b7
       -0.15652408 0.114148006 -0.10165876 -1.8689438e-05
0000b0 84 9f a9 bd 28 2a b3 3c 12 57 de bd fb 2d fc 3b
       -0.08282378 0.021870688 -0.10856451 0.007695911
0000c0 6a 89 80 3d aa 78 42 bd 7c 71 df 3d 49 d1 c7 bd
       0.0627621 -0.047478355 0.10910317 -0.09756715
0000d0 15 ca 0f 3e 5a 8e e8 bd cf f1 e9 3d b2 4e 22 3e
       0.14041932 -0.113552764 0.114230745 0.15850332
0000e0 e1 17 c2 bd ef 94 21 3e ba 43 52 3d 42 5f 9d 3d
       -0.09477211 0.1577947 0.05133412 0.076841846
0000f0 84 ad f4 3d 22 ba 46 3c 6f 03 1e bd 98 e9 14 be
       0.11947158 0.012129338 -0.038577493 -0.14542234

hiden_layers.1.weight f4 [64, 64]
000000 27 d8 df bd f0 1b d7 bd 2b 5a b8 be 25 d7 40 3e
       -0.109299 -0.105033755 -0.36006293 0.18832071
000010 15 85 13 bf b0 fa ec 3d 77 a7 94 bc 8e 00 5d be
       -0.5762494 0.11571252 -0.01814626 -0.21582243
000020 24 d5 8c 3d e2 fb e3 3d 77 b6 ce 3c 06 26 85 be
       0.06876591 0.11132027 0.02523349 -0.26005572
000030 92 1d eb 3d 03 41 94 bc e8 bb 61 bd 43 bc 68 be
       0.114802495 -0.018097406 -0.055110842 -0.22728066
000040 04 22 9a bd 8d 0e ba 3e 00 a0 9b bd bb 58 07 3e
       -0.07526019 0.36339226 -0.07598877 0.13217442
000050 90 35 1b 3e 3f 8d 4d bd d8 d0 b2 3c f8 41 18 bd
       0.15157151 -0.05018353 0.0218281 -0.037172288
000060 6a 22 11 be 0d 04 3b be 0a 82 ff 3c 0b c0 9b 3e
       -0.14173284 -0.18263264 0.031189937 0.30419955
000070 f4 de 37 be 8c 62 ba be 8c 04 a0 be f7 a6 e1 3c
       -0.17956144 -0.3640331 -0.3125347 0.027545435
000080 29 7d ac be 72 a7 ac 3e 51 83 80 be 9e 7e c8 be
       -0.3368924 0.337215 -0.25100186 -0.391591
000090 14 00 2b be bb 77 93 bd 5a ab c6 bc c3 37 cd 3d
       -0.16699249 -0.07200571 -0.024251629 0.10020401
0000a0 b6 c0 93 3d 19 d3 9c 3e c9 4a e2 bd b4 d1 89 3e
       0.07214491 0.30629805 -0.110494204 0.26917803
0000b0 0d 65 d5 3e 43 0e 1f be 47 9d 9d 3c 6c fd cd bd
       0.41678658 -0.15532784 0.019240035 -0.10058102
0000c0 14 ce cd 3d d4 bf 93 be 26 c8 9c 3c 92 0c 7b 3e
       0.10049072 -0.2885729 0.019138407 0.24516514
0000d0 4b 40 42 be 46 00 46 3e f0 e6 0a bd 34 26 44 be
       -0.18969838 0.19336042 -0.033911645 -0.19155198
0000e0 0d ed 14 3e 83 22 0f be 3e c8 b8 be a4 f7 24 3e
       0.14543553 -0.13978009 -0.36090273 0.16110092
0000f0 a7 4b 24 3e 3f 10 1c be 85 80 81 bd c0 69 80 be
       0.16044484 -0.15240572 -0.06323341 -0.2508068
000100 fe 18 4c 3d f5 62 af bc ac 94 29 be 7c 43 ce 3d
       0.049828522 -0.021409491 -0.1656062 0.100714654
000110 73 ee da bd 51 15 d6 bc 49 47 7e be ea bb 29 3c
       -0.10690012 -0.026133211 -0.2483188 0.010359744
000120 8c 86 69 3e 80 3b c3 bd 87 17 6a 3e 55 d3 ca 3d
       0.22805232 -0.09532833 0.22860537 0.0990359
000130 6d 7c 4f 3d af 44 3d bd 0a b0 32 3e 0c 8c c0 3d
       0.05065577 -0.04620808 0.17449966 0.09401712
000140 fe 17 15 3e 54 d7 8e bd 62 59 d9 3d 8a 13 c3 3d
       0.14559934 -0.06974664 0.106127515 0.09525211
000150 c5 9e 5b 3d 72 87 6b 3e ea 30 3e be 64 9c c6 3d
       0.05361821 0.23000887 -0.18573347 0.09697798
000160 66 ac 40 3e 37 49 6f 3e 91 c9 54 3e ae 1e 47 bd
       0.18815765 0.23367773 0.20780016 -0.048613243
000170 23 4b 08 be 6e 3c 97 3d 88 b4 f9 bc ad 66 1e 3e
       -0.13309912 0.07384573 -0.030481592 0.15468855
000180 61 02 42 3e 3d 36 2a 3e 29 5f 50 be a3 f4 23 be
       0.1894622 0.16622253 -0.203488 -0.1601129
000190 65 c1 ac be ae cf 83 bd df 36 b2 bc 42 5e 54 be
       -0.33741298 -0.06436096 -0.02175468 -0.20739082
0001a0 fb e2 29 be c2 12 8a be e3 19 ad bd 3f b5 32 be
       -0.16590492 -0.26967436 -0.08452203 -0.17451952
0001b0 c6 c8 dc 3c 56 4e 39 bd 79 da 91 bd 8d a6 fa be
       0.026951205 -0.045240723 -0.071217485 -0.48955193
0001c0 83 af 74 3e 39 d6 8d 3d 50 d8 36 be 75 29 2f 3d
       0.23895077 0.06925625 -0.17855954 0.042764146
0001d0 ac 91 2a 3d d5 70 37 bd be e2 df bd f8 34 6f bd
       0.04164283 -0.04478534 -0.109319195 -0.058400124
0001e0 f0 00 1e bc 12 0a 18 3e c5 78 6d be 34 89 e7 3d
       -0.009643778 0.14847592 -0.23190601 0.11305466
0001f0 02 ae b6 bc 97 c0 80 bd ad d4 b7 bd 78 72 75 3e
       -0.02229977 -0.062867336 -0.089761116 0.23969448
000200 1f 37 af 3d f2 e1 9a 3e ec ec 2a 3d 76 e0 91 3d
       0.085554354 0.30250508 0.041729853 0.07122891
000210 56 6a f2 3e c1 5b 82 3e ba 97 f7 bd 57 7d 7e 3e
       0.47346753 0.25460628 -0.120894864 0.24852501
000220 ab 59 17 3d 3b 31 15 be 2a 01 8b be e1 af c9 3d
       0.03695075 -0.14569561 -0.27149326 0.09847999
000230 e4 1f 21 3d 5e 9a 12 3d a4 2b 57 3e 3e c0 8c 3e
       0.039337054 0.035791747 0.21012741 0.2749042
000240 c8 39 bc bd 09 f4 db bd e1 4f 14 3e ed 90 9e 3d
       -0.091907084 -0.107399054 0.14483596 0.07742486
000250 0a 5a dd 3d 2a ef 6f be 42 ab 7e be db d7 74 be
       0.10808189 -0.23431078 -0.24870017 -0.23910467
000260 7e 7a 5c bd 3b 3a 19 3e b5 d0 8a bd 1d 93 36 be
       -0.053827755 0.1496362 -0.06778089 -0.17829557
000270 c7 76 b6 3e ff dc f8 3e 37 48 c8 3e 18 d0 8d 3e
       0.35637495 0.48606107 0.39117596 0.27697825
000280 37 e7 83 3e 16 ab 7a be 22 c1 e2 bd 01 77 a1 bd
       0.2576234 -0.24479327 -0.110719934 -0.07884026
000290 9e a3 f2 bc 33 94 b4 bd a1 f4 23 3d b6 f0 ec bd
       -0.029619034 -0.08817329 0.04002822 -0.115693495
0002a0 5e 5c 33 be 0f 2d 51 be 15 76 8d be 7c 3e f6 bd
       -0.17515704 -0.20427345 -0.27629152 -0.12023637
0002b0 5b 09 90 be c4 a6 fc 3d 29 aa 5e be 61 60 9c 3d
       -0.28132138 0.123364955 -0.21744598 0.0763557
0002c0 bd c2 bd 3b 79 36 92 3e 04 7e 08 3e d8 f3 8f be
       0.005791037 0.28557184 0.13329321 -0.28115726
0002d0 2e 45 83 3d 1f 7a b5 be 82 4e 16 3e 02 fe 46 bd
       0.06409679 -0.35444734 0.14678386 -0.048582084
0002e0 3d 49 8c be 32 a8 8c 3e 86 9e 08 be e7 39 11 3e
       -0.27399626 0.27472073 -0.13341722 0.14182244
0002f0 6e 93 94 bd 5c 07 b2 3d 2e 62 b4 bd e8 64 6d 3d
       -0.072546825 0.0869281 -0.08807789 0.05795756
000300 e9 60 21 3e 11 2c 88 3d 9b 0c 23 be da 73 07 3e
       0.15759625 0.0664903 -0.15922777 0.13227788
000310 a6 2d 0e 3f db 97 64 be 4f 6e b2 bc 7a 47 13 be
       0.55538404 -0.22323553 -0.021781115 -0.14382735
000320 12 de 2d bd 7e 94 54 bd 56 7b 0e be 23 3b bb 3e
       -0.04244811 -0.051899426 -0.13914236 0.36568555
000330 cc 80 94 3e c2 7b 31 3e d4 aa d8 bd 6e 82 03 3e
       0.29004514 0.17332366 -0.10579458 0.12842724
000340 2a 5d 43 bd 57 1c f9 bd 7e 31 9a 3d 0e ac 30 3e
       -0.04769627 -0.121636085 0.07528971 0.17253134
000350 2e 15 1c 3d 2f d1 82 be 3e 7b 15 3e 6a c1 dc 3d
       0.038106136 -0.2555022 0.14597794 0.10779078
000360 7c fa b6 3d cc 27 ab 3c 62 3e ea bd e1 e9 af bd
       0.08934495 0.020893 -0.1143768 -0.08589531
000370 5b b8 cd 3e a7 7b be 3e c4 e6 56 3e 99 99 43 3e
       0.40179715 0.37203714 0.20986468 0.19101562
000380 d9 b2 63 3e 48 00 e4 bd fb a7 13 be 5d 4e bb 3d
       0.22236194 -0.11132866 -0.14419548 0.09145806
000390 cb 51 ac 3d a1 dc 36 3e 2f 5e 8f 3d e3 8d 55 3e
       0.08414038 0.17857601 0.07000386 0.20854907
0003a0 5d 8b 5f bc 25 6c d2 bc 47 46 e9 3d fe fe 10 3e
       -0.013644067 -0.025686333 0.113903575 0.14159772
0003b0 8b 8f 3e be 6d aa 2a be 8f b8 80 be 2b 90 c4 bd
       -0.18609445 -0.16666575 -0.25140807 -0.0959781
0003c0 b3 ae 4a 3a 0d 69 0b 3e 81 fd cb bc b9 66 cf 3d
       0.00077317207 0.13614292 -0.024901154 0.10127015
0003d0 36 5c 79 3e 1e 9a 75 bd 8a 25 10 be 82 ac 26 3b
       0.24351582 -0.05996143 -0.1407682 0.0025432413
0003e0 8f 1f 02 be c3 14 10 be 7a cd 55 3e 69 35 85 bc
       -0.12707351 -0.1407042 0.20879164 -0.01626082
0003f0 e9 70 01 be fc 78 6a 3e 8b fc 88 3d e5 21 4c be
       -0.12640728 0.22897714 0.06688794 -0.19934805

hiden_layers.1.bias f4 [64]
000000 ec 98 1d bd b2 1e 26 3d 3e 94 61 3e eb 20 91 3d
       -0.038475916 0.040556617 0.22029206 0.07086357
000010 94 e8 7a 3d 7f 89 7f 3d 08 1a fd bc e4 21 0f 3e
       0.06125696 0.062386986 -0.030896202 0.13977772
000020 c2 1a 1b 3e ff 17 d1 bc ab df 2c bd d2 42 14 be
       0.15146926 -0.025524138 -0.042205494 -0.14478615
000030 69 71 5d 3d 96 bf 73 3d 2e d2 22 3e 77 53 87 bd
       0.054063234 0.059508882 0.1590049 -0.066077165
000040 e5 56 72 bb 9a 55 7d bd 9d 46 04 3d f1 06 39 be
       -0.0036978063 -0.061849214 0.032293905 -0.18069054
000050 99 dc 90 3d 98 3a 95 bd a5 00 0d be c8 56 84 3d
       0.07073326 -0.072865665 -0.13769777 0.06461865
000060 75 a5 1b 3d 71 75 47 3d 7e c9 82 3d 46 c1 c0 bb
       0.03799959 0.048695985 0.06386088 -0.005882415
000070 e0 15 97 bd 69 49 c8 bc 59 33 8b 3d 11 c2 c3 3b
       -0.07377219 -0.024449067 0.06796903 0.0059740623
000080 2d 3a 8a bd 9e ea b5 3d ec b1 ed bd b2 f1 57 bd
       -0.067493774 0.0888264 -0.116062015 -0.052720733
000090 2c 19 83 bd 03 d4 e3 3d 53 79 d9 bd d8 9f f2 3d
       -0.064012855 0.111244224 -0.10618844 0.11846894
0000a0 c5 a0 98 3d f5 11 9f bd be bf 15 be e4 9e 2c 3e
       0.07452539 -0.07767097 -0.14623925 0.16857487
0000b0 6c 23 87 bc c5 88 54 3d c3 b5 a9 bd 7e 03 eb 3d
       -0.016496383 0.051888246 -0.082866214 0.114752755
0000c0 19 d8 0e be e6 40 dc 3d 2e d4 bf 3d 41 48 3f 3d
       -0.13949622 0.10754566 0.09366642 0.046699766
0000d0 29 d3 36 bd 95 74 80 bd e1 20 53 3c 58 67 5f be
       -0.04463497 -0.06272236 0.012886257 -0.21816766
0000e0 07 f5 34 3d eb 8d f0 bd 95 9a 86 bc 32 f3 23 bc
       0.04417899 -0.11745819 -0.016431132 -0.010006713
0000f0 dd 1f 32 be b5 86 d8 bc 6f eb 9c 3d 95 1e e3 3c
       -0.17394967 -0.02643142 0.07662093 0.027724544

hiden_layers.2.weight f4 [64, 64]
000000 51 c8 f1 bd 2f 34 25 3e c8 13 a0 3c 07 d3 db 3c
       -0.118057854 0.16133188 0.019540682 0.026834024
000010 5c 56 36 bc a1 10 f2 bd e0 eb 8a be bd 6f 8e be
       -0.011128988 -0.11819578 -0.27133083 -0.27819625
000020 00 2a d1 be 37 18 74 bd 0a ee 8c 3d 2d 8e cd bd
       -0.40852356 -0.059593406 0.0688134 -0.100368835
000030 fa fa 56 bd 87 56 fd 3d 72 4b 48 bd 02 e5 52 3e
       -0.052485444 0.123700194 -0.048900075 0.20595172
000040 09 20 d4 3e 2f b4 ab bc f2 da d7 bd 1b 04 6c be
       0.4143069 -0.020959942 -0.105398074 -0.23048441
000050 a0 9b 48 3e cf 5b 21 3e a7 bc 82 be 30 d5 bb 3e
       0.19590616 0.15757678 -0.25534555 0.36686087
000060 9b 22 96 3b 41 d9 5e be e1 fb 3a be 58 fe 87 3c
       0.004581762 -0.21762563 -0.18260147 0.016600773
000070 3e 6c 0a 3c 05 c8 17 be 8f ff 60 3e bd 29 87 bc
       0.0084486585 -0.14822395 0.21972488 -0.016499395
000080 99 2c 40 be 8c 32 d3 3d d5 e2 82 be 58 aa 6a be
       -0.18767013 0.103123754 -0.25563684 -0.22916543
000090 36 67 8f 3e f7 8a 0d 3e ce b9 e3 3b af b2 8d 3d
       0.2800843 0.13822542 0.00694964 0.06918847
0000a0 ff d3 e2 bd 67 a4 59 3e d4 87 12 bd 7f 19 3a 3e
       -0.11075591 0.21254121 -0.035774067 0.18173788
0000b0 72 ff 07 3e a1 e7 26 3c 57 f8 e1 3d da f3 9a 3e
       0.13281038 0.010187061 0.11033695 0.3026417
0000c0 98 e4 3b 3e 36 4a 64 3e 6d d9 2f be 43 20 4b be
       0.1834892 0.22293934 -0.17172785 -0.19836526
0000d0 2d 3a 06 be 21 24 a2 3d 42 1d f0 3d fd 52 77 3e
       -0.1310813 0.07917047 0.117243305 0.24152751
0000e0 64 bc 37 bd 7a 0a 90 3d 99 de 60 3e df d3 dc 39
       -0.044857398 0.07033248 0.21959914 0.00042119526
0000f0 d5 41 ff bd 8f 9e 1f 3e 14 09 f4 3d aa 95 fa 3d
       -0.12463728 0.15587829 0.11915794 0.122355774
000100 0d 04 fd 3c db 60 40 3e ac de 89 3e 1e 78 45 3e
       0.03088572 0.18786947 0.26927698 0.19284102
000110 2f 6f fb 3d d7 b9 83 3e c8 9f 29 3e 9f c5 72 3e
       0.12277066 0.25727722 0.16564858 0.23708199
000120 1f 03 c7 3d bc 4f 3e 3d d7 b3 69 3e 57 a8 23 3d
       0.09717392 0.04646276 0.2282251 0.039955463
000130 3a 09 3a bd 5b 3e c9 bd df 45 7c bd 96 af 10 3e
       -0.045418955 -0.098263465 -0.06159007 0.1412948
000140 cf 19 0b 3e 82 16 11 be e3 f9 2a be 88 34 81 be
       0.13584064 -0.14168742 -0.16696887 -0.2523539
000150 2a 1d a5 3c f8 67 47 be b0 b4 15 be 63 8d 58 bd
       0.020155508 -0.19473255 -0.14619708 -0.052869212
000160 15 f1 f9 3d d9 f4 5b 3e e8 2b 25 3e a9 2d 0b 3e
       0.12204186 0.2148012 0.1613003 0.13591637
000170 96 0d 94 be a8 06 65 3e 4b 97 94 bd 0b 4d 49 be
       -0.28916615 0.2236582 -0.07255419 -0.19658296
000180 20 e4 8c bd d9 0f 2c 3e 27 9c 28 bd f4 d6 9c 3d
       -0.06879449 0.1680292 -0.041164543 0.076581866
000190 14 a2 17 3e cf 89 38 3e a1 2b 14 3e 3f 8e 5e bd
       0.14807922 0.1802132 0.14469768 -0.054334875
0001a0 9d bf ac 3d be f7 e3 be 82 5c 9b bd 27 3a 09 3d
       0.08434985 -0.4452495 -0.07586004 0.033502724
0001b0 a7 a4 2e 3e c4 02 1c bd b4 ed 82 be 08 cd 2f 3e
       0.17054997 -0.038088575 -0.25571978 0.17168057
0001c0 7b 2b 89 be 8c 02 b4 3d e2 3b f6 bc fb d2 5c be
       -0.26790985 0.08789548 -0.030057851 -0.21564858
0001d0 3b ad 88 be 3f ca 77 3c 5b 21 68 bd e1 c5 c3 bd
       -0.26694664 0.015123903 -0.056672435 -0.09559227
0001e0 a9 7e a8 3e e3 41 5c be 4e 40 78 be 31 72 b4 3e
       0.32909134 -0.21509509 -0.2424328 0.3524337
0001f0 e5 6e 44 bd 39 85 57 3e f6 a7 4c 3e 5e e7 7f bd
       -0.04795732 0.21046914 0.19985947 -0.06247651
000200 5c 2c 6a 3e aa f6 66 be d0 94 d9 be 01 82 19 be
       0.22868484 -0.22555032 -0.42496347 -0.14990999
000210 21 05 f7 3d 56 73 e7 3d e4 a1 2e 3e 10 d0 0c bd
       0.12061525 0.113012955 0.17053944 -0.03437811
000220 39 fa 2f be 22 31 be 3e 84 d1 b4 bc 7a 9e 75 3e
       -0.17185296 0.3714686 -0.022072561 0.23986235
000230 d0 6a 21 3e e1 3b 36 3e 5d 02 2a be 2b 21 47 3e
       0.15763402 0.1779628 -0.16602464 0.19446246
000240 5c 44 36 3c 1e b3 81 bd 0b ed 16 bd 15 74 e4 bd
       0.011124697 -0.06332992 -0.036847156 -0.111549534
000250 f6 48 7a be 51 42 8e 3d da e1 82 3e 29 ae c9 bd
       -0.24441895 0.069462426 0.25562936 -0.098476715
000260 8c a7 e7 bd 25 4a 80 be 14 94 6f bd 9e 46 43 bd
       -0.11311254 -0.25056568 -0.058490828 -0.047674768
000270 df 74 6a 3e 22 b1 84 3d b7 aa c3 3d 4f ed 63 3e
       0.22896145 0.06479098 0.09554046 0.22258495
000280 e3 4e d6 3c fc b3 18 be 55 d5 63 3d 60 fb e3 bc
       0.026160663 -0.14912409 0.05562337 -0.027829826
000290 5c 09 5f 3e 4f 4d ea bd bd db 38 be ff 0b c9 3c
       0.21780914 -0.11440527 -0.18052574 0.024541853
0002a0 b2 60 0a 3e ce fb 82 3e 8d 84 f6 bd f9 ba f6 bd
       0.13513449 0.25582737 -0.12037001 -0.12047381
0002b0 c2 e3 0b 3e 11 c2 ba bb 5f 13 96 3d 54 d5 83 3d
       0.13661101 -0.005699404 0.073279135 0.064371735
0002c0 0a 76 02 3f a3 23 1a bb 06 74 c3 be ba cd 7d 3e
       0.50961363 -0.0023519776 -0.38174456 0.2478551
0002d0 d0 f1 27 be 2d 30 84 3e 53 44 1b 3e 3d c6 2f 3c
       -0.16400838 0.25818005 0.15162782 0.010728416
0002e0 71 c3 4d be a4 1c 24 3e b5 48 36 be 06 3c be bd
       -0.20094086 0.1602655 -0.17801173 -0.09288792
0002f0 51 81 7b 3c 8c 67 94 3e de 0f 46 3c 27 42 07 3e
       0.015350656 0.2898525 0.012088744 0.13208829
000300 ad 0b 17 3e 29 b5 44 be f2 16 87 be ed e4 0e 3e
       0.14750548 -0.19209732 -0.26384693 0.13954516
000310 8d b9 7b be 44 f5 90 bd 88 3a a1 3d 8c 4e b6 be
       -0.24582501 -0.07078031 0.07872492 -0.35606802
000320 6e 98 f2 bd cb d1 91 3e 2b 33 8b 3e 88 b1 4d be
       -0.1184548 0.28480372 0.27187476 -0.20087254
000330 6e 59 27 3e 39 60 05 bc af 9c 2c be e0 be 06 3e
       0.16342708 -0.008140617 -0.16856645 0.1315875
000340 7e 71 ab 3d 36 a9 42 be 37 61 ac be 83 8b c1 bd
       0.08371256 -0.19009861 -0.3366792 -0.09450438
000350 9f db 75 be 60 bb 8c bd 70 8a 1b 3e 58 69 e5 bd
       -0.2400956 -0.068716764 0.15189528 -0.11201733
000360 69 7c 9f bd bc 4c 35 be d5 bb ab 3c 51 b0 31 3d
       -0.07787401 -0.17705053 0.020963589 0.04338104
000370 8d b4 82 bd 92 6b 83 3e c3 75 1d 3d af 12 3f be
       -0.063820936 0.25668007 0.038442384 -0.18659471
000380 f6 1e 29 be 2d 42 9f be 67 b2 93 3e f4 3a 7e 3e
       -0.16515717 -0.31105176 0.28847048 0.24827176
000390 13 8b d3 bd 26 78 2c 3e f0 9c 92 3d a7 f4 1d be
       -0.10329261 0.16842708 0.0715884 -0.15425359
0003a0 ec 92 05 3e ba c2 e2 bd 4b 5e 42 3d 4c 04 ad 3d
       0.13044327 -0.110722974 0.047453206 0.08448085
0003b0 61 4c 9e 3d 89 21 3c be 45 e5 58 3c 58 6b 54 bd
       0.07729412 -0.18372168 0.013238256 -0.051860183
0003c0 aa 49 a7 3e d8 b5 52 3d 5e 2f 78 3d d0 79 79 be
       0.3267339 0.05144295 0.060592048 -0.24362874
0003d0 a1 84 ef bc e3 ac ab bd 92 be a8 3d 7f 9b de ba
       -0.029238047 -0.08382585 0.082394734 -0.0016983597
0003e0 3d e8 12 3e 69 d2 bd 3c ed 43 36 bd 10 fc 9f 3e
       0.14346404 0.02317162 -0.044498373 0.31246996
0003f0 c0 c3 bc 3d 30 29 6c bd d4 39 52 3e 96 a8 e2 3c
       0.09217024 -0.057656467 0.20529872 0.027668279

hiden_layers.2.bias f4 [64]
000000 ea 07 a9 3c d2 b0 9a bd 52 93 70 bc de 89 7c bc
       0.020633657 -0.07553257 -0.014683561 -0.0154137295
000010 d8 c0 05 bd df 7f 0e bd 52 1b 09 bc e0 5a a1 bc
       -0.032654613 -0.034789916 -0.00836833 -0.019696653
000020 62 33 f8 3c 4e 58 32 3d 13 83 85 bd 94 4a 08 be
       0.030297939 0.043541245 -0.06519141 -0.133097
000030 e3 f7 55 3d 06 23 10 3b 8b 51 b6 3d ce 62 59 3d
       0.052238356 0.0021993532 0.08902272 0.053072743
000040 17 e6 9f 3d f4 02 6c be e6 45 65 3d 25 f9 2c 3d
       0.07807558 -0.23048002 0.055974863 0.04222979
000050 30 af 2b 3e 9c 89 85 3c da 2b 91 3e 16 b2 ff 3d
       0.16766047 0.016300969 0.2835377 0.12485139
000060 db fe 97 bd bd 90 e4 bd 22 e5 89 3c 99 19 0b be
       -0.07421657 -0.11160419 0.016832892 -0.13583983
000070 a6 f6 31 bb c9 29 a4 bd db 28 ec 3d 7a e4 e2 bc
       -0.002715507 -0.080157824 0.1153123 -0.027696837
000080 7a 0a 94 bd d3 a1 73 bc 5c 35 91 bd 39 ef 52 3e
       -0.07228561 -0.014870125 -0.070902556 0.20599069
000090 f5 bf d0 3b c3 0c 8f 3d 7b fb d4 3c cc 9d ca 3d
       0.0063705393 0.06984856 0.025998821 0.098933786
0000a0 0a c0 d3 3d 23 01 a8 bd 78 aa 8d bd fd 14 80 3d
       0.10339363 -0.08203342 -0.0691728 0.06254003
0000b0 44 ed 40 3e 53 1e 2c 3e 36 2f e0 bc 8b 12 46 3d
       0.1884051 0.16808443 -0.027366262 0.048357528
0000c0 2e b5 0b 3e b2 27 16 be 07 1c d4 bc 05 ec 53 be
       0.13643333 -0.1466358 -0.02589227 -0.20695503
0000d0 bb 4e 1d 3d 9b 00 db 3d 87 f4 bb bc 50 05 ae bd
       0.03840516 0.10693475 -0.022943748 -0.08497107
0000e0 74 0e 44 be a3 79 52 3c b2 ec ff 3b 52 5d d9 bd
       -0.19146138 0.012846383 0.0078101987 -0.106135026
0000f0 36 5e b7 bd 81 77 fb 3d f5 1a 05 3e ba bc d5 3d
       -0.08953516 0.12278653 0.12998565 0.10436387

hiden_layers.3.weight f4 [64, 64]
000000 94 2c e1 bd 8a ba 0d 3e 4c 3e a4 3e f1 3b d9 3c
       -0.10994831 0.1384069 0.3207878 0.02651784
000010 ec b9 84 bd 22 b1 54 3e 36 f0 8b bc ed e3 83 be
       -0.06480774 0.20770696 -0.017082315 -0.2575983
000020 d9 4d 20 bd fc 0f 2c be 2c 89 32 3e 5a 89 01 bd
       -0.03913674 -0.16802973 0.1743514 -0.03162513
000030 0c 70 89 3e c5 fa 67 be f4 3f 40 3e 74 19 16 3e
       0.26843297 -0.22654255 0.18774396 0.14658147
000040 2c c9 da 3d 7d f1 71 be ea 7a e4 bd 03 a8 37 3e
       0.10682902 -0.23627277 -0.111562565 0.17935185
000050 01 c4 c3 3e 0d 61 33 be 95 d6 56 3e db c2 c0 3d
       0.38235477 -0.1751749 0.20980294 0.09412166
000060 e1 9b 5f 3e d7 19 89 3d 28 ee b6 bd 1f 6f c3 3e
       0.21836807 0.06694382 -0.089321434 0.38170716
000070 83 6f 32 bd 77 64 89 3e fd 18 e7 bd 60 54 13 3e
       -0.043563377 0.2683446 -0.11284063 0.14387655
000080 7b cd 16 3e ec e1 9d 3d 59 d1 8d bd c7 db 74 3e
       0.14726822 0.07709107 -0.069246955 0.23911963
000090 df c2 6e 3d 8e e3 4c ba 0f 9b 2d be cc 17 06 be
       0.058291312 -0.0007815891 -0.16953681 -0.13095015
0000a0 4b 67 94 3c 5e 79 1e bf cd 5d 6c be ba 05 9e bd
       0.01811566 -0.6190394 -0.23082657 -0.07715936
0000b0 5c 7d 95 3e f2 af 27 3e 7e ed 2d 3e 0f 61 e6 3c
       0.29197204 0.16375712 0.16985127 0.028122453
0000c0 a9 b2 03 3e 5b 6d 72 be ad ac 23 3e 88 3f 9d bf
       0.12861122 -0.23674528 0.1598384 -1.2285013
0000d0 92 cb 15 3e 1b c3 6f 3e 9c 44 87 3e af 2b d7 bd
       0.14628437 0.2341427 0.26419532 -0.10506379
0000e0 0d 2a a5 3d 6c 1e a4 3d 2d 7c 60 bd a6 63 19 3d
       0.08064661 0.08013615 -0.054805923 0.037448548
0000f0 0e 44 5c 3b 37 38 19 3e c2 0c 1a be 70 5c 12 3e
       0.00336099 0.1496285 -0.15043929 0.14293075
000100 e9 b3 1e be 47 f8 39 bd c2 25 8a be 1a 31 ab 3d
       -0.15498318 -0.04540279 -0.26981932 0.08358975
000110 83 46 6e 3e e3 d0 95 3e 48 f7 96 be 18 77 eb 3d
       0.23269086 0.2926093 -0.29485536 0.11497325
000120 02 d6 84 be e1 1a f1 bd e9 f4 f9 3d 07 ae e0 3c
       -0.25944525 -0.11772705 0.12204916 0.027426733
000130 f4 25 87 3d e1 86 b0 bd cb 8d f8 bd 42 07 43 3e
       0.06599036 -0.08619476 -0.1213642 0.19045737
000140 b1 6c 7d 3d 39 ea 8c bc 32 cf 17 3e 88 37 31 3e
       0.061871234 -0.01720153 0.14825132 0.1730634
000150 1e 04 0f 3e d9 0b c9 bd 9c 0d a6 bd fc 7c 68 3b
       0.13966414 -0.09816713 -0.081080645 0.0035474887
000160 92 c5 1c be 69 b1 72 3c 7c 7f ad 3d 56 9b 0c be
       -0.15309742 0.014812806 0.08471581 -0.13731131
000170 27 8c a0 3e 83 ab 60 bd 9e 89 ce be 31 7a fd bb
       0.31356928 -0.054851066 -0.4033937 -0.0077355136
000180 9a 5c 24 3d 97 1a a3 bd 9d 8e c7 3d 5e 14 e2 3d
       0.040127374 -0.07964056 0.09743998 0.11039041
000190 a5 e5 dd bd 1e 41 9c be c5 0d 5b bd da d3 14 3e
       -0.10834817 -0.3051843 -0.05347993 0.1453394
0001a0 60 0e c1 3b db 42 d5 bd 41 7f 45 3d 20 bd d9 3e
       0.005891606 -0.10413142 0.048217062 0.42527103
0001b0 e1 ab 85 3e 1b 10 8f 3d b2 3c 8f 3e e3 16 11 3e
       0.26107696 0.06985494 0.27975994 0.14168887
0001c0 33 f7 89 3e 74 e8 12 be 3c a2 70 be 54 ce b6 3e
       0.2694641 -0.14346486 -0.23499388 0.3570429
0001d0 be fa 78 3e e6 ad 99 bc 6c 27 7c bd f0 24 65 3e
       0.243144 -0.018759679 -0.061561033 0.22377372
0001e0 f8 45 7c 3e 72 5d 50 be b9 69 d9 3d a1 f6 af 3e
       0.24636066 -0.20348147 0.10615868 0.3436785
0001f0 23 f7 92 3d 8e a4 c7 3d bb 48 49 3d 77 fb aa 3e
       0.07176044 0.09748183 0.049141627 0.33394977
000200 34 45 dd 3d 13 ce 2c 3e ee a9 8a be 48 6c 12 be
       0.10804215 0.16875486 -0.2708277 -0.14299119
000210 e0 af 68 bd 73 1c 6c 3e a6 bf 6e 3d e3 82 ad bd
       -0.056808352 0.23057728 0.05828824 -0.0847223
000220 f5 6f c6 3d 3c 81 8a bd 59 1b 61 bd 57 0e 56 3e
       0.09689323 -0.06762931 -0.05495772 0.20903908
000230 09 36 4f be ba 9c 7c bd 44 e8 77 3d 29 19 1d be
       -0.20235457 -0.061672904 0.06052424 -0.15341629
000240 85 28 0f bd 86 7b 4a 3e 17 1a 57 bd d2 92 80 be
       -0.03495075 0.19773683 -0.052515116 -0.25112015
000250 03 55 dd bd 3a 64 90 3d 0d 91 5e be e5 2d 3f bd
       -0.1080723 0.07050367 -0.2173502 -0.046674628
000260 02 aa 08 be 21 59 80 bd 56 61 6c be 6b 20 4e 3e
       -0.13346103 -0.06267 -0.23084006 0.20129554
000270 69 ea 3b 3e f3 8b 91 be 67 7e 96 bc 19 40 75 be
       0.18351139 -0.28427085 -0.01837082 -0.23950233
000280 8a 60 64 be e3 a1 9a 3c f6 0d 7c 3e e2 43 1f 3c
       -0.22302452 0.018876022 0.246147 0.009720774
000290 8f c1 06 be 55 69 fd bd 59 ce 3c 3e e1 cc a4 bb
       -0.13159774 -0.12373606 0.1843809 -0.0050293063
0002a0 83 2f 57 3d bb db 16 bd 16 2c bd 3c f6 e4 3b 3d
       0.052535545 -0.036830645 0.02309231 0.04587265
0002b0 98 e2 ee 3d 88 40 4f be ad 01 3e 3e 58 3e 53 be
       0.11664313 -0.2023946 0.18555327 -0.20629251
0002c0 75 b5 95 bd 46 e8 f3 bd 10 43 03 3e 0d 07 82 3e
       -0.07310001 -0.11909537 0.12818551 0.25396004
0002d0 f0 a9 b7 3d 0e 52 24 be 4e f0 49 be b2 46 9f be
       0.0896796 -0.16046926 -0.19720575 -0.31108624
0002e0 d2 2f 10 be 82 70 40 be 6f 11 f0 3d 6f 3d 62 3e
       -0.14080742 -0.18792918 0.11722075 0.22093748
0002f0 c7 33 72 3e 27 b8 55 bd d6 74 07 3e e3 ce d2 3c
       0.23652564 -0.052177574 0.13228163 0.025733417
000300 65 05 4c bd 21 50 1c be c1 fd 1b 3e 51 1e 29 be
       -0.049809832 -0.15264942 0.15233518 -0.16515471
000310 54 21 d0 be 18 d5 f6 bd d7 6e 34 3d e6 c4 85 be
       -0.40650427 -0.12052363 0.044051018 -0.26126784
000320 77 6e 19 3e 19 a0 fb be 28 25 96 be 38 21 54 be
       0.14983545 -0.49145582 -0.29325223 -0.20715797
000330 58 83 57 be 89 ca 2c be d1 b8 d2 bd 15 c7 81 3c
       -0.21046197 -0.16874136 -0.10289157 0.015842
000340 30 68 be bd 2f 75 ab 3c fe 30 d1 bc fb f2 20 3e
       -0.09297216 0.0209299 -0.025536057 0.1571769
000350 38 00 80 3e f2 81 9c bc 66 2a b7 bd 67 36 ca 3d
       0.25000167 -0.019104932 -0.08943634 0.09873658
000360 5e 14 6e 3e 6c 5d 00 3e 7d 16 7e 3e cb 69 26 3d
       0.23249957 0.12535638 0.24813266 0.040628236
000370 26 03 0e bd 40 6f f1 bd 2d c0 0e be 08 73 ba 3d
       -0.03467097 -0.117887974 -0.13940497 0.09103972
000380 41 56 23 3e 73 3f d5 3d ba 28 08 3e 6b 00 11 be
       0.15950872 0.104124926 0.13296786 -0.14160316
000390 4f 1f 8d be 80 0e d5 bc ae 22 6d be 55 7a 2f bd
       -0.2756295 -0.02600789 -0.2315776 -0.042841274
0003a0 2f c6 07 3e 59 be d3 be 49 e8 57 be da 1b 27 3e
       0.13259195 -0.4135616 -0.21084704 0.16319218
0003b0 ff d2 09 3e a6 26 ec bd c3 e3 2b 3e 55 7f 92 3e
       0.13459395 -0.11530809 0.16786103 0.28612772
0003c0 6d 9a 00 be a5 b1 41 3e 48 0d 9e bd d5 c6 fa be
       -0.12558909 0.18915422 -0.07717377 -0.48979822
0003d0 ba c3 09 be 80 16 a2 3e 5a 63 c0 3d 46 3f a2 3e
       -0.1345357 0.3165779 0.0939395 0.316889
0003e0 e9 1a 01 3f fc 76 fc 3d 5a 59 50 3e b8 a0 0c be
       0.50431687 0.12327382 0.20346585 -0.13733184
0003f0 7f 5e 11 be 7c 1c 53 be af fd 70 be 6a 7b 31 3e
       -0.14196204 -0.20616335 -0.23534273 0.17332235

hiden_layers.3.bias f4 [64]
000000 2a 3e 12 3e ee 85 c4 bd 87 70 d2 3d 99 28 e0 3d
       0.14281526 -0.095958576 0.10275369 0.109452434
000010 79 1c 86 be ab 5b e4 bc 33 fd c1 bd b9 0a 66 be
       -0.26193598 -0.027875742 -0.09472122 -0.22465028
000020 b6 3a f1 3e f1 29 f2 bc 5d c4 c3 3d b4 0b a6 be
       0.47115105 -0.029561015 0.09558938 -0.32430804
000030 df 7f 4e be 9a 2a aa bd 47 26 34 be 22 32 e1 be
       -0.20165966 -0.08308907 -0.17592727 -0.4398356
000040 27 2c c9 3c 1e bd 63 be 70 61 3c bd 28 95 dc 3c
       0.024557186 -0.22240111 -0.04599136 0.026926592
000050 67 a3 98 bd 73 ac 70 3e c1 1d 4e be 72 94 23 ba
       -0.074530415 0.23503284 -0.20128538 -0.00062400766
000060 ac 30 1a 3d 41 59 55 3e a8 6b 5a be 61 11 18 bc
       0.037644073 0.20834829 -0.2133013 -0.009281487
000070 46 db 89 3d eb a0 ba 3d 64 81 55 3d ac 15 1a bd
       0.06731276 0.09112724 0.05212535 -0.037618324
000080 99 2d 95 3d 81 c2 d9 bd 9c 97 7e bb 0e a1 3e 3d
       0.07284088 -0.10632802 -0.003884769 0.046540312
000090 50 c0 90 3e 80 82 e2 3e 0f 08 27 3e 6d 49 07 be
       0.28271723 0.4424019 0.16311668 -0.13211603
0000a0 7b c5 4d 3e d2 d7 2d be 8b 45 7d 3d 7b 2e a8 bd
       0.20094864 -0.1697686 0.0618339 -0.082119904
0000b0 39 bb 80 3d e8 d8 12 3e 15 9c 49 3e 23 97 85 3e
       0.0628571 0.14340556 0.19688447 0.2609187
0000c0 48 f1 3f be 6a fa d1 bc fd c2 42 be 88 78 6d be
       -0.18744385 -0.025632102 -0.19019695 -0.2319051
0000d0 db 8e 25 3e ad ab a1 3e 16 d0 12 be 68 27 7b be
       0.16167776 0.3157629 -0.14337191 -0.24526751
0000e0 b7 e9 f2 3d ea 1c 2e 3e 6c bc 04 3e dc 3a 52 3d
       0.11860984 0.17003217 0.12962502 0.051325664
0000f0 bd ed 03 bd 10 1b ae 3e 5c 62 3e be 0e f5 b6 3d
       -0.032209147 0.34005022 -0.18592209 0.08933459

hiden_layers.4.weight f4 [64, 64]
000000 71 af 58 bd 06 b2 14 3e 4a fe d7 3d 4f ad 92 be
       -0.05290169 0.14521036 0.10546549 -0.2864785
000010 51 5f fd 3d 6d 71 39 bc 60 b9 93 3d c2 9b be 3d
       0.12371696 -0.011318547 0.07213092 0.09307052
000020 31 50 e1 be 5c 12 0f 3d aa 37 62 bd 18 82 dc 3d
       -0.44006494 0.03492962 -0.055228867 0.10767001
000030 c4 ca ee bc fa 08 56 be 00 c7 7d be fd 26 ab 3d
       -0.02914942 -0.20901862 -0.24782944 0.08357046
000040 e9 a2 07 be 08 b5 98 bc 92 1b 57 3e 1a 51 3e 3e
       -0.13245739 -0.01864101 0.21006611 0.18585625
000050 41 4a de be e8 24 d3 3d 30 e9 01 bd 0f 61 15 bd
       -0.43416026 0.10309774 -0.031716526 -0.036469515
000060 f2 1e 75 3d 08 f0 a7 bd 5c bf d9 3d e9 df 24 3d
       0.059843965 -0.08200079 0.10632202 0.0402526
000070 1a ce 9f be cb 1d a1 be 1f 0a 88 be fe b2 ca bd
       -0.3121193 -0.31468043 -0.26570222 -0.09897421
000080 a4 26 62 3e 31 7f 91 3d 9b 4f 09 3e 2f 64 24 be
       0.22085053 0.07104338 0.13409273 -0.16053842
000090 3e f6 d9 3d 54 7c 9e 3b 78 47 00 be c8 6d be bc
       0.1064267 0.0048365984 -0.12527263 -0.023245707
0000a0 6e 60 18 be 09 64 5c 3d 5f 6d 81 3e ef 44 36 3e
       -0.14880535 0.05380634 0.25278756 0.17799734
0000b0 14 66 d9 bd 16 10 20 3e 52 30 e5 3d 91 fb 2b be
       -0.10615173 0.15631136 0.11190857 -0.16795184
0000c0 1c 75 72 be 05 54 3e be b8 32 31 bd 95 bc d8 3d
       -0.23677486 -0.18586738 -0.04326126 0.10582844
0000d0 49 15 1e be 1f 6d c6 3d b8 0a 4e 3e 1c c3 77 bd
       -0.15437807 0.09688782 0.20121276 -0.060488805
0000e0 47 0a aa 3e 70 db b7 3d b1 16 1a be 6a f8 0d be
       0.33210966 0.08977401 -0.15047719 -0.13864294
0000f0 56 41 35 3e db 54 99 be c1 44 30 bd e7 c1 12 be
       0.17700705 -0.29947552 -0.04303432 -0.1433178
000100 d6 3b 12 3e fc c1 2a be 83 7c 7d be 72 f6 1f 3d
       0.14280638 -0.16675562 -0.24754529 0.039053388
000110 b9 93 63 bd 06 f2 82 be 44 44 c2 3c 30 f7 26 bd
       -0.0555608 -0.25575274 0.023714192 -0.04076308
000120 5b af d1 be ae f4 27 bd e7 31 97 bd d1 52 3f 3e
       -0.40954098 -0.04100483 -0.07382565 0.18683936
000130 f3 02 a0 3e 0b d4 05 be 95 2b 10 be e4 ce 21 3e
       0.3125225 -0.13069169 -0.14079125 0.15801579
000140 57 8b ae be 7d b5 56 3d d1 03 01 3e 03 35 17 3e
       -0.34090683 0.052419174 0.12599112 0.14766316
000150 cf d8 ef 3e 10 9f 4b 3e b7 f4 20 3e 15 0b 26 3e
       0.468451 0.19884896 0.15718351 0.16215165
000160 8a ee b8 bb f2 8c 58 be 61 59 90 be 23 e4 8f 3d
       -0.0056436704 -0.21147516 -0.2819319 0.070259355
000170 fd 73 a8 be 7a f0 9d bd cf d3 df be b6 13 3f be
       -0.32900992 -0.07711883 -0.43716285 -0.18659863
000180 83 64 c9 3e bd dd 41 3e 01 f2 27 bd c9 5c ad bb
       0.39334497 0.18932243 -0.041002277 -0.005290602
000190 78 96 cd bc 50 cd 32 3d 45 11 a1 3e c4 64 2a be
       -0.025096163 0.043652833 0.31458488 -0.16640002
0001a0 1c db 17 3e 51 23 63 be 86 b0 a2 3e da 88 bc 3c
       0.14829677 -0.22181441 0.31775302 0.023014475
0001b0 cb 03 19 be 40 9d d6 3e c9 e5 af 3d 8c 57 91 bd
       -0.14942853 0.41916847 0.0858875 -0.07096776
0001c0 9b 26 9d be 72 3c b7 be 8f 15 31 be 3e 6e 9c 3d
       -0.30693516 -0.35788304 -0.1729338 0.076382145
0001d0 78 58 1e 3e 4a 9a af bf 7b 4b 74 3e e3 d1 1d bd
       0.15463436 -1.371896 0.23856919 -0.03853024
0001e0 16 77 f3 bd 54 35 36 be 9f ec ec 3d e0 1c 1f 3e
       -0.11887948 -0.1779378 0.115685694 0.15538359
0001f0 41 4e 0f 3f c9 37 85 3e c5 1c 74 bc d5 b8 6c 3e
       0.5597878 0.26019123 -0.014899437 0.23117383
000200 62 bb 71 be a2 a8 d9 be b6 6e 09 3e 1b b3 99 be
       -0.23606637 -0.4251147 0.13421139 -0.3001946
000210 9e 4d 69 bd 98 70 71 bd 3f 11 23 3e db 59 80 3d
       -0.056958787 -0.05894527 0.15924548 0.062671386
000220 fb d7 fa bd 27 a7 22 be 01 9d 5a bd 6a cd 46 bd
       -0.12248226 -0.15884076 -0.053372387 -0.048535742
000230 ba 75 c3 3c f5 26 83 3e 8d 86 9d 3e 3f e1 4d be
       0.023859847 0.2561566 0.30766717 -0.20105456
000240 a5 29 e0 3c 8e d3 b7 3b c6 60 ab bd e5 6d 8e 3d
       0.027363608 0.005609936 -0.083680674 0.069545545
000250 6a fc 4a bf 67 9a 80 be 6b c9 89 be 1b 1b 63 3e
       -0.79291403 -0.251178 -0.26911482 0.22178309
000260 6a c2 72 be 48 bc 38 be f7 14 0f bf 91 95 76 3e
       -0.23706976 -0.18040574 -0.55891365 0.24080493
000270 af e8 84 be bf d5 a4 3e 12 d9 f1 bd 63 77 6a 3e
       -0.25958773 0.32194325 -0.11808981 0.22897105
000280 ac 9c 2a bb 03 fc dd bd d5 80 0d be 2f 8a 02 3e
       -0.0026033325 -0.10839083 -0.13818677 0.12748025
000290 04 ec 75 3e c5 44 eb 3d 0f c2 2c bf dd 63 8e 3e
       0.24015814 0.11487726 -0.6748361 0.27810565
0002a0 8c 68 7b 3e d1 9b a5 be 04 29 d5 be 98 2b dc bd
       0.245516 -0.3234544 -0.41632855 -0.10750502
0002b0 ca 5d d7 bc ea 10 e1 bd 36 1d fc 3d 1a 45 af 3e
       -0.02628984 -0.10989554 0.12310259 0.34232408
0002c0 b3 c3 8a 3e 37 f4 88 bd 36 cd dc 3e f3 70 15 be
       0.27102432 -0.06687205 0.43125314 -0.14593868
0002d0 7e 36 d8 bd 93 ef 0d 3e 40 af 97 be 1c 90 4a be
       -0.105572686 0.13860922 -0.29625893 -0.19781536
0002e0 4b 45 f0 3d c3 06 c4 bb dd a2 be 3c 99 1c 3c 3e
       0.117319666 -0.0059822514 0.023271019 0.18370284
0002f0 9d b9 9d be 8e d2 91 3d f1 3f de 3d 21 8e ba 3e
       -0.30805674 0.07120238 0.108520396 0.3643656
000300 5a 07 3e 3d b8 b6 4d be 02 96 2f be d5 70 84 3e
       0.04639373 -0.20089233 -0.17147067 0.25867334
000310 78 d4 53 3e c5 c8 24 3e 0c 04 b7 3e 6e 5a 6f be
       0.20686519 0.16092212 0.35745275 -0.2337434
000320 a8 fb 3f 3e 56 66 d6 3d f7 1e 26 3d 80 c9 43 3e
       0.18748343 0.10468738 0.040556874 0.19119835
000330 41 d1 2a be 80 fd 83 be 78 0d b0 3c b6 7e 9d 3e
       -0.16681387 -0.25779343 0.021490797 0.30760735
000340 08 5e d7 be 52 01 12 3e 8f 56 64 be 8c f0 36 be
       -0.42063928 0.14258316 -0.22298644 -0.17865199
000350 af 6b 9a bd 53 0e 0c 3d 79 46 dd 3e d3 cc 50 3e
       -0.0754007 0.03419335 0.4321783 0.20390634
000360 b8 f5 52 3e ae 4c a3 bd d9 7e ca 3d 59 7f b0 be
       0.20601547 -0.0797361 0.098874755 -0.3447216
000370 44 36 5d bc 3d 41 0a bf 15 0c b6 ba 17 c7 22 bf
       -0.013501707 -0.54005796 -0.0013889099 -0.63585037
000380 62 73 c3 be b4 4f 8a 3e 72 c7 5c be 2a 1f 1a bd
       -0.38173968 0.27013934 -0.21560457 -0.037627377
000390 29 74 1f 3e ab 7f ad bc 4a a3 d4 3d 08 fa ed 3d
       0.15571655 -0.02117904 0.103827074 0.11619955
0003a0 89 45 c4 bd 49 04 5a 3e a0 c9 0d 3e db 8f ef 3e
       -0.09583575 0.21290697 0.13846445 0.4678944
0003b0 1a 7c 1b be 37 10 21 be 9c 35 32 be e1 d8 74 be
       -0.1518406 -0.15728842 -0.17403263 -0.23910858
0003c0 98 ab c3 bd b4 06 4f 3e 01 b6 14 bd d5 48 31 3e
       -0.09554213 0.20217401 -0.036306385 0.1731294
0003d0 55 15 c1 bd f5 1e b4 3e 80 e2 67 3e d4 59 f5 3e
       -0.09427897 0.35179868 0.22644997 0.47920096
0003e0 ce 66 b1 3c 09 c5 66 bd 24 83 73 bd d9 9b ae be
       0.021655466 -0.05634025 -0.059451237 -0.34103277
0003f0 6a 19 31 bd f1 74 1f bd 22 2a b6 bd 3e b5 3d 3d
       -0.043237127 -0.038929883 -0.08894755 0.046315424
