results/2_same_with_zoom/epoch600/model_weights.pth (torch, 484214 bytes, 88 tensors)

init_layer.0.weight f4 [64, 3]
00000000: 03c4 82be 459c cabd 9f7a 173e b3dc fe3d
00000010: 0642 c0ba cecb b1bc 76d8 6dbd ffd9 53be
00000020: bb12 cebd 05c5 493e 3a7d d93d 2705 c13d
00000030: c436 453c cee4 843e 0ef8 2a3e 236f 0cbe
00000040: cb7a 8cbe b170 043e 6c28 893e 07d2 db3c
00000050: 7600 453e b64e 6f3e 47b0 0a3e 01fb 323d
00000060: eefd 693e ae0a 94be 3388 3a3d 66c8 e8bd
00000070: 3a8d 3bbe 7731 343e 5b1d 61be ecb1 873b
00000080: c20d 603d 4252 a33d 06c0 423e 570c 2dbe
00000090: 90fc 94bb e840 adbd 906a 38bd 5af6 febd
000000a0: 5b20 00bc c2a4 003e ab39 a43d 267b 83be
000000b0: bd57 38bd 5c54 6a3e 57f7 44be 464c 28be
000000c0: 29dd b63d a832 01be ac19 543e 7f42 4d3e
000000d0: 18a1 5f3e 8773 99bd bc5e e23c 3a26 7bbc
000000e0: 787b e6bd d1db ddbd 0ef8 133e 4317 99bd
000000f0: b040 0a3e 99a7 e3bd 5f1a 83bd 3010 703e
00000100: af83 debc 262b 47bd db05 e23c ffd9 6abe
00000110: 4d29 ebbd c13c 92bd 811f 0e3e c6e8 2ebc
00000120: 98a0 64bd ddb6 f1bd f2cc 3c3e 15ad e1bd
00000130: 04fb 473e 8543 a2bd 2790 3e3d 8738 793e
00000140: fa3c 2b3e 0369 f6bd a8d8 6cbe b275 253d
00000150: 4dab 7b3c f40a 373c ec3f 1dbd 4bd7 703d
00000160: 9c72 8dbe 5596 a33c d13d 91be 8004 fabd
00000170: 151e 90bd c276 7bbd 02b4 9d3d e6c9 833e
00000180: 2f7d abbd 5b83 713e 77d2 883d 574d 7abe
00000190: 0ad5 833e 12a7 27bd 67d5 94bc 1174 b9bd
000001a0: 57da babd 5ce6 87bd fd05 32be c365 82be
000001b0: 37ea 193d bb8b 0cbd 19f6 31be 1de3 38be
000001c0: f754 a0bd d0f6 eebb eef8 2e3e e688 0cbe
000001d0: eaf9 603e defe 52be 51a8 293e cf65 a43e
000001e0: 7d4e 693e 7d2b 123d 821e 62be 21f6 63bc
000001f0: fb63 babd c769 2cbe ee91 d43d 4a4d b9bd
00000200: 4928 883e 0667 123d 4f01 28bd eb36 a53d
00000210: 790f f13d 2554 64be 74d0 02be 89c8 9cbe
00000220: f35f 87be c295 0e3e 9bfa 8cbc c9c0 23be
00000230: cf79 a13d 651a f83d 0e18 2a3e f446 9c3d
00000240: bfab 663e 8e18 6e3e 1ffc bbbc 713d ef3d
00000250: 0083 8fbe 4c46 1a3e 982b 7dbd 7c4f 69be
00000260: 632b e0bd e0b9 abbe d866 fabd 31eb 5dbd
00000270: 5186 593e ced5 87be 4ed1 173d 86a8 eebd
00000280: 63a9 3bbe 89a5 ce3c 493c f63d e7d4 4dbe
00000290: 402a 5abe 4a3e 3e3e 8ba9 4e3b db12 3a3e
000002a0: 8429 3b3e b215 7b3d c2fe 503e d95d 833c
000002b0: a666 d1bc 4d0a 3b3d 56b6 633e 7722 743e
000002c0: dbd4 033d f5a1 053e 28c1 253e afa9 ecbd
000002d0: 8cb4 21be 535a 78be 4639 72bd 9742 22be
000002e0: 14c4 b83d 5cd1 38bd dca2 823e 4f8b fdbc
000002f0: 4477 173d ade6 703e 0593 d93c 2d11 b93d
-0.2554017 -0.09893087 0.1479287 0.12444439 -0.0014668114 -0.021703627 -0.05806776 -0.20688628
-0.10062166 0.19704063 0.10619588 0.09424811 0.012036983 0.25955814 0.16696188 -0.1371427
-0.27437434 0.12933613 0.26788652 0.026833547 0.19238457 0.2336987 0.13543807 0.043696407
0.22850773 -0.28914398 0.045540046 -0.11366348 -0.18315592 0.17596994 -0.21983854 0.004141083
0.05470062 0.07974674 0.19018564 -0.16899239 -0.0045467094 -0.084596455 -0.0450235 -0.124493316
-0.007820214 0.1256285 0.08018812 -0.25679892 -0.04500555 0.22883743 -0.19234978 -0.16435346
0.08928902 -0.1261698 0.20712918 0.20044897 0.21838796 -0.07492738 0.027633063 -0.015328938
-0.112540185 -0.10832942 0.14450094 -0.0747514 0.13501239 -0.11115951 -0.06401514 0.23443675
-0.027162401 -0.048625134 0.027590683 -0.22934721 -0.11482487 -0.07140494 0.13879205 -0.010675615
-0.055817217 -0.118024565 0.18437555 -0.11019341 0.19529349 -0.079230346 0.046524193 0.2433797
0.1672248 -0.12031748 -0.23129523 0.040395446 0.0153606655 0.011172045 -0.03839104 0.05879907
-0.27626503 0.019969145 -0.28367475 -0.122078896 -0.07036988 -0.061392553 0.077003494 0.25739974
-0.08373486 0.23585264 0.06680768 -0.24443565 0.25748473 -0.040930815 -0.018168164 -0.09055341
-0.09123676 -0.066357344 -0.17385097 -0.25468263 0.03757688 -0.034312945 -0.17379035 -0.18055387
-0.07828706 -0.007292606 0.17087147 -0.13724098 0.21970335 -0.20605037 0.16568114 0.32108924
0.22783847 0.035686005 -0.2208195 -0.013913662 -0.09101101 -0.16837226 0.103793964 -0.09047945
0.26593235 0.035742782 -0.041016873 0.080671154 0.11770529 -0.22297724 -0.12774831 -0.30621746
-0.2644039 0.13924316 -0.017209342 -0.1599151 0.07884561 0.12114409 0.16610739 0.07630721
0.22526453 0.23251554 -0.02294737 0.11681641 -0.28029633 0.15065879 -0.061809152 -0.22784227
-0.10945775 -0.3354025 -0.12226647 -0.054179374 0.21242644 -0.26530308 0.037064843 -0.11653237
-0.18326335 0.025225418 0.12023217 -0.20100747 -0.2130518 0.18578449 0.003153416 0.18171255
0.18277556 0.061299987 0.20409682 0.016035961 -0.025561642 0.04566412 0.22237524 0.23841272
0.032185417 0.13050063 0.16186965 -0.11555802 -0.1579153 -0.24253206 -0.05913665 -0.15845715
0.09021774 -0.045121536 0.25514877 -0.030950217 0.036978975 0.23525496 0.026559362 0.09036479

init_layer.0.bias f4 [64]
00000000: 5e25 d7bd a989 543d da59 9fbd 91f6 d3bc
00000010: 60d0 9abd c840 92bd f75d cd3d e93a de3d
00000020: be79 75bd 5a0f 8e3d b72b c2bd 20a8 78bd
00000030: 454d 433d b9ff 52bd dad0 3bbd 9a8f a43d
00000040: d6f3 a7bd dc93 eb3c 7ea8 1b3c 2fbb 783c
00000050: 6f6d 953d 9eb0 8f3d 7f06 573d c373 c0bb
00000060: bebe db3d c0c4 97bd 671a 973d e8be 493b
00000070: 78e4 983b 73c5 77bd 4d15 dabd 78b5 b1bd
00000080: e646 c93c da6e 2dbc c140 74bd 1c8d debd
00000090: b9a6 c43d c5eb adbd df4d cc3d 452a 4e3d
000000a0: 09b9 db3d cb2d 9b3d 7dd1 51bd 065b 8e3c
000000b0: 30dd 913d ffdc e2bd 63a7 773d 43fc 70bd
000000c0: 4d7b 8b3d 48e1 ba3d 846c 623d 4a4b d6bd
000000d0: 2be1 ccbb c3bf 503d d6c5 d63d 78b6 c93d
000000e0: 5ea4 c63d b05a bdbb dd7b a43d 4e9a a43d
000000f0: a53c cebd 981c cebd 0336 b23d ecd8 b93d
-0.10505174 0.051889095 -0.0778081 -0.025874408 -0.075592756 -0.07141262 0.10027688 0.1085108
-0.059930556 0.06936522 -0.09480994 -0.06070721 0.04768111 -0.051513407 -0.045853473 0.08035202
-0.08200805 0.028757028 0.009500621 0.015181347 0.072962634 0.07016109 0.05249643 -0.005873175
0.107297406 -0.07410574 0.07378083 0.0030783955 0.0046659075 -0.060491037 -0.10648594 -0.086771905
0.02456994 -0.010585511 -0.059632067 -0.10866758 0.09602112 -0.08492235 0.0997579 0.05033328
0.10728652 0.07577094 -0.051225174 0.017377388 0.07122266 -0.11077308 0.060462367 -0.058834326
0.06810627 0.09125 0.05527927 -0.10463579 -0.006252428 0.05096413 0.10486953 0.09849256
0.09699319 -0.005778633 0.080314375 0.08037244 -0.10070161 -0.100640476 0.08701708 0.09074578

hiden_layers.0.weight f4 [64, 64]
00000000: b3bf 1dbe 6219 93bc 36df 703e 0603 243d
00000010: 943d 2bbe b930 04bd 21c2 323e 9bb7 49be
00000020: 5a18 cfbd 712d b5bd f299 423d afac 7c3e
00000030: bf38 8a3e 7094 d03d 7c59 313e 9d06 61be
00000040: fd80 20bd 6793 f8bd bd2c 2d3e 6cf5 e9bc
00000050: 4d0f 56bd 526a 423d e0b8 753d 136e 4abe
00000060: 1829 3c3d b6ab c23d a251 e0bd db38 15be
00000070: 2aef 433e ea8b 80bd 8e3c 50be ee59 4f3e
00000080: e446 10be d793 0f3d a807 cd3e 15a2 89be
00000090: a2e0 873d 1d0a 943d 8635 503e 765a 6d3e
000000a0: 2f95 823d b659 dc3c 5d26 9e3e a29f c2be
000000b0: 043a 03bd 00f0 fdbc 2a70 9cbd afb1 acbe
000000c0: a540 253e ce59 4bbe 5680 57bd 7243 0f3d
000000d0: f161 44bd bad3 b13c 4d1b c53d 2d85 823e
000000e0: 3de8 80bc 3c39 92be 7a65 25be 03a8 f03d
000000f0: 9e90 d03d 4062 13bd fe78 56bd ed64 28be
00000100: 938d b1bc 1f55 5cbe 6013 4ebe b34e 253e
00000110: 50ff 31be 51ff b5bd b34a 2a3e e35f 4ebe
00000120: 125e 943c 082f 36be 92e8 7a3e e45c 11be
00000130: fdf5 d0ba b043 813d 99b3 a33c 72b1 0f3e
00000140: 179e 55bc 8a87 293e 4d00 5cbc 76f7 13bc
00000150: e8e1 8cbd ef64 67be af77 dd3d 82d5 0f3e
00000160: 2335 f9bc 6610 8ebd 871f 663e 0e28 243e
00000170: a5c8 e23d c22a ed3d 27ae 17be 8359 e6bd
00000180: afd8 6c3c 5c80 bc3c 1c19 033e 52af 013e
00000190: 0f72 433e f9f3 89bc 1d48 3ebd 8509 3d3e
000001a0: 92df d1bd 0f0a 22bd a319 50be 54db 9b3c
000001b0: 0739 b63d b173 46be c819 373e bf15 47be
000001c0: 9e3b 81bd 016c a8bd 0ed2 9cbd ef14 d2bd
000001d0: 72c8 d13d 28f8 0bbe d0c6 073e 6eab 013e
000001e0: 1d62 3fbe eec2 c7bd b80d 40be fff8 3bbe
000001f0: ea6d 4c3e 04fb 2d3e 3d88 253e 1a0a d7bd
00000200: 6733 053e 5b6f febc c817 5a3e c6a9 983c
00000210: 164a 4abe 32da e93b 988a 13bd 45ac 39be
00000220: 73d9 483e 018c aebd 922e 9bbc 7d0a 233e
00000230: e611 cf3d dfad 6abe 4dea 863e 5940 cabd
00000240: 5667 0fbd 246d 33be 572d 9b3d fa55 0abe
00000250: a74f 6eba d403 d6bd 0002 1fbe 4d7d 87bd
00000260: 227c f4bc 3d58 10be e4ad 79bd c733 453e
00000270: cbe7 31bd ee18 d0bd e13a 793e 0dbe 613e
00000280: 6353 72be d8c4 33be 43d6 863e 031a 883e
00000290: ff99 eebd 575e e1bd be9e ffbc 8ced 4bbd
000002a0: bc97 5cbe 9a88 94bd 0341 673e 0ad4 4a3e
000002b0: 50ae 4b3e d081 6b3d 6d31 29bd 00cf e63c
000002c0: 3853 a4bc 40e3 753d b34b ebbd 0da6 cfbc
000002d0: e7f3 073e 1011 61bd 7aa4 04be d998 5f3c
000002e0: e292 7dbe 0161 3d3e ff34 3bbe 7d0d 41be
000002f0: 4979 613e 7a62 23be 395c fdbd 1258 243e
00000300: e40e de3d 0018 f3bd 01a7 42bc 4564 27bd
00000310: 1c6d 0f3e 3460 b63d b66c c4bc 1684 f3bd
00000320: 109d abbe b18b 2cbe 3cfd 3a3d 45d0 483d
00000330: 1c38 f2bd 6aec 5abd 4f43 5bbd c1a3 12be
00000340: 556a 11be 1380 2c3e 9b2f 203e 3240 83bd
00000350: 8cee 333e b380 ecbd 440d 3cbe 7d44 7dbd
00000360: efc0 6c3e e755 663d 5bf9 05bb 80ee 80bd
00000370: ce17 f2bd d371 73be a8ce 46be 0a95 d43c
00000380: b536 acbd 810c 0e3e 5aad 53be 6e52 0fbd
00000390: de4c 1ebc 4448 47be 0f5a b53c 2fd6 223d
000003a0: b4b7 24be 3f5f 7abc d9f1 513c 83ac 5a3e
000003b0: d89d 5b3c c742 7f3c 3f01 943d c95f a43d
000003c0: c5ab 083e be96 0dbe 87d4 2b3e 95d1 f1bd
000003d0: e37e 7abe 79b3 0c3e 9adf 373e 0791 c23d
000003e0: 2aba 32be b428 0ebe 5d25 7ebd 3736 1d3e
000003f0: 9625 0abe 9806 c5bd 02da 72b9 3d52 80bd
-0.15405159 -0.01795644 0.23522648 0.040041946 -0.16722709 -0.032273028 0.17456867 -0.19698946
-0.101120666 -0.08846558 0.047510095 0.24675249 0.2699642 0.10184562 0.17319292 -0.21975179
-0.039185513 -0.1213749 0.16911598 -0.02855941 -0.052260686 0.047464676 0.059990764 -0.19768552
0.045937628 0.095054075 -0.1095307 -0.1457247 0.19134203 -0.062766865 -0.203356 0.20249149
-0.14089543 0.0350531 0.40044904 -0.2688147 0.06634642 0.072284915 0.20332918 0.2317904
0.06376111 0.026898246 0.30888644 -0.38012415 -0.03203775 -0.03099823 -0.07638581 -0.33729312
0.16137941 -0.19858477 -0.052612625 0.03497643 -0.047944967 0.021707404 0.09624348 0.2549223
-0.01573574 -0.2855929 -0.16151991 0.11750796 0.101838335 -0.03598237 -0.05236148 -0.1644475
-0.021673953 -0.21516846 -0.20124578 0.16143303 -0.1738255 -0.08886588 0.16630058 -0.20153765
0.018111262 -0.17791378 0.24502781 -0.14195591 -0.0015942451 0.063117385 0.0199831 0.14032534
-0.01303818 0.1655561 -0.013427806 -0.009031167 -0.06879026 -0.22597097 0.108138435 0.1404629
-0.030420845 -0.069367215 0.22472964 0.16030905 0.11073426 0.11580421 -0.14812528 -0.11247542
0.014455958 0.023010425 0.12802547 0.12664536 0.19086479 -0.016839968 -0.04645549 0.18460663
-0.10247721 -0.039560374 -0.2032228 0.019025482 0.08897596 -0.1938007 0.17880929 -0.19441889
-0.06310199 -0.08223725 -0.07657252 -0.10257899 0.1024331 -0.13668883 0.13259435 0.12663051
-0.18689771 -0.09753977 -0.18755233 -0.18356703 0.19963804 0.16990286 0.16165252 -0.104999736
0.1300789 -0.031058958 0.21298134 0.018635642 -0.19754824 0.0071366066 -0.036020845 -0.18132122
0.196142 -0.085227974 -0.018943105 0.1592197 0.10110836 -0.22917889 0.26350632 -0.098755546
-0.03501066 -0.17522103 0.07577007 -0.1350936 -0.00090908486 -0.10449949 -0.15528107 -0.06615696
-0.029844347 -0.1409616 -0.06095685 0.19258033 -0.043433946 -0.10161005 0.24338867 0.22045155
-0.23664622 -0.17555559 0.26335344 0.26582345 -0.11650466 -0.11004322 -0.031203624 -0.04978709
-0.21542257 -0.07252617 0.22583394 0.19807449 0.19890714 0.057496846 -0.0413069 0.028174877
-0.020059213 0.060031176 -0.11489048 -0.025347734 0.13276635 -0.054947913 -0.12953368 0.013647282
-0.24763063 0.18494035 -0.18281935 -0.18852802 0.22018923 -0.15955535 -0.12371106 0.16049221
0.10842684 -0.11869812 -0.011880637 -0.04086711 0.14006466 0.08905068 -0.023977619 -0.11890428
-0.33518267 -0.16850163 0.04565166 0.049026746 -0.11827108 -0.05344812 -0.053530987 -0.1432028
-0.14200719 0.16845731 0.1564316 -0.06408729 0.17571467 -0.11547985 -0.18364435 -0.061832894
0.23120473 0.056234267 -0.0020442817 -0.0629549 -0.11820947 -0.23773889 -0.1941477 0.025949974
-0.08408872 0.13871957 -0.20671597 -0.03499072 -0.009661881 -0.19461161 0.02213767 0.039755043
-0.16085702 -0.0152814975 0.012814009 0.2135487 0.013404332 0.015579886 0.072268 0.08026082
0.13346775 -0.13827035 0.16780291 -0.11807553 -0.24462466 0.13740338 0.17956391 0.09500318
-0.17453828 -0.13882715 -0.06204735 0.15352713 -0.134909 -0.09620398 -0.00023160133 -0.06265686

hiden_layers.0.bias f4 [64]
00000000: f003 dcbb 7b5e 313d 3cf5 acbd e74b 8f3d
00000010: 076c 133a 0d21 6cbd 1c84 af3d fa79 b3bd
00000020: 2fe9 7fbc e2a4 843c b02e 8a3d 1b90 2e3d
00000030: 3987 ac3d 3b79 cdbd 57f1 a7bc bfe5 aebd
00000040: d2ac 0a3b f942 06bd c867 8f3d 201e 1c3c
00000050: 45c4 30bd 49cf 8e3d 1928 18bd 2312 9abc
00000060: 4b26 1f3c a579 773d 908f 54bd 5adb 58bd
00000070: 1cec 1cbc fc71 70ba 71c3 ad3c 75ee 843d
00000080: 7d2d 593d 4222 1c3d 7f7d 34bd b1b6 673d
00000090: 122b 86bd 70d5 9e3d d3eb 893d 00cb 183c
000000a0: fd19 a13d 4965 48bd a168 8e3d bea2 90bc
000000b0: 8176 74bd 6f4a 1fbd 6da6 cfbd f05e 4fbd
000000c0: 7bef 26bc 9721 633d 8f6f a23d c6cf 00bd
000000d0: 3795 ad3d 6260 403d 7590 ba3a d1ad 7a3a
000000e0: 0a50 9cbd ee3f 2cbd 52d8 6239 572f 5bbd
000000f0: 90ae 57bd 9357 883d 8b72 c2bd fac4 ddbc
-0.0067143366 0.043302994 -0.08445212 0.06996899 0.00056237023 -0.057648707 0.0857012 -0.087634996
-0.01561956 0.016191904 0.06747186 0.0426179 0.08424229 -0.100328885 -0.020500822 -0.08539914
0.0021160138 -0.032778714 0.070022166 0.009528667 -0.043155927 0.0697313 -0.037147615 -0.018807476
0.00971372 0.060418744 -0.051894724 -0.052943565 -0.009577777 -0.00091722584 0.021211358 0.064907946
0.053021897 0.03811861 -0.044064995 0.056570712 -0.06551184 0.07755554 0.06734433 0.009325743
0.07866285 -0.048924718 0.0695355 -0.017655727 -0.059683327 -0.038889345 -0.10139165 -0.05062765
-0.0101889325 0.055451956 0.07931434 -0.03144815 0.08475726 0.046966918 0.0014233725 0.0009562644
-0.07632454 -0.042053156 0.00021633625 -0.053511944 -0.05265671 0.066573285 -0.094945036 -0.027071465

hiden_layers.1.weight f4 [64, 64]
00000000: 4992 373e 484d a43d a257 43be a5b9 683d
00000010: acf0 39be 7283 3e3e 6e9e e6bd 9742 ecbd
00000020: e240 99bc cedb b2ba 4eb9 60bc 7130 a6bd
00000030: 61d9 b23d abd7 983d 1f72 e23c 0b1b 7abd
00000040: f0d9 f83c 815b 0b3e fd04 ea3d df95 3cbc
00000050: c279 523e d218 04be f258 283d d124 0bbe
00000060: f3cf 523c 0677 58be 8fab 98bd 5cc7 333e
00000070: 2e5d 703d acd8 07bb 0dab 1dbd 2dbf 0c3e
00000080: 2b26 48be a0ef 3f3e f044 2fbe 47ea 25be
00000090: 0fc4 13bd 16d4 8e3c cc5c bcbc 856a 2a3e
000000a0: a867 b53d 92cb 2e3e c8b2 14be 81f5 de3d
000000b0: 4609 613e a2e9 783d 6e7b 333e d1de 4cbe
000000c0: d9d8 70bd 3e4e 22be 2f44 13bd 9013 cb3d
000000d0: d0bb 09be a91e 63bb d1c5 0abd 8e05 42be
000000e0: a83d 6d3e bcaa 0bbe a8fd 24be 580f d73d
000000f0: 9375 bf3d e4c4 493d 66f5 d93b 47a0 07be
00000100: 3cf3 62bc a37a 32bd 02b8 55be 9c55 c13d
00000110: 7e05 12be 2090 01be a666 05be 3e34 c0bd
00000120: fbd9 c83d 2a2b c5bd 4ba2 643e 5ec5 b13d
00000130: 4aad 6d3d ffe5 22bd 9d38 9dbc dbf1 b43a
00000140: fc17 e43d 617b 7bbd 0593 283e 56a6 b73d
00000150: 5c3d 363d 588a 353e abfe 87be 4814 8c3d
00000160: 37d5 99bd 5d0f 433e 430f 703c 3e16 c6bc
00000170: 31c2 e9bd 2b7e d83c 02ff e5bd bc32 693e
00000180: 5787 593e b20f 2c3e ba8c 48be b286 f9bd
00000190: 8295 47be 65a5 0b3d b941 05be 8097 63be
000001a0: 741f 55be a23f 5dbe 643c 043e 2b50 afbd
000001b0: b51e 653d c6b1 213e b2a0 1abf e216 63be
000001c0: 4591 223e 95c7 873e 72e9 3abe 2607 d8bd
000001d0: b043 873e 8063 f9bc b4e5 323e 56c9 2fbd
000001e0: 05b9 6ebd c833 6f3d 4d66 99bd ad60 df3d
000001f0: 295e 673d 1767 273e fb83 433d 8386 383e
00000200: 6188 a33e 25fb ae3d ffd2 4bbd 6d24 8a3d
00000210: f18b b63d 9a37 393e c985 b6bd 66ee f43d
00000220: ef12 413e 9dc8 27bd d116 41be ed48 4cbd
00000230: 5276 8f3d e061 06bd becb bf3d 2f3d 26bd
00000240: 5f40 32be 5299 b0bd e2c6 6e3d 34da 0b3e
00000250: cdb4 ea3c a780 59be 1cad 2dbe e218 62be
00000260: d8ba c7bd eb0f ad3d 4279 27be 6305 b1bd
00000270: 7bde 343e 2c16 823d 51d1 503e 3d08 5c3e
00000280: 8ea9 ea3d ba7c 20be a216 19bd a48e acbd
00000290: 46c8 88bd b199 f7bd 1cbb 2d3d 1b9f eabd
000002a0: 1f60 c8bd f4d4 d9bd f8ed 20be c74e f7bc
000002b0: 7857 a83d 7d12 a93c 4894 c4bd a67a bd3d
000002c0: 1870 c43c 0bf2 11bd 67f8 6b3d d935 2ebe
000002d0: b26e 413d 7933 26be a64b 393c 4abb 183d
000002e0: a98b 60be 2259 f73d d25b c9bd 18d5 263c
000002f0: 8c79 583d ef56 a03d 1d65 38bc 0036 9cbc
00000300: 91b4 203d 51f5 74bd dbb3 34be 8a0c 1a3e
00000310: c0a9 663e 82f9 68be 131c 88bd 1151 12be
00000320: 125b 1a3c 4616 f93b 4079 0ebe 4c70 8a3e
00000330: 2b8a 863e a485 c53d f0f1 84bc fb40 b73d
00000340: b60c 4ebd 99f0 cbbd fada 993d cb72 3b3e
00000350: 6e5f 38bc 232e 54be 4879 ce3d 124a f73d
00000360: 4f4c 823d 6c09 b93d ee1e cdbc 17ad 86bd
00000370: 3a15 013e e6f0 203e 5fa2 e43d ebe1 303e
00000380: d7ce 223e ac56 d4bb 2b50 05be 28ef 1d3d
00000390: 1b5e 943d 428f e43c 695f f43d 44b8 223e
000003a0: b0e6 ff3d 9da3 83bc 4635 563e 967d 223e
000003b0: a614 fdbd 7c48 1fbe e325 7fbe 3ef0 ebbd
000003c0: 29a4 bf3d 7a60 953d 921f 14bd 1702 dc3d
000003d0: 6688 3e3e c75c 4abd a9d0 88be 4e81 39bd
000003e0: 9f55 50be 5565 a9bd d721 d53d 1603 793c
000003f0: c2ec 2abe 1bc9 803e 59db c23d d8bb 5cbe
0.17926897 0.08022553 -0.19076398 0.05681767 -0.18158215 0.1860483 -0.11260687 -0.115361385
-0.018707696 -0.0013645829 -0.013716055 -0.08114708 0.08732868 0.074630104 0.027642308 -0.061060946
0.030377358 0.13609125 0.11426733 -0.011510341 0.2055426 -0.12900093 0.04110045 -0.13588263
0.012866962 -0.21139154 -0.07454597 0.17556518 0.058682613 -0.0020728512 -0.038493205 0.13744803
-0.1954581 0.18743753 -0.17116141 -0.16202651 -0.036075648 0.017435115 -0.022993468 0.16642196
0.088576615 0.17069843 -0.14521325 0.1088667 0.21976194 0.060769685 0.17527553 -0.20006873
-0.058800552 -0.1585016 -0.035953697 0.099158406 -0.13450551 -0.0034655726 -0.03388006 -0.18947431
0.23168051 -0.13639349 -0.16112387 0.105009735 0.093485974 0.049260035 0.006651568 -0.13244735
-0.013851937 -0.043573987 -0.20870975 0.09440157 -0.14259908 -0.12652636 -0.13027439 -0.093849644
0.098072015 -0.096273735 0.22327535 0.08680223 0.05802659 -0.039770123 -0.019192034 0.0013804989
0.11137387 -0.06139696 0.16462334 0.08967273 0.04449211 0.17728555 -0.26561484 0.06839806
-0.07511371 0.1904883 0.014652076 -0.024180528 -0.11413992 0.02642735 -0.112302795 0.2277326
0.21243034 0.16802862 -0.19584933 -0.12183894 -0.19490626 0.03409328 -0.13013352 -0.22225761
-0.2081278 -0.21606305 0.12913662 -0.08560213 0.055937488 0.15790471 -0.6040145 -0.22176698
0.15875728 0.26519457 -0.18253115 -0.105482385 0.2641883 -0.030442953 0.17470437 -0.04291662
-0.058281917 0.05839899 -0.074902155 0.10907111 0.056486282 0.1634792 0.04773329 0.18020062
0.31939986 0.08543996 -0.04976177 0.06745229 0.089134105 0.18087617 -0.08912236 0.119595334
0.18854879 -0.040962804 -0.1885636 -0.049874235 0.0700499 -0.032808185 0.093650326 -0.040585693
-0.17407368 -0.086229935 0.05829514 0.13657457 0.028650666 -0.21240483 -0.16960567 -0.22079805
-0.097524345 0.08450302 -0.1635485 -0.086436056 0.17662995 0.06351885 0.20392348 0.21487518
0.11458121 -0.1567258 -0.0373751 -0.08425644 -0.06678824 -0.12089861 0.04241477 -0.11456128
-0.09783959 -0.10636321 -0.15715778 -0.030188931 0.08219808 0.020638699 -0.09598595 0.09251909
0.023979232 -0.03563122 0.05760994 -0.17012729 0.047224708 -0.16230573 0.01130954 0.037287988
-0.21928276 0.120775476 -0.098319665 0.010182641 0.05285029 0.07829081 -0.011254576 -0.019068718
0.0392347 -0.059804264 -0.17646734 0.15043846 0.22525692 -0.2275143 -0.0664598 -0.14288737
0.009421127 0.007601532 -0.1391344 0.270388 0.2627729 0.096446306 -0.016228646 0.08947941
-0.05030509 -0.09958 0.075124696 0.18305509 -0.011253221 -0.20720725 0.10081726 0.12074675
0.06362211 0.09035 -0.025039162 -0.06575983 0.12605754 0.15716895 0.11163782 0.17273681
0.15899216 -0.0064800587 -0.13018863 0.038558155 0.07244512 0.027900342 0.119322605 0.15890604
0.12495172 -0.016069228 0.2091876 0.1586822 -0.12357454 -0.15554994 -0.24916796 -0.11520432
0.09357483 0.07293792 -0.03616292 0.10742586 0.1860672 -0.049404886 -0.26721695 -0.04528933
-0.20345162 -0.08271281 0.10406845 0.01519849 -0.16691878 0.2515343 0.095144935 -0.21556032

hiden_layers.1.bias f4 [64]
00000000: f680 05bd de40 7a3d 60a2 273d e18a bb3c
00000010: 63aa 5bbc 265d 98bd 017c 39bd aa99 51bd
00000020: 77e9 a0bd 82e8 84bd dadb 4c3d e6ad 7cbd
00000030: aad6 50bd 3296 72bc abe8 48bd 7f66 9fbd
00000040: ae83 b83c 591c 17bd e313 5abd 8ae7 793d
00000050: aaee 70bd 79e1 843c c1f2 58bc a2ca 9c3d
00000060: 4499 1a3d 0310 6dbd 4b07 7f3d 170b 24ba
00000070: 0a8f 6fbd c41b 7bbd 5883 21bd 5001 4ebd
00000080: d674 4abd 9a8c 2d3d d689 8b3d cb3b 7b3d
00000090: 057e 563d 023b 55bd f27f 183d a5c1 a43c
000000a0: 5338 27bc d397 92bb c02a 0ebd 118b 3abd
000000b0: e3c1 3abd 71a2 443d 11b2 a1bd 74b8 9f3d
000000c0: daa4 253d c1f9 4bbd ed87 863d 3553 29bd
000000d0: 80b3 f6bc 8be4 383d 77ef 7abd a3fd 5b3d
000000e0: fb7a 1fbd 2264 613d 5016 473d aca5 893d
000000f0: cedc 2f3d 0f57 8f3c 0c92 e13c 9248 533d
-0.03259369 0.06109702 0.040926337 0.022893371 -0.013407323 -0.07439642 -0.045284275 -0.051171936
-0.0785703 -0.0648966 0.050014354 -0.06168928 -0.05098597 -0.014806317 -0.049050014 -0.077832215
0.022523727 -0.03689227 -0.05324162 0.06101183 -0.058821358 0.016220795 -0.013241471 0.07655837
0.03774382 -0.057876598 0.062262814 -0.0006257756 -0.058486022 -0.061305776 -0.0394319 -0.05029422
-0.04942783 0.042370416 0.068133995 0.06133632 0.052366275 -0.052058227 0.037231393 0.020111868
-0.0102063 -0.0044736653 -0.03470874 -0.04554278 -0.04559506 0.04800648 -0.078952916 0.077988535
0.040440418 -0.04979873 0.065688945 -0.041339118 -0.03011489 0.04513983 -0.061263528 0.053708684
-0.038935643 0.055027135 0.048605263 0.067210525 0.042935185 0.017497567 0.02753546 0.05158288

hiden_layers.2.weight f4 [64, 64]
00000000: 04de 5dbe 7a22 bd3e f3c1 793d 0a13 79ba
00000010: 9687 42bd 25c2 8bbd 0aea 6ebe c6db 3bbe
00000020: 81f1 c6be 12b1 65be 6f1a a93d 135e 0ebe
00000030: c8ec 04be bea0 0c3e 7144 15be fcdc 463e
00000040: d5f9 423e 3000 853c 94ae 86bc 111d 25bd
00000050: c9e0 4c3e 6927 593e d432 63bd b963 7f3e
00000060: c42b 583e c7d5 35be ab2c 7abe 58b6 3dbe
00000070: 39d1 0a3e 3b44 f6bd 1738 553e c9d6 01be
00000080: 9886 25be 0c27 973d 7219 3abe 95b3 e5bc
00000090: cc45 173e 1638 953c 47e5 913d 91ce 0dbd
000000a0: 763b 20be 139c 083c 26a3 33bc e49d 8e3d
000000b0: 4865 003e 6cc8 0dbe f4e2 043d 45f6 1f3e
000000c0: 7c58 e43c 23f0 12bd 52df 833d a179 e4be
000000d0: 0d67 d8bd 3ef3 103e d713 e53d 6581 483e
000000e0: a509 40be 9c58 203e 2e05 9c3e 17bc d23b
000000f0: 4b3e 91bd 4dcc 9a3c 66ec 6c3d 4e01 bb3e
00000100: d6d5 bb3d 1658 dcbb b1c7 123e 52a0 173e
00000110: 5a1b 6c3e 3692 093e b9df 183e ccb5 6a3e
00000120: c159 d83d b02a 353e 8ee6 3d3e 2240 283e
00000130: a9ba babd 5ca2 69bd fa87 42bd 4cc7 2f3e
00000140: 46fc cebd 48e6 943d f019 6dbe e38a 10be
00000150: 0d1a 0a3d 3244 f9bd fca7 63bc 8be4 41be
00000160: c32d 42bd e2ee b63d 1293 613e e8c2 f63d
00000170: 3ec2 dcbd 8cf9 733d 3e07 c4bc 164c 75bd
00000180: b395 8d3b fccd 503e efa7 b7bd 373d 073e
00000190: a860 f93d 70c9 983d a26d 613d f2c3 56be
000001a0: f8ec b6bd 9d73 e6bd 396b 94bb 5cfe 8d3c
000001b0: f8be df3c 059e 65be 2cf2 a2bd 2f66 5e3e
000001c0: a26f 2bbe 1efa 573e c2b4 dcbd 53bd 8fbd
000001d0: 92f0 0cbe 6282 253e 9937 f3bd 986d c7be
000001e0: 3eb1 f13e c867 fdbc 27f7 b3bd b32b 323e
000001f0: bcc3 7e3d e28c 543e 3a7e d03d da95 5cbe
00000200: 8bc9 5c3e 2dc3 81be dd35 c6bd 914b 00be
00000210: 3898 0e3e b285 6b3d 39f1 373e 4fe2 aa3c
00000220: 02ab 85bd 768d 803e 12cf 853b 8d31 553e
00000230: 2591 f03b ac6a 2d3e 5b77 1abe 5db4 353e
00000240: 5d70 a43d 07ea 52be 2316 113e 90b3 4fbe
00000250: 105c 49be f847 853d ac50 193e 1fcb 39be
00000260: b122 87bd 53a9 a3bd dc97 cdbd cf5c 0ebd
00000270: 6498 a53d ff4e c83d 2fbb d53d 61e8 8f3e
00000280: 84eb ecbd 9266 23be ad31 80bd 4ac1 e53d
00000290: bed1 303e 78c9 8abc df5b 5cbe 488e 3d3e
000002a0: c4a5 3c3e 8a26 283c 21a3 09be add5 e3bd
000002b0: 6bf9 1c3e c447 ee3c cafc c2bc 4dd4 37bd
000002c0: 9810 453e d56f 723d d746 6bbe f078 933e
000002d0: 1e5f 27be f89a 2c3e 7091 1d3e 7c1e edbc
000002e0: 0e97 5ebe b541 e93d 253a 77be 2a5a edbd
000002f0: d5ee 4f3d 26e5 e63b 0fb2 163e c59c ec3d
00000300: 8f99 0ebc 8106 15be ac12 49bc b7c4 853e
00000310: e1d9 94be a4f5 2abe 70ef 143e 8301 1abe
00000320: c22b 5c3d 434a 003e 460c 433e ac6b 41be
00000330: 0d35 bf3d 94f4 0f3e 6745 58bd 22bf 31bd
00000340: f00c 703d 4a65 9bbe 1b77 4ebe 9a59 05bd
00000350: 36e3 59be deeb 2dbd 2d91 f33d 3fc5 11bc
00000360: b09f 24bc d7c1 38bd e09f 173e 5dea 2b3d
00000370: e905 99bd 5378 4e3e 1bc1 863d 50ee 5cbe
00000380: 7931 89be b26d d2bd f09a be3e c683 4d3e
00000390: 2ae6 083e 2d29 bd3d 1244 dabc 1538 89bd
000003a0: d9f5 823e 0fd3 70be 7bad 143c 133a 90bc
000003b0: 2744 4a3c 0008 7c3d cae1 dabd c814 893c
000003c0: 66af 9abd 0c16 973d eb4a 603e e998 6dbe
000003d0: 7f5b 12bd 6d70 ccbd 6b7f c33d 5186 aebc
000003e0: 64ad 6b3d d1e7 c0bd 89a4 acbd d61a b03e
000003f0: 4f06 4a3e c7c3 50be d44d 813e a266 f0bb
-0.21666723 0.36940366 0.06097598 -0.0009501433 -0.047492586 -0.068241395 -0.23331466 -0.18345556
-0.38856128 -0.22430828 0.08256995 -0.13903074 -0.1298095 0.13733193 -0.1457689 0.19420236
0.19040616 0.016235441 -0.016440667 -0.040310923 0.20007624 0.2120644 -0.055468395 0.24940385
0.21110445 -0.17757331 -0.24431102 -0.1852659 0.13556375 -0.12024733 0.20822178 -0.1267959
-0.16164625 0.073804945 -0.18173769 -0.028039733 0.14772719 0.01821522 0.07123809 -0.034620825
-0.15647683 0.008337992 -0.010964191 0.06963709 0.12538636 -0.13845986 0.032443002 0.15621288
0.027874224 -0.035873543 0.06439079 -0.44624045 -0.105665304 0.1415529 0.11185425 0.1958061
-0.18753679 0.15658802 0.30472702 0.0064311135 -0.070919596 0.018896246 0.057842635 0.36524433
0.09171645 -0.006724368 0.14333989 0.14807251 0.23057309 0.13434681 0.14929093 0.22920913
0.10563994 0.17692065 0.18544981 0.16430715 -0.09117634 -0.057039604 -0.04749296 0.1716587
-0.10106711 0.07270485 -0.23154426 -0.14115481 0.03371625 -0.1217121 -0.013895031 -0.18934838
-0.047406923 0.08932282 0.22028759 0.12048894 -0.10779236 0.05956416 -0.023929235 -0.059887014
0.004320824 0.20391077 -0.08967578 0.13206945 0.12176639 0.07460296 0.055036195 -0.20973185
-0.08931917 -0.1125252 -0.0045293835 0.017333202 0.02731274 -0.22423561 -0.07956347 0.21718667
-0.16741803 0.21091506 -0.10776664 -0.070185326 -0.13763645 0.16163018 -0.11875839 -0.389508
0.47205538 -0.030933276 -0.08787375 0.17399482 0.062198386 0.20756868 0.10180326 -0.21541539
0.21561258 -0.2534422 -0.09678242 -0.12528826 0.13925254 0.05750055 0.17963113 0.020859865
-0.06526758 0.25107926 0.0040835226 0.20819683 0.0073415213 0.16935223 -0.15084593 0.17744584
0.08029244 -0.20597087 0.141686 -0.20283341 -0.19664025 0.065078676 0.1497218 -0.18143891
-0.06598414 -0.079912804 -0.100387305 -0.034756478 0.08085707 0.09780692 0.10436093 0.2810698
-0.115683585 -0.15957096 -0.06259475 0.112185076 0.1726751 -0.01694177 -0.21519421 0.18511307
0.1842261 0.010263095 -0.13441135 -0.1112474 0.1532952 0.029086955 -0.02380218 -0.0448802
0.19244611 0.059188683 -0.22976242 0.28803205 -0.16344878 0.16855991 0.15387511 -0.0289452
-0.2173731 0.11389486 -0.24143274 -0.11589463 0.050764877 0.0070463596 0.14716361 0.11553339
-0.008703603 -0.14553262 -0.012272518 0.26126644 -0.29072478 -0.16695267 0.14544463 -0.15039639
0.05375267 0.12528329 0.1904765 -0.1888873 0.093362905 0.14058143 -0.052800562 -0.04339517
0.05860609 -0.30350715 -0.20162623 -0.032556154 -0.2127808 -0.04246127 0.118929245 -0.008897125
-0.010047838 -0.045106735 0.14807081 0.041971553 -0.074718304 0.20163088 0.06579801 -0.21575284
-0.26795557 -0.10274829 0.37227583 0.20069799 0.1336905 0.09236369 -0.026643787 -0.0670015
0.25578192 -0.23518012 0.009074564 -0.017605817 0.01234535 0.061531067 -0.10687597 0.016733542
-0.07552986 0.07377252 0.21903579 -0.23202862 -0.03573179 -0.09982381 0.095457874 -0.021304281
0.057538405 -0.094192155 -0.0842982 0.34395474 0.19728969 -0.20387183 0.2525469 -0.0073364535

hiden_layers.2.bias f4 [64]
00000000: 7107 443d b9c1 a6bc cc73 2fbd 6b6c 383d
00000010: 4540 5fbc dfc2 b83c fea6 c4bc 6d61 e93a
00000020: 8689 8abd cfe2 93bc 7a3d 1f3c 3f45 38bd
00000030: 05ba 2f3d b8a1 90bc 696f 32bd 4e3e ea3c
00000040: 8f69 473c 6205 0dbd efc5 5fbd d364 2f3d
00000050: ffb0 92bd f05d c33b 612c 813d 880c 6bbc
00000060: b2c1 c5bb 2960 0a3d a15c 493d 9481 82ba
00000070: 52b2 80bd e8b6 263d 67a5 003e 566b 16bd
00000080: b84a e9bc f7a1 5dbd 1b84 65bd 4f3a b13b
00000090: cd72 713d 0c32 1abd 7798 53bd 3f4f 583d
000000a0: 5916 d93b 2c5d af3c 53b4 62bd 687e 4c3d
000000b0: cff0 233b 6096 303d b28d 37bd cc8b 613d
000000c0: bf07 4e3d 4e6c 4ebd 3b56 153d 87e1 d0bb
000000d0: 2037 81bd 1442 20bd e615 02bc 24c8 e9bc
000000e0: 7a6e c83c a833 9bbc 89ec 54bd 49ba 043d
000000f0: 2736 9f3d 426b 2cbd ab79 05bd e82c 473d
0.04785866 -0.020356046 -0.042835042 0.04502527 -0.013626163 0.02255386 -0.02400541 0.0017805524
-0.06764512 -0.018052487 0.009719247 -0.044987913 0.04290201 -0.017655239 -0.04356328 0.028594162
0.012171163 -0.03442896 -0.054632124 0.042820763 -0.071626656 0.005962126 0.06307293 -0.014346249
-0.006035053 0.03378311 0.049160603 -0.000995683 -0.06284012 0.040701777 0.12563096 -0.036723457
-0.028478011 -0.05410954 -0.05603419 0.0054085623 0.058947373 -0.037645385 -0.051659074 0.05280995
0.0066249785 0.021406732 -0.05534775 0.049925238 0.002501536 0.04311216 -0.044812866 0.05506496
0.050300356 -0.050396256 0.03645919 -0.006374541 -0.063093424 -0.039125517 -0.007939791 -0.028537817
0.024466742 -0.01894553 -0.05198339 0.032404218 0.077740006 -0.042094477 -0.032586735 0.04862681

hiden_layers.3.weight f4 [64, 64]
00000000: 2259 0abe f58e 4b3e 80f4 573e af97 16bd
00000010: 6a4a b8bd 210b 193e 80ab b8bd a140 81be
00000020: 1c00 7c3d bbc1 723d 5c1c 243e f0a9 ef3c
00000030: 809e 3e3e b93b 2abe 349c 873e 9a3c a7bd
00000040: e3c9 d9bd 85b7 19be 6cc0 f83d 1388 3dbe
00000050: 93c0 833e 3b06 87be 7a07 283e 5585 2f3e
00000060: 1f18 103e ff6e a4bb 932a d4bd 910d 76bd
00000070: 9b17 503e 38db 0d3e 99e3 f7bd 2551 a13e
00000080: 3abe bf3d 55bb ef3d 6a04 d3bd 2983 0f3e
00000090: 8aa4 3b3b d96c 753d 2911 c83d e4f4 cebd
000000a0: 1a0c 9f3d 4509 0f3e bfcd 3dbe cfbd 52be
000000b0: 0072 043e 0173 4b3e 1856 9b3d 1223 cdbd
000000c0: 8083 393e 654a 31be dcbc 05be 8445 3ebe
000000d0: 7ded 3c3e 6203 603e 55d7 923d e5cc 07be
000000e0: 5c10 dd3d 6a32 bb3d e431 33be 322a 2d3b
000000f0: e996 ab3d 49e2 653e a467 c8bd 6714 493e
00000100: aaad 49be 3e18 b4bc ea7c 0e3a fb16 9a3d
00000110: e1e4 e3bc eea7 e73d 195b 3abe ed56 ca3d
00000120: 5994 02be e067 3bbe 0647 403e d3a1 cc3d
00000130: 67bc 423e f415 54bc ad58 c13c 12ed 493e
00000140: 31a4 3a3e 1971 42bd 3a56 6b3e d012 303e
00000150: 3407 5b3e 133c f7bd d3b0 89bd 9990 6f3e
00000160: 524b 7fbd 533c c13d dd91 583e 636d 41be
00000170: 9cba 3c3e 98ea 0dbd 6c97 76be aa94 323e
00000180: 9aee 233e c4ec 53bd 0dad 333e 4401 fe3d
00000190: 68ff a5bd 05dd d9bd 2cd4 37be 995f a03d
000001a0: 2747 033d 1c5b 12bd 4c8a 463d badf 623e
000001b0: b292 473d 7dcf a53d b39e 123e 3257 b8bc
000001c0: 40bd 123e 796d 2abe 6549 eebd 7795 273e
000001d0: 02bb 1b3e 74b8 acbd 9a05 5fbd c96a 3d3e
000001e0: 574f 483e f54e 11be b9a1 de3d 5de1 bc3c
000001f0: aa68 5a3e 9e68 0d3e 1956 803a 97f7 ec3d
00000200: 012f 5ebe f7e1 2b3e 3ebc 12bd 92a5 a8bd
00000210: e4e3 2fbe c666 d73d 2a37 ea3d a3c3 4ebe
00000220: 108a 663e e9fb 4dbd c51b 54bd 53d1 323e
00000230: a38a d7bd 363c da3c d3c9 243e 854d 9e3b
00000240: 36ea a63d 251b 103e 9028 10be 54c6 50be
00000250: f863 e93d 74c7 5a3b 6655 4ebe 79d6 093e
00000260: 57cd 28bd 779a 9a3d f2bd 5abe 09c3 193e
00000270: e1db b43e 96cf 5bbe e097 2bbe daac acbd
00000280: 78cb 67be c73a 973e f725 4c3e 8906 3f3c
00000290: c783 98bd c2f1 5ebd bfc3 ef3d ed85 2d3d
000002a0: 3ca0 4d3e de72 73be 4e8c c93b b24e b33c
000002b0: 39ff d1bb f4ce 29be f225 013e 5178 64be
000002c0: 4a0d 16be 3bec 22be 6fd0 623e cd27 293e
000002d0: aa36 753c 2d32 8dbd 6605 76be 0800 56be
000002e0: 6529 3cbe 7900 1fbe 692f 563d 58fd ba3d
000002f0: 352e ca3d 929b bf3d 1b5c d33c 6d63 c0bc
00000300: 9e8a d63c 9591 e7bd edac e13d 7750 71bd
00000310: c442 5abe 85dc b6bd e08e b93d 99db 0cbe
00000320: 5467 cd3d f765 0dbe 0398 3bbe 65ac fbbd
00000330: 33a3 4ebe a16a 37be cd1a 85bd 8e5d c3bc
00000340: 4e37 2bbd ba01 b93d 28e7 1b3e 98ee 813c
00000350: 4d9c 0b3e 9541 05be b8b6 38be 1f01 0fbd
00000360: fc60 5d3e a319 b73c 7204 963d bf70 ed3d
00000370: 3dad 613e 9dae 70be f593 683d 810b a53d
00000380: 6bd8 023e 7972 433e c6fe d43d 6e40 f8bd
00000390: 3be4 87be b1a8 b3bc a4e1 abbd 5b56 47bd
000003a0: 84d5 013e 86c2 46be 94c2 1dbe 38f3 29bd
000003b0: f432 053e ce03 0cbe 9f9d 3f3e 4cc1 033e
000003c0: 3398 1cbe 8d83 2f3e 0ead e1bd b46b 20be
000003d0: f9b8 073e a2e1 333e 0115 9c3e bdd5 1c3e
000003e0: 9618 403e ef44 e53d bdc5 423e fa45 23be
000003f0: 4f99 e8bd 7880 2bbe ce24 01be dcb2 d73c
-0.13510564 0.19878753 0.21089363 -0.03676575 -0.08998568 0.14945652 -0.09017086 -0.2524462
0.06152354 0.059266787 0.16026443 0.029255837 0.1861515 -0.16624345 0.2648636 -0.08165856
-0.1063421 -0.15011413 0.121460766 -0.1850894 0.2573286 -0.2637194 0.16409102 0.17140706
0.14071701 -0.0050181146 -0.10359683 -0.06007153 0.20321505 0.13853157 -0.12103958 0.3150722
0.09362455 0.117056526 -0.10303576 0.14014877 0.0028632008 0.05991826 0.09768898 -0.10105303
0.0776598 0.1396838 -0.18535517 -0.20580219 0.12934113 0.1986809 0.075847805 -0.10016455
0.1811657 -0.17313536 -0.13060325 -0.18581206 0.1844997 0.2187629 0.071699776 -0.13261755
0.10794136 0.09140475 -0.174995 0.0026422855 0.08378393 0.22449602 -0.09785393 0.19636689
-0.19695154 -0.021984216 0.0005435484 0.075239144 -0.027819099 0.11311327 -0.18198813 0.09879861
-0.12751903 -0.18301344 0.18777093 0.09991803 0.19017182 -0.012944687 0.023601854 0.19719341
0.18226697 -0.04747114 0.22982112 0.17194676 0.21389467 -0.12072005 -0.0672318 0.23395003
-0.06232769 0.09435334 0.21149392 -0.18889384 0.18430561 -0.034647554 -0.240812 0.17439523
0.16008988 -0.05173947 0.17546482 0.12402585 -0.081053555 -0.10637859 -0.17952031 0.07830734
0.032050278 -0.03573142 0.048471734 0.22155657 0.048723884 0.08096216 0.14318351 -0.022502515
0.14330006 -0.16643323 -0.11635093 0.1636561 0.15208057 -0.08433619 -0.0544487 0.18497767
0.19561516 -0.14190276 0.1087069 0.02305668 0.21328989 0.1380944 0.0009791284 0.115706615
-0.21697618 0.16785417 -0.035824053 -0.08234705 -0.17176777 0.10517649 0.11436303 -0.20191817
0.22513604 -0.05028907 -0.051784296 0.17462663 -0.1052449 0.026640039 0.16092615 0.0048310184
0.08150141 0.14072855 -0.14077973 -0.20388156 0.11396021 0.0033383043 -0.20149764 0.13460721
-0.041211452 0.07548993 -0.21361521 0.15015806 0.35324004 -0.21465907 -0.16757154 -0.08431406
-0.22636211 0.2953703 0.19936357 0.011659273 -0.074470095 -0.054429777 0.117072575 0.04236405
0.20080656 -0.23774287 0.006150759 0.02188811 -0.0064085987 -0.16582853 0.12612131 -0.22311522
-0.14653507 -0.15910427 0.22149824 0.16519089 0.014966646 -0.06894336 -0.24025497 -0.2089845
-0.18375166 -0.15527524 0.052291308 0.09130353 0.098720945 0.093558446 0.025800755 -0.02348491
0.026189145 -0.113070644 0.11019311 -0.058914628 -0.21314532 -0.089287795 0.09060454 -0.13755645
0.10029474 -0.13808428 -0.18319707 -0.12288741 -0.20179443 -0.1791177 -0.064992525 -0.023848321
-0.04180079 0.090335324 0.15224898 0.01586084 0.13633843 -0.13013299 -0.18038452 -0.03491318
0.21619028 0.022351092 0.073250666 0.1159377 0.22038741 -0.2350411 0.056781728 0.08058835
0.1277787 0.19086637 0.10400157 -0.12121664 -0.26541314 -0.021931024 -0.08392647 -0.04866634
0.12679106 -0.19410142 -0.15406257 -0.041491717 0.13007718 -0.13673326 0.18712471 0.12866706
-0.15292434 0.17140026 -0.11019336 -0.15666085 0.13254155 0.17566541 0.30484775 0.1531591
0.18759379 0.11194789 0.19020744 -0.15944663 -0.11357366 -0.16748226 -0.12611696 0.026330404

hiden_layers.3.bias f4 [64]
00000000: 305f 2bbd b2f6 87bc 6588 31bd e34b d7bc
00000010: 3b9e 6abc b3ed 0cbd f86b 133d 1093 bc3c
00000020: 2788 19bc 81bd 853c d3e8 b13c cf4e 313d
00000030: 274c 8c3d de2a 2e3d 61f6 bdbc 9a08 fcbc
00000040: d82d 81bc 6663 273d ab49 d3bb 6481 103d
00000050: 4bb9 453c 69db 5fbd b2dd 1b3d 03ad b93c
00000060: a2b8 e2bc cc6a be3c beb5 21bd bc53 20bd
00000070: b179 e1bc fb26 08bd 9060 553c a473 c43c
00000080: b6c1 88bc 1600 973b bbe5 1ebd c765 1b3d
00000090: e2b0 083c c209 fe3c 2e10 0c3d 53fd 1e3d
000000a0: 42f0 6bbd 4f8a 82bd e4e8 5a3d 50dd 4b3a
000000b0: 1efc 06bd 7b54 403d 2b56 87bc 2056 923c
000000c0: 9cd9 20bd a707 853c 0152 72bc 0d45 1dbc
000000d0: 0f24 d6bd 77ca 7bbb f08b 573d ee1f 3ebd
000000e0: 8750 903c 31eb 07bd bffe 3dbd c2ab 5abd
000000f0: 1e94 0c3d 03a5 b73c f770 36bd b147 d3bc
-0.041838825 -0.016597126 -0.043342967 -0.026281303 -0.014319952 -0.034406375 0.03599164 0.023019344
-0.00937084 0.016325714 0.021717465 0.04328805 0.068504624 0.04252135 -0.023188772 -0.03076582
-0.01576893 0.040866278 -0.006447991 0.035279647 0.012068103 -0.054652605 0.038053222 0.022665506
-0.02767593 0.023244284 -0.039479963 -0.039142355 -0.027523847 -0.0332403 0.013023511 0.023980923
-0.016693931 0.0046081645 -0.038793307 0.03793886 0.008342953 0.031010512 0.034195118 0.038815808
-0.057602175 -0.063740365 0.053444758 0.00077768136 -0.03295528 0.046955567 -0.01652058 0.017863333
-0.03927003 0.016239 -0.014790059 -0.0095989825 -0.104560964 -0.003842024 0.05262369 -0.04641717
0.017616523 -0.03318328 -0.046385523 -0.053386457 0.034320943 0.02241755 -0.044541325 -0.025791021

hiden_layers.4.weight f4 [64, 64]
00000000: 9415 4bbe e8fe 263d d969 d23d 51ce 4abe
00000010: 747d 2c3e ad09 bebd 4de6 dfbc a266 f63c
00000020: 381e 3bbd 0ca7 89bd 81ef 8ebd 8b49 643d
00000030: d20a 153d f458 08be ff59 e9bd a350 51bd
00000040: eed9 88ba d8f6 c2bd e3f0 cd3d f29c 063e
00000050: df10 29be 6944 763d 1e4f 7cbe cb01 dc3c
00000060: af54 59bd 9a9c 30be 2aba 853d 301c a63d
00000070: 12f7 3fbe 84f5 0dbe f882 f2bd 82bb 6b3c
00000080: af77 483e 63b2 68bd 5aa3 123d ec58 7fbe
00000090: 6f58 473e e3b2 bfbd 2244 83bc 1eaa 8dbc
000000a0: 9a6a 0abe 1dc5 5bbd 4ade 993e 4b75 8f3d
000000b0: 5b65 913b b676 003e 5bfb 563e baee 48be
000000c0: 6a70 3abe 8012 05be a4ec b73d af9b 313e
000000d0: bb09 4cbe 9bb1 493e ce0a 533e 6741 93bd
000000e0: 5791 463e 5790 78bd ce42 6bbe f4ca b0be
000000f0: 4ded 4d3d e374 3cbe 66b9 24bd 0f3a 47bd
00000100: 10f4 00bd a9f2 24be 76ed 04be a64d ab3d
00000110: f1be d83d dead 473d fed9 63be 25db 41bc
00000120: 91b7 20be 9d2e 38bd 3d79 fbbd 0fdb 033e
00000130: fb52 603e a5ab 183e 389b 84bd 62d1 773d
00000140: 4470 38be ffaf e6bd 6a96 713d 4682 c13c
00000150: 2355 163e 7b20 563e 183d 993e 59cb 873d
00000160: da36 1cbe c2a5 74be 5479 24be 2d82 3b3e
00000170: 1801 b3bc 6d51 293d 045e 1fbe d681 6dbe
00000180: c55b 803e 9889 0e3e a21d 613e 2097 b7bd
00000190: 1dcf 3dbe aa06 113d 78f3 bb3d ef39 7fbc
000001a0: 6842 4f3e f952 c3bd bfd8 be3d 7371 2e3e
000001b0: 6dde 35bc a3e1 1f3e ad1d 42bc a2f9 57bd
000001c0: b095 08be fdce 803e 9f77 26be fd8e a9bd
000001d0: eceb af3d 61d0 95bd e389 6b3e ff7a 903d
000001e0: 68a1 99bc 123c 1bbe 5f95 fc3d 0241 2ebe
000001f0: 3130 933e 11c8 c73c e7ce b43d b6f2 463e
00000200: 976d 32be ab3f 80be 2b27 4cbe 1c2e 67be
00000210: 0d43 53bc 8c7a bfbd b897 9439 f53b 463e
00000220: b58a 28bd b394 a9bd 01a2 e53d 0f47 123c
00000230: bc1e 213d 58be 3b3e b4dd ba3d 2011 11be
00000240: 167d 193c 820a 853e 886c 34be 208d 103e
00000250: 6396 52be 9a11 8abe 98d6 a33c 290d 963d
00000260: 8160 9abe fcf6 77be 80b6 1dbc b4ae 0a3e
00000270: 9b5e a4be afb0 103d 84e0 f8bd 74ac 803e
00000280: 6d61 23be 4e07 723d eb09 52be 8340 da3d
00000290: 8f54 48bd 992c 663d fb15 ebbc 246d 8e3e
000002a0: c8b2 c63d d413 f43d 9b4f 1cbe 302d c93b
000002b0: 5ecc 4fbe 61bf 253d 26ea a63d 18d0 873e
000002c0: 76a1 623e 224d bc3d 578e 1c3e 811e 4dbe
000002d0: 1d0c 84be b1b1 513e 198e 7c3e 64e9 533d
000002e0: 627d b6bd 7321 4d3e c20f 753d 6fd9 683d
000002f0: 6526 1abc aedd debb 5211 5d3d 3856 ee3d
00000300: 3d8c b53d 264f b5bd 5993 9dbd 8e2f 543e
00000310: 6b26 013e 7538 5a3e d159 a03c e559 5abe
00000320: d6cf 3b3e a02d fd3d 2544 0a3e e79a 99bd
00000330: 1970 ccbd c0e7 2cbe b301 6f3e 74ca 833e
00000340: 531b 1a3d 19c0 be3c f48f 60be f42c abbe
00000350: 7ae3 2dbe 2d20 c53d b5ab 273e a539 213e
00000360: c7fd 283e 3538 04be 5135 6c3e 376c a0bd
00000370: 8b53 18be 7bd3 9e3d fb05 96bc d706 b8be
00000380: bc2c 8cbd 4a52 523d 77d7 f4bd 3228 3dbe
00000390: b879 563d 977a e2bd e426 10be 6e61 b53d
000003a0: a2ce f6bc 7705 373d 95c2 55be cf50 6e3e
000003b0: 1efa fe3d aadf 18be c4c6 13be 2b3e 6abe
000003c0: 8ac9 a7bc 2160 3b3e 0ce4 ca3c 4c57 563e
000003d0: 0d8b 9cbd e473 ef3d 31cc 073e c3f7 b73e
000003e0: ad88 84be 26e6 833b a312 3f3e 64f9 013d
000003f0: e7ea cd3d 094d 19bd 9cf2 5c3e af88 673e
-0.1983245 0.04077044 0.10274095 -0.19805266 0.16844732 -0.09279189 -0.027331496 0.030078236
-0.045683116 -0.06721315 -0.069792755 0.0557342 0.036387272 -0.13315183 -0.113941185 -0.05110229
-0.0010440925 -0.09519738 0.10055711 0.13145807 -0.16510342 0.060123835 -0.24639556 0.026856324
-0.053059276 -0.17247239 0.065296486 0.08110845 -0.18746594 -0.13863188 -0.118413866 0.014387967
0.19576906 -0.056810748 0.035800315 -0.24936265 0.19467328 -0.09360292 -0.0160237 -0.017293032
-0.13517228 -0.05365478 0.30052406 0.07004794 0.0044371313 0.12545285 0.20994322 -0.19622317
-0.18206945 -0.12995338 0.089806825 0.17344545 -0.19925587 0.19696657 0.2060959 -0.07190209
0.1939138 -0.06068453 -0.22974703 -0.3452984 0.050275136 -0.18403964 -0.040215872 -0.048639353
-0.031482756 -0.16108193 -0.12981209 0.0836442 0.10583294 0.048749797 -0.22251126 -0.011832033
-0.15695025 -0.04496633 -0.12278984 0.12876533 0.21906655 0.14909227 -0.06474918 0.060502417
-0.18011576 -0.11264037 0.058981337 0.02362169 0.14680915 0.20910828 0.29929423 0.06630582
-0.15255299 -0.23891357 -0.16061908 0.18311377 -0.021851107 0.04133742 -0.15563208 -0.2319406
0.25070015 0.13919675 0.2198396 -0.08964372 -0.18536039 0.035406746 0.09177297 -0.015577777
0.20240176 -0.0953731 0.09318685 0.17035465 -0.011100394 0.15613417 -0.011847896 -0.052728303
-0.13338351 0.2515792 -0.1625657 -0.08279226 0.085899204 -0.07315136 0.23001818 0.0705471
-0.018753722 -0.15159634 0.12333178 -0.17016986 0.28747705 0.024387391 0.08828526 0.19428524
-0.17424618 -0.25048575 -0.19936816 -0.22576183 -0.012894404 -0.09349546 0.000283418 0.1935881
-0.041147906 -0.08280315 0.112125404 0.0089280745 0.03933595 0.18334329 0.09124318 -0.14166689
0.009368202 0.2598458 -0.17619526 0.14116335 -0.2056518 -0.26966554 0.019999787 0.07326729
-0.30151752 -0.24215311 -0.009626031 0.13543206 -0.32103428 0.03532475 -0.12152198 0.2513157
-0.15955134 0.059088998 -0.20511596 0.10656836 -0.048908766 0.056194875 -0.028697005 0.27817643
0.097020686 0.119178444 -0.15264742 0.00613942 -0.20292804 0.040465716 0.08150129 0.2652595
0.22131905 0.091943994 0.15288673 -0.20031168 -0.25790492 0.2047794 0.24663581 0.05173625
-0.089106336 0.20032291 0.05982948 0.056847986 -0.009408568 -0.0068013286 0.053971596 0.11637539
0.08864639 -0.08852987 -0.0769412 0.20721266 0.12612312 0.21310599 0.019574078 -0.21323355
0.18341002 0.12362218 0.13502558 -0.075002484 -0.099823184 -0.1688528 0.23340492 0.25740397
0.037623715 0.023284959 -0.21929914 -0.33432734 -0.16981307 0.09625278 0.16374095 0.15744646
0.16503058 -0.12912066 0.23067214 -0.0783314 -0.14875619 0.077551804 -0.018313399 -0.35942718
-0.0684447 0.05134801 -0.11955159 -0.18472365 0.052362174 -0.110585384 -0.14077336 0.08856474
-0.030127827 0.044682946 -0.20875008 0.23273014 0.1245005 -0.14929071 -0.14431292 -0.22875278
-0.020481844 0.18298389 0.024766944 0.20931739 -0.07643709 0.11692026 0.13261487 0.35931215
-0.25885525 0.0040252386 0.18659453 0.031731978 0.1005457 -0.037426982 0.21576923 0.22610734

hiden_layers.4.bias f4 [64]
00000000: 15b0 75bd 85d1 e0bc 5728 513d d657 5ebc
00000010: 403f 103d 7433 62bc 6b40 cc3c af60 cfbb
00000020: c26e 723c 34e2 243b 31b5 88bc 162c 2f3d
00000030: e04d 6ebc 3181 11bd f44d a93c 7d38 d43a
00000040: 47c9 3abd a175 2a3c 4e51 82bc 79c0 16bb
00000050: bd4e 6fbd 28b8 6abd 48f5 b13d c280 09bd
00000060: 54f5 3d3c b397 bb3b 06eb 38bd 0923 92bc
00000070: cb95 83bd a3bd 24bc 184f b3bd a584 fd3b
00000080: ef61 a9bc 0c4a 02bd 0f79 5e3d d47d 4cbc
00000090: 6590 d53c b6d6 b8bc 2aff c63b 17d5 4c3d
000000a0: 5f00 bc3d 32b2 1f3d a7e6 debc 4152 d3bc
000000b0: 61c4 d0ba 7486 15bc a419 06bd 38d9 ea3a
000000c0: b6a1 623d 00c1 3e3c a638 e33b f397 47bd
000000d0: 48b3 42bd 0099 be3b 21bd 3a3c 8df6 993d
000000e0: 4488 a9bc 048e fd3c fa10 5f3c 30bb f1bc
000000f0: 0703 513c d6d0 1ebc 38e9 5bbd 94e7 a0bb
-0.059982378 -0.027443657 0.05106386 -0.013570746 0.03521657 -0.013806213 0.02493306 -0.0063286643
0.0147969145 0.0025159242 -0.016687961 0.042766653 -0.014544934 -0.035523597 0.020667054 0.0016191151
-0.04560211 0.0104040215 -0.01590791 -0.0023002906 -0.0584247 -0.05730453 0.08689362 -0.03357006
0.011594135 0.005724871 -0.04514601 -0.017838972 -0.06425055 -0.010054979 -0.0875532 0.0077367597
-0.020676581 -0.031808898 0.05431467 -0.012481172 0.02606983 -0.02256332 0.0060728984 0.050007906
0.09179758 0.0389883 -0.027209593 -0.025796058 -0.0015927666 -0.009126294 -0.032739297 0.001791752
0.05533 0.0116426945 0.0069342433 -0.048728894 -0.047534257 0.005816579 0.011397631 0.07517729
-0.02069486 0.030951507 0.013614887 -0.029508203 0.012757069 -0.009693345 -0.05368921 -0.0049104188
