results/2_same_with_zoom/epoch100/model_weights.pth (torch, 484214 bytes, 88 tensors)

init_layer.0.weight f4 [64, 3]
00000000: ccc9 81be 8531 e5bd fe3a 293e d99f 303e
00000010: d838 bd3c 18c1 27bd 3ee3 7fbd 6a87 53be
00000020: dbc5 0abe 3bad 823e d76a c53d 59c1 9e3d
00000030: 58fa a23c aeb7 833e 2900 453e b699 0cbe
00000040: 90e5 8abe 690e 113e f3e2 893e e805 ff3c
00000050: 48f2 643e 7760 753e 0aa6 653e 62ae db3d
00000060: cfc3 733e a228 91be 53e3 813d 3d41 f4bd
00000070: b5b8 3bbe 7da5 5b3e 8f27 55be f594 ef3b
00000080: 7e6f 8b3d e5b3 c13d 1510 3f3e bdef 49be
00000090: e7f8 2abd c286 afbd 56ce 41bd 95d7 bebd
000000a0: 3fe5 533d 258c 333e 83d6 ac3d ea12 7fbe
000000b0: 784b debc d2bf 603e aba8 4bbe 5457 4ebe
000000c0: 988f f43d eb04 fcbd fdbd 583e f948 5e3e
000000d0: 4e13 583e 3d4f e0bd f8c6 cf3d 93c3 c2bb
000000e0: 3679 72be ccfb 02be b1b7 153e 1b58 16be
000000f0: edcb f03d a0d9 e6bd f769 90bd 141d 693e
00000100: 62a9 c5bc 708f 60bd 5491 b13c fafe 70be
00000110: 2d70 1abe 6107 7abd ad35 113e ecb6 babc
00000120: c6d0 7dbd 5828 d6bd 097b 433e 67e8 d0bd
00000130: 9518 413e 2b64 bdbd 2086 0f3d d482 7b3e
00000140: d44d 493e 490a febd a95b 65be f8a6 423d
00000150: 8ba9 323d 1f1f 963d bdcc 33be 23de 493d
00000160: 0096 8bbe 5ff6 223d 211f 8ebe 53ee 04be
00000170: 739f acbd 21bc 83bd 227d b63d 55d4 843e
00000180: ae01 95bd 822f 6d3e e94d 133e 4443 82be
00000190: bad2 873e a1f5 78bd 9a96 71bc 9b3c b5bd
000001a0: 692e c5bd 01ec 7cbd 922f 3abe 75ef 86be
000001b0: 9423 eb3c 99db c0bc 8e9b 3cbe 358d 2dbe
000001c0: e586 dabd 4bb0 9cbc e597 303e 2b77 14be
000001d0: 219e 793e c53b 75be bbda 2f3e 157e 9c3e
000001e0: 450e 693e 85a2 1f3d c571 74be 00bf babc
000001f0: 9762 a6bd 541f 30be 63ef 113e c2c2 a7bd
00000200: e570 873e 05c7 2c3b 3107 c7bc f111 f73d
00000210: 9e31 dc3d 3e1f 5cbe ffca 20be 94c1 98be
00000220: 8825 93be a8a3 183e 7f86 aebc f120 19be
00000230: 01ab 9f3d 0ab3 0d3e db34 1a3e 78a9 a63d
00000240: aa69 683e 418a 733e 473e cdba 8c3e e13d
00000250: fb15 8fbe 67bd 2e3e 8c49 90bd e98d 62be
00000260: c1eb f5bd b5c3 a7be 7223 0cbe ea23 9ebd
00000270: 7936 663e 3cd4 88be 0925 a03d a40b 02be
00000280: 3e85 2fbe 679a 383c 59aa f03d 3a85 5abe
00000290: b509 7fbe 96b2 383e e0d0 ab3b a1ae 473e
000002a0: 5a3a 353e 8d98 923d 108c 623e 98a6 563d
000002b0: edc1 d1bc a4b6 bb3c 967f 603e fae6 713e
000002c0: 535a 5c3d 1ab2 ff3d 17ee 243e bec7 02be
000002d0: cff9 19be dde1 78be 8bf4 8bbd 210d 14be
000002e0: 5cd5 ac3d 14ca 4cbd 5aac 803e 0039 bfbc
000002f0: b959 543d 659a 6e3e 4d6c 613d 029a 063e
-0.2534927 -0.11191086 0.1652641 0.17248477 0.023098394 -0.040955633 -0.062472574 -0.20657125
-0.13552038 0.2552279 0.09639519 0.07751722 0.019894764 0.25726074 0.19238342 -0.13730511
-0.27128267 0.14165653 0.2693096 0.031130746 0.22358048 0.2396258 0.2242662 0.1072662
0.23805164 -0.28351313 0.06342187 -0.11926506 -0.18332179 0.21449848 -0.20815872 0.0073114582
0.06808375 0.0945814 0.18658479 -0.19720359 -0.041741278 -0.08570625 -0.047315918 -0.09318463
0.051732298 0.1753393 0.08439352 -0.24909559 -0.027135596 0.21948174 -0.1988856 -0.201505
0.11941451 -0.123056255 0.21166225 0.21707524 0.21101114 -0.109526135 0.10145372 -0.0059437244
-0.23679051 -0.12791365 0.14620854 -0.14682047 0.11757646 -0.112719774 -0.07051461 0.22764999
-0.02412862 -0.054824293 0.021675743 -0.23534766 -0.15081854 -0.061042193 0.14180632 -0.022792302
-0.06196668 -0.10456914 0.19089903 -0.10200577 0.18857034 -0.09247621 0.03504002 0.24561626
0.19658595 -0.124043055 -0.22398247 0.047522515 0.04361872 0.07330155 -0.1755857 0.04928411
-0.27262878 0.03978574 -0.27758124 -0.12981538 -0.0842885 -0.06432367 0.08910586 0.25943246
-0.07275711 0.23162654 0.14385189 -0.25441945 0.2652796 -0.060781125 -0.014745379 -0.0884945
-0.09627993 -0.06174851 -0.18182209 -0.26354566 0.028703488 -0.023542212 -0.18418714 -0.16948397
-0.1067026 -0.019127032 0.17245443 -0.14498584 0.24376728 -0.23948582 0.17173283 0.30564943
0.2275935 0.03897335 -0.23871525 -0.022796154 -0.08124273 -0.1719945 0.14251475 -0.08191444
0.2645332 0.0026363742 -0.024295421 0.12063969 0.10751651 -0.21496293 -0.15702437 -0.29835188
-0.28739572 0.1490618 -0.021304367 -0.14953972 0.07796288 0.13837829 0.15059225 0.08137792
0.22696558 0.23783208 -0.0015658819 0.10998258 -0.27946457 0.17064439 -0.07045278 -0.22124447
-0.12007857 -0.327665 -0.13685396 -0.07721694 0.22481717 -0.26724422 0.07819564 -0.12699753
-0.17140672 0.011267281 0.11751241 -0.21339884 -0.24906047 0.18036875 0.0052434057 0.1950021
0.1769804 0.07158003 0.22123742 0.05240497 -0.025605166 0.022914238 0.2192367 0.23623267
0.053797077 0.12485142 0.16106449 -0.12771508 -0.150367 -0.2430491 -0.06833752 -0.14458133
0.084391326 -0.049997404 0.25131494 -0.02334261 0.05184338 0.23301084 0.055034924 0.13144687

init_layer.0.bias f4 [64]
00000000: 0328 98bd a37c 90bc d7be 5abd 232c 37bd
00000010: 3c98 66bd a17a 65bd 4ca1 8b3d 2747 453d
00000020: d940 47bd 03b4 4a3d b903 7abd d30d 3bbd
00000030: 4339 353d c8f2 0bbd 2618 02bd 3e88 693d
00000040: f1a8 9abd 442a 2d3c ec61 2ebc e1ab 8e3c
00000050: d17c 5c3d 28e0 203d 7e36 003d 538d 963b
00000060: 3e35 b93d 8b19 59bd 56ce 713d 19ce 113c
00000070: 818e f93c 55e4 2cbd 0203 99bd 2e64 8abd
00000080: 4ef3 d63c 1ee8 ce3a 01fd 1ebd 2f6f b7bd
00000090: b30d a23d 41f9 74bd 4f9b 983d e573 443d
000000a0: dd20 9c3d afee 603d 6d9c 4dbd e29e af3c
000000b0: 2176 643d 4467 a9bd 1f44 2d3d 71a0 50bd
000000c0: 4a2a 3f3d 26da 863d cea5 113d 416c 95bd
000000d0: c836 e5bb 5ca7 1f3d 3d1c a43d a883 993d
000000e0: 27bc 8c3d d3af 02bd d1b4 663d 022a 5d3d
000000f0: 947e 9fbd 7658 9ebd b6ec 6f3d b621 533d
-0.07429507 -0.017637556 -0.053404655 -0.044719826 -0.056297526 -0.05602515 0.06817874 0.04816356
-0.048645828 0.04948808 -0.061038706 -0.04566748 0.044244062 -0.03416708 -0.03176131 0.057014696
-0.07551754 0.010569159 -0.010643464 0.017415943 0.05382997 0.039276272 0.031301968 0.004594484
0.09043358 -0.053002875 0.059034668 0.008899235 0.030463459 -0.042209942 -0.07471277 -0.06757389
0.026239064 0.0015785729 -0.038815502 -0.089567535 0.07912769 -0.05980802 0.07451498 0.04796209
0.07623456 0.054915126 -0.050198007 0.021438066 0.05577672 -0.082716495 0.042301293 -0.05093426
0.04667119 0.06584577 0.035558514 -0.072960384 -0.006995056 0.038977966 0.080131985 0.074958146
0.06871825 -0.03190596 0.056324784 0.05399514 -0.07787815 -0.07731716 0.058575355 0.05154582

hiden_layers.0.weight f4 [64, 64]
00000000: a7bd 1cbe 40f6 a0bc 0661 0f3e ac91 8d3d
00000010: 3cfe 42be 366e 16bb 9bc9 893d 4e8a 33be
00000020: 387b 42bd baaa 5bbd ccb8 093d f433 3f3e
00000030: a2f0 4b3d 42cd 423e 0dd9 0d3e 1d9f 4dbe
00000040: 6180 30bd a451 e1bd 2cc3 5dbd 12f8 00be
00000050: 2485 bebd ddfb 853d 072b 72bc 477a 58be
00000060: 8662 213e 150f 123d 5666 e0bd 3959 2abe
00000070: 718c d8bd def1 1abd 6f8a 38be ced2 f8bc
00000080: 0ed6 95bd c3fc c2bb 568b 1c3e 24f3 aebb
00000090: 728d 8bbc aa1e a73c 58d6 433e b25d d13d
000000a0: 6d7d 843d 448f 93bd 23af a93d a4a1 8dbd
000000b0: 1ebe 84bd 7b59 1dbd 8589 033c c32a 69be
000000c0: 661a 453e 10a2 02be 9b4b 08be 674c 8a3d
000000d0: 1dcc bcba 7198 d6bc d601 283e 082a 523e
000000e0: d7b1 28be 965a ffbd ab57 0fbe 4bf5 ab3d
000000f0: a63b 743d 50fc 9cbd 3498 dbbc c6e0 25be
00000100: ca0a 20bd 299c 51be ac68 55be 1b99 1a3e
00000110: b68e 2ebe d02b bfbd 0fdc 203e 7de5 4abe
00000120: 0be5 aa3c 7a7d 30be e50c 6b3e 9f78 16be
00000130: b3af 333c a340 3a3d 4239 9b3c 0a78 183e
00000140: 2d30 69bc b02a 323e 280f 17bc bc79 0dbc
00000150: 671e 76bd acfb 56be 5faf dd3d 3ba2 0a3e
00000160: 5b72 b7bc ca5e 94bd c1a3 6f3e 2726 1f3e
00000170: 537e c53d dc02 ef3d cc6a 17be 7a74 06be
00000180: ef3c 583c 18d1 b23c 5376 f03d 806b dd3d
00000190: 2977 4e3e 0068 e3bc 52f4 4fbd f988 3b3e
000001a0: 84e3 a7bd d2bd 04bd 99e9 53be fa99 603d
000001b0: c6b3 bb3d b90e 51be 356e 3e3e e320 46be
000001c0: 9e46 6abd 81c9 a6bd 9ecf a2bd 7085 cdbd
000001d0: b64f d73d fa8a 0dbe 3db2 113e 4e68 033e
000001e0: d12a 36be 0cd5 cfbd 4299 3abe 4a60 32be
000001f0: a67e 473e c25d 2c3e c596 263e ccfb d0bd
00000200: 2fca d63d 6e3e 00bd b26a 393e cabb 8d3c
00000210: a683 44be 4cc8 88bc dd91 b8bc 5701 1ebe
00000220: d8a0 c13d 9a68 b7bd a2ad 3fbd 490b 273e
00000230: 8e17 c73d 2a64 5abe fe79 623e b863 e8bd
00000240: 2309 87bd c54f 2bbe 45b4 a23d 1ff8 bdbd
00000250: 4595 27bc 2fd6 e9bd 2c67 2abe fcb3 17bd
00000260: 8963 d0bc 29aa 06be ba9c f9bc f57c 3c3e
00000270: 1762 2ebd ff46 17be cb80 613e 4a14 653e
00000280: fdca 4dbe 1739 05be 71b2 653e c53a 623e
00000290: 6ff9 d7bd bedc 10be edb9 11bd 59db 07bc
000002a0: ce44 4ebe 95ea 92bd cbfb 5a3e e626 4d3e
000002b0: da41 423e 96e2 123d 8528 40bd 7814 f23c
000002c0: 3a84 91bb bd91 513d 762f fbbd 4353 36bd
000002d0: b4e3 a43d 58a9 6ebd 2c1b 0ebe 235d 103d
000002e0: b692 65be f9aa 4a3e 195b 28be 0f46 22be
000002f0: 6aa8 3f3e 14be 27be 2ab3 d8bd 1033 393e
00000300: 00ac ec3d 3bd2 d1bd 42e2 883b a5d4 d1bc
00000310: d4ae 0f3e a48b c23d 4096 c0bb 5d07 fcbd
00000320: 08a6 88be 9ce3 30be d0af 243d ce19 5e3d
00000330: b755 fbbd f12a 9cbd ebf8 f8bc 2150 0cbe
00000340: aaf8 bfbd 9a3a 343e df85 233e 5dea bfbd
00000350: 63dd 393e a967 aabd f5b5 38be e7dc 99bd
00000360: 52cd 613e edcf 563d 760a a1bc 3341 8cbd
00000370: 73d2 d1bd 312c 5bbe 3fa3 47be ee0f c33c
00000380: 7646 d7bd ba48 e33d 3fbe 3bbe 6472 13bc
00000390: 1198 adbc cd4d 45be 32de 003d 6370 b3bc
000003a0: 6ea7 2bbe d502 abbc 73a8 243d 2e35 503e
000003b0: 2130 843c 78e6 b83c 182e 8b3d 3c68 b73d
000003c0: a0ab 0a3e 832d 09be 3864 2a3e 386e f8bd
000003d0: f2af 5abe 8080 033e d464 3d3e 54fc cf3d
000003e0: 3203 2ebe 10a2 1fbe 3a4d 80bd e8bd 163e
000003f0: 5674 f9bd fd29 c4bd 8e50 543c f98a 5fbd
-0.15306722 -0.019648671 0.14001855 0.0691255 -0.19042295 -0.0022953874 0.06727906 -0.17533228
-0.04748079 -0.053629614 0.0336235 0.18672162 0.049790032 0.19023612 0.1385233 -0.20080228
-0.04309118 -0.110019 -0.05414121 -0.12594631 -0.09302738 0.0654218 -0.014780766 -0.21140395
0.1576024 0.035658915 -0.10957019 -0.16635598 -0.10573662 -0.03782832 -0.18021558 -0.030373957
-0.07316218 -0.0059505417 0.15287527 -0.005339043 -0.01703522 0.020400364 0.19124734 0.10222949
0.064692356 -0.0720506 0.08285358 -0.06915596 -0.064815745 -0.038415413 0.008028393 -0.22770219
0.19248351 -0.12757134 -0.13310091 0.06752854 -0.0014404092 -0.026195737 0.1640695 0.20523846
-0.1647409 -0.1246845 -0.13998286 0.08396395 0.059627198 -0.07665312 -0.026805975 -0.16199026
-0.03907279 -0.20469727 -0.2084071 0.15097468 -0.17046627 -0.093345284 0.15708946 -0.19814105
0.02086117 -0.17235366 0.22954138 -0.14694451 0.010967183 0.0454718 0.018948201 0.14889541
-0.014232677 0.17399096 -0.009219922 -0.008634981 -0.060087588 -0.20994443 0.10824465 0.13538449
-0.022393396 -0.07244642 0.23402311 0.15541898 0.09643235 0.11670467 -0.14786834 -0.1313037
0.013198121 0.02182822 0.117413186 0.108115196 0.20162643 -0.027759552 -0.05077011 0.1831397
-0.08197692 -0.03240759 -0.20694579 0.054834343 0.091651484 -0.20415772 0.18596728 -0.19348483
-0.057196252 -0.081439026 -0.07949756 -0.10035217 0.105132505 -0.13822547 0.14228149 0.12832758
-0.1778977 -0.10148057 -0.18222526 -0.17419544 0.19481906 0.16832641 0.16268452 -0.102042764
0.10487782 -0.031309538 0.18107107 0.017301459 -0.19190845 -0.016697071 -0.02253049 -0.15430199
0.09454507 -0.08955498 -0.04679645 0.16312899 0.097212896 -0.21327272 0.22116849 -0.11347145
-0.065935396 -0.16729648 0.0794454 -0.09275841 -0.01022846 -0.114178054 -0.1664092 -0.03703688
-0.025438087 -0.13150848 -0.03047024 0.18407042 -0.042574015 -0.14773177 0.22021787 0.22371021
-0.20096965 -0.1301006 0.22431351 0.22092731 -0.105456226 -0.14146706 -0.035577703 -0.008292043
-0.20143434 -0.07173649 0.21385114 0.2003437 0.18970433 0.03586062 -0.046913642 0.029550776
-0.0044408115 0.051164377 -0.12264912 -0.044513 0.080512434 -0.058266968 -0.13877553 0.035245072
-0.22419247 0.19791783 -0.16441001 -0.15847038 0.18716589 -0.16381103 -0.10581048 0.18085885
0.11556244 -0.102451764 0.0041773627 -0.025614092 0.14031535 0.094992906 -0.005877286 -0.12306092
-0.26689172 -0.17274326 0.04020673 0.054223828 -0.12272208 -0.07625378 -0.03039213 -0.13702442
-0.09373601 0.1760048 0.15969037 -0.09370873 0.18150859 -0.08320553 -0.18038161 -0.07512837
0.2205098 0.052444387 -0.019658308 -0.06848373 -0.10245218 -0.21403576 -0.19495867 0.023811307
-0.10511486 0.11097856 -0.18334292 -0.008999441 -0.021190675 -0.1926796 0.031461902 -0.021904176
-0.16763088 -0.020875374 0.04019971 0.20332786 0.01613623 0.022570834 0.06795901 0.08955428
0.13542032 -0.13396268 0.16639793 -0.121303976 -0.2135618 0.12841988 0.18495494 0.1015555
-0.16993406 -0.15589166 -0.0626473 0.14720881 -0.121803924 -0.09578321 0.012958659 -0.054575894

hiden_layers.0.bias f4 [64]
00000000: 3bad 14bb 5904 173d fc48 65bd 1ab0 223d
00000010: 6ab3 9436 6deb 11bd fd5e 8c3d 575c 80bd
00000020: d05a babc bcba 6e3c dd4f 2c3d 4aec 013d
00000030: 43c1 873d 27f9 8abd 7175 71bc fe2b 71bd
00000040: bfdf 99bb 246f 8fbc a9f8 443d c23f 96bc
00000050: 3965 e9bc 2916 423d cb9f ecbc 6020 4bbc
00000060: ae30 063d 5e45 2c3d c980 12bd 42bb 15bd
00000070: b83f b73b f052 11bb bbdd 623b 57a0 2a3d
00000080: 89ad 223d 0d93 da3c cf72 08bd 27e5 0e3d
00000090: d472 2abd 2345 6f3d ac6e 363d 0f53 213c
000000a0: d4a9 3d3d 4475 0dbd 2162 313d 475f e5bc
000000b0: 00b0 2fbd 8b23 10bd 081f 9abd 0b67 30bd
000000c0: e58a 30bc 6eb5 193d c74b 8c3d bb31 ecbc
000000d0: 0ad1 863d a145 fc3c 0f90 b03b 7f9d a2bc
000000e0: 2ff5 4dbd b6bd 03bd d8ce 45bc 41b3 21bd
000000f0: 0aee 21bd 53e3 413d 9096 9bbd a80a 41bc
-0.0022686261 0.03686938 -0.055977806 0.039718725 4.4316303e-06 -0.03562491 0.06854055 -0.062676124
-0.02274838 0.014570888 0.04206835 0.031719483 0.066286586 -0.06785803 -0.014737473 -0.058879845
-0.004695862 -0.01750905 0.048088703 -0.018340949 -0.02849065 0.047384415 -0.028884789 -0.0123978555
0.03276127 0.04205834 -0.03576735 -0.036555536 0.0055923127 -0.0022174679 0.0034617025 0.04165682
0.039716277 0.026681447 -0.033312615 0.034886505 -0.041613415 0.058415543 0.04453914 0.009846463
0.04630454 -0.03453566 0.043306474 -0.027999533 -0.042892456 -0.035190146 -0.0752545 -0.04306702
-0.010775303 0.03752654 0.06850391 -0.028832307 0.0658284 0.03079492 0.005388267 -0.01985049
-0.050282653 -0.032163344 -0.012073241 -0.03947759 -0.039533652 0.047335934 -0.07597077 -0.011782326

hiden_layers.1.weight f4 [64, 64]
00000000: 43f1 5abc d9ae 5f3d c464 43be fd74 533d
00000010: d165 3bbe 7232 303e 6b16 fdbd 9188 eabd
00000020: 6c55 afbc 2d76 c63c cfe6 d0ba f1f9 eebd
00000030: 9c05 ad3d 84f8 973d 449b 18ba e49e 6abd
00000040: 91b3 fc3c 6419 1c3e 49c8 fc3d 9f49 963d
00000050: 4935 593e 50eb 04be 7cfe 023d 992a 00be
00000060: 1f7f 46bd 022b 55be d3d4 90bd 4b8a 4d3e
00000070: 6c1a 783d 2de8 aabb 9215 52bd 9fb1 1b3e
00000080: f2b1 40be 68c0 373e 09ef 2dbe 0b90 2abe
00000090: c1ed ffbc 208a e13c f33e fcbc c53c 263e
000000a0: 47a8 ae3d b1a6 273e e010 03be 4357 1e3e
000000b0: 9152 573e 0b04 ae3d 1b9f 0c3e 881c 48be
000000c0: fc7e f7bc d664 14be e870 29bd 2b2f f03d
000000d0: a5a2 f0bd f23d c4bb 1c39 81bd f308 3dbe
000000e0: e861 5b3e d57b 0ebe c84f 4ebe e725 de3d
000000f0: 697f b73d 95b6 4a3d 9010 2f3c a612 0abe
00000100: 7f82 cb3d c4fc 51bb d3d1 57be dd6f cd3d
00000110: 99ae 0dbe 8e1c 7ebd 661e fdbd 2a47 cbbd
00000120: 945e a33d 5513 03be 523a 4c3e 8d95 ec3d
00000130: d346 8a3d fc9c 27bd 5674 dc3c bd78 bdbb
00000140: f2f4 bf3d ae4a c8bd ced2 233e 6046 1fbd
00000150: 62f3 253d 7b4e 3a3e d998 72be 0691 493d
00000160: 8fd4 98ba 2150 343e 4ace 9a3b eaf0 49bd
00000170: 374c 55bd 7099 e03c f134 c2bd 6c90 463e
00000180: 126c 4c3e 88bd 263e d742 46be 0914 e7bd
00000190: b7bf 4ebe 6bbc 0c3d 4737 fdbd 6aaa 54be
000001a0: cfff 4fbe 8087 4ebe b8fe a73d fce5 12be
000001b0: bce2 a03d 8fb3 0d3e 889f c5bd a5d6 5fbe
000001c0: 1e14 2d3e 92f6 283e 969c 35be d6fd c1bd
000001d0: 51a7 fc3d a27b c1bc 86b5 1a3e 9203 41bd
000001e0: 65ce 60bd 48e1 5e3d 1df6 1ebd aa92 d63d
000001f0: 9cff 973d 7db0 613d 4019 193d 4f3c 2f3e
00000200: 33e7 b13d b7af 1a3e 26a0 2cbd 05b8 8e3d
00000210: cc0e cb3d fbb1 3f3e 77b6 b7bd d795 fe3d
00000220: a5b7 343e 2506 49bd b57d 37be 732d d0bc
00000230: a717 383d 6fe3 c0bc 659d 2b3e 1f1c f3bc
00000240: b0a3 16be bab5 d8bd c3b0 8a3d ff31 253d
00000250: 356c dd3c d5bc 5bbe 8d6c 33be d0ef 4cbe
00000260: da03 34bd 6e94 b63d 8650 20be e050 79bd
00000270: fa0d 0a3e 9dcd 993d 5d6a 593e f67d 5b3e
00000280: c589 ea3d d70e 16be c722 55bd 96fe b9bd
00000290: 10b6 7bbd 4d4f 09be 0b1b 3d3d abee dcbd
000002a0: 67e9 c9bd f951 e7bd 7c63 1abe 8f2d 84bd
000002b0: d25b 8f3d 72bd 523d 55c2 b2bd 76e5 b83d
000002c0: 408c 5dbd e405 9ebc ad4a 553d 3714 50be
000002d0: da4f 4d3d 8148 2abe 770a d73d 0cb6 b23c
000002e0: 5476 44be a921 103e 9dce 86bd 6f3e a33c
000002f0: b718 e33c d7c7 d53d 0249 6dbb 6fab 57bc
00000300: de82 173e cd1c 07bd 17bb 37be ba87 293e
00000310: 4956 523e 3403 36be c2e1 57bd a134 11be
00000320: 8d17 213d 78f7 ab3c 7d50 20be 3001 823e
00000330: 3963 6d3e bf2a c73d fd76 ecbc 2b85 c03d
00000340: 165b febc 3809 b8bd a5f6 113c 4083 213e
00000350: 000c 693c e614 4dbe 44ed dd3d 89ac 193e
00000360: ab57 af3d 7625 ae3d 802e d9bc 755f f1bc
00000370: 8d4d bd3d dfca 193e 9840 be3d 8655 133e
00000380: 93ed 133e 889b 973c f61a eebd 9126 3e3d
00000390: c307 803d f17e aabc 9177 0c3e a5b6 113e
000003a0: 1cfb 063e 2fb6 6ebc c3c0 293e 4bd3 f83d
000003b0: 366d e6bd 95fe 01be 136c 56be a3de 07be
000003c0: 0ad4 2c3d 25b0 bd3d 10e2 18bd f127 6d3d
000003d0: c936 3d3e 6092 29bd 97b7 62be 466d 8abd
000003e0: 3ba5 21be 22b2 a7bd de40 243e 30b4 943b
000003f0: 0112 42be 8e47 693e fb1c ac3d d17c 53be
-0.013363185 0.054610107 -0.19081408 0.05162524 -0.18300559 0.17206743 -0.123577915 -0.11451829
-0.021403037 0.024226272 -0.0015937927 -0.11668766 0.084483355 0.074204475 -0.0005821476 -0.057280436
0.030847343 0.15244061 0.12342889 0.07338261 0.21211733 -0.1298039 0.031980976 -0.1251625
-0.048461076 -0.20817187 -0.07071843 0.20072286 0.060572073 -0.005215666 -0.051290102 0.15204476
-0.18817881 0.17944491 -0.16985716 -0.1665651 -0.0312413 0.027531683 -0.030791735 0.16234119
0.0852819 0.16372181 -0.12799406 0.15462975 0.2102759 0.08496865 0.13732569 -0.19542134
-0.030211918 -0.14491591 -0.04136744 0.117277466 -0.11749772 -0.00598883 -0.06309721 -0.18460445
0.21424067 -0.13914426 -0.20147622 0.10847073 0.089598484 0.04949053 0.010685101 -0.13483676
0.099369995 -0.003204153 -0.21076135 0.10031102 -0.13836135 -0.06203895 -0.12359314 -0.09925683
0.07977024 -0.12800343 0.19944122 0.11551962 0.0675179 -0.040921196 0.026910942 -0.0057822154
0.093728915 -0.09779869 0.15998384 -0.038885474 0.04051531 0.18194 -0.23691119 0.04921057
-0.0011660027 0.17608692 0.0047242986 -0.04930202 -0.052074637 0.027416915 -0.09482754 0.1939103
0.199631 0.16283238 -0.19361435 -0.11283118 -0.20190321 0.034359377 -0.12364059 -0.20768133
-0.20312427 -0.20168877 0.082028806 -0.14345545 0.07855746 0.13838027 -0.09649569 -0.21859224
0.16902205 0.16500309 -0.17735514 -0.094722435 0.123366006 -0.023618523 0.15108308 -0.047122546
-0.054884333 0.054414064 -0.03880893 0.10477193 0.074218005 0.055099953 0.037377596 0.1711285
0.08686676 0.15106092 -0.042144917 0.06968693 0.09914932 0.18720238 -0.08970349 0.124309234
0.1764818 -0.049078126 -0.17919047 -0.025412297 0.04494443 -0.023545949 0.1675926 -0.029676495
-0.1471088 -0.105815366 0.06771996 0.040330883 0.027029136 -0.21458752 -0.17521878 -0.20013356
-0.043948986 0.089150295 -0.15655717 -0.060868144 0.13481894 0.07509921 0.2123198 0.21434769
0.11452059 -0.14654098 -0.05203512 -0.090817615 -0.061452925 -0.13409157 0.04616837 -0.1078771
-0.09858971 -0.11294932 -0.15077013 -0.06454002 0.06999935 0.0514502 -0.08728472 0.09028141
-0.05408883 -0.019289918 0.05207317 -0.20320211 0.05012498 -0.1662922 0.10500043 0.021815322
-0.19185764 0.1407534 -0.06582377 0.019927232 0.027721746 0.10438507 -0.0036206846 -0.013163432
0.14796016 -0.03298645 -0.17942463 0.16555682 0.20540728 -0.1777466 -0.052705534 -0.14180233
0.0393291 0.020992026 -0.15655704 0.2539153 0.23182382 0.0972495 -0.028865332 0.094004
-0.031049293 -0.08986133 0.008908902 0.15772724 0.014224052 -0.20027503 0.108362705 0.15007223
0.08561643 0.08503239 -0.02651143 -0.029464463 0.09243307 0.15018795 0.09289664 0.14388093
0.14446096 0.01850678 -0.11626236 0.0464235 0.062514804 -0.020812484 0.13717486 0.1422983
0.13181728 -0.014569803 0.16577439 0.12149676 -0.11251299 -0.12694772 -0.20939665 -0.13268523
0.042194404 0.092621125 -0.037324965 0.05789942 0.1847793 -0.04139936 -0.22140346 -0.067591235
-0.15785687 -0.08188273 0.1604037 0.0045380816 -0.1895218 0.22781202 0.08403965 -0.20653082

hiden_layers.1.bias f4 [64]
00000000: ee68 97bc 6607 0e3d a9bb df3c d686 763c
00000010: 4ec8 f0bb 2055 3ebd 3db6 10bc b3ab 07bd
00000020: 4a21 2dbd 01b3 fdbc 81e3 c13c 1142 2cbd
00000030: 8d5c 08bd 05d6 13bc 9cf8 f8bc 8f84 49bd
00000040: 3ae3 443c d208 cfbc e10c f7bc 31c3 f13c
00000050: 0c61 44bd 9bfc 8e3c af50 8bbc 87d7 523d
00000060: 728a bb3c cf98 04bd ca28 333d dcea 8b3c
00000070: 9f8f 30bd fcd9 24bd d9c0 13bd d2c0 0dbd
00000080: 00d8 27bd 4b02 e23c c48e 3c3d c799 193d
00000090: a77b 303d f559 2abd 8ac4 ba3c 7010 743c
000000a0: b730 b6bb 51c3 13bc 042d a7bc e03c 0dbd
000000b0: 0279 f6bc dc6a ed3c 2a6d 53bd 2bdc 3a3d
000000c0: b65c d33c 8662 f2bc f133 293d 3cfc b4bc
000000d0: c485 94bc 5c33 ca3c 239f 0abd b3e6 9b3c
000000e0: 4eb8 a03b c4cc fa3c 0712 bb3c 82e4 423d
000000f0: 3517 033d 7f6a 883c ef46 033c 19ef 073d
-0.018482652 0.034675024 0.027311163 0.015046796 -0.007348097 -0.0464679 -0.0088325115 -0.03312273
-0.042268075 -0.030969145 0.023668053 -0.042055193 -0.03329139 -0.009023194 -0.030391984 -0.049198683
0.012017066 -0.02527276 -0.030157508 0.02951202 -0.047944114 0.017454436 -0.017006246 0.051475074
0.022893164 -0.032372292 0.04374007 0.017079763 -0.043105718 -0.04024695 -0.036072586 -0.034607716
-0.040977478 0.027588984 0.04603459 0.03750017 0.043086674 -0.041589696 0.022798795 0.014896497
-0.0055600065 -0.009018735 -0.020407207 -0.034481883 -0.030086998 0.028981619 -0.05161778 0.045620125
0.025801044 -0.029587995 0.0413093 -0.022092931 -0.01813019 0.024682693 -0.03384317 0.019030904
0.0049047833 0.030615218 0.022835745 0.047581203 0.032004554 0.016652344 0.008012517 0.033187006

hiden_layers.2.weight f4 [64, 64]
00000000: 8c31 61be d28d 863e b9f9 9f3d 1643 3fbc
00000010: 3bc6 6ebd bc53 81bd da7f 4fbe b406 33be
00000020: 6e89 94be 6087 1abe d37e af3d 42ce 0fbe
00000030: e661 08be b383 2f3e eb53 11be 2282 443e
00000040: 47a5 3e3e 8208 edbb 6b27 97bc 4b50 9dbd
00000050: 8afd 423e 0971 4e3e 0e04 d8bd 7ab1 623e
00000060: f2d6 ff3d 932a 2dbe a285 74be e954 0ebe
00000070: 1677 923d 0cbe dfbd 49b5 273e 42ba 6abd
00000080: 3d93 4bbe 7360 9d3d 6fb5 44be 304c e8bc
00000090: 47e4 183e 5f14 f53b ceb2 943d b4db ac3c
000000a0: eb87 13be b7dd 0f3c 5a19 afbc 28cd 8f3d
000000b0: 9814 003e a98d 0dbe 5c3f 103d fabb 1a3e
000000c0: b141 083d f4b1 85bd da34 91bd 18bd 8ebe
000000d0: 5f94 e2bd 2d25 0b3e 5976 e03d 5d26 093e
000000e0: e1a8 d8bd b217 173e 340e 873e 5b8a 473c
000000f0: 67ed 7fbd a337 8ebb 11e9 7c3d 95de 8a3e
00000100: a3dc c33d 4db2 2239 e604 003e c869 153e
00000110: f95b 643e c25d 113e 369f 203e 1762 663e
00000120: 8b2f bc3d 918f 233e ee52 3a3e 62ca 293e
00000130: 16f9 87bd e744 adbd d250 2fbd 8dd7 333e
00000140: 3156 dcbd 4d26 9a3d d6c8 69be 17a0 28be
00000150: 5086 0c3d 9f71 e8bd 77fb fe3c e18c 41be
00000160: 9c72 52bd 48a7 c33d 5f43 5a3e 129a e63d
00000170: 3db0 b0bd a7e4 593d 7d79 f0bc d02c 80bd
00000180: e339 253d 8f5a 4c3e 7403 b0bd f8ee 113e
00000190: bbbc 093e 30c1 8b3d ca8d 443d bb85 72be
000001a0: 9d10 e6bd 35dd dbbd 2802 63bc cf82 bc3c
000001b0: 83aa cd3c a59a 61be 521c a8bd bb1d 603e
000001c0: b4bd 29be 5e73 5d3e f3fc e0bd 5da0 95bd
000001d0: 04ef 05be 4c9e 213e f838 eebd 5b03 45be
000001e0: 6c97 553e 076f b0bc 2e46 a5bd c39c 2e3e
000001f0: 2a7b 583d ccd1 643e 7f56 d03d 1c9a 5abe
00000200: 2b3b 623e d4b4 54be e401 e4bd 279e f9bd
00000210: ec7c 093e 7b87 573d 27a1 3a3e 3925 b53c
00000220: 9d7e e3bd e4a8 823e d802 e83b a11e 633e
00000230: 5c58 063d bd65 083e bbec 0bbe b44e 2a3e
00000240: 1a89 9f3d 727b 4ebe d8c0 0b3e c766 6bbe
00000250: 171a 51be d05e 693d 6935 423e ec1a 31be
00000260: 3e90 b4bd 16a6 bbbd 046d c6bd ccd4 e3bc
00000270: 6b01 df3d 0d6a b83d 6e6e ee3d ce82 793e
00000280: 4993 b8bd 55f4 22be c487 2dbd cfee db3d
00000290: 3b89 3f3e 581e d93a 506a 5ebe 5b12 1d3e
000002a0: fa49 3e3e 560c 563c c0e2 09be c237 e5bd
000002b0: a8b6 163e d05e 233d 27a4 18bd 1433 04bd
000002c0: 70e1 493e 81f9 853d b749 50be 2768 7c3e
000002d0: 05fc 21be e536 333e 4c5e 193e 3fe8 c9bd
000002e0: de15 44be 7ffb f83d a6e7 83be 9248 e7bd
000002f0: a320 6a3d 47b2 ae3c 5ad7 263e e828 073e
00000300: 4b13 543b dc8f 1ebe 1c24 07bd deb9 743e
00000310: 32da 62be 2577 39be 7c51 cc3d 1118 0dbe
00000320: 26f6 8b3d 9d55 fe3d f13c 3c3e 9258 34be
00000330: 7b98 a03d 329d 043e a518 2abd 8a98 c13b
00000340: 4788 c13d 1435 83be a8e1 52be faa0 4bbc
00000350: 83f3 4dbe 6256 21bc a9dc 123e a289 c9bc
00000360: b291 a0bc a42c 3cbd 1c47 153e ac49 233d
00000370: b2b5 f1bc 7f98 363e 2da3 ec3d 6e89 47be
00000380: 9c64 61be 9575 c6bd bfdf 8e3e 5d42 4f3e
00000390: ccda a0bb 6edb a83d 5915 07bd 1735 e8bd
000003a0: 3c25 613e c7a9 5cbe 1b6f b43c 9787 00bd
000003b0: f614 0e3c 4334 07bd 9a12 92bd 4dbd 26bb
000003c0: ea17 a0bd 2ecd 9c3d 17e7 5d3e ca35 60be
000003d0: a7d8 e6bc ade1 b3bd 787d d43d 53d6 93bd
000003e0: 664b aa3d ef91 9dbd 89ad 9fbd b3ca 8f3e
000003f0: 1e8a 1f3e a6be 33be 373a 683e c58a 823b
-0.21991557 0.26280075 0.07811303 -0.011673709 -0.058294516 -0.06314799 -0.20263615 -0.17483026
-0.290111 -0.15090704 0.08569112 -0.14043525 -0.13318595 0.17140083 -0.14192168 0.19190267
0.18617736 -0.00723368 -0.018451413 -0.0768133 0.1904203 0.20160307 -0.10547648 0.22138014
0.124921694 -0.16910772 -0.23879102 -0.13899578 0.0715162 -0.109249204 0.16377749 -0.057306536
-0.19880386 0.07684412 -0.19209836 -0.028356642 0.14930831 0.007479235 0.07260667 0.021100856
-0.14407317 0.008780888 -0.021374393 0.07021552 0.12507856 -0.1382357 0.035216674 0.1511077
0.033265773 -0.065280825 -0.07090159 -0.27878642 -0.11063456 0.135884 0.10960073 0.1339354
-0.10579086 0.14755133 0.26378024 0.012178983 -0.062482264 -0.0043401285 0.061745707 0.27122942
0.095635675 0.00015515946 0.12501869 0.14591134 0.2230071 0.14195922 0.15685734 0.22498356
0.091887556 0.15972735 0.18195698 0.16581109 -0.06639306 -0.08460408 -0.042801686 0.17562695
-0.10758627 0.075268365 -0.22830519 -0.1646732 0.034307778 -0.113497965 0.031125767 -0.18901397
-0.05137883 0.09553391 0.21314763 0.11259855 -0.08627365 0.053196575 -0.029354805 -0.06258547
0.04033841 0.1995642 -0.08594409 0.14251316 0.13450901 0.06823957 0.047986783 -0.23683827
-0.112336375 -0.10735551 -0.013855495 0.023011593 0.02510572 -0.22031648 -0.08208527 0.21886341
-0.16576272 0.2162604 -0.10985746 -0.073059775 -0.13079458 0.15783042 -0.1163196 -0.19239561
0.20858544 -0.021537317 -0.08070026 0.17051987 0.052851833 0.22345656 0.10172748 -0.2134785
0.22092883 -0.20772105 -0.11133173 -0.12188368 0.1342656 0.05261944 0.18225537 0.022112476
-0.11108134 0.25519478 0.007080417 0.22179653 0.03279911 0.1332006 -0.13664524 0.16631585
0.07789822 -0.20164278 0.13647783 -0.22988425 -0.20420109 0.056975186 0.18965687 -0.17295426
-0.088165745 -0.09162538 -0.09688762 -0.02781143 0.10888942 0.090046026 0.116421565 0.24366304
-0.090124674 -0.15913518 -0.042365804 0.107389085 0.18704693 0.0016564829 -0.21720243 0.15339033
0.18582907 0.013064465 -0.13465405 -0.111922756 0.14718115 0.039885342 -0.037265923 -0.032275274
0.19714904 0.0654173 -0.2034062 0.24649106 -0.15818794 0.1750141 0.14977378 -0.098587506
-0.19148967 0.12157344 -0.2576267 -0.112931386 0.05716003 0.021325244 0.16293088 0.13199198
0.0032360132 -0.15484565 -0.03299342 0.23899028 -0.22153547 -0.18111856 0.099764794 -0.13778712
0.068340585 0.12418673 0.18382622 -0.17611912 0.07841583 0.1295059 -0.04152741 0.0059080767
0.09449821 -0.25626433 -0.20593894 -0.0124285165 -0.20112424 -0.009847255 0.14341988 -0.024601761
-0.019600723 -0.04594101 0.14577907 0.03986518 -0.029505584 0.1783161 0.11554561 -0.19486019
-0.22011036 -0.09690396 0.2790508 0.2024016 -0.004908895 0.08244978 -0.032979343 -0.11338251
0.2198686 -0.2154914 0.022025635 -0.03137931 0.00867199 -0.033008825 -0.07132454 -0.0025442422
-0.07817061 0.076563224 0.21670185 -0.21895519 -0.02817948 -0.087832786 0.10375494 -0.072186135
0.08315162 -0.0769385 -0.07796771 0.28084335 0.15580031 -0.17553195 0.22678457 0.003983828

hiden_layers.2.bias f4 [64]
00000000: 027e c93c 1885 86bc 0cd7 bbbc 9a25 fe3c
00000010: bc38 54bc 30cc bd3b 3c8b b4bc 9b15 cdbb
00000020: 1c7c 1fbd 6efc c0bc 016c 3e3c 8e2e dcbc
00000030: cd2f e83c 40be 4abc 63e9 b8bc 23b7 cf3c
00000040: 16f3 373c d544 bcbc 7c99 09bd cb45 c63c
00000050: ed83 41bd a042 233c dbb1 333d 9902 babc
00000060: 7933 b3ba bf4f a63c 4f2f 233d b191 803a
00000070: 9c75 2fbd afeb 033d 299b d63d 61ea 06bd
00000080: 2ac2 a0bc 8cbe 0ebd 20fa 1ebd 7ee2 e4bb
00000090: ce0c 0f3d 6b65 e83c 9e9a ebbc 5f13 143d
000000a0: 00fe bd3b 3e54 723c 0dbd 1cbd c839 013d
000000b0: cfac 9eba 50a2 133d 8217 ffbc d3f0 2e3d
000000c0: c9ff e03c 3387 1fbd 07fe c13c a951 9739
000000d0: 6921 17bd adbe a4bc cde8 93bc 7af3 98bc
000000e0: 2588 e03c 5b8c 7fbc 9783 12bd 404c bf3c
000000f0: 5cd9 873c 12d8 9ebc fc31 15bd fc86 193d
0.024596218 -0.016420886 -0.02292969 0.03102379 -0.01295298 0.0057921633 -0.022039048 -0.006258679
-0.03893672 -0.023557868 0.01162243 -0.026877668 0.028343106 -0.012374461 -0.022572225 0.025355881
0.01122739 -0.02298204 -0.03359364 0.024203202 -0.047244955 0.009964615 0.043870788 -0.022706317
-0.0013671956 0.020301698 0.03984004 0.0009809044 -0.04283677 0.032207187 0.10478813 -0.032938365
-0.019623835 -0.03484969 -0.038812757 -0.006985008 0.03492432 0.028368672 -0.02876025 0.036151286
0.0057981014 0.014790593 -0.03826623 0.031549245 -0.0012105944 0.036043465 -0.03113914 0.042710137
0.027465718 -0.038947295 0.0236807 0.00028861806 -0.036897097 -0.020110453 -0.018055344 -0.018670786
0.027408669 -0.015597428 -0.035770025 0.023351789 0.016583137 -0.01939014 -0.036424622 0.037482247

hiden_layers.3.weight f4 [64, 64]
00000000: f354 eabd cc25 4a3e 20f0 483e 4e5c 03bd
00000010: 9c3a 96bd 6650 203e 9831 94bd 4abf 7cbe
00000020: 8d4b 1a3d 566c 853d fa0a 1a3e f211 c53b
00000030: 20b1 413e 88c3 37be 0475 813e 786a 9dbd
00000040: e02d d2bd 42a1 17be c7cf d93d 36d3 35be
00000050: 72b1 693e 0e9c 82be 1dcc 393e bb95 443e
00000060: b383 0f3e ea6d e1ba 8dc4 dabd 6c65 8bbd
00000070: eb35 373e 363f 043e 2bc1 9dbd 96eb 873e
00000080: f0ad ba3d fdf9 a83d e398 dcbd 6463 123e
00000090: 2cca a83c d692 c23c cf60 bc3d d3b8 bebd
000000a0: 0a30 833d 562c 023e c881 57be 251f 3fbe
000000b0: c603 063e a03b 483e c2a5 853d ddeb bdbd
000000c0: 553c 3f3e a38c 31be 6a99 fdbd c9f3 3bbe
000000d0: 6cb1 353e 6476 633e 1056 393e 6231 0bbe
000000e0: 0712 0c3e 75fc be3d f7f5 2dbe 280c 143d
000000f0: b35b a03d 88ca 5b3e d97a adbd 8b4b 543e
00000100: b967 3abe 0a55 b6bc c3a3 06bc a11d 993d
00000110: c6bf 443c f372 f53d e90d 51be f866 c73d
00000120: d411 18be bfbf 30be f98b 343e dd62 d03d
00000130: 97db 393e 67f1 05bd ca25 78bc cb7c 3b3e
00000140: 6212 283e 7d77 36bd 878b 583e e8bb 343e
00000150: 34a5 473e fc41 b8bd 6dac b5bd e143 543e
00000160: e6e0 a9bd 52e8 e73d e535 523e 2f84 4ebe
00000170: 80df 2c3e 56cb 40bd ec67 62be 336b 103e
00000180: c5f2 213e bb04 8bbd 8e05 443e 13ce ec3d
00000190: 5c84 9cbd f0fd 06be 9e08 3fbe 5e13 9c3d
000001a0: 5aef 1d3c e76c 1fbd c4dd 3d3d 7e01 5b3e
000001b0: 28f1 113d 45d4 973d 829e 073e 4596 033c
000001c0: ca63 1a3e 0756 27be a2c4 fdbd 5ae5 2e3e
000001d0: 0455 163e 9dfb 95bd 41d4 3ebd cf68 433e
000001e0: 6ebd 283e 5438 07be 49d6 d73d 8a19 283d
000001f0: 879f b53d 8c05 023e 87f3 5f3b fdb5 c13d
00000200: 3e61 35be 85e6 323e dbdf 5abd 3490 9abd
00000210: 792b 01be 297f bf3d ee0c 0f3e 6190 49be
00000220: 5942 4e3e 4ba2 03bd bc60 27bd e693 ea3d
00000230: a2f8 cabd c80c 063d e5e5 113e 0276 a63c
00000240: 0722 b83d 6821 0c3e ad36 21be 2692 44be
00000250: 27ba b23d e9c5 4d3c 0124 2abe 93c6 083e
00000260: fe4a 5bbc 4ac5 b13d ff6a 58be c626 1a3e
00000270: a5ae 953e abe1 57be c712 24be 1dee c7bd
00000280: a643 6dbe a67b 203e 1651 4e3e 4f35 8b3c
00000290: 5216 80bd b3e5 88bd d1f9 dc3d 3c49 433d
000002a0: a1d7 363e 78a9 7cbe 4d3e 57bd 4575 073d
000002b0: 9587 c4ba 883d 2bbe 053e ef3d f914 4bbe
000002c0: 0dbc d4bd 69cf 2bbe 7e91 673e eb97 2f3e
000002d0: 26be 053c 2add 96bd 42f5 36be 9103 5cbe
000002e0: 190e 35be e3a3 20be 4101 5c3d 08ea d63d
000002f0: 6200 f43d 54c0 7d3d b2de 533d 9247 27bc
00000300: 346b 273d b309 debd 006a da3d 6de6 7dbd
00000310: fb5b 5cbe 2dfb a1bd 758b a13d a98d eebd
00000320: f125 ab3d b832 08be 2e49 40be f9dc 05be
00000330: 04f2 4abe 8052 46be 3dd6 b4bd 0a5f e8bc
00000340: 979b b0bd 4cb4 c33d f733 9d3d fb5b a53d
00000350: 2ef3 f33d db06 b6bd f43c 2fbe 5281 90bc
00000360: 0e5d 133e 374a 993d bb7b 983d 50a1 8c3d
00000370: 238a 583e a38d 55be b6b5 8c3d 2cdd 9c3d
00000380: d329 fd3d 3ab8 393e bf4e db3d ed50 e9bd
00000390: 4eb2 69be 30b1 2fbd 7874 22be d944 1cbd
000003a0: 2a71 b73d 73a5 4dbe a142 26be 8000 b33c
000003b0: 7806 c93d 2ad4 03be 4baa 0f3e e28b 043e
000003c0: d56e 19be 184a 353e 97fb acbd 17ee 16be
000003d0: 02a4 b23d 7a60 123e b288 093d efd5 193e
000003e0: c6e8 163e 1743 d63d 91d8 1a3e 64ec e3bd
000003f0: 2ab8 52bd d6b6 2fbe 9d51 01be 0201 023d
-0.11441984 0.19740981 0.1962285 -0.03207045 -0.073353976 0.1565567 -0.07236022 -0.24682346
0.037669707 0.06514804 0.1504325 0.006014102 0.18915224 -0.17945683 0.25284588 -0.07686323
-0.10262656 -0.14807609 0.106353335 -0.17756352 0.22821596 -0.25509685 0.1814427 0.19197743
0.14015083 -0.0017198895 -0.1068202 -0.06806454 0.17891662 0.12914738 -0.077028595 0.26546925
0.09115207 0.082508065 -0.10771348 0.14295727 0.020604216 0.023751657 0.09198152 -0.09312596
0.06405647 0.12712225 -0.21045601 -0.18664224 0.13087377 0.19553995 0.065257564 -0.09273503
0.18675359 -0.17338805 -0.12382777 -0.18354715 0.17743462 0.22213131 0.18099236 -0.13593057
0.13678752 0.09325496 -0.1698836 0.036144406 0.0782999 0.21463978 -0.08470697 0.20731942
-0.1820363 -0.022257347 -0.008217755 0.074763544 0.012008613 0.119848154 -0.20415463 0.097364366
-0.14850551 -0.17260645 0.1763152 0.10175107 0.18150173 -0.032700922 -0.015145728 0.18309323
0.16413262 -0.044547547 0.21146975 0.17649806 0.19496614 -0.089969605 -0.08870778 0.20729019
-0.08294849 0.113236085 0.20528372 -0.20167612 0.16882133 -0.047068916 -0.22109956 0.14103393
0.15815265 -0.06788012 0.19142744 0.11562743 -0.07642433 -0.13182807 -0.18655631 0.076208815
0.009639585 -0.038922217 0.04635407 0.21387288 0.035630375 0.07413534 0.1324406 0.0080314325
0.15077129 -0.1634141 -0.1239102 0.17079678 0.14680868 -0.07323382 -0.04658914 0.1908295
0.16478512 -0.13205081 0.105389185 0.04103998 0.08868318 0.12697428 0.0034172253 0.0945854
-0.17712876 0.17470749 -0.05343614 -0.07547036 -0.1261424 0.09350426 0.13969776 -0.19683982
0.20142497 -0.032137197 -0.040863737 0.11453991 -0.09910704 0.032727033 0.14247854 0.020319942
0.08990865 0.13684618 -0.15743513 -0.19196376 0.08726912 0.0125593925 -0.16615297 0.13357
-0.013384579 0.08680208 -0.21134566 0.15053853 0.29234806 -0.21082179 -0.16022788 -0.097622134
-0.23170337 0.15672168 0.2014812 0.016993193 -0.06254257 -0.06684437 0.10789836 0.047677264
0.17855693 -0.24674022 -0.05254965 0.03307082 -0.001499402 -0.16722691 0.11681751 -0.19832219
-0.1038743 -0.1677834 0.22614095 0.17147796 0.008163011 -0.073664024 -0.17866996 -0.21485735
-0.17681159 -0.15687518 0.053712133 0.10493857 0.119141355 0.061950997 0.05172605 -0.010209935
0.04087372 -0.10841694 0.10664749 -0.06198733 -0.21519463 -0.07909236 0.078879274 -0.11648113
0.08356846 -0.13300598 -0.18777916 -0.13072576 -0.19818884 -0.19367409 -0.08829925 -0.02836563
-0.086234264 0.09555873 0.07675927 0.080741845 0.11911617 -0.08888026 -0.17113096 -0.01763979
0.14390966 0.074848585 0.07445475 0.068667054 0.21146445 -0.20854811 0.06870596 0.07659373
0.12361493 0.18136683 0.10708379 -0.113923885 -0.22821924 -0.04289359 -0.15864742 -0.038151596
0.08957131 -0.20082645 -0.16236354 0.021850824 0.09815687 -0.12873903 0.14029805 0.12943986
-0.14983685 0.17704046 -0.084464245 -0.14739262 0.08722688 0.14294615 0.03357763 0.15023015
0.14737234 0.10462015 0.15121676 -0.11129072 -0.051445164 -0.1715959 -0.12628789 0.031739242

hiden_layers.3.bias f4 [64]
00000000: d1f4 0abd a989 9fbc 77c2 f3bc 35ad b3bc
00000010: 7a2f 873b 5c29 eebc 4a7b e13c c711 a83c
00000020: 92d8 4fbc 47ff 253c e282 c03c 9062 1c3d
00000030: d351 3e3d 80f4 013d c019 a0bc 8e9a c0bc
00000040: b2b3 c3bc 48b5 9d3c fc39 0dbc 6e5c c53c
00000050: e52c a13c fe39 18bd c8fc 213d dbe7 a73c
00000060: 728d 0cbd 3f17 a13c cc66 e3bc 886c 06bd
00000070: 0b22 c8bc 3ed1 acbc 6071 563c 77bb cb3c
00000080: 6550 79bc 5b3f a83c 5c71 c2bc 6372 823c
00000090: e467 4a3c 1594 c73c c56d be3c 2bf7 bc3c
000000a0: 3ea7 98bd fce8 16bd 8db9 323d b638 d23b
000000b0: 195f ccbc 2314 203d 8781 b4bc daf1 3c3c
000000c0: 00f4 2bbd baa4 b53b 3594 a5bc 9640 c3bc
000000d0: b681 78bd d6ab 19bc 33ad 2e3d ba57 f5bc
000000e0: 9785 063c 4fe7 0bbc 6438 0abd fa81 78bb
000000f0: 6f47 c63c 883f 913c d1b8 02bd 194f c0bc
-0.03392488 -0.019474821 -0.029755814 -0.021933177 0.0041255327 -0.029072456 0.02752461 0.02051629
-0.012685912 0.010131664 0.02349991 0.038179934 0.046464752 0.031727314 -0.019543529 -0.023511197
-0.023889396 0.01925148 -0.008619782 0.024091925 0.019674728 -0.03716468 0.03954771 0.0204963
-0.03431458 0.019664405 -0.027758978 -0.032818347 -0.024430295 -0.021095868 0.013088554 0.024869664
-0.015216921 0.020538023 -0.023735695 0.015923684 0.012353871 0.024362603 0.023245702 0.023067078
-0.07453774 -0.036843285 0.043633986 0.006415452 -0.02494769 0.039081704 -0.02203442 0.011532271
-0.041980743 0.0055433186 -0.020212272 -0.023834508 -0.060670577 -0.009379348 0.042645644 -0.029949058
0.008210561 -0.008539035 -0.033745185 -0.003791927 0.024203984 0.01773049 -0.031914536 -0.023475217

hiden_layers.4.weight f4 [64, 64]
00000000: 0e4c 58be 6aa1 293c 3b4a ac3d af20 35be
00000010: 38f9 803d 61cc 98bd 1289 f4bc 49e2 c63d
00000020: 3d51 3abd e2ab 41bd f4f9 7bbd 2e5d a93d
00000030: cef1 d53c ca92 fabd d104 b7bd ea98 66bd
00000040: 9867 08bb 7b58 88bd 61bc c33d 9af7 193e
00000050: 3157 3fbe ceff 6e3d b55f 5dbe 29c2 debc
00000060: d204 65bd 4f11 28be 8613 733d da74 0a3e
00000070: 6577 28be 0faa 10be 79cb 93bd 704f d5bc
00000080: 8392 143e ee89 87bc 3474 1a3d 7492 55be
00000090: a2bf 643e db4c bcbd d208 7ebd 360d 4fbb
000000a0: da5a 03be 4c01 ffbc e5ec 643e 95b6 8a3d
000000b0: 6ca6 42bc 041b ea3d ff5f 493e efca 36be
000000c0: 162d 42be 804c c7bd 5107 973d ef10 2b3e
000000d0: 4ada 54be 1454 273e 679e 643e fcd1 e5bd
000000e0: 5ebd 013e d5ba 583b 5464 70be 9594 2dbe
000000f0: 9ef4 6e3d dc59 14be da78 4abc 998a a0bd
00000100: 8978 4bbd 506c 2ebe 6895 0cbe 12b1 b53d
00000110: 284c d33d 58c4 233d d75a 46be f5a7 77bc
00000120: fbc9 08be a762 06bd 1af6 cebd addf 193e
00000130: e265 303e 4048 043e 6369 d0bd 5a1c 863d
00000140: e81f 54be 81e5 cebd 7b53 063e a7ed d03c
00000150: dc5d 073e 839a 253e 6138 673e b952 c03d
00000160: c85e 17be 1624 5dbe b5d7 12be 060a 413e
00000170: 34bd 243b e001 1c3b b99a 26be 964c 5dbe
00000180: d067 3e3e 0dd0 db3d 8a7a 3e3e 7e72 bcbd
00000190: 6ec9 63be 666c 243d f8a7 9b3d 8d24 dbb9
000001a0: 951b 213e 1ef4 d8bd 0cb2 623d bc0f 2a3e
000001b0: 98b9 40bd 0033 323e cb0e 493c cdeb 66bd
000001c0: 5f6d debd 75a7 463e f391 2bbe a27a 35bd
000001d0: a7b1 c03d d5ce adbd 670b 573e 59cd ad3d
000001e0: d5bb 5dbc d6fb 2cbe b61c 8d3d b5c3 d9bc
000001f0: 38a1 6c3e f2ba 163d 8cea d23d 2e81 283e
00000200: 3bef 1cbe cccb 68be 83d3 29be 1ee3 61be
00000210: a234 1bbc 94e4 afbd cb4a 373c 381d 2f3e
00000220: 198a b3bc 047b babd c4e4 f63d b853 66bc
00000230: cbf5 483a 2edd 303e 6295 e83d 7c9c febd
00000240: 095d 1e3b 9cd4 5e3e b5d0 05be fac1 023e
00000250: 1e36 38be 50f9 77be 3a6b 31bc 28e7 703d
00000260: e8af 82be 9153 6ebe af82 9dbc a02a 413e
00000270: b29e 7bbe fe66 5e3d 2f5f edbd 41e6 763e
00000280: eef4 14be 81af e93c 8db2 56be c4f4 ca3d
00000290: 0032 61bd 3e4d 563d d31a 4dbd 91e6 843e
000002a0: 0f09 eb3d f0b2 e83d 7678 59be e6da e5bb
000002b0: b94c 2ebe d587 1c3d e1bb 9e3d bb7c 573e
000002c0: 39d6 653e 3383 a83d 7dee 243e 41e5 5fbe
000002d0: 775a 6dbe 1caa 433e 2c36 0e3e 295a 793d
000002e0: 137e 04be f1ba 583e 365d e93d 208e 2e3e
000002f0: db0c a0bc 70f7 afbc 4b42 3a3d 335f 153e
00000300: 553e cc3d eacc afbd 7117 a2bd 89d2 3f3e
00000310: f7ea 133e 95e2 ef3d 1333 593c db77 3cbe
00000320: 3cf5 433e 2346 f83d 3e2c ee3d af0c 96bd
00000330: ace5 d6bd b702 2ebe ab75 683e 9292 6d3e
00000340: e764 823d 57f3 c73c f516 55be 97e5 8ebe
00000350: b7d0 31be 85eb c53d 936b 223e ac91 1a3e
00000360: 16f8 283e 106b ebbd 2f59 453e 67b9 aebd
00000370: ba40 eabd 2157 a23d 5665 a7bc 1125 93be
00000380: f4ed 8abd 1f7f 463d 3684 f7bd 4ce4 2ebe
00000390: 15a1 ac3d de65 c0bd b222 0dbe b294 a73d
000003a0: 694b dabc 6637 383d bf50 48be 8f7b 6e3e
000003b0: 7474 fb3d a3c9 30be bf4b edbd d09c 68be
000003c0: 44ad 7bbd 1377 363e ae40 38bd a46b 5b3e
000003d0: 75a6 90bd d57b fb3d ad4f 0c3e ec5b 973e
000003e0: 0439 79be b504 1dbd 6db8 413e 3188 943d
000003f0: 9955 e93d ef4f 9dbd 640a 283e 3773 673e
-0.21122763 0.0103534255 0.08412596 -0.17688249 0.06297535 -0.07460857 -0.029850516 0.09711129
-0.04548763 -0.04728306 -0.06151767 0.08269726 0.026116278 -0.12235029 -0.089364655 -0.056298174
-0.00208137 -0.06657501 0.09557415 0.15035859 -0.18685605 0.058349423 -0.2161854 -0.027192192
-0.0559128 -0.16412853 0.05934479 0.13521138 -0.16451795 -0.14127372 -0.07216544 -0.026038855
0.14509015 -0.016545262 0.037708476 -0.20856649 0.22338727 -0.091943465 -0.06202013 -0.0031593568
-0.12827626 -0.031128548 0.22355993 0.06773106 -0.011880498 0.11430934 0.19665526 -0.1785085
-0.18962511 -0.09731388 0.07374442 0.16705678 -0.20786396 0.16340667 0.2232605 -0.11221692
0.12669894 0.0033070345 -0.23475772 -0.16951211 0.058338754 -0.14487404 -0.012357915 -0.078389354
-0.0496755 -0.17033505 -0.13728869 0.08871664 0.1031726 0.03998217 -0.1937059 -0.015115728
-0.133583 -0.032808926 -0.10105534 0.15026732 0.17226365 0.12918186 -0.10176351 0.065483764
-0.20715296 -0.10102368 0.13117783 0.025503946 0.13219398 0.16172223 0.225801 0.09390778
-0.1478225 -0.21595797 -0.14340098 0.1885148 0.0025137188 0.0023804829 -0.1626996 -0.21611246
0.18594289 0.10733042 0.18601432 -0.09201525 -0.22244808 0.04014244 0.07600397 -0.00041798168
0.15733178 -0.10593437 0.05534558 0.16607565 -0.047051996 0.17402267 0.012271593 -0.05637722
-0.10860705 0.19399817 -0.16754894 -0.044306405 0.094088845 -0.08486716 0.21000443 0.084864326
-0.013533552 -0.16892943 0.06890242 -0.026582578 0.23108375 0.03679938 0.102986425 0.16455528
-0.15325634 -0.22733992 -0.16584592 -0.22059295 -0.009472998 -0.0858852 0.011187266 0.1710099
-0.021916436 -0.091054946 0.12055352 -0.014058046 0.00076660205 0.17271873 0.113566175 -0.12432191
0.002416434 0.21760792 -0.13067897 0.12769309 -0.17989394 -0.24216199 -0.010828787 0.058814198
-0.2552483 -0.23274066 -0.019227354 0.18863916 -0.24572256 0.05429744 -0.115904205 0.24111272
-0.14546558 0.02852607 -0.20966549 0.099099666 -0.054979324 0.052319758 -0.05007441 0.25957158
0.11476337 0.113622546 -0.21237358 -0.00701462 -0.17021455 0.038215477 0.07750679 0.21043675
0.22445 0.08228149 0.16106601 -0.21864797 -0.23179041 0.1910786 0.13887852 0.060877
-0.12938718 0.21165062 0.11394732 0.17046404 -0.01953738 -0.021480292 0.04547338 0.14587097
0.099728264 -0.08584006 -0.07914627 0.18732657 0.144451 0.11713139 0.013256806 -0.18405096
0.19136518 0.121227525 0.11629532 -0.07326638 -0.10493025 -0.16993223 0.22701137 0.23200443
0.06366902 0.024408026 -0.20809539 -0.27909538 -0.17364775 0.096640624 0.15861349 0.15094632
0.16500887 -0.1149503 0.19272302 -0.085314564 -0.11438127 0.07926775 -0.020434063 -0.28739217
-0.06783667 0.048461076 -0.12085764 -0.17079276 0.084291615 -0.093944296 -0.13782766 0.08182658
-0.026647286 0.044974707 -0.19562052 0.23289321 0.12278071 -0.17264418 -0.11586713 -0.22716069
-0.061444536 0.1781886 -0.04498356 0.2142778 -0.07062999 0.122794785 0.13702269 0.29562318
-0.24338156 -0.038334567 0.18918009 0.07252539 0.113932796 -0.07681262 0.16410214 0.22602545

hiden_layers.4.bias f4 [64]
00000000: 0c47 c0bc 17ba 5abb f2db 1a3d 0f41 4bbc
00000010: 8a03 603d 5a35 66bc bbdc 103d 96af 12bb
00000020: 26b5 813c 1323 793c c715 c0bc bec3 0d3d
00000030: cec2 a63b 5697 b3bc b8ee 8c3c 48c5 1dbb
00000040: 6922 853c 3d4f 203b 2644 c63b c6c9 58bc
00000050: 4e0c 5b3b 74f1 70bd dbcb 123c bc42 cabc
00000060: 72dd 3a39 98ee 6839 0798 07bd 4b95 b3bc
00000070: 4e19 68bd 93c8 743b 0765 0d3c 2498 f43c
00000080: e0e8 8bbc d1f0 1dbd 33fe 673d 6808 43bc
00000090: 8b75 c2bb 9d0a 8abc f7dc 303c fcf3 a03c
000000a0: fedb 253d 890c 0fba 2d60 86bc 89d8 0abd
000000b0: 8201 abb8 c7de f8bc a1ce 35bd e304 efba
000000c0: 186f dd3c 351c 2ebb fee1 6dbb f219 e5bb
000000d0: 1f47 5fbd 0066 a53b b5a9 8cbb d436 613d
000000e0: 08a5 78bc 7972 0ebc e099 053c f41e adbc
000000f0: f4c8 6a3c 3051 90ba 2c35 cabc 9a15 7abc
-0.023471378 -0.0033375078 0.037807412 -0.012405648 0.054690875 -0.014050806 0.035366755 -0.002238249
0.015833449 0.015206116 -0.023447884 0.034610502 0.0050891405 -0.021922749 0.017203674 -0.0024073888
0.01625176 0.0024461292 0.0060506044 -0.0132317 0.0033424082 -0.058824018 0.008959736 -0.024690025
0.00017820837 0.00022214127 -0.03310397 -0.021921774 -0.056664757 0.0037350997 0.008630044 0.029857703
-0.017078817 -0.03855974 0.056638908 -0.01190386 -0.0059344224 -0.016850764 0.01079487 0.01964759
0.040493004 -0.0005456885 -0.016403282 -0.03389791 -8.154196e-05 -0.030379666 -0.04438651 -0.0018235709
0.027030513 -0.0026567106 -0.0036298032 -0.0069916183 -0.054511186 0.0050475597 -0.0042926916 0.05498393
-0.015176065 -0.008694285 0.008154362 -0.021132924 0.0143301375 -0.0011010524 -0.024683557 -0.015263939
