results/1_first_try/epoch250/model_weights.pth (torch, 484214 bytes, 88 tensors)

init_layer.0.weight f4 [64, 3]
0	0xbe8f6234	-0.2800461
1	0xbd983e9b	-0.07433816
2	0x3e1ad72e	0.15121147
3	0x3e8255e3	0.2545615
4	0xbd0c57f0	-0.03426355
5	0xbc999277	-0.018746598
6	0xbdb839ed	-0.089954235
7	0xbe7e34d7	-0.24824844
8	0xbdf244e2	-0.118295446
9	0x3e0728d9	0.13199176
10	0x3da95f4e	0.08270131
11	0x3cb739d6	0.022366446
12	0xbc4ea077	-0.0126115
13	0x3e956aa9	0.29182938
14	0x3e1b0aae	0.15140793
15	0xbe174f76	-0.14776406
16	0xbe9e6aff	-0.30941007
17	0x3df58c3a	0.11989637
18	0x3e8ccfe9	0.27502373
19	0x3d7e639a	0.062106706
20	0x3e433f81	0.19067194
21	0x3e9e8b8b	0.30965838
22	0x3e804051	0.2504907
23	0x3e220dec	0.15825623
24	0x3e55cbb4	0.20878488
25	0xbe9e0005	-0.3085939
26	0x3ce8cb8f	0.028417377
27	0xbd8a944f	-0.06766569
28	0xbe71d6e8	-0.23617136
29	0x3e33e81c	0.17569011
30	0xbdb1e87c	-0.08686921
31	0x3ae77825	0.0017659707
32	0x3d98a287	0.07452875
33	0x3d5a13a2	0.05324138
34	0x3e4d911d	0.20074888
35	0xbe1247b4	-0.14285165
36	0xbe1446cf	-0.14480136
37	0xbd6054da	-0.05476842
38	0xbc2dceb6	-0.010608366
39	0x3c95bc25	0.01827819
40	0x3d76a52e	0.06021612
41	0x3e450075	0.19238456
42	0x3ddec573	0.10877504
43	0xbe8aaaf9	-0.27083567
44	0xbce86ea5	-0.028373072
45	0x3e7f5a72	0.24936846
46	0xbe4e3b99	-0.20139922
47	0xbe3e3c43	-0.18577676
48	0x3e3ce346	0.18446073
49	0xbe0c5e40	-0.13707829
50	0x3e2d972e	0.16952202
51	0x3e679af8	0.2261771
52	0x3e86247d	0.26199713
53	0xbe0ab1db	-0.13544409
54	0x3dd653cd	0.104652025
55	0xbd40c966	-0.04706707
56	0xbe8e0f39	-0.2774599
57	0xbe1b04ba	-0.15138522
58	0x3e298984	0.16556364
59	0xbe7bc2bf	-0.24586008
60	0x3dfd9794	0.12382427
61	0xbe1738c8	-0.14767754
62	0xbd2a97a3	-0.04164852
63	0x3e6428eb	0.22281234
64	0xbd0b16fd	-0.03395747
65	0xbd3f52d8	-0.046709865
66	0x3d51fbc9	0.05126551
67	0xbe8ccfd2	-0.27502304
68	0xbdefcf1e	-0.11709426
69	0x3c19c2ec	0.009384852
70	0x3e430d9c	0.1904816
71	0xbce47ceb	-0.027891597
72	0xbb9fea8f	-0.0048802565
73	0xbe2f26e5	-0.17104681
74	0x3db3b865	0.08775405
75	0xbe1a541a	-0.15071145
76	0x3e566e9d	0.20940633
77	0xbd91eed6	-0.071256325
78	0x3c43db33	0.011954117
79	0x3e981c3b	0.29709038
80	0x3e09a449	0.13441576
81	0xbe277400	-0.16352844
82	0xbe6d1dfb	-0.23155968
83	0x3dad3eab	0.084592186
84	0xbc792a66	-0.0152078625
85	0x3e105e94	0.14098579
86	0xbe39ca25	-0.18143518
87	0xbc6c366c	-0.014417272
88	0xbea9e75d	-0.3318433
89	0x3d9505fa	0.072765306
90	0xbe909af4	-0.2824322
91	0xbde9d00f	-0.11416637
92	0xbdb24985	-0.08705429
93	0xbddc57a5	-0.10758904
94	0x3dd7dc49	0.10540063
95	0x3e701be5	0.23448141
96	0xbd3c5da8	-0.045987755
97	0x3e8d099c	0.27546394
98	0x3dcf84c1	0.10132743
99	0xbe888496	-0.26663655
100	0x3e98aff9	0.29821756
101	0xbd25b602	-0.04045678
102	0xbd685747	-0.05672386
103	0xbd9ba966	-0.076006696
104	0xbdb472be	-0.08810948
105	0xbce202a1	-0.027589144
106	0xbe5066d7	-0.2035173
107	0xbe4ced24	-0.20012337
108	0x3d7edb99	0.062221143
109	0xbd23f440	-0.040027857
110	0xbe10678f	-0.14102004
111	0xbe69e408	-0.22840893
112	0xbde98f2f	-0.11404263
113	0x3bda8a79	0.0066693393
114	0x3e80c708	0.2515185
115	0xbe1181d6	-0.14209685
116	0x3e0f5664	0.13997799
117	0xbe957ab3	-0.29195175
118	0x3e00544a	0.12532154
119	0x3e3186cc	0.17336577
120	0x3e858a75	0.26082197
121	0x3d6c7800	0.05773163
122	0xbe405fd8	-0.18786561
123	0xbda6c6df	-0.081434004
124	0xbda7bb46	-0.081900164
125	0xbdec7b69	-0.11546976
126	0x3e0e0b20	0.13871431
127	0xbe0c97db	-0.13729803
128	0x3e2bc6a2	0.16774991
129	0xbd527825	-0.05138411
130	0xbb8c8369	-0.0042881262
131	0x3e19705b	0.14984266
132	0x3de78069	0.11303789
133	0xbe7f7a1d	-0.24948926
134	0xbe0ada3d	-0.13559814
135	0xbe0a3402	-0.13496402
136	0xbe6b9e49	-0.230096
137	0x3db495db	0.08817645
138	0xbd1559f4	-0.03646274
139	0xbe361c3b	-0.17784207
140	0x3cc4638c	0.023973249
141	0x3d540e06	0.051771186
142	0x3e4c8e23	0.19976096
143	0x3da259cf	0.07927286
144	0x3e0115eb	0.12606017
145	0x3e976799	0.29571226
146	0x3c25c71e	0.010118274
147	0x3d85ca6d	0.0653275
148	0xbe98ac88	-0.2981913
149	0x3df856fc	0.12125966
150	0xbd53ebfd	-0.051738728
151	0xbe915f70	-0.28393126
152	0xbde362d4	-0.11102834
153	0xbeac6dcb	-0.33677515
154	0xbe049f0a	-0.12951294
155	0xbd62e9f1	-0.055398885
156	0x3e433125	0.19061716
157	0xbe996ccd	-0.2996582
158	0x3d829db9	0.063777395
159	0xbe23bd8b	-0.15990274
160	0xbe4d57e0	-0.20053053
161	0x3c70de11	0.014701382
162	0x3e2150c4	0.15753466
163	0xbe6ef55f	-0.23335789
164	0xbe225c5a	-0.15855542
165	0x3e5be774	0.21475011
166	0x3cd27c61	0.025694074
167	0x3e215761	0.15755989
168	0x3e34f064	0.17669827
169	0x3d91ad8b	0.07113179
170	0x3e13f0e2	0.14447358
171	0x3dfef59c	0.1244919
172	0xbd06887e	-0.032845013
173	0x3b7f61b3	0.0038968145
174	0x3e7b9e38	0.24572074
175	0x3e83ba13	0.257279
176	0x3d71e0a4	0.059052125
177	0x3d6a8c51	0.057262722
178	0x3dcc83d0	0.09986079
179	0xbcf06590	-0.029345304
180	0xbde2038e	-0.11035834
181	0xbe92a2b5	-0.2863976
182	0xbcbce3e9	-0.023057895
183	0xbdad17f4	-0.08451834
184	0x3d7cb52c	0.061696216
185	0xbc07e739	-0.008294874
186	0x3e8154cb	0.25260004
187	0x3bf7c07f	0.007560789
188	0x3cfbcfc9	0.030738728
189	0x3e5d6dfe	0.2162399
190	0x3db4fbf5	0.088371195
191	0x3dd87bc4	0.105704814

init_layer.0.bias f4 [64]
0	0xbdf50452	-0.11963715
1	0x3d81267c	0.063061684
2	0xbd943ad6	-0.072377846
3	0x3d7d0566	0.061772726
4	0xbd9ca71e	-0.076490626
5	0xbd31020d	-0.043214846
6	0x3dec0cc3	0.115258716
7	0x3dceb8f7	0.10093873
8	0x3b58dd39	0.0033090843
9	0x3d68d0e2	0.05683983
10	0xbc86b0be	-0.0164417
11	0xbbd48713	-0.0064858287
12	0xbd91ae77	-0.07113355
13	0x3dcabac2	0.098989025
14	0x3cfdfe7a	0.031005133
15	0x3dceca31	0.10097159
16	0x3e02d113	0.12775068
17	0x3d7761ef	0.06039613
18	0xbdda936b	-0.10672649
19	0x3d8aafbc	0.067718
20	0x3d96faac	0.073720306
21	0x3d3ab7ee	0.045585565
22	0x3d5bbd90	0.053647578
23	0x3d690a4e	0.056894593
24	0x3cd966bf	0.026538251
25	0xbdcbee11	-0.09957517
26	0xbd0f5d0f	-0.035000857
27	0xbd61d634	-0.05513592
28	0xbd789949	-0.06069306
29	0xbda8f5c2	-0.082499996
30	0xbd9d0fb3	-0.0766901
31	0xbdc81479	-0.0976953
32	0x3c4eef92	0.01263036
33	0xbd4bbef1	-0.049742643
34	0xbd52ac57	-0.051433887
35	0x3dc46f0b	0.09591492
36	0x3d52610d	0.051362086
37	0xbdad17e6	-0.08451824
38	0x3d9948ce	0.074845895
39	0xbdafeb21	-0.08589769
40	0x3dc1d38c	0.094641775
41	0xbd854bcb	-0.06508597
42	0x3d1a0996	0.037606798
43	0xbdd89543	-0.105753444
44	0x3dbb07f7	0.091323785
45	0xbc8b2c48	-0.016988888
46	0xbd058cd0	-0.032604992
47	0xbd612db6	-0.054975234
48	0xbceb88be	-0.028751727
49	0x3ce2a0a1	0.027664484
50	0x3d54547d	0.051838387
51	0xbd9cf3a3	-0.076636575
52	0xbcc25319	-0.023721265
53	0xbd890f55	-0.066923775
54	0x3d990a68	0.07472688
55	0x3dc9b14a	0.09848268
56	0x3dadf943	0.084948085
57	0x3da89e95	0.08233372
58	0x3dbaae90	0.091153264
59	0x3d0137e9	0.03154746
60	0xbc626c77	-0.013819805
61	0xbd520e68	-0.05128327
62	0x3dab0e89	0.08352382
63	0x3da10db2	0.0786394

hiden_layers.0.weight f4 [64, 64]
0	0xbdd37dab	-0.10326704
1	0xbc9ef1d3	-0.01940242
2	0x3e371872	0.17880419
3	0x3d9e4ab0	0.07729089
4	0xbe58471b	-0.21120875
5	0x3c98f2c0	0.01867044
6	0x3d50c84d	0.05097227
7	0xbe448d76	-0.19194588
8	0xbca8ed67	-0.020621015
9	0xbd2ddf4f	-0.04244929
10	0x3d18d7eb	0.03731529
11	0x3e349459	0.17634715
12	0x3da23bdc	0.079215735
13	0x3e00c719	0.1257595
14	0x3e5a3107	0.21307765
15	0xbe580011	-0.21093775
16	0xbd78336f	-0.060595926
17	0xbe056645	-0.13027294
18	0xbca15288	-0.019692674
19	0xbe255870	-0.16147017
20	0xbd9ea90b	-0.07747086
21	0x3da64958	0.08119458
22	0x3c5566ca	0.013024995
23	0xbea82ab2	-0.32845074
24	0x3e24e4ce	0.16102907
25	0x3ce68e6f	0.02814409
26	0xbe0322c9	-0.12806238
27	0xbe152fc5	-0.14569004
28	0xbdcfeee5	-0.101529874
29	0x3d89ea16	0.067341015
30	0xbe2e2c20	-0.1700902
31	0xbc9b7928	-0.01897867
32	0xbe06b49b	-0.13154833
33	0xbd8040ce	-0.062623605
34	0x3e3d88ad	0.18509169
35	0x3ac5ee96	0.0015101011
36	0xbcc10c71	-0.023565503
37	0x3d39e7a2	0.045386918
38	0x3e5e2f3f	0.2169771
39	0x3ddbbf01	0.107297905
40	0x3d1d6ef4	0.03843589
41	0xbd67820f	-0.056520518
42	0x3ddc3204	0.10751727
43	0xbc74383a	-0.014905984
44	0xbd4e7927	-0.05040851
45	0xbcda5984	-0.026654013
46	0x3d5bd7ee	0.053672723
47	0xbe6cafca	-0.23113933
48	0x3e3cde51	0.18444182
49	0xbd9ff1f8	-0.07809824
50	0xbe011b77	-0.12608133
51	0x3da0a63f	0.07844209
52	0x3d0d0755	0.03443082
53	0x3ac94396	0.0015355225
54	0x3e4cd517	0.20003162
55	0x3e35274d	0.17690773
56	0xbe379f37	-0.1793183
57	0xbe2b5447	-0.16731368
58	0xbe2eb126	-0.17059764
59	0x3db14d61	0.08657337
60	0x3d86d3e7	0.06583386
61	0xbda4d248	-0.080479205
62	0xbd1797a3	-0.037009846
63	0xbe25e671	-0.16201188
64	0xbd3e2784	-0.046424404
65	0xbe5b5429	-0.21418823
66	0xbe657aaa	-0.22410074
67	0x3e22b295	0.15888436
68	0xbe00874d	-0.12551613
69	0xbdc1b38a	-0.094580725
70	0x3e277c26	0.16355953
71	0xbe3928be	-0.18081948
72	0x3c79d093	0.015247482
73	0xbe3ffc47	-0.1874858
74	0x3e5bde50	0.21471524
75	0xbe0a3355	-0.13496144
76	0x3cb6bbf6	0.022306424
77	0x3d547cd5	0.05187686
78	0xbc555cae	-0.013022585
79	0x3e0b4027	0.13598691
80	0x3b9ae770	0.0047272965
81	0x3e43b0c2	0.19110397
82	0xbb9e6dc9	-0.0048348648
83	0xbbb05445	-0.0053811395
84	0xbddeb4db	-0.10874339
85	0xbe6b93e3	-0.23005633
86	0x3d75b71f	0.05998909
87	0x3e20455f	0.15651463
88	0xbd3eaa2c	-0.046549007
89	0xbd21bc4d	-0.03948622
90	0x3e823980	0.25434494
91	0x3e149d75	0.1451319
92	0x3dca5b04	0.09880641
93	0x3dc3bddd	0.09557698
94	0xbe12d735	-0.14339907
95	0xbde048ef	-0.10951411
96	0x3d2c86d2	0.042120762
97	0x3d429b76	0.04751154
98	0x3dfe78e1	0.124253996
99	0x3de279a2	0.11058356
100	0x3e1789ce	0.14798662
101	0xbcd18e56	-0.025580566
102	0xbdc57067	-0.0964058
103	0x3e336197	0.17517696
104	0xbd9ff892	-0.07811083
105	0xbd25f3f0	-0.04051584
106	0xbe632458	-0.22181833
107	0x3d3532b8	0.044237822
108	0x3d7dcee1	0.061964873
109	0xbe5420ad	-0.2071559
110	0x3e27d4e3	0.16389804
111	0xbe247ecc	-0.16063994
112	0xbd4b0a8f	-0.049570616
113	0xbdf40227	-0.11914473
114	0xbdd5fc7b	-0.104485475
115	0xbdd33d63	-0.10314443
116	0x3dcbd721	0.09953142
117	0xbe233895	-0.15939553
118	0x3dd5a212	0.10431303
119	0x3dd12652	0.10212387
120	0xbe4c5295	-0.19953378
121	0xbdf44153	-0.11926522
122	0xbe2b1b92	-0.16709736
123	0xbe45868f	-0.19289611
124	0x3e487f51	0.19579817
125	0x3e6f3c01	0.23362733
126	0x3e14addd	0.14519449
127	0xbdd812d2	-0.10550465
128	0x3e208077	0.15674005
129	0xbdbdd82b	-0.092697464
130	0x3e32124f	0.17389797
131	0xbc8b688d	-0.017017627
132	0xbe29025d	-0.16504808
133	0xbcf47271	-0.029839726
134	0xbd79e66f	-0.061010774
135	0xbe3a164a	-0.18172565
136	0xbbf570bb	-0.007490245
137	0xbdb09c54	-0.08623567
138	0xbbf5f37b	-0.007505832
139	0x3e20efab	0.15716426
140	0x3e343d1e	0.1760144
141	0xbe625514	-0.22102767
142	0x3e043310	0.12910104
143	0xbe38051d	-0.179707
144	0xbe4052c7	-0.18781577
145	0xbe41fd23	-0.1894422
146	0x3da7a89d	0.08186457
147	0xbd7fb7b9	-0.06243107
148	0xbdd7389f	-0.105088465
149	0xbe1e4229	-0.15454926
150	0xbe520190	-0.20508409
151	0x3c073911	0.008253352
152	0xbc8dbc5c	-0.01730173
153	0xbc91a11a	-0.017777015
154	0x3c70bd39	0.014693552
155	0x3e49f4d0	0.19722295
156	0x3b0d8242	0.0021592532
157	0xbe3f6441	-0.18690588
158	0x3e74707e	0.23871037
159	0x3e848b43	0.25887498
160	0xbe2ecafa	-0.17069617
161	0xbd46df9a	-0.048553087
162	0x3e440ff7	0.19146715
163	0x3e209b96	0.15684351
164	0xbda4b4d4	-0.08042303
165	0xbde0d9f6	-0.10979073
166	0xbd7c7927	-0.061638977
167	0x3daa73a6	0.083228394
168	0xbe71e5ed	-0.23622866
169	0xbd29774b	-0.041373532
170	0x3e37220f	0.17884086
171	0x3e8beb48	0.27327943
172	0x3e0caae6	0.13737068
173	0x3d0656f1	0.032797758
174	0xbd50693e	-0.050881617
175	0x3c8b081f	0.016971646
176	0xbb1093ad	-0.0022060678
177	0x3cffb3a2	0.031213585
178	0xbe069387	-0.13142215
179	0xbca0dc60	-0.019636333
180	0xbbc23ca8	-0.005927641
181	0xbc812070	-0.015762538
182	0xbe2c7ffa	-0.16845694
183	0x3c39b177	0.011333815
184	0xbe6925d1	-0.22768332
185	0xbe0035a2	-0.1252046
186	0xbe489d6f	-0.19591306
187	0xbe06ccd5	-0.13164075
188	0x3e1cee4b	0.15325277
189	0xbe029118	-0.12750661
190	0xbe236b37	-0.15958868
191	0x3e21f6fd	0.15816875
192	0x3e3c75ed	0.1840436
193	0xbe0fe207	-0.14051066
194	0x3d729fc6	0.059234403
195	0xbd442e1d	-0.04789554
196	0x3e0d37e7	0.13790856
197	0x3e1b4373	0.15162449
198	0xbd35088d	-0.044197608
199	0xbe3c45b7	-0.18385969
200	0xbe5c52dd	-0.21515985
201	0xbe11376f	-0.14181302
202	0x3d5a881d	0.053352464
203	0x3cb50459	0.0220968
204	0xbcca8ca9	-0.024725275
205	0xbdf994c2	-0.121865764
206	0x3b2b83b1	0.0026171023
207	0xbe1dffa9	-0.15429558
208	0xbda83d2a	-0.08214791
209	0x3e044d34	0.12920076
210	0x3e2a6912	0.16641644
211	0xbe063397	-0.13105617
212	0x3e122e21	0.1427541
213	0xbdbe699c	-0.09297487
214	0xbe344639	-0.17604913
215	0xbe01e858	-0.12686288
216	0x3e6d5c1c	0.23179668
217	0x3db48c6a	0.08815844
218	0xbd4f69ab	-0.050637882
219	0xbc6fc5f2	-0.014634596
220	0xbe0f5982	-0.13998988
221	0xbe2186d2	-0.15774086
222	0xbe06dba8	-0.1316973
223	0x3d287037	0.04112264
224	0xbe111ddf	-0.14171551
225	0x3da3a927	0.079912476
226	0xbe13340a	-0.1437532
227	0x3c310e89	0.010806688
228	0xbd5ad230	-0.053423107
229	0xbdc1a63d	-0.094555356
230	0x3c8aab6f	0.016927449
231	0xbcf093a4	-0.029367276
232	0xbe549685	-0.20760544
233	0xbc46e4b4	-0.012139488
234	0x3d8d8610	0.06910336
235	0x3e6ec658	0.2331785
236	0xba47b562	-0.00076182757
237	0x3d95bc8e	0.073113546
238	0x3dd9e658	0.10639638
239	0x3d940107	0.072267585
240	0x3dab9af3	0.083791636
241	0xbdded3ab	-0.10880216
242	0x3e478315	0.19483598
243	0xbd670a9f	-0.056406613
244	0xbe3e0848	-0.18557847
245	0x3e5f2719	0.21792258
246	0x3e31606f	0.17321943
247	0x3d754a2f	0.0598852
248	0xbe4d972d	-0.200772
249	0xbec071b8	-0.3758676
250	0xbe2b0a21	-0.16703083
251	0x3de13739	0.10996861
252	0xbd87ffa3	-0.06640556
253	0xbdb8b600	-0.09019089
254	0xbd36800b	-0.044555705
255	0xbdb4b28d	-0.08823118

hiden_layers.0.bias f4 [64]
0	0xbd7826db	-0.06058393
1	0x3ce3f3f6	0.02782629
2	0xbd8b4677	-0.068005495
3	0xbd0bee0f	-0.034162577
4	0xbd6cdf39	-0.05783007
5	0xbd9be27d	-0.076115586
6	0x3d42152e	0.04738348
7	0x3cedd83b	0.02903377
8	0x3dae8142	0.08520748
9	0x3d046e40	0.032331705
10	0x3d8d03ef	0.06885516
11	0xbdcecba1	-0.10097433
12	0x3d84a53a	0.06476827
13	0xbdb6be45	-0.0892301
14	0x3a33f166	0.0006864279
15	0x3d76503a	0.060135104
16	0xbb6c0873	-0.0036015778
17	0xbd52b64a	-0.051443376
18	0x3d9255cc	0.07145271
19	0xbdb1346c	-0.08652577
20	0xbd7c239b	-0.061557394
21	0x3c92f372	0.01793835
22	0xbd0ba2bf	-0.034090754
23	0xbd5f788c	-0.05455832
24	0x3d4642d4	0.048403576
25	0x3dc018a9	0.093797036
26	0x3cbdc476	0.023164969
27	0xbcd4fbba	-0.025998939
28	0x3c638932	0.01388769
29	0xbd596144	-0.053071275
30	0x3d7c8f0f	0.06165987
31	0x3da10f83	0.07864287
32	0x3da330af	0.0796827
33	0xbd466bdb	-0.048442703
34	0xbda7b4f3	-0.0818881
35	0x3d9580e0	0.072999716
36	0xbd9df52a	-0.07712777
37	0xbd473820	-0.04863751
38	0x3d8590c5	0.06521753
39	0x3ab773e0	0.0013996325
40	0x3d2ac5d0	0.041692555
41	0xbd746664	-0.05966796
42	0x3d99e74a	0.07514818
43	0xbd9e19d6	-0.077197716
44	0x3c86c760	0.016452491
45	0x3ccda5b3	0.025103426
46	0xbcb7383f	-0.022365687
47	0x3d9239a1	0.07139898
48	0xbd99cbe7	-0.075095944
49	0x395843c1	0.00020624606
50	0xbcb19081	-0.02167535
51	0x3ceeedbd	0.029166097
52	0xbd79e279	-0.061006997
53	0x3d69751f	0.05699646
54	0xbcce2aaf	-0.025166837
55	0x3d1f4243	0.03888155
56	0xbd899064	-0.067169935
57	0xbdd98c27	-0.10622435
58	0xbc198b73	-0.009371626
59	0xbd963c19	-0.073356815
60	0xbd6db73c	-0.058036074
61	0xbd627d91	-0.05529553
62	0xbdbc5b5e	-0.091971144
63	0x3d482010	0.048858702

hiden_layers.1.weight f4 [64, 64]
0	0xbc9c1017	-0.019050641
1	0x3db85dc1	0.09002257
2	0xbd996e66	-0.0749176
3	0x3cc8deb4	0.024520256
4	0xbe499563	-0.19685893
5	0x3e5da924	0.21646553
6	0xbe1c68e4	-0.15274388
7	0xbdae72d4	-0.085179955
8	0xbd139c53	-0.036037754
9	0x3b82a761	0.0039872383
10	0xbccd14d5	-0.025034348
11	0xbd8b8dc3	-0.06814148
12	0x3d4afd06	0.04955771
13	0x3dbb059e	0.09131931
14	0x3d899a73	0.06718912
15	0xbd052f90	-0.032516062
16	0x3db08dcd	0.08620796
17	0x3e535567	0.20638047
18	0xbc2a8e1e	-0.01040986
19	0x3e17cfc7	0.14825355
20	0x3e642566	0.22279891
21	0xbe0eb4a4	-0.13936096
22	0x3cb5f66f	0.022212235
23	0xbe09b55b	-0.13448088
24	0xbd9f4a74	-0.07777873
25	0xbe46d4e9	-0.19417156
26	0xbd7bff6e	-0.061522894
27	0x3e30e249	0.17273821
28	0x3d091ffc	0.03347777
29	0xbc21f4e1	-0.009885044
30	0xbdb74a05	-0.08949665
31	0x3d9095ba	0.07059808
32	0xbe5fe52e	-0.21864769
33	0x3e72c9f5	0.23709853
34	0xbe0667e4	-0.13125569
35	0xbe776b4b	-0.24162023
36	0x3c461796	0.012090584
37	0x3cda821d	0.026673371
38	0xbe04fd1a	-0.12987176
39	0x3e1b619d	0.15173955
40	0x3dc181f5	0.094486155
41	0x3d883994	0.06651607
42	0xbe132f15	-0.14373429
43	0x3e523b7d	0.20530505
44	0x3e424dca	0.18974987
45	0x3dc55557	0.09635418
46	0x3e033e1f	0.12816666
47	0xbe49938e	-0.19685194
48	0xbb23e2dd	-0.0025007047
49	0xbdc46b03	-0.09590723
50	0xbd99083e	-0.07472275
51	0x3dc21508	0.09476668
52	0xbd878772	-0.06617631
53	0xbdbf35ca	-0.09336431
54	0xbd0f8beb	-0.035045546
55	0xbe463b6f	-0.1935861
56	0x3e67e5c9	0.2264625
57	0x3d0fdb61	0.035121325
58	0xbe7dd8da	-0.24789754
59	0x3df6c21b	0.120487414
60	0x3d632fdb	0.05546556
61	0x3d9eab31	0.07747496
62	0x3dcebb50	0.10094321
63	0xbe220747	-0.15823089
64	0x3db5d69d	0.08878825
65	0xbc2ad73d	-0.010427293
66	0xbe50440d	-0.2033846
67	0x3e0842ed	0.1330678
68	0xbe15965b	-0.14608137
69	0xbd7db4e1	-0.061940078
70	0xbe1bf288	-0.15229237
71	0x3bd1553d	0.006388335
72	0x3daf0620	0.0854609
73	0xbe202c86	-0.15641984
74	0x3e44a1c6	0.19202337
75	0x3e06f1f6	0.13178238
76	0x3d7408ae	0.05957859
77	0xbcd8481a	-0.026401568
78	0x3b03c962	0.0020109047
79	0x3ded9c97	0.11602133
80	0x3e01408f	0.12622283
81	0xbdf81a07	-0.12114339
82	0x3e36b503	0.17842488
83	0x3d72474d	0.05915003
84	0x3da69e8a	0.08135708
85	0x3e2bdcca	0.16783443
86	0xbe603f18	-0.21899068
87	0x3befb0d3	0.0073147803
88	0x3d03e86d	0.03220408
89	0x3e2aaa74	0.16666585
90	0x3d98998a	0.0745116
91	0xbd802410	-0.062568784
92	0xbaedfcee	-0.0018157044
93	0x3b1aba50	0.0023609586
94	0xbdc0a6ed	-0.094068386
95	0x3e7297dd	0.23690744
96	0x3e487a40	0.19577885
97	0x3e136ef3	0.14397793
98	0xbeb8c178	-0.36085105
99	0xbdf82a54	-0.121174484
100	0xbe4f3534	-0.20235139
101	0xbb444068	-0.0029945616
102	0xbdba8c87	-0.09108835
103	0xbe4f4ff9	-0.20245351
104	0xbe77aad9	-0.24186267
105	0xbe540388	-0.20704472
106	0x3d24dc7e	0.04024934
107	0xbe2df4c7	-0.16987906
108	0x3dd56239	0.10419125
109	0x3d8a3649	0.06748635
110	0xbc50fd71	-0.012755738
111	0xbe6b5a67	-0.22983705
112	0x3e710b31	0.23539425
113	0x3e0042fb	0.12525551
114	0xbe363912	-0.17795208
115	0xbda024e0	-0.07819533
116	0x3d95334e	0.07285176
117	0xbc42c05f	-0.011886685
118	0x3e0ab2c7	0.1354476
119	0xbd9dabf5	-0.07698814
120	0xbd2e86b5	-0.042608935
121	0x3c8e5c03	0.017377859
122	0xbd0f80d6	-0.035034977
123	0x3df5cb44	0.120016605
124	0x3d5d5d0c	0.054043815
125	0xbc26d5ab	-0.010182778
126	0x3c0f4343	0.008744064
127	0x3ee35165	0.44398037
128	0x3dba9f41	0.091124065
129	0x3e253fc4	0.16137606
130	0xbd176a20	-0.036966443
131	0x3dbe6833	0.09297218
132	0x3da5bdcf	0.08092844
133	0x3e26e701	0.16299058
134	0xbdbe833d	-0.093023755
135	0x3e7df3c7	0.24800025
136	0x3e4f7fa8	0.2026354
137	0xbda1ef69	-0.07906992
138	0xbe27ddf9	-0.1639327
139	0xbd56ccd7	-0.052441444
140	0x3d147186	0.036241077
141	0xbcde3f5c	-0.027129821
142	0x3e14242a	0.1446692
143	0x3daf2b4a	0.085531786
144	0xbdb236e8	-0.08701879
145	0xbdfe6cb2	-0.12423076
146	0x3de49568	0.111613095
147	0x3d9957fa	0.07487483
148	0x3d2c808a	0.042114772
149	0xbe6acdd9	-0.22930087
150	0xbe41678b	-0.18887155
151	0xbe3fe949	-0.18741335
152	0xbbdeaf9d	-0.006795837
153	0x3dcf888d	0.10133467
154	0xbddbfad9	-0.10741205
155	0xbd9cf293	-0.07663455
156	0x3de515cf	0.111858
157	0x3d62eca3	0.055401456
158	0x3e4f69a2	0.2025514
159	0x3e96b96d	0.29438344
160	0x3e067f29	0.13134445
161	0xbe2489ff	-0.16068266
162	0xbe46ec1c	-0.19426006
163	0xbde41519	-0.111368366
164	0xbdaec353	-0.08533349
165	0xbe526ef6	-0.2055014
166	0x3d8a4270	0.06750953
167	0xbdfcc0d3	-0.12341466
168	0xbe0bea25	-0.13663538
169	0xbe1fd928	-0.15610182
170	0xbe34fc1b	-0.17674296
171	0xbe051e4b	-0.12999837
172	0x3d91b0b4	0.071137816
173	0x3d03656a	0.032079138
174	0xbd8ee303	-0.06976893
175	0x3d7a7ce5	0.061154265
176	0xbc1bdf2e	-0.009513659
177	0x3bd1a41a	0.0063977363
178	0x3d447f3e	0.04797291
179	0xbe799509	-0.24373259
180	0x3be757d5	0.007060031
181	0xbe303713	-0.17208509
182	0x3e02b8e5	0.12765844
183	0xbc10a5de	-0.008828608
184	0xbe0a7d4f	-0.13524364
185	0x3d97111e	0.07376312
186	0x3d322e40	0.04350114
187	0x3d07dcbb	0.03316949
188	0xbc50ff46	-0.012756174
189	0x3db34a1c	0.087543696
190	0xbce94397	-0.028474612
191	0x3e1aae71	0.15105607
192	0x3e453e25	0.19261988
193	0xbd07783c	-0.03307365
194	0xbde0e756	-0.10981624
195	0x3e0978da	0.13425007
196	0x3e82d4ff	0.25553128
197	0xbe557216	-0.20844302
198	0xbdde0fa2	-0.108428255
199	0xbe0cf130	-0.1376388
200	0x3c939ca7	0.018019034
201	0x3ce7e180	0.028305769
202	0xbdf4a11e	-0.11944793
203	0x3eb29fa2	0.34887415
204	0x3e68a19f	0.22717904
205	0x3e6e9dbe	0.23302361
206	0xbd34d6fb	-0.044150334
207	0x3de9752e	0.113993034
208	0xbcc4a724	-0.02400548
209	0xbe2d2bb5	-0.16911204
210	0xbc6c1333	-0.014408874
211	0x3da255bf	0.07926511
212	0x3c005e14	0.00783493
213	0xbe5cb8b9	-0.21554841
214	0x3dc910f0	0.09817684
215	0x3e10ccc5	0.14140613
216	0x3ddcf112	0.10788168
217	0x3d88a646	0.06672339
218	0xbe019631	-0.1265495
219	0x3c94f8ed	0.018185103
220	0x3d08f8c6	0.033440374
221	0x3e82e799	0.2556732
222	0x3e2df289	0.16987051
223	0x3e209718	0.15682638
224	0x3e3d1c55	0.18467839
225	0xbb07e9f1	-0.0020738805
226	0xbd965659	-0.07340688
227	0x3bb0401d	0.0053787366
228	0x3e53c002	0.20678714
229	0xbd35776f	-0.044303354
230	0x3e2d12bb	0.16901676
231	0x3e49fe2b	0.19725864
232	0x3dcc66e0	0.09980559
233	0xbd1b4029	-0.037902985
234	0x3e6dee22	0.23235372
235	0x3e146811	0.14492823
236	0xbe1f9a12	-0.15586117
237	0xbdac3d31	-0.08410109
238	0xbe667004	-0.22503668
239	0xbdc9fcf7	-0.09862702
240	0xbd0796dd	-0.03310286
241	0x3e004053	0.12524538
242	0xbd18dad7	-0.037318077
243	0x3d66babc	0.056330428
244	0x3e470b2a	0.19437853
245	0xbd5092f3	-0.05092139
246	0xbe8f1e44	-0.27952778
247	0xbd7bbbd6	-0.06145843
248	0xbe163f5b	-0.14672606
249	0xbcba0acb	-0.022710225
250	0x3e3f07cf	0.18655322
251	0x3d8f7a01	0.07005692
252	0xbe29f785	-0.16598327
253	0x3e641e64	0.22277218
254	0x3e4e1393	0.20124654
255	0xbe5fea32	-0.21866682

hiden_layers.1.bias f4 [64]
0	0xbc9f9533	-0.019480323
1	0x3d7de09e	0.06198179
2	0x3d82bcbd	0.06383655
3	0xbda7cf75	-0.08193866
4	0xbbf87ec1	-0.0075834696
5	0xbcaadcc2	-0.020857219
6	0xbd1917c3	-0.037376177
7	0xbdaff8cc	-0.08592376
8	0xbdae1ede	-0.08501981
9	0xbd3f2b2b	-0.046672028
10	0x3d54f089	0.051987205
11	0xbd10548f	-0.03523689
12	0x3ba65cb5	0.0050769695
13	0xbd116647	-0.03549793
14	0xbd9143e8	-0.0709303
15	0xbac5b215	-0.001508298
16	0x3c3d61f1	0.011558996
17	0xbbe479f2	-0.006972545
18	0xbd7b0f7b	-0.06129406
19	0xbc21b367	-0.009869433
20	0x3d3af7f7	0.045646634
21	0x3d4fe802	0.05075837
22	0x3d0818e6	0.03322687
23	0x3d7b55d0	0.061361134
24	0xbd9840c4	-0.07434228
25	0xbd303356	-0.043017708
26	0x3d8897fc	0.06669614
27	0x3d83e4b7	0.06440108
28	0xbd0ce417	-0.03439721
29	0x3cacc159	0.02108829
30	0x3d3a5f01	0.04550076
31	0xbd912aab	-0.070882164
32	0xbd47e0cb	-0.048798364
33	0xbd40255a	-0.04691062
34	0x3d60b000	0.054855347
35	0x3d64138b	0.0556827
36	0x3d95f104	0.07321361
37	0xbd9ec4b2	-0.077523604
38	0x3d5a004d	0.053222943
39	0xbd1c4e58	-0.038160652
40	0x3cd31e78	0.025771365
41	0x3d717d2a	0.058957256
42	0xbda70584	-0.08155349
43	0xbd833771	-0.06407059
44	0xbd6ec0f2	-0.058289476
45	0xbda035f7	-0.07822793
46	0xbd848f75	-0.06472675
47	0x3d2a982a	0.04164902
48	0x3d87725d	0.0661361
49	0xbd8e404c	-0.069458574
50	0xbcdab4bf	-0.026697515
51	0x3d847d61	0.06469227
52	0xbc077c2e	-0.008269353
53	0x3c260585	0.010133152
54	0xbd6d1098	-0.057877153
55	0x3d6b5ae4	0.057459727
56	0xbd3459bd	-0.044030894
57	0x3d72d2a2	0.059282906
58	0x3c85cbe6	0.016332578
59	0x3d78439a	0.060611345
60	0x3d94aab6	0.07259123
61	0xbc90e34d	-0.01768651
62	0xbc76b7d4	-0.0150584765
63	0x3d22a880	0.039711475

hiden_layers.2.weight f4 [64, 64]
0	0xbe36035a	-0.17774716
1	0x3edc8099	0.43066862
2	0x3e6fe48c	0.23427027
3	0xbd8f7017	-0.07003801
4	0xbd893b68	-0.06700784
5	0xbe226181	-0.15857507
6	0xbe360484	-0.1777516
7	0xbef3b0e7	-0.47595903
8	0xbf1280d9	-0.57227856
9	0xbe72eb89	-0.23722662
10	0x3dd6ba56	0.104847595
11	0xbc1277f2	-0.00893973
12	0xbdbec83f	-0.09315538
13	0x3e04b053	0.12957887
14	0xbd9482f8	-0.07251543
15	0x3e99b7ce	0.30023044
16	0x3e592fb5	0.21209605
17	0xbc6d5e4b	-0.014487813
18	0xbcf721e7	-0.030167533
19	0xbe05f97d	-0.13083453
20	0x3e51fd60	0.20506811
21	0x3e60b437	0.21943747
22	0xbdd04a2a	-0.10170396
23	0x3e168d0b	0.14702241
24	0x3c7aa860	0.015298933
25	0xbe3b6d5a	-0.18303433
26	0xbe7c3ce6	-0.24632606
27	0xbd22f112	-0.039780684
28	0x3cf14e21	0.0294562
29	0xbd85f28f	-0.06540405
30	0x3e756872	0.23965624
31	0xbcf7ecf8	-0.030264363
32	0xbe59631c	-0.21229213
33	0xbda4dfd4	-0.08050504
34	0xbe2e7c58	-0.17039621
35	0xbd2d9de1	-0.042386893
36	0x3e7ddfde	0.2479243
37	0xbc546716	-0.012964031
38	0x3cf40e48	0.029791966
39	0x3d074899	0.03302822
40	0xbe1af2df	-0.1513171
41	0x3d96d35e	0.07364534
42	0xbe01f6b7	-0.1269177
43	0xbd50f477	-0.05101439
44	0x3dd4c8b8	0.103898466
45	0xbe25e1f1	-0.16199471
46	0x3d24a724	0.04019846
47	0x3df3ccd2	0.11904301
48	0x3d7b0f4b	0.06129388
49	0xbe729354	-0.23689014
50	0xbdff1eed	-0.124570705
51	0xbe8295e2	-0.25504977
52	0xbcf2fe3f	-0.02966225
53	0x3e400994	0.18753654
54	0x3dc3ff6f	0.095702045
55	0x3e4b5d4d	0.1985981
56	0xbe3079ba	-0.17233935
57	0x3e1265b1	0.14296605
58	0x3e7fd253	0.24982576
59	0xbd4feb5b	-0.05076156
60	0xbd05f975	-0.032708604
61	0xbc36a564	-0.011147831
62	0x3ddf4516	0.10901849
63	0x3e63fcec	0.22264451
64	0x3d97c3b2	0.07410373
65	0xbc827266	-0.01592369
66	0x3defcdec	0.11709198
67	0x3e31024f	0.17286037
68	0x3e3341db	0.1750559
69	0x3e15c59d	0.14626165
70	0x3e187d3f	0.14891528
71	0x3e812d63	0.2522994
72	0x3dd6246c	0.10456166
73	0x3e1e8282	0.15479472
74	0x3e4fe290	0.2030127
75	0x3dbcfae8	0.09227544
76	0xbdb08b83	-0.0862036
77	0xbdc71cb6	-0.09722273
78	0xbd9edab2	-0.077565566
79	0x3e17ca43	0.1482325
80	0xbdd63a50	-0.10460341
81	0x3d17d7ba	0.037070967
82	0xbe5b888e	-0.2143881
83	0xbe197f1b	-0.14989893
84	0x3db0e74e	0.08637868
85	0xbde04f0f	-0.10952579
86	0x3b091e86	0.0020922734
87	0xbd719c1b	-0.058986764
88	0xbd14fb95	-0.03637274
89	0x3da80db0	0.08205736
90	0x3e6841fb	0.2268142
91	0x3dbba29c	0.09161875
92	0xbe07403b	-0.13208096
93	0x3d7ea8c9	0.062172685
94	0xbcfceff3	-0.030876135
95	0xbd918af5	-0.07106582
96	0x3c55f3fa	0.013058657
97	0x3e77491b	0.24148981
98	0xbdd770a3	-0.105195306
99	0x3e223015	0.15838654
100	0x3e246464	0.16053921
101	0x3d322024	0.043487683
102	0x3cfba9ae	0.030720558
103	0xbe8defb2	-0.27721936
104	0xbe009192	-0.1255553
105	0xbe0cba08	-0.1374284
106	0xbb98ba0e	-0.0046608513
107	0x3c953cdb	0.018217495
108	0x3d624810	0.055244505
109	0xbe193166	-0.1496025
110	0xbd8eb7e1	-0.06968666
111	0x3e6ac47f	0.2292652
112	0xbe325ed3	-0.17418985
113	0x3e67185a	0.22567883
114	0xbd5410bd	-0.051773775
115	0xbdc8d2e9	-0.09805853
116	0xbddfa111	-0.10919393
117	0x3e1dbc3d	0.15403838
118	0xbdd91cf7	-0.10601228
119	0xbe428d4e	-0.18999216
120	0x3e4edeb4	0.20202142
121	0xba9c97b3	-0.0011947065
122	0xbdc23902	-0.094835296
123	0x3e85f6c0	0.26164818
124	0x3d3c86f7	0.04602715
125	0x3e85fb5f	0.26168343
126	0x3df33ead	0.11877189
127	0xbe62efda	-0.22161809
128	0x3e5c2ed0	0.21502233
129	0xbe3799f3	-0.1792982
130	0xbe0dac62	-0.1383529
131	0xbe2fa78a	-0.17153755
132	0x3e1e9584	0.15486723
133	0x3d93a3f5	0.07209007
134	0x3e1a4f17	0.15069233
135	0x3cb9f495	0.022699634
136	0xbe08ae5e	-0.13347766
137	0x3e6667ac	0.22500485
138	0x3cc33929	0.023830967
139	0x3e3e708d	0.18597622
140	0x3c83fe23	0.016112393
141	0x3e2f4526	0.17116222
142	0xbe4ec172	-0.20190981
143	0x3e1e589c	0.1546349
144	0x3db5a8fc	0.08870122
145	0xbe3d7304	-0.18500906
146	0x3da57dcd	0.08080635
147	0xbe5c975c	-0.21542114
148	0xbe3372f1	-0.17524315
149	0x3da87b16	0.08226602
150	0x3e64efc0	0.22357082
151	0xbe3081d6	-0.17237028
152	0xbde3f082	-0.111298576
153	0xbe14e5ab	-0.14540736
154	0xbd9c803a	-0.07641645
155	0xbdcaf50d	-0.09910021
156	0x3df33c4c	0.11876735
157	0x3d56a0a5	0.052399296
158	0x3e047adf	0.12937497
159	0x3e640f13	0.22271375
160	0xbdfe61e5	-0.12421016
161	0xbe10c22d	-0.14136572
162	0x3b945808	0.0045270957
163	0x3e1c1b95	0.15244897
164	0x3e3d28a1	0.1847253
165	0xbc4d7817	-0.012540839
166	0xbe32a095	-0.1744407
167	0x3e4c4810	0.19949365
168	0x3e3a6692	0.1820319
169	0x3c0992a1	0.008396775
170	0xbdf14c2c	-0.11782107
171	0xbdd61bfc	-0.10454556
172	0x3de310e0	0.11087203
173	0x3c501523	0.012700352
174	0xbdc53e15	-0.09630982
175	0x3d257c89	0.04040197
176	0x3e75a116	0.2398723
177	0x3d81e0d6	0.06341712
178	0xbe0c8d31	-0.13725735
179	0x3e6378a4	0.2221399
180	0xbe36b885	-0.17843826
181	0x3e3c5257	0.18390785
182	0x3dc36f26	0.09542684
183	0xbdcc3582	-0.09971143
184	0xbe4d65f1	-0.20058419
185	0x3e3299ec	0.17441529
186	0xbe6874e5	-0.22700842
187	0xbe54076a	-0.20705953
188	0x3de728cb	0.112870775
189	0x3d0f791e	0.035027616
190	0x3dfb7e1d	0.122799136
191	0x3e14d5ed	0.14534731
192	0xbcac91cf	-0.02106562
193	0xbe1f2bd1	-0.15544058
194	0xbcadede1	-0.021231594
195	0x3e6011d9	0.21881808
196	0xbe26424f	-0.16236232
197	0xbe2dc3ff	-0.16969298
198	0x387ab22e	5.9770588e-05
199	0xbe7cea93	-0.24698858
200	0x3d2b1406	0.041767143
201	0x3dfcd2d5	0.123449005
202	0x3df6d90f	0.120531194
203	0xbe4285ea	-0.18996397
204	0x3dfc0c11	0.12306989
205	0x3ddf30f3	0.10898008
206	0xbdd7ea35	-0.10542718
207	0x3d8ad7b8	0.06779426
208	0x3dd0fdbe	0.102046475
209	0xbe518299	-0.20459975
210	0xbe532e5f	-0.20623158
211	0xbd174dba	-0.03693936
212	0xbe21e013	-0.15808134
213	0xbc15d896	-0.009145876
214	0x3e18d253	0.14923982
215	0xbd6b2095	-0.05740412
216	0xbdbc810c	-0.09204301
217	0xbd1b1b72	-0.03786797
218	0x3e343fdc	0.17602485
219	0x3dbae7be	0.091262326
220	0xbce32b99	-0.02773075
221	0x3e5e8ce2	0.2173343
222	0x3e24684b	0.1605541
223	0xbe7dcedc	-0.24785942
224	0xbe7b49cb	-0.24539869
225	0xbe04ba57	-0.12961708
226	0x3e70d26b	0.23517768
227	0x3e45b7f7	0.19308458
228	0x3d76e538	0.060277194
229	0x3d9f3c5b	0.07775184
230	0x3b1fc15b	0.0024376723
231	0xbe59c8cb	-0.21268003
232	0x3e5963c7	0.21229468
233	0xbe615311	-0.22004344
234	0xbd8e1710	-0.069379926
235	0xbd48d144	-0.049027696
236	0x3c5267a4	0.012842093
237	0xbe08bfdc	-0.13354439
238	0xbd75ccad	-0.060009647
239	0x39decabe	0.00042494194
240	0xbdbc9dbb	-0.09209772
241	0x3d22d147	0.039750364
242	0x3e59ded7	0.21276413
243	0xbe11f9a1	-0.14255382
244	0xbdaeade4	-0.08529261
245	0xbde3c01e	-0.11120628
246	0x3df2ba9b	0.118519984
247	0xbd3e08c8	-0.046395093
248	0x3dab2e3e	0.08358429
249	0xbd208820	-0.03919232
250	0xbda236aa	-0.079205826
251	0x3e5109fb	0.20413963
252	0x3e4d7f21	0.20068027
253	0xbe1466a5	-0.14492281
254	0x3e5727b3	0.21011238
255	0xbb85cb9f	-0.0040831114

hiden_layers.2.bias f4 [64]
0	0x3d981739	0.07426304
1	0xbd25582c	-0.04036729
2	0x3c8258bc	0.015911452
3	0x3d2cf6fb	0.042227726
4	0xbd7dfebd	-0.062010515
5	0x3d9ba187	0.07599168
6	0xbce6baf9	-0.028165327
7	0xbcbd1609	-0.023081796
8	0xbd0e9790	-0.03481251
9	0xbd690f29	-0.056899223
10	0x3d08156b	0.03322355
11	0x3cd9f471	0.026605817
12	0x3d20842b	0.039188545
13	0x3d8275fa	0.063701585
14	0x3c64050a	0.013917217
15	0x3d88f004	0.06686404
16	0x3b1ab1b3	0.0023604452
17	0xbcf01db4	-0.029311039
18	0xbd8858b3	-0.06657543
19	0x3d62dc34	0.055385783
20	0xbd934d95	-0.07192532
21	0x3b8354b4	0.0040079
22	0x3cdc334d	0.02687993
23	0xbcda2c67	-0.0266325
24	0xbcbd9d24	-0.02314622
25	0xbd151cda	-0.036404468
26	0xbd0053a3	-0.031329762
27	0x3d4e2bd4	0.050334767
28	0xbda08e75	-0.078396715
29	0x3b989043	0.004655869
30	0xbb9128dc	-0.0044299196
31	0xbd68f310	-0.056872427
32	0xbd827425	-0.06369809
33	0xbd608a3e	-0.054819338
34	0x3c0c020c	0.00854541
35	0xbcfb7f2e	-0.030700292
36	0x3d5ec6fd	0.05438899
37	0x3cb9903a	0.02265178
38	0xbc04261b	-0.008065726
39	0x3d50ada2	0.05094684
40	0x3d0890aa	0.033341087
41	0x3d485590	0.048909724
42	0x3d932420	0.07184625
43	0x3d42b987	0.047540214
44	0x3d50bf54	0.050963715
45	0xbd423332	-0.047412105
46	0xbd1851be	-0.03718733
47	0xbd3b0614	-0.045660093
48	0x3d0131de	0.031541698
49	0x3c57ffaa	0.013183514
50	0x3d526ed8	0.05137524
51	0x3d3b39c2	0.04570938
52	0xbcf77439	-0.030206786
53	0xbc67ec2e	-0.014155431
54	0xbd2db1bc	-0.04240583
55	0xbd8d9c92	-0.06914629
56	0xbd804125	-0.06262425
57	0xbc68e0f3	-0.014213788
58	0x3d09bc15	0.033626635
59	0x3c2423cc	0.0100183
60	0x3d57d40e	0.052692465
61	0x3d1482fc	0.03625773
62	0xbd2d310a	-0.042283095
63	0xbd0f1f18	-0.034941763

hiden_layers.3.weight f4 [64, 64]
0	0xbe2ff12e	-0.17181846
1	0x3e6ede92	0.23327091
2	0x3e4d4860	0.2004714
3	0xbbd05020	-0.006357208
4	0x3d2245bd	0.03961729
5	0x3dab5857	0.08366459
6	0xbdb93271	-0.09042824
7	0xbe640f9b	-0.22271578
8	0xbbd1e7bd	-0.006405799
9	0x3dc39a0b	0.09550866
10	0x3e584cb4	0.2112301
11	0x3c09978c	0.008397948
12	0x3e5f7065	0.21820219
13	0xbe479f66	-0.194944
14	0x3e68439f	0.22682045
15	0xbdce86c6	-0.100843
16	0xbe4e0598	-0.20119321
17	0xbdb50234	-0.08838311
18	0x3d40b864	0.04705085
19	0xbe0dba86	-0.13840684
20	0x3e9b6056	0.30346936
21	0xbe970191	-0.29493383
22	0x3e3db0fa	0.18524542
23	0x3e5084b1	0.20363118
24	0x3dfcbe66	0.12341003
25	0x3ded0ec4	0.11575082
26	0xbc9e960f	-0.019358663
27	0xbda7ee67	-0.081997685
28	0x3e5d9dd9	0.21642245
29	0x3e3b84b2	0.18312338
30	0xbd0f6292	-0.035006113
31	0x3e1d1c4f	0.1534283
32	0x3da2fc24	0.07958248
33	0x3dc34e4a	0.09536417
34	0xbe1ea36e	-0.15492031
35	0x3e365e32	0.1780937
36	0x3d109316	0.035296522
37	0x3d572296	0.052523218
38	0x3d332e6d	0.043745447
39	0xbdb9334c	-0.09042987
40	0x3cd0989b	0.025463393
41	0x3e0c330f	0.13691352
42	0xbe6fdcb0	-0.2342403
43	0xbdf9e3f9	-0.122016855
44	0x3de54fd2	0.11196865
45	0x3e718e49	0.23589434
46	0x3c7eb091	0.015545026
47	0xbdaca49f	-0.084298365
48	0x3e46608b	0.19372766
49	0xbe607343	-0.21918969
50	0xbe07b664	-0.1325317
51	0xbe16bcd9	-0.14720477
52	0x3e1bec37	0.15226828
53	0x3e4633f3	0.19355755
54	0x3dc5ed1a	0.09664364
55	0xbe120746	-0.14260587
56	0x3db5c82c	0.088760704
57	0x3d3c86b3	0.046026897
58	0xbe4bc6cb	-0.19900052
59	0x3d7679b8	0.060174674
60	0x3ce80c88	0.028326288
61	0x3e2f5145	0.17120846
62	0xbddebdf8	-0.108760774
63	0x3e7cbeb5	0.24682124
64	0xbe1e6580	-0.15468407
65	0xbcbb79ec	-0.022885285
66	0xbb34fcca	-0.0027616494
67	0x3daedd16	0.085382625
68	0xbcf58ea9	-0.029975252
69	0x3df1c273	0.11804666
70	0xbe66a9c3	-0.22525696
71	0x3d85f3ed	0.06540666
72	0xbe17ccea	-0.14824262
73	0xbe2c98f7	-0.16855226
74	0x3e5d2b22	0.21598485
75	0x3e0250e7	0.12726174
76	0x3e458172	0.1928766
77	0xbcb6194c	-0.02222886
78	0xbdcf7c13	-0.10131087
79	0x3e2cb750	0.16866803
80	0x3df2f844	0.11863759
81	0xbc66af59	-0.014079892
82	0x3e589296	0.21149668
83	0x3e321262	0.17389825
84	0x3e3c8fd0	0.18414235
85	0xbe042164	-0.12903363
86	0xbd8aab1c	-0.06770918
87	0x3e365fe3	0.17810015
88	0xbd8e26f6	-0.06941025
89	0x3dc3563a	0.09537931
90	0x3e543005	0.20721443
91	0xbe81c158	-0.25342822
92	0x3e240d1d	0.16020627
93	0xbd8fa1a9	-0.07013256
94	0xbe6af8cd	-0.22946472
95	0x3e087c54	0.13328677
96	0x3e11e83f	0.14248751
97	0xbe02de72	-0.12780169
98	0x3e0a767c	0.1352176
99	0x3df6cf2c	0.12051234
100	0xbde0c263	-0.10974576
101	0xbe2f4802	-0.17117313
102	0xbe1e626c	-0.15467232
103	0x3de75f49	0.11297471
104	0x3db8e5c4	0.09028199
105	0x3cda1f05	0.02662612
106	0xbd061544	-0.032735124
107	0x3e7b5989	0.24545874
108	0x3d1bcd47	0.038037565
109	0x3d507c8c	0.050900027
110	0x3dd0124c	0.1015974
111	0x3d24d2bd	0.04024004
112	0x3e1e3555	0.15450032
113	0xbe1583df	-0.14601086
114	0xbe321c5b	-0.17393629
115	0x3df2ba40	0.118519306
116	0x3e5d98a3	0.21640258
117	0x3d3535fb	0.044240933
118	0xbd8ac2f2	-0.06775464
119	0x3e324a13	0.1741107
120	0x3e51bcf8	0.20482242
121	0xbe18bfa8	-0.14916861
122	0x3e0da06f	0.13830732
123	0x3ce68a79	0.0281422
124	0x3dc7a1ca	0.09747656
125	0x3d7623be	0.06009268
126	0x3bca0726	0.006165403
127	0x3e112f83	0.1417828
128	0x3dd112a3	0.10208633
129	0x3dd44042	0.10363819
130	0xbe1ac248	-0.15113175
131	0xbd3b73a9	-0.0457646
132	0xbe988641	-0.29789928
133	0x3e1a2f15	0.15057023
134	0x3e453714	0.19259292
135	0xbe670aa3	-0.22562651
136	0x3e33a5b1	0.17543675
137	0xbdd01862	-0.10160901
138	0xbd6bbbdd	-0.057552207
139	0x3d48337f	0.048877236
140	0xbced1a53	-0.028943216
141	0x3c9ba138	0.018997774
142	0x3e3116fd	0.17293926
143	0x386ce99e	5.6484358e-05
144	0x3d1d30a0	0.03837645
145	0x3e0ed2a5	0.13947542
146	0xbe42c11a	-0.19018975
147	0xbe355b14	-0.17710525
148	0xbd8403d8	-0.06446046
149	0x3bb3a2cd	0.005482054
150	0xbd9558c4	-0.07292321
151	0x3d8fbbf1	0.07018269
152	0x3aca4d26	0.0015434369
153	0x3d95b351	0.073095925
154	0xbe650876	-0.22366509
155	0x3de1d624	0.11027172
156	0x3ccee7c8	0.025257006
157	0xbe30449c	-0.17213672
158	0xbe31c781	-0.17361261
159	0xbdf235f5	-0.11826698
160	0xbe88875d	-0.26665774
161	0xbddaef66	-0.10690193
162	0x3e332ae8	0.17496836
163	0xbcdd053d	-0.026980037
164	0xbd49a814	-0.049232557
165	0xbdeb8d20	-0.11501527
166	0x3dd1c161	0.10241962
167	0x3deeeab1	0.116658576
168	0x3eaf519a	0.34241945
169	0xbe553349	-0.20820345
170	0xbe13f15d	-0.14447542
171	0x3d018736	0.031623088
172	0x3bc3c4be	0.005974381
173	0xbe8caa2b	-0.27473578
174	0x3e0a86d8	0.13528001
175	0xbe3eb4db	-0.18623678
176	0xbcc0f791	-0.023555549
177	0xbe50c51b	-0.2038769
178	0x3e699115	0.2280925
179	0x3e0ca538	0.13734901
180	0x3d0e11a4	0.034684792
181	0xbcdad5b6	-0.026713233
182	0xbe44372b	-0.1916167
183	0xbe554841	-0.20828344
184	0xbe04c8a6	-0.12967166
185	0xbdded92e	-0.108812675
186	0x3e19e99a	0.15030518
187	0x3dc8dda4	0.098078996
188	0x3e1afa06	0.15134439
189	0xbd64175b	-0.055686336
190	0x3b142919	0.0022607504
191	0x3d5dbdb1	0.054135982
192	0x3cddd642	0.027079705
193	0xbdcb9499	-0.09940452
194	0x3d7934d0	0.06084138
195	0xbd883343	-0.066504024
196	0xbe006e74	-0.12542135
197	0xbde794c1	-0.113076694
198	0x3e18500a	0.14874282
199	0xbe079f9e	-0.13244483
200	0x3dc4e5be	0.09614132
201	0xbe09e942	-0.13467887
202	0xbe63d215	-0.22248109
203	0xbe31932c	-0.17341298
204	0xbe6c4f76	-0.23077187
205	0xbe585cac	-0.21129102
206	0xbdc23ede	-0.09484647
207	0x3c6d688d	0.014490259
208	0xbe1a7338	-0.15083015
209	0x3dfa93dc	0.12235233
210	0x3d33c827	0.043892052
211	0xbd740a2e	-0.05958002
212	0x3e09f673	0.13472919
213	0xbca64e60	-0.020301044
214	0xbdfafccc	-0.122552484
215	0x3bd7ef8c	0.0065898355
216	0x3e26d558	0.16292322
217	0x3d7aebf6	0.061260186
218	0x3da97cda	0.08275767
219	0x3e0a4130	0.1350143
220	0x3e5dc0d2	0.21655586
221	0xbdd93b57	-0.10607021
222	0x3d88cc3c	0.066795796
223	0x3d8ccb66	0.06874733
224	0x3e681326	0.22663555
225	0x3e90b5ae	0.2826361
226	0x3e068db8	0.13139999
227	0xbe0f9c2d	-0.1402442
228	0xbe962c31	-0.2933059
229	0xbd4f8c28	-0.050670773
230	0xbe2c131d	-0.16804166
231	0xbe006f2d	-0.1254241
232	0xbbdb96b3	-0.0067013144
233	0xbec61ce6	-0.38693923
234	0xbe81e426	-0.25369376
235	0xbd4065bc	-0.04697202
236	0xbd43a304	-0.047762886
237	0xbde76101	-0.11297799
238	0x3e4d60d7	0.20056473
239	0x3d834939	0.064104505
240	0xbe1fd52c	-0.15608662
241	0x3de5259a	0.111888126
242	0xbdb1f4d2	-0.08689274
243	0xbe4f133a	-0.20222178
244	0x3d9e1987	0.07719713
245	0x3e2d6442	0.16932777
246	0x3c0f2ad0	0.008738235
247	0x3e9eece8	0.3104012
248	0x3e28528b	0.16437738
249	0x3dd99555	0.10624186
250	0x3e14275a	0.14468136
251	0xbdccc162	-0.09997822
252	0xbdb7d1d0	-0.089755654
253	0xbe3d882c	-0.18508977
254	0xbe0299e6	-0.1275402
255	0xbb68db36	-0.003553105

hiden_layers.3.bias f4 [64]
0	0xbd273841	-0.040825132
1	0x3a94245f	0.0011302343
2	0x3c6de4d6	0.014519891
3	0xbd59ec9d	-0.053204168
4	0xbc9890f7	-0.018623812
5	0x3c0bb7ca	0.008527705
6	0x3d1e3c1f	0.038631555
7	0x3d2f522f	0.042802986
8	0x3b684701	0.0035442712
9	0x3d4a6f2a	0.04942242
10	0x3c4e1082	0.012577178
11	0xbcc25a00	-0.023724556
12	0x3d0b8d5e	0.034070365
13	0xbd0cd65e	-0.034384124
14	0xbd0fa8ca	-0.03507308
15	0xbd752ff0	-0.05986017
16	0xbc5991a1	-0.01327935
17	0x3d406f0f	0.046980914
18	0xbd470d30	-0.04859656
19	0x3c9a40cb	0.018829724
20	0x3cbcc5b5	0.023043493
21	0xbd538821	-0.051643495
22	0xbc4745cf	-0.01216264
23	0x3c5dcaab	0.013537089
24	0xbd64d377	-0.05586573
25	0x3cd70ad3	0.026250279
26	0xbd0ae478	-0.03390929
27	0x3da4caee	0.08046518
28	0x3cb98e94	0.022650994
29	0xbd1f8751	-0.038947407
30	0x3d19d9fa	0.037561394
31	0xbba832fb	-0.0051330305
32	0xbce35514	-0.02775053
33	0x3c032a8a	0.008005748
34	0xbd0fb058	-0.035080284
35	0x3c71f642	0.014768185
36	0x3c28d2c6	0.010304159
37	0xbc752cfc	-0.014964338
38	0x3d122401	0.035678867
39	0xbccb14b2	-0.024790142
40	0xbd7766b7	-0.06040069
41	0x3cebea5f	0.02879828
42	0x3d814ad4	0.063131005
43	0xbd130849	-0.035896573
44	0xbd0b6cb4	-0.034039214
45	0xbd472393	-0.04861791
46	0x3d198cbe	0.037487738
47	0x3c9feb2c	0.019521318
48	0xbcb1b4be	-0.02169263
49	0xbd72ccb1	-0.05927724
50	0xbda16fa6	-0.078826234
51	0xbd318629	-0.043340836
52	0xbd402aca	-0.046915807
53	0xbd12ff09	-0.03588775
54	0x3cb4609d	0.022018725
55	0xbd340890	-0.04395348
56	0x3cc20870	0.023685664
57	0xbd037103	-0.0320902
58	0xbd385c6c	-0.045010015
59	0x3c6294b5	0.0138294
60	0xbd18c3eb	-0.037296217
61	0x3cceb22a	0.02523144
62	0x3bd03637	0.006354119
63	0xbd284252	-0.041078873

hiden_layers.4.weight f4 [64, 64]
0	0xbe1c8433	-0.15284805
1	0x3d79312e	0.060837917
2	0x3d7fd23d	0.06245636
3	0xbe809d57	-0.2512004
4	0xbd51afb7	-0.051192965
5	0xbcd99363	-0.026559537
6	0xbe10b516	-0.14131579
7	0x3e3e752c	0.18599385
8	0xbdf4a09b	-0.119446956
9	0x3bbd2ac7	0.0057729217
10	0x3c1f3dc3	0.009719315
11	0x3d7eb5dd	0.062185157
12	0x3d88dabe	0.06682347
13	0xbe342f42	-0.17596152
14	0xbe1bc33f	-0.15211199
15	0xbc40be9a	-0.011764193
16	0xbcde9cbd	-0.027174348
17	0xbd372001	-0.044708256
18	0x3dcecb24	0.1009734
19	0x3e81d0a7	0.25354502
20	0xbe3bfeec	-0.18358964
21	0x3d92ead1	0.07173694
22	0xbe8f3abe	-0.27974504
23	0xbce3a2c5	-0.027787575
24	0x3d09a9e8	0.0336093
25	0xbda1d14b	-0.079012476
26	0x3db6b729	0.08921654
27	0x3e35985e	0.17733905
28	0xbd86d412	-0.06583418
29	0xbdf6b352	-0.120459214
30	0xbe05f279	-0.13080777
31	0x3acad1b9	0.0015473879
32	0x3e173da5	0.1476961
33	0xbd389d30	-0.04507178
34	0x3dc19888	0.09452921
35	0xbe262e77	-0.16228662
36	0x3e1ddb49	0.15415682
37	0xbd787eea	-0.06066791
38	0xbe16889f	-0.14700554
39	0xbdb68c05	-0.08913425
40	0xbe12cfe1	-0.14337112
41	0x3d844b2c	0.064596504
42	0x3e5f2201	0.21790315
43	0x3c06a146	0.0082171615
44	0xbd0ef874	-0.034904912
45	0x3e16b4bc	0.14717382
46	0x3e8214b2	0.25406414
47	0xbe24f754	-0.16109973
48	0xbe306e2a	-0.17229524
49	0xbe47c7bc	-0.19509786
50	0x3d4a06b5	0.049322803
51	0x3d3bde26	0.045866154
52	0xbe2db4f1	-0.16963555
53	0x3e373b5e	0.1789374
54	0x3e30fe0a	0.17284408
55	0xbe0cc9b1	-0.13748814
56	0x3dc07097	0.09396475
57	0xbc60cb5b	-0.013720359
58	0xbe6cd4b1	-0.2312801
59	0xbe0b79e1	-0.13620712
60	0x3e00ee7a	0.12590972
61	0xbe07dedd	-0.1326861
62	0xbbf4231c	-0.0074504744
63	0xbe11883f	-0.1421213
64	0xbd3c670d	-0.045996714
65	0xbe5a5e75	-0.21325095
66	0xbdf32b50	-0.118734956
67	0x3e568e4b	0.20952718
68	0x3e364cbc	0.1780271
69	0x3da1d4a4	0.07901886
70	0xbe6307f1	-0.22170998
71	0xbde305e1	-0.11085106
72	0xbc751540	-0.01495868
73	0xbd6edb44	-0.058314577
74	0xbe45dd19	-0.19322623
75	0x3e63a82b	0.2223212
76	0x3d341218	0.043962568
77	0x3e13b8c0	0.14425945
78	0xbe078b0c	-0.13236636
79	0x3df60499	0.12012596
80	0xbe0391b5	-0.12848552
81	0xbde6c8e9	-0.11268789
82	0x3e44793f	0.19186877
83	0xbd4ee65f	-0.050512668
84	0x3e299b62	0.1656318
85	0x3e0d85a6	0.13820514
86	0x3e9d7e7c	0.30760562
87	0x3dd3e3db	0.10346194
88	0xbe14754d	-0.14497872
89	0xbe83768c	-0.25676382
90	0xbe1b1f63	-0.15148692
91	0x3db31068	0.087433636
92	0xbd3f0ede	-0.046645038
93	0xbccd431d	-0.025056416
94	0xbe45dddf	-0.19322918
95	0xbe56a1c8	-0.20960152
96	0x3e30d59d	0.17268987
97	0x3e00e5c5	0.1258765
98	0x3e34880e	0.17630026
99	0xbe044e7a	-0.12920561
100	0xbe19fb86	-0.15037355
101	0x3c5ea6a0	0.013589531
102	0x3e3cdf8e	0.18444654
103	0x3db4fbfa	0.08837123
104	0x3e530daa	0.20610681
105	0xbeaf5a72	-0.34248692
106	0x3de746f2	0.112928286
107	0x3e9da87f	0.30792615
108	0xbde03bc4	-0.109488994
109	0x3e697237	0.22797476
110	0xbd7e75ee	-0.062124185
111	0xbd0688fc	-0.032845482
112	0xbdf0e3a0	-0.11762166
113	0x3e8a0f13	0.26964626
114	0xbe124421	-0.14283802
115	0xbdde1eb3	-0.10845699
116	0x3e15c0ae	0.14624283
117	0xbdeaaf2e	-0.11459194
118	0x3e421160	0.1895194
119	0x3d940666	0.07227783
120	0x3d38a88a	0.045082606
121	0xbe40c8e1	-0.18826629
122	0x3e06cb7a	0.13163558
123	0x3b79963e	0.0038083936
124	0x3e49ae4d	0.19695397
125	0xbcebe01d	-0.028793389
126	0x3db823bf	0.08991193
127	0x3e2aaebe	0.16668221
128	0xbd43a3a5	-0.047763485
129	0xbde75b0e	-0.11296664
130	0xbe7225ff	-0.23647307
131	0xbe7238be	-0.23654458
132	0xbdaa6748	-0.083204806
133	0xbe16505a	-0.14679089
134	0xbcc50cdf	-0.024053989
135	0x3df037ee	0.11729418
136	0xbcb46c95	-0.022024432
137	0xbe7c1e92	-0.24621037
138	0x3d9ec9a0	0.07753301
139	0xbda5eb90	-0.081015706
140	0xbccd8fac	-0.025092922
141	0x3eb2e5b3	0.34940872
142	0x3e05fceb	0.13084762
143	0xbd3f33fd	-0.04668044
144	0xbd553672	-0.052053876
145	0x3dff73c5	0.12473253
146	0xbd42ff13	-0.04760654
147	0x3e25bf16	0.16186175
148	0xbe352587	-0.17690097
149	0xbe64b03b	-0.22332852
150	0xbded2f76	-0.11581318
151	0xbdacec25	-0.084434785
152	0xbe0b6cbe	-0.136157
153	0xbe9b6a93	-0.30354747
154	0x3ab5e251	0.0013876652
155	0x3e4137eb	0.18868987
156	0xbe58e941	-0.2118273
157	0x3e312bb2	0.17301825
158	0xbe47a4b8	-0.19496429
159	0x3e678931	0.22610928
160	0xbdbe7b17	-0.09300821
161	0xbd912a84	-0.07088187
162	0xbe0630ce	-0.13104555
163	0x3dec8390	0.11548531
164	0xbd42c0d2	-0.04754717
165	0x3c4a548a	0.012349257
166	0xbe319e84	-0.17345625
167	0x3e366fa4	0.17816025
168	0x3e3cc385	0.1843396
169	0x3da206ec	0.079114765
170	0xbebab75c	-0.36468017
171	0xbd47b2e0	-0.048754573
172	0x3d51a07f	0.05117845
173	0x3d08a3aa	0.033359207
174	0x3de8b095	0.11361805
175	0x3df19fd0	0.1179806
176	0x3e25764f	0.16158412
177	0x3d595219	0.05305681
178	0x3e9a40d7	0.30127594
179	0xbe1e136c	-0.15437096
180	0xbdc752e8	-0.0973261
181	0x3e844603	0.25834665
182	0xbabc8f94	-0.0014386051
183	0x3da85400	0.08219147
184	0xbddea275	-0.1087083
185	0x3e9cd9b9	0.3063486
186	0x3e448a0c	0.19193286
187	0x3e16a7a6	0.1471239
188	0x3d7f18c4	0.062279478
189	0x3d464df5	0.04841419
190	0x3b421b45	0.0029618305
191	0x3e530378	0.20606792
192	0x3d6e2a7c	0.058145985
193	0xbdd71f12	-0.10503973
194	0xbd647424	-0.055774823
195	0x3e7cb8fc	0.24679941
196	0x3e3143f2	0.17311075
197	0x3c492284	0.012276296
198	0x3d460053	0.048340153
199	0xbe2da9e3	-0.16959338
200	0x3e2d44e0	0.16920805
201	0xbd81732e	-0.06320797
202	0x3dfb3f21	0.122679
203	0xbdb788ed	-0.089616634
204	0xbe1bbc12	-0.15208462
205	0xbdfd3a36	-0.123646185
206	0x3eb19551	0.34684232
207	0x3e643092	0.22284153
208	0x3dd646a7	0.104626946
209	0x3c89a48b	0.016802093
210	0xbe48b15a	-0.19598904
211	0xbe8ecc82	-0.27890402
212	0xbdfb0986	-0.12257676
213	0x3dbdea45	0.09273199
214	0x3e7733e6	0.24140891
215	0x3e00aa31	0.12564923
216	0x3dec227f	0.11530017
217	0xbe98c50f	-0.29837844
218	0x3e05340e	0.13008139
219	0xbdee1ad5	-0.116262116
220	0xbe20aa10	-0.15689874
221	0x3d79101e	0.060806386
222	0xbd142a3d	-0.036173094
223	0xbe57cad1	-0.21073462
224	0xbd7347cf	-0.059394654
225	0x3d7e6993	0.062112402
226	0xbdecc91c	-0.11561796
227	0xbe22c5b8	-0.15895736
228	0x3e4fd3c5	0.20295627
229	0xbbfe671d	-0.007763757
230	0xbcda6b66	-0.02666254
231	0x3dc0d24c	0.09415111
232	0xbd2347e3	-0.03986348
233	0x3c781b8f	0.015143289
234	0xbe61f0c6	-0.22064504
235	0x3eae118e	0.33997768
236	0x3e2a4b3b	0.1663026
237	0xbe04d988	-0.12973607
238	0xbddcf0a4	-0.10788086
239	0xbe4f45b6	-0.20241436
240	0xbdecf44c	-0.115700334
241	0x3eb1dd60	0.34739208
242	0xbdb57d7d	-0.088618256
243	0x3e3e9ea7	0.18615209
244	0xbd7bb671	-0.061453287
245	0x3ddbc332	0.1073059
246	0x3e2bac0f	0.16764854
247	0x3e43b884	0.19113356
248	0xbe80bdc3	-0.25144777
249	0xbd080947	-0.033211973
250	0x3e3841cb	0.17993848
251	0x3de5ae2c	0.11214861
252	0x3e20e5fc	0.15712732
253	0xbdaef4ec	-0.08542809
254	0x3e114bd2	0.1418908
255	0x3e892c1b	0.26791462

hiden_layers.4.bias f4 [64]
0	0xbd61a786	-0.055091403
1	0x3cbe8ccd	0.023260498
2	0xbb785ef9	-0.0037898405
3	0xbc3faa23	-0.011698279
4	0xbc463430	-0.012097403
5	0xbcbdc0c4	-0.023163207
6	0x3d3de95d	0.04636513
7	0xbc075caf	-0.008261844
8	0x3c90921f	0.017647801
9	0x3dcc2774	0.099684626
10	0xbd1b522a	-0.037920155
11	0x3c498f7d	0.012302277
12	0x3d2530ec	0.04032986
13	0x3c3ab61c	0.011395957
14	0x3b87d5a9	0.0041453433
15	0xbc4c78e1	-0.012479992
16	0x3ca9eefa	0.020743836
17	0x3d029acf	0.03188592
18	0x3c8a69d7	0.016896171
19	0x3d054b7d	0.032542694
20	0x3d0cbc3a	0.034359194
21	0x3c983b34	0.018582918
22	0xbc3e85ee	-0.011628611
23	0xbd06adc1	-0.03288055
24	0xbd371b2b	-0.044703644
25	0xbbfd0d4e	-0.0077225333
26	0xbc18c2c8	-0.009323783
27	0x3c55386e	0.013013942
28	0xbc2dd49a	-0.01060977
29	0x3ca2d41f	0.019876538
30	0x3d399ed7	0.045317497
31	0x3bffe73a	0.007809547
32	0x3d430abc	0.04761766
33	0xbc9e6dca	-0.01933946
34	0x3d4b327f	0.049608704
35	0xbcbce4ea	-0.023058373
36	0xbc6692d3	-0.014073092
37	0x3a5c5906	0.00084055995
38	0xbc2af46c	-0.010434251
39	0xbcd4d763	-0.02598161
40	0xbd2f3047	-0.04277065
41	0x3db800c5	0.08984522
42	0xbce2b52a	-0.027674276
43	0xbcd57d86	-0.02606083
44	0x39ceea4d	0.0003946595
45	0x3e30bbc1	0.17259122
46	0xbd26e83f	-0.04074883
47	0xbab6c0d3	-0.0013942964
48	0x3c528ea2	0.012851389
49	0xbdbf5ea8	-0.09344226
50	0xbb3b97b6	-0.0028624362
51	0xbd5195c6	-0.051168226
52	0xbdb3fd46	-0.087885424
53	0x3ccb5fd3	0.024825966
54	0xbc95bd9a	-0.018278886
55	0x3cab3cc9	0.020903008
56	0x3b7aaa33	0.003824842
57	0x3c2026d1	0.00977488
58	0x3bbcdd7d	0.005763708
59	0xbd38085f	-0.04492986
60	0x3b9c2d83	0.0047661676
61	0xbce12ca3	-0.027487105
62	0x3d9775b2	0.073954955
63	0xbd095871	-0.03353161
