results/2_same_with_zoom/epoch650/model_weights.pth (torch, 484214 bytes, 88 tensors)

init_layer.0.weight f4 [64, 3]
0	0xbe82e758	-0.25567126
1	0xbdc93def	-0.09826266
2	0x3e167bcc	0.14695662
3	0x3dfff0cd	0.12497101
4	0xbad8b376	-0.0016532976
5	0xbca87852	-0.020565186
6	0xbd6c80fc	-0.057740197
7	0xbe53da73	-0.206888
8	0xbdcae7c2	-0.099074855
9	0x3e45e1a2	0.19324353
10	0x3ddabfef	0.1068114
11	0x3dbdf48b	0.092751585
12	0x3c35b56d	0.011090619
13	0x3e85105a	0.25989038
14	0x3e295f76	0.16540322
15	0xbe0c84b4	-0.13722497
16	0xbe8c9f91	-0.2746549
17	0x3e04029d	0.12891622
18	0x3e892ab0	0.2679038
19	0x3cdf3af3	0.027249789
20	0x3e43f921	0.19138004
21	0x3e6fa9bf	0.23404597
22	0x3e09936e	0.13435146
23	0x3d3414fc	0.043965325
24	0x3e695cbf	0.22789286
25	0xbe94499e	-0.28962415
26	0x3d39b5f7	0.04533955
27	0xbde7e980	-0.113238335
28	0xbe3c276b	-0.18374412
29	0x3e31ff9e	0.17382666
30	0xbe6221bd	-0.22083183
31	0x3b90ce29	0.0044191075
32	0x3d5f0bf2	0.05445475
33	0x3da1257f	0.0786848
34	0x3e4318f5	0.19052489
35	0xbe29c6b8	-0.16579711
36	0xbb2d1504	-0.0026410231
37	0xbdad00ad	-0.084473945
38	0xbd3b585c	-0.045738563
39	0xbe0149bd	-0.12625785
40	0xbc17fd38	-0.009276681
41	0x3dfb3b72	0.12267198
42	0x3da46a52	0.080280915
43	0xbe83b438	-0.25723433
44	0xbd3ee811	-0.046608035
45	0x3e6a8bc4	0.22904879
46	0xbe44f667	-0.1923462
47	0xbe25cb9c	-0.16190952
48	0x3db33288	0.087498724
49	0xbe011387	-0.12605105
50	0x3e5365d6	0.20644316
51	0x3e4cfed4	0.20019084
52	0x3e60297b	0.21890824
53	0xbd9823de	-0.07428716
54	0x3cd8faaf	0.026486723
55	0xbc7aede3	-0.015315506
56	0xbdde424d	-0.108524896
57	0xbddc739c	-0.10764238
58	0x3e13ddca	0.14440075
59	0xbd94375e	-0.07237123
60	0x3e0b1c04	0.13584906
61	0xbde3ca22	-0.11122538
62	0xbd8260a4	-0.06366089
63	0x3e709f4a	0.23498264
64	0xbce0867b	-0.027407875
65	0xbd46a8db	-0.048500877
66	0x3ce515df	0.02796453
67	0xbe6b0b11	-0.2295344
68	0xbde7aab6	-0.113118574
69	0xbd935801	-0.0719452
70	0x3e0e298f	0.13883041
71	0xbc158ca5	-0.009127771
72	0xbd648fa0	-0.055801034
73	0xbdf3e53d	-0.11908958
74	0x3e3c47fa	0.18386832
75	0xbde245d4	-0.11048475
76	0x3e488728	0.19582808
77	0xbda13ff7	-0.078735285
78	0x3d41c502	0.047307022
79	0x3e792993	0.24332266
80	0x3e298291	0.16553713
81	0xbdf6e035	-0.12054483
82	0xbe6d530d	-0.23176213
83	0x3d211884	0.03933002
84	0x3c43aa24	0.01194242
85	0x3c232a8c	0.009958874
86	0xbd1ae3c0	-0.037814856
87	0x3d736c44	0.059429422
88	0xbe8d9417	-0.27652046
89	0x3c9f0f6a	0.01941653
90	0xbe917b23	-0.28414258
91	0xbdf98b38	-0.12184757
92	0xbd8e57f8	-0.069503725
93	0xbd7859e6	-0.06063261
94	0x3d9d1eac	0.07671866
95	0x3e85118e	0.25989956
96	0xbdad4e7b	-0.084622346
97	0x3e71e921	0.23624088
98	0x3d863c3a	0.06554456
99	0xbe79d69c	-0.24398273
100	0x3e83ca7e	0.25740427
101	0xbd261ce3	-0.040554892
102	0xbc94e40e	-0.018175151
103	0xbdb9abe4	-0.09065989
104	0xbdba477a	-0.09095664
105	0xbd886b8a	-0.066611364
106	0xbe32609c	-0.17419666
107	0xbe8356a5	-0.25652042
108	0x3d1b0cbf	0.037853952
109	0xbd1004da	-0.035160877
110	0xbe30e4a5	-0.17274721
111	0xbe399ba4	-0.18125778
112	0xbd9dd35d	-0.0770633
113	0xbbdfd2aa	-0.006830533
114	0x3e2e76e3	0.17037539
115	0xbe0c5b28	-0.13706648
116	0x3e5f5d14	0.2181285
117	0xbe4cce47	-0.20000564
118	0x3e26fe09	0.16307844
119	0x3ea743cc	0.32668912
120	0x3e699ff5	0.22814925
121	0x3d10352c	0.03520696
122	0xbe619916	-0.22031054
123	0xbc5decea	-0.013545254
124	0xbdbc3488	-0.09189707
125	0xbe2c2621	-0.1681142
126	0x3dcec57f	0.10096263
127	0xbdb8c41e	-0.090217814
128	0x3e8a6e2f	0.27037188
129	0x3d176de2	0.036970027
130	0xbd29d0dd	-0.041458953
131	0x3da34271	0.07971657
132	0x3df2568f	0.11832916
133	0xbe64df18	-0.22350729
134	0xbe017b27	-0.12644635
135	0xbe9d2fc5	-0.30700508
136	0xbe86f47c	-0.26358402
137	0x3e0e8f60	0.1392188
138	0xbc8d609c	-0.017257981
139	0xbe247c0e	-0.16062948
140	0x3da144bb	0.078744374
141	0x3df67c16	0.12035386
142	0x3e2ae0d0	0.16687322
143	0x3d9bea02	0.07612993
144	0x3e66f8cd	0.22555847
145	0x3e6ddfda	0.23229924
146	0xbcb79f86	-0.022414934
147	0x3df00502	0.11719705
148	0xbe8fa299	-0.2805374
149	0x3e1969d6	0.1498178
150	0xbd7ba45e	-0.06143605
151	0xbe69f448	-0.22847092
152	0xbddfe100	-0.10931587
153	0xbeac0d20	-0.33603764
154	0xbdf8faa7	-0.12157183
155	0xbd5aabc2	-0.053386457
156	0x3e58cdde	0.21172282
157	0xbe87e9d5	-0.26545587
158	0x3d10c7e9	0.0353469
159	0xbdeeebb3	-0.1166605
160	0xbe3c764e	-0.18404505
161	0x3ccca06d	0.02497884
162	0x3df68efc	0.12038991
163	0xbe4d74e7	-0.20064126
164	0xbe580c75	-0.21098502
165	0x3e3e4a11	0.18582942
166	0x3b60aac1	0.0034281465
167	0x3e39860d	0.18117543
168	0x3e3bb802	0.18331912
169	0x3d78fc89	0.06078771
170	0x3e504a8e	0.2034094
171	0x3c812977	0.015766842
172	0xbcbd4f0c	-0.023108982
173	0x3d537a63	0.05163039
174	0x3e64003f	0.22265719
175	0x3e745ac0	0.23862743
176	0x3cfe628e	0.031052854
177	0x3e061a84	0.13096052
178	0x3e25e0e7	0.16199075
179	0xbdec66a1	-0.115430124
180	0xbe2216b6	-0.15828976
181	0xbe78697d	-0.2425899
182	0xbd708e31	-0.058729354
183	0xbe22fb07	-0.15916072
184	0x3db9e1b1	0.0907625
185	0xbd37d73b	-0.044882994
186	0x3e82ca5e	0.2554502
187	0xbcff117c	-0.031136267
188	0x3d154bdf	0.03644931
189	0x3e7189a1	0.23587658
190	0x3cd1db2d	0.025617206
191	0x3db75819	0.0895235

init_layer.0.bias f4 [64]
0	0xbdd9e180	-0.10638714
1	0x3d562738	0.052283496
2	0xbda1a6ab	-0.078931175
3	0xbcc85eac	-0.024459206
4	0xbd9c9ce8	-0.07647115
5	0xbd932cd4	-0.07186285
6	0x3dcf7eba	0.10131593
7	0x3de03efe	0.10949515
8	0xbd780dcb	-0.06056003
9	0x3d900038	0.07031292
10	0xbdc451a4	-0.09585884
11	0xbd7bbc5c	-0.06145893
12	0x3d446436	0.04794713
13	0xbd548ad8	-0.051890224
14	0xbd3e1de5	-0.04641523
15	0x3da6a2ea	0.08136542
16	0xbda8b870	-0.08238304
17	0x3cedf979	0.029049622
18	0x3c0faed3	0.008769709
19	0x3c760833	0.015016603
20	0x3d972417	0.073799305
21	0x3d921f54	0.071348816
22	0x3d5b6073	0.053558778
23	0xbbcb9fca	-0.0062141167
24	0x3ddd592c	0.10808024
25	0xbd99e113	-0.075136326
26	0x3d980e52	0.074246064
27	0x3b5d2b8d	0.0033747882
28	0x3b574093	0.0032844886
29	0xbd7b5b14	-0.061366156
30	0xbddcecd6	-0.1078736
31	0xbdb2aee3	-0.08724763
32	0x3cc8ae68	0.024497226
33	0xbc30dd2e	-0.010794921
34	0xbd77e34c	-0.0605195
35	0xbddfa68c	-0.10920438
36	0x3dc62d18	0.0967657
37	0xbdafefc9	-0.08590657
38	0x3dce30ee	0.10067926
39	0x3d4efeb1	0.05053586
40	0x3dde2267	0.108464055
41	0x3d9d1c49	0.076714106
42	0xbd534596	-0.051580034
43	0x3c90c2d3	0.017671024
44	0x3d934c17	0.07192247
45	0xbde589f1	-0.11207951
46	0x3d7bcc29	0.061474
47	0xbd72fb4e	-0.059321694
48	0x3d8ccb8f	0.06874763
49	0x3dbd2147	0.09234863
50	0x3d66932e	0.056292705
51	0xbdd8ebfc	-0.105918854
52	0xbbc719aa	-0.0060760574
53	0x3d54512d	0.051835228
54	0x3dd8ab5f	0.105795614
55	0x3dcb61b0	0.09930742
56	0x3dc8f93b	0.09813162
57	0xbb6ab807	-0.0035815255
58	0x3da65b83	0.08122923
59	0x3da6d6bc	0.08146426
60	0xbdd01492	-0.101601735
61	0xbdd05597	-0.10172575
62	0x3db485e2	0.088145986
63	0x3dbc487b	0.09193512

hiden_layers.0.weight f4 [64, 64]
0	0xbe216d6f	-0.15764402
1	0xbc879569	-0.016550737
2	0x3e74f6d5	0.23922284
3	0x3d1959d0	0.037439167
4	0xbe2897a8	-0.16464102
5	0xbd037a74	-0.032099202
6	0x3e2dc461	0.16969444
7	0xbe4ae022	-0.19812062
8	0xbdd4518e	-0.10367118
9	0xbda389fb	-0.07985302
10	0x3d399f28	0.0453178
11	0x3e779252	0.2417691
12	0x3e8eb23a	0.2787035
13	0x3dc4055a	0.09571333
14	0x3e337db2	0.17528418
15	0xbe599265	-0.21247251
16	0xbd11be72	-0.035582013
17	0xbdf72264	-0.12067106
18	0x3e40fff8	0.18847644
19	0xbcb0beae	-0.021575298
20	0xbd4691cd	-0.04847889
21	0x3d4b9f6f	0.049712595
22	0x3d822916	0.06355493
23	0xbe487358	-0.1957525
24	0x3d56819a	0.05236969
25	0x3dcb2f09	0.099210806
26	0xbddc4632	-0.10755576
27	0xbe1754a5	-0.14778383
28	0x3e5d9baa	0.21641412
29	0xbd87f387	-0.06638246
30	0xbe4f39df	-0.2023692
31	0x3e604392	0.21900776
32	0xbe144c3c	-0.14482206
33	0x3d139fb5	0.03604098
34	0x3ed452aa	0.41469318
35	0xbe92aa7a	-0.28645688
36	0x3d8c226c	0.06842503
37	0x3d958191	0.073001035
38	0x3e49d2ce	0.19709322
39	0x3e74d1d9	0.23908176
40	0x3d8cb84b	0.068710886
41	0x3ce4c12b	0.02792414
42	0x3eaab025	0.33337513
43	0xbecafa6e	-0.39644188
44	0xbcdd98ec	-0.027050458
45	0xbd026514	-0.031834677
46	0xbdac8ad9	-0.084249206
47	0xbeae1291	-0.3399854
48	0x3e25a74d	0.16177101
49	0xbe505d3e	-0.20348069
50	0xbd551f99	-0.052032087
51	0x3d0fd766	0.03511753
52	0xbd4ac088	-0.04950002
53	0x3ca1c32a	0.019746382
54	0x3dccd756	0.100020096
55	0x3e7faf3d	0.24969192
56	0xbc99d9a1	-0.018780531
57	0xbe9e9d10	-0.30979204
58	0xbe252927	-0.1612898
59	0x3df60f7a	0.12014671
60	0x3dd14dc8	0.10219914
61	0xbd0a5c05	-0.033779163
62	0xbd599920	-0.053124547
63	0xbe2b3a4e	-0.1672146
64	0xbca17011	-0.019706758
65	0xbe5d535d	-0.21613832
66	0xbe4ddbe0	-0.20103407
67	0x3e268709	0.1626245
68	0xbe31ad3d	-0.17351241
69	0xbdb4b241	-0.08823062
70	0x3e2a85e7	0.16652642
71	0xbe4e82ed	-0.20167132
72	0x3c8d8e58	0.017279789
73	0xbe357ffb	-0.17724602
74	0x3e7c0c10	0.24613976
75	0xbe11bc86	-0.14232072
76	0xbb73a978	-0.0037179869
77	0x3d84e570	0.06489074
78	0x3ca07621	0.019587578
79	0x3e0e48d7	0.13894974
80	0xbc429f5d	-0.0118788155
81	0x3e28e2c6	0.16492757
82	0xbc7eb550	-0.015546158
83	0xbc09c6f6	-0.008409252
84	0xbd8f6d10	-0.07003224
85	0xbe689a38	-0.2271508
86	0x3ddc84ed	0.10767541
87	0x3e10c630	0.14138103
88	0xbcfe7b33	-0.031064605
89	0xbd8bf2f0	-0.06833446
90	0x3e657b90	0.22410417
91	0x3e24186f	0.16024946
92	0x3dea1c1a	0.11431141
93	0x3debf4ca	0.11521299
94	0xbe17b2e9	-0.14814343
95	0xbddaae23	-0.10677745
96	0x3c7324c2	0.014840307
97	0x3cc2bae6	0.02377076
98	0x3e038a35	0.1284569
99	0x3e0390c1	0.12848188
100	0x3e40a18d	0.18811627
101	0xbc858daf	-0.016302912
102	0xbd3d1012	-0.046157904
103	0x3e3d9bf7	0.18516527
104	0xbdd8cf5e	-0.10586427
105	0xbd2ef718	-0.042716116
106	0xbe4d0215	-0.20020325
107	0x3c88a757	0.016681356
108	0x3db4bd0f	0.088251226
109	0xbe4501fb	-0.19239037
110	0x3e35d68f	0.17757629
111	0xbe4617b2	-0.19344977
112	0xbd821175	-0.06350986
113	0xbda90f8b	-0.08254918
114	0xbd9db4f8	-0.07700533
115	0xbdd201dd	-0.10254262
116	0x3dd00652	0.101574555
117	0xbe0c770a	-0.13717285
118	0x3e05c72f	0.13064264
119	0x3e016253	0.12635164
120	0xbe3fe0e3	-0.18738131
121	0xbdc82073	-0.09771814
122	0xbe403101	-0.18768694
123	0xbe3cf5c5	-0.18453129
124	0x3e4c7fdf	0.19970654
125	0x3e2ec6a1	0.17067958
126	0x3e2509f8	0.16117084
127	0xbdd74b51	-0.10512412
128	0x3e063e42	0.13109687
129	0xbcf4c90c	-0.029881023
130	0x3e5c1734	0.21493226
131	0x3c98a517	0.018633408
132	0xbe4aa0f9	-0.19787969
133	0x3c0564b3	0.008141684
134	0xbd178584	-0.036992565
135	0xbe3b5294	-0.1829322
136	0x3e4d564d	0.20052452
137	0xbdae5184	-0.085116416
138	0xbc9751ab	-0.01847156
139	0x3e22ee25	0.15911157
140	0x3dcfb0e8	0.10141164
141	0xbe6bcd50	-0.23027539
142	0x3e881323	0.265771
143	0xbdc88cba	-0.097924665
144	0xbd0c136e	-0.034198217
145	0xbe33c01d	-0.17553754
146	0x3d9c906a	0.07644732
147	0xbe0c1978	-0.1368159
148	0xb9a5a0fd	-0.00031591198
149	0xbdd3fd6c	-0.10351071
150	0xbe1e73c9	-0.15473856
151	0xbd8a0e83	-0.06741049
152	0xbcf64389	-0.0300615
153	0xbe10d021	-0.14141895
154	0xbd80501f	-0.06265282
155	0x3e458d12	0.19292095
156	0xbd311928	-0.04323688
157	0xbdcae5a4	-0.09907082
158	0x3e7a758e	0.24458906
159	0x3e612bdc	0.21989387
160	0xbe743f29	-0.23852219
161	0xbe35a9c6	-0.17740545
162	0x3e87d98f	0.26533172
163	0x3e897c6a	0.26852733
164	0xbdef2548	-0.11677033
165	0xbdde60c7	-0.108583026
166	0xbd004974	-0.03132005
167	0xbd51dc2e	-0.05123537
168	0xbe5cceea	-0.21563306
169	0xbd945166	-0.07242088
170	0x3e66b410	0.22529626
171	0x3e4a8332	0.1977661
172	0x3e4c3ed8	0.19945848
173	0x3d6f4da0	0.05842364
174	0xbd284ff6	-0.04109188
175	0x3ce61c14	0.02808956
176	0xbca9b5da	-0.020716596
177	0x3d773ce9	0.060360823
178	0xbdea87b3	-0.11451664
179	0xbcc7d62b	-0.024394115
180	0x3e0a3d88	0.13500035
181	0xbd609a57	-0.05483469
182	0xbe040caf	-0.12895463
183	0x3c4e5805	0.012594228
184	0xbe7f4cae	-0.24931595
185	0x3e3bcfb4	0.18340951
186	0xbe3c1986	-0.18369111
187	0xbe426f5a	-0.1898779
188	0x3e6331ae	0.2218692
189	0xbe236e5f	-0.15960072
190	0xbdfdffd7	-0.12402313
191	0x3e2343e9	0.15943874
192	0x3dde264b	0.108471476
193	0xbdf6d65c	-0.120526046
194	0xbc529768	-0.012853481
195	0xbd2b567e	-0.041830532
196	0x3e0f4e18	0.13994634
197	0x3db51b7f	0.08843135
198	0xbcd0bb5b	-0.025479963
199	0xbdf39ef6	-0.11895554
200	0xbeae2950	-0.34015894
201	0xbe2c705b	-0.16839735
202	0x3d3e6d66	0.04649105
203	0x3d489a28	0.04897514
204	0xbdf21ba5	-0.11821679
205	0xbd55557d	-0.05208348
206	0xbd6372e7	-0.0555295
207	0xbe136c64	-0.14396816
208	0xbe149506	-0.14509973
209	0x3e2c30fb	0.1681556
210	0x3e203614	0.15645629
211	0xbd7c37f4	-0.0615768
212	0x3e334291	0.17505862
213	0xbdf0d097	-0.11758535
214	0xbe3c4071	-0.18383957
215	0xbd780de9	-0.06056014
216	0x3e6d03aa	0.23145929
217	0x3d690080	0.056885242
218	0xbabea876	-0.0014546055
219	0xbd80b1da	-0.062839225
220	0xbdef5d9a	-0.11687775
221	0xbe75c8e2	-0.24002412
222	0xbe464ab7	-0.19364439
223	0x3cd35e15	0.025801698
224	0xbda8f346	-0.08249526
225	0x3e10502c	0.14093083
226	0xbe546cfb	-0.20744698
227	0xbd0ebbc2	-0.03484703
228	0xbc11ae26	-0.008891618
229	0xbe46b48f	-0.19404815
230	0x3cb0bd00	0.021574497
231	0x3d27e271	0.040987436
232	0xbe24e3e8	-0.16102564
233	0xbc717bcf	-0.014738991
234	0x3c33adee	0.010966761
235	0x3e5a1c19	0.21299781
236	0x3c559f2f	0.013038441
237	0x3c7a28d1	0.01526852
238	0x3d93d3e9	0.07218153
239	0x3da3497d	0.07973001
240	0x3e088886	0.1333333
241	0xbe0e12a9	-0.13874306
242	0x3e2bf9fb	0.16794579
243	0xbdf09c3c	-0.11748549
244	0xbe7d01e0	-0.24707747
245	0x3e0d0e7f	0.13775061
246	0x3e3791a6	0.17926654
247	0x3dc08373	0.09400072
248	0xbe33bdec	-0.17552918
249	0xbe0d4a3e	-0.13797852
250	0xbd7e55b7	-0.062093463
251	0x3e1dfd49	0.15428652
252	0xbe0ad43a	-0.1355752
253	0xbdc3f534	-0.09568253
254	0xbadab550	-0.0016686115
255	0xbd82e89f	-0.06392025

hiden_layers.0.bias f4 [64]
0	0xbbefb7cc	-0.0073156115
1	0x3d30efc2	0.0431974
2	0xbdafa09a	-0.08575554
3	0x3d924099	0.07141227
4	0x3a627947	0.00086392876
5	0xbd703b14	-0.05865009
6	0x3db0bdfa	0.08629985
7	0xbdb5857a	-0.08863349
8	0xbc6c3405	-0.014416699
9	0x3c8cf5f9	0.017207133
10	0x3d8c5399	0.068518825
11	0x3d2f7d8e	0.042844348
12	0x3dae078f	0.084975354
13	0xbdd082ed	-0.10181222
14	0xbcb1dc93	-0.021711623
15	0xbdb143bc	-0.086554974
16	0x3b4089db	0.0029379043
17	0xbd070c4d	-0.032970715
18	0x3d91614f	0.07098638
19	0x3bdfe910	0.006833203
20	0xbd332758	-0.043738693
21	0x3d9094bd	0.070596196
22	0xbd1a808e	-0.037720256
23	0xbc975e41	-0.018477561
24	0x3c1c1967	0.009527541
25	0x3d7b9747	0.061423566
26	0xbd56db2d	-0.052455116
27	0xbd5a17ef	-0.05324548
28	0xbc303f1e	-0.010757236
29	0xba0d1f30	-0.00053833704
30	0x3cb1acd7	0.021688862
31	0x3d8736c2	0.06602241
32	0x3d5bf8ae	0.053703956
33	0x3d2021db	0.039094787
34	0xbd3613db	-0.04445253
35	0x3d6b452e	0.05743902
36	0xbd882432	-0.06647529
37	0x3da07bf6	0.07836144
38	0x3d8c3ba5	0.06847314
39	0x3c0ec0a4	0.008712921
40	0x3da477e1	0.080306776
41	0xbd4bbb85	-0.04973938
42	0x3d90e09c	0.07074091
43	0xbc2f0576	-0.010682454
44	0xbd77dec7	-0.06051519
45	0xbd1ed1e9	-0.038774405
46	0xbdd26d85	-0.102747954
47	0xbd516279	-0.0511193
48	0xbc25eb14	-0.010126848
49	0x3d685e5b	0.05673061
50	0x3da2c36d	0.07947431
51	0xbd0142ca	-0.031557836
52	0x3dafd336	0.08585207
53	0x3d436103	0.04769994
54	0x3ac8f5ca	0.001533204
55	0x3b715986	0.0036827042
56	0xbd9e98c4	-0.077439815
57	0xbd2cfb4c	-0.042231843
58	0x391e36f7	0.0001508853
59	0xbd5d7c89	-0.054073844
60	0xbd5abe0d	-0.053403903
61	0x3d8a6e53	0.06759324
62	0xbdc36b1e	-0.09541915
63	0xbce43c77	-0.027860863

hiden_layers.1.weight f4 [64, 64]
0	0x3e4886cc	0.19582671
1	0x3da93ca9	0.08263523
2	0xbe4322d4	-0.19056255
3	0x3d694468	0.056950003
4	0xbe398213	-0.18116026
5	0x3e3edcf6	0.18638977
6	0xbde64333	-0.11243286
7	0xbdebed86	-0.115199134
8	0xbc9f642b	-0.019456943
9	0xbb60be83	-0.0034293241
10	0xbc6c22d1	-0.014412598
11	0xbda26dbf	-0.07931089
12	0x3db395f3	0.08768835
13	0x3d99811f	0.07495331
14	0x3ce8b94b	0.028408667
15	0xbd791d02	-0.06081868
16	0x3cfcb442	0.030847672
17	0x3e09baa7	0.13450108
18	0x3de9bac0	0.11412573
19	0xbc951c1d	-0.018201882
20	0x3e51c061	0.20483543
21	0xbe042a8a	-0.12906852
22	0x3d2987e1	0.04138935
23	0xbe0d8e33	-0.13823776
24	0x3c846124	0.016159602
25	0xbe5852d2	-0.21125343
26	0xbd99c05e	-0.07507394
27	0x3e31b73e	0.17355058
28	0x3d6eaeca	0.05827216
29	0xbae425f0	-0.0017406326
30	0xbd1c32fb	-0.038134556
31	0x3e0c2385	0.13685425
32	0xbe48601c	-0.19567913
33	0x3e405b9f	0.1878495
34	0xbe2f8381	-0.17140009
35	0xbe25fd6a	-0.16209951
36	0xbd13f6b0	-0.03612393
37	0x3c8879ca	0.016659636
38	0xbcbb41d4	-0.022858538
39	0x3e2ae3cc	0.1668846
40	0x3db5618e	0.08856498
41	0x3e2f1e73	0.17101459
42	0xbe1584a2	-0.14601377
43	0x3dd46efb	0.1037273
44	0x3e613b84	0.2199536
45	0x3d72086b	0.05909006
46	0x3e354c73	0.17704944
47	0xbe4d3b2a	-0.200421
48	0xbd6983aa	-0.05701033
49	0xbe230d1a	-0.15922967
50	0xbd10b67d	-0.035330284
51	0x3dc8409c	0.09777948
52	0xbe0a5fcd	-0.13513108
53	0xbb63f741	-0.0034784826
54	0xbd0658e7	-0.032799628
55	0xbe418adb	-0.18900625
56	0x3e6e556e	0.23274776
57	0xbe0b5ab1	-0.13608815
58	0xbe229a4a	-0.15879169
59	0x3dd6f90c	0.10496721
60	0x3dbd4149	0.09240968
61	0x3d4a17cc	0.0493391
62	0x3bdabb66	0.0066751717
63	0xbe0743c4	-0.13209444
64	0xbc1394dc	-0.009007659
65	0xbd40bce3	-0.047055136
66	0xbe55fb6b	-0.2089669
67	0x3dc162ae	0.0944265
68	0xbe12af38	-0.14324653
69	0xbe057fe4	-0.13037068
70	0xbe05aad5	-0.13053448
71	0xbdc021ea	-0.093814686
72	0x3dcadcbd	0.09905384
73	0xbdc15322	-0.094396845
74	0x3e65be8f	0.22435974
75	0x3daf6a01	0.085651405
76	0x3d6dce36	0.058057986
77	0xbd2461ee	-0.040132456
78	0xbcb6545b	-0.02225702
79	0x3aa1242a	0.0012294103
80	0x3de553c6	0.11197619
81	0xbd70884c	-0.058723733
82	0x3e2936e3	0.16524844
83	0x3debbb88	0.11510378
84	0x3d3733f3	0.044727277
85	0x3e35957a	0.17732802
86	0xbe888fe1	-0.2667227
87	0x3d8b8568	0.068125546
88	0xbd9d1548	-0.07670075
89	0x3e437811	0.1908877
90	0x3c7220ed	0.014778358
91	0xbcc43149	-0.023949282
92	0xbded1751	-0.11576713
93	0x3cd48d65	0.025946328
94	0xbde8c8f2	-0.11366452
95	0x3e6b21bc	0.22962087
96	0x3e59ea77	0.21280847
97	0x3e2c707c	0.16839784
98	0xbe48546b	-0.19563453
99	0xbdf96541	-0.12177516
100	0xbe47a63d	-0.19497009
101	0x3d0d5ed1	0.034514252
102	0xbe05479b	-0.13015597
103	0xbe646f5c	-0.22308105
104	0xbe54ef0e	-0.20794317
105	0xbe5da7e3	-0.21646075
106	0x3e06354b	0.13106267
107	0xbda6ed28	-0.08150703
108	0x3d621f37	0.05520555
109	0x3e228f25	0.15874918
110	0xbf209f64	-0.6274321
111	0xbe6348d3	-0.22195749
112	0x3e229c55	0.15879948
113	0x3e898b12	0.26863915
114	0xbe3b2b59	-0.18278255
115	0xbdd4ba94	-0.103871495
116	0x3e8dd7eb	0.27703795
117	0xbcf9ac0d	-0.030477548
118	0x3e32f442	0.1747599
119	0xbd2fe71c	-0.042945012
120	0xbd71d5bb	-0.05904172
121	0x3d6e8ef3	0.058241796
122	0xbd9cd6e6	-0.07658176
123	0x3ddf1c43	0.10894062
124	0x3d649eda	0.055815555
125	0x3e2bab28	0.1676451
126	0x3d43883f	0.047737356
127	0x3e38ce33	0.18047409
128	0x3ea53e0c	0.322739
129	0x3da3fea7	0.080075555
130	0xbd4f2a62	-0.05057753
131	0x3d8abd6e	0.06774412
132	0x3db4727b	0.08810898
133	0x3e398ea5	0.18120821
134	0xbdb3b14d	-0.08774052
135	0x3df261e0	0.118350744
136	0x3e4264be	0.18983743
137	0xbd24ff4a	-0.040282525
138	0xbe41bfa1	-0.18920757
139	0xbd4a64c0	-0.04941249
140	0x3d91e4c6	0.07123713
141	0xbd0ba16e	-0.0340895
142	0x3dbc9375	0.09207813
143	0xbd2d3018	-0.042282194
144	0xbe359856	-0.17733893
145	0xbdabfcd8	-0.083978355
146	0x3d6e360d	0.058157016
147	0x3e0d17f9	0.13778676
148	0x3cea8e6e	0.028632369
149	0xbe593f04	-0.21215445
150	0xbe2c76b0	-0.1684215
151	0xbe61191d	-0.21982236
152	0xbdd306b7	-0.10304015
153	0x3dabe754	0.08393732
154	0xbe271cca	-0.16319576
155	0xbdb0e473	-0.08637323
156	0x3e380471	0.17970444
157	0x3d7edb63	0.062220942
158	0x3e512f47	0.20428191
159	0x3e5b87c3	0.21438508
160	0x3dead54b	0.11466464
161	0xbe206b41	-0.15665914
162	0xbd14845b	-0.036259037
163	0xbdaa46e3	-0.08314302
164	0xbd8a3d49	-0.067499705
165	0xbdf361ba	-0.11883874
166	0x3d2edc78	0.042690724
167	0xbdec59e3	-0.11540582
168	0xbdc758cb	-0.09733733
169	0xbdd8b176	-0.10580723
170	0xbe228410	-0.1587069
171	0xbd003379	-0.03129909
172	0x3da9d81e	0.08293174
173	0x3ca0d005	0.019630441
174	0xbdc66ab4	-0.09688321
175	0x3dbd5506	0.092447326
176	0x3cb621bb	0.02223288
177	0xbd168422	-0.036747105
178	0x3d6e424d	0.058168698
179	0xbe2c4d5d	-0.16826387
180	0x3d3ec7ee	0.046577387
181	0xbe259994	-0.16171867
182	0x3c04338c	0.00806893
183	0x3d14b407	0.0363045
184	0xbe62815d	-0.2211966
185	0x3df2381e	0.1182711
186	0xbdcad518	-0.09903926
187	0x3c1724b8	0.009225063
188	0x3d67a933	0.056557845
189	0x3d9e961e	0.07743476
190	0xbc4411ea	-0.011967162
191	0xbca9e6f5	-0.020740012
192	0x3cad05c9	0.021120923
193	0xbd7f9bfe	-0.062404625
194	0xbe34c5d4	-0.1765359
195	0x3e196414	0.14979583
196	0x3e67d4f8	0.22639835
197	0xbe6d310d	-0.23163243
198	0xbd88bd85	-0.06676773
199	0xbe12b879	-0.14328183
200	0x3bfa8abb	0.0076459325
201	0x3bd3b624	0.006460922
202	0xbe0dbb33	-0.13840942
203	0x3e8b5c20	0.27218723
204	0x3e87b400	0.26504517
205	0x3dc4a9e1	0.09602714
206	0xbc6de3ad	-0.014519614
207	0x3db5bb4b	0.08873614
208	0xbd56a8eb	-0.052407186
209	0xbdcef6a0	-0.10105634
210	0x3da61a4f	0.08110487
211	0x3e4c4a7f	0.19950293
212	0xbc5a8a74	-0.013338674
213	0xbe546db9	-0.20744981
214	0x3dcf6ed4	0.10128561
215	0x3df481e0	0.11938834
216	0x3d797581	0.060903076
217	0x3db894a2	0.090127245
218	0xbccc8295	-0.02496461
219	0xbd8b56c0	-0.068036556
220	0x3e03e4e6	0.12880287
221	0x3e2114e9	0.15730633
222	0x3de9d5da	0.11417742
223	0x3e327398	0.17426908
224	0x3e236770	0.15957427
225	0xbc03f102	-0.008053066
226	0xbe0634bc	-0.13106054
227	0x3d1dc5ad	0.038518596
228	0x3d94e955	0.07271067
229	0x3d00ecfc	0.031476006
230	0x3df2fc21	0.11864496
231	0x3e23f90f	0.16012977
232	0x3dffa1cf	0.124820344
233	0xbc838ef5	-0.016059378
234	0x3e598447	0.21241866
235	0x3e24a2ef	0.16077779
236	0xbdfd666c	-0.12373051
237	0xbe22019b	-0.15820925
238	0xbe804666	-0.2505371
239	0xbde9d3ff	-0.11417388
240	0x3dc26796	0.09492414
241	0x3d93086f	0.07179343
242	0xbd135865	-0.03597297
243	0x3de1acc0	0.110192776
244	0x3e3e2973	0.18570499
245	0xbd4a963e	-0.04945969
246	0xbe8a721b	-0.2704018
247	0xbd36eaea	-0.044657625
248	0xbe52f7ff	-0.20602416
249	0xbdaaa4cd	-0.083322145
250	0x3dd64f1a	0.10464306
251	0x3c7d1481	0.015446783
252	0xbe27eeeb	-0.16399734
253	0x3e80e853	0.2517725
254	0x3dc36971	0.09541596
255	0xbe5e316f	-0.21698545

hiden_layers.1.bias f4 [64]
0	0xbd088248	-0.03332737
1	0x3d801ac8	0.06255108
2	0x3d2d8377	0.042361703
3	0x3cbed942	0.023296956
4	0xbc60db02	-0.0137240905
5	0xbd9b02c8	-0.0756889
6	0xbd4197f7	-0.047264066
7	0xbd5483d6	-0.05188354
8	0xbda405b1	-0.08008898
9	0xbd882151	-0.066469796
10	0x3d51a767	0.051185038
11	0xbd8085ca	-0.06275518
12	0xbd50a6d7	-0.05094036
13	0xbc775983	-0.015097025
14	0xbd4bcc0a	-0.049755134
15	0xbda1f486	-0.07907967
16	0x3cb94614	0.022616424
17	0xbd19a43e	-0.03751015
18	0xbd5e9377	-0.054339852
19	0x3d76c093	0.060242247
20	0xbd700896	-0.05860194
21	0x3c91d6eb	0.017802676
22	0xbc71359c	-0.014722254
23	0x3d9f266b	0.077709995
24	0x3d1f1366	0.03883686
25	0xbd72559e	-0.059163682
26	0x3d811aab	0.06303915
27	0xbac9c349	-0.0015393283
28	0xbd7517d3	-0.059837174
29	0xbd802356	-0.0625674
30	0xbd1f4e37	-0.03889295
31	0xbd5133b3	-0.051074695
32	0xbd4c3579	-0.049855683
33	0x3d30736a	0.043078817
34	0x3d8c7b70	0.06859481
35	0x3d80f4c6	0.06296687
36	0x3d56c5d8	0.052434772
37	0xbd55cd3d	-0.052197684
38	0x3d1c014d	0.038087178
39	0x3ca78ab3	0.02045188
40	0xbc15d23a	-0.00914436
41	0xbb8b79a1	-0.0042564427
42	0xbd12b1a8	-0.035813957
43	0xbd3c993b	-0.04604457
44	0xbd3d17fe	-0.04616546
45	0x3d47af52	0.048751183
46	0xbda3d1fb	-0.07999035
47	0x3da2cca8	0.07949191
48	0x3d278dcb	0.04090671
49	0xbd4f6ab3	-0.050638866
50	0x3d88da29	0.06682236
51	0xbd2dbe6d	-0.042417932
52	0xbcfc5bf5	-0.030805567
53	0x3d3d19c9	0.04616717
54	0xbd807142	-0.06271602
55	0x3d634c18	0.05549249
56	0xbd28eb82	-0.041240223
57	0x3d67c7b0	0.05658692
58	0x3d49ca17	0.049264994
59	0x3d8b5b1a	0.068044856
60	0x3d30cbbc	0.043163046
61	0x3c910a62	0.017705146
62	0x3ce6e703	0.028186327
63	0x3d5570b2	0.052109428

hiden_layers.2.weight f4 [64, 64]
0	0xbe5c9094	-0.21539527
1	0x3ec04eeb	0.3756021
2	0x3d72fe11	0.059324328
3	0xba07a738	-0.0005174759
4	0xbd3fd649	-0.046835218
5	0xbd8cb80a	-0.0687104
6	0xbe70f4a0	-0.23530817
7	0xbe3cbe77	-0.18432032
8	0xbec98d2c	-0.39365518
9	0xbe6a4199	-0.22876586
10	0x3da8f62e	0.0825008
11	0xbe0dd360	-0.13850164
12	0xbe02c90c	-0.12772006
13	0x3e088a90	0.13334107
14	0xbe162aa2	-0.146647
15	0x3e472c12	0.19450405
16	0x3e43534e	0.19074747
17	0x3c9206b8	0.01782547
18	0xbc8970ec	-0.016777478
19	0xbd230680	-0.03980112
20	0x3e4ce78c	0.20010203
21	0x3e5937e1	0.21212722
22	0xbd5f54ef	-0.05452436
23	0x3e804b25	0.2505733
24	0x3e5d6e72	0.21624163
25	0xbe369d08	-0.1783334
26	0xbe7a0bab	-0.24418513
27	0xbe3fba25	-0.18723352
28	0x3e0da7a4	0.13833481
29	0xbdf77b33	-0.12084045
30	0x3e575032	0.21026686
31	0xbe05e57d	-0.13075824
32	0xbe23c6b3	-0.15993766
33	0x3d97461a	0.07386418
34	0xbe3a8a80	-0.18216896
35	0xbce0dec7	-0.027449979
36	0x3e16e1c0	0.14734554
37	0x3c960c1a	0.018316317
38	0x3d915da7	0.07097941
39	0xbd1bb76d	-0.038016725
40	0xbe20ef4f	-0.15716289
41	0x3c0979d2	0.008390861
42	0xbc168b16	-0.009188434
43	0x3d8eaf87	0.06967073
44	0x3e006efa	0.12542334
45	0xbe0e5aaa	-0.13901773
46	0x3d029ff0	0.03189081
47	0x3e20f087	0.15716754
48	0x3ce4e63e	0.02794182
49	0xbcfc7769	-0.030818658
50	0x3d917200	0.07101822
51	0xbee7f1ff	-0.45301816
52	0xbdd5eb75	-0.104453005
53	0x3e11555b	0.14192717
54	0x3de3f31d	0.111303546
55	0x3e468c22	0.19389394
56	0xbe490744	-0.19631678
57	0x3e2119d0	0.15732503
58	0x3e9ce2f4	0.30641901
59	0x3bc25195	0.0059301355
60	0xbd9365c5	-0.071971454
61	0x3ca7c79f	0.020480929
62	0x3d6bdf06	0.05758574
63	0x3ebb7ec0	0.3662014
64	0x3db7f1f8	0.08981699
65	0xbbb39895	-0.0054808357
66	0x3e161f86	0.14660463
67	0x3e18cf2f	0.14922784
68	0x3e6a4640	0.22878361
69	0x3e09c070	0.13452315
70	0x3e1a0cef	0.15043996
71	0x3e6a2e49	0.22869219
72	0x3dd91c62	0.10601117
73	0x3e350470	0.17677474
74	0x3e3e8f01	0.18609239
75	0x3e27077b	0.16311447
76	0xbdc1180d	-0.094284154
77	0xbd598e03	-0.05311395
78	0xbd4787d8	-0.048713535
79	0x3e2f7f89	0.17138495
80	0xbdd1a368	-0.102362454
81	0x3d915a21	0.07097269
82	0xbe6ce709	-0.23135008
83	0xbe1040de	-0.14087245
84	0x3d07ddbd	0.03317045
85	0xbe00c0a0	-0.1257348
86	0xbc8d1443	-0.017221576
87	0xbe41050c	-0.18849581
88	0xbd3c0c27	-0.045910027
89	0x3db800aa	0.08984502
90	0x3e61d05e	0.22052142
91	0x3df713b1	0.12064303
92	0xbde321b3	-0.11090412
93	0x3d75a5b8	0.059972495
94	0xbce431a0	-0.027855694
95	0xbd78f81c	-0.06078349
96	0x3ab8ea99	0.0014108001
97	0x3e515c9a	0.20445481
98	0xbdb71dc7	-0.089412265
99	0x3e0705ba	0.13185778
100	0x3dfbded2	0.12298359
101	0x3d977747	0.07395797
102	0x3d671ec6	0.056425832
103	0xbe524d0b	-0.20537202
104	0xbdaf8007	-0.08569341
105	0xbde83018	-0.11337298
106	0xbb9acb36	-0.0047239317
107	0x3c907616	0.017634433
108	0x3ce2219f	0.027603922
109	0xbe64d5ea	-0.22347227
110	0xbda30906	-0.079607055
111	0x3e5e7f72	0.21728304
112	0xbe2bd4cf	-0.16780399
113	0x3e56db96	0.20982203
114	0xbdda2e17	-0.10653322
115	0xbd911bb6	-0.070853636
116	0xbe0ea1f4	-0.13928968
117	0x3e252674	0.1612795
118	0xbdf34ff9	-0.11880488
119	0xbed07e40	-0.4072132
120	0x3ef997c4	0.487486
121	0xbd049170	-0.032365263
122	0xbdb28c02	-0.087181106
123	0x3e327493	0.17427282
124	0x3d845b04	0.06462672
125	0x3e51145e	0.20417926
126	0x3dd1c0a7	0.10241824
127	0xbe5ca70b	-0.21548097
128	0x3e5c9294	0.2154029
129	0xbe8527db	-0.2600697
130	0xbdc4d686	-0.096112296
131	0xbe00977f	-0.12557791
132	0x3e0ed362	0.13947824
133	0x3d6e24e9	0.05814067
134	0x3e3812db	0.17975943
135	0x3cb194ad	0.02167734
136	0xbd7a43f7	-0.061099973
137	0x3e81044c	0.2519859
138	0x3b70f116	0.0036764792
139	0x3e54b66e	0.20772716
140	0x3bf811c4	0.007570477
141	0x3e2c2618	0.16811407
142	0xbe1a9770	-0.15096831
143	0x3e365153	0.1780446
144	0x3da3ae81	0.07992268
145	0xbe537135	-0.20648654
146	0x3e118487	0.14210711
147	0xbe50388b	-0.2033407
148	0xbe493fbb	-0.19653217
149	0x3d8491cb	0.0647312
150	0x3e1901be	0.14942071
151	0xbe3aa759	-0.182279
152	0xbd8cae33	-0.06869163
153	0xbda1acbf	-0.07894277
154	0xbdce3e9b	-0.10070535
155	0xbd0ca2a5	-0.034334797
156	0x3da223aa	0.07916959
157	0x3dc8d073	0.098053835
158	0x3dd34f04	0.103178054
159	0x3e913929	0.28363922
160	0xbdeeac33	-0.11653938
161	0xbe235138	-0.15948951
162	0xbd81e916	-0.06343286
163	0x3de68f2e	0.11257778
164	0x3e301083	0.17193799
165	0xbc997b72	-0.018735621
166	0xbe5cfff7	-0.21582018
167	0x3e3ef733	0.18648987
168	0x3e3cd622	0.1844106
169	0x3c2d7392	0.010586636
170	0xbe09d102	-0.13458636
171	0xbde3af95	-0.11117474
172	0x3e1d119b	0.15338747
173	0x3ceafe87	0.028685821
174	0xbcbb273f	-0.022845862
175	0xbd3b5eb7	-0.045744624
176	0x3e44f55e	0.19234225
177	0x3d7bdbd5	0.061488945
178	0xbe705b06	-0.23472223
179	0x3e9603d2	0.2929979
180	0xbe271aa5	-0.16318758
181	0x3e2c1dda	0.16808262
182	0x3e1e1c27	0.15440427
183	0xbc9ba924	-0.019001551
184	0xbe63176e	-0.22176906
185	0x3de89a58	0.11357564
186	0xbe769089	-0.24078573
187	0xbdee00da	-0.11621256
188	0x3d4ed765	0.050498385
189	0x3bbddfe3	0.0057945116
190	0x3e162f62	0.14666513
191	0x3de9f949	0.114245005
192	0xbc1caa37	-0.009562067
193	0xbe147ebf	-0.14501475
194	0xbc1af7f8	-0.009458534
195	0x3e8662b6	0.26247185
196	0xbe961c45	-0.29318443
197	0xbe28e648	-0.16494095
198	0x3e157a12	0.14597347
199	0xbe1aac56	-0.15104803
200	0x3d583efe	0.05279445
201	0x3e0105a4	0.12599808
202	0x3e41b05f	0.18914936
203	0xbe427ec3	-0.18993668
204	0x3dc1fd91	0.09472192
205	0x3e0fd51b	0.14046137
206	0xbd5c5178	-0.053788632
207	0xbd379c73	-0.044826936
208	0x3d642db3	0.055707645
209	0xbe9bec80	-0.30453873
210	0xbe4c7386	-0.19965944
211	0xbd07ab28	-0.03312221
212	0xbe598351	-0.212415
213	0xbd367379	-0.044543717
214	0x3df0dc1d	0.11760733
215	0xbc05c2fa	-0.008164162
216	0xbc1e93de	-0.009678809
217	0xbd31bdde	-0.043393962
218	0x3e1622e2	0.14661744
219	0x3d2dd7c5	0.042442102
220	0xbd9d44a4	-0.07679108
221	0x3e50f952	0.20407608
222	0x3d829052	0.06375183
223	0xbe5e3aca	-0.21702114
224	0xbe8a6018	-0.2702644
225	0xbdd597be	-0.10429333
226	0x3ebfda96	0.37471455
227	0x3e4c715b	0.19965117
228	0x3e0bd176	0.13654122
229	0x3dc08a81	0.094014175
230	0xbcd13c50	-0.025541455
231	0xbd849fce	-0.06475793
232	0x3e83aef7	0.25719425
233	0xbe72de3c	-0.23717588
234	0x3be5ffa5	0.0070190006
235	0xbc7b07a2	-0.015321644
236	0x3c6e2560	0.014535278
237	0x3d7e5341	0.062091116
238	0xbddadc31	-0.106865294
239	0x3c814004	0.015777595
240	0xbd9d1788	-0.07670504
241	0x3d9708bf	0.07374715
242	0x3e6059de	0.21909282
243	0xbe6e44e9	-0.23268475
244	0xbd148668	-0.036260992
245	0xbdd08d58	-0.10183209
246	0x3dc699d5	0.0969731
247	0xbcd6a74a	-0.026202817
248	0x3d66a367	0.056308176
249	0xbdc6baf7	-0.097036295
250	0xbdae05d4	-0.084972054
251	0x3eb07e8c	0.34471548
252	0x3e49dc6f	0.19712995
253	0xbe52989c	-0.20566028
254	0x3e8184ac	0.25296533
255	0xbc044f38	-0.008075528

hiden_layers.2.bias f4 [64]
0	0x3d4926fd	0.049109448
1	0xbca1238c	-0.01967027
2	0xbd343433	-0.043995094
3	0x3d373e03	0.044736873
4	0xbc7bbeae	-0.015365286
5	0x3cc13fb9	0.023589956
6	0xbccd0c31	-0.025030227
7	0x3b3e59bf	0.0029045192
8	0xbd8a6973	-0.06758394
9	0xbc9afa1d	-0.018918091
10	0x3c1e9945	0.009680097
11	0xbd39a337	-0.04532167
12	0x3d3249ab	0.043527286
13	0xbc8ee8d5	-0.017445007
14	0xbd2bdaff	-0.041956898
15	0x3cf942c9	0.030427353
16	0x3c575da8	0.013144888
17	0xbd0e423b	-0.03473113
18	0xbd60c98f	-0.05487972
19	0x3d31b6c5	0.043387193
20	0xbd92644c	-0.07148036
21	0x3b865b6c	0.004100254
22	0x3d831149	0.06399781
23	0xbc296a19	-0.010340237
24	0xbbb20be1	-0.005433545
25	0x3d0acb3c	0.033885226
26	0x3d48f9d6	0.049066387
27	0xbabae6bc	-0.0014259438
28	0xbd820b9a	-0.06349869
29	0x3d26eda4	0.040753976
30	0x3e01a557	0.12660728
31	0xbd160824	-0.036628857
32	0xbce7ec21	-0.028310837
33	0xbd60aba1	-0.054851178
34	0xbd69a4f7	-0.05704209
35	0x3bd0a2cf	0.0063670645
36	0x3d7604c2	0.06006313
37	0xbd2ff4cf	-0.042958077
38	0xbd57ce99	-0.05268726
39	0x3d5776d7	0.05260357
40	0x3bf9e32a	0.007625957
41	0x3cacb455	0.021082083
42	0xbd66f476	-0.05638548
43	0x3d4e2210	0.050325453
44	0x3ae0241a	0.0017100603
45	0x3d2e7707	0.042593982
46	0xbd385924	-0.045006886
47	0x3d643d1f	0.055722352
48	0x3d5188c0	0.051155806
49	0xbd4dd68d	-0.05025344
50	0x3d16b994	0.036798075
51	0xbbd7fe7f	-0.0065916176
52	0xbd8454a3	-0.06461456
53	0xbd249ebf	-0.040190455
54	0xbba4859b	-0.00502081
55	0xbce75a88	-0.02824141
56	0x3cd080fe	0.025452133
57	0xbc9a32ce	-0.018823054
58	0xbd578faa	-0.052627243
59	0x3d045446	0.032306932
60	0x3da31ae8	0.07964116
61	0xbd325733	-0.04354019
62	0xbd04c7eb	-0.03241722
63	0x3d4aa7cc	0.04947643

hiden_layers.3.weight f4 [64, 64]
0	0xbe09ccf3	-0.13457088
1	0x3e4ae354	0.19813281
2	0x3e56f3dc	0.20991462
3	0xbd167641	-0.03673387
4	0xbdb68eee	-0.089139804
5	0x3e1aa5f2	0.15102366
6	0xbdbbfa55	-0.091786064
7	0xbe824983	-0.2544671
8	0x3d747579	0.059682343
9	0x3d6dd2b0	0.058062255
10	0x3e232706	0.15932855
11	0x3cf87166	0.03032751
12	0x3e3d37c5	0.18478306
13	0xbe2b74a3	-0.16743712
14	0x3e8722ca	0.2639373
15	0xbda65861	-0.08122326
16	0xbddb4348	-0.10706192
17	0xbe198ccd	-0.14995117
18	0x3dfba2b1	0.1228689
19	0xbe3ef352	-0.18647507
20	0x3e83db2e	0.25753158
21	0xbe8694bb	-0.26285347
22	0x3e26cdef	0.16289495
23	0x3e2e69ec	0.17032593
24	0x3e0d891b	0.13821833
25	0xbbb6b229	-0.0055754376
26	0xbdd57583	-0.10422804
27	0xbd778adb	-0.060435157
28	0x3e5197e3	0.20468096
29	0x3e0cd7b3	0.13754158
30	0xbdf30c0b	-0.118675314
31	0x3e9eba13	0.31001338
32	0x3dc2f648	0.09519631
33	0x3df40c9a	0.11916466
34	0xbdd17630	-0.102276206
35	0x3e0e6f8a	0.13909736
36	0x3aa39998	0.0012481688
37	0x3d72d048	0.059280664
38	0x3dcbee07	0.099575095
39	0xbdd07872	-0.10179223
40	0x3d9ecf71	0.0775441
41	0x3e110a48	0.14164078
42	0xbe3c9557	-0.18416344
43	0xbe5410ae	-0.20709488
44	0x3e026584	0.12734038
45	0x3e4aa17a	0.19788161
46	0x3d9ecdbe	0.07754086
47	0xbdcc34d7	-0.09971016
48	0x3e39a1ba	0.181281
49	0xbe310e04	-0.17290503
50	0xbe06fc38	-0.13182151
51	0xbe3ea387	-0.18617068
52	0x3e3dff55	0.18554433
53	0x3e6145e3	0.21999316
54	0x3d9ac6a0	0.07557416
55	0xbe060da7	-0.13091145
56	0x3dd6d50d	0.10489855
57	0x3dbe4811	0.09291089
58	0xbe338c6f	-0.1753404
59	0x3a8ba525	0.0010654075
60	0x3d9fd20f	0.07803737
61	0x3e660886	0.22464189
62	0xbdcdaa1f	-0.10042214
63	0x3e48ab22	0.19596532
64	0xbe4cab94	-0.19987327
65	0xbcbc3a4e	-0.02297702
66	0x3b4c1048	0.0031137634
67	0x3d995a81	0.074879654
68	0xbcee73d6	-0.02910797
69	0x3de630a8	0.11239749
70	0xbe393df5	-0.18090041
71	0x3dcc6105	0.099794425
72	0xbe0067ed	-0.12539645
73	0xbe3dc52b	-0.18532245
74	0x3e40dd56	0.18834433
75	0x3dceebb3	0.1010355
76	0x3e43003c	0.19043058
77	0xbc3a63c3	-0.011376324
78	0x3cc364f2	0.023851845
79	0x3e4c3bf7	0.1994475
80	0x3e3b6820	0.1830144
81	0xbd3b22f5	-0.045687634
82	0x3e6aa44a	0.22914234
83	0x3e2fcc43	0.17167763
84	0x3e5ddc5b	0.2166609
85	0xbdf8cc46	-0.12148337
86	0xbd86e6be	-0.06586979
87	0x3e733485	0.23750503
88	0xbd77989b	-0.06044827
89	0x3dc11c92	0.094292775
90	0x3e58f291	0.21186282
91	0xbe41edef	-0.1893842
92	0x3e3f6792	0.18691853
93	0xbd0894e2	-0.03334511
94	0xbe763e42	-0.24047187
95	0x3e332bb3	0.17497139
96	0x3e22e5ba	0.15907946
97	0xbd4c44ca	-0.04987029
98	0x3e32f231	0.17475201
99	0x3dff411a	0.12463589
100	0xbda610db	-0.08108684
101	0xbdd9af4d	-0.10629139
102	0xbe3844fb	-0.17995064
103	0x3d9ec6a7	0.07752734
104	0x3d013e91	0.03155381
105	0xbd1478e9	-0.03624812
106	0x3d4e6da6	0.050397538
107	0x3e64685d	0.22305436
108	0x3d48f096	0.049057566
109	0x3da672fe	0.08127402
110	0x3e134341	0.14381124
111	0xbcd82332	-0.02638397
112	0x3e1100ea	0.14160505
113	0xbe2b1775	-0.16708167
114	0xbdece28e	-0.115666494
115	0x3e289d75	0.16466315
116	0x3e1b3b3f	0.1515932
117	0xbdafb233	-0.08578911
118	0xbd422eb7	-0.047407832
119	0x3e3c2144	0.18372065
120	0x3e46f982	0.19431117
121	0xbe13eb50	-0.14445233
122	0x3ddee1f9	0.108829446
123	0x3cc0f554	0.023554482
124	0x3e6ba0ad	0.23010512
125	0x3e0ef0c9	0.1395904
126	0xb937bde7	-0.00017522984
127	0x3df183b4	0.117926985
128	0xbe5ec561	-0.21754982
129	0x3e2b865c	0.16750473
130	0xbd167161	-0.03672922
131	0xbda931e2	-0.082614675
132	0xbe30544d	-0.17219658
133	0x3dd9b5e1	0.10630394
134	0x3de771ca	0.113010004
135	0xbe4f0edb	-0.2022051
136	0x3e663860	0.22482443
137	0xbd4faa7a	-0.05069969
138	0xbd591b7d	-0.05300473
139	0x3e36c52a	0.1784865
140	0xbdd8e37d	-0.10590265
141	0x3cdb11b6	0.026741844
142	0x3e23d587	0.15999423
143	0x3b8eea56	0.004361431
144	0x3da430b8	0.08017105
145	0x3e1081f0	0.14112067
146	0xbe0f5a5a	-0.1399931
147	0xbe5186a6	-0.2046152
148	0x3de9a743	0.11408856
149	0x3b8dc7a0	0.0043267757
150	0xbe4fc6d1	-0.20290686
151	0x3e0a8111	0.13525797
152	0xbd31aaa3	-0.043375622
153	0x3d9a5406	0.075355574
154	0xbe5b216c	-0.21399468
155	0x3e193a2a	0.14963594
156	0x3eb58cb1	0.35458902
157	0xbe5c4e6a	-0.21514288
158	0xbe2b08bd	-0.16702552
159	0xbdaddbd9	-0.08489198
160	0xbe6739a0	-0.22580576
161	0x3e9b3551	0.30314115
162	0x3e4d1d17	0.20030628
163	0x3c33fb92	0.010985272
164	0xbd9a0b63	-0.07521703
165	0xbd5fdbca	-0.054652967
166	0x3df0fcd2	0.11766972
167	0x3d2d67bf	0.042335268
168	0x3e4e05f2	0.20119455
169	0xbe7283f3	-0.23683147
170	0x3c40d510	0.011769548
171	0x3cae11f6	0.021248799
172	0xbbe5847c	-0.0070043188
173	0xbe29d18d	-0.16583844
174	0x3e01dc55	0.12681706
175	0xbe66ea5d	-0.2255034
176	0xbe1b8e25	-0.15190943
177	0xbe22715a	-0.15863553
178	0x3e626fef	0.22113012
179	0x3e29e897	0.16592632
180	0x3c7829e9	0.015146711
181	0xbd8c4d5a	-0.06850691
182	0xbe7f2f70	-0.2492044
183	0xbe554992	-0.20828846
184	0xbe3e1dfd	-0.18566127
185	0xbe1e3abf	-0.15452097
186	0x3d535691	0.051596228
187	0x3dba5e98	0.091000736
188	0x3da5589e	0.08073543
189	0x3dc3b393	0.095557354
190	0x3cc505c9	0.02405061
191	0xbcc94aa9	-0.024571734
192	0x3ccbec17	0.02489285
193	0xbde9ac34	-0.11409798
194	0x3de162cb	0.110051714
195	0xbd729d1a	-0.059231855
196	0xbe586544	-0.2113238
197	0xbdb6c470	-0.08924186
198	0x3db934e7	0.090432934
199	0xbe0e3620	-0.13887835
200	0x3dce761e	0.10081123
201	0xbe0e0646	-0.1386958
202	0xbe3bf511	-0.18355204
203	0xbdfb0fa7	-0.12258845
204	0xbe519a01	-0.20468904
205	0xbe3688bd	-0.17825599
206	0xbd849c26	-0.064750955
207	0xbcc143f2	-0.02359197
208	0xbd28a4e9	-0.041172896
209	0x3dbc7f25	0.092039384
210	0x3e2543e7	0.16139184
211	0x3c47d1d3	0.012196022
212	0x3e0c478c	0.13699168
213	0xbe058af4	-0.13041288
214	0xbe3935b7	-0.18086897
215	0xbd0e38f1	-0.034722272
216	0x3e60a288	0.21937001
217	0x3cbca82a	0.023029406
218	0x3d96b2d0	0.073583245
219	0x3decddaa	0.115657166
220	0x3e60a3fb	0.21937554
221	0xbe725324	-0.23664528
222	0x3d68b696	0.056814753
223	0x3da393ad	0.07987151
224	0x3e039f62	0.12853768
225	0x3e43463e	0.19069764
226	0x3dd5d7e3	0.10441568
227	0xbdf9cf21	-0.1219771
228	0xbe89f2b1	-0.2694297
229	0xbc9dc2d5	-0.019257942
230	0xbd986ef8	-0.074430406
231	0xbd4cd51f	-0.050007936
232	0x3e03804a	0.12841907
233	0xbe462837	-0.19351278
234	0xbe1dd993	-0.15415029
235	0xbd446bce	-0.047954373
236	0x3e04a49c	0.12953418
237	0xbe0dbd4e	-0.13841745
238	0x3e472518	0.19447744
239	0x3e041139	0.12897195
240	0xbe1c007f	-0.15234564
241	0x3e3144ca	0.17311397
242	0xbde8a24b	-0.1135908
243	0xbe21900f	-0.1577761
244	0x3e0e227d	0.13880344
245	0x3e353156	0.17694601
246	0x3ebc73ce	0.36807102
247	0x3e1d825b	0.15381758
248	0x3e428e07	0.18999492
249	0x3de788e9	0.113054104
250	0x3e443582	0.19161037
251	0xbe2877b7	-0.16451918
252	0xbde764cb	-0.112985216
253	0xbe2c9479	-0.16853513
254	0xbe01ba9e	-0.12668845
255	0x3cd0ad67	0.02547331

hiden_layers.3.bias f4 [64]
0	0xbd2e5676	-0.042562924
1	0xbc73c133	-0.014877605
2	0xbd32c66b	-0.043646257
3	0xbccee657	-0.025256319
4	0xbc8412a2	-0.016122166
5	0xbd0a5da7	-0.03378072
6	0x3d171dc9	0.03689364
7	0x3cb2632e	0.021775808
8	0xbc22baee	-0.009932263
9	0x3c829822	0.015941683
10	0x3c8face4	0.017538495
11	0x3d3192a0	0.043352723
12	0x3d8c104e	0.06839047
13	0x3d35128d	0.044207145
14	0xbcc01d79	-0.023451554
15	0xbcfe2252	-0.031022225
16	0xbc7a05d5	-0.0152601795
17	0x3d2d8163	0.04235972
18	0xbbbdd622	-0.005793349
19	0x3d0f9280	0.035051823
20	0x3c3f8c96	0.011691233
21	0xbd60831b	-0.054812532
22	0x3d1b2a7d	0.037882317
23	0x3cc39f33	0.023879623
24	0xbcd7f4ed	-0.026361907
25	0x3cc0668a	0.023486394
26	0xbd2228c1	-0.039589647
27	0xbd23a342	-0.039950617
28	0xbcdfa8c2	-0.02730215
29	0xbd012873	-0.031532716
30	0x3c55e9df	0.0130562475
31	0x3cc00ed1	0.023444565
32	0xbc86f797	-0.016475482
33	0x3b54391f	0.003238268
34	0xbd173dbf	-0.03692412
35	0x3d2b5935	0.04183312
36	0x3bf10e63	0.0073564514
37	0x3cfab817	0.030605359
38	0x3d0e1676	0.03468939
39	0x3d239b5d	0.039943088
40	0xbd5a8b5e	-0.053355567
41	0xbd8577b0	-0.06516969
42	0x3d5a1589	0.053243194
43	0xba129f60	-0.0005593207
44	0xbd08ef23	-0.033431184
45	0x3d402bb6	0.046916686
46	0xbc8b352b	-0.016993126
47	0x3c95a0ad	0.018265093
48	0xbd24cdbf	-0.040235277
49	0x3c83a47d	0.016069645
50	0xbc5f228e	-0.013619078
51	0xbbe3fff1	-0.006958001
52	0xbdda81de	-0.106693015
53	0xbb65d88d	-0.0035071701
54	0x3d56799b	0.052362066
55	0xbd3ead07	-0.04655173
56	0x3c925f54	0.017867722
57	0xbd045034	-0.03230305
58	0xbd3e3865	-0.0464405
59	0xbd67503d	-0.056473006
60	0x3d0e4955	0.034737904
61	0x3ccb5010	0.02481845
62	0xbd35a8b7	-0.044350352
63	0xbccd7ecc	-0.025084876

hiden_layers.4.weight f4 [64, 64]
0	0xbe4db62f	-0.20089029
1	0x3d2abf95	0.041686613
2	0x3dd37d8f	0.10326683
3	0xbe4cfa82	-0.20017436
4	0x3e2e502e	0.17022774
5	0xbdbc8c76	-0.09206478
6	0xbcec13f9	-0.028818117
7	0x3cef62a5	0.029221842
8	0xbd483d91	-0.04888684
9	0xbd8a3592	-0.06748499
10	0xbd88f82f	-0.06687962
11	0x3d5cdebf	0.053923365
12	0x3d18d1c4	0.037309423
13	0xbe07f1db	-0.13275854
14	0xbdea0dad	-0.1142839
15	0xbd5d4f12	-0.054030485
16	0x39d1ba8c	0.00040002575
17	0xbdc2df4b	-0.09515246
18	0x3dc7472c	0.09730372
19	0x3e07baf4	0.1325491
20	0xbe26df4c	-0.16296118
21	0x3d7cb164	0.06169261
22	0xbe7c9ca5	-0.2466913
23	0x3cfea361	0.031083765
24	0xbd6669a6	-0.056253098
25	0xbe2d5471	-0.16926743
26	0x3d840b06	0.06447415
27	0x3d9cb16a	0.076510265
28	0xbe40cbf3	-0.188278
29	0xbe0b8b66	-0.13627395
30	0xbdf9283c	-0.12165877
31	0x3c8c8ac2	0.017156009
32	0x3e4badf9	0.19890584
33	0xbd6b35fa	-0.057424523
34	0x3d20593e	0.039147608
35	0xbe8096d2	-0.25115067
36	0x3e45f394	0.19331199
37	0xbdbdb9ec	-0.092639774
38	0xbc17dcf9	-0.009268993
39	0xbc9f5428	-0.019449309
40	0xbe08a54e	-0.13344309
41	0xbd5bfbad	-0.053706814
42	0x3e9e32e6	0.30898207
43	0x3d926a69	0.071492024
44	0x3bbeb757	0.0058201957
45	0x3e02bf90	0.12768388
46	0x3e581fb9	0.21105851
47	0xbe47a767	-0.19497453
48	0xbe38f0f6	-0.1806067
49	0xbe0165a9	-0.12636437
50	0x3db81fe9	0.089904614
51	0x3e2ef61a	0.17086068
52	0xbe4a5dbb	-0.19762318
53	0x3e4d12ba	0.20026675
54	0x3e524f7a	0.2053813
55	0xbd8ffffa	-0.070312455
56	0x3e4c423d	0.19947143
57	0xbd909ac5	-0.0706077
58	0xbe67f3ee	-0.22651646
59	0xbebf5070	-0.37366056
60	0x3d570983	0.052499305
61	0xbe3f6519	-0.1869091
62	0xbd285a79	-0.041101906
63	0xbd42af38	-0.047530383
64	0xbcf85563	-0.030314153
65	0xbe2297b6	-0.15878186
66	0xbe0523b6	-0.13001904
67	0x3da8e61e	0.08247016
68	0x3dd884b7	0.10572188
69	0x3d5135b3	0.051076602
70	0xbe665074	-0.22491628
71	0xbc48d447	-0.012257642
72	0xbe222684	-0.15835005
73	0xbd389d5b	-0.04507194
74	0xbdfa7c75	-0.122307695
75	0x3e02665c	0.1273436
76	0x3e63ed51	0.22258498
77	0x3e186f1e	0.14886138
78	0xbd7ea21f	-0.06216633
79	0x3d800d82	0.062525764
80	0xbe39729b	-0.18110125
81	0xbdefdbbf	-0.11711835
82	0x3d674015	0.056457598
83	0x3ccb6c57	0.024831934
84	0x3e150ba3	0.1455522
85	0x3e59c6eb	0.21267287
86	0x3e99116a	0.29896098
87	0x3d87cab8	0.066304624
88	0xbe19c154	-0.15015155
89	0xbe750cdf	-0.23930691
90	0xbe2564df	-0.1615176
91	0x3e39c8a8	0.1814295
92	0xbca225c5	-0.0197934
93	0x3d357d14	0.044308737
94	0xbe1e2226	-0.15442714
95	0xbe6db3ec	-0.23213166
96	0x3e82e608	0.25566125
97	0x3e0da6d1	0.13833167
98	0x3e65478e	0.22390577
99	0xbdb8aa0f	-0.09016811
100	0xbe39ce9c	-0.18145221
101	0x3d0cc193	0.034364294
102	0x3db8aa1d	0.090168215
103	0xbc96c5e4	-0.018404908
104	0x3e54bde8	0.20775568
105	0xbdc42d25	-0.09578923
106	0x3dc35a18	0.095386684
107	0x3e2eb4a1	0.17061092
108	0xbc18b27e	-0.0093199
109	0x3e20c274	0.15699178
110	0xbc63907a	-0.013889426
111	0xbd56fe35	-0.052488524
112	0xbe08b81b	-0.1335148
113	0x3e803b19	0.25045088
114	0xbe24f00d	-0.16107197
115	0xbda947aa	-0.08265622
116	0x3db27c7b	0.08715149
117	0xbd95527c	-0.07291123
118	0x3e6b94a0	0.23005915
119	0x3d8a6181	0.06756879
120	0xbcab0801	-0.02087784
121	0xbe1df616	-0.15425906
122	0x3e02c24e	0.12769434
123	0xbe3816e0	-0.17977476
124	0x3e957600	0.2919159
125	0x3cb4f365	0.022088716
126	0x3db552cf	0.08853685
127	0x3e47baec	0.19504899
128	0xbe333308	-0.17499936
129	0xbe80457b	-0.2505301
130	0xbe4b8e47	-0.19878493
131	0xbe6784bf	-0.22609232
132	0xbc55c969	-0.013048508
133	0xbdbde9ba	-0.092730954
134	0xba389815	-0.0007041705
135	0x3e47de56	0.19518408
136	0xbd2a5f2d	-0.041594673
137	0xbdac62a9	-0.084172554
138	0x3de62984	0.11238387
139	0x3c00c222	0.007858785
140	0x3d24002d	0.04003923
141	0x3e3dbe85	0.18529709
142	0x3dbc3e07	0.09191518
143	0xbe12fbd9	-0.14353885
144	0x3c17ad6c	0.009257656
145	0x3e82e569	0.2556565
146	0xbe36124b	-0.17780416
147	0x3e115860	0.14193869
148	0xbe534b84	-0.20634276
149	0xbe8a5517	-0.27018043
150	0x3caf210d	0.021378065
151	0x3d960dc5	0.07326845
152	0xbe9c1133	-0.30481872
153	0xbe782481	-0.24232675
154	0xbc0a7a95	-0.008452077
155	0x3e084d5b	0.13310759
156	0xbea73ffb	-0.32666
157	0x3d0f3803	0.034965526
158	0xbdf9d1ab	-0.12198194
159	0x3e80e165	0.25171962
160	0xbe22643a	-0.15858546
161	0x3d7626e7	0.060095694
162	0xbe50b869	-0.20382847
163	0x3ddb22ce	0.10699998
164	0xbd45f519	-0.048329446
165	0x3d670154	0.05639775
166	0xbce3c3f4	-0.027803399
167	0x3e8e8a8e	0.27840084
168	0x3dc507a6	0.096205994
169	0x3df7c5e0	0.120982885
170	0xbe1899b2	-0.1490238
171	0x3b9fd8c3	0.004878135
172	0xbe5000b6	-0.20312771
173	0x3d265a00	0.040613174
174	0x3da6ea49	0.08150155
175	0x3e88cc4b	0.26718363
176	0x3e630172	0.2216852
177	0x3dbea870	0.09309471
178	0x3e1c027a	0.1523532
179	0xbe4aa3ef	-0.19789098
180	0xbe848401	-0.2588196
181	0x3e53e135	0.20691378
182	0x3e80961d	0.25114527
183	0x3d525b21	0.05135644
184	0xbdb50242	-0.08838321
185	0x3e4d1c1c	0.20030254
186	0x3d692828	0.05692306
187	0x3d53c603	0.05170251
188	0xbc181bc5	-0.0092839645
189	0xbbc2519c	-0.0059301388
190	0x3d610c22	0.05494321
191	0x3deb9ec9	0.11504895
192	0x3db43319	0.087988086
193	0xbdb592a0	-0.08865857
194	0xbd9cc451	-0.07654632
195	0x3e53a895	0.20669778
196	0x3dffbb27	0.12486868
197	0x3e5d2a64	0.21598202
198	0x3ca429bf	0.020039437
199	0xbe59c57a	-0.21266738
200	0x3e3c1e4f	0.18370937
201	0x3dfd8678	0.123791635
202	0x3e10f5cb	0.14156263
203	0xbd9a181a	-0.07524128
204	0xbdcb8ef9	-0.09939379
205	0xbe2ce194	-0.16882926
206	0x3e6ebd9d	0.23314519
207	0x3e83c730	0.25737906
208	0x3d127162	0.03575266
209	0x3cbbd854	0.022930302
210	0xbe60905d	-0.2193007
211	0xbeab1430	-0.3341384
212	0xbe2cbea9	-0.16869606
213	0x3dc48b3e	0.09596871
214	0x3e282858	0.1642164
215	0x3e20c1c5	0.15698917
216	0x3e2955f9	0.16536702
217	0xbe03da50	-0.12876248
218	0x3e6e1349	0.23249544
219	0xbda037bd	-0.07823131
220	0xbe1a5af9	-0.15073766
221	0x3d9dde10	0.07708371
222	0xbc8d3ae6	-0.017239999
223	0xbeb89e03	-0.36058053
224	0xbd8c5a8b	-0.06853207
225	0x3d521fa6	0.051299714
226	0xbdf35a06	-0.11882405
227	0xbe3e4244	-0.18579966
228	0x3d4fd46d	0.050739694
229	0xbde3477b	-0.11097618
230	0xbe107a80	-0.1410923
231	0x3db6359a	0.088969424
232	0xbcf898c1	-0.030346276
233	0x3d35bdf0	0.04437059
234	0xbe57507f	-0.210268
235	0x3e6e2de6	0.23259696
236	0x3dfe2477	0.12409299
237	0xbe179cc7	-0.148059
238	0xbe1445c4	-0.14479738
239	0xbe695f99	-0.22790374
240	0xbc9cc4c1	-0.019136788
241	0x3e3a4d18	0.18193471
242	0x3cd67509	0.026178854
243	0x3e54a606	0.20766458
244	0xbd9b85ba	-0.07593866
245	0x3df0013d	0.11718986
246	0x3e06c9ef	0.13162969
247	0x3eb77b39	0.358362
248	0xbe852804	-0.26007092
249	0x3bbad0ea	0.005701174
250	0x3e3fb49a	0.18721238
251	0x3d0396cc	0.032126233
252	0x3dcafd19	0.09911556
253	0xbd10a761	-0.035315875
254	0x3e5ec9df	0.21756695
255	0x3e668c22	0.22514394

hiden_layers.4.bias f4 [64]
0	0xbd781153	-0.060563397
1	0xbcf3706a	-0.02971669
2	0x3d4ffa92	0.05077607
3	0xbc61b2ce	-0.0137755405
4	0x3cf2f2d0	0.029656798
5	0xbc578ec2	-0.013156595
6	0x3cba0f77	0.022712452
7	0xbbe5b445	-0.007010015
8	0x3c73f4a4	0.01488987
9	0x3a0149aa	0.0004931936
10	0xbc88728b	-0.01665618
11	0x3d375970	0.04476303
12	0xbc983358	-0.01857917
13	0xbd115023	-0.035476815
14	0x3caf4bcc	0.021398447
15	0x3b14701b	0.0022649828
16	0xbd3b9cc8	-0.045803815
17	0x3c29232d	0.010323328
18	0xbc9a67e4	-0.018848367
19	0xbaa4626e	-0.0012541541
20	0xbd8080cd	-0.06274567
21	0xbd62b6cb	-0.055350106
22	0x3daff8f4	0.08592406
23	0xbd06f4ff	-0.03294849
24	0x3c408de0	0.011752576
25	0x3bdf54a5	0.0068155103
26	0xbd404152	-0.046937294
27	0xbc8f8613	-0.017519986
28	0xbd810f8d	-0.06301794
29	0xbc046454	-0.008080561
30	0xbdd465e8	-0.103709996
31	0x3bf9c6eb	0.00762259
32	0xbcac3b2f	-0.021024315
33	0xbd00b01a	-0.031417944
34	0x3d55ed7b	0.052228432
35	0xbc554a2c	-0.013018172
36	0x3ccfaa4d	0.02534976
37	0xbcc00f69	-0.023444848
38	0x3b95a8a4	0.0045672227
39	0x3d5a0e72	0.053236432
40	0x3dbbd3c7	0.09171253
41	0x3d204a77	0.039133515
42	0xbce25b9f	-0.027631579
43	0xbcdfbd49	-0.027311938
44	0xbb6760aa	-0.003530542
45	0xbbdb9aba	-0.0067017945
46	0xbcebde6c	-0.028792582
47	0x3a4aea73	0.0007740624
48	0x3d6e01c1	0.05810714
49	0x3c598d92	0.013278382
50	0x3bfc77ca	0.0077047097
51	0xbd6c3faa	-0.057677902
52	0xbd399f82	-0.045318134
53	0x3bd0865c	0.006363673
54	0x3c299aa6	0.0103518125
55	0x3d9cf388	0.076636374
56	0xbca1b13e	-0.019737836
57	0x3d139031	0.036026184
58	0x3c60012b	0.013672153
59	0xbcfde1e1	-0.030991497
60	0x3c696d19	0.014247202
61	0xbc23e590	-0.010003462
62	0xbd61f2a8	-0.055163056
63	0xbb86f39a	-0.004118395
