results/1_first_try/epoch800/model_weights.pth (torch, 484214 bytes, 88 tensors)

init_layer.0.weight f4 [64, 3]
0	0xbe92ca37	-0.28669903
1	0xbd421fa4	-0.047393456
2	0x3e0fe895	0.14053567
3	0x3e85fd23	0.2616969
4	0xbd80a35c	-0.06281158
5	0xba2de91a	-0.0006634161
6	0xbdb0f912	-0.086412564
7	0xbe6bb51f	-0.23018311
8	0xbe05d50d	-0.13069554
9	0x3e0fd3ba	0.14045611
10	0xbb3112ed	-0.0027019337
11	0x3d226bdc	0.039653644
12	0xbc42e12f	-0.011894508
13	0x3e72bc7a	0.2370471
14	0x3e4cfd72	0.20018557
15	0xbe074244	-0.13208872
16	0xbea4a4d4	-0.32157004
17	0x3e1286cc	0.14309233
18	0x3e9cc1de	0.3061666
19	0xbc405775	-0.011739601
20	0x3e85a518	0.2610252
21	0x3ea5839f	0.3232698
22	0x3e711e9a	0.2354683
23	0x3e25374c	0.16134375
24	0x3e3aabd8	0.18229616
25	0xbeb31f2d	-0.34984723
26	0xbca4543d	-0.0200597
27	0xbd80cb7a	-0.0628881
28	0xbe096cca	-0.13420406
29	0x3e4ebf78	0.20190227
30	0xbd73115e	-0.059342735
31	0xbc5de3af	-0.0135430535
32	0x3de5ded2	0.1122414
33	0x3d32e844	0.043678537
34	0x3dfa3ea4	0.12218979
35	0xbe3e8176	-0.18604073
36	0xbe1b9685	-0.15194137
37	0xbc954604	-0.018221863
38	0xbd072e0d	-0.0330029
39	0x3c16cad1	0.009203629
40	0x3d18c715	0.037299234
41	0x3e54ed6f	0.20793699
42	0x3dfb320d	0.12265406
43	0xbe89805a	-0.26855737
44	0x3c16d2ca	0.0092055295
45	0x3e742aa7	0.23844396
46	0xbe42ee2c	-0.19036168
47	0xbe747815	-0.23873933
48	0x3e5996db	0.21248953
49	0xbdb155de	-0.08658956
50	0x3e49076e	0.1963174
51	0x3e70b513	0.23506574
52	0x3e8256a9	0.2545674
53	0xbd8ede3a	-0.0697598
54	0x3dc866f4	0.09785262
55	0xbd5330c7	-0.05156019
56	0xbe974eed	-0.29552403
57	0xbe2fbd2d	-0.17162009
58	0x3df7ad87	0.120936446
59	0xbe73b160	-0.23798132
60	0x3e0c42ef	0.13697408
61	0xbe25ad80	-0.16179466
62	0xbc38ffc9	-0.011291453
63	0x3e7213d0	0.2364037
64	0xbda0b9dd	-0.078479506
65	0xbc94b081	-0.01815057
66	0x3d32d5c3	0.04366089
67	0xbe716ae1	-0.23575927
68	0xbe18e2b6	-0.14930233
69	0x3b79049f	0.003799714
70	0x3e32cbfe	0.1746063
71	0xbdb85e80	-0.090023994
72	0x3a9f084c	0.001213321
73	0xbde9e092	-0.114197865
74	0x3e06b9fb	0.13156883
75	0xbe14d0fc	-0.14532846
76	0x3e42ec10	0.19035363
77	0xbd6365a8	-0.05551687
78	0xbaea81cf	-0.0017891469
79	0x3e90a49b	0.28250584
80	0x3de04b60	0.10951877
81	0xbe2d68f0	-0.16934562
82	0xbe799885	-0.24374588
83	0x3d6ce4c8	0.05783537
84	0x3a8c6dc3	0.0010713864
85	0x3db5aefd	0.08871267
86	0xbe30b6cb	-0.1725723
87	0xbbbb2609	-0.0057113213
88	0xbe8fe62e	-0.281053
89	0x3e019561	0.1265464
90	0xbe940258	-0.28908038
91	0xbd716200	-0.05893135
92	0xbda85ff2	-0.08221425
93	0xbdc65b2d	-0.09685359
94	0x3d3e66f8	0.046484917
95	0x3e937a66	0.2880432
96	0xbd31470b	-0.043280642
97	0x3e80c325	0.25148883
98	0x3dd06d2f	0.10177075
99	0xbe872c5d	-0.26401034
100	0x3e9b18ec	0.3029245
101	0xbd0041f3	-0.031312894
102	0xbd65182c	-0.055931255
103	0xbd504790	-0.050849497
104	0xbdef1f86	-0.116759345
105	0xbc8e2676	-0.017352324
106	0xbe0cf756	-0.13766226
107	0xbe7876b8	-0.24264038
108	0x3d7182d7	0.05896267
109	0xbb885dc9	-0.0041615707
110	0xbe480433	-0.19532852
111	0xbe732039	-0.2374276
112	0xbd79baa6	-0.060969017
113	0xbba7a729	-0.0051163626
114	0x3e902424	0.28152573
115	0xbe1c3c0f	-0.15257286
116	0x3e11eb27	0.1424986
117	0xbe983166	-0.29725188
118	0x3e0d4c1f	0.13798569
119	0x3e1b17d9	0.15145816
120	0x3e8629bf	0.26203725
121	0x3c8790a8	0.01654847
122	0xbe3710f2	-0.17877558
123	0xbd9a0b4c	-0.07521686
124	0xbd41f325	-0.04735102
125	0xbe04a3ac	-0.12953061
126	0x3e135340	0.14387226
127	0xbdc1adbc	-0.09456965
128	0x3e156a94	0.14591438
129	0xbd296ad5	-0.04136165
130	0xbc45bab6	-0.012068441
131	0x3e5344f2	0.2063177
132	0x3db7b857	0.08970707
133	0xbe6fe020	-0.2342534
134	0xbe20b594	-0.15694267
135	0xbd81d7b7	-0.063399725
136	0xbe8cf58d	-0.2753109
137	0x3df7c85b	0.12098762
138	0xbc58aa02	-0.013224127
139	0xbe324477	-0.1740893
140	0xbd52f1f3	-0.051500272
141	0x3d2f19d5	0.042749245
142	0x3e328384	0.17432982
143	0x3df0e776	0.11762898
144	0x3dd1e178	0.10248083
145	0x3ea131eb	0.31483397
146	0xbcea4e1c	-0.028601699
147	0x3d8c7506	0.06858258
148	0xbe8216fc	-0.2540816
149	0x3e187bc9	0.1489097
150	0xbd469249	-0.048479352
151	0xbe78ed3a	-0.24309245
152	0xbdf4b476	-0.11948483
153	0xbeb32497	-0.34988853
154	0xbe0985af	-0.13429902
155	0xbd4d8c5f	-0.050182696
156	0x3e36d935	0.17856295
157	0xbe9f54f5	-0.31119505
158	0x3d910d78	0.07082647
159	0xbe2238d0	-0.15841985
160	0xbe63efa0	-0.22259378
161	0xbaaf0a71	-0.0013354552
162	0x3e0ac357	0.13551079
163	0xbe4ef85d	-0.2021193
164	0xbe49f4a9	-0.19722237
165	0x3e6d1c44	0.23155314
166	0x3c38ec15	0.011286755
167	0x3e35cc47	0.17753707
168	0x3e3ee2dd	0.18641229
169	0x3d819595	0.06327359
170	0x3e03d7bd	0.12875266
171	0x3e0e144f	0.13874935
172	0xbd368666	-0.044561766
173	0x3cc6948d	0.024240756
174	0x3e7bf4c6	0.24605092
175	0x3e81adee	0.2532801
176	0x3cd5fde7	0.026122047
177	0x3d541f80	0.051787853
178	0x3dc02269	0.09381563
179	0x3c3c8eeb	0.011508684
180	0xbddd022b	-0.10791429
181	0xbea000a6	-0.31250495
182	0x3d048c05	0.032360096
183	0xbd981a50	-0.07426894
184	0xbc178853	-0.009248811
185	0x3c5684c5	0.013093178
186	0x3e865129	0.26233795
187	0xbc7a7507	-0.015286691
188	0x3d219165	0.0394453
189	0x3e64e186	0.22351655
190	0x3dcb95e9	0.099407025
191	0x3d9361e4	0.071964055

init_layer.0.bias f4 [64]
0	0xbe1428bd	-0.14468665
1	0x3d995f46	0.07488875
2	0xbdaaa6c0	-0.08332586
3	0x3d9b7de0	0.07592368
4	0xbd98162b	-0.07426103
5	0xbca82c6a	-0.02052899
6	0x3e227980	0.15866661
7	0x3e049ca7	0.12950383
8	0x3b83967e	0.004015743
9	0x3d8e4989	0.069476195
10	0x3c29f480	0.010373235
11	0xbbec8f9f	-0.0072192694
12	0xbda95d61	-0.08269764
13	0x3dd7feb6	0.10546629
14	0x3da1a0ae	0.07891975
15	0x3ddbd480	0.107338905
16	0x3e2180bf	0.15771769
17	0x3d9bdec9	0.07610852
18	0xbe27ac4c	-0.1637432
19	0x3d3bd079	0.045853112
20	0x3da62ed3	0.081144
21	0x3d6ab031	0.057296935
22	0x3d52e61c	0.05148898
23	0x3d2438de	0.040093295
24	0x3cf86fba	0.030326713
25	0xbdec5517	-0.11539667
26	0x3d945070	0.07241905
27	0xbd83ddad	-0.06438766
28	0xbda5048c	-0.08057508
29	0xbda0c1a8	-0.07849437
30	0xbdbe6031	-0.09295691
31	0xbdcf47c4	-0.1012111
32	0x3d1b9a03	0.037988674
33	0xbd541acb	-0.051783364
34	0xbd5b9350	-0.053607285
35	0x3de7a3e7	0.11310559
36	0x3d3ca55b	0.046056133
37	0xbdddcb44	-0.108297855
38	0x3dd083d1	0.10181392
39	0xbdde6d9d	-0.10860751
40	0x3de15c6c	0.11003956
41	0xbd81bef0	-0.063352466
42	0x3d8d9153	0.06912484
43	0xbdd4af8c	-0.103850454
44	0x3d818912	0.06324972
45	0x3d9721de	0.073795065
46	0xbd009837	-0.031395163
47	0xbd71d896	-0.059044443
48	0xbd20c4cd	-0.039250184
49	0x3d12b779	0.035819504
50	0x3d3ccb6a	0.04609243
51	0xbdb600e0	-0.08886886
52	0xbcc7b863	-0.024379915
53	0xbd9c9693	-0.07645907
54	0x3d8a5ad1	0.06755603
55	0x3e023269	0.12714542
56	0x3ddbe69b	0.10737344
57	0x3dba30ab	0.09091314
58	0x3dd1fbba	0.10253091
59	0x3d2cc738	0.042182177
60	0xbc43cbe9	-0.011950471
61	0xbd39f17f	-0.045396324
62	0x3db4a29f	0.0882008
63	0x3dcdc043	0.10046437

hiden_layers.0.weight f4 [64, 64]
0	0xbde23b6a	-0.110464886
1	0xbb8e5b8d	-0.00434441
2	0x3e63efad	0.22259398
3	0x3d744162	0.059632666
4	0xbe6bfa40	-0.23044682
5	0xbbce365e	-0.006293102
6	0x3d08e41e	0.033420675
7	0xbe42ee0a	-0.19036117
8	0x3c74d99b	0.014944459
9	0xbdf4329d	-0.11923716
10	0x3aeb1196	0.0017934318
11	0x3e6ecc97	0.23320232
12	0x3dc00b47	0.09377151
13	0x3d3054d5	0.043049652
14	0x3e603ae0	0.21897459
15	0xbe5604e1	-0.20900299
16	0xbdb57c8b	-0.08861645
17	0xbde5fd4f	-0.112299554
18	0x3d794149	0.060853276
19	0xbe10c831	-0.14138867
20	0xbda31dc8	-0.07964665
21	0x3dc742a8	0.097295105
22	0x3d2c07ff	0.041999813
23	0xbea55dcf	-0.32298133
24	0x3dd07d3f	0.10180139
25	0x3d1f3176	0.03886553
26	0xbe3b305f	-0.18280171
27	0xbe1cab79	-0.15299787
28	0xbd10b0d2	-0.03532488
29	0x3da6c95d	0.08143876
30	0xbe32fd5f	-0.17479466
31	0xbcbf30ac	-0.023338638
32	0xbe5ab0de	-0.21356532
33	0xbdc56926	-0.09639196
34	0x3e763562	0.24043801
35	0x3a495bee	0.000768124
36	0x3c619aa6	0.013769781
37	0x3d3cb551	0.046071354
38	0x3e65dcc5	0.22447498
39	0x3daf1049	0.08548028
40	0x3d52dcb2	0.051480003
41	0xbb81fc07	-0.0039668116
42	0x3d9cea25	0.07661847
43	0xbd0d6333	-0.034518432
44	0xbd1ff89d	-0.039055455
45	0xbd821431	-0.063515075
46	0x3daad9d3	0.08342328
47	0xbe7a09f2	-0.24417856
48	0x3e50a5f3	0.20375805
49	0xbdc59162	-0.0964687
50	0xbde3ea81	-0.111287124
51	0x3d6e9f31	0.058257286
52	0x3d9a2415	0.07526413
53	0x3c09474f	0.008378818
54	0x3e5210af	0.20514177
55	0x3e1ec30d	0.15504093
56	0xbe53973e	-0.20663163
57	0xbe3b4fb3	-0.18292122
58	0xbe2bc267	-0.16773377
59	0x3d7b5b97	0.061366644
60	0x3d7b6182	0.061372288
61	0xbd7c89e2	-0.061654933
62	0xbcf995c2	-0.030466918
63	0xbe303f80	-0.17211723
64	0xbd919964	-0.07109335
65	0xbe5c7c75	-0.21531852
66	0xbe5d1cbc	-0.21592993
67	0x3e07e554	0.13271075
68	0xbe133225	-0.14374597
69	0xbe1e494a	-0.15457645
70	0x3e30a20d	0.17249317
71	0xbe22d4f4	-0.15901548
72	0x3c822d5d	0.015890772
73	0xbe6f5793	-0.2337325
74	0x3e025f9c	0.12731785
75	0xbda631b1	-0.08114947
76	0x3d51a4a2	0.051182397
77	0x3cc1eb23	0.023671692
78	0xbc9b09ae	-0.018925514
79	0x3e278925	0.1636091
80	0xbc6d43d8	-0.014481507
81	0x3e806c56	0.25082654
82	0x3ca681cb	0.020325562
83	0xbbe36f26	-0.00694074
84	0xbdda6d66	-0.10665397
85	0xbe700c71	-0.23442246
86	0x3dea1295	0.114293255
87	0x3e4d2c7d	0.20036502
88	0xbdb3d624	-0.087810785
89	0xbcaba14d	-0.020950938
90	0x3e5f4159	0.21802272
91	0x3dc93585	0.09824661
92	0x3e0e7c30	0.13914561
93	0x3d3e859a	0.04651413
94	0xbe1f93bf	-0.15583704
95	0xbe189550	-0.14900708
96	0x3bf8130e	0.007570631
97	0x3d035f35	0.03207322
98	0x3e321145	0.173894
99	0x3de99746	0.11405806
100	0x3e690ae8	0.22758067
101	0xbd0d799e	-0.03453981
102	0xbdce648e	-0.10077773
103	0x3e0e0eb8	0.13872802
104	0xbd219b33	-0.03945465
105	0x3b8adbcd	0.004237628
106	0xbe82dd5b	-0.25559506
107	0xbd37a430	-0.044834316
108	0x3de88113	0.11352744
109	0xbe95d462	-0.29263598
110	0x3e367ca6	0.17820987
111	0xbe2e62cd	-0.17029877
112	0xbc9eb890	-0.019375116
113	0xbe104171	-0.14087464
114	0xbdda12e9	-0.10648138
115	0xbe0afd5e	-0.13573214
116	0x3dc94cfe	0.09829138
117	0xbe36be22	-0.17845967
118	0x3e229d0c	0.15880221
119	0x3db40dbf	0.08791684
120	0xbe638193	-0.22217397
121	0xbe172b8c	-0.14762706
122	0xbe14332e	-0.14472649
123	0xbe55fc09	-0.20896925
124	0x3e3472cb	0.17621915
125	0x3e83c752	0.25738007
126	0x3e138d07	0.14409266
127	0xbdee4773	-0.116347216
128	0x3e3307e1	0.17483474
129	0xbe137c8d	-0.14402981
130	0x3e319016	0.1734012
131	0xbd870b5e	-0.06593965
132	0xbe25d69f	-0.16195153
133	0xbd13afa6	-0.036056183
134	0xbdc1e853	-0.094681405
135	0xbe4e463c	-0.2014398
136	0xbde677c2	-0.11253311
137	0xbdba8093	-0.09106555
138	0xbb873fc1	-0.004127473
139	0x3e2c7ac5	0.16843708
140	0x3e628c41	0.22123815
141	0xbe68b970	-0.22726989
142	0x3d8f1fe4	0.069885045
143	0xbe50baa0	-0.20383692
144	0xbe64e807	-0.22354136
145	0xbe49bb49	-0.1970035
146	0x3da72945	0.081621684
147	0xbd1acbe3	-0.037792098
148	0xbe1e4281	-0.15455057
149	0xbe4e29c5	-0.20133121
150	0xbe5b09cc	-0.21390456
151	0x3d6f5982	0.05843497
152	0xbd153e8d	-0.036436606
153	0x3ca67802	0.020320896
154	0x3cc77540	0.024347901
155	0x3e4b7576	0.19869027
156	0x3c795a6d	0.015219313
157	0xbe6df0a3	-0.23236327
158	0x3e8a5f55	0.27025858
159	0x3e85f839	0.2616594
160	0xbe0e2f68	-0.13885272
161	0x3d25bf4a	0.04046563
162	0x3e514b95	0.20438989
163	0x3e240fba	0.16021624
164	0xbd99a347	-0.07501846
165	0xbd9f020a	-0.07764061
166	0xbde41bdb	-0.111381255
167	0x3dee7834	0.11644021
168	0xbe7f1ea5	-0.24914034
169	0xbcbbe065	-0.022934148
170	0x3e144a22	0.14481404
171	0x3e8818d4	0.26581442
172	0x3dfd402c	0.123657554
173	0x3cec87ab	0.028873285
174	0xbd9365d9	-0.0719716
175	0x3c0f1136	0.008732131
176	0xbc004652	-0.007829266
177	0xbba4ad56	-0.005025546
178	0xbe020e9c	-0.12700886
179	0x3c3d2108	0.01154352
180	0xbdbb5554	-0.091471344
181	0xbc09ece5	-0.008418296
182	0xbe3ddb0f	-0.18540595
183	0xbcb49fb6	-0.022048812
184	0xbe822af8	-0.25423408
185	0xbe3696e9	-0.17831005
186	0xbe581475	-0.21101554
187	0xbe02c361	-0.12769844
188	0x3e1a541d	0.15071149
189	0xbdaffd7a	-0.08593269
190	0xbe564056	-0.2092298
191	0x3e052ddc	0.13005775
192	0x3e23f37f	0.16010855
193	0xbe1b0993	-0.15140371
194	0x3b403f2e	0.0029334533
195	0xbd2e6728	-0.042578846
196	0x3e00b5c0	0.12569332
197	0x3e04d235	0.12970813
198	0xbd243676	-0.040091
199	0xbe2ae6e5	-0.16689642
200	0xbe7e35a9	-0.24825157
201	0xbdd9d203	-0.1063576
202	0x3d69af89	0.05705217
203	0x3c1aa051	0.0094376365
204	0xbd0161c9	-0.031587396
205	0xbd977db5	-0.073970236
206	0x3c4f36e7	0.012647367
207	0xbe0b630b	-0.13612
208	0xbd8fa5b3	-0.070140265
209	0x3e18b8ed	0.14914294
210	0x3df4ba16	0.119495556
211	0xbdd0f21a	-0.10202427
212	0x3e221dbe	0.15831658
213	0xbdd4942f	-0.10379826
214	0xbe230db7	-0.159232
215	0xbd91f6ea	-0.07127173
216	0x3e817978	0.25287986
217	0x3d9cab0c	0.07649812
218	0xbce7a5d0	-0.028277308
219	0xbd0f4136	-0.0349743
220	0xbe2fab45	-0.17155178
221	0xbe60c25c	-0.21949142
222	0xbe037561	-0.12837745
223	0x3d1cc4f7	0.038273778
224	0xbde2ef3e	-0.11080788
225	0x3de486aa	0.11158498
226	0xbe2ced37	-0.16887365
227	0x3cc75bcc	0.024335764
228	0xbd3e8560	-0.046513915
229	0xbdce25df	-0.10065817
230	0xbb142775	-0.0022606526
231	0xbd21aa99	-0.039469335
232	0xbe418766	-0.18899307
233	0xbd12d028	-0.035843045
234	0x3d89e4a3	0.06733062
235	0x3e57e072	0.21081713
236	0x3c9d0642	0.019168023
237	0x3d9dcec0	0.0770545
238	0x3da646ac	0.08118948
239	0x3d16cff7	0.036819424
240	0x3d70767f	0.058706757
241	0xbdd9948c	-0.10624036
242	0x3e5d2f7c	0.21600145
243	0xbd415a9e	-0.04720556
244	0xbe821651	-0.2540765
245	0x3e473c2b	0.19456546
246	0x3e3eba87	0.18625842
247	0x3d8cc3a9	0.06873257
248	0xbe3a1fa8	-0.18176138
249	0xbeb840c0	-0.359869
250	0xbe12c441	-0.14332677
251	0x3e066cb6	0.13127407
252	0xbdb389b0	-0.08766496
253	0xbdcf62d6	-0.10126273
254	0xbd58513e	-0.052811854
255	0xbda28490	-0.079354405

hiden_layers.0.bias f4 [64]
0	0xbdd877c1	-0.10569716
1	0x3ccd00e5	0.02502484
2	0xbd75b5c0	-0.059987783
3	0x3d6bea2c	0.05759637
4	0xbd9a2297	-0.07526129
5	0xbdadf6db	-0.084943496
6	0x3da74a02	0.08168413
7	0x3d24ad2c	0.040204212
8	0x3ddd18fb	0.1079578
9	0x3cfd99c7	0.030957116
10	0x3d864f54	0.065580994
11	0xbe0446ea	-0.12917677
12	0x3d61e650	0.055151284
13	0xbdba1356	-0.09085719
14	0xbe017611	-0.12642695
15	0x3d2b1374	0.0417666
16	0x3cfe2263	0.031022256
17	0xbdc4151b	-0.09574338
18	0x3d8a9aba	0.06767793
19	0xbd916d24	-0.07100895
20	0xbda74ba0	-0.08168721
21	0x3ca0bf31	0.019622417
22	0xbdab0370	-0.08350265
23	0x3c449fc9	0.012000986
24	0x3d8bdc79	0.06829161
25	0x3db30ee6	0.08743076
26	0x3d6f9500	0.058491707
27	0xba1986c2	-0.00058565673
28	0xbbd6d88b	-0.0065565757
29	0xbd8c1d08	-0.06841475
30	0x3cccfb0c	0.025022052
31	0x3d2d1118	0.04225263
32	0x3de36cfb	0.11104771
33	0xbd9e555c	-0.07731125
34	0xbdcd2622	-0.10017039
35	0x3de6ffbb	0.112792455
36	0xbd9bbb26	-0.07604055
37	0xbd391bb3	-0.04519243
38	0x3dbd64d9	0.09247751
39	0xbd7135e8	-0.0588893
40	0xbc6bd3b7	-0.0143937385
41	0xbda38bd8	-0.079856575
42	0x3e1f8ce3	0.15581088
43	0xbd9b9b43	-0.07597973
44	0x3c0c5ee9	0.00856755
45	0x3d30691d	0.043068994
46	0xbd9cf98d	-0.076647855
47	0x3cdd32e3	0.027001804
48	0xbd8309ca	-0.063983515
49	0x3d63dbd4	0.055629566
50	0xbc1045b4	-0.008805681
51	0x3d88655e	0.06659959
52	0xbd9e5f2b	-0.077329956
53	0x3d9fd2c4	0.07803872
54	0xbe75306f	-0.23944257
55	0xb9fd09c4	-0.00048263196
56	0xbdc8ad19	-0.09798641
57	0xbe034185	-0.12817962
58	0xbca7ac41	-0.02046788
59	0xbdff29f1	-0.124591716
60	0xbdd4916c	-0.103792995
61	0xbdabccd1	-0.08388675
62	0xbdb5ac22	-0.08870722
63	0x3d566e87	0.0523515

hiden_layers.1.weight f4 [64, 64]
0	0xbd2d227b	-0.04226921
1	0x3e044195	0.12915643
2	0x3de0a20b	0.10968407
3	0x3e04feb5	0.12987788
4	0xbe85520c	-0.2603916
5	0x3e8e9f5b	0.27855954
6	0xbe01678d	-0.12637158
7	0xbd6024a1	-0.054722432
8	0x3c807a9b	0.015683463
9	0xbc95bfec	-0.018279992
10	0xbdb55939	-0.088549085
11	0xbdbce993	-0.09224238
12	0xbdd81b06	-0.10552029
13	0x3d3df43a	0.04637549
14	0x3d8e1565	0.069376744
15	0xbd734103	-0.059388172
16	0x3e3a5a91	0.18198611
17	0x3e8f8e8d	0.28038445
18	0xbe07d759	-0.13265742
19	0x3e75526b	0.23957221
20	0x3e87c24c	0.26515424
21	0xbe0a3b34	-0.13499147
22	0x3d797b7d	0.060908783
23	0xbda136e7	-0.078718
24	0xbdf07fb7	-0.1174311
25	0xbe97f4ec	-0.29679048
26	0xbd953feb	-0.07287582
27	0x3e429f28	0.19006026
28	0x3d961e0a	0.07329948
29	0xbd5f60b7	-0.054535594
30	0xbe2894ae	-0.16462967
31	0xbcc63ae7	-0.024198009
32	0xbe8fd3f9	-0.2809141
33	0x3ea63cb7	0.32468197
34	0xbda380a2	-0.07983519
35	0xbe962a54	-0.2932917
36	0x3d57979b	0.052634817
37	0xbd4dab91	-0.050212447
38	0xbe468d55	-0.19389851
39	0x3d3abaea	0.04558841
40	0x3dd6fdc6	0.10497622
41	0x3d9f57e9	0.077804394
42	0xbe411539	-0.18855752
43	0x3e582323	0.21107154
44	0x3e73e3e7	0.23817407
45	0x3d56d09a	0.05244503
46	0x3e2885ec	0.16457337
47	0xbe9a388c	-0.30121267
48	0x3d496555	0.049168903
49	0xbd9fc357	-0.0780093
50	0xbe06aeec	-0.13152665
51	0x3d666072	0.05624432
52	0xbde56b03	-0.112020515
53	0xbdc55dc8	-0.09637028
54	0xbe406d5b	-0.18791716
55	0xbe82015e	-0.25391668
56	0x3e862125	0.26197162
57	0x3e357f29	0.17724289
58	0xbea04855	-0.31305185
59	0x3da5cb20	0.08095384
60	0xbb3e86d7	-0.002907207
61	0x3d60ef00	0.05491543
62	0x3e2bcf85	0.16778381
63	0xbe27bb57	-0.16380058
64	0x3d42bdda	0.047544338
65	0xbdda7e5c	-0.106686324
66	0xbe67feb3	-0.22655754
67	0x3e1884e7	0.14894448
68	0xbe5ed1eb	-0.21759765
69	0xbd9dfd23	-0.077142976
70	0xbe12768c	-0.14303035
71	0x3d9df345	0.077124156
72	0x3e40dd60	0.18834448
73	0x3d19afd2	0.03752119
74	0x3e48ccd6	0.19609389
75	0x3df8fcdb	0.12157603
76	0x3d907e32	0.0705532
77	0xbcfad38b	-0.03061845
78	0xbe563412	-0.20918301
79	0x3e77b9ae	0.24191925
80	0x3dcf7199	0.10129089
81	0xbe2166ba	-0.15761843
82	0x3e535b05	0.2064019
83	0x3d5cda73	0.053919267
84	0x3d35a12d	0.044343162
85	0x3e4ac6fe	0.19802472
86	0xbe7d3c5f	-0.24730061
87	0x3dbc348a	0.091897085
88	0x3d7e15cf	0.062032517
89	0x3e403c90	0.18773103
90	0x3e638d3b	0.22221844
91	0x3dca8727	0.098890595
92	0xbde80572	-0.113291636
93	0xbd1bd319	-0.038043115
94	0xbd37affc	-0.044845566
95	0x3e8d4c96	0.27597493
96	0x3e672e9d	0.22576375
97	0x3dd90c08	0.10597998
98	0xbed201c6	-0.41016978
99	0xbdc57532	-0.09641494
100	0xbe619d9e	-0.22032782
101	0x3d6c9958	0.057763427
102	0xbd7d70fa	-0.06187532
103	0xbe552ddc	-0.20818275
104	0xbebe9431	-0.37222436
105	0xbe851330	-0.259912
106	0x3d98147f	0.07425784
107	0xbe4b7d9a	-0.19872132
108	0x3d810f14	0.06301704
109	0x3e1723b5	0.14759715
110	0xbd4ab10b	-0.049485248
111	0xbe750cca	-0.2393066
112	0x3e8b6e24	0.27232468
113	0x3dccc11c	0.0999777
114	0xbe4340f8	-0.19067752
115	0xbda20c7c	-0.079125375
116	0x3d93a104	0.07208446
117	0xb9d02dd3	-0.00039706993
118	0xbd2d3cf6	-0.042294465
119	0xbbaf1cdc	-0.0053440165
120	0xbd8ee7af	-0.06977784
121	0xbb196268	-0.0023404602
122	0xbe2c0828	-0.16799986
123	0x3df29baa	0.11846097
124	0x3dfbaa72	0.12288369
125	0xbcd307a6	-0.025760483
126	0xbbe44464	-0.0069661606
127	0x3f0a5cee	0.5404805
128	0x3dbf9f67	0.093565755
129	0x3dfe5cd9	0.12420053
130	0xbd4782cc	-0.048708722
131	0x3de9cede	0.1141641
132	0x3d85edff	0.06539535
133	0x3e19e3c2	0.15028289
134	0xbdc43e43	-0.09582188
135	0x3e98124b	0.29701456
136	0x3e84c25a	0.25929528
137	0xbda37a2d	-0.079822876
138	0xbe20fd1a	-0.1572155
139	0xbd5427fd	-0.05179595
140	0x3cd4feb5	0.02600036
141	0xbc6f0a3e	-0.014589844
142	0x3d66ebd7	0.05637726
143	0x3df00f16	0.117216274
144	0xbdb79144	-0.08963254
145	0xbe08466f	-0.13308118
146	0x3e04aab9	0.1295575
147	0x3daef276	0.085423395
148	0x3cff2927	0.031147553
149	0xbe73e73e	-0.2381868
150	0xbe6028fd	-0.21890636
151	0xbe00286a	-0.12515417
152	0x3c92a976	0.01790307
153	0x3ddcf907	0.10789686
154	0xbd5668b1	-0.052345935
155	0xbd182c82	-0.03715182
156	0x3db05034	0.086090475
157	0x3d6486a0	0.05579245
158	0x3e60f0dc	0.2196688
159	0x3ea420d9	0.3205631
160	0x3e11a5da	0.14223424
161	0xbe28c1e9	-0.16480221
162	0xbe69c4af	-0.22828935
163	0xbdb95f6b	-0.09051403
164	0xbdc2f962	-0.09520222
165	0xbe18bed6	-0.14916548
166	0x3d9036fe	0.07041739
167	0xbdf39e29	-0.11895401
168	0xbe479b18	-0.19492757
169	0xbe418335	-0.18897708
170	0xbe0fa297	-0.14026867
171	0xbdfb090b	-0.12257584
172	0x3d0013be	0.031268828
173	0x3d8dd96a	0.06926234
174	0xbd6e58fb	-0.058190327
175	0x3d935b13	0.071951054
176	0xbc1ba9d6	-0.009500941
177	0x3c702275	0.014656653
178	0x3d386bc3	0.045024645
179	0xbe84afcf	-0.2591538
180	0x3cb55358	0.022134468
181	0xbe30ba59	-0.17258586
182	0x3d81b359	0.06333036
183	0xbba826b3	-0.0051315664
184	0xbe0d5dd8	-0.1380533
185	0x3d6b58e3	0.057457816
186	0x3e3d6212	0.18494442
187	0x3d1070d0	0.035263836
188	0x3cd07783	0.025447613
189	0x3daf7a0c	0.085682005
190	0xbd5d2959	-0.05399451
191	0x3e4551d0	0.1926949
192	0x3e35b307	0.17744075
193	0xbd83c2fc	-0.06433675
194	0xbdd27a9f	-0.10277294
195	0x3df6ab45	0.12044386
196	0x3e5c5be2	0.21519426
197	0xbe5c8d24	-0.21538216
198	0xbdad4eca	-0.084622934
199	0xbe1e8a4d	-0.15482445
200	0x3d91b111	0.07113851
201	0x3c31398f	0.010816946
202	0xbdeb36fa	-0.11485095
203	0x3ec27a6a	0.3798402
204	0x3e7007be	0.23440453
205	0x3e77f98e	0.24216291
206	0xbd8a4286	-0.067509696
207	0x3ddf4e81	0.10903645
208	0xbd138d39	-0.036023352
209	0xbe2f5741	-0.17123128
210	0xbb80fb6f	-0.003936223
211	0x3d6e48b2	0.058174796
212	0xbc9176d6	-0.01775686
213	0xbe31e735	-0.17373355
214	0x3dade241	0.0849042
215	0x3e125e65	0.14293821
216	0x3e046628	0.12929595
217	0x3d96ba4d	0.07359753
218	0xbe0fbfbd	-0.14037986
219	0x3cddec7c	0.027090304
220	0x3c804e1d	0.015662247
221	0x3e868d0e	0.2627949
222	0x3e3ecfd6	0.1863397
223	0x3e263807	0.1623231
224	0x3e415e24	0.18883568
225	0xba853541	-0.0010162966
226	0xbda66600	-0.08124924
227	0x3c3f90b7	0.011692218
228	0x3e584769	0.21120991
229	0x3c685026	0.014179265
230	0x3e30a4db	0.17250387
231	0x3e5a97fe	0.21347043
232	0x3d933de4	0.07189539
233	0xbce62275	-0.028092602
234	0x3e8749ba	0.26423436
235	0x3e142719	0.1446804
236	0xbe3ca7ab	-0.18423335
237	0xbd3adb2c	-0.045619175
238	0xbe6714b3	-0.2256649
239	0xbd7efe39	-0.062254164
240	0xbd423ee1	-0.047423247
241	0x3dc4eff5	0.09616081
242	0x3bb3aac8	0.005483005
243	0x3d9c7e6c	0.076413006
244	0x3e4627ee	0.1935117
245	0xbd5f131c	-0.054461583
246	0xbebb3720	-0.36565495
247	0xbd0b00f7	-0.033936467
248	0xbe1b7cd2	-0.15184334
249	0xbc865a94	-0.016400613
250	0x3ec9f17d	0.39442053
251	0x3d70b7fd	0.058769215
252	0xbe053c9a	-0.13011399
253	0x3e48e316	0.19617876
254	0x3e52fa6a	0.20603338
255	0xbe5fb805	-0.21847542

hiden_layers.1.bias f4 [64]
0	0x3d085c79	0.033291314
1	0x3d9c76fa	0.076398805
2	0x3d7286dd	0.059210647
3	0xbdcb199f	-0.09916996
4	0xbe1d293b	-0.1534776
5	0xbd14cd0f	-0.03632837
6	0xbcc0287b	-0.023456803
7	0xbda9a3fa	-0.08283229
8	0xbdb83a25	-0.08995465
9	0xbcdb435d	-0.02676552
10	0x3da19628	0.07889968
11	0xbd2329f1	-0.03983492
12	0x3d0ad017	0.033889856
13	0xbd71db43	-0.059046995
14	0xbe178271	-0.14795853
15	0x3a9dfdbc	0.0012053768
16	0x3db46870	0.08808982
17	0x399407db	0.00028234613
18	0xbda15d4e	-0.078791246
19	0xbd5ab208	-0.05339244
20	0x3d71a2c8	0.05899313
21	0x3d409488	0.04701665
22	0x3d6dd8de	0.05806815
23	0x3e1d278d	0.15347119
24	0xbd98dace	-0.07463609
25	0xbd6ee227	-0.058321144
26	0x3dfb094c	0.122576326
27	0x3d985701	0.0743847
28	0xbe00eb32	-0.1258972
29	0x3c8a8f4a	0.016914029
30	0x3d28b056	0.041183792
31	0xbd5c6dd0	-0.053815663
32	0xbdf2151f	-0.11820435
33	0xbd96b043	-0.07357838
34	0x3dad6ebc	0.084683865
35	0x3da932e0	0.08261657
36	0x3da6b3cc	0.08139762
37	0xbe0a1605	-0.13484962
38	0x3dc917b8	0.09818977
39	0xbe1516d9	-0.14559497
40	0x3dffe3c2	0.12494613
41	0x3da67651	0.08128036
42	0xbd8f4f00	-0.0699749
43	0xbd9991b5	-0.074984945
44	0xbd5f223e	-0.054476015
45	0xbdba981a	-0.09111042
46	0xbdc571c8	-0.09640843
47	0x3d2cf9b8	0.042230338
48	0x3d957fcb	0.07299765
49	0xbda08f23	-0.07839801
50	0xbce08b33	-0.027410125
51	0x3cfa9406	0.030588161
52	0x3bba8d1c	0.005693091
53	0x3d93ffc5	0.072265185
54	0xbd411805	-0.047142047
55	0x3d10b91b	0.03533278
56	0xbd403574	-0.046925977
57	0x3d9a21a1	0.075259455
58	0x3c99495c	0.018711738
59	0x3c3d5fbd	0.01155847
60	0x3d7568c8	0.05991438
61	0xbc0166bc	-0.007898029
62	0xbd27270f	-0.040808734
63	0x3d5180fe	0.051148407

hiden_layers.2.weight f4 [64, 64]
0	0xbdfadc40	-0.122490406
1	0x3eca0cc8	0.39462876
2	0x3eac722e	0.33680862
3	0xbd17c5ae	-0.037053756
4	0xbcf17307	-0.029473795
5	0xbe47767b	-0.1947879
6	0xbe2440d0	-0.16040349
7	0xbefccf38	-0.49376845
8	0xbefb2e79	-0.49058893
9	0xbe94a1f1	-0.290298
10	0x3e281d79	0.16417493
11	0x3d9687ff	0.07350158
12	0xbe0d711d	-0.1381268
13	0x3d2dc261	0.042421702
14	0xbcc78714	-0.024356402
15	0x3e91ed8e	0.28501552
16	0x3e673ea9	0.22582497
17	0x3b9eb0b0	0.00484284
18	0x3cfdad08	0.030966297
19	0xbdb8924f	-0.09012281
20	0x3e1d5bf6	0.15367112
21	0x3e6f9d75	0.23399909
22	0xbe0dbc67	-0.13841401
23	0x3e344285	0.176035
24	0x3dca4468	0.09876329
25	0xbe263cd1	-0.16234137
26	0xbe95b484	-0.29239285
27	0xbdc35351	-0.09537376
28	0x3d62dc49	0.05538586
29	0xbdc0151a	-0.09379025
30	0x3e34d378	0.17658794
31	0x3d3f0fe2	0.046646006
32	0xbdf79800	-0.120895386
33	0xbd807a26	-0.06273298
34	0xbe6d3c74	-0.23167592
35	0xbda352ee	-0.07974802
36	0x3e3cb319	0.18427695
37	0x3c9a1dc7	0.018813027
38	0xbd932b1e	-0.07185958
39	0x3d0fd82b	0.035118263
40	0xbe30bd86	-0.17259797
41	0x3dd4f890	0.10398972
42	0xbda3b95c	-0.07994339
43	0x3bdb9151	0.0067006727
44	0x3dc93bf4	0.09825888
45	0xbdd20260	-0.10254359
46	0x3d96810a	0.07348831
47	0x3e390529	0.18068375
48	0xbb9e663e	-0.0048339656
49	0xbe692ec4	-0.22771746
50	0xbd8f18d2	-0.06987156
51	0xbea37154	-0.319224
52	0x3caad1e0	0.02085203
53	0x3d9b885e	0.07594369
54	0x3d8ee2da	0.06976862
55	0x3e1ae3d6	0.15125975
56	0xbe4d8653	-0.20070772
57	0x3e212515	0.15736802
58	0x3e9ce855	0.30646005
59	0xbe209286	-0.15680894
60	0xbe000b39	-0.12504281
61	0x3d2ba2d3	0.04190333
62	0x3de0c699	0.109753795
63	0x3e6e2a12	0.23258236
64	0x3d9d50e7	0.076814465
65	0xbc52596f	-0.012838705
66	0x3dea0a03	0.11427691
67	0x3e45c8ac	0.19314831
68	0x3e4dbfc6	0.20092687
69	0x3e1daa06	0.1539689
70	0x3eafcbf3	0.34335288
71	0x3e8be397	0.27322075
72	0x3dcb0e1c	0.099148005
73	0x3e13c5eb	0.14430968
74	0x3e437c09	0.19090284
75	0x3db1a2ce	0.08673631
76	0xbd662ff1	-0.056198064
77	0xbdfcdca9	-0.12346775
78	0xbd88d041	-0.06680346
79	0x3dd063a8	0.10175258
80	0xbde2dee8	-0.11077672
81	0xbda75b07	-0.08171659
82	0xbe5fd210	-0.21857476
83	0xbe01f9ab	-0.12692897
84	0x3d9dae6e	0.076992854
85	0xbdfed30f	-0.124426
86	0xbc88824f	-0.016663698
87	0x3d5f8df4	0.054578736
88	0xbd3c54a0	-0.045979142
89	0x3d18d8b7	0.03731605
90	0x3e7bb83e	0.24582002
91	0x3daa78ca	0.0832382
92	0xbdf9678f	-0.12177955
93	0x3d9c7623	0.0763972
94	0xbc480309	-0.012207755
95	0xbd47f045	-0.048813123
96	0x3c5a5467	0.013325787
97	0x3e680b95	0.22660668
98	0xbdd24a2a	-0.10268052
99	0x3e26d5ec	0.16292542
100	0x3e23f4d6	0.16011366
101	0x3d93a6ec	0.07209572
102	0x3ce9a524	0.028521128
103	0xbeaee3d0	-0.34158182
104	0xbe18043a	-0.14845362
105	0xbe0220e1	-0.12707855
106	0x39f7a948	0.00047237636
107	0x3cc2bb9c	0.0237711
108	0x3d843d85	0.064570464
109	0xbc9709bc	-0.018437259
110	0xbd7af4e5	-0.061268706
111	0x3e5af9e6	0.21384391
112	0xbe2d3be0	-0.16917372
113	0x3e85fc52	0.26169068
114	0xbd78597a	-0.060632206
115	0xbdd135ac	-0.10215315
116	0xbe09f5b3	-0.13472633
117	0x3e50e08f	0.20398162
118	0xbdeeac08	-0.11653906
119	0xbe3dbf9b	-0.18530123
120	0x3e50a0d2	0.20373848
121	0xbbbbff5b	-0.005737228
122	0xbdc3139d	-0.09525225
123	0x3f0af5fb	0.54281586
124	0x3d593628	0.053030163
125	0x3e61f4d4	0.22066051
126	0x3e039304	0.12849051
127	0xbe0f9882	-0.14023021
128	0x3e733199	0.23749389
129	0xbe51af5d	-0.20477052
130	0xbe119b41	-0.14219381
131	0xbe4f4890	-0.20242524
132	0x3e1ca692	0.15297917
133	0x3d27034a	0.04077462
134	0xbe828266	-0.2549011
135	0x3d46fbf4	0.048580125
136	0xbddddc98	-0.108330905
137	0x3e5e904f	0.21734737
138	0x3d8c499c	0.068499774
139	0x3e53321d	0.20624585
140	0xbc47db54	-0.012198288
141	0x3e08ff22	0.13378575
142	0xbe5ac570	-0.21364379
143	0x3e4fbcc6	0.20286855
144	0x3dcfed50	0.10152686
145	0xbd81d29f	-0.06339001
146	0x3dbe7e3b	0.0930142
147	0xbe5a8507	-0.21339808
148	0xbe3855c7	-0.18001471
149	0x3de72bd9	0.1128766
150	0x3e824ac6	0.25447673
151	0xbe2565f1	-0.16152169
152	0xbdb4cbd1	-0.088279374
153	0xbd8da0b1	-0.06915415
154	0xbdd09e71	-0.1018647
155	0xbde242b1	-0.110478766
156	0x3e21c0eb	0.15796249
157	0x3cdb359b	0.02675896
158	0x3dd2a64f	0.10285627
159	0x3e73ed0b	0.23820893
160	0xbdd7f7f7	-0.105453424
161	0xbdef1494	-0.11673847
162	0xbce2acd1	-0.027670296
163	0x3e0de7a7	0.138579
164	0x3e1ba530	0.15199733
165	0xbca216ca	-0.019786257
166	0xbe58e784	-0.21182066
167	0x3e630c0d	0.22172566
168	0x3e3a4595	0.18190606
169	0xbca0389e	-0.019558247
170	0xbdb26a92	-0.08711733
171	0xbdb52f70	-0.088469386
172	0x3de64f02	0.11245538
173	0xbd2eebc1	-0.0427053
174	0xbdc62a25	-0.09676007
175	0x3dd170a6	0.10226564
176	0x3e6d8f2e	0.2319915
177	0x3d9b3683	0.07578757
178	0xbdda4278	-0.10657209
179	0x3e56c81a	0.2097477
180	0xbdfb8799	-0.122817226
181	0x3df9d8f0	0.12199581
182	0x3d28ea2f	0.04123896
183	0xbe02fe75	-0.1279238
184	0xbe5b9669	-0.21444096
185	0x3e321315	0.17390092
186	0xbe664bec	-0.224899
187	0xbf084a93	-0.5323879
188	0x3dd1b04f	0.10238706
189	0xbaf89879	-0.0018966339
190	0x3dd17e46	0.10229163
191	0x3e2d1f12	0.16906384
192	0xbd3d9801	-0.04628754
193	0xbe07b1ee	-0.13251469
194	0xbba71849	-0.0050993306
195	0x3dd56434	0.10419503
196	0xbe61e3c5	-0.22059543
197	0xbe232b08	-0.15934384
198	0x3d642a6c	0.05570452
199	0xbe89f415	-0.26944032
200	0x3c8a317d	0.016869301
201	0x3dd9fe92	0.106442586
202	0x3e2c56df	0.16830014
203	0xbe7100bc	-0.23535436
204	0x3dd13f5f	0.10217165
205	0x3d88877b	0.06666466
206	0xbe1006e7	-0.14065133
207	0x3d8d9eb4	0.06915036
208	0x3e0bde0a	0.1365892
209	0xbe639540	-0.22224903
210	0xbe976a95	-0.29573503
211	0xbcd7ce79	-0.026343571
212	0xbdcf92df	-0.10135435
213	0x3c98f8a6	0.018673252
214	0x3e535cc0	0.2064085
215	0xbda3c0a1	-0.079957254
216	0xbe10117e	-0.14069173
217	0xbddc2a89	-0.107503004
218	0x3e16be19	0.14720954
219	0x3dbb99e0	0.09160209
220	0xbd886761	-0.06660343
221	0x3e5adfdd	0.2137446
222	0x3e32ced0	0.17461705
223	0xbe9a6187	-0.30152532
224	0xbea28a7f	-0.3174629
225	0xbe1b083c	-0.1513986
226	0x3e7a2dc5	0.24431522
227	0x3e8bcd78	0.27305198
228	0x3e0a05bb	0.13478749
229	0x3cf84735	0.030307392
230	0x3da096f1	0.0784129
231	0xbe533c36	-0.20628437
232	0x3e58fab2	0.21189383
233	0xbe16981b	-0.14706461
234	0xbd931425	-0.07181577
235	0xbd87b158	-0.066256225
236	0xbcb71d94	-0.022352971
237	0xbe40fc1f	-0.18846177
238	0xbda6d95f	-0.08146929
239	0x3d1b1265	0.03785934
240	0x3c2044b8	0.009782009
241	0xbc3cfbbd	-0.011534628
242	0x3e3a4706	0.18191156
243	0xbde0378b	-0.10948094
244	0xbdb500aa	-0.08838017
245	0xbd804d30	-0.06264722
246	0xbc412e62	-0.011790844
247	0xbd065189	-0.0327926
248	0x3d709ce3	0.05874337
249	0x3cb7439e	0.02237111
250	0xbda1bd7d	-0.0789747
251	0x3e65a885	0.22427566
252	0x3e97372b	0.29534277
253	0xbe214330	-0.15748286
254	0x3e05bed7	0.13061081
255	0x3c5f06c9	0.013612458

hiden_layers.2.bias f4 [64]
0	0x3d51678b	0.051124137
1	0xbd41ae91	-0.04728562
2	0x3aad0710	0.0013200957
3	0x3ddd8568	0.10816461
4	0xbce8d7fd	-0.028423304
5	0x3d818e82	0.06326009
6	0x3c49ac14	0.012309093
7	0x3e76ba89	0.24094595
8	0xbbb3e61f	-0.005490079
9	0xbd70ebc4	-0.058818594
10	0x3d3b2702	0.045691498
11	0x3d88b552	0.06675209
12	0x3d1d7c0f	0.03844839
13	0x3c7d2b86	0.015452271
14	0xbd663eb5	-0.056212146
15	0xbd8ad553	-0.067789696
16	0x3caca1bf	0.02107322
17	0xbdf66f93	-0.12033
18	0xbdafdf20	-0.085874796
19	0x3d498a79	0.049204323
20	0xbdc6aa46	-0.09700446
21	0xbdea2791	-0.11433328
22	0x3e2666b4	0.16250116
23	0xbe264a73	-0.16239338
24	0xbd63e521	-0.055638436
25	0x3cbee40a	0.023302097
26	0xbd8d0c5c	-0.06887123
27	0x3d6aa5c4	0.057286993
28	0xbd9380e3	-0.072023176
29	0x3da98775	0.082777895
30	0x3d9ddbee	0.07707964
31	0xbe0262e4	-0.12733036
32	0xbd4603c7	-0.048343446
33	0xbd45854d	-0.04822283
34	0x3ce21ecc	0.027602576
35	0xbd2b7b1a	-0.041865446
36	0x3d96fe98	0.07372779
37	0x3e11002a	0.14160219
38	0x3bf483d9	0.0074620065
39	0x3d8a97e9	0.06767256
40	0x3d17f226	0.037096165
41	0x3d41f640	0.047353983
42	0x3c8204ec	0.015871488
43	0x3d4845e0	0.048894763
44	0x3dc55854	0.09635988
45	0xbd91daab	-0.07121786
46	0xbcab808e	-0.020935323
47	0xbcc2b0af	-0.02376589
48	0x3c87b64a	0.016566414
49	0x3c9e6a5d	0.019337827
50	0x3ebb3c96	0.3656966
51	0x3ad910eb	0.0016560828
52	0xbd6484fe	-0.055790894
53	0xbda0d175	-0.07852451
54	0xbe161069	-0.14654697
55	0xbd811a72	-0.06303872
56	0xbda3ee40	-0.08004427
57	0xbc8d1211	-0.017220529
58	0x3d6f30c6	0.058396123
59	0x3c0ee3c2	0.008721294
60	0x3db42994	0.08796993
61	0xbd880e3e	-0.066433415
62	0xbd4fcf4b	-0.0507348
63	0xbd896586	-0.06708817

hiden_layers.3.weight f4 [64, 64]
0	0xbe68dcf0	-0.22740531
1	0x3edad33b	0.4273928
2	0x3e1a945a	0.15095654
3	0x3cd745bf	0.026278375
4	0x3da624f1	0.08112515
5	0x3c9b0dd8	0.0189275
6	0xbd95b5d1	-0.07310069
7	0xbe71fe51	-0.2363217
8	0x3d0ea2f4	0.034823373
9	0x3e0c512f	0.13702844
10	0x3e6ef049	0.23333849
11	0xbd5161f9	-0.051118825
12	0x3e5cf319	0.2157711
13	0xbe1db451	-0.15400817
14	0x3e6d835b	0.2319464
15	0xbe300511	-0.17189433
16	0xbe16647e	-0.14686772
17	0xbe52f3d6	-0.20600829
18	0x3e39c6af	0.18142198
19	0xbe176269	-0.14783634
20	0x3edb5e8e	0.42845577
21	0xbea91ddf	-0.33030602
22	0x3e373681	0.17891885
23	0x3e3a6a05	0.18204506
24	0x3e035b0f	0.12827705
25	0x3e08983a	0.1333932
26	0xbdad63d0	-0.08466303
27	0x3b249ee8	0.002511913
28	0x3e7e1ca3	0.24815612
29	0x3e446591	0.1917937
30	0xbd80bdf9	-0.062862344
31	0x3e98153e	0.29703707
32	0x3d4f5732	0.050620265
33	0x3d42e720	0.0475837
34	0xbdce2210	-0.10065091
35	0x3e1c3a86	0.152567
36	0x3d786fa8	0.06065336
37	0x3db5ba68	0.08873445
38	0x3dad3e78	0.084591806
39	0xbd85003c	-0.06494185
40	0x3cf6c4d3	0.03012315
41	0x3db0834a	0.086187914
42	0xbe6edd31	-0.23326565
43	0xbd9b56d0	-0.075849175
44	0x3dfde509	0.123972006
45	0x3e967ea3	0.2939349
46	0x3ae7925d	0.0017667521
47	0xbdea95be	-0.11454342
48	0x3e601f07	0.21886836
49	0xbe79c50b	-0.24391572
50	0xbdb06d44	-0.08614591
51	0xbe45e650	-0.19326138
52	0x3e5d36fd	0.21603008
53	0x3e47835b	0.19483702
54	0x3dc56b44	0.096396
55	0xbdb8aa76	-0.09016888
56	0x3d824148	0.06360108
57	0x3da51dd3	0.08062329
58	0xbe734640	-0.23757267
59	0x3d880a96	0.06642644
60	0xbc1d51ff	-0.009602069
61	0x3e0a3b70	0.13499236
62	0xbdb0bae7	-0.08629399
63	0x3e0463ba	0.12928668
64	0xbe541543	-0.20711236
65	0xbbc17898	-0.0059042685
66	0xbc233624	-0.009961639
67	0x3dcee453	0.10102143
68	0xbcdfe62a	-0.02733143
69	0x3deb9f2e	0.115049705
70	0xbe821f19	-0.2541435
71	0x3c320dbd	0.010867533
72	0xbc059365	-0.008152817
73	0xbe4aaa54	-0.19791538
74	0x3e6fa8b1	0.23404194
75	0x3e5105b4	0.20412332
76	0x3e58ef94	0.21185142
77	0x3b1feec1	0.0024403783
78	0xbdff83dd	-0.12476323
79	0x3e32aba2	0.17448285
80	0x3d9b2bfe	0.0757675
81	0xbc40f47c	-0.01177704
82	0x3e3fe41a	0.18739358
83	0x3e8a65b9	0.27030733
84	0x3e36ed37	0.17863928
85	0xbe245588	-0.16048253
86	0xbd041b5f	-0.032252666
87	0x3e3a2fa5	0.18182237
88	0xbdc7a52d	-0.09748302
89	0x3d86e48f	0.06586563
90	0x3e3ebf50	0.18627667
91	0xbe540a04	-0.20706946
92	0x3e2b6e0f	0.16741203
93	0xbe0ed14f	-0.13947032
94	0xbec122d6	-0.3772189
95	0x3e6443eb	0.22291534
96	0x3d97f61e	0.0741999
97	0xbe110223	-0.14160971
98	0x3f003a01	0.50088507
99	0x3da0e7cb	0.07856711
100	0xbd56d1e8	-0.052446276
101	0xbe8d7738	-0.2763002
102	0xbe192ab4	-0.14957696
103	0x3e02b034	0.12762529
104	0x3da6f582	0.08152296
105	0x3ce30a2c	0.027714811
106	0xbd8dfd16	-0.06933038
107	0x3e877a28	0.26460385
108	0x3dc13382	0.094336525
109	0x3d6836a6	0.05669274
110	0x3dd6851f	0.104746096
111	0x3c7dfce6	0.01550219
112	0x3e5135a2	0.20430616
113	0xbe144a2a	-0.14481416
114	0xbe38335b	-0.1798834
115	0x3e1701b7	0.14746748
116	0x3e4f0de5	0.20220144
117	0x3defe8a2	0.11714293
118	0xbdafea35	-0.08589593
119	0x3e0a98ef	0.13534902
120	0x3e9584ce	0.29202884
121	0xbdf38160	-0.11889911
122	0x3e089185	0.13336761
123	0xbbc39e90	-0.00596983
124	0x3e01a084	0.12658888
125	0x3d47e467	0.048801806
126	0x3b701808	0.0036635417
127	0x3e785c4f	0.24253963
128	0x3e1637a1	0.14669658
129	0x3e2ff7a4	0.17184311
130	0xbde8e003	-0.11370852
131	0xbe04eb32	-0.12980345
132	0xbe83ffd7	-0.25781128
133	0x3e4b9da4	0.19884354
134	0x3e33fb42	0.17576316
135	0xbddd7a72	-0.1081437
136	0x3e15509c	0.14581531
137	0xbdc19579	-0.09452338
138	0xbd939e5b	-0.07207938
139	0x3db90ee4	0.09036043
140	0xbd99ffbe	-0.07519482
141	0xbce3e659	-0.0278198
142	0x3e105232	0.14093855
143	0x3cac3633	0.021021938
144	0xbca5c0eb	-0.020233592
145	0x3e12a980	0.14322472
146	0xbe38c7e1	-0.18044998
147	0xbe221083	-0.15826611
148	0x3c9e42b2	0.019318912
149	0x3d8f1a1d	0.069874026
150	0xbdf31791	-0.11869729
151	0x3e11602c	0.14196843
152	0x3d6180e9	0.05505458
153	0x3ce87f63	0.028381055
154	0xbe2c889c	-0.16848987
155	0xbd37fec1	-0.044920687
156	0x3c9c6c87	0.019094719
157	0xbdc8c66a	-0.098034695
158	0xbe02ff37	-0.12792669
159	0xbd8478b6	-0.06468336
160	0xbe7b59a6	-0.24545917
161	0xbd4984b5	-0.049198825
162	0x3cc73168	0.02431555
163	0x3d446187	0.04794457
164	0xbd3dd20c	-0.046342894
165	0xbc70d627	-0.014699495
166	0x3d717d63	0.05895747
167	0x3d77cfb2	0.060500808
168	0x3e963078	0.29333854
169	0xbe41aa3d	-0.18912597
170	0xbde9b0cc	-0.114106745
171	0x3d613ec1	0.054991487
172	0x3c69a667	0.014260865
173	0xbe973331	-0.29531243
174	0x3e49becd	0.19701691
175	0xbe1155be	-0.14192864
176	0xbd9a59a3	-0.07536628
177	0xbe2212ae	-0.15827438
178	0x3e8c8835	0.27447668
179	0x3e10de06	0.14147195
180	0xbb42ba0b	-0.002971294
181	0xbcd7f9bd	-0.026364202
182	0xbe25649d	-0.16151662
183	0xbe69dbbe	-0.22837731
184	0xbe245277	-0.16047083
185	0xbe341ca4	-0.1758905
186	0x3e09e51b	0.13466303
187	0x3e18cd4e	0.14922068
188	0x3e143b72	0.14475802
189	0xbd57b24c	-0.05266027
190	0x3bb88909	0.0056315702
191	0x3decd647	0.11564308
192	0x3da3e183	0.08001997
193	0xbde792c7	-0.113072924
194	0x3c9023e1	0.017595233
195	0x3a225fca	0.0006194083
196	0xbe1ceba9	-0.15324272
197	0xbdb9c693	-0.09071078
198	0x3e3526d2	0.1769059
199	0xbe6bb3df	-0.23017834
200	0x3d88d13e	0.06680535
201	0xbe1e905d	-0.15484758
202	0xbe78fe58	-0.24315774
203	0xbe22f352	-0.15913132
204	0xbe517363	-0.20454173
205	0xbe5a8940	-0.21341419
206	0xbe044774	-0.12917882
207	0x3cd0cf0a	0.025489349
208	0xbe370835	-0.17874224
209	0x3d86d2bd	0.06583164
210	0x3cab8afc	0.020940296
211	0xbdb6cff1	-0.089263804
212	0x3e30c7f4	0.17263776
213	0xbcbac4f2	-0.022798989
214	0xbd5623da	-0.052280284
215	0xbd32b313	-0.04362781
216	0x3da480dc	0.080323905
217	0x3dc704fb	0.09717747
218	0x3d94c422	0.07263972
219	0x3e689752	0.22713974
220	0x3e393488	0.18086445
221	0xbe54927a	-0.20759001
222	0x3d1b132b	0.037860077
223	0x3d3452b7	0.044024196
224	0x3e7ef9dd	0.24900003
225	0x3e8fdfb2	0.28100353
226	0x3e24cff8	0.16094959
227	0xbe512b05	-0.20426567
228	0xbe9644bd	-0.29349318
229	0xbd78c733	-0.060736846
230	0xbe05cf5b	-0.13067381
231	0xbdd90ebb	-0.10598513
232	0x3ce742d0	0.0282301
233	0xbefe0df2	-0.49620014
234	0xbe9e152b	-0.30875525
235	0x3d3958d8	0.045250744
236	0xbd0c024c	-0.034181878
237	0xbe0c05cb	-0.13674085
238	0x3e712e8c	0.23552912
239	0x3c9acb65	0.018895814
240	0xbdb92a05	-0.09041218
241	0x3d726ab5	0.059183795
242	0xbd25e7cd	-0.040504266
243	0xbe7ff219	-0.24994697
244	0x3ce11fd8	0.027481005
245	0x3e0f3b7c	0.13987535
246	0xbd7c730a	-0.061633147
247	0x3ed6c96a	0.41950542
248	0x3cfcefcb	0.030876061
249	0x3df60ffb	0.12014767
250	0x3e330487	0.17482196
251	0xbde18392	-0.11011423
252	0xbd5ac869	-0.053413782
253	0xbe633daf	-0.22191499
254	0xbe1c85df	-0.15285443
255	0xbd656e70	-0.056013525

hiden_layers.3.bias f4 [64]
0	0xbcdca454	-0.026933827
1	0xbc501f6a	-0.012702802
2	0x3dd7891d	0.10524199
3	0xbcf7d4b5	-0.030252794
4	0xbd47f6a5	-0.048819203
5	0xbdc5c31d	-0.096563555
6	0x3d5e4fb9	0.05427525
7	0xbc67ff85	-0.014160042
8	0xbe0d52b5	-0.13801081
9	0x3d82c9c4	0.0638614
10	0x3e4aa981	0.19791223
11	0xbd400364	-0.046878234
12	0x3e162f96	0.1466659
13	0xbcc20e86	-0.023688566
14	0xbd3f2fbb	-0.04667638
15	0xbde66274	-0.11249247
16	0x3bd966f6	0.0066345884
17	0x3def2b3b	0.116781674
18	0xbd49ab8e	-0.049235873
19	0x3c8df23f	0.017327426
20	0x3e43ebea	0.19132963
21	0xbe19cfff	-0.1502075
22	0x3b176544	0.002310113
23	0x3bcfdbab	0.006343325
24	0xbdd6f2d1	-0.10495532
25	0x3d149f61	0.036284808
26	0xbe2ee2f1	-0.17078759
27	0xbb489c67	-0.0030610801
28	0x3c0d3e75	0.008620848
29	0xbd17520f	-0.03694349
30	0x3d191272	0.037371106
31	0x3d6ed05f	0.058304187
32	0xbd85c6a6	-0.0653203
33	0x3cbfcd40	0.0234133
34	0xbce29d97	-0.027663035
35	0xbd802eb6	-0.062589094
36	0x3dd2d2dc	0.102941245
37	0x3e7a7ef1	0.24462487
38	0xbcf12b78	-0.029439673
39	0xbcad3839	-0.021144973
40	0xbd2c077f	-0.041999336
41	0x3d20e7c9	0.039283548
42	0x3d910db2	0.0708269
43	0xbd0d685f	-0.034523364
44	0xbda0ec5a	-0.078575805
45	0xbde52ba5	-0.11189965
46	0x3d703997	0.058648672
47	0x3d4b1891	0.049583975
48	0x3da208c4	0.07911828
49	0xbd7693e8	-0.06019965
50	0xbdd748a3	-0.10511901
51	0xbd7e5995	-0.06209715
52	0xbd4142ff	-0.047183033
53	0xbd3551ae	-0.04426735
54	0x3d9669ff	0.07344436
55	0xbdff0479	-0.12452025
56	0x3c700335	0.014649202
57	0xbdbb2dc5	-0.09139589
58	0xbdcf60fc	-0.1012592
59	0x3d84a590	0.06476891
60	0xbdcedc79	-0.101006456
61	0x3ceb3f06	0.028716575
62	0x3d8f0771	0.06983841
63	0xbc102a33	-0.008799124

hiden_layers.4.weight f4 [64, 64]
0	0xbe59ff55	-0.21288808
1	0x3cb4494e	0.02200761
2	0x3c956bf7	0.018239958
3	0xbe4bcb71	-0.19901825
4	0xbd053326	-0.032519482
5	0xbd0a76ee	-0.033804826
6	0xbeb141f8	-0.34620643
7	0x3e874b2e	0.26424545
8	0x3d47d513	0.048787188
9	0x3b1f0993	0.0024267181
10	0xbd51232d	-0.051058937
11	0x3d5d14ae	0.0539748
12	0x3dd5c8fa	0.10438724
13	0xbe13359b	-0.14375918
14	0xbe292e75	-0.16521628
15	0xbd69cf09	-0.05708221
16	0xbd1c2d02	-0.03812886
17	0xbcaa75b4	-0.020808078
18	0x3e2265c6	0.15859136
19	0x3eb1f406	0.34756488
20	0xbeac61f6	-0.33668488
21	0x3d741d16	0.05959805
22	0xbe72a7ea	-0.23696867
23	0xbd6c561d	-0.05769931
24	0xbc45a970	-0.012064323
25	0xbd91fe4f	-0.07128584
26	0x3dbb49f1	0.091449626
27	0x3e296b5e	0.16544864
28	0xbd60f2dd	-0.054919112
29	0xbe297bda	-0.16551152
30	0xbdce3a47	-0.10069709
31	0xbb1098a1	-0.002206363
32	0x3e0e5c88	0.13902485
33	0xbd21d16e	-0.03950637
34	0x3e13fc78	0.14451778
35	0xbdac5004	-0.08413699
36	0x3e359a89	0.17734732
37	0x3c10ad1f	0.008830338
38	0xb9e98785	-0.00044542193
39	0xbda84c5f	-0.08217692
40	0xbe4b8b0b	-0.1987726
41	0x3d37ac44	0.04484202
42	0x3e59349e	0.21211478
43	0x3dd437c2	0.103621975
44	0xbb3d82f7	-0.0028917172
45	0x3eabd585	0.3356134
46	0x3efc03ea	0.49221736
47	0xbe3bfd19	-0.18358268
48	0xbe6f54ab	-0.23372142
49	0xbe541309	-0.20710386
50	0x3dc24486	0.09485726
51	0xbda91ec1	-0.08257819
52	0xbe130e78	-0.14360988
53	0x3e4e8dba	0.20171252
54	0x3d92697a	0.07149024
55	0xbf0054c2	-0.5012933
56	0x3df295cd	0.118449785
57	0x3ab28d0f	0.0013622361
58	0xbe85edaa	-0.26157886
59	0xbe58d2e4	-0.21174198
60	0x3e7ac190	0.244879
61	0xbe38937b	-0.1802501
62	0x3d09035c	0.03345047
63	0xbe6afd71	-0.22948243
64	0x3cb4abdd	0.022054607
65	0xbed0a8ac	-0.40753686
66	0xbda2b7ad	-0.079451896
67	0x3d3eec67	0.04661217
68	0xbe4fd8c8	-0.20297539
69	0x3d4fa55f	0.05069482
70	0xbe9d906b	-0.30774245
71	0xbdd7cb00	-0.10536766
72	0xbcf09d09	-0.029371755
73	0xbdc99767	-0.09843331
74	0x3d862aa7	0.06551104
75	0xbe031dc8	-0.1280433
76	0x3c8f9586	0.017527353
77	0x3e0bc4d2	0.136493
78	0xbdfc34ae	-0.12314735
79	0x3d3f4031	0.046692077
80	0xbee6ca28	-0.45076108
81	0xbdaa6e9a	-0.08321877
82	0x3ef0d804	0.47039807
83	0x3e7a267a	0.2442874
84	0x3e2799b5	0.16367228
85	0xbd03086c	-0.031990454
86	0x3f04e675	0.5191415
87	0x3dbf540b	0.09342202
88	0xbe82ef82	-0.25573355
89	0xbe9c9bf4	-0.30587733
90	0xbdcb714a	-0.099337175
91	0x3e3d1943	0.18466668
92	0xbdc74be6	-0.09731273
93	0xbdef2ef9	-0.11678881
94	0xbeb045b4	-0.3442818
95	0x3e0a78d0	0.13522649
96	0x3e33c532	0.17555693
97	0xbd0f7610	-0.035024703
98	0xbced466b	-0.028964242
99	0xbcacdfe9	-0.021102862
100	0xbdb0cfd0	-0.08633387
101	0xbe2da8a6	-0.16958866
102	0x3d0d46f7	0.034491505
103	0x3d88b841	0.06675769
104	0x3e064091	0.13110568
105	0xbe8fc51f	-0.2808008
106	0x3da0f59e	0.07859348
107	0x3eb964b6	0.3620965
108	0xbde4a357	-0.11163967
109	0x3e8058e2	0.25067812
110	0xb7aa0c7a	-2.0271389e-05
111	0xbd18dfea	-0.037322916
112	0xbe600fa8	-0.21880972
113	0x3e9524ca	0.2912963
114	0xbe35aa51	-0.17740752
115	0xbdec9764	-0.11552313
116	0x3d0b6f18	0.034041494
117	0xbdbaf7bd	-0.091292836
118	0x3e8b24e6	0.2717659
119	0xbdadd865	-0.084885396
120	0x3c9dca5e	0.019261535
121	0xbe3c6939	-0.18399514
122	0x3dcc7789	0.09983737
123	0x3be22f22	0.0069025913
124	0x3e141d2c	0.14464253
125	0xbe4274ab	-0.18989818
126	0x3dc273fe	0.0949478
127	0x3e27d6eb	0.16390578
128	0xbc4d4cf0	-0.01253055
129	0xbd89d1b3	-0.0672945
130	0xbe4f2405	-0.20228584
131	0xbe012d91	-0.12615038
132	0x3b240de5	0.0025032696
133	0xbe282cdf	-0.16423367
134	0xbe60316d	-0.21893854
135	0x3d483bd2	0.048885174
136	0x3e12750e	0.14302465
137	0xbe8d0c6d	-0.27548543
138	0xbd0be0a6	-0.03414979
139	0xbe05965a	-0.13045636
140	0x3d15ceb8	0.036574095
141	0x3e86d9e2	0.26338106
142	0x3c89c671	0.016818257
143	0xbc37bd56	-0.011214575
144	0xbe32fd4a	-0.17479435
145	0x3e16cedf	0.14727353
146	0xbd8b4356	-0.06799953
147	0x3e2c6601	0.16835786
148	0xbda34608	-0.07972342
149	0xbe85d4b8	-0.26138854
150	0xbe59c4d4	-0.2126649
151	0xbe349cb7	-0.17637907
152	0xbe5275b8	-0.20552719
153	0xbe5d5e14	-0.21617919
154	0x3d8cd104	0.06875804
155	0x3e294528	0.16530287
156	0xbd937b14	-0.0720121
157	0x3e8ca775	0.2747151
158	0xbe866d3a	-0.26255208
159	0x3e222874	0.15835744
160	0xbe70c5f7	-0.23513018
161	0xbdddd0c6	-0.10830836
162	0xbe020c4c	-0.12700003
163	0x3e6937dc	0.22775215
164	0xbe02dc55	-0.12779362
165	0x3eb18a4e	0.3467583
166	0xbd12a0a3	-0.035797726
167	0x3e72a6de	0.23696467
168	0x3e060362	0.13087228
169	0xbc8c0c68	-0.01709576
170	0xbeb237ad	-0.34808102
171	0x3d751822	0.059837468
172	0xbca1c471	-0.01974699
173	0x3d5ec640	0.054388285
174	0x3d455a80	0.04818201
175	0x3e5b1124	0.21393257
176	0x3df33612	0.118755475
177	0x3dd27b7e	0.102774605
178	0x3ebb12cb	0.36537775
179	0xbe7b68d4	-0.24551708
180	0xbe13a12e	-0.14416954
181	0x3e86e7e4	0.26348794
182	0x3c42dc0d	0.0118932845
183	0x3d8186f7	0.063245706
184	0x3c64ba55	0.013960441
185	0x3e928871	0.28619722
186	0x3e4f45fa	0.20241538
187	0x3e53f96d	0.20700617
188	0xbd367569	-0.044545565
189	0x3d136d9b	0.0359932
190	0x3d374e3d	0.04475235
191	0x3e87e2d0	0.26540232
192	0x3da8f2bf	0.08249425
193	0xbd1095cd	-0.03529911
194	0xbc8d73f9	-0.017267214
195	0x3e865938	0.26239944
196	0x3e488d1b	0.19585077
197	0x3d1c2616	0.03812226
198	0x3d5effdd	0.05444323
199	0xbe2f1a7a	-0.17099944
200	0x3d165f9e	0.03671228
201	0xbd36a9a9	-0.044595394
202	0x3e8f173f	0.27947423
203	0x3e7d97c3	0.24764924
204	0x3d582c5b	0.052776676
205	0xbe2c2492	-0.16810825
206	0x3ea86383	0.3288842
207	0x3e855065	0.260379
208	0x3e059005	0.1304322
209	0xbcffd687	-0.031230224
210	0xbed3876f	-0.41314265
211	0xbeb112b7	-0.3458459
212	0x3d08d1b0	0.0334031
213	0x3d4db79a	0.050223924
214	0x3e2a92fc	0.16657633
215	0x3e2e3797	0.17013393
216	0x3e52db0f	0.20591377
217	0xbe99d629	-0.30046204
218	0x3d9b6ea8	0.075894654
219	0xbdc3faa3	-0.095692895
220	0xbd888df1	-0.06667698
221	0x3d6593a2	0.056048997
222	0xbd8e8f0e	-0.06960879
223	0xbe7a5cdf	-0.2444949
224	0xbd5e5037	-0.054275718
225	0x3da27dc3	0.079341434
226	0xbe14342d	-0.14473028
227	0xbe2d2d91	-0.16911913
228	0x3e4858c6	0.19565114
229	0xbd637a85	-0.055536766
230	0xbd7f75af	-0.06236809
231	0xbbdc0b63	-0.0067152246
232	0xbd4a237b	-0.049350243
233	0x3d0ff575	0.035146195
234	0xbe46b40d	-0.19404621
235	0x3e4f41fc	0.20240015
236	0x3dfee8f2	0.124467745
237	0xbdf61eb6	-0.120175764
238	0xbe162378	-0.14661968
239	0xbe1a8e8e	-0.15093443
240	0x3dec8082	0.115479484
241	0x3e1d8406	0.15382394
242	0xbe0178f8	-0.12643802
243	0x3e1acb0b	0.15116517
244	0x3c5f07cc	0.013612699
245	0x3dd866c5	0.10566477
246	0x3d926d8e	0.07149802
247	0x3e3c81f9	0.18408956
248	0xbe85cbb9	-0.2613199
249	0xbda52acf	-0.08064806
250	0x3e217fbf	0.15771388
251	0x3def3dde	0.11681722
252	0x3e0c1a95	0.13682015
253	0xbdb2deb6	-0.08733885
254	0x3ea6e966	0.32599944
255	0x3e609f81	0.21935846

hiden_layers.4.bias f4 [64]
0	0xbdc8a384	-0.09796813
1	0x3daccb17	0.08437174
2	0xbc4e7446	-0.012600964
3	0xbbae58a7	-0.005320627
4	0x3c9e95f9	0.019358622
5	0xbc99ca25	-0.018773148
6	0x3d3ec18e	0.046571307
7	0xbc09d9da	-0.008413756
8	0x3d449e37	0.048002448
9	0x3e46ea41	0.19425298
10	0xbd694eda	-0.056959964
11	0x3dd64f8e	0.104643926
12	0x3da01023	0.07815578
13	0xbc7a5656	-0.015279373
14	0xbc69f145	-0.014278715
15	0x3d067b98	0.032832712
16	0x3d8931d1	0.06698955
17	0x3ccc8727	0.02496679
18	0x3ac8b5ef	0.001531301
19	0xbce33e9f	-0.027739821
20	0x3e01f4ac	0.12690991
21	0x3dcf71d0	0.1012913
22	0xbda0dada	-0.078542426
23	0xbcd719e4	-0.026257463
24	0x3d99889b	0.074967586
25	0x3def0369	0.11670572
26	0xbe2ecb2b	-0.1706969
27	0xbc6afef9	-0.014343017
28	0xbd353515	-0.044240076
29	0x3c40dc96	0.011771342
30	0x3d3e4d91	0.04646069
31	0x3d2836a7	0.041067746
32	0xbbedb1cb	-0.0072538606
33	0xbc1a009b	-0.009399558
34	0xbcffa64c	-0.031207226
35	0xbc16387d	-0.009168741
36	0xbd9e131e	-0.0771849
37	0x3d0ce508	0.03439811
38	0x3b6dffb9	0.0036315753
39	0xbda97082	-0.08273412
40	0xbdd593ae	-0.10428558
41	0x3e6e53b3	0.23274116
42	0xbbcc465b	-0.006233973
43	0x3b8203e8	0.003967751
44	0xbd8431e1	-0.06454826
45	0x3eb1b322	0.3470698
46	0xbe1a2710	-0.15053964
47	0xbba48bde	-0.0050215563
48	0x3dc18e70	0.09450996
49	0xbe0d4ff7	-0.13800035
50	0x3cd31533	0.025766945
51	0x3e0583e2	0.1303859
52	0xbca61deb	-0.020277938
53	0x3dc493fe	0.0959854
54	0x3e0d2f74	0.13787633
55	0x3d07b6c5	0.033133287
56	0xbe39842c	-0.18116826
57	0xbd2f473f	-0.042792555
58	0xbd9a3788	-0.07530123
59	0xbd22059f	-0.039556142
60	0x3c08a68c	0.008340489
61	0x3cac90cd	0.02106514
62	0x3e2dae3c	0.16960996
63	0xbaeecb35	-0.0018218519
