results/1_first_try/epoch900/model_weights.pth (torch, 484214 bytes, 88 tensors)

init_layer.0.weight f4 [64, 3]
000000 5c 3d 12 be 14 36 92 bd 46 c0 bb 3d ca 50 82 3e
       -0.14281219 -0.07139221 0.091675326 0.25452262
000010 24 e5 dc 3c e3 74 53 bc 14 d4 ef bd 69 31 82 be
       0.026964732 -0.012906286 -0.117103726 -0.25428322
000020 31 15 cb bc cf 66 93 3e a5 1f 67 3d 57 55 3f 3c
       -0.024790378 0.28789374 0.056426663 0.011678061
000030 9e 80 ec bb 5e ff ac 3e d0 be 17 3d c0 75 14 be
       -0.007217481 0.3378858 0.037047207 -0.14498043
000040 b3 1b c1 be b0 61 48 3d d2 b7 21 3e b6 bd bc 3d
       -0.37716445 0.048921287 0.15792778 0.09215872
000050 1b 9a 45 3e 6d c7 9c 3e f9 e2 5c 3e dd 91 0c 3e
       0.19297068 0.306209 0.21570958 0.13727517
000060 06 d3 88 3e e4 a4 bf be 43 1e dd 3c 71 54 45 be
       0.26723498 -0.3743049 0.026991969 -0.19270493
000070 bf 0a 4a be 08 a1 19 3e b5 c1 8c be f9 67 ed 3b
       -0.19730662 0.15002835 -0.27491537 0.0072450605
000080 54 ca fc 3c 41 48 f5 3d 06 22 8d 3e 42 df 56 bd
       0.030858196 0.11976672 0.2756502 -0.05245901
000090 d8 f4 75 bd 62 48 3c be cf 5b a3 ba 5e 1f d4 bd
       -0.060047954 -0.18386987 -0.0012463274 -0.10357545
0000a0 46 6e 3b 3c f4 98 c6 3d 29 bc 1e 3e 5d 84 a7 be
       0.011439865 0.09697142 0.15501465 -0.32718173
0000b0 8a db 38 bc 0e b7 73 3e dd 6e 78 be d6 49 b1 bd
       -0.011282811 0.23800299 -0.24261041 -0.08656661
0000c0 55 2b 9e 3c cd 07 0b be c7 e7 47 3d 46 cb 98 3e
       0.019307772 -0.13577195 0.048805024 0.29842585
0000d0 ca a6 81 3e d9 2b c4 bd 5b 29 2e 3e 00 00 14 3a
       0.25322562 -0.09578676 0.17007963 0.0005645752
0000e0 29 60 1a be 6f 62 83 be 2d 71 1f 3e dd 5f 03 be
       -0.15075745 -0.25661036 0.15570517 -0.12829538
0000f0 97 72 4e 3e 39 0b 0a be 90 a7 0a bd a9 2d a5 3e
       0.201609 -0.13480844 -0.033851206 0.32261398
000100 fc 18 07 bc c5 51 40 bd 64 05 d5 bc a7 52 ab be
       -0.008245703 -0.04695298 -0.026003547 -0.33461496
000110 97 99 74 3b a4 36 e0 bd 1b 93 63 3e 6e 85 ee bb
       0.0037322992 -0.10947922 0.22224085 -0.0072790897
000120 7e 05 0f bd 5b 3f 19 be 15 36 c0 3d b9 f4 d6 bd
       -0.034917347 -0.14965574 0.09385315 -0.10495896
000130 26 c4 87 3e dc 21 20 bd 92 76 b7 3d 24 26 9d 3e
       0.26516837 -0.03909479 0.08958162 0.3069316
000140 bd 4d 2c 3e 2c 7a 3c be f9 c1 8d be 0d 6a 07 3d
       0.1682653 -0.1840598 -0.27687052 0.033060122
000150 00 98 d8 bc 04 97 a5 3c be a2 86 bd 64 a5 d6 3d
       -0.026439667 0.020213611 -0.06574009 0.104807645
000160 3a 30 b2 be a6 3f 0d 3d d7 fd b2 be 0f 28 17 be
       -0.3480242 0.034484528 -0.3495929 -0.14761375
000170 20 e0 20 bd 91 a4 20 be fe 54 d8 3d 6f f4 97 3d
       -0.039276242 -0.15687777 0.10563086 0.07419669
000180 06 d9 e0 bd ed 42 8b 3e 16 23 04 3e ce 42 a5 be
       -0.10978894 0.27199498 0.12904009 -0.3227753
000190 7c c0 a2 3e e7 e3 0d bd 06 b9 93 3d 30 f8 1b be
       0.3178748 -0.034641173 0.07213025 -0.15231395
0001a0 07 76 93 bc 5e ac 05 be e7 4b 7b be 60 26 e4 bd
       -0.018000616 -0.13054034 -0.24540673 -0.11140132
0001b0 55 d0 d7 bd dd f5 34 3c 26 15 99 3c 64 7e 43 be
       -0.10537783 0.0110449465 0.018686842 -0.19091183
0001c0 23 ea 92 bd 86 89 b4 3a 83 59 32 3e 26 ae 5c be
       -0.07173564 0.0013773895 0.17416959 -0.21550807
0001d0 c3 64 0c 3c be 1b 9e be 3b 7c 20 3e 20 19 be 3d
       0.008568945 -0.3088054 0.1567239 0.09282136
0001e0 a7 e6 6e 3d 7e b2 0f 3d 2f 58 1d be 04 b1 05 be
       0.058325436 0.035082333 -0.1536567 -0.13055807
0001f0 6b fa 06 bd e7 32 05 be 87 48 1b 3d 82 08 17 be
       -0.03295366 -0.13007699 0.037910964 -0.14749339
000200 c6 d6 e6 3d 32 89 8f 3d b9 46 82 bd 4c 84 80 3d
       0.112714335 0.0700859 -0.063611455 0.062752336
000210 3d d2 2c 3e a9 e7 8b be 8d fa ac bd 96 29 ba be
       0.16877075 -0.2732518 -0.08446226 -0.36359853
000220 67 28 73 be aa f6 a0 3d 74 a2 36 bd e1 0c 7a be
       -0.23745881 0.078595474 -0.04458852 -0.24418975
000230 41 20 10 3d 47 f6 65 3d e0 05 91 3e 36 f8 2a 3c
       0.03518701 0.05614307 0.28324795 0.010435155
000240 2c a9 34 3e 3c 96 a2 3e 84 59 9d 3c 81 b8 25 3e
       0.17642659 0.31755245 0.019207723 0.16183664
000250 ff 02 a3 be 90 8a 11 3e 44 db fa bd af 23 96 be
       -0.31838223 0.14213014 -0.12248853 -0.293241
000260 d0 08 fb bc 57 0e c7 be b5 da 07 be 2e 4e 7a bd
       -0.03064385 -0.38878128 -0.13267024 -0.061109714
000270 3d e2 a5 3e 75 0c 9a be fc c9 44 3d 19 4d 05 be
       0.3239917 -0.3008763 0.04804419 -0.13017692
000280 16 9b 4e be 8f 8a 4d 3c 6d 8e 52 3e 28 0e 7a be
       -0.20176348 0.012545242 0.20562144 -0.24419463
000290 52 1d f0 bd c1 f8 5d 3e 13 7d 92 bc b3 1d e0 3c
       -0.117243424 0.21676923 -0.017881906 0.027357912
0002a0 3b 3e 5b 3e c1 7a 96 3d 71 f2 df 3d 85 f7 64 3d
       0.21410458 0.07347632 0.10934914 0.055900116
0002b0 99 de 16 3c 87 42 7f bd 21 06 25 3e e9 6b b3 3e
       0.009208345 -0.062319305 0.16115619 0.35043266
0002c0 0d c0 91 3c 86 ad a0 3d c0 04 75 3e 32 7e 07 bd
       0.017791772 0.07845597 0.23927593 -0.033079334
0002d0 e6 f8 4a be 4b 30 81 be d9 b7 ba bc 4c 5d 38 be
       -0.1982151 -0.25232157 -0.022792744 -0.1800434
0002e0 98 19 74 3d 39 e0 97 bb 6f 3e b0 3e 14 de 84 bd
       0.05959472 -0.0046348837 0.34422633 -0.064876705
0002f0 6c 26 8c 3c 11 ec a1 3e d0 1e 47 3d 0d 9c d5 3d
       0.017108165 0.31625417 0.04861337 0.10430155

init_layer.0.bias f4 [64]
000000 bf a0 35 3d 84 28 ec 3d d7 d9 c5 bd fb 16 09 3e
       0.044342753 0.11531165 -0.0966069 0.13387673
000010 6b 71 05 3c f0 c6 99 bd 02 57 d1 bd 70 58 2d 3e
       0.008144717 -0.075086474 -0.102216735 0.16928267
000020 d2 71 b1 3d 54 30 26 be 9a 79 e5 bd b1 75 9e 3d
       0.086642876 -0.16229373 -0.11204834 0.077372916
000030 41 8d 0a bd 4c dd cb bd 30 df 7d 3d e2 76 fe 3d
       -0.033826116 -0.099543184 0.061980426 0.12425019
000040 b9 07 20 3b ca 61 2b 3e a3 b3 18 3e c6 74 10 be
       0.0024418666 0.16736522 0.14912276 -0.14107046
000050 c6 5d f3 3d 5d 08 0d 3e 3d 0c c8 bc e7 8c fc bd
       0.1188312 0.13772722 -0.024419898 -0.123315625
000060 22 98 cb 3d 75 74 bd bd 5d ae 07 3e ed 3d 9e bd
       0.099411264 -0.09250728 0.13250108 -0.07726655
000070 17 a9 42 bd 2a 42 c1 3d 73 d8 1e be 4f 69 e9 bd
       -0.047524538 0.09436448 -0.15512256 -0.11397039
000080 f3 29 f1 bd 55 49 07 be 5d 24 9f 3d 6e 79 09 be
       -0.11775579 -0.13211568 0.077706076 -0.13425228
000090 36 80 85 bd ab a7 da bd fc 14 89 3d 18 a7 11 be
       -0.06518595 -0.106765114 0.066934556 -0.14223897
0000a0 29 ea 54 bd 80 84 fd bd cb 97 a6 bd 53 38 ac 3d
       -0.051981125 -0.12378788 -0.08134421 0.084091805
0000b0 ba 04 03 3e 29 20 13 be 51 f8 b5 bd 44 07 b1 bc
       0.12794772 -0.14367737 -0.08885253 -0.02160991
0000c0 54 07 30 3c 3c 63 05 3e e4 d9 08 be 0e 87 1e be
       0.010743935 0.13026136 -0.13364369 -0.15481207
0000d0 20 10 0c 3e 44 d3 70 bd 56 9c 08 3e eb 40 fa 3d
       0.13678026 -0.05879523 0.13340887 0.12219413
0000e0 c8 78 01 3e d9 8a d8 bd 41 ef f6 3c a7 4b 3a 3d
       0.1264373 -0.10573358 0.030143382 0.045482304
0000f0 75 72 0b be 39 3f e8 bd b4 ee 18 3e d1 01 0c 3e
       -0.1361788 -0.11340184 0.14934808 0.13672568

hiden_layers.0.weight f4 [64, 64]
000000 46 37 3b be 3f 2e 9d 3d e4 be f9 3d c0 aa 30 3e
       -0.18282804 0.07674836 0.121946126 0.17252636
000010 a1 99 33 be 77 d8 78 bb 52 7e da 3d 1e c3 a1 bd
       -0.17539074 -0.003797082 0.10668625 -0.07898544
000020 3b 52 4e 3c 18 84 ad bd 31 bd 2b bd 92 b9 39 3e
       0.012592847 -0.084724605 -0.041928474 0.18137196
000030 61 e3 99 3b 91 9e 40 3e bc 1b 32 3e 34 b5 14 be
       0.004696295 0.18810488 0.17393392 -0.14522249
000040 a7 db aa bc a2 f6 3a bd c2 31 d5 3b d3 28 5b be
       -0.020856692 -0.045645364 0.0065061757 -0.21402292
000050 0b 8f e0 3c 48 cc 4c 3e e4 5a 03 ba c8 e5 9d be
       0.027411958 0.19999802 -0.0005010797 -0.30839372
000060 97 f3 36 3e 77 a4 c5 bc 20 ef 86 bd 40 a5 39 be
       0.1786636 -0.024126275 -0.06588578 -0.18129444
000070 07 d2 f5 bd 25 14 e3 3a 67 06 a6 be 9b 5d 83 bd
       -0.1200295 0.0017324729 -0.3242676 -0.06414338
000080 65 0d 9b bd 3b b2 cc bd 00 06 01 3e 4c 57 04 bd
       -0.07570914 -0.09994932 0.12599945 -0.032309815
000090 2e 2a 85 3c ca 88 73 bd d3 98 6b 3e 24 f8 18 3d
       0.016255464 -0.059456624 0.23007517 0.03734602
0000a0 a4 75 ad 3d a5 94 0d be d0 7c f6 3d c4 c5 81 bd
       0.08469704 -0.13826235 0.12035525 -0.06336549
0000b0 bd 4c 85 bc 18 1d b3 bd 8b 1f 46 3c c2 30 1b be
       -0.016271943 -0.087457836 0.012092481 -0.15155318
0000c0 80 36 76 3e 35 46 b8 bd 97 37 2c be 20 45 95 bd
       0.24044228 -0.08997766 -0.16818081 -0.07288575
0000d0 c3 ef cc 3d 19 36 3e bd 70 bf 54 3e 32 f7 80 3e
       0.100066684 -0.04643831 0.20776153 0.25188595
0000e0 8a a0 da bd 5b 20 f6 bd c4 a8 95 bd c0 05 a0 3d
       -0.10675152 -0.1201789 -0.0730758 0.07813597
0000f0 3c df 93 3c 96 a6 8b be 83 c3 1b 3e 63 bb 61 bd
       0.018050782 -0.27275532 0.152113 -0.055110347
000100 14 04 0b bd ac 6e 10 be a9 f9 5f be df c9 72 3e
       -0.033939436 -0.14104718 -0.21872582 0.2370982
000110 99 74 19 be 2f 4c 55 bd b8 fb 32 3e 0d 60 90 bd
       -0.14985885 -0.052074607 0.17478836 -0.0704957
000120 4a 54 b5 3d a2 d5 54 be c4 9b 35 3e 20 8a 1f be
       0.088539675 -0.2078462 0.17735201 -0.15580034
000130 7b 7f 1e bc 44 29 5f 3c 43 83 c6 3d c9 5a 49 3e
       -0.009673948 0.013620678 0.09693005 0.19663538
000140 42 e5 00 3d e7 27 6f 3e 8f ad 47 3d 28 e0 e9 bd
       0.031468637 0.23355065 0.048749503 -0.114197075
000150 ce ca 86 3d 48 55 dd bd 5d ef f3 3d c1 66 f7 bd
       0.06581651 -0.10807282 0.11910889 -0.120801456
000160 12 6a 56 bc 85 f0 21 be 90 ff 93 3e fd 4d 36 3e
       -0.013086813 -0.15814407 0.28905916 0.17803188
000170 2f 28 78 3d 78 ab 69 3e 98 df 87 be d6 90 3a be
       0.060585197 0.22819316 -0.26537776 -0.18219313
000180 e6 b6 01 bd 57 a1 93 bd ba be 29 3e 37 ec 9d 3d
       -0.031668566 -0.072085075 0.16576663 0.0771107
000190 fa 32 23 3e 98 9e b0 bd 93 5f d0 bc c4 81 d4 3d
       0.15937415 -0.08623999 -0.025436198 0.10376313
0001a0 0d 0b 9d bd e5 33 df bd 7f 1c 34 be 03 f3 74 3d
       -0.076681234 -0.1089857 -0.17588995 0.059802067
0001b0 17 d7 26 3e 22 42 67 be 53 e2 42 3e a0 1f 47 be
       0.16292988 -0.22583821 0.19031648 -0.19445658
0001c0 59 12 b4 bd b7 ca a4 bc 67 be f1 bd 1a 91 57 be
       -0.08792562 -0.020116193 -0.118038945 -0.21051446
0001d0 d9 db 5c 3e 41 f6 09 be 4e a4 48 3e 93 00 3f 3e
       0.2156824 -0.13472845 0.19593927 0.18652563
0001e0 fa e1 d5 bd 84 c3 c8 bd ff 17 43 be 0c c2 52 be
       -0.10443492 -0.09802917 -0.19052123 -0.20581836
0001f0 7e b2 41 3e 44 8d 8b bc 1b 52 95 3e 10 b4 ca 3b
       0.18915746 -0.017035134 0.29164204 0.006186016
000200 e5 15 c8 3d 33 5d c7 bd 69 01 89 3e 65 aa 68 bd
       0.09769801 -0.09734573 0.26758888 -0.056803126
000210 07 4e 87 be ec 6d cf 3c a7 04 4d ba 41 14 86 be
       -0.26426718 0.02532097 -0.00078208226 -0.26187328
000220 45 52 03 3e a4 0b 02 3d 90 a4 32 bb d6 c2 b7 3d
       0.12824352 0.031749383 -0.0027258731 0.08972709
000230 9a a1 37 3e f1 fa 3b be 70 0b 91 3e 0a 97 ff bd
       0.1793274 -0.18357445 0.2832904 -0.1247998
000240 ac 20 a6 bd b3 52 91 be 14 46 b3 3c 56 e3 74 bd
       -0.081117004 -0.28383407 0.021884002 -0.059787117
000250 95 30 40 bc 1a 4a 5e be 36 8e e3 bd 1e 96 24 bb
       -0.011730333 -0.21707955 -0.11111109 -0.002511389
000260 9a d2 b6 bc 6c 01 2b be 1f 26 e3 bd ca 08 7a 3e
       -0.02231722 -0.16699761 -0.110912554 0.24417415
000270 ed 30 f9 bc 90 9b ff bd 18 e8 a2 3e ec 78 70 3e
       -0.030418837 -0.12480843 0.31817698 0.23483628
000280 55 6f 44 be e3 13 13 be dd 77 3c 3e e8 71 a4 3e
       -0.19183095 -0.14363055 0.18405099 0.32118154
000290 03 31 b6 bd 74 ab a4 bd bd c9 b9 3c a1 d0 25 3d
       -0.08896067 -0.080405146 0.022679204 0.040482167
0002a0 7b 68 32 be b2 21 e0 3b cb 97 63 3e 22 75 43 3e
       -0.17422669 0.0068399543 0.22225873 0.19087651
0002b0 dd 95 40 3e c8 86 c3 3d 95 c0 ff 3d eb ba 3d bb
       0.18807168 0.09547192 0.12487904 -0.0028950523
0002c0 41 dd 4b bc 0a 0e ae 3d f8 38 e1 3d b4 92 3c 3d
       -0.012442888 0.084987715 0.10997194 0.046038345
0002d0 d4 a8 cc 3d ff cf c1 bc 6b 73 f3 bd e5 09 29 bc
       0.09993139 -0.02365875 -0.118872486 -0.0103173
0002e0 90 33 8a be 91 c6 8c 3e f6 64 45 be 15 00 37 be
       -0.26992464 0.27495244 -0.19276795 -0.17871125
0002f0 4c 83 b4 3e b8 d0 d7 bd e0 fd 4f be 9d 63 ef 3d
       0.35256422 -0.10537857 -0.2031169 0.116889216
000300 f6 61 33 3e 74 aa 63 be 39 ad 37 bc 62 f4 04 be
       0.17517838 -0.22232991 -0.011210733 -0.1298385
000310 25 e0 36 3e 61 8c de 3d e0 93 e0 bc e3 5e 0f be
       0.17858942 0.10866619 -0.027414262 -0.1400104
000320 d5 65 96 be 86 a1 d4 bd c6 8b 14 3e 5b a0 10 3d
       -0.29374567 -0.10382371 0.14506444 0.035309177
000330 d4 34 c0 bd d6 0a 0d bd 93 bb b4 bd 25 53 6a be
       -0.09385076 -0.034434162 -0.088248394 -0.2288328
000340 8f 73 40 bd b1 e6 ad 3d cb 1b 80 3d e7 6b 54 bd
       -0.046985205 0.084912665 0.06255301 -0.051860716
000350 1c 80 16 3d ef fd 73 be a0 12 70 be 5d 5c a0 bc
       0.03674327 -0.23827337 -0.23444605 -0.019575292
000360 09 b4 66 3e 0a a0 e1 3d d6 a7 1f bc 95 ae 31 bd
       0.22529615 0.11016853 -0.009744605 -0.043379385
000370 c2 c4 e2 bd db 72 85 be 6f 88 b3 bd 0a 3a d6 3d
       -0.11072685 -0.2606419 -0.08766257 0.10460289
000380 d3 d3 61 bd 30 58 39 3e c7 65 51 be b4 41 82 bc
       -0.055133652 0.18100047 -0.20448981 -0.01590047
000390 93 7f 00 3b e2 1f c0 bd 28 5e 3e bb ea 01 6a 3d
       0.001960729 -0.09381081 -0.002904782 0.05713073
0003a0 60 b7 6c be 65 ea d3 bc cb b2 55 3d 30 93 50 3e
       -0.23116827 -0.025868604 0.052172463 0.20368648
0003b0 97 75 9f bd 44 20 e6 3d a1 8f 62 3d 16 d5 8c 3d
       -0.077861 0.11236623 0.055312756 0.068765804
0003c0 8c 2b b0 3d ae c2 27 be 00 9b 14 3e 43 98 d0 bc
       0.08602056 -0.16382858 0.14512253 -0.025463229
0003d0 25 df 99 be e4 57 12 3e 47 a1 ac 3d fe 20 5c 3d
       -0.30053058 0.1429134 0.08429199 0.0537424
0003e0 dd cf 3e be d5 16 e1 bd d2 23 c2 bd 9b 12 f5 3d
       -0.18633981 -0.10990683 -0.094794884 0.11966439
0003f0 5c 68 06 be 7d e1 b0 3d 8d ea 2d be 25 34 e3 bd
       -0.13125747 0.086367585 -0.16984005 -0.1109393

hiden_layers.0.bias f4 [64]
000000 98 d9 9b 3d f4 91 c5 3d 1c 04 0d be 87 b3 08 bd
       0.07609862 0.09646979 -0.13771099 -0.033374336
000010 17 89 f1 3d a8 4e eb 3d 91 3c f3 3d 2a 1e f1 bd
       0.11793726 0.11489612 0.118767865 -0.117733315
000020 ec e1 9a bd 68 28 b9 bd 33 8b 1f be f8 2c c5 3d
       -0.075626224 -0.0904091 -0.15580444 0.09627718
000030 cc 21 48 3d 1d 12 ef bd be 48 c9 3d 7d 49 cc bd
       0.048860356 -0.11673377 0.098283276 -0.09974954
000040 3a e2 0c be 53 8b b0 3d 6a 39 be 3d 97 dd 8a 3d
       -0.13758174 0.08620324 0.092882946 0.06780546
000050 36 12 15 3d 14 4c 95 3d 58 15 f7 bc f5 c1 c2 bd
       0.03639432 0.072899014 -0.030161545 -0.095096506
000060 8e 07 b3 bc fb 6c 6d 3d da 1a 8e 3d fc 37 cd bd
       -0.021854188 0.05796526 0.06938715 -0.10020444
000070 0a d8 ea 3d fa 4e 04 3e e7 e6 f7 3d 96 e5 58 bd
       0.114669874 0.12920752 0.12104588 -0.052953325
000080 ba 85 35 3d d1 9b dd bd 39 72 4b bd 02 33 f5 ba
       0.044316985 -0.10820735 -0.049669478 -0.0018707218
000090 e5 2a 19 bd 37 49 df 3d ac 5a 91 3d 52 c8 9d bc
       -0.037394423 0.109026365 0.070973724 -0.01926056
0000a0 4e 8a 06 be 8f 22 9f 3d 78 70 ab bd 5c 2b 2b 3b
       -0.13138697 0.077702634 -0.08371061 0.0026118373
0000b0 f9 e1 d9 bd 86 2f a1 3c b4 48 e0 bd 85 f4 18 b8
       -0.10638804 0.019675981 -0.10951367 -3.646735e-05
0000c0 86 47 7b 3d fd 53 de 3c 1a ca 01 3e 8c 6b d9 bd
       0.061347507 0.027139658 0.12674752 -0.10616216
0000d0 1b 50 b9 3d 28 db bf bd 4e f6 d4 3d 1c 7f a0 3d
       0.09048482 -0.093679726 0.103985414 0.07836744
0000e0 ad 7a 69 bd d2 20 2c 3e 4d db 12 3d 0d e1 8f 3d
       -0.05700176 0.16809395 0.035853673 0.07025347
0000f0 5b e1 fb 3d 68 df 06 3c 31 4e f2 bb 0b 70 ea bd
       0.122988425 0.008231975 -0.007394575 -0.11447152

hiden_layers.1.weight f4 [64, 64]
000000 3e c5 cd bd 9f fd ba bd 82 ac b0 be d8 a0 33 3e
       -0.100473866 -0.09130406 -0.34506613 0.17541826
000010 c7 70 12 bf d8 10 89 3e 6a f7 b7 bb 07 31 53 be
       -0.57203335 0.26770663 -0.005614211 -0.20624171
000020 ca 41 09 bc 0d bf c8 3d 5a 22 67 bd 6f 75 82 be
       -0.008377502 0.09802065 -0.056429245 -0.2548022
000030 ac ae cf 3d 9d 9f 99 bd 6a e1 86 be a7 5c 4c be
       0.10140738 -0.07501147 -0.26343852 -0.19957219
000040 42 b9 51 bd 24 5e 9e 3e 9d 8c 18 bd ab 9d 27 3e
       -0.051202066 0.309312 -0.037243474 0.1636874
000050 41 9a b0 3e 3e ce 13 3d 3b 1f 6d 3e 4e 55 90 bd
       0.34492686 0.03608536 0.23156445 -0.070475206
000060 e9 72 18 be b1 53 d0 be d9 4d b2 3d b0 30 93 3e
       -0.14887585 -0.4068885 0.087062545 0.28748083
000070 49 4d 25 be 81 3a ad be 7d 03 9c be 1a 22 4d bc
       -0.16142763 -0.33833697 -0.3047141 -0.0125203375
000080 7e e1 de be b6 19 a4 3e 96 30 8d be b7 a0 98 be
       -0.43531412 0.32050866 -0.2757613 -0.29810116
000090 f0 d5 56 be 81 6b c0 bd 11 43 dd bc 26 b7 0e 3e
       -0.20980048 -0.09395505 -0.027009519 0.13937053
0000a0 e1 28 5f 3e 28 c3 9f 3e 54 4a 79 be 94 00 95 3e
       0.21792938 0.3120358 -0.2434476 0.29102004
0000b0 01 d8 00 3f 14 fa 32 be a5 ae cf 3e fe 25 d3 bd
       0.50329596 -0.1747821 0.4056293 -0.10309981
0000c0 0a 76 55 3e 93 34 9e be 11 dc c3 3c 07 e2 bc 3e
       0.2084581 -0.30899486 0.023908647 0.36891195
0000d0 20 83 51 be da 79 7e 3e 6b 3f 15 bd 26 9d 38 be
       -0.20460176 0.2485117 -0.036437433 -0.18028697
0000e0 86 72 f4 3d 82 e9 4f be 68 71 c3 be 7f 2b a4 3d
       0.11935906 -0.2030392 -0.3817246 0.08016109
0000f0 13 dd 15 3e 7d f8 5f be ae 3e d8 bd 3e 1d 8c be
       0.14635114 -0.21872135 -0.1055883 -0.2736606
000100 ac 10 54 3d 76 89 91 bc ca 8c 35 be 96 49 c7 3d
       0.051773712 -0.017765742 -0.17729488 0.09730832
000110 bc a9 ca bd bc 03 15 bd 04 63 7d be 5d 0b 1a ba
       -0.098956555 -0.036380515 -0.24744803 -0.0005876327
000120 d4 a8 59 3e d6 43 ca bd 4b 23 70 3e 9e 07 c5 3d
       0.21255809 -0.0987622 0.23450963 0.096205935
000130 1e 98 44 3d 2b 1e 60 bd 69 b6 36 3e 41 c9 af 3d
       0.047996633 -0.05471627 0.17843021 0.08583308
000140 ca 2a 16 3e 95 b0 9c bd 91 30 ea 3d be 1b c2 3d
       0.1466476 -0.07650868 0.114350446 0.09477948
000150 f5 1b 11 3d 93 59 61 3e c2 15 5c be 5a c5 b7 3d
       0.035427053 0.22006826 -0.21492675 0.08973189
000160 3b e9 2b 3e 1a 65 87 3e f8 25 42 3e fe e2 51 bd
       0.16788189 0.26444322 0.18959796 -0.051241867
000170 60 24 fc bd a2 79 a5 3d 99 f8 0a bd e9 d9 1a 3e
       -0.123116255 0.0807984 -0.033928487 0.15122189
000180 a4 4d 3c 3e c5 bd 22 3e 96 f5 50 be 88 c2 13 be
       0.18388993 0.15892704 -0.20406184 -0.14429677
000190 5b 1a a3 be e0 7c 67 bd e3 d9 81 bd 72 bf 52 be
       -0.31856045 -0.056515574 -0.06340387 -0.20580843
0001a0 eb 41 24 be 67 c1 86 be 5d 13 ed bb 7a 3c 30 be
       -0.1604077 -0.2631943 -0.0072349743 -0.1721057
0001b0 3f c2 3f 3b 90 84 24 bd 27 06 a4 bd 26 32 eb be
       0.0029260067 -0.040165484 -0.08008986 -0.45936698
0001c0 51 e0 65 3e a1 d5 84 3d a9 f2 2f be 81 c8 c9 3a
       0.22448851 0.06486059 -0.17182411 0.0015394838
0001d0 9d 62 2d 3d 34 9d 40 bd 0d 84 a6 bd d7 2b 72 bd
       0.042330373 -0.04702492 -0.081306554 -0.05912384
0001e0 77 42 43 bc f2 6f 2f 3e 50 7a 65 be e4 8a e0 3d
       -0.011917702 0.17132547 -0.2240994 0.10963991
0001f0 0d 09 7d bc e4 88 6e bd 4b b0 9c bd 34 cc 6b 3e
       -0.015444052 -0.058236018 -0.07650813 0.23027116
000200 5a c6 4b 3d 64 1d 8c 3e df 7e 8b ba dc 56 c6 3d
       0.04974971 0.27366173 -0.0010642669 0.09684536
000210 98 04 f7 3e 54 66 73 3e 8f ee 07 be de fa 07 3e
       0.48245692 0.23769504 -0.13274597 0.13279292
000220 f6 9d e2 3d 38 bb b1 bd 32 3f 83 be 12 a0 b7 3d
       0.11065285 -0.08678287 -0.25634152 0.08966078
000230 8b 37 63 3d 80 b5 41 3c a8 4d e4 3e 81 01 bc 3d
       0.05547289 0.011823058 0.44590497 0.09179974
000240 b8 fa 13 be 3f 9f cd bd 7a 43 cc 3d 2a 82 5d bd
       -0.1445111 -0.100401394 0.09973808 -0.054079212
000250 2d 36 62 3d 07 fe 75 be fc e7 ab be 29 ed 38 be
       0.055227447 -0.24022685 -0.33575428 -0.1805922
000260 eb b0 9f bd ec c9 94 3e 2e 09 13 be 6d d5 10 be
       -0.07797416 0.29060304 -0.1435897 -0.14143915
000270 e4 7b bd 3e 1f 5e fb 3e 9f f0 c9 3e 77 67 83 3e
       0.37008584 0.49095246 0.39441392 0.25664875
000280 e3 4d 81 3e ff 34 52 be 6e 0e e0 bc ec e9 1d be
       0.25254735 -0.20528029 -0.02735063 -0.15421265
000290 1b de 0f 3e 76 a7 c9 3c 82 ed 28 bd 6f dc 33 be
       0.1404957 0.024615984 -0.04124213 -0.17564557
0002a0 11 0e a4 be b0 4f 0b be f5 a3 4b be 8c 1b ca bd
       -0.32041982 -0.13604617 -0.19886763 -0.098685354
0002b0 60 8d 83 be 43 f2 02 3e 63 8a b8 be 34 b8 dd 3d
       -0.25693798 0.12787728 -0.3604308 0.108261496
0002c0 7f cc 7f bd 5b 85 34 3e 61 04 22 3e c3 78 fe be
       -0.062450882 0.17628996 0.15821983 -0.4970151
0002d0 55 c0 12 3d e5 98 ec be 76 d5 25 3e 9c ab 86 bd
       0.035827953 -0.462104 0.1619471 -0.06575701
0002e0 7b 22 15 be 0b 0f b2 3e 06 99 42 bd 07 04 2f bd
       -0.14563935 0.34777102 -0.047509216 -0.04272845
0002f0 69 33 ba 3c e2 0c 71 3e 41 7c a4 3d ca 25 9c 3c
       0.022729592 0.2354007 0.08031512 0.019060988
000300 98 93 17 3e 6f 8a af bc 13 d4 49 be 49 d0 e5 3d
       0.14802396 -0.021428315 -0.19709806 0.11221368
000310 34 e6 00 3f 80 b3 68 be 70 3e ae bd e0 11 3d be
       0.5035126 -0.22724724 -0.08508003 -0.1846385
000320 6a fa 7f 3c ff 6f aa 3c f6 4e cb bd 99 ac 82 3e
       0.015623668 0.020805357 -0.0992717 0.25522307
000330 c6 75 7d 3e e4 07 f8 3d 18 69 06 bd 67 5d 8b 3d
       0.24751958 0.1211088 -0.03281507 0.068049245
000340 b7 9b 51 bd 00 d1 29 be cc d1 84 3d cb 9e 91 3d
       -0.051173892 -0.16583633 0.06485328 0.071103655
000350 f0 30 23 bd 06 52 6f be 25 07 fd 3d e8 9d ec 3d
       -0.039841592 -0.23371133 0.12354878 0.11553556
000360 c4 67 1b 3e 51 25 8a 3d f3 d2 c3 bd 3f f1 98 bc
       0.15176302 0.06745399 -0.0956172 -0.018669723
000370 6d 0c c3 3e ca 25 96 3e 90 17 0c 3e 5f 93 35 3e
       0.38095418 0.29325706 0.13680863 0.17731999
000380 17 00 3d 3e f7 38 b1 bd 5f 98 a0 bd fa ed 93 3d
       0.18457066 -0.08653443 -0.078415625 0.07223125
000390 40 aa 99 3d e5 bb 28 3e 2e 96 a6 3d 1d d3 33 3e
       0.07503176 0.16477926 0.08134113 0.17561002
0003a0 f2 20 33 3d 1f b5 ea bb e9 a4 59 3e fa 95 8f 3d
       0.04373259 -0.0071627046 0.21254314 0.07011028
0003b0 8b 97 02 be 3d 46 c4 bd ac 25 67 be 67 ee 0c be
       -0.12753122 -0.095837094 -0.22572964 -0.13762818
0003c0 4a 22 52 bc 2c a6 a0 3d 63 fc 2d bd 93 9f 9e 3d
       -0.012825558 0.07844195 -0.042477023 0.0774528
0003d0 5b be 0a 3e 0d c6 34 bd 6a d0 79 be ac f9 a8 bd
       0.13549177 -0.04413419 -0.2439591 -0.08250746
0003e0 44 2d c1 bd 8d b5 b2 bd eb 5f 2f 3e 3b 23 5c bd
       -0.09432462 -0.08726034 0.17126434 -0.053744536
0003f0 6b c3 00 be ac cc 52 3e 85 6c 24 3d a1 3e 5b be
       -0.12574546 0.20585889 0.040142555 -0.2141061

hiden_layers.1.bias f4 [64]
000000 fb b4 57 bd 30 8d 0d 3d c2 c1 5a 3e 77 97 fd 3c
       -0.05266283 0.034558475 0.21362975 0.030956013
000010 ff 5f 9f 3d ca 37 9b 3d de 51 62 bd 4d 2e 18 3e
       0.07781982 0.07579 -0.055253856 0.14861412
000020 51 aa 19 3e 18 bc 14 bd 3d 3e 18 bd c5 d5 c4 bd
       0.15006377 -0.036312193 -0.03716873 -0.09611086
000030 3d ea 43 3d 5b 72 c3 3d 8f a2 2e 3e 28 d7 a9 bd
       0.04783081 0.09543296 0.17054199 -0.08292991
000040 b2 47 ac bc 61 09 94 bd cd 2f 2d 3d ba 61 df bc
       -0.02103028 -0.072283514 0.042281915 -0.02726828
000050 5d e9 b8 3d a4 3b 79 bd b6 b6 b8 bd 90 34 87 3d
       0.090288855 -0.060847893 -0.09019224 0.066018224
000060 8d 57 62 3d 0c e8 5f 3d e1 44 d0 3d 05 7c a8 3c
       0.055259276 0.054664657 0.101693876 0.02056695
000070 da 59 a7 bd a8 e1 54 bd 52 5a aa 3d 00 f7 1a 3d
       -0.08171435 -0.051973015 0.083180085 0.037833214
000080 4c e6 ad bd cd fd d4 3d 0d e0 11 be 28 e2 12 bd
       -0.08491191 0.10399971 -0.14245625 -0.03586021
000090 e2 be 93 bd c5 96 63 3d 33 ff 98 bd 6e e9 19 3e
       -0.072141424 0.055563707 -0.074705504 0.15030453
0000a0 a0 89 a7 3d 34 0b ab bd 0f ae 02 3d e9 d4 ce 3d
       0.08180547 -0.08351746 0.031904276 0.10099203
0000b0 86 14 c4 bc 92 46 6f 3d ee ba ab bd 9d 3b d7 3d
       -0.023935568 0.05841691 -0.083852634 0.10509417
0000c0 97 d7 3f be a5 49 3f 3d 62 17 b5 3d 28 26 7d 3d
       -0.18734585 0.046701092 0.088423505 0.061803967
0000d0 31 7b 5b bd ed 64 4a 3a f2 f6 98 bd e5 e7 52 be
       -0.05358428 0.00077207276 -0.07468976 -0.20596273
0000e0 7d c5 96 3d de 08 3c bd e2 80 68 bd b5 2a ec bc
       0.07361887 -0.045906894 -0.056763537 -0.028828958
0000f0 07 6f 3c bd f3 53 d9 bc f1 47 ae 3d 24 25 32 bd
       -0.04600432 -0.026529288 0.085098155 -0.04349245

hiden_layers.2.weight f4 [64, 64]
000000 54 db 27 be d8 67 44 3e 18 a7 d2 3c 01 6e 53 3c
       -0.16392261 0.19180238 0.025714442 0.012904645
000010 bf f8 13 bd 22 ef ed bd 43 fb 8d be 1a ec 91 be
       -0.036125895 -0.116178766 -0.2773076 -0.28500444
000020 cc eb d2 be 44 86 96 bd 77 36 81 3d bf 0e ce bd
       -0.41195524 -0.07349828 0.063092165 -0.10061406
000030 29 17 4a bd f3 5f c4 3d e2 db 94 bd 09 9f 56 3e
       -0.049338493 0.09588613 -0.07268502 0.20959105
000040 ad e4 3c 3e 72 40 7a bc 2f 09 bb bc 4d 21 6c be
       0.18446608 -0.015274154 -0.022831528 -0.23059578
000050 95 2d 3b 3e cf 81 23 3e 30 b3 86 be 1c 79 b6 3e
       0.18279107 0.15967487 -0.26308584 0.35639274
000060 37 17 82 bc 82 50 65 be 11 03 3e be 28 95 11 3d
       -0.01588021 -0.22393993 -0.18555857 0.035542637
000070 05 20 00 3c b8 11 07 be b7 ed 3f 3e 1f 33 bf bc
       0.007820134 -0.13190353 0.18743025 -0.023339806
000080 d1 1f 3b be 8d 9a 8b 3d 3b d3 68 be b7 07 6e be
       -0.18273856 0.068165876 -0.22736828 -0.2324513
000090 7e c9 8b 3e bd 42 0c 3e 1f 43 2f 3c bf dc 74 3d
       0.27302164 0.13697334 0.010697155 0.059780832
0000a0 33 b7 cc bd f2 43 5f 3e 46 dc ff bc 74 35 42 3e
       -0.0999588 0.21803263 -0.031232964 0.18965703
0000b0 85 20 13 3e d9 27 c1 3b cb 89 e8 3d c2 54 2b 3e
       0.14367874 0.005894643 0.11354407 0.16731551
0000c0 2d cd 20 3e 9e d0 06 3e aa 11 22 be 94 8a 4f be
       0.15703268 0.13165519 -0.15827051 -0.20267707
0000d0 e8 f2 19 be 46 d8 9d 3d df 04 e4 3d 89 66 72 3e
       -0.15034068 0.077072665 0.111337416 0.23671927
0000e0 65 82 2f bd fe 10 8f 3d ee 63 59 3e 4f d9 90 3c
       -0.042848963 0.06985663 0.21229526 0.017681746
0000f0 37 f2 06 be c6 48 73 3d 51 cc e6 3d 5d 6a 03 3e
       -0.13178335 0.059395574 0.11269439 0.12833543
000100 00 c2 11 3d 6d 99 aa 3d f9 3d 96 3e 8c bc 43 3e
       0.035585403 0.08330045 0.29344156 0.19114894
000110 84 39 11 3e bf b0 87 3e 7a 4b 06 3e a4 0f 84 3e
       0.14182097 0.26502034 0.1311473 0.25793183
000120 0a 23 ee 3d 87 0b ed 3d 38 72 4f 3e ac 58 93 3d
       0.11627777 0.11574464 0.20258415 0.07194647
000130 bd fc 73 bd ee a5 99 bd 9a d5 01 bd 94 55 0e 3e
       -0.059567202 -0.07502352 -0.031697847 0.13899833
000140 c5 09 c6 3d bb 09 33 be c1 f3 16 be 8f c4 95 be
       0.09669832 -0.1748418 -0.14741422 -0.29251525
000150 85 90 f5 3c ff f3 35 be 9f 66 0d be 5a 15 2f bc
       0.029976139 -0.17768858 -0.13808678 -0.010686243
000160 69 a4 7e 3d fe 45 37 3e ae 18 72 3e 19 b9 f4 3d
       0.062168512 0.17897794 0.23642227 0.11949367
000170 6e 13 86 be 57 19 47 3e 53 60 2b bd 8c 2a 2b be
       -0.261867 0.1944326 -0.04183991 -0.16715449
000180 3f ce 1b bd 14 d9 3f 3e c2 91 59 bd 00 0e b3 3d
       -0.03803849 0.18735152 -0.05311752 0.08742905
000190 25 d1 22 3e 43 fd 58 3e e3 71 e9 3d f5 78 98 bd
       0.15900095 0.21190362 0.11398675 -0.07444946
0001a0 fb 3e 86 3d 04 d1 ff be 09 0b ad bd 05 20 dc 3c
       0.06554981 -0.49964154 -0.084493704 0.026870737
0001b0 16 fe 21 3e df 60 04 3d ec ef a3 be 3c 70 51 3e
       0.15819582 0.032318946 -0.32018983 0.2045297
0001c0 91 02 92 be e1 d9 d3 3d 70 93 5e bd 30 ba 38 be
       -0.28517583 0.103442915 -0.054339826 -0.18039775
0001d0 b2 f9 86 be bd 28 2a 3d b6 bb b0 bd 3a c5 ed bd
       -0.26362377 0.041542757 -0.08629553 -0.116098836
0001e0 ab f7 b6 3e c3 02 55 be 61 72 83 be bc 8a ad 3e
       0.3573583 -0.20801835 -0.25673202 0.33894908
0001f0 e4 f4 5f bd ac 94 52 3e 77 39 82 3e 3b 1e 23 be
       -0.054676905 0.20564526 0.25434467 -0.15929501
000200 30 95 76 3e 0a 49 61 be bc f8 b8 be 72 da 06 be
       0.24080348 -0.22000518 -0.3612727 -0.13169268
000210 0d 09 bf 3d 63 cf e2 3d 9d 81 34 3e 8e e6 08 bd
       0.09327898 0.11074712 0.17627569 -0.033423
000220 7c 0a 36 be 9b 22 b8 3e 51 f1 e9 3c f9 9b 67 3e
       -0.17777437 0.35963902 0.028557451 0.22618093
000230 00 f9 2d 3e 74 72 09 3e 19 9d 41 be 8d 4f 53 3e
       0.16989517 0.13422567 -0.18907584 0.20635815
000240 a2 30 61 ba 49 5a 4b bd 99 55 76 3d 77 62 81 be
       -0.00085903157 -0.04964665 0.060140226 -0.25270435
000250 69 5b 5f be d0 a2 77 3d 89 7a 58 3e df 60 d4 bd
       -0.21812214 0.060458004 0.21140493 -0.10370039
000260 93 0d 13 be 87 cd 91 be 8c 5e a7 bd 06 36 1b bd
       -0.14360647 -0.28477117 -0.0817233 -0.037893318
000270 e9 52 5d 3e 29 fd 43 3d 1f f3 ac 3d 8b b1 46 3e
       0.21613659 0.047848854 0.08444809 0.19403665
000280 76 43 f7 3b be 99 3d be dc 8d 63 3d db 3e 81 bd
       0.007545884 -0.18515679 0.05555521 -0.06310817
000290 7c b6 9c 3e d6 57 8b bd 3d 89 3f be 1d 62 49 3d
       0.30607975 -0.06803863 -0.18704696 0.049165834
0002a0 c2 0f 12 3e 56 27 90 3e 59 c5 1f be 71 b7 63 bd
       0.14263824 0.2815501 -0.15602626 -0.055594865
0002b0 f9 1d 34 3e fd 32 af bc be b9 b6 3d 92 35 69 bc
       0.17589559 -0.021386618 0.08922146 -0.014233964
0002c0 65 4a 14 3f 07 3f a7 3d 82 77 98 be 41 a0 6b 3e
       0.5792602 0.081663184 -0.29778677 0.23010351
0002d0 bd fd 4a be 56 7b 67 3e c9 96 45 3e 6b b9 6c bb
       -0.19823356 0.22605643 0.19295801 -0.003612126
0002e0 d7 74 4d be 94 25 f1 3d 7c c1 1e be a4 c3 95 bd
       -0.20064102 0.117747456 -0.15503496 -0.07312706
0002f0 e0 b7 f2 bc 47 4b 81 3e 22 90 53 39 8f ed 13 3e
       -0.029628694 0.25252745 0.00020176222 0.1444609
000300 43 df e3 3d 41 13 5f be 80 fd 5c be bf 22 42 3e
       0.11126568 -0.21784689 -0.21581078 0.18958567
000310 3a a6 93 be 3e 63 36 bd c6 44 88 3d f8 0a 76 be
       -0.28837758 -0.04452824 0.066537425 -0.24027622
000320 89 ef c8 bc 6d d5 85 3e 0a 07 83 3e 05 07 5b be
       -0.024528282 0.26139393 0.25591308 -0.21389396
000330 0e 2d 2e 3e af ae 5a 3b 99 32 2a be e2 57 95 3d
       0.17009374 0.003336828 -0.16620864 0.07292153
000340 d5 d9 2c bc a6 da 42 be 29 ee 82 be 14 18 4f bd
       -0.010549982 -0.1902872 -0.25572327 -0.050560072
000350 d8 b6 94 be 26 e4 b5 bd 32 da 06 3e a2 b8 c6 bd
       -0.2904575 -0.088814065 0.13169172 -0.09703185
000360 52 c1 13 bd 40 2f d1 bd f9 4d 9e 3d 1d 62 db 3d
       -0.036073036 -0.1021409 0.07729716 0.10712073
000370 5b 82 9d bd 08 ac 64 3e 01 60 24 3d 24 fe 66 be
       -0.07690879 0.2233125 0.04013062 -0.22557884
000380 a5 fa 2c be 77 f2 53 be cb 29 b1 3e a7 1f 3d 3e
       -0.16892488 -0.20697962 0.34602198 0.18469106
000390 e0 c5 b5 bd d6 b7 40 3e 5d 04 2e 3d a2 31 07 be
       -0.08875632 0.18820128 0.04248463 -0.13202527
0003a0 f6 a3 1e 3e 29 74 da bd af 06 20 3d a8 14 b4 3d
       0.15492234 -0.10666687 0.039068874 0.08793002
0003b0 ca 9d d7 3d 52 6b 3d be b3 ed 75 3c 5d cf a1 bd
       0.10528143 -0.1849797 0.015010285 -0.079008795
0003c0 fb 25 03 3e 69 f4 aa 3c b7 29 08 3e 5b 3c 5b be
       0.12807457 0.020868497 0.13297163 -0.21409743
0003d0 01 14 4f bc 13 40 ef bd 3f 15 ed 3d ab fb 37 bd
       -0.012639047 -0.11682143 0.11576318 -0.044917744
0003e0 62 3d 27 3e ba 6a b0 bc 4a 23 70 bd ba da a5 3e
       0.1633201 -0.021535266 -0.058627404 0.32393438
0003f0 4b 8d b6 3d a0 a7 a4 bd 90 78 4f 3e d5 aa 0e bd
       0.08913668 -0.080397844 0.20260835 -0.034830887

hiden_layers.2.bias f4 [64]
000000 20 56 18 3c a6 f0 40 bd 7c fb aa 3c f5 8e eb bc
       0.009297878 -0.0471045 0.02087187 -0.02875469
000010 c9 67 eb bc a8 20 03 bc c7 bd f2 bc 2e cb 08 3d
       -0.028736012 -0.008003391 -0.029631509 0.033396892
000020 e4 7f d0 bb 3e 8d 08 3d 76 2b 2e 3d d9 50 28 bd
       -0.006362902 0.033337824 0.042521916 -0.041092727
000030 d2 80 0f bd e2 d6 e3 bc c4 0f a1 3d 7e ea 89 3d
       -0.035034962 -0.027812425 0.07864335 0.06734179
000040 70 dc 5c 3d 8e 04 f6 bd 21 a4 8c 3d e6 38 69 3d
       0.053921163 -0.120125875 0.068672426 0.05693903
000050 ef 7e 15 3e 8e 8c fe bc 61 38 e9 3c 42 c1 a8 3d
       0.14599203 -0.031072881 0.028469266 0.08239986
000060 9c 72 5c 3c 98 58 19 be 3e af 36 3d dd 54 e9 bd
       0.013455059 -0.14975202 0.044600718 -0.113931395
000070 75 82 48 3d 45 f8 0b 3c 3b 7b bc 3d 38 df 96 bc
       0.04895254 0.008543079 0.09203192 -0.018416986
000080 4c d4 40 bd 42 95 c9 bc c4 c8 b8 bc af 39 bc 3d
       -0.047077462 -0.024607304 -0.02255667 0.0919069
000090 71 41 83 bc 70 6d df 3c c0 50 9d bb bc 4d 24 3d
       -0.016022416 0.027273864 -0.004800886 0.040113196
0000a0 e4 4e 82 3c 2e a5 ae bd d0 61 a4 bd a4 b3 8b 3d
       0.015906759 -0.08527599 -0.08026469 0.06821373
0000b0 62 57 1e 3e 57 89 4d 3c 00 c7 d8 bc 38 66 86 3d
       0.15463021 0.012544951 -0.026462078 0.065624654
0000c0 bf 83 b1 3d 1d 38 f6 bc 78 f4 2f 3d 95 2b 44 be
       0.08667707 -0.030056054 0.042957753 -0.1915725
0000d0 b2 48 56 3c 5d d8 2c bd 4f d8 aa bc 58 cd a7 bd
       0.013078855 -0.042198528 -0.020855097 -0.08193463
0000e0 9d e0 04 be ef a0 5c 3d f4 a4 14 ba a1 6a ba bd
       -0.12976308 0.053864416 -0.0005670332 -0.09102369
0000f0 45 53 e7 bd 4b b1 90 3d 3e a1 bb 3d fd cb c6 3d
       -0.11295179 0.07065066 0.09161614 0.097068764

hiden_layers.3.weight f4 [64, 64]
000000 14 e1 0d be 42 6a 70 3e bd 8b 9a 3e 1e 19 dd ba
       -0.13855392 0.23478034 0.30184737 -0.0016868447
000010 bd 20 43 bd 1f d3 1d 3d 02 dd 4a bd c6 54 99 be
       -0.047638644 0.03853142 -0.049527176 -0.2994749
000020 29 65 4b bc 29 bb a7 3b ca 6c fc 3d ab 5b c4 bd
       -0.012414255 0.005118747 0.12325437 -0.09587797
000030 23 a7 94 3e 3d a0 61 be b3 72 8e 3e aa eb 85 bc
       0.29033765 -0.22033782 0.27821884 -0.016347725
000040 8e 6b ca bd 8c b6 8b be 83 7a 4c bd 4d 9b c0 bd
       -0.09883796 -0.2728771 -0.049921524 -0.09404621
000050 29 60 b8 3e ec 1f 6e be 55 17 7c 3e 87 2b 5e 3e
       0.36010864 -0.23254365 0.24618275 0.21696292
000060 b1 da 7c 3e 6a f6 12 3d 70 50 d1 bc 1b 40 97 bd
       0.24692799 0.03587953 -0.02555105 -0.07385274
000070 38 b6 bc 3d de 47 62 3e f6 8e f8 3d 10 1d 4b 3e
       0.09214443 0.22097728 0.12136643 0.19835305
000080 f8 5e b5 3d b8 7f cd 3c 56 6f f3 bd f5 39 16 3e
       0.088560045 0.025085315 -0.1188647 0.14670546
000090 57 03 15 3d 10 84 85 3d 50 a5 ee bd 4b ae d2 bd
       0.03638014 0.065193295 -0.116526246 -0.1028715
0000a0 ab f5 86 3d 36 69 3c be 87 ad 5a be fa d1 58 be
       0.06589826 -0.1839951 -0.21355258 -0.2117385
0000b0 59 b1 ce 3d a3 bb 87 3e 3e bb 87 3d 2c 78 c8 bc
       0.1009242 0.26510343 0.066275105 -0.024471365
0000c0 a9 b5 43 3e 7b da 7b be 8b f4 92 bd 1f 55 15 bf
       0.19112267 -0.24595062 -0.07175549 -0.5833301
0000d0 c9 27 a0 3d a9 76 7f 3e 09 59 34 3e 7e 8b 8a bd
       0.078200884 0.24947609 0.17612089 -0.06764887
0000e0 2c 0d 0d 3e 42 5d e7 3d f5 1b 09 be 72 19 c9 bb
       0.13774556 0.112970844 -0.13389571 -0.0061370665
0000f0 fc f7 50 bd 1a fd 43 3e 15 5e f5 bd f2 ce 4e 3e
       -0.051017746 0.1913952 -0.11980835 0.20196131
000100 35 3f 34 be de ad e4 bc c4 32 32 be 33 da 14 3e
       -0.17602237 -0.027914938 -0.17402178 0.14536361
000110 f4 31 71 3e 0d 76 9f 3e 1d af 7e be a3 2a 02 3e
       0.23554212 0.31144753 -0.24871488 0.12711577
000120 47 c5 89 be 3c f5 23 bc 75 b7 27 3e d9 a3 8c 3d
       -0.26908323 -0.010007199 0.16378577 0.06867189
000130 6a b3 a8 3d 26 fa 42 bd 43 3b b3 bd b3 5c 4a 3e
       0.082373455 -0.04760184 -0.08751538 0.19761924
000140 b5 de 55 3e 22 cb a1 bc 8e dc 20 3e 6a 74 36 3e
       0.20885737 -0.019750182 0.15709135 0.17817846
000150 40 ab 48 3e 1f 5f c8 bd 8a 31 e0 bd fa 82 16 3d
       0.19596577 -0.09783768 -0.10946949 0.036746003
000160 45 0b 0a be a4 39 84 3c 25 b3 88 3d 80 f4 11 be
       -0.13480861 0.016140766 0.06674794 -0.14253426
000170 59 42 94 3e 34 3d 97 bd ed 2b c1 be cd 23 16 bb
       0.2895687 -0.073847204 -0.37728825 -0.0022909523
000180 ae 5c 09 3e 03 ff 24 bd d5 51 ca 3d f6 9b 16 3e
       0.1341426 -0.04028226 0.098788895 0.14707932
000190 91 c2 fa bd 42 ed 82 be ba d8 a4 bd 34 1c f8 3d
       -0.12244142 -0.25571638 -0.0804915 0.12114754
0001a0 e8 27 27 3c 8a 5b d7 bd 3c 12 92 3d 98 6c ca 3e
       0.0102023855 -0.105155066 0.07132384 0.39535975
0001b0 a3 a7 62 3e cb 63 75 3d 9c 34 84 3e 44 7e 13 3d
       0.22134261 0.059909623 0.25821388 0.03600909
0001c0 f9 ed 47 3e 1a df 2f be 4f a1 6d be 87 78 d4 3e
       0.19524373 -0.1717495 -0.23206066 0.41498205
0001d0 b1 10 8e 3e d7 37 e2 bd 0e 10 c3 bd 38 b9 0e 3e
       0.2774711 -0.11045807 -0.095245466 0.13937843
0001e0 dc 54 84 3e 78 89 5b be d3 2e a9 3d e9 aa 8b 3e
       0.25845993 -0.21439159 0.08260884 0.27278832
0001f0 6e cf e9 3d fc 13 d4 3d 89 a5 0f 3d fa 9b 4a 3e
       0.11416517 0.10355374 0.035069976 0.19786063
000200 6e 64 e2 3c 6e 17 44 3e 8c bf a4 be 06 26 ef bd
       0.02763578 0.19149563 -0.3217739 -0.11677174
000210 0a 7d a7 bd 2c 33 58 3e 0d 13 bc 3d cc 5a e8 bd
       -0.08178146 0.2111327 0.09183321 -0.11345443
000220 65 c6 01 3e a3 07 3f bd 46 c7 9d bd da 1e 3b 3e
       0.12673338 -0.046638142 -0.07704024 0.18273488
000230 ef 68 31 be 68 65 cc bc 6b d2 b4 3d c6 53 ad bc
       -0.17325185 -0.024950698 0.088291965 -0.02115811
000240 e7 18 59 3c 60 e9 2c 3e b6 e5 07 bd 22 ce 65 be
       0.013250566 0.168859 -0.033178054 -0.22441915
000250 ba e0 71 bd a8 8d 29 3d 2e 5b 44 be e6 34 a3 bc
       -0.059052207 0.04139486 -0.19175407 -0.019922685
000260 a2 46 2e be 82 7b a1 bd 47 1c 92 be a8 a9 b3 3d
       -0.17019132 -0.07884885 -0.285372 0.08772594
000270 0a aa 29 3e 97 30 a3 be 59 4f af bd 34 5c 5d be
       0.16568771 -0.3187301 -0.08560056 -0.21617204
000280 ba d1 63 be 4e 3f 1f bc f7 d9 5e 3e cc f2 32 3d
       -0.22247973 -0.009719683 0.21762834 0.04368858
000290 9f c5 aa bd e6 1d db bd 0b 46 6f 3e 5f 05 b7 3c
       -0.083384745 -0.10699062 0.23366563 0.022341428
0002a0 6e d7 94 3d ea 16 b8 bd a7 20 7b bd b6 e9 e7 3c
       0.072676525 -0.089887455 -0.061310437 0.028309684
0002b0 98 00 86 3d 1c 6a 51 be f8 58 21 3e 05 4b 57 be
       0.06543082 -0.20450634 0.15756595 -0.21024711
0002c0 0b d3 64 bd 15 fd 23 be 25 a6 6b 3e d2 ba 47 3e
       -0.05586533 -0.16014512 0.23012598 0.1950486
0002d0 b0 9a fe 3d 74 15 03 be 97 70 5f be cf 5e 8c be
       0.12431848 -0.12801152 -0.21820293 -0.27416083
0002e0 fb b2 4e be 01 c0 2d be c6 74 b9 3d b9 8a 7e 3e
       -0.20185463 -0.16967775 0.09055476 0.24857606
0002f0 7d 50 53 3e 5a 37 9b bc 8a 61 1f 3e 89 f1 a7 3c
       0.20636173 -0.018947292 0.15564552 0.020500915
000300 95 60 d4 3c c2 20 20 be f3 2e 30 3e b1 68 13 be
       0.02592496 -0.15637496 0.1720541 -0.14395405
000310 64 9c db be dd b5 b3 bd e3 ee 65 3d 4d 98 7c be
       -0.42892754 -0.08774922 0.056136023 -0.24667473
000320 7b 7f 18 3e d3 b4 d5 be 29 91 90 be 8a 48 4a be
       0.1489238 -0.4173952 -0.28235748 -0.19754234
000330 da fa 3d be fd df 10 be 66 29 e4 bd ed 62 8a bc
       -0.18552724 -0.14147945 -0.111407086 -0.016892875
000340 4a bc 6d bd ff 4a c1 3c cf 8a 03 bd 3d e5 4d 3e
       -0.058040895 0.023595331 -0.0321148 0.20106979
000350 2a 60 6e 3e 22 68 92 bc 9c c9 c4 bd 12 0c d1 3d
       0.23278871 -0.01787192 -0.096087664 0.1020738
000360 3a 2a 30 3e 43 3d 09 3e c8 95 26 3e 80 cd 8a 3d
       0.17203608 0.13402276 0.16268075 0.06777477
000370 a7 cf 55 bd fb 4c 3a be f4 5b e3 bd 9c 13 af 3d
       -0.052199986 -0.18193428 -0.11101523 0.08548662
000380 22 85 25 3e eb 3b e8 3d 4d a2 07 3e 35 fd 02 be
       0.16164067 0.113395534 0.13245507 -0.12791903
000390 58 8b 8a be 82 c6 4e bd 73 16 96 be ca 28 e2 bc
       -0.27059436 -0.05048228 -0.29314002 -0.02760734
0003a0 dd a2 00 3e 18 94 f0 be c6 18 5b be 5e 29 1e 3e
       0.12562127 -0.46987987 -0.21396169 0.15445468
0003b0 44 a2 21 3e 24 af e3 bd 90 20 26 3e 23 fb 64 3e
       0.15784556 -0.1111739 0.16223359 0.22361426
0003c0 f3 b7 bc bd 0b 5b 42 3e 7b 7f 60 bc 6a 91 fd be
       -0.09214773 0.18980043 -0.013702269 -0.49525005
0003d0 4a ae f8 bc 9c c0 9c 3e c3 5b c4 3d 92 4b 9e 3e
       -0.030356545 0.306157 0.09587815 0.3091703
0003e0 90 2a 02 3f 2b b2 00 3e c6 64 50 3e 22 b9 21 be
       0.50846195 0.12567966 0.20350942 -0.15793279
0003f0 a3 22 c9 bd 23 18 54 be b5 fe 74 be 2f 45 b0 3b
       -0.098210596 -0.20712332 -0.23925288 0.005379341

hiden_layers.3.bias f4 [64]
000000 82 63 93 3d 3d a1 fb bd 95 66 1a 3e bb 09 fb 3d
       0.07196714 -0.12286613 0.15078194 0.12257715
000010 08 e0 88 be fa be 04 3d 92 03 3e bd 5f ef 13 be
       -0.26733422 0.032408692 -0.046390124 -0.14446782
000020 68 7a b6 3e 27 55 57 bc 24 21 2d 3d 33 af 1f 3c
       0.35640264 -0.0131428605 0.042267933 0.009746361
000030 57 36 ac bd 3e 12 7e bc a4 f4 da 3d 14 5a b2 be
       -0.08408802 -0.015507279 0.10691193 -0.3483435
000040 90 5e c1 bc 23 fe 57 be 41 c2 83 bc 4c d5 ce bc
       -0.023604661 -0.21093039 -0.016083838 -0.025248192
000050 11 43 e1 bc 3f da 61 3d cd c4 8a be ff 5d dc bc
       -0.0274978 0.055139776 -0.27103272 -0.02690029
000060 85 7d a1 3d df 36 13 3e dc 34 5e be 08 9c d7 bc
       0.07885269 0.143764 -0.21699852 -0.026319519
000070 18 18 9b 3d 67 b3 b1 3d 63 32 c4 ba 36 c8 be bd
       0.07572955 0.086767964 -0.001496863 -0.09315531
000080 b1 5b c4 3d 78 f6 d7 bd 3a 42 c1 bc 9e 40 6b 3d
       0.09587801 -0.10545057 -0.02359115 0.05743467
000090 88 65 c6 3d 90 ca 78 3e 7d 6e 5a bd 8e ae 8b bd
       0.09687334 0.24296021 -0.053328026 -0.06820403
0000a0 de 36 19 3e ce 90 0e be f4 68 7d 3d 1a 0b d2 bd
       0.14962336 -0.13922426 0.06186767 -0.10256024
0000b0 81 37 36 3b b5 59 4b 3d f3 62 50 3e 36 66 67 3e
       0.002780408 0.0496461 0.20350246 0.22597584
0000c0 a8 5e bf bd 74 a4 c1 bc 12 d8 44 be 30 f9 01 be
       -0.09344226 -0.023637988 -0.1922305 -0.12692714
0000d0 a8 89 07 3e d8 b9 e9 3e c5 14 44 be 86 4e ec bd
       0.13236105 0.456496 -0.19148548 -0.11538415
0000e0 58 40 29 3e b1 88 17 3e 7f 68 50 3d 91 6f 61 bc
       0.16528451 0.14798237 0.050880905 -0.01375951
0000f0 5e a6 ef bd 19 bf 94 3e 93 03 24 be d3 97 09 3c
       -0.11701654 0.29052046 -0.16016988 0.008398014

hiden_layers.4.weight f4 [64, 64]
000000 9f 18 60 bd 80 0e 2f 3e 70 19 af bc 99 19 80 be
       -0.05471098 0.17095375 -0.021374434 -0.2501953
000010 a9 22 87 3d 97 1f d0 bb ee 17 8a 3d 45 81 f1 3d
       0.06598408 -0.006351422 0.067428455 0.11792234
000020 05 76 06 bf e4 3f c3 3b 34 49 b1 bc 25 15 e6 3d
       -0.52523834 0.005958544 -0.021641351 0.11234502
000030 14 6d 60 bc bf ed 2b be 64 3f 60 be f8 a0 9c 3d
       -0.013697881 -0.16789912 -0.21899182 0.0764789
000040 31 88 15 be c7 50 7f 3c 7d 8b 46 3e 93 87 37 3e
       -0.14602734 0.015583224 0.19389148 0.17922811
000050 d4 74 c2 be a6 60 ae 3d 43 c8 f3 bc 85 32 16 bd
       -0.37979758 0.08514528 -0.029758578 -0.036669273
000060 f3 f9 93 3d 12 51 d5 bd 7b 30 45 3e 7f de 8a 3d
       0.072254084 -0.104158536 0.19256775 0.06780719
000070 9e fc b9 be 4c 71 1e be 75 17 7f be df 58 e9 bd
       -0.36325544 -0.15472907 -0.24911292 -0.11393904
000080 2c 57 8b 3e c7 44 bc 3d 52 34 dc 3d 84 d2 09 be
       0.27214944 0.09192806 0.10752167 -0.13459212
000090 6b 62 bd 3d 6d 21 96 bc ed d4 0c 3d 90 15 94 bb
       0.09247287 -0.018326486 0.03438275 -0.004519172
0000a0 67 a5 86 be a5 74 e6 3c 5f ed 6c 3e 8d 5c 41 3e
       -0.26298067 0.028131792 0.23137425 0.18882962
0000b0 63 d1 9d bd c2 28 13 3e 11 65 e3 3d 98 0f 61 be
       -0.07705953 0.14371017 0.11103261 -0.21978605
0000c0 e9 5c 60 be 15 09 3a be 09 12 82 bc 24 d3 02 3e
       -0.21910442 -0.18167527 -0.01587774 0.12775856
0000d0 1e cb 34 be 80 fd de 3d 34 d6 80 3e 6d cd 26 bc
       -0.17655608 0.10888195 0.25163424 -0.010180813
0000e0 fb 32 f1 3d 7b 88 6f 3d ae 9c 04 be ae f9 20 be
       0.11777302 0.058479767 -0.12950394 -0.15720245
0000f0 b6 d9 a5 3e b3 82 9e be 59 9e fc bc d6 bf e7 bd
       0.32392663 -0.3095909 -0.030837225 -0.11315887
000100 fd 6a 0c 3e 27 62 12 be 51 c0 ba be 90 2b 76 3e
       0.13712688 -0.14295255 -0.3647485 0.24040055
000110 c7 61 04 be e6 a2 52 be 80 bd 5f 3d 50 76 76 bd
       -0.12927924 -0.20569953 0.05462408 -0.060171425
000120 14 b9 dd be 0e 4a 01 bd 8f 55 b2 bd 6a 0d 61 3e
       -0.43305266 -0.031564765 -0.08707725 0.21977773
000130 1d 0c 9e 3e 7f 82 10 3d 87 19 15 be 20 6b 85 3e
       0.30868617 0.0352807 -0.14560519 0.26058292
000140 82 0c b7 be 84 1e ab 3d 1d 78 d1 3d 71 78 b1 3d
       -0.3575173 0.0835543 0.10227988 0.086655505
000150 8e 3a 9d 3e 37 46 44 3e 02 00 35 3e d0 cd bc 3e
       0.30708736 0.1916741 0.17675784 0.36875772
000160 8f e4 34 3d 68 9b 49 be 57 b9 e5 be 39 34 8c 3d
       0.044163283 -0.19688189 -0.44867966 0.06845898
000170 92 7b ad bd 3c 55 a1 3a aa e5 d6 be 9c b2 24 be
       -0.08470835 0.0012308727 -0.41972095 -0.16083759
000180 57 6d a7 3e 93 39 32 3d e5 1e 76 bc 3a 0b 83 bc
       0.32700607 0.04351194 -0.015022014 -0.015996564
000190 b6 7c bd bd 19 37 e7 3d 09 9d cd 3d 26 cd 0a be
       -0.09252302 0.11289806 0.10039718 -0.1355482
0001a0 57 eb 2f 3e 3a b8 22 be d2 33 7d 3e 70 c3 28 3e
       0.17179619 -0.1589059 0.24726799 0.16480803
0001b0 fa ad 23 be b1 80 b3 3e 90 49 81 3d ef 3a 86 3c
       -0.15984336 0.3505912 0.06312859 0.016385524
0001c0 51 f2 bf be fd 57 2b be 4b b6 6b be c7 01 14 3e
       -0.3748956 -0.16732784 -0.23018758 0.14453803
0001d0 c0 49 10 3e 30 a2 d6 be 9f 92 79 3e e3 21 ce 3d
       0.14090633 -0.41920614 0.24372338 0.10065057
0001e0 c1 38 a2 3d 2e d9 4b be 18 1b 10 3e fe f1 e0 3d
       0.07920981 -0.19907066 0.14072835 0.10983656
0001f0 a0 c9 ac 3e e0 12 1b 3e 8d 31 18 3c d1 d5 b8 3d
       0.33747578 0.15143919 0.009289158 0.09025157
000200 14 14 3b be 3a 8a a9 be 7e c3 3d be f0 5f 89 be
       -0.18269378 -0.3311327 -0.18531606 -0.26831007
000210 64 eb af bd 8e 04 8e bd 7e 04 09 3e 8c 06 4a 3d
       -0.08589819 -0.069344625 0.1338062 0.04932265
000220 d9 c4 13 bd 16 f6 0e be 2d 80 43 bd 30 f9 16 be
       -0.0360764 -0.13961062 -0.04772966 -0.14743495
000230 da 4e 1c 3d 02 80 9c 3e 4f 45 ac 3e 29 4b d6 bb
       0.038161136 0.30566412 0.33646628 -0.0065397215
000240 4a 66 d7 3d 83 56 6c bc 9e 8e a8 bd a5 4a 8a 3c
       0.10517557 -0.014424923 -0.08230327 0.016881296
000250 41 04 a6 be ec 0e 64 be b6 c7 24 bd 67 47 26 bc
       -0.3242512 -0.22271317 -0.04022952 -0.01014886
000260 0a 51 81 be a5 b7 53 be 9d ac ab bd 40 22 7f 3e
       -0.2525714 -0.20675524 -0.08382533 0.24915409
000270 60 34 10 be 60 9a 0e 3e 3d 13 02 be 0c 9a 50 3e
       -0.1408248 0.13926077 -0.12702651 0.20371264
000280 6c f0 3f 3c 9c 9c 79 be 32 7d 50 be c3 0d c3 3d
       0.011715036 -0.24376148 -0.20360258 0.09524109
000290 8f da 25 bc c1 27 86 3d 24 9d 93 be 32 40 94 3e
       -0.010122909 0.06550551 -0.28830826 0.28955227
0002a0 9b 7b cc 3d a7 be 07 3e fc 38 d0 be 84 4e a0 bd
       0.09984513 0.13256322 -0.40668476 -0.07827476
0002b0 dd 97 16 bd bd 2b 00 3c a2 a5 d2 3d 23 5f 20 3e
       -0.03676592 0.007822928 0.10285498 0.15661292
0002c0 6d 51 86 3e b0 78 c3 bd d8 a3 2f 3e d0 72 33 be
       0.26233998 -0.09544504 0.17152345 -0.17524266
0002d0 23 b7 06 be 7b aa 39 3d 8f 5d 5f bd 57 92 51 bc
       -0.13155799 0.0453286 -0.054532584 -0.012791238
0002e0 5c e1 4e be c7 4b 04 3c 56 db f5 3d 82 5c 35 3e
       -0.20203155 0.008074707 0.12004726 0.1771107
0002f0 90 e4 72 be da d4 3c bd 62 94 3d 3e fb 74 7f 3e
       -0.23720002 -0.04610143 0.18513635 0.24946968
000300 2a 38 56 3e b3 3b 9d be 8b 14 11 be 67 95 7e 3e
       0.20919862 -0.3070961 -0.14167993 0.2486168
000310 ad 87 68 3e a2 7c 83 3d 8c f5 b3 3e b2 02 de bd
       0.22708006 0.06420256 0.35148275 -0.10840358
000320 13 c8 f5 3d fa 8e 08 3e ee 64 86 bc 73 1a 9b bd
       0.12001052 0.13335791 -0.016405549 -0.07573404
000330 39 9c fd 3d 60 3e 08 be a0 05 2c 3c 7e 78 1e 3e
       0.12383313 -0.13305044 0.010499388 0.15475652
000340 96 ac 34 be 3c c2 d2 3b 3b 24 4e be 13 7a 2b be
       -0.17643961 0.006431846 -0.20131008 -0.16745786
000350 87 a4 0a be c2 8c 49 bb 6c ca 01 3f cf 9a 62 3d
       -0.13539325 -0.0030754064 0.50699496 0.05532342
000360 5b 56 9a 3d b1 37 75 be 62 ae b0 3e d9 00 bf be
       0.07536002 -0.23947026 0.34508044 -0.37305334
000370 55 fe 28 bd ed 9c 0f be e0 c8 ae bd 47 2f 26 bf
       -0.041258175 -0.14024706 -0.085344076 -0.6491589
000380 8b 5c 99 be 6c 9e 88 3e 2a 7d 23 be d0 b1 67 bd
       -0.29953417 0.26683366 -0.15965715 -0.05656606
000390 f5 7a 17 3d ce f6 2f be 52 9b 09 3e d1 1b 4a 3e
       0.036982495 -0.17183992 0.13438156 0.19737174
0003a0 f5 64 2f be 0c 6a 23 3e 4f 7d 3e 3e 4c c3 db 3e
       -0.17128356 0.15958422 0.18602489 0.42922437
0003b0 50 34 38 be b0 f0 ab be 40 a9 0d be b7 5b c8 be
       -0.17988706 -0.33582067 -0.13834095 -0.39132473
0003c0 3d e8 66 bd 32 bf 11 3e ac ff a8 3d ec 32 89 3e
       -0.056373823 0.14233091 0.082518905 0.26796663
0003d0 fb 60 3a be cf 06 94 3e e9 ac 5b 3e b9 b9 b5 3e
       -0.18201058 0.28911445 0.21452679 0.35493258
0003e0 b9 a3 27 be 9b db bc bd 48 5b d5 bc 8d a5 b1 be
       -0.16371049 -0.09221574 -0.026044503 -0.34696618
0003f0 a7 0f 33 3d b9 03 a4 be 75 9f 00 3e f4 9b 9a 3d
       0.0437161 -0.3203409 0.12560828 0.07549277
