results/1_first_try/epoch900/model_weights.pth (torch, 484214 bytes, 88 tensors)

init_layer.0.weight f4 [64, 3]
00000000: cc1d 93be 9a61 35bd 38cb 113e 58f3 853e
00000010: 205d 6fbd 6599 18ba 5a1a afbd ddc8 6abe
00000020: f586 07be 55f2 0e3e e467 31bb 42e5 303d
00000030: ee36 39bc 28fb 5e3e 0a4d 523e 01f5 02be
00000040: 23b4 a0be c578 103e b8d7 9d3e ab78 89bc
00000050: 8430 853e 4ec8 a63e 94b0 793e a7ff 243e
00000060: c705 393e 284f bdbe c8cd d0bc a7e2 80bd
00000070: be38 f3bd cf08 503e 8745 75bd dbdb 6abc
00000080: a061 f23d 09bc 2f3d 0c45 de3d 7a14 43be
00000090: 073d 1bbe 9054 b0bc 705e 0ebd 3c16 003c
000000a0: 86da 0b3d 8747 573e ba99 fc3d 789f 85be
000000b0: 2392 2a3b 789e 743e c2ed 48be f54d 7cbe
000000c0: e896 5a3e 3519 abbd 8bec 463e ea18 703e
000000d0: 2473 833e 148f 87bd 6f9a c73d 6adc 40bd
000000e0: d5ba 93be 6f00 2ebe 8e7a ef3d 7110 71be
000000f0: 4a93 0b3e 3f2d 29be bee3 07bc d88b 723e
00000100: 1f65 a0bd b9c7 92bc d2f3 313d f260 64be
00000110: d1cb 1abe d22e 433b f1f9 2f3e dada c1bd
00000120: 4c6c f539 c564 d8bd 0c4b 0e3e 4fa6 0dbe
00000130: b5e3 463e 4cc3 63bd 5abe d1bb b72c 8d3e
00000140: 8bee e03d f45c 2cbe c760 77be 378f 663d
00000150: 8ca6 a43b 77fe a53d 790c 37be bd5a 95bb
00000160: 2712 90be 0e4f 063e e256 95be 3ca4 76bd
00000170: 1e38 a6bd 428d c4bd 7f08 273d d24d 943e
00000180: 539a 32bd a939 7c3e 7dd4 d13d bd83 86be
00000190: 8620 9e3e 639b edbc d2a5 5fbd 7033 48bd
000001a0: 6cb2 fdbd 55ac 93bc 7093 09be 1303 7abe
000001b0: a8e0 6f3d 46f5 95bb 2a15 4cbe f8c1 72be
000001c0: fb7e 79bd a2c4 f3ba 82e1 903e b730 20be
000001d0: 052d 0e3e 82b1 98be e8d3 0b3e 5838 203e
000001e0: 777c 863e 3d2a bd3c 7022 3abe 164c 97bd
000001f0: b4bc 4bbd a34b 0ebe 8dc3 0f3e 7360 c3bd
00000200: 1dcd 123e 7753 26bd e4e7 34bc 2f82 573e
00000210: c8b7 b53d d926 69be 6b38 1fbe 9419 74bd
00000220: 86ff 78be 4277 f73d eafd 05bc a155 30be
00000230: c9af 8cbd c132 2e3d a688 2c3e 2f41 f83d
00000240: 3854 cf3d 13e5 a23e d471 01bd a8d4 8b3d
00000250: 503c 84be 75b7 1e3e 9201 4bbd bb4b 71be
00000260: 0b2a f9bd 4e5c b3be 6c97 07be f1de 43bd
00000270: d6bf 353e c74f 9fbe 35d9 a03d 9d0f 21be
00000280: d2e0 5fbe a277 b3bb a098 093e 4d2b 45be
00000290: e64d 46be fd9a 6d3e 4f93 f539 a9c8 363e
000002a0: 2185 3e3e 76c2 383d caa2 013e e007 0e3e
000002b0: 3d6c 37bd 81e4 d03c d12f 7c3e bf1e 833e
000002c0: 08c2 b43c aafd 483d 3b5d 9b3d 5fef 293c
000002d0: 04a0 e0bd 3348 a0be 4aa5 1a3d 3d56 91bd
000002e0: 52c9 6ebc b845 333c a791 863e 7f81 82bc
000002f0: eea9 2b3d f18c 653e 6dac ca3d d720 793d
-0.2873367 -0.044282533 0.14237678 0.2616222 -0.05843842 -0.00058211974 -0.08549948 -0.22928186
-0.13235076 0.1395963 -0.002706998 0.043187387 -0.0113046 0.21775496 0.205372 -0.12788774
-0.31387433 0.1410857 0.30828643 -0.016781172 0.26013577 0.32574695 0.24383765 0.16113149
0.1806861 -0.36974454 -0.02548875 -0.062932305 -0.11876057 0.2031586 -0.05988076 -0.014334644
0.11835027 0.042903934 0.108530134 -0.1905078 -0.15159999 -0.021524698 -0.03475803 0.007817801
0.034143947 0.2102338 0.123340085 -0.26098228 0.0026027046 0.23888576 -0.19621947 -0.24639113
0.21346629 -0.08354417 0.19426171 0.23447004 0.25673783 -0.06619087 0.09746253 -0.047085203
-0.2885348 -0.16992353 0.11693297 -0.23541428 0.13630405 -0.16521166 -0.008294044 0.23686159
-0.07831787 -0.0179175 0.043445416 -0.22302607 -0.15116812 0.0029782546 0.17185189 -0.09465571
0.0004681073 -0.10566095 0.13895816 -0.13832973 0.19422801 -0.05560617 -0.0064008655 0.27573177
0.109829985 -0.16832334 -0.24158011 0.056288924 0.0050247367 0.08105176 -0.17875852 -0.004557936
-0.2813885 0.13116094 -0.2916785 -0.06021522 -0.08116172 -0.09597255 0.040779587 0.28965622
-0.043604206 0.2463137 0.10245607 -0.26272383 0.30884188 -0.029004758 -0.054601498 -0.04887718
-0.12387547 -0.01802651 -0.13435149 -0.24415235 0.05856386 -0.004576358 -0.19929948 -0.23706806
-0.060912114 -0.001859803 0.2829705 -0.15643583 0.13884361 -0.29822928 0.13655055 0.15646493
0.26266834 0.02309143 -0.181772 -0.07387559 -0.04974051 -0.1389604 0.1403944 -0.095398806
0.14336057 -0.040606942 -0.011041615 0.21045755 0.08872944 -0.22768725 -0.15548865 -0.059594706
-0.24316224 0.120832935 -0.008178214 -0.17220165 -0.06869466 0.04252887 0.16849002 0.12121808
0.10123485 0.31815395 -0.031602696 0.0682767 -0.25827265 0.15499671 -0.049562044 -0.23564045
-0.12166222 -0.3503136 -0.13241357 -0.047820035 0.17748961 -0.31115553 0.07853929 -0.15728612
-0.21863106 -0.005476908 0.13437128 -0.19254799 -0.19365653 0.23203655 0.00046839795 0.17849983
0.18605472 0.045107327 0.12659755 0.13870192 -0.04478096 0.025499584 0.24627616 0.25609395
0.022065178 0.049070038 0.07586142 0.010372012 -0.109680206 -0.31305084 0.03775529 -0.07096527
-0.014574366 0.010941915 0.26283 -0.01593089 0.041910104 0.22417046 0.09896169 0.060822334

init_layer.0.bias f4 [64]
00000000: 7ef2 17be 96cc 9d3d c56f afbd 53bf 9e3d
00000010: b1d9 93bd 71a9 4cbc 3283 223e 5403 063e
00000020: 2fae 583b 0dbf 963d 2dc2 813c 71e1 2dbc
00000030: b026 adbd 492d df3d ce38 b33d bf7e da3d
00000040: 7d1f 223e eb5a 9b3d 987f 34be 3b76 3c3d
00000050: fb9b a93d 4f48 6f3d 2b7c 473d b716 163d
00000060: 7414 063d 4947 f2bd 7542 bc3d db99 82bd
00000070: 71c1 b8bd 122c 9dbd b511 bfbd 6c8d cabd
00000080: 53f8 393d c7de 5bbd 36df 61bd 7e1b e63d
00000090: fc7a 333d 3ae8 e6bd 5c1b cf3d d4e6 e5bd
000000a0: 01b7 e83d d5ed 83bd eed5 923d 795c cfbd
000000b0: ff92 703d 3924 bb3d 6a3b 1abd d4bc 6fbd
000000c0: 57f9 31bd aa18 1a3d 0970 333d cf62 babd
000000d0: f3f0 d7bc 9c54 9bbd e4d5 833d 36f6 013e
000000e0: f14c dc3d 25de bd3d 1f6d d43d cdfa 373d
000000f0: ef7c 19bc 21ab 38bd 4820 b43d b056 d13d
-0.14838597 0.07705037 -0.0856624 0.07751336 -0.07219256 -0.01249157 0.1587036 0.13087207
0.0033062806 0.07360659 0.01583966 -0.010612831 -0.08454645 0.10897309 0.08751069 0.10668706
0.15832324 0.075857006 -0.17626798 0.04601119 0.08281704 0.05841857 0.0487024 0.036642756
0.03273435 -0.11830003 0.09192363 -0.06377002 -0.09021271 -0.07674421 -0.09329549 -0.09890255
0.045402836 -0.053679254 -0.05514451 0.112357125 0.04381846 -0.112747625 0.1011264 -0.112256676
0.1136303 -0.06441847 0.0716971 -0.1012506 0.058733936 0.09137768 -0.037654318 -0.05852969
-0.04345068 0.037621178 0.043808017 -0.091008775 -0.02636001 -0.07584497 0.06437281 0.12691578
0.10756863 0.09270886 0.10372376 0.044916917 -0.009368165 -0.045085076 0.0879522 0.102216125

hiden_layers.0.weight f4 [64, 64]
00000000: 0324 debd 7861 243b 46ef 6a3e 94c3 5e3d
00000010: bf2d 6bbe 44fb 9cbc fbc6 043d fb78 3bbe
00000020: 27c1 e43b 1b38 0dbe 28fb 93bc ee19 803e
00000030: 8fdf c43d 3914 c63c a0f7 4f3e 289f 62be
00000040: 4eeb cbbd b23a d7bd c99e 9b3d 0080 05be
00000050: e766 b6bd 4eb4 d23d 6956 263d 1a58 99be
00000060: 4211 a33d 0d7e 5e3d cd66 3ebe 90fe 24be
00000070: 33fd 5fbc 6153 833d 26c2 3cbe 5a3d 7ebc
00000080: f008 5ebe 1c60 c2bd 6019 833e 2310 f83a
00000090: 7343 b23c 9d2f 253d 8b9b 653e f7d7 b53d
000000a0: 6139 433d bc9d 363c 31e9 783d 8cb0 18bd
000000b0: b086 2ebd be6e b0bd ad99 af3d 81cc 7abe
000000c0: 7799 633e 5a2a f5bd 53b4 e8bd b67b 353d
000000d0: ba00 743d 99ee 3d3b 9d1f 4d3e c609 1a3e
000000e0: 5303 59be a420 42be 3354 25be 1e3d 763d
000000f0: bfcf 3c3d 143e 7abd 24ef bfbc 2302 2cbe
00000100: 90b2 86bd 17ec 58be a774 51be ab7c 083e
00000110: e13a 0ebe 24b3 14be 4d89 353e fef7 24be
00000120: 7504 6f3c 4abc 73be 808c fc3d 6356 a5bd
00000130: de76 503d 3927 293c c640 b8bc e82f 203e
00000140: bc52 56bc 10a2 793e ec26 e53c cec9 88bc
00000150: 61e6 d9bd e057 6cbe 0433 e33d 9909 463e
00000160: e3f9 c1bd d4ac 9dbc 48cc 563e d452 d73d
00000170: 7b58 1a3e aaae 663d d6ae 22be 595e 11be
00000180: bdb1 6f3b 74c5 ef3c 8c9c 3c3e 2c08 e03d
00000190: 98b5 673e 082f 0ebd 726f c2bd fda0 113e
000001a0: 4734 37bd 73cc 4f3c 15bb 82be 3744 25bd
000001b0: 1698 e03d cd2e 99be 7fed 423e 0460 2cbe
000001c0: 5a2b abbc 61d8 18be 502a e0bd c970 0cbe
000001d0: f3cf d03d 0f6f 30be 9a71 1e3e 2752 b83d
000001e0: 8e4f 64be a6c2 16be 9c8f 1abe 4f0a 5bbe
000001f0: 83bb 3b3e 3fd3 833e 6549 173e 5bf1 eebd
00000200: 0aca 3f3e ffa1 2fbe 906a 3b3e 2188 bebd
00000210: c4ed 2abe 5392 02bd 5a02 debd 8734 61be
00000220: af48 22be 14e7 b7bd d7ac 48bb 5bd0 2c3e
00000230: 33a8 7f3e 20c7 6abe 5218 743d 4cd4 56be
00000240: 2ea5 70be 04ab 54be ccfa a13d 4608 d6bc
00000250: 62b8 32be 6843 67be 09f7 57be be4f 833d
00000260: 5d28 21bd 3e3d 003d 8cb4 b73c b9ac 543e
00000270: 3ca9 883c 9eee 73be f63c 963e 9a7b 863e
00000280: 8342 0dbe 0c48 bb3d aa89 593e b19c 293e
00000290: 1272 98bd 6b84 54bd 47ed 09be 495d 043e
000002a0: df56 84be 578c 65bc 64e1 063e e6ea 863e
000002b0: 01e8 fd3d aef6 fe3c 2adf 8abd 93dd 8d3a
000002c0: 295e 60bc 6c1f 3bbc 3698 f3bd 67c3 fe3c
000002d0: db44 fdbd c4c3 b43b 3f14 40be d1ca 19bd
000002e0: 07d0 8abe db22 50be f6ec 68be bce4 14be
000002f0: e9c8 203e 7327 84bd 1f57 73be 6805 db3d
00000300: 58fa 1d3e 5304 19be 8903 bcbb 9baf 25bd
00000310: 31a4 fe3d 53e6 ff3d d92e 14bd 543f 23be
00000320: 330e 7dbe 0d3e d7bd 4640 6d3d 76db 1c3c
00000330: a6bf 0bbd 855c 8fbd 8404 853c 099e 06be
00000340: 7895 86bd 0372 1f3e 8f8d ed3d 7968 cfbd
00000350: 86bc 233e a0c3 d1bd 11c6 21be 6619 8dbd
00000360: b70a 823e 2db4 943d 4e53 bebc a1af 29bd
00000370: 37b1 32be d242 64be 3063 07be 978f 113d
00000380: 5cfa ddbd 1170 e23d 0b27 30be 5362 d63c
00000390: cb11 3abd 4787 d6bd c664 a4ba ec7b 35bd
000003a0: eb26 3cbe 6a96 20bd 5e1e 8f3d e698 553e
000003b0: 55bd ab3c 2e8a 9f3d 3d4c 9b3d 72a0 133d
000003c0: 2485 843d 73a5 d4bd 6ff4 5c3e c578 54bd
000003d0: 2126 83be 6d59 3f3e 5814 413e f264 953d
000003e0: 60c3 34be 2b48 b7be 7840 0abe db6c 0b3e
000003f0: 43a8 c2bd a951 d0bd 8ef6 4ebd 48c4 97bd
-0.108467124 0.002508251 0.22942838 0.054385737 -0.2296667 -0.019162782 0.032416325 -0.18307869
0.0069810334 -0.13790934 -0.018064097 0.25019783 0.09612953 0.024179565 0.20309305 -0.22131026
-0.0995699 -0.10509242 0.07598645 -0.1303711 -0.08906346 0.10288297 0.04060975 -0.2995003
0.07962276 0.05431943 -0.18593903 -0.16112733 -0.013671207 0.06412388 -0.18433437 -0.015517557
-0.21683097 -0.09490988 0.25605297 0.0018925708 0.021760678 0.04032861 0.22422616 0.08879083
0.047662143 0.011146005 0.060769264 -0.037277743 -0.042608917 -0.086148724 0.08574233 -0.24492075
0.22226511 -0.119709685 -0.11362519 0.044307433 0.059571005 0.0028981327 0.20031591 0.15042791
-0.21192674 -0.18957764 -0.161454 0.06011688 0.04609656 -0.06109436 -0.02342946 -0.1679769
-0.06577027 -0.21183811 -0.20454656 0.13328807 -0.13889648 -0.14521462 0.17728157 -0.16110227
0.014588465 -0.23802295 0.12331486 -0.080731176 0.05089461 0.010324293 -0.022491824 0.15643275
-0.013081249 0.24378228 0.027972661 -0.01669779 -0.106396444 -0.23080397 0.11093715 0.19339599
-0.0947149 -0.01924745 0.20976365 0.10513845 0.15072815 0.056318916 -0.15887007 -0.14196147
0.0036574446 0.029268958 0.18419093 0.10939059 0.22627866 -0.03471282 -0.09493913 0.14221568
-0.04472759 0.012683022 -0.25533357 -0.040348258 0.10966508 -0.2991852 0.1903591 -0.16833502
-0.020894695 -0.14926292 -0.109455705 -0.13714899 0.10195913 -0.17229865 0.15473023 0.09000044
-0.22295973 -0.1472269 -0.15093845 -0.21390651 0.18333249 0.25747105 0.14774092 -0.11667129
0.18729416 -0.1715164 0.18302369 -0.09303308 -0.16692263 -0.031877827 -0.10840292 -0.21992694
-0.15848039 -0.089796215 -0.0030620599 0.16876356 0.24966507 -0.22927523 0.059593506 -0.20979422
-0.23500511 -0.20768362 0.07909164 -0.026126992 -0.17453149 -0.22584307 -0.2109033 0.06411694
-0.039345134 0.031308405 0.022424959 0.20769013 0.01668226 -0.23821494 0.29343385 0.26266176
-0.13794903 0.09144601 0.21243921 0.1656368 -0.07443632 -0.051884096 -0.1346942 0.1292621
-0.25847527 -0.01401051 0.13171917 0.26351088 0.12397767 0.031123485 -0.067808464 0.001082348
-0.0136943245 -0.011421066 -0.11894266 0.031099034 -0.12366649 0.005516501 -0.18757723 -0.037546936
-0.27111837 -0.20325796 -0.22746643 -0.1454038 0.15701641 -0.06452837 -0.23763703 0.106943905
0.1542753 -0.14943056 -0.005737726 -0.040450674 0.12433661 0.12495103 -0.03617749 -0.15942127
-0.24712448 -0.10509882 0.057922624 0.009573808 -0.034118317 -0.070000686 0.016237505 -0.13146223
-0.06571478 0.15570836 0.11599266 -0.101273485 0.15989885 -0.10242391 -0.15798213 -0.0688961
0.253988 0.07260928 -0.023233082 -0.04142726 -0.17450415 -0.22291115 -0.13221431 0.03553733
-0.10838768 0.11056531 -0.17202394 0.026169932 -0.045427125 -0.10475021 -0.001254224 -0.044307634
-0.18374221 -0.039205946 0.06988214 0.20859107 0.020964304 0.077900276 0.07582901 0.036041684
0.06470707 -0.103831194 0.21577619 -0.051872987 -0.25615028 0.18686457 0.18855417 0.072946444
-0.17652655 -0.35797247 -0.13501155 0.13615744 -0.095047496 -0.101718254 -0.0505281 -0.074104846

hiden_layers.0.bias f4 [64]
00000000: 1a0a f5bd 5b04 753c 4b50 6dbd 3f6e 883d
00000010: 7885 9bbd b8ad b4bd 97e3 a53d 7c22 243d
00000020: db43 ee3d f1b2 083d d551 883d 197a 07be
00000030: e29a 503d 1f27 babd 0b2e 4fbe e91c 523d
00000040: 58f6 173d 6ff0 d2bd 9c73 8b3d f640 80bd
00000050: 9460 a8bd 3e9c c63c 6a39 b6bd aed2 593c
00000060: 8d5c 933d d41d a73d 6ff1 763d 4d17 d73a
00000070: 88bc 0abc f0f3 89bd 08a3 ea3c c2fd 0b3d
00000080: 00a9 ed3d 274e a8bd cb72 cfbd 1ffb e63d
00000090: 478f 9abd e4d9 34bd 2039 cf3d e2ef 8bbd
000000a0: 3c24 a2bc 463e a7bd 9ec2 363e dae2 95bd
000000b0: 0e0c f13b f2c2 353d 87e3 a5bd 8f88 e93c
000000c0: 1666 85bd f669 813d 52d2 f2bb 64af 913d
000000d0: 0cbb a4bd b365 ae3d accc 82be b2c2 ff3b
000000e0: 4c27 d5bd dac4 07be 431a afbc ac9b 06be
000000f0: f467 d7bd f077 aabd e483 aebd 92d7 4f3d
-0.11964817 0.014954652 -0.0579379 0.06661653 -0.075938165 -0.08822197 0.0810005 0.04007195
0.11634036 0.033373777 0.06656233 -0.1323017 0.050928958 -0.09089493 -0.20232408 0.051297102
0.037100166 -0.10299765 0.0680916 -0.0626239 -0.08221546 0.024244424 -0.088976696 0.013294859
0.07195387 0.08159986 0.060288843 0.0016410142 -0.008467801 -0.067359805 0.028642192 0.03417755
0.116045 -0.082180314 -0.10129317 0.11278366 -0.07546859 -0.04415311 0.101183176 -0.068328634
-0.019792669 -0.081661746 0.17847678 -0.07318659 0.0073561734 0.044375367 -0.08100038 0.028507499
-0.06513612 0.063190386 -0.007410326 0.07113531 -0.08043489 0.08515491 -0.25546777 0.007805192
-0.10407886 -0.13258687 -0.021374827 -0.13145322 -0.10517874 -0.083236575 -0.0852125 0.050742693

hiden_layers.1.weight f4 [64, 64]
00000000: e824 41bd 08ac 023e 3754 0f3e 877c 143e
00000010: 7532 8cbe 1ccd 8f3e 2092 e5bd 933f 34bd
00000020: 7662 d03c 05f0 93bc 0308 d9bd 76b0 bcbd
00000030: 56fd 09be 02c2 ad3c 490e 583d e592 4dbd
00000040: c035 473e 9535 933e b897 20be 091a 853e
00000050: 8fe4 853e 8625 05be 9a8b 853d 735d 90bd
00000060: 2c7b ecbd 2b93 a9be d5d2 8dbd 9c85 433e
00000070: 083a 9b3d e37b 8abd a3c9 32be f136 02bd
00000080: fa1e 91be 7a03 ad3e 31b7 9abd 82f9 94be
00000090: 69dd 883d 0523 87bd 0686 4abe 6ea1 013d
000000a0: c51f c23d 8eae 923d 3989 39be a66e 5e3e
000000b0: 247e 7e3e 3ce4 613d 138d 263e 97b8 a7be
000000c0: 30f5 773d 272a 8bbd d89a 11be 27e0 5c3d
000000d0: 37b2 01be 9bfe c9bd 3012 6abe 4abf 82be
000000e0: 0054 863e 6938 513e a97e a0be e3d8 983d
000000f0: 57a1 95bc 28bc 3e3d da19 343e 9d0e 1ebe
00000100: 01fa 243d e2fa ffbd b298 76be 2deb 243e
00000110: 2d48 62be e501 65bd c256 10be 1caa a23d
00000120: 13a1 503e 5e47 8b3d 3272 4b3e 87d4 003e
00000130: 25b8 9c3d b0f2 c5bc adc5 6fbe 15b8 893e
00000140: 6391 803d 17b4 32be 3ddb 5b3e b6e0 493d
00000150: cdb3 7f3c e83a 453e 843b 88be c97e f33d
00000160: e64e 9a3d 4548 533e 5861 673e 0e43 083e
00000170: d857 04be b366 21bd e10e 75bc a661 893e
00000180: 39ad 723e 2696 b73d 7cc1 cebe 6966 a1bd
00000190: 89e7 62be 2c9a af3d e4b7 83bd be63 63be
000001a0: dd77 c3be eb6c 88be 711d bc3d 8f47 4cbe
000001b0: 87fd 323d 2cdd 303e 7c2d 8abd 4223 81be
000001c0: 5c0b 983e a216 d13d 4657 39be 8203 afbd
000001d0: 7d27 a73d 333f 1cba ac8c 92bd 6908 8b3c
000001e0: 790c 8ebd 31c3 3abc 7e14 32be 9da8 043e
000001f0: 2a43 033e 9a3d dcbc 48c8 39bc fdb4 0d3f
00000200: a59f c43d dd24 f23d ad9d 43bd 8a94 f53d
00000210: 75b9 813d e6ce 213e 22ce d6bd d4da 993e
00000220: 1740 883e ea5d 96bd fc63 24be 9d0f 44bd
00000230: eef4 c43c f669 c2bb 1c78 563d 2737 013e
00000240: db77 a8bd 4295 05be 8920 023e 1217 b33d
00000250: 2ecb f13c c23a 7ebe dbb1 61be 0b86 f7bd
00000260: 7d5e 943c 5ca0 d93d 3480 3fbd 3ea4 e0bc
00000270: 6110 a33d 1b21 7b3d c8b2 623e ba2e a13e
00000280: 7980 0d3e 9bd0 26be c505 64be 784c b9bd
00000290: 6f50 bebd bd27 10be 96d7 853d 688e 00be
000002a0: 8ebf 4fbe f223 41be 554a 0fbe 0c31 f4bd
000002b0: 4cb9 843c 44b3 963d 9f21 4cbd 4e68 893d
000002c0: a9fe f73a 8dd6 a73c 6d5d 0d3d 9bb9 86be
000002d0: af0f 003d a565 32be 1c81 813d dd5a f439
000002e0: b3ac 08be 4525 743d 5d47 383e 34a9 2b3d
000002f0: 0a6e f63c b5a2 bc3d 095f 54bd 3c04 4b3e
00000300: 13bb 343e 235c 89bd b632 d1bd 5358 fb3d
00000310: b251 583e 7334 5bbe ae92 acbd 294b 20be
00000320: d894 9d3d 4b15 713c 0d1d eebd 966a c33e
00000330: 12b5 6e3e 7b29 7b3e f344 96bd f6ed e83d
00000340: 2f47 15bd 954b 2dbe a872 a1bb 2afc 733d
00000350: 5ae2 bbbc 7bd0 2dbe 69e1 b03d c6aa 163e
00000360: 513b 073e 5760 953d 7707 0cbe 8caf 073d
00000370: 5545 ee3b a03d 853e e80f 3e3e 7b20 253e
00000380: 37ee 3e3e 4019 193a dec3 a2bd dca3 7a3c
00000390: 901a 5a3e 106c cc3c 4466 2e3e 1cf5 573e
000003a0: c4f3 8a3d 16a7 e5bc c596 893e 491e 163e
000003b0: 0c83 4ebe b390 2abd 02e9 62be cc25 81bd
000003c0: 843a 3bbd a64a af3d 62da 043c 582f 983d
000003d0: d56b 483e 3af8 65bd d12e bebe 72ae f8bc
000003e0: 6c21 19be 736e 7fbc 8043 c83e 729a 733d
000003f0: b2b6 01be 8006 493e 838b 523e f597 60be
-0.047154337 0.12760937 0.13996969 0.14500628 -0.27382246 0.28086174 -0.11209512 -0.04400594
0.025437575 -0.018058786 -0.10597231 -0.09213345 -0.13475546 0.021210674 0.052748 -0.050188918
0.19454098 0.28751817 -0.15682876 0.25996426 0.2615094 -0.13002595 0.065207675 -0.07049074
-0.11546931 -0.33120093 -0.06924979 0.19093937 0.07579428 -0.06761911 -0.17459731 -0.031790677
-0.28343946 0.33791715 -0.07554472 -0.2909661 0.06682856 -0.06598476 -0.19777688 0.031648092
0.09478716 0.071622 -0.18118753 0.21721897 0.24852806 0.055149302 0.16264753 -0.32758018
0.060536563 -0.06795149 -0.14219224 0.053924706 -0.1266564 -0.09863015 -0.228585 -0.25536567
0.26235962 0.20431675 -0.31346634 0.07463243 -0.01826541 0.04656616 0.17587987 -0.15435262
0.040277485 -0.12499024 -0.24081686 0.16105337 -0.22097845 -0.05591001 -0.14095595 0.07942602
0.20373945 0.068007216 0.19867781 0.12581073 0.0765231 -0.024163574 -0.23415251 0.26898256
0.0627773 -0.17451511 0.21470352 0.049286567 0.015606833 0.19260752 -0.26607907 0.11889417
0.0753458 0.20633037 0.22595727 0.1330683 -0.12924135 -0.039404582 -0.014957161 0.26832312
0.23698892 0.089641854 -0.40381992 -0.07880861 -0.22158636 0.08574328 -0.06431559 -0.22206017
-0.38177386 -0.26645598 0.09185303 -0.19949172 0.043698814 0.1727187 -0.06746957 -0.25222212
0.29696167 0.10209395 -0.18099698 -0.08545591 0.08161829 -0.0005960345 -0.07155737 0.016971784
-0.06935973 -0.011399076 -0.1739063 0.12954946 0.1281859 -0.026884843 -0.011339255 0.5535429
0.09600762 0.11823437 -0.047757793 0.11991222 0.06334201 0.15801582 -0.104885355 0.30049765
0.26611397 -0.073421314 -0.16053766 -0.047866452 0.024042573 -0.0059330417 0.05236064 0.12618695
-0.082259856 -0.13045219 0.12707724 0.08744635 0.029515829 -0.24827102 -0.22040503 -0.120861135
0.018111462 0.10626289 -0.046753123 -0.027422067 0.079621084 0.06131087 0.22138512 0.31480962
0.1381854 -0.16290514 -0.22267826 -0.090477884 -0.09292685 -0.14077659 0.065352604 -0.12554324
-0.20287916 -0.18861368 -0.13993199 -0.119234174 0.016201638 0.07358411 -0.04983675 0.06709348
0.0018920499 0.020488048 0.034512926 -0.2631348 0.031264957 -0.17421587 0.06323454 0.00046607005
-0.1334713 0.059605855 0.17995973 0.04190941 0.030081768 0.092107214 -0.051848445 0.19825834
0.17649488 -0.06707027 -0.102147505 0.12272706 0.21124914 -0.21406727 -0.084264144 -0.15653671
0.07694405 0.014714549 -0.11626635 0.38167256 0.2331126 0.24527542 -0.0733737 0.113735124
-0.03644484 -0.16923364 -0.004926998 0.059566654 -0.022935081 -0.1697406 0.086367436 0.14713582
0.13206221 0.07293766 -0.13674723 0.0331264 0.0072714486 0.2602358 0.18560755 0.16125672
0.18645559 0.00058402494 -0.07947515 0.015297856 0.21299195 0.024953872 0.17031199 0.21089596
0.06784776 -0.028033774 0.2687284 0.1465999 -0.20167178 -0.041641902 -0.22159198 -0.06306037
-0.0457101 0.0855916 0.008108707 0.07430905 0.19572385 -0.05614493 -0.37145093 -0.03035662
-0.14954156 -0.015590298 0.39113998 0.059473462 -0.12667349 0.19631386 0.20561032 -0.21932967

hiden_layers.1.bias f4 [64]
00000000: f8d4 373d 733f 763d 02c2 5a3d 94bf d1bd
00000010: 4d71 2dbe 3cc9 1ebd 77e6 b0bc 355d adbd
00000020: 3468 b3bd 510a dcbc 62e4 a43d 634e 34bd
00000030: 35e8 2a3d 555a 75bd 4080 1ebe d8d2 7c3b
00000040: 2d22 b13d c2cb 1a3a 36c0 9dbd 0c7e 72bd
00000050: 89b8 813d a6b7 3d3d 5568 773d 36e0 1d3e
00000060: 7d7b 88bd 37bc 74bd ec8d 103e 4cf1 a33d
00000070: 6e39 10be db61 563b 61ae 2e3d 4d75 5ebd
00000080: d82c 05be 34d0 96bd 9eff a23d cbad b53d
00000090: 0e34 af3d 4b44 0dbe 3fe2 d43d c28b 25be
000000a0: b84b 053e 53d6 a43d 5cbf 85bd 5008 a4bd
000000b0: e094 61bd 7fb0 b7bd c2e5 d7bd 8af5 3d3d
000000c0: a895 8c3d dc74 a4bd ce75 dfbc b607 af3c
000000d0: 3e82 c33a 5384 a13d 8f43 39bd 3113 283d
000000e0: 66a3 48bd 79e6 9a3d 7dc7 2b3c 6053 083c
000000f0: 7a1c 6e3d 4543 17bc 6f9f 39bd 90a6 503d
0.044880837 0.060119104 0.053407677 -0.10241619 -0.16937752 -0.03876613 -0.02159427 -0.084650435
-0.087601095 -0.026860388 0.08051373 -0.044020068 0.041725356 -0.0599006 -0.15478611 0.003857782
0.08649097 0.0005904996 -0.07702677 -0.05920224 0.063340254 0.04631772 0.060402233 0.15417561
-0.066641785 -0.05974981 0.14116639 0.08005008 -0.14084408 0.0032712135 0.04264677 -0.054311085
-0.13005388 -0.0736393 0.07958911 0.08871039 0.085548505 -0.13795583 0.103947155 -0.16166595
0.13017166 0.080486916 -0.065306395 -0.08009398 -0.05507362 -0.08969211 -0.1054187 0.046376742
0.06864482 -0.08030102 -0.027277853 0.021365982 0.0014916135 0.07886567 -0.045230445 0.041033927
-0.048983954 0.075634904 0.010484573 0.008320659 0.058132626 -0.009232347 -0.045318063 0.050940096

hiden_layers.2.weight f4 [64, 64]
00000000: bf4a f7bd 66df bf3e 3092 af3e 724f c0bc
00000010: 3466 a9bc bb4b 46be 7fa0 1ebe 4053 fdbe
00000020: 5d97 fbbe 9354 92be a610 393e 058f a33d
00000030: 7a3d 1dbe e038 233d cd12 90bc 7a6e 8d3e
00000040: eca6 643e ffc6 da3b 46a5 053d 10f3 acbd
00000050: 3226 173e 35fb 663e 6411 1abe fcd7 333e
00000060: af53 d23d 0448 2abe 51ae 92be 6e58 c8bd
00000070: 5d2c 2b3d 02b0 adbd 7fa7 3f3e 839f 3e3d
00000080: 4b54 f0bd 073c 89bd e3b6 6ebe a434 abbd
00000090: 3b5d 3e3e 231d e93c 5d56 9abd a033 f83c
000000a0: 3d83 36be 3d69 bd3d 4f82 a6bd 5f5e 633c
000000b0: 928c e03d c4e9 bbbd 00b7 a63d 1a9f 3e3e
000000c0: d1cd 3bbc aff8 64be f02d 89bd 03af a4be
000000d0: 4701 ce3c d934 883d 9b83 6e3d ea3e 203e
000000e0: c346 43be 7a0c 1f3e 07d9 9f3e ffce 1bbe
000000f0: 6e27 07be 568d 593d ed35 e43d fb13 6a3e
00000100: 6e78 9d3d 50d4 19bc 267e e53d 49ff 413e
00000110: 0280 4e3e ab38 1d3e b6a5 b23e c135 8c3e
00000120: e389 c93d a9b1 133e a79a 423e b6b0 b33d
00000130: 0a1b 62bd 7ad9 fdbd 0d55 87bd e124 b13d
00000140: 6157 e5bd 601e aabd f9de 60be bc3f ffbd
00000150: 5a51 9d3d e69c 00be 49e7 b1bc ff5b 5e3d
00000160: da41 34bd bcc3 123d f49a 7d3e f840 a83d
00000170: 06ef f8bd b748 9c3d d793 0abc 9ef5 43bd
00000180: 49c1 633c 6bfd 673e 98a2 d4bd a695 263e
00000190: f5b9 233e 9f50 943d 56b3 e23c f3dc aebe
000001a0: da83 18be a05a edbd a967 e238 1acd cb3c
000001b0: 4a07 053d d8b1 8fbc c23d 82bd 1d36 583e
000001c0: e3e2 2ebe e6c6 863e edc3 75bd 9327 d1bd
000001d0: 5d43 0cbe d843 513e 1316 fdbd ab1a 3dbe
000001e0: b209 533e a678 dabb a86e c0bd 7de3 0a3f
000001f0: 5201 553d ecef 5d3e 17e9 033e 8d7c 13be
00000200: e7b3 723e 608a 56be 2732 11be f73e 51be
00000210: 0c88 1c3e be92 233d d2f9 81be d18a 453d
00000220: 5876 ddbd 220b 5d3e a8d7 943d 5888 523e
00000230: 9271 1dbc 3fe5 f83d 7d6a 5bbe d179 663e
00000240: def7 cc3d f6db 80bd aaf2 c13d 5bd3 5abe
00000250: d6b7 37be c22d ea3d 2cbf 823e d84c 27be
00000260: a6c1 babd 31ff 8fbd d8a8 d5bd 7233 e3bd
00000270: b3e9 213e f346 da3c 4a53 c73d 8c12 733e
00000280: a8d4 d8bd c42f f0bd bd60 ddbc b82d 0e3e
00000290: 3ed2 1b3e 6b0a a5bc a231 58be 7a8c 633e
000002a0: fbb0 3a3e 0925 2abc 80ea b2bd 0000 b6bd
000002b0: 3a13 e73d dd38 31bd 37d4 c6bd 869a d43d
000002c0: 758c 6d3e 1d6d 9a3d d4a8 dbbd 0d9f 563e
000002d0: 3adc f8bd 6ed2 f23d 8d3e 153d b0a3 03be
000002e0: 7727 5ebe d975 323e f030 67be a81f 07bf
000002f0: 1b0c d43d dfcb 35ba 1766 d03d c5ff 2d3e
00000300: fe96 20bd 292a 0cbe cf9c a6bb c158 c33d
00000310: 689b 69be c186 1cbe 9a14 8b3d 503a 88be
00000320: 8c10 bc3c 00f1 dd3d 8f46 333e 11b1 7abe
00000330: 6c18 db3d 0c67 843d 3fc3 11be 3e35 823d
00000340: 2dc2 043e a7ff 66be 851b 96be 8326 b1bc
00000350: 4bba c2bd 64cf aa3c 792a 533e b13a e4bd
00000360: 4d6c 14be 7552 efbd 8f81 0f3e c21d b03d
00000370: 4c64 95bd 2485 4c3e b3d9 383e eab7 9abe
00000380: f23b a6be 8e85 18be de17 783e d393 943e
00000390: 058f 063e 5453 023d fe13 ba3d b543 4dbe
000003a0: 0bb4 533e db6c 0cbe aa18 74bd 8efd 98bd
000003b0: 7ed9 cfbc 1033 41be afb3 a0bd 257b 343d
000003c0: 1e81 073d 8511 86bc e9b4 373e 4e6b cebd
000003d0: cb2e b6bd 890a 5dbd 1a51 7ebd f11a 2abd
000003e0: 6d45 403d 2265 213d f3c4 9fbd 1476 603e
000003f0: 56b8 9f3e 2f64 2cbe af72 0a3e e693 433c
-0.120748036 0.37475127 0.3429122 -0.023475382 -0.020678617 -0.19364826 -0.15490912 -0.49477577
-0.4913892 -0.2858015 0.18072757 0.07986263 -0.15355483 0.039849162 -0.01758709 0.2762335
0.223293 0.006676554 0.03262832 -0.08444798 0.14760664 0.22556765 -0.15045696 0.1756286
0.10269868 -0.16629034 -0.28648618 -0.097824916 0.041790355 -0.084808365 0.18716238 0.04653884
-0.117348276 -0.067009024 -0.23311953 -0.0835965 0.18590252 0.028456276 -0.07536004 0.030298054
-0.17823501 0.09248588 -0.08130323 0.01387748 0.10964312 -0.09175447 0.08140373 0.1861538
-0.011462645 -0.2236049 -0.06698215 -0.32164773 0.025147093 0.06650705 0.058230978 0.15649
-0.19069962 0.15532103 0.31220266 -0.15215681 -0.13198635 0.053113304 0.11143098 0.22859184
0.07688986 -0.009388998 0.112057015 0.1894504 0.20166019 0.15353648 0.34892052 0.2738476
0.09840753 0.1442324 0.19004308 0.08773939 -0.055201568 -0.12394996 -0.06608019 0.08649612
-0.11198307 -0.08306575 -0.21960057 -0.12463328 0.07681532 -0.12559852 -0.02171673 0.054286953
-0.044008113 0.035831198 0.24766141 0.08215517 -0.12154965 0.07631057 -0.008458099 -0.04784166
0.013901063 0.22655265 -0.10382575 0.16268024 0.15988906 0.0724194 0.027673405 -0.34152946
-0.14894047 -0.11589551 0.00010795828 0.024878073 0.032477655 -0.017540857 -0.063594356 0.21114393
-0.17078738 0.26323622 -0.060001303 -0.10212626 -0.13697572 0.20436037 -0.12357726 -0.18467204
0.20609167 -0.0066672144 -0.09396106 0.5425337 0.052003212 0.21673554 0.12881885 -0.14402981
0.2370144 -0.20951223 -0.14179288 -0.20434175 0.15286273 0.039934866 -0.2538591 0.04822809
-0.10813588 0.21586278 0.07267696 0.20559824 -0.009609597 0.121531 -0.21427341 0.22507407
0.100082144 -0.06291954 0.094701126 -0.21369688 -0.17941222 0.11434509 0.25536478 -0.16337907
-0.09118967 -0.07031096 -0.10432595 -0.11093797 0.15811805 0.02664516 0.09732683 0.23737544
-0.10587436 -0.117278606 -0.027023667 0.13884628 0.1521692 -0.02014657 -0.21112683 0.22221556
0.18231575 -0.010384806 -0.087361336 -0.08886719 0.11282964 -0.04326712 -0.097084455 0.103810355
0.23198111 0.07540343 -0.10725561 0.2095911 -0.1215138 0.118565425 0.036436606 -0.1285541
-0.21694742 0.17427768 -0.22577262 -0.5278268 0.103538714 -0.0006934981 0.10175722 0.169921
-0.039206497 -0.13687958 -0.005084611 0.09538413 -0.22813189 -0.1528578 0.06791039 -0.2660699
0.022957109 0.10836983 0.17507385 -0.24481608 0.106980175 0.06464967 -0.14234637 0.063578114
0.12964697 -0.22558461 -0.2931787 -0.02162481 -0.09508189 0.020850845 0.20621671 -0.11144007
-0.14494438 -0.11685649 0.14014266 0.08599426 -0.07294521 0.19972664 0.18051796 -0.3021844
-0.3246761 -0.14894697 0.24227855 0.2901903 0.13140495 0.03181775 0.090858445 -0.2004536
0.2067415 -0.137134 -0.059593834 -0.07470237 -0.025372263 -0.18867135 -0.07846772 0.044062752
0.03308212 -0.016365776 0.17940105 -0.100790605 -0.08895644 -0.053965125 -0.062089063 -0.0415296
0.04694121 0.03940309 -0.07801237 0.21920043 0.31195325 -0.16835092 0.13520311 0.011937117

hiden_layers.2.bias f4 [64]
00000000: 2217 423d eb61 41bd 2cf7 163b bbe0 ef3d
00000010: b7b0 efbc 219d 753d cccb a43c a091 7b3e
00000020: 4795 9ebc b453 50bd d220 4c3d e570 863d
00000030: ce44 0c3d d449 a13c b7f3 5fbd 0c3b 8fbd
00000040: ccc3 d13c f8f7 01be 769e a7bd 04e2 343d
00000050: 26ac cbbd 1b77 e6bd e00b 2e3e 0933 27be
00000060: a425 66bd b84b ec3c cfbb 8fbd e8bf 6b3d
00000070: fa7e 8ebd e963 af3d af43 ae3d 30a7 0fbe
00000080: 9438 43bd bcef 38bd 495c ea3c 45e4 d2bc
00000090: 230c 9c3d f453 113e 9b31 633c 9033 9b3d
000000a0: 0322 253d e78f 3f3d dba2 bd3c 74c2 3f3d
000000b0: cbe1 d43d 949b 9cbd 9fbe 48bc affd efba
000000c0: 8f8a 873c ef9e 833c 2f4a c63e ad11 55bc
000000d0: 5d0a 6fbd 9c68 a4bd 9061 16be b103 76bd
000000e0: 90a9 a3bd 3a2a 8bbc 63f7 863d a490 ae3b
000000f0: 2d22 cd3d 6ff7 99bd d362 52bd 59b4 91bd
0.047385342 -0.047212522 0.002303551 0.11712786 -0.029259069 0.059964303 0.02011671 0.2456727
-0.01935829 -0.050861076 0.049835987 0.06564502 0.034245305 0.019688524 -0.054675784 -0.06993684
0.025606059 -0.12692249 -0.08184521 0.044160858 -0.09944944 -0.11253186 0.16996717 -0.16328062
-0.05618824 0.0288447 -0.070182435 0.057556063 -0.069578126 0.08563978 0.08509003 -0.1402862
-0.04766138 -0.045150504 0.028608458 -0.025743613 0.076195024 0.14192182 0.013866807 0.07578194
0.04031564 0.046768095 0.023148945 0.046816304 0.10394629 -0.07646862 -0.012252479 -0.0018309857
0.016545562 0.016066996 0.38728473 -0.0130047025 -0.058359493 -0.08027765 -0.14685655 -0.060062114
-0.07991326 -0.016987909 0.06590154 0.005327301 0.10016284 -0.07517897 -0.051363777 -0.07114477

hiden_layers.3.weight f4 [64, 64]
00000000: 0655 7abe ed25 e43e b3a7 143e 5608 fb3c
00000010: 1f94 a63d 630b 313c f9b4 a1bd 81a2 6fbe
00000020: 53ad 133d 204a 0e3e 68f2 7e3e 6efb 71bd
00000030: f672 5e3e 02c6 17be 7c56 653e ca69 39be
00000040: 9d5e 15be 976d 5abe 4057 423e a0fd 15be
00000050: f1f5 e83e 09f5 abbe db67 3b3e 6f33 3a3e
00000060: 10ed 023e e942 073e ce13 95bd a822 a33b
00000070: 1599 7d3e f8a3 3e3e c0d7 afbd 7fbc 9c3e
00000080: 0c03 353d e801 223d d93d bbbd 6112 163e
00000090: f58b 893d 65a3 b53d 71eb b33d 7937 7fbd
000000a0: a74d 053d 3ae5 9f3d 88d3 6cbe bc9d 87bd
000000b0: d89f 083e 5a82 983e c66d 1b3b c94a d4bd
000000c0: c6ce 6a3e f20a 77be 0837 a3bd 60b7 43be
000000d0: 50c0 633e 354a 433e 1918 c43d d109 9bbd
000000e0: f0c5 7c3d f5fc a13d a5ce 76be e405 8f3d
000000f0: a1d5 82bc 0c62 053e ea71 aebd bdb3 013e
00000100: 1b7f 5fbe fb9b 02bc 4dfc 49bc 37b8 c73d
00000110: 5864 a3bc b9f3 ec3d 5f1b 8bbe eaa4 f339
00000120: 005b 9f3c e494 5fbe d9ad 6c3e 224f 583e
00000130: 3bca 513e 98e5 cdb9 686d 04be 54bf 2e3e
00000140: f92a 9c3d ef3c 63ba 862d 3b3e 5ab7 8e3e
00000150: d58b 4d3e 4f48 26be d176 0bbd d742 353e
00000160: f41f cbbd c0ca 7f3d c503 3f3e 99b9 51be
00000170: a595 2f3e 6e3f 13be 5888 c9be 6d51 763e
00000180: 96ba 8e3d b50c 13be 703a ff3e 429f 803d
00000190: 9935 52bd ee0d 91be 73af 1cbe 2e61 fa3d
000001a0: 2491 973d 527b 883c a79a 7ebd 314b 803e
000001b0: 4865 be3d d643 813d 6ef1 ca3d f286 573c
000001c0: ff4e 5b3e 60af 04be 26e8 3cbe 6524 223e
000001d0: 5b2b 543e cc2a 043e a7db a9bd b45f 1b3e
000001e0: 8100 9e3e 1c71 e6bd 1496 003e 4f96 fdba
000001f0: 44e4 103e ab9d 4a3d 2acb 493c 65f6 883e
00000200: b7dc 293e ff08 403e ea40 cdbd d492 02be
00000210: 2b22 85be 85f4 4a3e c0d8 1f3e f496 dbbd
00000220: f8e9 033e 4bef 9abd 0fef 99bd 5efc d93d
00000230: 92d2 90bd fc4d fbbc 450f 1e3e b019 243c
00000240: d128 07bd 7436 183e 13ae 39be ec8a 20be
00000250: b3a5 bc3c 09c8 943d ec2c eebd 946b 263e
00000260: 0278 383d 4d3b eb3b 699c 33be d611 4abd
00000270: bfb6 f63c f24e d9bd 9bd1 f7bd b0cf 83bd
00000280: 1961 78be be79 3ebd 1ab3 a33b fae4 643d
00000290: 21d3 3ebd 1ec4 9dbc d1b8 7b3d b733 783d
000002a0: 5e7f 973e 8bde 3dbe e6d3 eabd 6888 683d
000002b0: 8ec2 873c 2904 90be 057d 503e 70d8 1cbe
000002c0: fe27 bbbd 214a 1dbe ef0e 8d3e 1be6 133e
000002d0: 51dc 863b 996d 01bd 9f83 24be 294f 69be
000002e0: 6d9e 33be ba25 31be e452 fe3d 466b 193e
000002f0: 9610 183e 08fc 69bd c120 a239 83a6 0d3e
00000300: 89bb 7e3d 971f e7bd 2bdf 923b 1f01 8a3b
00000310: 3f3c 20be 0dcd aebd bbd2 443e a77e 78be
00000320: 0e9f b43d f9df 1abe e5e8 79be fea0 51be
00000330: 9501 50be 8f3c 5ebe 2f3c 05be cb48 c93c
00000340: abc8 30be e1df 7c3d e371 6d3c 61d4 c8bd
00000350: 8713 2d3e 4e56 d1bc 456a 50bd dab3 afbd
00000360: 9979 913d 988b c63d 8af5 8b3d 97ce 6d3e
00000370: edb5 313e 8c33 82be 9d2f c23c 3546 613d
00000380: 1999 7d3e 324d 8f3e 2f6f 2e3e 1dea 67be
00000390: 86f0 94be 338d 94bd ac87 05be b05c d7bd
000003a0: 4493 fc3c 7224 06bf 8aee 9ebe eee6 183d
000003b0: ec97 e8bc 25e4 0fbe 03a8 723e 0c2e 113d
000003c0: d111 a6bd 0138 5d3d a606 0fbd 3f1e 83be
000003d0: fa63 033d e95f 0a3e 8a2b 87bd 539e e33e
000003e0: 487b 553c 9f40 fd3d 8245 373e 4f24 e6bd
000003f0: 2c24 40bd f33b 69be dc6e 1ebe b344 85bd
-0.24446496 0.44560185 0.14517097 0.030643623 0.081337206 0.010805937 -0.07895846 -0.23401834
0.036053967 0.13895464 0.24897158 -0.059077673 0.21723542 -0.14821628 0.22396272 -0.18106762
-0.14586873 -0.21330868 0.18978596 -0.14647532 0.45500138 -0.33585384 0.18301336 0.18183683
0.12785745 0.13209118 -0.07279168 0.0049784966 0.24765427 0.18617237 -0.08586073 0.3061256
0.04419236 0.0395526 -0.09142656 0.14655448 0.06716148 0.08869056 0.08785141 -0.062308762
0.03254476 0.07807393 -0.23127568 -0.06621882 0.13342226 0.2978695 0.0023716553 -0.10365827
0.2293044 -0.24125269 -0.07969481 -0.19112921 0.2224133 0.19071276 0.09574909 -0.07570232
0.061712205 0.07909576 -0.24102266 0.069835454 -0.015971007 0.13025683 -0.08517821 0.12666221
-0.2182583 -0.007971759 -0.01232822 0.09751933 -0.019945309 0.11569924 -0.2716932 0.00046471442
0.019452572 -0.21834141 0.23113193 0.21123937 0.20487301 -0.00039271708 -0.1293236 0.17065173
0.07625384 -0.00086684426 0.18279085 0.2787426 0.20072873 -0.16238521 -0.03404886 0.17701279
-0.09918204 0.062449217 0.18653782 -0.20480956 0.17146929 -0.14379665 -0.39361835 0.24054499
0.06969182 -0.14360316 0.49849272 0.06280376 -0.051320646 -0.2833094 -0.15301304 0.12225567
0.0740073 0.016660366 -0.062159207 0.25057366 0.092966616 0.06311767 0.0990933 0.013154732
0.21416853 -0.12957525 -0.18447933 0.15834196 0.20719664 0.1290695 -0.082938485 0.15173227
0.3085976 -0.11252043 0.1255725 -0.0019347164 0.14149576 0.04946677 0.0123165045 0.26750484
0.16588102 0.18753432 -0.10022147 -0.12751323 -0.2600263 0.1981984 0.15610027 -0.107221514
0.12882221 -0.07565173 -0.075163 0.10643838 -0.07071413 -0.030676834 0.15435512 0.01001589
-0.03299791 0.14864522 -0.1813281 -0.15677994 0.02302823 0.07264716 -0.11629662 0.16251975
0.045036323 0.0071787 -0.17540134 -0.049333416 0.030116437 -0.10610761 -0.12100526 -0.064360976
-0.2425579 -0.04650282 0.004995716 0.05588243 -0.046588067 -0.019258555 0.06145555 0.060596194
0.2958936 -0.18541925 -0.11466198 0.056770712 0.016572263 -0.28128174 0.20360191 -0.1531694
-0.09138487 -0.15360309 0.27550456 0.14443247 0.004115619 -0.03159866 -0.16065834 -0.22784103
-0.17540903 -0.17299548 0.12418154 0.14982328 0.14850077 -0.05712512 0.0003092345 0.1383305
0.062190566 -0.11285322 0.00448217 0.0042115594 -0.15647982 -0.08535204 0.19221012 -0.24267064
0.088194 -0.15124501 -0.24405248 -0.2047157 -0.20313103 -0.21702789 -0.1301124 0.024570843
-0.17264049 0.061736945 0.014492485 -0.09806133 0.1690198 -0.025553849 -0.050882597 -0.08579226
0.07103271 0.09694594 0.06833942 0.23223339 0.17354555 -0.25429952 0.023704344 0.054998595
0.24765433 0.27988583 0.170346 -0.22647901 -0.29089755 -0.07253494 -0.13040036 -0.105157256
0.03083194 -0.5239936 -0.31041366 0.037329607 -0.028392754 -0.14051874 0.23696904 0.035444304
-0.08108867 0.054008488 -0.03491845 -0.25609013 0.032077767 0.1351315 -0.06600101 0.4445673
0.013029881 0.12365841 0.17897609 -0.11237394 -0.046909496 -0.22776775 -0.15471977 -0.06507244

hiden_layers.3.bias f4 [64]
00000000: 2d4d babc 6064 98bc 1b87 e13d 57f7 b6bc
00000010: badb 6bbd 812e c7bd ce38 573d 4df7 51bc
00000020: 655d 03be bbb3 943d f13b 483e a465 47bd
00000030: 5f82 153e 5a66 ddbc 0b85 35bd f6db ebbd
00000040: fdf6 db3b b953 ee3d a08c 3bbd d04c 953c
00000050: c0b2 483e 8e7c 18be 5ee2 5e3b 8f8a e53a
00000060: c112 dabd c635 3e3d 55eb 34be bb1b d5bb
00000070: b9ad 8a3c bd17 04bd d687 233d b4a6 8d3d
00000080: 9cb7 8abd e7c6 4c3c 3d46 d7bc 44ae 7bbd
00000090: e183 d73d 25cd 853e c6a2 f6bc b8e0 2fbc
000000a0: 1c0d 42bd 44c3 113d 5478 9f3d 4c4d fcbc
000000b0: cf37 98bd b430 ecbd 20b6 793d 92f0 3f3d
000000c0: be38 a63d 048e 78bd 955b d7bd 27a6 7bbd
000000d0: 37ef 51bd 8bb8 41bd 2bf5 913d 638e 0fbe
000000e0: aa4b c53c 1f97 dabd 711d e0bd 4faa 873d
000000f0: 8f21 d7bd a9c5 e63c 8ea5 8d3d bb9a 43bc
-0.022741878 -0.01860255 0.110120974 -0.022334738 -0.057582594 -0.09725667 0.052544408 -0.012815309
-0.12828596 0.07260843 0.19554116 -0.048680916 0.14600514 -0.027026344 -0.044316333 -0.115165636
0.006712793 0.116370626 -0.045788407 0.018225104 0.19599438 -0.14891264 0.0034009437 0.0017512607
-0.10648108 0.046438 -0.17667897 -0.00650355 0.01692854 -0.0322492 0.039924465 0.06916562
-0.06773302 0.012498594 -0.02627861 -0.06144549 0.10523201 0.26133075 -0.030106913 -0.0107347295
-0.047375783 0.03558661 0.07786623 -0.030798577 -0.0743252 -0.11532727 0.060964704 0.046860285
0.081162915 -0.06068231 -0.10515515 -0.061437752 -0.051253524 -0.047295135 0.0712684 -0.1401916
0.024083931 -0.10673355 -0.109431155 0.06624281 -0.10504448 0.028170424 0.06916343 -0.011938746

hiden_layers.4.weight f4 [64, 64]
00000000: 4022 68be ec92 383c f8a8 dc3b 3370 4ebe
00000010: 877c 1bbc 727f 02bd 3434 b0be da92 8a3e
00000020: 2b55 413d 152c a1bb ada5 8dbd 0323 8d3d
00000030: 6ffb e63d bd14 09be 2419 2abe 63c4 6ebd
00000040: 0dd4 15bd 7c89 3bbc dc78 273e b9b8 ab3e
00000050: 3002 babe 41d4 4c3d 4aa8 6bbe 80ea 82bd
00000060: 8a7e 8cbc 3982 9ebd 0b25 cf3d 550e 2e3e
00000070: 42d7 76bd 82db 2ebe d52c adbd 857b 3dbc
00000080: e137 0a3e f41e d83b cb70 1a3e ddb2 6bbd
00000090: acc7 253e 49e5 22bc f200 063c e602 a4bd
000000a0: c2c3 59be afb9 b83c 7e03 533e aaf9 e93d
000000b0: 5790 273c bf12 b13e d4aa fd3e 878c 42be
000000c0: 41c0 82be 6e29 4cbe dae6 d33d cd69 9dbd
000000d0: fce7 0ebe dbd0 4b3e 6bea 513d 82a9 01bf
000000e0: 6b65 f83d ea9a 3f3c 2242 84be 33e9 69be
000000f0: 5831 853e e1ae 29be 94d8 103d 9d0c 73be
00000100: cba3 9a3c 477c d3be d426 aabd 0af0 2b3d
00000110: 00d1 53be afe1 3e3d 0b02 9cbe 134e d1bd
00000120: a18a aebc ae28 d6bd 9d4f 703d 378b 1abe
00000130: d3a1 a93c 453a 113e f751 f3bd cf41 1f3d
00000140: 8944 f4be b9ca a1bd c98d ed3e 9c4b 803e
00000150: 2920 233e 7d95 09bd 3674 063f a4d2 e33d
00000160: efca 85be 52ed 9ebe b6b4 bfbd 2c69 413e
00000170: fa66 cbbd fe1a 15be abbd afbe f669 123e
00000180: 4eaf 3b3e 6c5a 2cbd cd0a fabc bb92 a0bc
00000190: fccd bbbd 9781 25be a11e 1f3d 18ca 973d
000001a0: d367 003e 85f0 8cbe 840e 963d 98fd bc3e
000001b0: 3710 dabd 7924 843e ee1d 8d3b 58b7 30bd
000001c0: a7db 8fbe 430c 973e 47c3 34be af07 81bd
000001d0: 038c 143d 9068 b3bd 0c24 893e 9355 bcbd
000001e0: 1a06 723c 3b59 37be 52c5 c13d b35d 283b
000001f0: 0397 193e 7433 3fbe 3521 9e3d 9955 213e
00000200: 57d1 aabc b56d e5bc d2d1 53be a814 09be
00000210: 04a1 01bd e582 25be d83d 6dbe 9451 d63c
00000220: e3dc 073e 03f8 a2be 6959 e9bc 598a 1dbe
00000230: 207f 463d 4719 803e c465 153d d1d5 a3bc
00000240: 2249 3ebe 7849 253e 6cfd 3ebd 279b 2b3e
00000250: 167b dbbd 8966 85be c1b5 4dbe 7d18 39be
00000260: 0767 72be 17ec 5dbe 6451 bd3d fd76 293e
00000270: b6cc b0bd b449 8c3e 3a75 81be 319a 193e
00000280: 4e9c 83be 3443 9ebd 2cd4 edbd f95e a23e
00000290: 7a0d fcbd e772 a93e 8a49 47bd 2264 533e
000002a0: f691 eb3d 8902 55bc cd4c a9be 7509 b23d
000002b0: 576b 31bc 36bb 793d 0aa3 3e3d e44a 633e
000002c0: be00 d33d 647c b73d f408 b13e 6a5f 6fbe
000002d0: 7c1e 24be c0a2 8e3e 3060 38ba dc2c 893d
000002e0: b8d7 a03c b909 9e3e ad99 503e 512f 563e
000002f0: e483 45bd 1e11 ca3c b2eb 5d3d ebe1 883e
00000300: 5da1 ad3d 0910 02bd cb2d 87bc 99f9 853e
00000310: 7a81 4a3e fd00 223d 59a6 523d 019c 31be
00000320: d10a 073d 76ec 2dbd 4a84 883e 2dfd 653e
00000330: c3f2 5c3d 5b17 2fbe d10d a63e ec1a 863e
00000340: be5d 173e dd0b 07bd 8cc0 d5be 4a77 b2be
00000350: b128 043d 1091 4e3d 6389 2a3e c80d 1c3e
00000360: c312 573e 2262 98be 0813 953d ff42 cbbd
00000370: 6e35 81bd cb11 743d 26f3 95bd a45a 7abe
00000380: 023f 8dbd 9922 ac3d e493 18be 8fbd 30be
00000390: a2f5 493e dec3 5dbd 66db 7ebd 4262 8dbb
000003a0: f26e 44bd 6c62 073d 73a8 43be 43f8 4f3e
000003b0: 41e2 f83d a264 f8bd cffa 1abe 377a 17be
000003c0: 4707 033e 93bd 193e 71c2 f7bd 78b8 043e
000003d0: 26e0 5e3c e87b dd3d 8e44 873d a76d 3f3e
000003e0: a313 84be e0a2 abbd 70a7 233e d2c6 eb3d
000003f0: af0d 0b3e 67e5 b8bd 5874 b83e c251 603e
-0.22669315 0.011265498 0.00673401 -0.20159988 -0.009490139 -0.031859823 -0.34414828 0.27065164
0.047200363 -0.004918585 -0.06916366 0.068914436 0.11278426 -0.13386817 -0.16611153 -0.058292758
-0.03657918 -0.011446353 0.16354698 0.3353937 -0.36329794 0.05000711 -0.23013416 -0.063923836
-0.017150182 -0.07739682 0.10114487 0.16997655 -0.06026388 -0.17075923 -0.08455817 -0.011565094
0.13497879 0.006595487 0.1508209 -0.057543624 0.1618945 -0.009942361 0.008178936 -0.08008365
-0.21266082 0.022549478 0.20606801 0.11424573 0.010227284 0.34584615 0.49544394 -0.1899892
-0.25537303 -0.19937679 0.10346766 -0.076861955 -0.13955683 0.19903891 0.05124895 -0.50649273
0.12128719 0.011694649 -0.25831705 -0.22842865 0.2601421 -0.16570617 0.035362795 -0.2373528
0.01887693 -0.41305754 -0.08308187 0.041976966 -0.20685196 0.046601947 -0.3047031 -0.102199696
-0.021306338 -0.10456978 0.058669675 -0.15092169 0.020707047 0.14182384 -0.11880868 0.03888112
-0.47708538 -0.078999944 0.46397236 0.25057685 0.15930237 -0.03358983 0.52521074 0.11124161
-0.2613139 -0.31040436 -0.0936064 0.18887776 -0.099317506 -0.14561078 -0.34324393 0.14298233
0.18328592 -0.04207842 -0.030522728 -0.019601217 -0.09170148 -0.16162716 0.03884757 0.07411593
0.12539606 -0.27527252 0.073269874 0.36912227 -0.10647624 0.25809076 0.0043065464 -0.0431436
-0.2809727 0.29501542 -0.17652617 -0.06300294 0.036266338 -0.08760178 0.26785314 -0.091960095
0.014771963 -0.17905132 0.09461464 0.0025690615 0.14999013 -0.18671972 0.077211775 0.15755309
-0.020851774 -0.028006414 -0.20685509 -0.13386786 -0.031647697 -0.16163214 -0.23168123 0.026161946
0.13267855 -0.31829843 -0.028485017 -0.15384807 0.04846108 0.25019285 0.036474004 -0.019999417
-0.18582585 0.16141307 -0.0466284 0.16758405 -0.10716836 -0.2605479 -0.20088865 -0.18075748
-0.23672114 -0.21672092 0.0924404 0.16549297 -0.086327955 0.2739998 -0.2528475 0.15000226
-0.2570519 -0.07727662 -0.11612734 0.31713083 -0.12307258 0.33095476 -0.048654117 0.20643666
0.11502449 -0.013001093 -0.33066407 0.0869321 -0.0108288145 0.060969554 0.046542205 0.22196537
0.10302876 0.089592725 0.34577143 -0.23376241 -0.16027254 0.27858543 -0.0007033376 0.06698009
0.019634113 0.30866793 0.20371123 0.20916487 -0.048221484 0.024666365 0.054179855 0.26734862
0.08478043 -0.031753574 -0.016501328 0.2616699 0.19775954 0.039551724 0.051428173 -0.17344667
0.0329693 -0.042461835 0.2666343 0.2245986 0.053942453 -0.17098753 0.32432416 0.26192415
0.14781854 -0.032970298 -0.41748464 -0.34856635 0.03226537 0.05043131 0.16653971 0.15239632
0.21003251 -0.2976237 0.072790205 -0.09924888 -0.06309019 0.05958728 -0.073217675 -0.24448639
-0.068967834 0.084050365 -0.14900166 -0.17259811 0.19722608 -0.05414187 -0.062220953 -0.0043146918
-0.04795737 0.033052847 -0.19107227 0.20309548 0.121525295 -0.12128569 -0.15134738 -0.14792715
0.12795745 0.15013723 -0.12097634 0.12960994 0.013603246 0.10814649 0.06604873 0.18694173
-0.25796232 -0.08380675 0.15981841 0.11512531 0.13579439 -0.0902813 0.36026263 0.21906188

hiden_layers.4.bias f4 [64]
00000000: 17ee e0bd 2fcc a03d 7b8d 08bc f034 26bb
00000010: 61f1 943c 8756 94bc e276 3a3d 6538 02bc
00000020: 3ac8 323d 45a0 503e ed89 57bd d250 e13d
00000030: eb91 953d 6e70 abbc 726a 77bc c04a 163d
00000040: fe4f 6e3d 6835 bb3c ff02 993a 3bba e9bc
00000050: 44cd 093e 48d7 d63d 27cb a3bd abd6 d6bc
00000060: 2640 a83d 1481 f93d 9653 39be f2c5 d1bb
00000070: 2f77 47bd 325a f33b d147 383d 5f3c 153d
00000080: a027 14bc 669a 32bc 6f91 0dbd b092 98bb
00000090: 3868 b3bd c9f5 1b3d dae2 ce3b ebf3 a2bd
000000a0: 91a7 ccbd a286 773e 45b8 cdbb cefa 233c
000000b0: 94df 96bd 113c b43e 40eb 1fbe 76a7 b1b9
000000c0: a9b2 d33d ebf2 18be e936 a63c 437c 103e
000000d0: 7e02 82bc 6cd5 c93d 4cd7 0f3e 619d 143d
000000e0: b39f 3cbe 9234 3cbc 5787 c3bd d137 1dbd
000000f0: 5066 2e39 341a 093d 4895 353e dbcd 833b
-0.10982912 0.07851445 -0.008334513 -0.0025361143 0.018181505 -0.018107666 0.04552353 -0.007948016
0.043647982 0.20373638 -0.05262177 0.110017434 0.07303222 -0.020927634 -0.015101062 0.03669238
0.058181755 0.022852615 0.0011673867 -0.028531184 0.13457209 0.104902804 -0.079977326 -0.026225409
0.0821536 0.12182823 -0.18098292 -0.0064017707 -0.048697647 0.0074265236 0.044990364 0.036434527
-0.00904265 -0.010901069 -0.034562524 -0.0046561584 -0.087601125 0.038076196 0.006313664 -0.0795668
-0.09992898 0.24172452 -0.00627807 0.010008527 -0.07366863 0.35202077 -0.15617085 -0.0003388484
0.10336811 -0.14936416 0.020289855 0.14109902 -0.015870329 0.0985516 0.14046973 0.0362829
-0.18420295 -0.011487143 -0.095472984 -0.03838331 0.00016632047 0.033472255 0.17732728 0.0040223426
