results/2_same_with_zoom/epoch900/model_weights.pth (torch, 484214 bytes, 88 tensors)

init_layer.0.weight f4 [64, 3]
0	0xbe849ec9	-0.25902393
1	0xbdc44399	-0.09583206
2	0x3e10b81b	0.1413273
3	0x3e06da1f	0.13169144
4	0xba9c4957	-0.0011923712
5	0xbc8901de	-0.016724523
6	0xbd67b57e	-0.05656957
7	0xbe54b7c6	-0.20773229
8	0xbdbfbec2	-0.09362556
9	0x3e3e6595	0.18593438
10	0x3de6a5ca	0.112620905
11	0x3da9aaae	0.08284508
12	0x3be608ce	0.0070200926
13	0x3e87205e	0.26391882
14	0x3e205a5d	0.15659471
15	0xbe100230	-0.14063334
16	0xbe8dfc78	-0.2773168
17	0x3dfeeb9f	0.12447285
18	0x3e8a81bd	0.27052107
19	0x3cefc9c5	0.029271016
20	0x3e3ac8d5	0.18240674
21	0x3e7502b8	0.23926818
22	0x3e057a1f	0.13034867
23	0x3d2c55d6	0.042074047
24	0x3e67dfef	0.22644018
25	0xbe95fda5	-0.29295078
26	0x3d32eb47	0.04368141
27	0xbdecb15d	-0.11557267
28	0xbe406d45	-0.18791683
29	0x3e276c81	0.16349985
30	0xbe68e9b5	-0.22745402
31	0x3bf18d51	0.0073715826
32	0x3d5409d8	0.0517672
33	0x3d9eb160	0.07748675
34	0x3e4575c1	0.19283201
35	0xbe1996f8	-0.14998996
36	0x3bafbfce	0.005363441
37	0xbdb1b4ac	-0.086770386
38	0xbd334e72	-0.043775983
39	0xbe0f9cf3	-0.14024715
40	0xbc5df842	-0.013547959
41	0x3dd354aa	0.10318883
42	0x3da86ec9	0.082242556
43	0xbe854259	-0.26027182
44	0xbd3bc057	-0.045837726
45	0x3e6d0e8b	0.23150079
46	0xbe48c80e	-0.19607565
47	0xbe192905	-0.14957054
48	0x3dadafb5	0.08480779
49	0xbe008091	-0.12549044
50	0x3e4b3abe	0.19846627
51	0x3e4feecb	0.20305936
52	0x3e647601	0.2231064
53	0xbd8eab2b	-0.069662414
54	0x3cc2e262	0.023789588
55	0xbc909a14	-0.017651595
56	0xbd850831	-0.06495703
57	0xbddd19f1	-0.107959636
58	0x3e147a1d	0.14499708
59	0xbd77fe6e	-0.060545377
60	0x3e10936d	0.14118738
61	0xbde9a90c	-0.11409196
62	0xbd77e1c2	-0.060518034
63	0x3e75e633	0.24013595
64	0xbcf5cf5e	-0.030006107
65	0xbd421ae6	-0.047388934
66	0x3ce62912	0.028095756
67	0xbe6efd9b	-0.2333893
68	0xbdd432ff	-0.10361289
69	0xbd9b7265	-0.075901784
70	0x3e10917a	0.14117995
71	0xbba300a8	-0.0049744435
72	0xbd687a60	-0.05675733
73	0xbdfee758	-0.12446469
74	0x3e34c971	0.17654969
75	0xbde4cef2	-0.11172284
76	0x3e4cf153	0.20013933
77	0xbd988e72	-0.07449044
78	0x3d59b49c	0.05315076
79	0x3e79a168	0.24377978
80	0x3e22d46c	0.15901345
81	0xbe015aee	-0.12632343
82	0xbe71534d	-0.23566933
83	0x3d14265f	0.036169406
84	0x3b0c9df8	0.0021456461
85	0x3c6227f2	0.013803469
86	0xbc7bc203	-0.01536608
87	0x3d8093e8	0.06278211
88	0xbe8efbc7	-0.27926466
89	0x3c8d1440	0.01722157
90	0xbe9316e1	-0.28728393
91	0xbdf78c80	-0.12087345
92	0xbd8408aa	-0.06446965
93	0xbd62894b	-0.055306714
94	0x3d9d3f46	0.07678084
95	0x3e865064	0.26233208
96	0xbdb8f31f	-0.09030747
97	0x3e75a6cf	0.23989414
98	0x3d800340	0.0625062
99	0xbe78c03a	-0.24292079
100	0x3e847a9f	0.25874802
101	0xbd15038c	-0.036380336
102	0xbc848079	-0.016174542
103	0xbdbb12cb	-0.09134444
104	0xbdb39549	-0.08768708
105	0xbd8df325	-0.06931142
106	0xbe347967	-0.17624436
107	0xbe83f25e	-0.2577085
108	0x3d1e5aed	0.038660932
109	0xbd22f2a2	-0.039782174
110	0xbe29938c	-0.16560191
111	0xbe3f2e41	-0.18669988
112	0xbd9240f5	-0.07141296
113	0xbb9ea334	-0.0048412327
114	0x3e2dccac	0.16972607
115	0xbe0ed2d4	-0.13947612
116	0x3e57d39e	0.2107682
117	0xbe44c046	-0.19213971
118	0x3e1589c2	0.14603332
119	0x3eabfd12	0.33591515
120	0x3e6c7b32	0.2309387
121	0x3d06fb6a	0.03295461
122	0xbe5b998e	-0.21445295
123	0xbc509209	-0.01273013
124	0xbdc74d72	-0.097315684
125	0xbe26e433	-0.16297989
126	0x3dbde7c0	0.092727184
127	0xbdba7597	-0.0910446
128	0x3e8ec6d4	0.2788607
129	0x3d2ce029	0.042205963
130	0xbd429b04	-0.047511116
131	0x3d81302d	0.06308017
132	0x3dfa9934	0.122362524
133	0xbe69c821	-0.2283025
134	0xbdf5ea38	-0.12007564
135	0xbea0d158	-0.31409717
136	0xbe85ddc8	-0.26145768
137	0x3e0e68d7	0.1390718
138	0xbc9ccb05	-0.019139776
139	0xbe2972da	-0.16547719
140	0x3d9a3117	0.075288944
141	0x3df524da	0.119699195
142	0x3e301e95	0.17199166
143	0x3d95f828	0.07322723
144	0x3e6b0db1	0.22954442
145	0x3e6d8c06	0.23197946
146	0xbcba3d18	-0.02273421
147	0x3df602b9	0.12012238
148	0xbe90e7ce	-0.28301853
149	0x3e124e10	0.14287591
150	0xbd78f792	-0.060782976
151	0xbe6f2cab	-0.23356883
152	0xbdd66673	-0.104687594
153	0xbeaeb3f4	-0.34121668
154	0xbdf2c03a	-0.118530706
155	0xbd4f6f60	-0.050643325
156	0x3e56c70b	0.20974366
157	0xbe890d49	-0.26767948
158	0x3cf7ecca	0.030264277
159	0xbdf6780a	-0.120346144
160	0xbe420cc9	-0.1895019
161	0x3cbe1e6f	0.023207871
162	0x3dfab61f	0.12241768
163	0xbe4d8cdd	-0.20073266
164	0xbe4d45a4	-0.20046097
165	0x3e40551b	0.18782465
166	0x3b5797cd	0.0032896877
167	0x3e347bc3	0.17625336
168	0x3e4092a4	0.18805939
169	0x3d7399b2	0.059472747
170	0x3e4ba42d	0.19886847
171	0x3ca3adee	0.019980397
172	0xbc749eeb	-0.014930467
173	0x3d294645	0.04132678
174	0x3e67b2ff	0.22626875
175	0x3e758ff7	0.239807
176	0x3ce27a79	0.02764629
177	0x3e09e151	0.13464858
178	0x3e26d34c	0.16291541
179	0xbde5a66f	-0.11213385
180	0xbe25b88f	-0.16183685
181	0xbe786e38	-0.24260795
182	0xbd660d75	-0.056165177
183	0xbe26e4cf	-0.16298221
184	0x3dc25e30	0.09490621
185	0xbd301ff1	-0.04299921
186	0x3e843af4	0.25826228
187	0xbd0b0093	-0.033936094
188	0x3d0c1e84	0.03420879
189	0x3e77b355	0.24189503
190	0x3cbd6dec	0.023123704
191	0x3daa106b	0.08303913

init_layer.0.bias f4 [64]
0	0xbde60fe4	-0.112335
1	0x3d60b3af	0.05485886
2	0xbdaba468	-0.083809674
3	0xbcaf8c73	-0.021429276
4	0xbda5ab48	-0.0808931
5	0xbd93c7d2	-0.07215847
6	0x3dd89945	0.10576109
7	0x3de74558	0.11292523
8	0xbd8285ed	-0.063732006
9	0x3d9bee8b	0.07613858
10	0xbdce2a07	-0.1006661
11	0xbd862344	-0.06549695
12	0x3d50669a	0.0508791
13	0xbd591c4e	-0.05300551
14	0xbd46b45c	-0.048511848
15	0x3db143f5	0.0865554
16	0xbdb164c9	-0.08661801
17	0x3ce5e1fc	0.02806186
18	0x3c2354fc	0.009968992
19	0x3c68cb81	0.014208675
20	0x3d9fbf3f	0.07800149
21	0x3d9bf218	0.07614535
22	0x3d732e66	0.05937042
23	0xbc0983f0	-0.008393273
24	0x3de7b9d6	0.11314742
25	0xbda4e850	-0.080521226
26	0x3d9b0a47	0.075703196
27	0x3bf50dd9	0.0074784574
28	0xbab7085c	-0.0013964283
29	0xbd849656	-0.06473987
30	0xbdeb1282	-0.114781395
31	0xbdba9426	-0.09110288
32	0x3cc0098a	0.023442049
33	0xbc457e4c	-0.012054037
34	0xbd866297	-0.06561773
35	0xbde5cd3e	-0.112207875
36	0x3dcf46ef	0.101209514
37	0xbdb8657a	-0.0900373
38	0x3dda6ea6	0.10665636
39	0x3d5255a3	0.0513512
40	0x3dea4f4e	0.114409074
41	0x3da77e40	0.08178377
42	0xbd581f18	-0.05276403
43	0x3c9fae67	0.019492341
44	0x3d9a9057	0.07547062
45	0xbdef4a49	-0.11684091
46	0x3d893525	0.0669959
47	0xbd809edf	-0.06280302
48	0x3d8dd5e3	0.06925561
49	0x3dc72dce	0.097255334
50	0x3d7db0c2	0.061936148
51	0xbde4bc1b	-0.11168691
52	0xbb9e13f3	-0.0048241555
53	0x3d6adca5	0.05733933
54	0x3de1320e	0.10995875
55	0x3dd5f3f2	0.104469195
56	0x3dd37e15	0.103267826
57	0x3a9daa15	0.0012028838
58	0x3dace28a	0.084416464
59	0x3dafc1fb	0.08581921
60	0xbdd75cfd	-0.10515783
61	0xbddc14d8	-0.10746163
62	0x3dbf6e0c	0.09347162
63	0x3dc5480e	0.09632884

hiden_layers.0.weight f4 [64, 64]
0	0xbe370ad6	-0.17875227
1	0xbc514fee	-0.012775404
2	0x3e843e30	0.25828695
3	0x3ca32393	0.019914424
4	0xbe276e20	-0.16350603
5	0xbd30a8f4	-0.043129876
6	0x3e1f20a5	0.15539797
7	0xbe52bf1a	-0.20580712
8	0xbde457bc	-0.111495465
9	0xbd800406	-0.062507674
10	0x3d165e50	0.036711037
11	0x3e70cf3e	0.23516557
12	0x3e9aad8a	0.30210525
13	0x3d887cae	0.06664406
14	0x3e3656f5	0.17806609
15	0xbe412aa7	-0.18863927
16	0xbd1d34b1	-0.03838033
17	0xbde20777	-0.1103658
18	0x3e7d40e2	0.24731782
19	0x3b11d63e	0.0022252942
20	0xbd16ed15	-0.036847193
21	0x3d6eebcd	0.058330346
22	0x3d953c43	0.07286885
23	0xbe3f3a49	-0.18674578
24	0x3d8b4702	0.06800653
25	0x3de2f9c9	0.11082799
26	0xbdeb5cfd	-0.114923455
27	0xbe269ce6	-0.1627079
28	0x3e824c99	0.25449064
29	0xbda6fca6	-0.081536576
30	0xbe47b3d6	-0.19502196
31	0x3e727606	0.23677835
32	0xbe1d16c6	-0.15340719
33	0x3d1ea2c0	0.03872943
34	0x3ef0b921	0.47016242
35	0xbea2a22a	-0.31764346
36	0x3dc682f9	0.0969295
37	0x3d9cb917	0.076524906
38	0x3e470171	0.19434144
39	0x3e821147	0.25403807
40	0x3dc92c3b	0.098228894
41	0x3d5c6cb5	0.05381461
42	0x3ed02a0e	0.40657085
43	0xbee73daf	-0.45164248
44	0xbc4c6966	-0.012476301
45	0xbd2f094d	-0.04273348
46	0xbde66c6e	-0.1125115
47	0xbeb38463	-0.3506194
48	0x3e2966c0	0.16543102
49	0xbe530363	-0.2060676
50	0xbd4b515c	-0.049638137
51	0x3d1e3db7	0.038633075
52	0xbd5ea509	-0.05435661
53	0x3b7305c0	0.0037082285
54	0x3df41d55	0.11919657
55	0x3e6ef2a2	0.23334745
56	0xbd015a5d	-0.031580318
57	0xbec98721	-0.39360908
58	0xbe2611c7	-0.16217719
59	0x3e11aa10	0.1422503
60	0x3ddab94d	0.106798746
61	0xbccd7064	-0.025078006
62	0xbd698e39	-0.0570204
63	0xbe37879b	-0.17922823
64	0xbb0ce7b1	-0.0021500404
65	0xbe61a786	-0.22036561
66	0xbe4d4130	-0.20044398
67	0x3e2372ad	0.15961714
68	0xbe306f7d	-0.1723003
69	0xbda6ba3d	-0.08140991
70	0x3e27b439	0.16377343
71	0xbe5191a0	-0.20465708
72	0x3c25c1f2	0.010117041
73	0xbe276959	-0.1634878
74	0x3e834f86	0.2564661
75	0xbe1c663f	-0.15273379
76	0xbbf97c13	-0.0076136678
77	0x3d9be1a7	0.07611399
78	0x3c7ca7ef	0.015420898
79	0x3e012b73	0.12614231
80	0xbc00e05f	-0.007865994
81	0x3e1f2ea1	0.15545131
82	0xbcd899de	-0.026440557
83	0xbb9592be	-0.004564612
84	0xbda1312d	-0.07870708
85	0xbe745368	-0.23859942
86	0x3dd55051	0.1041571
87	0x3e158ab5	0.14603694
88	0xbca501bc	-0.020142429
89	0xbd8682d6	-0.06567924
90	0x3e6397c8	0.22225869
91	0x3e2751fb	0.16339867
92	0x3e05d637	0.13069998
93	0x3de3088e	0.11085616
94	0xbe13380f	-0.14376853
95	0xbdac3ea8	-0.08410388
96	0x3c9a0da1	0.018805327
97	0x3cf17b8c	0.029477857
98	0x3e03d695	0.12874825
99	0x3e0acbc4	0.13554293
100	0x3e3479da	0.17624608
101	0xbc2caf64	-0.010539863
102	0xbd36b750	-0.044608414
103	0x3e4cc325	0.19996317
104	0xbe056afc	-0.13029093
105	0xbd4d158a	-0.05006937
106	0xbe41ae1a	-0.1891407
107	0x3c31d2dc	0.010853495
108	0x3da72772	0.081618205
109	0xbe35d180	-0.17755699
110	0x3e3785e8	0.17922175
111	0xbe4a68f7	-0.19766603
112	0xbd8f0d05	-0.06984905
113	0xbda45880	-0.080246925
114	0xbd9baa43	-0.07600834
115	0xbdc6f4da	-0.097146705
116	0x3dc32ad7	0.095296554
117	0xbe05f5c5	-0.13082035
118	0x3df206b0	0.11817682
119	0x3dfe4014	0.12414566
120	0xbe4341d9	-0.19068088
121	0xbdb28997	-0.087176494
122	0xbe442ffd	-0.19158931
123	0xbe45bc3f	-0.19310091
124	0x3e4df2bc	0.20112127
125	0x3e329b4e	0.17442057
126	0x3e1e8e3d	0.15483947
127	0xbddce517	-0.10785883
128	0x3e098d0f	0.13432716
129	0xbcd77d90	-0.02630499
130	0x3e63609c	0.22204822
131	0x3c9c7846	0.01910032
132	0xbe4c2b27	-0.19938336
133	0x3c51f648	0.012815066
134	0xbd1e2b90	-0.038615763
135	0xbe41bfbf	-0.18920802
136	0x3e5e0e3f	0.21685122
137	0xbdac901f	-0.084259264
138	0xbc8f8470	-0.017519206
139	0x3e21ff87	0.15820132
140	0x3dd2fc46	0.103020236
141	0xbe6de38c	-0.23231333
142	0x3e8d58d1	0.27606824
143	0xbdc1f801	-0.09471131
144	0xbcfe7827	-0.031063152
145	0xbe356e8c	-0.17717952
146	0x3d9e2f06	0.07723813
147	0xbe1395a7	-0.14412557
148	0x3b344928	0.0027509425
149	0xbdcc6846	-0.09980826
150	0xbe1bd1ee	-0.152168
151	0xbd9657fa	-0.07340999
152	0xbcf9970d	-0.030467534
153	0xbe13a5de	-0.14418742
154	0xbd8b9f27	-0.06817465
155	0x3e478c21	0.19487049
156	0xbd376a54	-0.044779137
157	0xbdb18649	-0.08668191
158	0x3e7eaaae	0.24869797
159	0x3e5eec6f	0.2176988
160	0xbe7caba6	-0.24674854
161	0xbe3e1089	-0.18560995
162	0x3e89627f	0.2683296
163	0x3e8ca6c8	0.27470994
164	0xbdf1ea0c	-0.11812219
165	0xbdd3af37	-0.10336154
166	0xbcff33f2	-0.0311527
167	0xbd5f9d37	-0.05459329
168	0xbe5cfc29	-0.21580566
169	0xbd940b44	-0.07228711
170	0x3e64c077	0.22339045
171	0x3e4aada1	0.19792797
172	0x3e4ef0ed	0.20209093
173	0x3d7fec8c	0.062481448
174	0xbd22045a	-0.03955493
175	0x3ce3a04c	0.027786396
176	0xbcc241a9	-0.02371295
177	0x3d7f7b7d	0.062373627
178	0xbde703da	-0.112800315
179	0xbcaac756	-0.020847004
180	0x3e144e46	0.14482984
181	0xbd5d5f64	-0.05404605
182	0xbe0167b8	-0.12637222
183	0x3c33e297	0.010979316
184	0xbe8172be	-0.25282854
185	0x3e386549	0.18007387
186	0xbe400665	-0.1875244
187	0xbe47ee70	-0.1952455
188	0x3e6aa859	0.22915782
189	0xbe24b689	-0.16085257
190	0xbdfc9d0b	-0.12334641
191	0x3e21588a	0.15756431
192	0x3de0e2f8	0.10980791
193	0xbe012cbc	-0.12614721
194	0xbc8b3a6e	-0.016995635
195	0xbd40bcbf	-0.047055002
196	0x3e0e8401	0.13917543
197	0x3dac96fe	0.08427237
198	0xbd0c872f	-0.03430861
199	0xbdf49b5e	-0.119436964
200	0xbeba7e33	-0.36424407
201	0xbe2ce7a4	-0.16885239
202	0x3d53e122	0.051728375
203	0x3d4bc21a	0.049745657
204	0xbdf2115b	-0.118197165
205	0xbd47e12b	-0.04879872
206	0xbd88878e	-0.0666648
207	0xbe1897a3	-0.14901595
208	0xbe2004b4	-0.15626794
209	0x3e2b6c24	0.16740471
210	0x3e1f9696	0.15584788
211	0xbd4c865a	-0.049932815
212	0x3e2ec1e5	0.17066152
213	0xbe0389e9	-0.12845577
214	0xbe3dcd39	-0.18535317
215	0xbd5b83f1	-0.053592626
216	0x3e6d2f3c	0.2316255
217	0x3d7b8c2f	0.061412986
218	0x39eded5c	0.0004538101
219	0xbd81d244	-0.06338933
220	0xbddbef9f	-0.107390635
221	0xbe818b81	-0.25301746
222	0xbe41befa	-0.18920508
223	0x3ccbd1d7	0.024880333
224	0xbd970ffb	-0.07376095
225	0x3e1db28a	0.15400138
226	0xbe550725	-0.20803507
227	0xbd030855	-0.031990368
228	0xbbafed7b	-0.005368886
229	0xbe439acf	-0.19102024
230	0x3c879a67	0.016553117
231	0x3d287fe4	0.04113759
232	0xbe276a31	-0.16349103
233	0xbc403b46	-0.011732882
234	0x3b610f69	0.003434146
235	0x3e567a54	0.20945102
236	0x3c297e2c	0.010345023
237	0x3c5d19d2	0.013494926
238	0x3d913758	0.07090634
239	0x3d9d1883	0.07670691
240	0x3e086c7f	0.13322638
241	0xbe11ee32	-0.1425102
242	0x3e2cf0c0	0.16888714
243	0xbde769ea	-0.112994984
244	0xbe85b3b2	-0.2611366
245	0x3e0e5285	0.13898666
246	0x3e35e473	0.17762928
247	0x3db3c05b	0.08776923
248	0xbe39d667	-0.18148194
249	0xbe072695	-0.13198312
250	0xbd7ee17a	-0.06222675
251	0x3e21ecca	0.15812984
252	0xbe0e4024	-0.13891655
253	0xbdbbc33d	-0.09168098
254	0xbc353684	-0.011060361
255	0xbd90e2d7	-0.07074516

hiden_layers.0.bias f4 [64]
0	0xbc654c80	-0.01399529
1	0x3d474775	0.04865213
2	0xbdbbd455	-0.091713585
3	0x3da27174	0.07931796
4	0x38ae270a	8.304238e-05
5	0xbd8385c1	-0.06421996
6	0x3db652f0	0.08902538
7	0xbdbe694a	-0.09297426
8	0xbc14a210	-0.009071842
9	0x3cbf0ef4	0.02332256
10	0x3d966247	0.07342964
11	0x3d32f3ff	0.043689724
12	0x3db39cef	0.08770167
13	0xbddfc64b	-0.10926493
14	0xbcac501e	-0.021034297
15	0xbdbc3bfd	-0.09191129
16	0x3c229f69	0.009925702
17	0xbd071e62	-0.03298796
18	0x3d9b57d3	0.075851105
19	0xbc4ab049	-0.012371131
20	0xbd3ee996	-0.046609484
21	0x3d980f87	0.074248366
22	0xbd2766f2	-0.04086966
23	0xbc63a99f	-0.013895421
24	0x3c5affdb	0.013366665
25	0x3d87dfd1	0.066344865
26	0xbd5ff494	-0.054676607
27	0xbd55414d	-0.05206423
28	0xbc96dfbc	-0.018417232
29	0x3a715875	0.00092066015
30	0x3cb908e5	0.022587249
31	0x3d92d219	0.07168979
32	0x3d6854f2	0.056721635
33	0x3d3e58b2	0.046471305
34	0xbd3cb266	-0.04606857
35	0x3d7899a9	0.060693417
36	0xbd90a287	-0.0706225
37	0x3da871f1	0.082248576
38	0x3d97c07d	0.07409761
39	0x3b93e0ac	0.004512867
40	0x3db5cc6b	0.0887688
41	0xbd610a40	-0.054941416
42	0x3d9dbd45	0.07702116
43	0xbc8035d1	-0.015650662
44	0xbd85f4f7	-0.06540864
45	0xbd1b123d	-0.03785919
46	0xbde01174	-0.10940829
47	0xbd656481	-0.05600405
48	0xbc8c2601	-0.017107965
49	0x3d836e84	0.064175636
50	0x3da2ca98	0.07948798
51	0xbd0ccc70	-0.034374654
52	0x3dbc5841	0.091965206
53	0x3d4e0a42	0.05030275
54	0x3bb1463e	0.005409985
55	0x3b92a5cf	0.0044753323
56	0xbdaa61db	-0.08319446
57	0xbd27df5d	-0.0409845
58	0x39813da2	0.00024650717
59	0xbd668652	-0.05628044
60	0xbd71508d	-0.05891471
61	0x3d95e547	0.07319122
62	0xbdc79c8e	-0.09746657
63	0xbcdea7b3	-0.027179575

hiden_layers.1.weight f4 [64, 64]
0	0x3e7b5669	0.24544682
1	0x3db052af	0.08609521
2	0xbe41d205	-0.18927772
3	0x3d69d335	0.05708619
4	0xbe37dcf9	-0.17955388
5	0x3e428106	0.18994531
6	0xbde5e3c3	-0.11225083
7	0xbde7eae8	-0.11324102
8	0xbcb1d4e2	-0.021707956
9	0xbc1aa8c0	-0.009439647
10	0xbc81a8ad	-0.015827501
11	0xbd9e8c96	-0.077416584
12	0x3daea80e	0.08528148
13	0x3d9e2d34	0.077234656
14	0x3d0c1510	0.034199774
15	0xbd6dd8dd	-0.058068145
16	0x3d076980	0.033059597
17	0x3e009532	0.12556913
18	0x3ddcacdd	0.107751586
19	0x3c128b9d	0.008944419
20	0x3e510287	0.2041112
21	0xbe04e9bc	-0.12979788
22	0x3d251ef0	0.040312707
23	0xbe154eb4	-0.14580804
24	0x3c8f15ec	0.017466508
25	0xbe5514a0	-0.20808649
26	0xbd9bcf14	-0.076078564
27	0x3e28b5d5	0.16475613
28	0x3d5ed5b0	0.054403007
29	0x3a85f9db	0.0010221557
30	0xbd0b64d7	-0.034031715
31	0x3e0a3dd4	0.13500148
32	0xbe47a351	-0.19495894
33	0x3e41ac27	0.18913327
34	0xbe316de4	-0.17327076
35	0xbe26dec3	-0.16295914
36	0xbd11f1cd	-0.03563099
37	0x3c1632b4	0.009167362
38	0xbcb757fb	-0.02238082
39	0x3e2cb270	0.16864944
40	0x3db4242f	0.08795964
41	0x3e2f0287	0.17090808
42	0xbe194e5a	-0.14971295
43	0x3dd6002e	0.10449253
44	0x3e606981	0.21915247
45	0x3d5882be	0.05285906
46	0x3e39eeb9	0.18157472
47	0xbe4e63ec	-0.20155305
48	0xbd4a2699	-0.049353216
49	0xbe220037	-0.15820394
50	0xbd06b231	-0.03288478
51	0x3dbd7de2	0.09252526
52	0xbe09866e	-0.13430187
53	0xbb893752	-0.004187503
54	0xbcf55c61	-0.029951276
55	0xbe3c7f87	-0.18408023
56	0x3e76d55a	0.24104825
57	0xbe09e692	-0.13466862
58	0xbe1d69a0	-0.15372324
59	0x3dd8dd04	0.105890304
60	0x3db27d54	0.08715311
61	0x3d534a7c	0.051584706
62	0x3be1967c	0.006884394
63	0xbe042769	-0.12905659
64	0x3c132e77	0.008983246
65	0xbd78b4cf	-0.060719308
66	0xbe55d4bb	-0.20881931
67	0x3dbe507c	0.09292695
68	0xbe130e4f	-0.14360927
69	0xbe14b325	-0.14521463
70	0xbe087380	-0.1332531
71	0xbdbe543c	-0.0929341
72	0x3dc9053a	0.0981545
73	0xbdb9ddee	-0.09075533
74	0x3e6c4013	0.23071317
75	0x3da20c30	0.07912481
76	0x3d6c16da	0.05763898
77	0xbd289043	-0.041153204
78	0xbcdaf274	-0.026726939
79	0x3a9d68d8	0.0012009395
80	0x3ded6002	0.11590578
81	0xbd6b289f	-0.057411786
82	0x3e2b08a7	0.1670252
83	0x3e34360d	0.17598744
84	0x3d3c191b	0.04592238
85	0x3e3453af	0.17610048
86	0xbe8b8701	-0.27251437
87	0x3d846e11	0.06466306
88	0xbda71792	-0.081587926
89	0x3e46523d	0.19367309
90	0x3c8bcd5c	0.017065696
91	0xbcd49331	-0.025949093
92	0xbdf64b28	-0.12026054
93	0x3cc77ef5	0.02435253
94	0xbde4f344	-0.11179212
95	0x3e74d41e	0.23909041
96	0x3e5d8640	0.21633244
97	0x3e2b386a	0.16720739
98	0xbe48e1a6	-0.19617328
99	0xbdfb0e21	-0.12258554
100	0xbe464896	-0.19363627
101	0x3d123ffc	0.03570555
102	0xbe06ddc0	-0.13170528
103	0xbe64e03d	-0.22351165
104	0xbe55a081	-0.20862009
105	0xbe613ffc	-0.21997064
106	0x3e0ea218	0.13929021
107	0xbda1aa2a	-0.07893784
108	0x3d5534d0	0.05205232
109	0x3e22f79e	0.15914771
110	0xbf379358	-0.71709204
111	0xbe623b77	-0.22092997
112	0x3e2669e8	0.16251338
113	0x3e91dd9a	0.2848938
114	0xbe3e1d1f	-0.18565796
115	0xbdb9feb7	-0.09081786
116	0x3ea5211d	0.32251826
117	0xbd049005	-0.03236391
118	0x3e330336	0.17481694
119	0xbd2109ca	-0.039315976
120	0xbd7da032	-0.061920352
121	0x3d6e0255	0.058107693
122	0xbdabc12d	-0.08386455
123	0x3de1c8b8	0.11024612
124	0x3d6516d6	0.05592998
125	0x3e374093	0.17895727
126	0x3d46c2f8	0.04852578
127	0x3e3a2c75	0.18181022
128	0x3ea6e288	0.32594705
129	0x3d96a93b	0.07356497
130	0xbd56c2c1	-0.052431826
131	0x3d8be626	0.06831007
132	0x3da92a3e	0.0826001
133	0x3e3a2077	0.18176447
134	0xbda180e3	-0.07885911
135	0x3de5c772	0.11219682
136	0x3e4ac976	0.19803414
137	0xbd14ebe1	-0.036357764
138	0xbe471d43	-0.19444756
139	0xbd2d2c2f	-0.042278465
140	0x3d9b2a53	0.07576432
141	0xbd1a6153	-0.03769047
142	0x3da6a04e	0.081360444
143	0xbd47cc5c	-0.048778877
144	0xbe45508f	-0.19269012
145	0xbd88d8bd	-0.066819645
146	0x3d7b6396	0.06137427
147	0x3e03418d	0.12817974
148	0x3ce39849	0.027782576
149	0xbe598e56	-0.21245703
150	0xbe24b34e	-0.16084024
151	0xbe53c60b	-0.20681016
152	0xbddcf8f2	-0.1078967
153	0x3da2bed7	0.07946556
154	0xbe2186e1	-0.15774108
155	0xbd9b7690	-0.075909734
156	0x3e459755	0.1929601
157	0x3d658654	0.05603631
158	0x3e51d736	0.20492253
159	0x3e571c3b	0.21006863
160	0x3de869c7	0.113483004
161	0xbe1e71b5	-0.15473063
162	0xbcf2f720	-0.029658854
163	0xbda2d137	-0.07950061
164	0xbd8ec899	-0.06971855
165	0xbddb9cf9	-0.107232995
166	0x3d3146e8	0.043280512
167	0xbdf66ee4	-0.120328695
168	0xbdc68884	-0.09694007
169	0xbdd131d8	-0.10214585
170	0xbe2b04a1	-0.16700985
171	0xbe0a4a94	-0.13505012
172	0x3db50fd7	0.08840912
173	0x3c9dc644	0.01925958
174	0xbdc2f61e	-0.095195994
175	0x3dbc5881	0.09196568
176	0x3b6901cd	0.0035554052
177	0xbd3551be	-0.04426741
178	0x3d6bb793	0.057548117
179	0xbe32168a	-0.1739141
180	0x3d2884c4	0.04114224
181	0xbe23c591	-0.15993334
182	0x3ae24c34	0.0017265142
183	0x3cc9ba91	0.024625095
184	0xbe6a7d1f	-0.22899292
185	0x3de205d7	0.1103627
186	0xbdcd6069	-0.100281544
187	0x3b7c8168	0.003852928
188	0x3d93f1d7	0.07223862
189	0x3d93bea9	0.072141
190	0xbc5f506e	-0.013630016
191	0xbcc30dac	-0.02381023
192	0xbcd8b770	-0.026454657
193	0xbd841d98	-0.06450957
194	0xbe34c84d	-0.17654534
195	0x3e15d7bc	0.14633077
196	0x3e6dd06a	0.23224035
197	0xbe84babd	-0.2592372
198	0xbd8ecee0	-0.06973052
199	0xbe1546fa	-0.14577857
200	0xb8db77ec	-0.00010465071
201	0x3a8cfa72	0.0010755791
202	0xbe0e0503	-0.138691
203	0x3e9079fa	0.2821806
204	0x3e90949f	0.2823839
205	0x3dbf4209	0.09338767
206	0xbc8e6d6b	-0.017386159
207	0x3daa5c38	0.083183706
208	0xbd6f0852	-0.058357544
209	0xbdcf4fa9	-0.10122616
210	0x3dea41ba	0.114383176
211	0x3e606871	0.21914841
212	0xbce1dfa1	-0.027572455
213	0xbe5696d3	-0.20955972
214	0x3ddc1b13	0.107473515
215	0x3ddeb9be	0.10875271
216	0x3d627bb3	0.05529375
217	0x3db3f008	0.08786017
218	0xbcdaf5a4	-0.026728459
219	0xbda1653e	-0.078806385
220	0x3e111023	0.14166312
221	0x3e20532f	0.15656732
222	0x3df4e3a8	0.119574845
223	0x3e3a4102	0.18188861
224	0x3e26489a	0.16238633
225	0xbc75370d	-0.014966738
226	0xbe0996be	-0.1343641
227	0x3d1c82f7	0.038210835
228	0x3d97cc15	0.074119724
229	0x3d5a419f	0.053285237
230	0x3de9c8a2	0.11415221
231	0x3e29e743	0.16592126
232	0x3dfdba1c	0.12389013
233	0xbc7a1640	-0.015264094
234	0x3e65c629	0.22438873
235	0x3e128773	0.14309482
236	0xbdfc6b79	-0.12325186
237	0xbe2d5935	-0.16928561
238	0xbe81d5f6	-0.25358552
239	0xbde07082	-0.10958959
240	0x3dcd6f90	0.100310445
241	0x3d80b32d	0.06284175
242	0xbd0b8c99	-0.03406963
243	0x3df7484b	0.12074336
244	0x3e382b05	0.1798516
245	0xbd4ada95	-0.049524862
246	0xbe900946	-0.28132075
247	0xbd2abdd7	-0.04168495
248	0xbe63c662	-0.22243646
249	0xbdae027d	-0.08496568
250	0x3de4e493	0.111764096
251	0x3c837409	0.01604654
252	0xbe1af265	-0.15131529
253	0x3e7e9ed8	0.24865282
254	0x3dc7df2c	0.097593635
255	0xbe64f2a9	-0.22358193

hiden_layers.1.bias f4 [64]
0	0xbd156bf7	-0.036479916
1	0x3d8d8542	0.069101825
2	0x3d407732	0.046988674
3	0x3cc6019e	0.024170693
4	0xbc789b83	-0.015173796
5	0xbdaa6543	-0.083200954
6	0xbd675ef0	-0.056487024
7	0xbd63e4fd	-0.055638302
8	0xbdb1f624	-0.08689526
9	0xbd9be6ec	-0.07612404
10	0x3d7e8fff	0.062149044
11	0xbd8b48a2	-0.06800963
12	0xbd649dd3	-0.055814575
13	0xbc9194ce	-0.01777115
14	0xbd5b3cdd	-0.05352484
15	0xbdab829d	-0.08374522
16	0x3cd16a51	0.02556339
17	0xbd22de10	-0.039762557
18	0xbd714b86	-0.058909915
19	0x3d79d685	0.060995597
20	0xbd5d7f2f	-0.05407637
21	0x3ce03317	0.027368112
22	0xbc38afbe	-0.011272369
23	0x3dab3c90	0.08361161
24	0x3d3832d5	0.044970352
25	0xbd87002c	-0.0659183
26	0x3d854dc7	0.065089755
27	0xbc043909	-0.008070239
28	0xbd83a1c2	-0.06427337
29	0xbd83c302	-0.06433679
30	0xbd18300f	-0.037155207
31	0xbd5df3a1	-0.05418742
32	0xbd575074	-0.05256696
33	0x3d3a6a7a	0.0455117
34	0x3d8ee7b2	0.06977786
35	0x3d92199d	0.071337916
36	0x3d5d3e68	0.054014593
37	0xbd604aa6	-0.05475869
38	0x3d2ed233	0.04268093
39	0x3caf1619	0.021372842
40	0xbc142776	-0.009042611
41	0xbb484814	-0.003056054
42	0xbd26f4f6	-0.040760957
43	0xbd49b94f	-0.04924899
44	0xbd412b68	-0.047160536
45	0x3d50645c	0.05087696
46	0xbdad7762	-0.08470036
47	0x3db09d48	0.08623749
48	0x3d2c53fc	0.04207228
49	0xbd65180a	-0.05593113
50	0x3d92df0a	0.071714476
51	0xbd442a5c	-0.04789196
52	0xbd07d8f2	-0.03316588
53	0x3d51a085	0.051178474
54	0xbd8f0d50	-0.06984961
55	0x3d8b3f00	0.06799126
56	0xbd578e04	-0.05262567
57	0x3d82c217	0.06384676
58	0x3d5fdeed	0.054655958
59	0x3d9249df	0.07142996
60	0x3d36b8fa	0.04461
61	0x3c76c1c7	0.015060849
62	0x3cf0c2aa	0.029389698
63	0x3d705fbf	0.05868506

hiden_layers.2.weight f4 [64, 64]
0	0xbe59c003	-0.21264653
1	0x3ecc1c6d	0.39865437
2	0x3d63457c	0.055486187
3	0x3bc27ce9	0.0059353006
4	0xbd564929	-0.052315865
5	0xbd93a497	-0.072091274
6	0xbe6d8a24	-0.23197228
7	0xbe434161	-0.19067909
8	0xbed31f4d	-0.41234818
9	0xbe715f93	-0.23571615
10	0x3da8ec51	0.08248199
11	0xbe0ee453	-0.13954286
12	0xbde6124a	-0.11233957
13	0x3dfe3c21	0.124138124
14	0xbe1a1b24	-0.15049416
15	0x3e483266	0.19550475
16	0x3e4009a4	0.18753678
17	0x3caed5f9	0.021342264
18	0xbc96da40	-0.018414617
19	0xbd4b6c6e	-0.049663953
20	0x3e4b8254	0.19873935
21	0x3e5b20b6	0.21399197
22	0xbd5cec70	-0.053936422
23	0x3e82694d	0.25470963
24	0x3e6291fc	0.22126001
25	0xbe3b742e	-0.18306038
26	0xbe78b6dd	-0.24288507
27	0xbe418704	-0.1889916
28	0x3e13063f	0.14357851
29	0xbdf4f96c	-0.11961636
30	0x3e58f219	0.21186103
31	0xbe1b1320	-0.15144014
32	0xbe1db8a9	-0.15402474
33	0x3d96f96b	0.073717915
34	0xbe3ad4db	-0.1824526
35	0xbccfb83a	-0.0253564
36	0x3e1e0f78	0.15435588
37	0x3c99a0f7	0.018753512
38	0x3d8f3346	0.069922015
39	0xbd160cb4	-0.03663321
40	0xbe21e505	-0.1581002
41	0x3c1f874e	0.009736849
42	0xbc209344	-0.009800736
43	0x3d8f428d	0.069951154
44	0x3e01de48	0.1268245
45	0xbe0f0501	-0.13966753
46	0x3cda8ac8	0.026677504
47	0x3e26e9d2	0.16300133
48	0x3cee9903	0.029125696
49	0xbc62a751	-0.013833837
50	0x3d9e95d4	0.07743421
51	0xbeed8eb3	-0.46397933
52	0xbdc8ec18	-0.09810656
53	0x3e140b54	0.14457446
54	0x3ddd8c2c	0.10817751
55	0x3e4cf313	0.200146
56	0xbe600fd5	-0.2188104
57	0x3e2533f4	0.161331
58	0x3e9d689d	0.30743876
59	0x3b815523	0.0039469167
60	0xbd99b725	-0.07505635
61	0x3cd00b54	0.025396027
62	0x3d6f254b	0.058385175
63	0x3ebc6107	0.36792776
64	0x3da4195d	0.0801265
65	0x3bc67ce6	0.0060573695
66	0x3e256a75	0.16153891
67	0x3e1b631e	0.15174529
68	0x3e67485a	0.22586194
69	0x3e0cc7c4	0.1374808
70	0x3e1b40ea	0.15161481
71	0x3e69918c	0.22809428
72	0x3ddf4928	0.10902625
73	0x3e36179c	0.17782444
74	0x3e4004ff	0.18751906
75	0x3e20df6b	0.15710227
76	0xbde13492	-0.10996355
77	0xbd266570	-0.040624082
78	0xbd56f55d	-0.05248009
79	0x3e30f60a	0.17281356
80	0xbdd5dd5f	-0.10442614
81	0x3d8b8cd7	0.068139724
82	0xbe6d113d	-0.23151107
83	0xbe10ef18	-0.14153707
84	0x3cd1abce	0.025594618
85	0xbe0d025b	-0.1377043
86	0xbcd55fb4	-0.026046611
87	0xbe3bf7e3	-0.1835628
88	0xbd2c3c1a	-0.042049505
89	0x3dc298fc	0.09501836
90	0x3e62bf79	0.22143354
91	0x3e004904	0.12527853
92	0xbdf1666c	-0.117871135
93	0x3d82667b	0.06367203
94	0xbd147fba	-0.036254622
95	0xbd7f6dec	-0.06236069
96	0xbb75365d	-0.0037416436
97	0x3e51b542	0.204793
98	0xbdbe7a7f	-0.09300708
99	0x3e0385cc	0.12844008
100	0x3dfc9163	0.12332418
101	0x3da35502	0.07975198
102	0x3d85f6a7	0.06541186
103	0xbe46914a	-0.19391361
104	0xbda69563	-0.08133962
105	0xbdf638cc	-0.12022552
106	0xbc3b2d88	-0.01142443
107	0x3c9e021e	0.019288119
108	0x3cbf0b3a	0.023320783
109	0xbe62bfb5	-0.22143443
110	0xbda52243	-0.080631755
111	0x3e60547e	0.21907231
112	0xbe2fa4b7	-0.17152677
113	0x3e4b2c17	0.19841038
114	0xbdc6084b	-0.096695505
115	0xbd9b1cd0	-0.07573855
116	0xbe18d83e	-0.1492624
117	0x3e2210f2	0.15826777
118	0xbdf6d30c	-0.12051973
119	0xbeeeef4f	-0.46666953
120	0x3f0ef5f0	0.5584402
121	0xbd246a61	-0.040140513
122	0xbdc4ca49	-0.09608895
123	0x3e3223b3	0.1739643
124	0x3d96a225	0.07355145
125	0x3e43b4e4	0.19111973
126	0x3dd984a8	0.10621005
127	0xbe5941b0	-0.21216464
128	0x3e596faa	0.21234003
129	0xbe9161af	-0.2839484
130	0xbdb83b82	-0.08995725
131	0xbe01273b	-0.12612621
132	0x3e0f45a3	0.13991408
133	0x3d771576	0.0603232
134	0x3e3cf2d6	0.1845201
135	0x3caef863	0.021358674
136	0xbd569b1a	-0.05239401
137	0x3e827953	0.25483188
138	0x3b4fdd16	0.003171747
139	0x3e50fc26	0.20408687
140	0x3c51769f	0.012784629
141	0x3e26e9aa	0.16300073
142	0xbe1e63f1	-0.15467812
143	0x3e38c5ef	0.18044256
144	0x3d9cf66b	0.07664188
145	0xbe546589	-0.20741858
146	0x3e117dcc	0.14208144
147	0xbe56517a	-0.20929518
148	0xbe4953b7	-0.19660841
149	0x3d697639	0.05699751
150	0x3e16b75e	0.14718387
151	0xbe3e0f3c	-0.18560499
152	0xbd8fedaf	-0.070277564
153	0xbd9b7554	-0.07590738
154	0xbdcddaf8	-0.100515306
155	0xbd03d4aa	-0.032185234
156	0x3d97e107	0.074159674
157	0x3dced51d	0.10099242
158	0x3dcb76fc	0.09934804
159	0x3e9497dc	0.2902211
160	0xbdf34f54	-0.11880365
161	0xbe20d0cb	-0.15704648
162	0xbd8a462a	-0.06751664
163	0x3de94204	0.113895446
164	0x3e2db1f1	0.1696241
165	0xbcdc9b3d	-0.026929492
166	0xbe5e0ed9	-0.21685351
167	0x3e45e121	0.19324161
168	0x3e40b060	0.18817282
169	0x3c5ec297	0.0135961985
170	0xbe0bade5	-0.13640554
171	0xbde4e8c3	-0.11177208
172	0x3e1bbda0	0.15209055
173	0x3cda03b9	0.026613103
174	0xbc9cdd41	-0.01914847
175	0xbd44b43c	-0.048023447
176	0x3e46f368	0.1942879
177	0x3d87dc37	0.066337995
178	0xbe821167	-0.25403902
179	0x3e9c65f6	0.3054654
180	0xbe2bb70a	-0.16769043
181	0x3e2a3ee4	0.16625553
182	0x3e1ee84e	0.15518305
183	0x3c367e49	0.011138507
184	0xbe707c3f	-0.23484896
185	0x3de72940	0.11287165
186	0xbe73a72b	-0.23794238
187	0xbdf00caf	-0.11721169
188	0x3d4ca30e	0.04996019
189	0xb9d005d5	-0.00039677197
190	0x3e143838	0.14474571
191	0x3dd8da4b	0.10588511
192	0xbc491676	-0.0122734215
193	0xbe14ec16	-0.14543185
194	0x3985e9d4	0.00025541952
195	0x3e88b6ef	0.26702067
196	0xbe9946a1	-0.29936698
197	0xbe1d2e11	-0.15349604
198	0x3e13ca28	0.14432585
199	0xbe1c2e8d	-0.15252133
200	0x3d4d29d9	0.050088737
201	0x3e075b77	0.13218485
202	0x3e3ad0dd	0.18243738
203	0xbe46cc51	-0.19413878
204	0x3dd1606c	0.10223469
205	0x3e0a8718	0.13528097
206	0xbd699306	-0.057024978
207	0xbd4c666e	-0.049902372
208	0x3d2aa82b	0.041664284
209	0xbe9ea42a	-0.30984622
210	0xbe404127	-0.18774854
211	0xbce1bfa7	-0.027557207
212	0xbe549ad5	-0.20762189
213	0xbd592e08	-0.053022414
214	0x3dffbb81	0.124869354
215	0xbbe54572	-0.006996804
216	0xbc1dd428	-0.0096331015
217	0xbd05b88e	-0.03264671
218	0x3e0db6e2	0.13839296
219	0x3d3dcf7c	0.04634045
220	0xbdb49a6d	-0.08818517
221	0x3e5cac6b	0.21550147
222	0x3d5c8d74	0.053845838
223	0xbe635e9d	-0.22204061
224	0xbe917685	-0.28410736
225	0xbde43525	-0.11142949
226	0x3ec4c71d	0.3843316
227	0x3e45ccd8	0.19316423
228	0x3e0dd7f4	0.13851911
229	0x3dd1aae1	0.10237671
230	0xbcb591ae	-0.022164192
231	0xbd60a487	-0.054844406
232	0x3e8706ee	0.26372474
233	0xbe77e14d	-0.24207039
234	0x3af0c409	0.001836897
235	0xbb21b3a5	-0.0024673727
236	0x3ce0e510	0.027452976
237	0x3d750024	0.059814587
238	0xbdd3b7dd	-0.103378035
239	0x3bfd7ac9	0.0077355844
240	0xbda604ea	-0.08106406
241	0x3d9c392c	0.07628092
242	0x3e5e50cb	0.21710508
243	0xbe6ef1ee	-0.23334476
244	0xbd1bd8f3	-0.038048696
245	0xbde82899	-0.113358684
246	0x3dd9f2e2	0.10642029
247	0xbd4171ee	-0.047227792
248	0x3d0d0dea	0.034437098
249	0xbde22387	-0.110419326
250	0xbdb22ebb	-0.087003194
251	0x3eb1335f	0.34609506
252	0x3e47740b	0.1947786
253	0xbe5bebb1	-0.21476628
254	0x3e811f02	0.2521897
255	0xbc576377	-0.013146273

hiden_layers.2.bias f4 [64]
0	0x3d665477	0.056232896
1	0xbc9ac0a4	-0.018890686
2	0xbd41070e	-0.04712587
3	0x3d2872c8	0.04112509
4	0xbccf9787	-0.025340809
5	0x3cdfa478	0.027300104
6	0xbcd7ad25	-0.026327679
7	0x3bc0a333	0.00587883
8	0xbd9335f5	-0.07188026
9	0xbc960ff5	-0.018318156
10	0x3bb1b546	0.005423221
11	0xbd3f8aab	-0.046763103
12	0x3d399d03	0.045315754
13	0xbc148c88	-0.009066708
14	0xbcfd6559	-0.030932115
15	0x3d088b1a	0.033335783
16	0x3c95b92e	0.018276777
17	0xbd0b1103	-0.03395177
18	0xbd6189d9	-0.055063102
19	0x3d3b9e37	0.045805182
20	0xbda3e117	-0.08001917
21	0xbafc5298	-0.0019250689
22	0x3d8cb922	0.06871249
23	0x3bfd2d0b	0.007726317
24	0xbc2ee141	-0.010673822
25	0x3d0f93d3	0.035053086
26	0x3d30e16c	0.04318373
27	0x3b92f943	0.0044852807
28	0xbd86cf21	-0.065824755
29	0x3d173e0c	0.036924407
30	0x3e08f1c5	0.13373478
31	0xbd241355	-0.0400575
32	0xbcdc3e1e	-0.026885089
33	0xbd67aeac	-0.056563064
34	0xbd7d66c2	-0.061865576
35	0x3c1dfdd5	0.009643038
36	0x3d844f17	0.06460398
37	0xbd677f5e	-0.05651795
38	0xbd666a07	-0.05625346
39	0x3d583ba2	0.052791245
40	0x3c2e22f9	0.010628455
41	0x3c964c13	0.018346822
42	0xbd74124b	-0.059587758
43	0x3d5a7e44	0.053343073
44	0xbb82289c	-0.003972126
45	0x3d1ba05e	0.037994735
46	0xbd3c6788	-0.045997173
47	0x3d5528d3	0.052040886
48	0x3d60d55d	0.05489098
49	0xbd43fd7d	-0.047849167
50	0x3d1d7868	0.038444906
51	0xbc1cf186	-0.009579068
52	0xbd9092c8	-0.07059246
53	0xbd30485c	-0.043037757
54	0xbae95fc8	-0.0017805034
55	0xbcc55507	-0.024088396
56	0x3ce39c26	0.027784418
57	0xbc879928	-0.016552523
58	0xbd60ba5f	-0.054865237
59	0x3d02d5fe	0.03194236
60	0x3dbe45fe	0.09290694
61	0xbd4a764d	-0.049429227
62	0xbcd48a67	-0.025944902
63	0x3d5f969a	0.054586984

hiden_layers.3.weight f4 [64, 64]
0	0xbe092b39	-0.13395394
1	0x3e48c1e8	0.1960522
2	0x3e53d54e	0.20686838
3	0xbd1206b7	-0.035650935
4	0xbda35c2d	-0.079765655
5	0x3e232041	0.15930273
6	0xbddce6e1	-0.10786224
7	0xbe84e9f8	-0.25959754
8	0x3d488534	0.048955157
9	0x3d5c2993	0.053750586
10	0x3e1dea02	0.15421298
11	0x3d26b816	0.0407029
12	0x3e36fa6d	0.17868967
13	0xbe38af7d	-0.18035693
14	0x3e81ba1f	0.25337312
15	0xbdad3171	-0.08456696
16	0xbdf8721c	-0.1213114
17	0xbe16da7b	-0.14731781
18	0x3e007509	0.12544645
19	0xbe42fee3	-0.19042544
20	0x3e82f090	0.2557416
21	0xbe803996	-0.25043935
22	0x3e1d7fb3	0.15380745
23	0x3e23c093	0.1599143
24	0x3dfea463	0.12433698
25	0xbbd0a5b4	-0.0063674096
26	0xbdda117e	-0.106478676
27	0xbd88a1b0	-0.066714644
28	0x3e5a06b5	0.21291621
29	0x3e0ad0d6	0.13556227
30	0xbdcaa9c5	-0.09895662
31	0x3e8b5281	0.27211383
32	0x3dcd2c81	0.10018254
33	0x3e0582bd	0.13038154
34	0xbdc4ce86	-0.09609704
35	0x3e0a4a8a	0.13504997
36	0xbb8c61f5	-0.0042841383
37	0x3d618a33	0.055063438
38	0x3dd3ca8d	0.10341368
39	0xbddadc3a	-0.10686536
40	0x3d90a59b	0.07062837
41	0x3e197ef2	0.14989832
42	0xbe3145d1	-0.17311789
43	0xbe5b264e	-0.21401331
44	0x3de276dd	0.110578276
45	0x3e474923	0.19461493
46	0x3dadba4f	0.08482801
47	0xbdc92b0d	-0.098226644
48	0x3e39cd3e	0.181447
49	0xbe3178cf	-0.17331241
50	0xbe0af92c	-0.13571614
51	0xbe3bfc03	-0.18357854
52	0x3e411db7	0.18858992
53	0x3e63eb5f	0.22257756
54	0x3ddedf1f	0.10882401
55	0xbe001b55	-0.12510426
56	0x3da2b8b9	0.07945389
57	0x3dc67d37	0.096918516
58	0xbe34e5b9	-0.17665757
59	0xbb8526af	-0.0040634493
60	0x3d7b60d9	0.061371658
61	0x3e6740a6	0.22583255
62	0xbdf52d7b	-0.11971565
63	0x3e4253e2	0.18977311
64	0xbe5d5e9a	-0.21618119
65	0xbd056a84	-0.032572284
66	0x3c70a1f5	0.014687051
67	0x3d9eb870	0.077500224
68	0xbd05a0fe	-0.032624237
69	0x3de2023a	0.11035581
70	0xbe3b90f3	-0.18317012
71	0x3dd3ca9d	0.1034138
72	0xbe004b45	-0.12528713
73	0xbe43bb35	-0.19114383
74	0x3e412168	0.188604
75	0x3dd75362	0.10513951
76	0x3e403be1	0.18772842
77	0xbb813984	-0.003943624
78	0x3ce8e77b	0.028430691
79	0x3e46404c	0.19360465
80	0x3e388905	0.18021019
81	0xbd1b365d	-0.03789364
82	0x3e6cb510	0.23115945
83	0x3e2b709a	0.16742173
84	0x3e6c5cc4	0.23082262
85	0xbe0032e7	-0.12519418
86	0xbd6ae5f6	-0.057348214
87	0x3e819ebc	0.25316417
88	0xbd7b7613	-0.0613919
89	0x3dba84fb	0.09107395
90	0x3e54afd9	0.20770206
91	0xbe42264b	-0.1895992
92	0x3e50a7f4	0.20376569
93	0xbcf7c2d5	-0.03024427
94	0xbe78229e	-0.24231955
95	0x3e38be2a	0.18041292
96	0x3e2022fb	0.15638344
97	0xbd288614	-0.041143492
98	0x3e2c886d	0.16848917
99	0x3e00ee5e	0.1259093
100	0xbdb0333c	-0.08603522
101	0xbdecb5c8	-0.115581095
102	0xbe36b2ea	-0.17841688
103	0x3d9ee060	0.0775764
104	0x3cfc4e79	0.030799137
105	0xbd1b0937	-0.037850585
106	0x3d77ba95	0.060480673
107	0x3e686472	0.22694567
108	0x3d181fe4	0.03713979
109	0x3dae0f23	0.08498981
110	0x3e183f5b	0.14867918
111	0xbd326c47	-0.043560293
112	0x3e09435f	0.13404606
113	0xbe2852ea	-0.16437879
114	0xbde45d64	-0.11150625
115	0x3e2a5caa	0.16636911
116	0x3e1a55fc	0.15071863
117	0xbdbe1e5e	-0.09283136
118	0xbdb11c9c	-0.08648035
119	0x3e3bdb94	0.18345481
120	0x3e449a69	0.19199528
121	0xbe1f8c2a	-0.15580812
122	0x3de27d32	0.11059035
123	0x3caf178d	0.021373535
124	0x3ea60062	0.32422167
125	0x3e13ef0f	0.14446662
126	0xbc8bad3c	-0.017050378
127	0x3e03d8ff	0.12875746
128	0xbe5b6b0c	-0.21427554
129	0x3e27b0e7	0.16376077
130	0xbd1e9135	-0.0387127
131	0xbdaf2afb	-0.0855312
132	0xbe2f3657	-0.17110573
133	0x3de507e3	0.11183145
134	0x3dd5b470	0.10434806
135	0xbe4ee495	-0.20204385
136	0x3e60e9ef	0.21964239
137	0xbd52a572	-0.051427312
138	0xbd7094cd	-0.058735657
139	0x3e4222b1	0.18958546
140	0xbde135c1	-0.10996581
141	0x3c79d909	0.015249499
142	0x3e1f47cf	0.15554737
143	0xbc259c7d	-0.0101081105
144	0x3d92809d	0.07153437
145	0x3e140281	0.1445408
146	0xbe0c8e30	-0.13726115
147	0xbe53d717	-0.20687519
148	0x3de15da2	0.11004187
149	0x3c26901b	0.010166193
150	0xbe523a12	-0.20529965
151	0x3e0c4f39	0.13702096
152	0xbd5b594d	-0.05355196
153	0x3d97ff84	0.074217826
154	0xbe5c352d	-0.2150466
155	0x3e14c8c0	0.14529705
156	0x3eb5329a	0.35390168
157	0xbe5d70d9	-0.21625079
158	0xbe29279c	-0.16519016
159	0xbdb4fe5f	-0.0883758
160	0xbe671608	-0.22566998
161	0x3ea2bcea	0.31784755
162	0x3e4ee652	0.20205048
163	0x3c0591b6	0.008152416
164	0xbda02e8c	-0.07821378
165	0xbd61e3ea	-0.055148996
166	0x3df28827	0.11842375
167	0x3d2309c1	0.039804224
168	0x3e4be324	0.19910866
169	0xbe6c166f	-0.23055433
170	0x3ccaeba0	0.024770558
171	0x3c88dd2c	0.016707025
172	0xbc45036d	-0.012024743
173	0xbe2a4cb2	-0.1663082
174	0x3e077374	0.13227636
175	0xbe6b3b59	-0.22971858
176	0xbe206256	-0.15662512
177	0xbe20ee71	-0.15715958
178	0x3e61685b	0.22012465
179	0x3e2aa479	0.16664304
180	0x3c6dae6a	0.014506916
181	0xbd8aa10d	-0.06768999
182	0xbe85ae4c	-0.2610954
183	0xbe518a02	-0.20462802
184	0xbe48ca5e	-0.19608447
185	0xbe1c5cc4	-0.15269762
186	0x3d4892c6	0.0489681
187	0x3db6d98d	0.08928213
188	0x3d9fcd52	0.078028336
189	0x3dc53a5c	0.09630272
190	0x3c5ffa35	0.013670494
191	0xbce7ef63	-0.02831239
192	0x3c31a8a3	0.010843429
193	0xbde84196	-0.113406345
194	0x3de8afb2	0.11361636
195	0xbd5b2568	-0.05350247
196	0xbe4cb04a	-0.19989124
197	0xbdb4b835	-0.08824197
198	0x3dbc3b8a	0.09191044
199	0xbe0f3b8e	-0.13987562
200	0x3dd503b9	0.10401101
201	0xbe0d687c	-0.13809389
202	0xbe3af3ac	-0.18257016
203	0xbdee2302	-0.11627771
204	0xbe5f2a65	-0.21793516
205	0xbe304f5f	-0.17217778
206	0xbd7d9534	-0.06190987
207	0xbca56ff2	-0.020194981
208	0xbd1e2530	-0.038609684
209	0x3dc530ba	0.096284345
210	0x3e4799e4	0.19492298
211	0x3bc7cb51	0.0060972353
212	0x3e10856f	0.14113401
213	0xbe06e6b0	-0.13173938
214	0xbe3d397d	-0.18478961
215	0xbd04c8f2	-0.0324182
216	0x3e6a048c	0.22853297
217	0x3ce1df09	0.027572172
218	0x3da003ad	0.07813201
219	0x3df239aa	0.11827405
220	0x3e5b6228	0.21424162
221	0xbe7587ad	-0.23977537
222	0x3d6ac973	0.057321023
223	0x3d9f82fd	0.07788656
224	0x3e03c451	0.12867858
225	0x3e434063	0.1906753
226	0x3de303e7	0.11084729
227	0xbdf5013a	-0.119631246
228	0xbe8f72a0	-0.2801714
229	0x3d2b9984	0.04189445
230	0xbd7449b2	-0.059640594
231	0xbd39df76	-0.045379125
232	0x3e0ea833	0.1393135
233	0xbe47eb4c	-0.19523352
234	0xbe1c32f4	-0.15253812
235	0xbd935c91	-0.0719539
236	0x3dfa9ce3	0.12236955
237	0xbe0ff775	-0.14059241
238	0x3e660cfc	0.2246589
239	0x3e01a823	0.12661795
240	0xbe1b2b4c	-0.15153235
241	0x3e2fa6ef	0.17153524
242	0xbdf75f99	-0.12078781
243	0xbe224271	-0.15845658
244	0x3e234ccc	0.15947264
245	0x3e3015a6	0.17195758
246	0x3f154176	0.5830301
247	0x3e2336af	0.15938829
248	0x3e3f8603	0.18703465
249	0x3de9c5be	0.114146695
250	0x3e48db50	0.19614911
251	0xbe3d100a	-0.1846315
252	0xbe005181	-0.12531091
253	0xbe31b4e4	-0.1735416
254	0xbe00cec5	-0.12578876
255	0x3c86bf76	0.016448718

hiden_layers.3.bias f4 [64]
0	0xbd365b34	-0.04452057
1	0xbc1ca666	-0.009561157
2	0xbd2cf4e6	-0.04222574
3	0xbcb0431a	-0.021516372
4	0xbcc03d9b	-0.023466876
5	0xbcef1941	-0.029186847
6	0x3d2f8426	0.042850636
7	0x3c782de9	0.015147665
8	0xbb5e0ce9	-0.0033882207
9	0x3c5aae1d	0.013347176
10	0x3b40d344	0.00294228
11	0x3d1e97ef	0.038719114
12	0x3d84b6d3	0.064801835
13	0x3d32d5dd	0.043660987
14	0xbcd05daa	-0.025435288
15	0xbd014801	-0.03156281
16	0xbc8bb19b	-0.017052462
17	0x3d39e86e	0.045387678
18	0xbae030c2	-0.0017104375
19	0x3d033be2	0.03203953
20	0x3b27d1d9	0.0025607257
21	0xbd699eef	-0.057036337
22	0x3d0c64a5	0.03427567
23	0x3ce38a95	0.027776042
24	0xbcaf0346	-0.021363866
25	0x3cd66754	0.026172318
26	0xbd15298a	-0.036416568
27	0xbd2e59ec	-0.042566225
28	0xbcfa38a3	-0.030544585
29	0xbccfe80c	-0.025379203
30	0x3c4d8bc6	0.012545532
31	0x3cac3678	0.021022066
32	0xbc68abf4	-0.014201153
33	0x3b76dc4d	0.003766793
34	0xbcde269e	-0.027118023
35	0x3d4dc639	0.050237868
36	0x3bcc9f02	0.006244541
37	0x3ce3c16f	0.027802197
38	0x3d0e2815	0.034706194
39	0x3d45600c	0.0481873
40	0xbd0a3634	-0.0337431
41	0xbd8e3e54	-0.06945482
42	0x3d5b695c	0.053567275
43	0xbbbdd4fa	-0.005793211
44	0xbd0f102e	-0.03492754
45	0x3d427fb1	0.047485057
46	0xbcc88d18	-0.024481341
47	0x3c7b2fec	0.01533125
48	0xbd26093c	-0.04053615
49	0x3c371c40	0.011176169
50	0xbbe225f4	-0.006901497
51	0x3bc06ff7	0.0058727222
52	0xbde720b1	-0.11285532
53	0xbbc2f5ea	-0.0059497254
54	0x3d4d1b47	0.05007484
55	0xbd383621	-0.044973496
56	0x3ca24a01	0.019810678
57	0xbce2d1f3	-0.027688002
58	0xbd461083	-0.04835559
59	0xbd58906b	-0.052872103
60	0x3cd9aa79	0.026570546
61	0x3cce5899	0.025188731
62	0xbd38787d	-0.04503678
63	0xbcaca215	-0.02107338

hiden_layers.4.weight f4 [64, 64]
0	0xbe533a62	-0.2062774
1	0x3d130b30	0.03589934
2	0x3dd4b64d	0.103863336
3	0xbe500228	-0.20313323
4	0x3e38be7d	0.18041416
5	0xbdb20dd4	-0.08694044
6	0xbcee9174	-0.029122092
7	0x3ce5bbd8	0.028043672
8	0xbd4fc3f6	-0.050723992
9	0xbd88446a	-0.06653674
10	0xbd67c414	-0.05658348
11	0x3d4a1c71	0.04934353
12	0x3d0a87a2	0.033820756
13	0xbe085c17	-0.1331638
14	0xbdf19e81	-0.1179781
15	0xbd879bca	-0.06621511
16	0xbb6866c5	-0.0035461646
17	0xbdd1acbe	-0.10238026
18	0x3dc5e891	0.09663499
19	0x3e0fc6e9	0.14040722
20	0xbe284d54	-0.16435748
21	0x3d78f5a2	0.06078113
22	0xbe7e4a27	-0.24832974
23	0x3d487037	0.04893514
24	0xbd800185	-0.0625029
25	0xbe240b80	-0.16020012
26	0x3d7f680e	0.062355094
27	0x3d7cb05c	0.061691627
28	0xbe3857e0	-0.18002272
29	0xbe026ef1	-0.12737633
30	0xbe045533	-0.12923126
31	0x3cd8bd8c	0.02645757
32	0x3e4fea80	0.20304298
33	0xbd7039a4	-0.05864872
34	0x3d4abe4e	0.049497895
35	0xbe84f19a	-0.25965577
36	0x3e429bbf	0.19004725
37	0xbdd626cd	-0.104566194
38	0x3c1b9ecd	0.00949831
39	0xbc8b592b	-0.017010292
40	0xbe073199	-0.13202514
41	0xbd6ca563	-0.057774913
42	0x3ea5a9bc	0.3235606
43	0x3d9a00d3	0.075196885
44	0x3bb04529	0.0053793383
45	0x3e0ebd36	0.13939366
46	0x3e5a63c1	0.21327116
47	0xbe4197a1	-0.18905498
48	0xbe34854b	-0.17628972
49	0xbdddc0ba	-0.10827775
50	0x3dcd43d1	0.100227006
51	0x3e26478e	0.16238233
52	0xbe469c4b	-0.19395559
53	0x3e4d5b5d	0.20054384
54	0x3e4dbd98	0.20091856
55	0xbd87627a	-0.0661058
56	0x3e538c7f	0.20659064
57	0xbdd6fc1c	-0.10497305
58	0xbe5b6309	-0.21424498
59	0xbed77f96	-0.42089528
60	0x3d818091	0.0632335
61	0xbe416cf8	-0.18889225
62	0xbd3867ee	-0.04502099
63	0xbd4e59f1	-0.050378744
64	0xbc982bce	-0.018575575
65	0xbe15c290	-0.14625001
66	0xbe07d6a1	-0.13265468
67	0x3da12a35	0.078693785
68	0x3dd747fb	0.10511776
69	0x3d6ac850	0.05731994
70	0xbe731eee	-0.23742267
71	0xbc2be55b	-0.010491694
72	0xbe31208f	-0.17297576
73	0xbd2d9c26	-0.042385243
74	0xbe00dba0	-0.1258378
75	0x3df6e49f	0.12055325
76	0x3e67c00d	0.22631855
77	0x3e1689be	0.14700982
78	0xbd4a6b16	-0.04941853
79	0x3d8b2079	0.06793303
80	0xbe416ce3	-0.18889193
81	0xbe0715ca	-0.13191906
82	0x3d4a0169	0.04931775
83	0x3cfc5843	0.030803805
84	0x3e0e3c35	0.13890155
85	0x3e6b3d01	0.2297249
86	0x3e93f479	0.28897455
87	0x3d8f9f4b	0.070128046
88	0xbe0aae09	-0.13542952
89	0xbe78253f	-0.24232958
90	0xbe2839b6	-0.16428265
91	0x3e2d4c3b	0.16923611
92	0xbc38fbac	-0.011290472
93	0x3d79ab0c	0.06095414
94	0xbe1a8b04	-0.15092093
95	0xbe6a1b32	-0.22861937
96	0x3e8d5b69	0.27608803
97	0x3e094e07	0.13408671
98	0x3e738b0f	0.23783515
99	0xbdba7b88	-0.09105593
100	0xbe26cabf	-0.16288279
101	0x3d004851	0.031318966
102	0x3db3d161	0.0878017
103	0xbce41ac2	-0.02784479
104	0x3e6de905	0.23233421
105	0xbdca7e04	-0.09887317
106	0x3dd2cece	0.10293351
107	0x3e306499	0.17225875
108	0xbb5856f7	-0.003301082
109	0x3e230cb3	0.15922813
110	0xbc70c8fd	-0.014696357
111	0xbd40f9b6	-0.047113143
112	0xbe02aef3	-0.1276205
113	0x3e76ea5e	0.24112841
114	0xbe1da2de	-0.1539416
115	0xbd8a45fe	-0.06751631
116	0x3db77e71	0.08959664
117	0xbd9b647d	-0.07587526
118	0x3e6f6544	0.23378474
119	0x3d68eb2d	0.056864906
120	0xbc94243f	-0.01808369
121	0xbe336771	-0.17519929
122	0x3e126bf6	0.14298996
123	0xbe5b4138	-0.21411598
124	0x3e9e0198	0.3086059
125	0x3c91aff2	0.017784093
126	0x3db866bd	0.09003971
127	0x3e4c8b9b	0.1997513
128	0xbe3d12cb	-0.184642
129	0xbe813a82	-0.2523995
130	0xbe45d3f5	-0.19319136
131	0xbe66ce7a	-0.22539702
132	0xbc543614	-0.012952346
133	0xbdb6d211	-0.08926786
134	0xbbe72d2a	-0.0070549445
135	0x3e54af77	0.2077006
136	0xbd1996ac	-0.037497208
137	0xbdc00438	-0.09375805
138	0x3df1804b	0.11792048
139	0x39d31d87	0.00040267056
140	0x3d2f51f0	0.04280275
141	0x3e4805fb	0.19533531
142	0x3dbda9b3	0.09260883
143	0xbe1ea79b	-0.15493624
144	0x3c294965	0.01033244
145	0x3e83f2fd	0.25771323
146	0xbe3bd89d	-0.1834435
147	0x3e145eac	0.1448924
148	0xbe58ebd2	-0.21183708
149	0xbe8b382d	-0.27191296
150	0x3d0565f4	0.032567933
151	0x3d9839db	0.0743291
152	0xbea4534a	-0.32094795
153	0xbe792532	-0.24330595
154	0xbb1a71b3	-0.0023566305
155	0x3e03c8b3	0.1286953
156	0xbea9b64d	-0.33146897
157	0x3d0f8eca	0.035048284
158	0xbdef7d02	-0.11693765
159	0x3e819e03	0.25315866
160	0xbe1cdfb4	-0.15319711
161	0x3d88cb16	0.066793606
162	0xbe46cbeb	-0.19413726
163	0x3ddedcd5	0.10881964
164	0xbd4f174e	-0.050559334
165	0x3d627056	0.055282913
166	0xbc8e5e55	-0.017378965
167	0x3e8f8f78	0.28039145
168	0x3dc72a84	0.09724906
169	0x3e097164	0.13422161
170	0xbe1a8eb0	-0.15093493
171	0xbaabdba5	-0.0013111724
172	0xbe53cbaa	-0.2068316
173	0x3d26a0fd	0.040680874
174	0x3daa6769	0.08320505
175	0x3e88c7b3	0.26714858
176	0x3e64b4f3	0.22334652
177	0x3dde7698	0.10862464
178	0x3e1cac3c	0.15300077
179	0xbe41ec27	-0.18937741
180	0xbe847035	-0.25866857
181	0x3e5cba91	0.21555544
182	0x3e8c8907	0.27448294
183	0x3d4be1c0	0.04977584
184	0xbdc253f9	-0.09488673
185	0x3e579848	0.21054184
186	0x3d365d26	0.044522427
187	0x3cf8d214	0.03037361
188	0xbc843334	-0.016137697
189	0x3b34e84e	0.0027604285
190	0x3d7806ec	0.060553476
191	0x3de4ebcc	0.11177787
192	0x3dae7dc1	0.085200794
193	0xbdb26d92	-0.08712305
194	0xbd96a533	-0.07355728
195	0x3e52a8ac	0.20572156
196	0x3dfb0153	0.12256112
197	0x3e6a4e81	0.2288151
198	0x3cad226b	0.021134576
199	0xbe5a3dd0	-0.21312642
200	0x3e3cd5c0	0.18440914
201	0x3df99f12	0.121885434
202	0x3e12e236	0.14344105
203	0xbda07419	-0.07834644
204	0xbdc77fe4	-0.0974119
205	0xbe2ae99f	-0.16690682
206	0x3e6cf983	0.23142056
207	0x3e8385eb	0.2568811
208	0x3cdefdc9	0.027220624
209	0x3cabd8af	0.020977346
210	0xbe5fb033	-0.21844558
211	0xbeacc54f	-0.33744285
212	0xbe23dd91	-0.1600249
213	0x3dc2c360	0.09509921
214	0x3e29bcd4	0.16575938
215	0x3e1c4e43	0.1526423
216	0x3e27f830	0.1640327
217	0xbe091d64	-0.13390118
218	0x3e7713d9	0.24128665
219	0xbda1243f	-0.078682415
220	0xbe273229	-0.16327728
221	0x3d99df06	0.075132415
222	0xbc44fe86	-0.012023574
223	0xbebee73c	-0.37285793
224	0xbd8a6b23	-0.06758716
225	0x3d48f049	0.04905728
226	0xbdeef15f	-0.11667132
227	0xbe4552be	-0.19269845
228	0x3d32f409	0.04368976
229	0xbde783dd	-0.11304448
230	0xbe0e8746	-0.1391879
231	0x3db968ec	0.090532154
232	0xbd012b97	-0.03153571
233	0x3d364f7f	0.044509407
234	0xbe5b0e96	-0.21392283
235	0x3e6a1af7	0.22861849
236	0x3e0047fe	0.12527463
237	0xbe19b9c6	-0.15012273
238	0xbe11b13c	-0.14227766
239	0xbe68daa0	-0.22739649
240	0xbc1e2ec6	-0.009654706
241	0x3e319ce9	0.17345013
242	0x3d0c7d78	0.034299344
243	0x3e4e566e	0.20150158
244	0xbd94c3d8	-0.07263917
245	0x3dfcdadb	0.12346431
246	0x3e053d9e	0.13011786
247	0x3eb94c67	0.36191103
248	0xbe871980	-0.26386642
249	0x3bada429	0.0052991104
250	0x3e4034f2	0.18770197
251	0x3d1a73cf	0.0377081
252	0x3dbf7a1a	0.09349461
253	0xbcc83417	-0.0244389
254	0x3e68c83d	0.22732635
255	0x3e65ce00	0.22441864

hiden_layers.4.bias f4 [64]
0	0xbd8322fa	-0.064031556
1	0xbd4862e0	-0.04892242
2	0x3d4620f8	0.048371285
3	0xbc5e6832	-0.013574647
4	0x3cafd4ef	0.02146384
5	0xbbda9f6b	-0.006671836
6	0x3c912deb	0.01772209
7	0xbc6d6e02	-0.01449156
8	0x3c12d054	0.008960802
9	0xbbab2eba	-0.005224076
10	0xbc90982c	-0.017650686
11	0x3d762c26	0.060100697
12	0xbd3c2f9f	-0.045943853
13	0xbd08a292	-0.033358164
14	0x3ca420dd	0.020035202
15	0x3c067eec	0.0082089715
16	0xbca39317	-0.019967599
17	0x3c1624e2	0.009164067
18	0xbd1d6a3a	-0.038431384
19	0x3b92d600	0.004481077
20	0xbda84885	-0.08216957
21	0xbd3c2140	-0.045930147
22	0x3dbd5e68	0.09246522
23	0xbd15e1f7	-0.03659245
24	0x3bb6bb0e	0.005576498
25	0x3b53611f	0.0032253934
26	0xbd60235a	-0.054721214
27	0xbc8d89eb	-0.017277678
28	0xbd6a54a9	-0.057209644
29	0x3b267655	0.0025400121
30	0xbdc59b55	-0.09648768
31	0x397eea39	0.00024310582
32	0xbcccc3f6	-0.024995785
33	0xbcd9071d	-0.02649265
34	0x3d43f807	0.04784396
35	0xbc2f21ae	-0.010689182
36	0x3ce8d59f	0.028422175
37	0xbcdd1618	-0.026988074
38	0xbc0c6536	-0.008569052
39	0x3d838b62	0.064230695
40	0x3db3749a	0.08762474
41	0x3d2cc15a	0.042176582
42	0xbccf0dec	-0.025275193
43	0xbcec7964	-0.028866477
44	0xbc0e691d	-0.008692053
45	0xbba1b229	-0.0049345684
46	0xbc3dd9a8	-0.011587538
47	0xbb92cf39	-0.0044802693
48	0x3d977ddd	0.073970534
49	0x3cc5ad09	0.024130361
50	0x3c535891	0.012899534
51	0xbdac76c2	-0.08421089
52	0xbd2bc4e3	-0.041935813
53	0x3c301a2a	0.0107484255
54	0x3ac2579b	0.0014827134
55	0x3d953529	0.0728553
56	0xbc59abc3	-0.01328558
57	0x3d3a49b1	0.045480434
58	0x3c02a15a	0.0079730395
59	0xbd118e7a	-0.035536267
60	0x3c35d7de	0.01109883
61	0xbc72764f	-0.014798715
62	0xbd607f29	-0.05480877
63	0xb9dadbe3	-0.0004174403
