results/2_same_with_zoom/epoch700/model_weights.pth (torch, 484214 bytes, 88 tensors)

init_layer.0.weight f4 [64, 3]
-0.25608617 -0.09774392 0.1459959 0.12579025 -0.0016857317 -0.019406322 -0.057494704 -0.20699428
-0.09771473 0.19016737 0.10765616 0.090734676 0.010173018 0.2604676 0.16396116 -0.13748303
-0.27512366 0.1284258 0.26811102 0.027621731 0.18988751 0.23463987 0.13332249 0.043906372
0.22725452 -0.29022136 0.045058344 -0.11302976 -0.18453671 0.17179856 -0.22194417 0.0048576766
0.054083318 0.07781757 0.19101915 -0.16268687 -0.0008609424 -0.08460026 -0.046025045 -0.128321
-0.0106732445 0.11910952 0.0803357 -0.2578016 -0.046936825 0.22929181 -0.1926861 -0.15945713
0.0860927 -0.1258755 0.20536134 0.20020102 0.21960896 -0.07363728 0.025392251 -0.016055502
-0.09893898 -0.10705927 0.14444281 -0.07011505 0.13673443 -0.111549 -0.06315626 0.23568618
-0.027855942 -0.04826166 0.02821896 -0.22999968 -0.11126366 -0.07246348 0.13913187 -0.008302686
-0.055760052 -0.12020095 0.18280177 -0.11078237 0.19657359 -0.07812507 0.048142906 0.24337454
0.16410954 -0.12102627 -0.2323883 0.038582347 0.009301533 0.011712301 -0.03191939 0.059889965
-0.27693298 0.019024482 -0.2847155 -0.12161066 -0.06858567 -0.059655417 0.07648529 0.2614852
-0.08547767 0.23687059 0.06479113 -0.24351631 0.25753203 -0.039954644 -0.01813587 -0.09081342
-0.09046782 -0.067034096 -0.17460926 -0.25760964 0.038088646 -0.036061525 -0.17173739 -0.18209283
-0.07587929 -0.0064325915 0.1701382 -0.1372145 0.2164389 -0.19524069 0.16004342 0.32994765
0.22854471 0.034769826 -0.2193932 -0.013211663 -0.0928928 -0.16756472 0.09843238 -0.08993692
0.27272174 0.038205083 -0.042364467 0.07715745 0.11896906 -0.22425383 -0.12532252 -0.30797967
-0.26302245 0.139494 -0.017396066 -0.16152422 0.0783497 0.119791865 0.16775 0.075729765
0.22598849 0.23222461 -0.022401756 0.117676795 -0.28092936 0.14859529 -0.061100826 -0.22930068
-0.1088377 -0.3368236 -0.12084944 -0.052759018 0.2110317 -0.26579827 0.034233127 -0.11695766
-0.1849797 0.024661504 0.12055511 -0.20045449 -0.20908484 0.18603025 0.0035313594 0.18033427
0.18402816 0.06033533 0.20255361 0.016411839 -0.021219602 0.051584378 0.22310784 0.23887168
0.03009109 0.131522 0.16218552 -0.11509333 -0.15879962 -0.24264427 -0.058277033 -0.15990657
0.09148168 -0.04463356 0.25582817 -0.03158303 0.036082547 0.23670802 0.024710676 0.08845293
00000000: ba1d 83be f72d c8bd f37f 153e 29cf 003e
00000010: c5f3 dcba 02fa 9ebc 917f 6bbd 4ff6 53be
00000020: a91e c8bd 3cbb 423e d57a dc3d 1ad3 b93d
00000030: bbac 263c 025c 853e 6fe5 273e 5ac8 0cbe
00000040: 02dd 8cbe 0e82 033e d945 893e f846 e23c
00000050: df71 423e 6f45 703e b185 083e 2bd7 333d
00000060: 69b5 683e e597 94be 198f 383d 267c e7bd
00000070: 31f7 3cbe f6eb 2f3e 5545 63be 252d 9f3b
00000080: 7886 5d3d d15e 9f3d 869a 433e 6397 26be
00000090: deb0 61ba e742 adbd c284 3cbd 9566 03be
000000a0: d5de 2ebc b1ef f33d 0b87 a43d 92fe 83be
000000b0: d440 40bd 79cb 6a3e 814f 45be bb48 23be
000000c0: 5f51 b03d 82e5 00be 3e4a 523e 7f01 4d3e
000000d0: 2ce1 603e 24cf 96bd 6903 d03c d486 83bc
000000e0: 85a0 cabd e441 dbbd d1e8 133e 7b98 8fbd
000000f0: 1c04 0c3e cd73 e4bd 1258 81bd b857 713e
00000100: 2532 e4bc 05ae 45bd 732b e73c 0985 6bbe
00000110: 34de e3bd bc67 94bd 9678 0e3e fd07 08bc
00000120: a764 64bd ea2b f6bd 6330 3b3e dee1 e2bd
00000130: 964a 493e 0900 a0bd 7f31 453d 2d37 793e
00000140: 550c 283e 9fdc f7bd 33f7 6dbe 8608 1e3d
00000150: 7565 183c f3e4 3f3c e8bd 02bd 2e4f 753d
00000160: 29ca 8dbe 3bd9 9b3c 3bc6 91be 020f f9bd
00000170: a576 8cbd 3d59 74bd 52a4 9c3d 63e1 853e
00000180: eb0e afbd 348e 723e 36b1 843d 575c 79be
00000190: 3ddb 833e 7ba7 23bd ad91 94bc 63fc b9bd
000001a0: 3147 b9bd 2c49 89bd c5cc 32be 69e5 83be
000001b0: d702 1c3d 40b5 13bd eddb 2fbe 8b76 3abe
000001c0: 9a66 9bbd 7dc8 d2bb b538 2e3e f581 0cbe
000001d0: 29a2 5d3e 2ded 47be 6ce2 233e e6ee a83e
000001e0: a007 6a3e ce6a 0e3d 9ca8 60be bb75 58bc
000001f0: 953e bebd 1696 2bbe ea96 c93d d930 b8bd
00000200: 2fa2 8b3e ef7c 1c3d 5d86 2dbd ba04 9e3d
00000210: 0da6 f33d cca2 65be 8c54 00be 83af 9dbe
00000220: e1aa 86be 84d7 0e3e 3282 8ebc 9b66 25be
00000230: cf75 a03d 7055 f53d a8c6 2b3e 3518 9b3d
00000240: 8769 673e 4acc 6d3e e383 b7bc 8800 f13d
00000250: f9d5 8fbe 5d29 183e dc44 7abd cccd 6abe
00000260: 4de6 debd 2574 acbe e97f f7bd d719 58bd
00000270: b218 583e b616 88be 0938 0c3d 7f87 efbd
00000280: 526b 3dbe ec06 ca3c 99e5 f63d f143 4dbe
00000290: 561a 56be b77e 3e3e 616e 673b 8ca9 383e
000002a0: e171 3c3e 2e22 773d 376a 4f3e 1f72 863c
000002b0: bbd4 adbc 244a 533d 6276 643e c79a 743e
000002c0: 9781 f63c b4ad 063e f613 263e 0db6 ebbd
000002d0: 5e9c 22be bd77 78be e6b3 6ebd 8cbe 23be
000002e0: bf5a bb3d aed1 36bd e9fb 823e 355d 01bd
000002f0: 4bcb 133d 9663 723e 0b6e ca3c cf26 b53d

init_layer.0.bias f4 [64]
-0.10770252 0.052731875 -0.07997396 -0.023432199 -0.077441536 -0.07217786 0.10233087 0.11038404
-0.061111867 0.07133348 -0.09693732 -0.062228467 0.048397556 -0.05240143 -0.046834152 0.08249466
-0.08302273 0.029108943 0.009045576 0.014820131 0.07470718 0.07247679 0.054732025 -0.006624489
0.10894937 -0.076221615 0.07468451 0.0039458303 0.0019259818 -0.062081426 -0.109261535 -0.08789125
0.02429054 -0.011111821 -0.061445124 -0.109857574 0.0976243 -0.086877316 0.1017476 0.050648354
0.10967842 0.07772521 -0.052055005 0.018032763 0.07271589 -0.11333836 0.06257253 -0.05995988
0.06914271 0.09344196 0.057397403 -0.10718634 -0.0057965666 0.052876856 0.10678093 0.10025878
0.09928277 -0.0021273599 0.08203206 0.08248139 -0.102428734 -0.1028708 0.08930503 0.093033426
00000000: 2493 dcbd 61fd 573d 63c9 a3bd e2f4 bfbc
00000010: ab99 9ebd fcd1 93bd d992 d13d 0711 e23d
00000020: 7050 7abd 4a17 923d 1387 c6bd 47e3 7ebd
00000030: 843c 463d e2a2 56bd 2bd5 3fbd f6f2 a83d
00000040: d207 aabd e175 ee3c e533 143c 22d0 723c
00000050: 1400 993d b66e 943d b02e 603d 3e12 d9bb
00000060: d920 df3d 141a 9cbd 31f4 983d 064c 813b
00000070: 3a71 fc3a 1849 7ebd 83c4 dfbd 5400 b4bd
00000080: f4fc c63c 5b0e 36bc e2ad 7bbd 02fd e0bd
00000090: 40ef c73d bcec b1bd 0c61 d03d a674 4f3d
000000a0: 149f e03d 652e 9f3d a137 55bd 72b9 933c
000000b0: 12ec 943d f11d e8bd 0726 803d 7e98 75bd
000000c0: b19a 8d3d 805e bf3d 8a19 6b3d 8384 dbbd
000000d0: 20f1 bdbb 6795 583d f6af da3d 7a54 cd3d
000000e0: c454 cb3d 2d6b 0bbb 6d00 a83d 01ec a83d
000000f0: 28c6 d1bd edad d2bd 8ee5 b63d 4f88 be3d

hiden_layers.0.weight f4 [64, 64]
-0.16125126 -0.01584232 0.24292567 0.034237314 -0.16369735 -0.032686017 0.16561568 -0.19976866
-0.10561287 -0.07432536 0.043769427 0.23903258 0.2846365 0.09012242 0.17656593 -0.20664252
-0.034663815 -0.11965029 0.20271662 -0.015952747 -0.04581154 0.05133128 0.06609089 -0.19388273
0.056447383 0.1025473 -0.10716213 -0.1500688 0.23386586 -0.06933316 -0.20084372 0.22710113
-0.14740509 0.036880862 0.4268135 -0.2981592 0.07236991 0.07408943 0.1932481 0.24307048
0.074198544 0.031372763 0.35087454 -0.40987307 -0.02328322 -0.033098567 -0.090947635 -0.34225768
0.16195181 -0.20645273 -0.05161223 0.03587677 -0.05075703 0.01710708 0.104231805 0.24527003
-0.021730024 -0.3299867 -0.1615378 0.123074204 0.10295763 -0.031556796 -0.054186042 -0.1700379
-0.017533148 -0.21718459 -0.20102657 0.16216855 -0.17343524 -0.08770937 0.16601345 -0.2019688
0.015749136 -0.17613098 0.24748947 -0.1429028 -0.004935909 0.06666476 0.018629959 0.1370485
-0.011387413 0.164155 -0.016685238 -0.0070733246 -0.07150806 -0.22875819 0.10712727 0.1428053
-0.030849455 -0.0670975 0.22359087 0.16020676 0.119072594 0.11408059 -0.14776978 -0.10183178
0.015751574 0.025144698 0.12862374 0.1305505 0.1859244 -0.015635012 -0.04628072 0.18651246
-0.109594524 -0.04427795 -0.19803216 0.013976035 0.08721267 -0.19083203 0.17657836 -0.19379345
-0.064003766 -0.082935154 -0.07702312 -0.1020238 0.10009971 -0.13704453 0.12864044 0.12557195
-0.18838167 -0.098230146 -0.18793036 -0.18538547 0.1997027 0.17164591 0.16018817 -0.10570016
0.13192324 -0.028901761 0.21669649 0.018627908 -0.19822575 0.009092206 -0.037851766 -0.1844788
0.2041184 -0.084990926 -0.018101433 0.15899743 0.10175608 -0.23107968 0.26787972 -0.097137645
-0.033651173 -0.17588638 0.07690386 -0.1382005 0.00029955446 -0.10271613 -0.15418695 -0.06854326
-0.03024058 -0.14188205 -0.0641436 0.19329356 -0.04326412 -0.09666462 0.2457395 0.21929099
-0.24024928 -0.17897747 0.26657012 0.27059925 -0.116979025 -0.10720332 -0.03154359 -0.052453194
-0.21562305 -0.07229809 0.22461785 0.19744246 0.20002344 0.059325248 -0.040834688 0.027971402
-0.021389559 0.0606571 -0.11412116 -0.023443306 0.13693652 -0.05466946 -0.12834471 0.011745594
-0.25067103 0.18222411 -0.18456097 -0.191078 0.22348814 -0.15971024 -0.12428512 0.1585524
0.10856994 -0.12223659 -0.013818476 -0.042816244 0.13984838 0.08772345 -0.026954135 -0.118944526
-0.34519103 -0.16836469 0.047377713 0.04900123 -0.11821152 -0.05098335 -0.05767787 -0.14483769
-0.14772657 0.16796747 0.15666288 -0.05903931 0.17429061 -0.119684674 -0.18409665 -0.059198596
0.2316076 0.057653405 -0.00095567404 -0.06283902 -0.11508537 -0.242519 -0.19314075 0.025667343
-0.080804154 0.14329447 -0.20784031 -0.03444148 -0.00815047 -0.19355413 0.020968461 0.041479576
-0.16144633 -0.014188679 0.009466589 0.21239127 0.012583855 0.0148899155 0.07199041 0.079224564
0.13332778 -0.1392953 0.1680538 -0.11693013 -0.24968262 0.13801286 0.17892912 0.09295501
-0.17653722 -0.13732155 -0.06203417 0.15511912 -0.13632481 -0.09503393 -0.003208755 -0.06520313
00000000: 0d1f 25be c1c7 81bc 82c1 783e 6d3c 0c3d
00000010: 47a0 27be c6e1 05bd 2897 293e 2890 4cbe
00000020: 8f4b d8bd e537 98bd 9247 333d f5c4 743e
00000030: e0bb 913e 1a92 b83d b3cd 343e 199a 53be
00000040: a5fb 0dbd 360b f5bd f294 4f3e 56af 82bc
00000050: e2a4 3bbd c040 523d a95a 873d 3289 46be
00000060: 5f35 673d 5204 d23d d277 dbbd a3ab 19be
00000070: 887a 6f3e 8bfe 8dbd faa9 4dbe 338d 683e
00000080: 5cf1 16be 6310 173d 4d87 da3e 53a8 98be
00000090: ad36 943d 33bc 973d d4e2 453e 78e7 783e
000000a0: 68f5 973d ba80 003d d4a5 b33e e2da d1be
000000b0: 74bc bebc 5d92 07bd c142 babd 663c afbe
000000c0: b2d6 253e 5868 53be 5867 53bd 85f3 123d
000000d0: 9ae6 4fbd 2624 8c3c 7c77 d53d 1128 7b3e
000000e0: 2a03 b2bc 04f4 a8be 2a6a 25be 540e fc3d
000000f0: 73db d23d b341 01bd 2ff2 5dbd 6a1e 2ebe
00000100: ada1 8fbc a365 5ebe e9d9 4dbe 830f 263e
00000110: 0299 31be f8a0 b3bd 6eff 293e e9d0 4ebe
00000120: 5504 813c ae5b 34be e16d 7d3e 1d55 12be
00000130: 68bd a1bb 8987 883d db9d 983c 7156 0c3e
00000140: 4692 3abc 4018 283e 7baf 88bc 59c7 e7bb
00000150: d172 92bd 963f 6abe 8b65 db3d 8d3b 123e
00000160: ffb7 fcbc 6a6a 89bd 01f5 643e 3e0d 243e
00000170: 55dc f33d 16a3 e93d f650 17be 2e8d d0bd
00000180: 7209 813c 41fc cd3c f1b5 033e 08af 053e
00000190: f762 3e3e ff14 80bc da90 3dbd 1ffd 3e3e
000001a0: 1873 e0bd cc5c 35bd f1c8 4abe bdfb 643c
000001b0: 8e9c b23d 7969 43be f5d0 343e ca71 46be
000001c0: 6814 83bd e8d9 a9bd 4cbe 9dbd dbf1 d0bd
000001d0: 1401 cd3d 6755 0cbe 52ba 033e ef95 003e
000001e0: 20e7 40be e32c c9bd d170 40be b0d5 3dbe
000001f0: dd7e 4c3e f2c3 2f3e 5e08 243e 5379 d8bd
00000200: e316 073e 63c3 ecbc afe5 5d3e 8e99 983c
00000210: b1fb 4abe 7af7 143c 740a 1bbd 03e8 3cbe
00000220: 6a04 513e b90f aebd 7549 94bc 39d0 223e
00000230: 7e65 d03d 27a0 6cbe 8827 893e 1af0 c6bd
00000240: d0d5 09bd 8f1b 34be c57f 9d3d 6f84 0dbe
00000250: 850d 9d39 d65c d2bd 2fe3 1dbe 6960 8cbd
00000260: 18bb f7bc 8749 11be b85d 83bd bfee 453e
00000270: b835 31bd 1af8 c5bd 23a3 7b3e d18d 603e
00000280: e803 76be df45 37be e17b 883e fc8b 8a3e
00000290: b392 efbd 6a8d dbbd da33 01bd 29d9 56bd
000002a0: 4acc 5cbe 0511 94bd 3902 663e 5b2e 4a3e
000002b0: f2d2 4c3e 08ff 723d 4642 27bd 4824 e53c
000002c0: 2839 afbc 9473 783d 5bb8 e9bd 2d0c c0bc
000002d0: 1639 0c3e 15ed 5fbd cc6c 03be 9870 403c
000002e0: f457 80be f598 3a3e 8dfd 3cbe f4a9 43be
000002f0: 13da 643e 158b 23be 3289 febd 8f5b 223e
00000300: eb59 de3d 2d57 fabd e466 62bc 1660 2fbd
00000310: 6a34 0f3e 5aa8 b33d ebce dcbc 3099 f3bd
00000320: e1bc b0be cb67 2cbe 220f 423d 84b5 483d
00000330: e218 f2bd ebd3 50bd a13f 6cbd 5550 14be
00000340: a245 17be aaff 2b3e 3c6c 203e 34d3 71bd
00000350: 3d79 323e 3d1d f5bd d583 3cbe 3a7a 72bd
00000360: 8b2a 6d3e fa25 6c3d 3386 7aba beb1 80bd
00000370: e1b1 ebbd e756 78be b0c6 45be 5244 d23c
00000380: a67c a5bd c9bb 123e 17d4 54be 8212 0dbd
00000390: 8d89 05bc 0e33 46be 0dc6 ab3c 7de6 293d
000003a0: 3052 25be a277 68bc c119 1b3c 197d 593e
000003b0: 832c 4e3c d5f4 733c b56f 933d 7d40 a23d
000003c0: 1487 083e 6da3 0ebe 4c16 2c3e 1079 efbd
000003d0: cdac 7fbe 3e53 0d3e 3239 373e 325f be3d
000003e0: 2cc6 34be 059e 0cbe 8b17 7ebd 8cd7 1e3e
000003f0: bb98 0bbe 26a1 c2bd fa49 52bb 3889 85bd

hiden_layers.0.bias f4 [64]
-0.008981216 0.043816715 -0.08693539 0.07281118 0.0010860336 -0.059770223 0.08688131 -0.08955665
-0.013276552 0.018472942 0.069632664 0.043037344 0.0856877 -0.10321628 -0.02274975 -0.08767198
0.003990032 -0.033163212 0.0719897 0.0031137143 -0.04437471 0.07131839 -0.038410023 -0.017920153
0.010299497 0.06250036 -0.05296635 -0.053311747 -0.012127193 -7.555808e-05 0.022174813 0.06724504
0.054485243 0.04036971 -0.044865035 0.058160733 -0.06731538 0.07917924 0.069509126 0.007986697
0.0819125 -0.050743494 0.07201153 -0.0062839887 -0.061485704 -0.038783442 -0.10412841 -0.05175057
-0.010747663 0.05818052 0.07956476 -0.03180301 0.087035835 0.04829782 0.0019122307 0.0050242078
-0.07860746 -0.04224149 8.123873e-05 -0.05451421 -0.054347705 0.068685636 -0.09586073 -0.028232258
00000000: f325 13bc 2879 333d 2f0b b2bd 071e 953d
00000010: 3e59 8e3a 9fd1 74bd d4ee b13d 7a69 b7bd
00000020: e585 59bc 9154 973c 929b 8e3d ed47 303d
00000030: 087d af3d 0f63 d3bd af5d babc 5e8d b3bd
00000040: d0be 823b 26d6 07bd 566f 933d 750f 4c3b
00000050: 42c2 35bd 600f 923d d453 1dbd 49cd 92bc
00000060: 39bf 283c 3000 803d 3ef3 58bd 6b5d 5abd
00000070: 22b1 46bc ef74 9eb8 f4a7 b53c c4b7 893d
00000080: eb2b 5f3d b65a 253d 66c4 37bd f339 6e3d
00000090: a5dc 89bd ba28 a23d cd5a 8e3d a3da 023c
000000a0: bec1 a73d 69d8 4fbd c87a 933d ebe9 cdbb
000000b0: 6fd8 7bbd 63db 1ebd 4741 d5bd 68f8 53bd
000000c0: f716 30bc b24e 6e3d d9f2 a23d df43 02bd
000000d0: d83f b23d efd3 453d d1a3 fa3a 1ca2 a43b
000000e0: f3fc a0bd 6a05 2dbd b65e aa38 4b4a 5fbd
000000f0: b39b 5ebd 0eab 8c3d a152 c4bd 5647 e7bc

hiden_layers.1.weight f4 [64, 64]
0.21360332 0.0846077 -0.19033764 0.05702965 -0.18069921 0.18668209 -0.11253639 -0.1149081
-0.020461455 -0.0054161325 -0.015101252 -0.078091815 0.08790042 0.07533009 0.029110858 -0.060431268
0.031331033 0.1324828 0.113503836 -0.02039913 0.20422624 -0.12918884 0.041675366 -0.14078951
0.019050322 -0.21088979 -0.07559533 0.17109601 0.0578239 -0.0013869535 -0.037723023 0.1363304
-0.19568147 0.18801285 -0.17171063 -0.16222371 -0.03608294 0.015513403 -0.022808151 0.16740389
0.08852149 0.1712074 -0.14715016 0.101295136 0.22000025 0.057581455 0.17875022 -0.20074087
-0.054590836 -0.1599134 -0.034647863 0.0972183 -0.1359009 -0.0035128582 -0.03217335 -0.18798591
0.23407364 -0.13580275 -0.1563384 0.10502086 0.09102995 0.04928173 0.0066956086 -0.13156064
-0.004687503 -0.049880512 -0.2091266 0.09435906 -0.1438221 -0.13454057 -0.13086613 -0.093783766
0.099848434 -0.09268505 0.22580807 0.08461574 0.05813479 -0.04046391 -0.024777893 0.0010630726
0.112722754 -0.056580637 0.16614705 0.13069205 0.044783246 0.17727165 -0.26800844 0.06787079
-0.077387474 0.19147107 0.01498839 -0.023630882 -0.11732661 0.02551521 -0.11459997 0.23185371
0.2134345 0.16863655 -0.19557315 -0.12177435 -0.19494238 0.03504695 -0.13025105 -0.22373396
-0.20789412 -0.2171371 0.13349041 -0.08017707 0.054401673 0.15961304 -0.65111667 -0.2220179
0.15875845 0.27250886 -0.1832806 -0.10216196 0.28919095 -0.030623376 0.1749628 -0.042867716
-0.059919953 0.05816133 -0.07777163 0.108979754 0.05525148 0.17224543 0.047723163 0.1809728
0.3195564 0.07607634 -0.051525325 0.06818137 0.08692281 0.18194558 -0.08570463 0.11667741
0.19147834 -0.039401837 -0.19010386 -0.048625704 0.07217389 -0.035449717 0.09101081 -0.04416094
-0.18130149 -0.08117455 0.058274183 0.1338007 0.028773267 -0.21171248 -0.16681983 -0.21776259
-0.10715435 0.082866296 -0.16255407 -0.08517182 0.18271971 0.0606919 0.20462374 0.21342191
0.11433973 -0.15624769 -0.034903154 -0.08187556 -0.06836657 -0.116487846 0.04317606 -0.1165401
-0.09673399 -0.10482964 -0.16033724 -0.036128584 0.08407276 0.019009883 -0.09734574 0.09220016
0.019176653 -0.037966367 0.058757942 -0.167906 0.04592237 -0.1609851 0.005847713 0.034366064
-0.22312124 0.11573888 -0.09971069 0.0080185635 0.060310703 0.07650312 -0.012663516 -0.023017693
0.00082017697 -0.06467639 -0.17654426 0.14907049 0.22772211 -0.23675539 -0.067047834 -0.14377137
0.005696749 0.0050223256 -0.1378308 0.27478725 0.26817328 0.09558585 -0.013122737 0.08779392
-0.054428924 -0.10247146 0.088280626 0.2100171 -0.01593277 -0.20778218 0.10192767 0.11762081
0.058128573 0.08981204 -0.025053438 -0.07057522 0.13183235 0.15746878 0.11675149 0.17597312
0.16012533 -0.009670174 -0.13203783 0.038488563 0.072986275 0.035793483 0.11786737 0.16153176
0.124614015 -0.015976693 0.21605992 0.15894218 -0.123784475 -0.16134882 -0.25173512 -0.11304634
0.09614331 0.07034353 -0.0358071 0.112445556 0.18524548 -0.049552225 -0.2735958 -0.0441755
-0.20912768 -0.083971925 0.10579018 0.015692694 -0.16074543 0.25208908 0.09572949 -0.21858276
00000000: d4ba 5a3e cd46 ad3d dfe7 42be ec97 693d
00000010: 3709 39be 9729 3f3e 7b79 e6bd f054 ebbd
00000020: c89e a7bc d079 b1bb 3e6b 77bc 9aee 9fbd
00000030: 2305 b43d aa46 9a3d e579 ee3c c786 77bd
00000040: f854 003d 92a9 073e b374 e83d 141c a7bc
00000050: af20 513e 144a 04be cab3 2a3d 202b 10be
00000060: 6c0f 9c3c 7ef3 57be b9d1 9abd cb33 2f3e
00000070: c1d8 6c3d 70ca b5ba 7583 1abd 329a 0b3e
00000080: b960 48be 7186 403e e9d4 2fbe f91d 26be
00000090: b4cb 13bd ee2b 7e3c 29d8 babc ed6b 2b3e
000000a0: c14a b53d fe50 2f3e 88ae 16be d373 cf3d
000000b0: bf47 613e 88da 6b3d 4c0a 373e 048f 4dbe
000000c0: a49a 5fbd 57c0 23be ebea 0dbd 631a c73d
000000d0: 9b29 0bbe fb37 66bb 34c8 03bd 617f 40be
000000e0: 00b1 6f3e e00f 0bbe 2c17 20be 2d15 d73d
000000f0: e96d ba3d a4db 493d d666 db3b d5b7 06be
00000100: a099 99bb 824f 4cbd 4925 56be 533f c13d
00000110: 1a46 13be 01c5 09be c501 06be b411 c0bd
00000120: 567d cc3d a9d1 bdbd 3b3a 673e 044b ad3d
00000130: bf1e 6e3d 7cbd 25bd 02fb cabc cc56 8b3a
00000140: 30db e63d 19c1 67bd 7422 2a3e 23d4 053e
00000150: a36e 373d b386 353e 6738 89be d7ff 8a3d
00000160: 537d 9ebd fe10 443e dd91 753c 8d95 c1bc
00000170: ef48 f0bd 4605 d13c 64b3 eabd 0f6b 6d3e
00000180: 938e 5a3e 0faf 2c3e 5444 48be d564 f9bd
00000190: fa9e 47be 648d 0f3d 8860 05be 841a 65be
000001a0: 32e2 54be 3059 5ebe b6b1 083e e033 a4bd
000001b0: 4ad4 5e3d 9a71 233e 95af 26bf a958 63be
000001c0: 9391 223e 4886 8b3e e9ad 3bbe 4a3a d1bd
000001d0: d610 943e e0dd fabc 7329 333e 0f96 2fbd
000001e0: a06e 75bd 933a 6e3d bb46 9fbd c730 df3d
000001f0: 604f 623d 1b61 303e 5d79 433d ef50 393e
00000200: e59c a33e eacd 9b3d 380c 53bd ada2 8b3d
00000210: 9604 b23d f14f 3a3e e985 afbd 91f4 ee3d
00000220: e612 443e d263 21bd 96aa 42be bf2b 47bd
00000230: e8cf 933d b933 11bd e063 ba3d 1ae2 34bd
00000240: 19a7 39be d83e a6bd e9b0 6e3d 0d03 093e
00000250: eab5 eb3c 28cb 58be d1d2 2abe 28fd 5ebe
00000260: bd73 dbbd ceb5 a93d 9374 26be 906e aebd
00000270: e01a 3b3e 1298 783d e388 513e 468b 5a3e
00000280: f32a ea3d 65ff 1fbe 9cf6 0ebd 60ae a7bd
00000290: c603 8cbd 2e91 eebd 61d9 303d 93ac eebd
000002a0: 781c c6bd ecb0 d6bd 722f 24be 91fb 13bd
000002b0: 572e ac3d 9dba 9b3c 345d c7bd 70d3 bc3d
000002c0: 5b18 9d3c 9f82 1bbd 2bac 703d 8def 2bbe
000002d0: 1819 3c3d 47d9 24be 2c9e bf3b 6ec3 0c3d
000002e0: e579 64be 8208 ed3d 1e35 ccbd 4b60 033c
000002f0: 5b08 773d abad 9c3d a37a 4fbc 9a8f bcbc
00000300: 2501 573a 0e75 84bd 05c8 34be efa5 183e
00000310: fc2f 693e 0170 72be 6050 89bd cd38 13be
00000320: cbab ba3b 5292 a43b 8423 0dbe eab0 8c3e
00000330: 024e 893e 84c2 c33d c000 57bc 4ccd b33d
00000340: ddf0 5ebd 8fdc d1bd 79cc b43d b90e 573e
00000350: 7185 82bc dac4 54be 74bf d03d 2ee3 f03d
00000360: 3a18 6e3d 60ef b73d de3c cdbc be89 90bd
00000370: 0fff 063e 7f3f 213e 681b ef3d 4c32 343e
00000380: e5f7 233e a66f 1ebc ed34 07be 2fa6 1d3d
00000390: d479 953d 309c 123d 7364 f13d 9568 253e
000003a0: a235 ff3d 8ee1 82bc d03e 5d3e bdc1 223e
000003b0: b782 fdbd a038 25be 6de3 80be d784 e7bd
000003c0: c9e6 c43d 4510 903d 77aa 12bd db49 e63d
000003d0: feb0 3d3e 46f7 4abd c014 8cbe 5ef1 34bd
000003e0: 9125 56be 79f9 abbd 86a8 d83d f78d 803c
000003f0: 739a 24be d211 813e d30d c43d 29d4 5fbe

hiden_layers.1.bias f4 [64]
-0.034116097 0.06401626 0.043844663 0.023666112 -0.014130725 -0.076915756 -0.049173735 -0.05264585
-0.081638254 -0.06812381 0.052393835 -0.06393834 -0.05093682 -0.015357395 -0.05053217 -0.08019869
0.022678923 -0.03827823 -0.055252083 0.060244028 -0.058026936 0.0201146 -0.015780281 0.07892586
0.040095385 -0.060425203 0.06364811 -0.0027543402 -0.06146729 -0.06363427 -0.038688056 -0.05187713
-0.050430864 0.043670792 0.06888871 0.06454644 0.05261535 -0.05258164 0.038980827 0.021066248
-0.008536452 -0.0040574153 -0.036987416 -0.04666857 -0.046471506 0.049362585 -0.08083099 0.08083944
0.041277945 -0.051651455 0.06787086 -0.043579742 -0.03148713 0.047110666 -0.06408089 0.058114152
-0.043580066 0.05811459 0.050111257 0.068730526 0.043358073 0.017792912 0.028557666 0.052940097
00000000: 52bd 0bbd f51a 833d 7696 333d 6fdf c13c
00000010: 8e84 67bc 0286 9dbd 666a 49bd 2da3 57bd
00000020: f531 a7bd 7f84 8bbd eb9a 563d 1bf2 82bd
00000030: 21a3 50bd 959d 7bbc d2fa 4ebd 363f a4bd
00000040: 26c9 b93c a2c9 1cbd 0250 62bd 71c2 763d
00000050: a7ad 6dbd 60c7 a43c a645 81bc e2a3 a13d
00000060: 0f3b 243d 6b80 77bd f159 823d 2982 34bb
00000070: 20c5 7bbd af52 82bd 5e77 1ebd 1d7d 54bd
00000080: 9890 4ebd 25e0 323d 8615 8d3d ed30 843d
00000090: 3183 573d d95f 57bd 5caa 1f3d 2093 ac3c
000000a0: 7adc 0bbc 11f4 84bb 1e80 17bd 8b27 3fbd
000000b0: e858 3ebd 6c30 4a3d b88a a5bd 268f a53d
000000c0: 1013 293d 7a90 53bd e1ff 8a3d ac80 32bd
000000d0: a6f8 00bd 1df7 403d d73c 83bd 1b09 6e3d
000000e0: 0381 32bd 9009 6e3d 7641 4d3d 97c2 8c3d
000000f0: 3c98 313d 71c2 913c c4f1 e93c b7d7 583d

hiden_layers.2.weight f4 [64, 64]
-0.21419378 0.38411582 0.057575163 0.00037709283 -0.046930153 -0.06957933 -0.23691896 -0.18593818
-0.40018535 -0.2328988 0.082708284 -0.13901597 -0.12710485 0.12936732 -0.14797182 0.19476318
0.19109714 0.019086102 -0.017389283 -0.040402763 0.19979486 0.21340504 -0.053168084 0.2523651
0.22096574 -0.17952332 -0.24370001 -0.18927541 0.14050668 -0.121306375 0.21243794 -0.13552476
-0.15816484 0.074007265 -0.18243544 -0.02667233 0.1476461 0.018364886 0.070700355 -0.04036748
-0.15862107 0.008736115 -0.008359101 0.06946233 0.12534112 -0.1394274 0.03092039 0.15854187
0.028202957 -0.028381769 0.07805442 -0.4595766 -0.103593424 0.14264223 0.1104295 0.19125812
-0.20060751 0.15838727 0.30820224 0.0055011646 -0.072748885 0.022524212 0.05749806 0.36768895
0.08749378 -0.0034599134 0.14975643 0.15013503 0.22729005 0.13515402 0.15175402 0.22814043
0.10627517 0.17712076 0.18633221 0.16177659 -0.09761951 -0.049734715 -0.049907908 0.17145066
-0.10376841 0.0693854 -0.23121311 -0.14163099 0.032003816 -0.129006 -0.019904982 -0.18759447
-0.044562694 0.0908063 0.22060107 0.121133395 -0.11369662 0.060970988 -0.03125824 -0.061259724
-0.0006295021 0.20464653 -0.08977175 0.13127378 0.123901166 0.07444936 0.058209103 -0.20162795
-0.083551995 -0.11462888 -0.006177483 0.018018989 0.027318085 -0.22278692 -0.07962211 0.21753034
-0.1685482 0.2077737 -0.10474916 -0.07174155 -0.14155482 0.16069493 -0.11892838 -0.42195243
0.5030962 -0.03390271 -0.088220015 0.17428662 0.066982746 0.20069934 0.10313358 -0.21463335
0.21491586 -0.26674205 -0.0950719 -0.12565368 0.13950893 0.05878799 0.18043543 0.02212567
-0.057707943 0.25287476 0.0033602864 0.20714328 0.008496662 0.1678905 -0.15165338 0.17858116
0.07921858 -0.20695364 0.14242272 -0.204399 -0.19644366 0.06333704 0.1486352 -0.18293783
-0.06999232 -0.078050725 -0.10095827 -0.03384678 0.07754618 0.098566264 0.10180602 0.28549835
-0.117442094 -0.15920158 -0.06428373 0.11281836 0.17132415 -0.02054536 -0.21621497 0.18806759
0.18527468 0.010889773 -0.13486315 -0.11110408 0.15342806 0.02829201 -0.021891644 -0.046536032
0.1924101 0.06348955 -0.23964527 0.296806 -0.16334532 0.1675716 0.15485999 -0.010026324
-0.22522217 0.1132481 -0.24043104 -0.11647013 0.050305568 0.0042530294 0.14622375 0.112576894
-0.010445367 -0.14478649 -0.006074776 0.2636777 -0.2958113 -0.16227531 0.1464918 -0.15158774
0.05207418 0.12710123 0.18692625 -0.19095838 0.09646638 0.13984855 -0.05471489 -0.045838676
0.052152924 -0.30603787 -0.19690022 -0.033881903 -0.21166871 -0.047148183 0.1165876 -0.0077087022
-0.009523348 -0.04094567 0.14460161 0.043206424 -0.079406045 0.20718168 0.061216876 -0.21815701
-0.27346087 -0.10618745 0.37661728 0.19807439 0.13926806 0.09625722 -0.024350218 -0.06185132
0.2589933 -0.23929231 0.0047890614 -0.012212738 0.017580327 0.06190703 -0.10607298 0.014006711
-0.07816611 0.07395637 0.2189082 -0.23306432 -0.036757372 -0.104570724 0.09927859 -0.033845585
0.054825597 -0.100691825 -0.085839085 0.34517902 0.19663931 -0.20803587 0.25299636 -0.009063102
00000000: 9d55 5bbe d4aa c43e efd3 6b3d 8bb4 c539
00000010: d539 40bd 9c7f 8ebd e29a 72be 9466 3ebe
00000020: 18e5 ccbe 067d 6ebe f662 a93d 345a 0ebe
00000030: c627 02be de78 043e ed85 17be 0070 473e
00000040: f8ae 433e 755a 9c3c f873 8ebc 5e7d 25bd
00000050: 0697 4c3e da86 5a3e c7c6 59bd 0036 813e
00000060: d844 623e f6d4 37be 7f8c 79be 6ad1 41be
00000070: fce0 0f3e 7a6f f8bd 5589 593e 01c7 0abe
00000080: f7f5 21be 1f91 973d 5bd0 3abe ee7f dabc
00000090: 8a30 173e f571 963c 59cb 903d 5f58 25bd
000000a0: 906d 22be ec21 0f3c 9cf4 08bc 4442 8e3d
000000b0: 6c59 003e 0ec6 0ebe c24c fd3c cd58 223e
000000c0: e309 e73c e280 e8bc ffda 9f3d a04d ebbe
000000d0: ca28 d4bd ce10 123e dd28 e23d 2bd9 433e
000000e0: 0e6c 4dbe 4630 223e afcc 9d3e 1d43 b43b
000000f0: 5efd 94bd b284 b83c 1683 6b3d ba41 bc3e
00000100: f02f b33d b7bf 62bb c059 193e ffbc 193e
00000110: b9be 683e d165 0a3e 6865 1b3e a59d 693e
00000120: cca6 d93d 255f 353e dfcd 3e3e c3a8 253e
00000130: bdec c7bd a1b6 4bbd 3c6c 4cbd c390 2f3e
00000140: 8884 d4bd ef19 8e3d 21c3 6cbe b707 11be
00000150: 6f16 033d 261a 04be c60f a3bc c418 40be
00000160: 5f87 36bd a7f8 b93d 3fe5 613e c914 f83d
00000170: c6d9 e8bd b7bc 793d a408 00bd 7aeb 7abd
00000180: 2c05 25ba dc8e 513e 40da b7bd a26c 063e
00000190: e5bf fd3d e878 983d ab6c 6e3d 8f77 4ebe
000001a0: 4f1d abbd 8cc2 eabd 7c6c cabb 8f9c 933c
000001b0: 2dca df3c 4122 64be eb10 a3bd 46c0 5e3e
000001c0: e697 2cbe a1c2 543e ba86 d6bd 3ced 92bd
000001d0: bff3 10be 368d 243e b990 f3bd 260a d8be
000001e0: eaca 003f 91dd 0abd b2ac b4bd 3178 323e
000001f0: 402e 893d 2184 4d3e b337 d33d d8c8 5bbe
00000200: e712 5c3e 6a92 88be 0eb5 c2bd 5cab 00be
00000210: 6edb 0e3e adcb 703d 11c4 383e e540 b53c
00000220: 2a5f 6cbd cd78 813e 4038 5c3b 5e1d 543e
00000230: 9535 0b3c 7deb 2b3e 064b 1bbe fbdd 363e
00000240: 5a3d a23d a8eb 53be 43d7 113e f94d 51be
00000250: 8728 49be dab6 813d d333 183e 0e54 3bbe
00000260: 2258 8fbd 0fd9 9fbd 36c3 cebd eca2 0abd
00000270: 88d0 9e3d 1cdd c93d ad7f d03d d72c 923e
00000280: 7b85 f0bd bd05 23be 30a7 83bd 500d e73d
00000290: 996f 2f3e be4e a8bc 7567 5dbe ca94 403e
000002a0: a5b8 3d3e 056b 323c 9119 0abe 898a e3bd
000002b0: 3f1c 1d3e a5c4 e73c 1b56 b3bc 919c 3ebd
000002c0: 2707 453e cf06 823d 9265 75be f5f6 973e
000002d0: ff43 27be e497 2b3e 9e93 1e3e 7345 24bc
000002e0: a4a0 66be 9fee e73d 8e33 76be e487 eebd
000002f0: 360d 4e3d ff5c 8b3b aebb 153e b78e e63d
00000300: 0b23 2bbc e942 14be ea0e c7bb c300 873e
00000310: 9474 97be 802b 26be f201 163e d139 1bbe
00000320: bc4b 553d d326 023e 9869 3f3e 988a 43be
00000330: 2a90 c53d 7534 0f3e b81c 60bd 56c1 3bbd
00000340: 4e9e 553d ffb0 9cbe 36a0 49be c0c7 0abd
00000350: afbf 58be 741e 41bd 7bc5 ee3d 4899 fcbb
00000360: d107 1cbc a6b6 27bd 7212 143e 38f9 303d
00000370: a39f a2bd 6f27 543e 8cbe 7a3d 8d64 5fbe
00000380: 1003 8cbe ce78 d9bd fbd3 c03e 03d4 4a3e
00000390: 499c 0e3e 8122 c53d 1c7a c7bc cf57 7dbd
000003a0: c59a 843e 0b09 75be 8fed 9c3b f017 48bc
000003b0: 9e04 903c 3a92 7d3d ca3c d9bd 677c 653c
000003c0: 8e15 a0bd 7076 973d 7929 603e 6aa8 6ebe
000003d0: e68e 16bd 2d29 d6bd 9352 cb3d aba1 0abd
000003e0: ce90 603d 8437 cebd 67cc afbd 4ebb b03e
000003f0: d15b 493e 5b07 55be bd88 813e 687d 14bc

hiden_layers.2.bias f4 [64]
0.050784983 -0.019117946 -0.045014966 0.043912973 -0.017490324 0.02475087 -0.025723495 0.0035502499
-0.06775558 -0.01975247 0.009183495 -0.045657333 0.04390511 -0.016384028 -0.038366694 0.03114695
0.014655216 -0.0348747 -0.055036966 0.04383102 -0.071680695 0.0017769879 0.06500458 -0.0064406083
-0.0050146724 0.033764124 0.048425887 -0.0009944706 -0.064243115 0.040475544 0.12756601 -0.03640911
-0.027977213 -0.055446234 -0.0582778 0.0073391916 0.06103046 -0.04684515 -0.05350161 0.052320417
0.0089536505 0.020342773 -0.05722538 0.05058957 0.000547452 0.04199793 -0.04512896 0.055962596
0.05190072 -0.050046302 0.037126753 -0.0069956323 -0.06605556 -0.041212566 -0.002380981 -0.027687779
0.026767006 -0.018687582 -0.05319072 0.032032136 0.08223824 -0.04515812 -0.031803116 0.050347034
00000000: ea03 503d 3d9d 9cbc 9d61 38bd 17de 333d
00000010: de47 8fbc 56c2 ca3c 14ba d2bc 4fab 683b
00000020: 70c3 8abd efcf a1bc 5f76 163c 2f03 3bbd
00000030: d8d5 333d cc37 86bc 6526 1dbd e327 ff3c
00000040: 6e1c 703c c6d8 0ebd 716e 61bd 2888 333d
00000050: 54cd 92bd d2e9 e83a 1f21 853d bd0b d3bb
00000060: 1f52 a4bb 404c 0a3d 395a 463d e558 82ba
00000070: e591 83bd afc9 253d aaa0 023e b821 15bd
00000080: 7830 e5bc 971b 63bd b4b4 6ebd 9a7d f03b
00000090: 13fb 793d b3e0 3fbd 8124 5bbd ef4d 563d
000000a0: 55b2 123c e3a5 a63c 2965 6abd 0237 4f3d
000000b0: e282 0f3a 0506 2c3d 25d9 38bd 0939 653d
000000c0: d995 543d 5afd 4cbd 3912 183d 9e3b e5bb
000000d0: 2348 87bd 82ce 28bd 3c0a 1cbb 7bd1 e2bc
000000e0: 7b46 db3c b316 99bc 83de 59bd 2134 033d
000000f0: 866c a83d b9f7 38bd fc43 02bd b138 4e3d

hiden_layers.3.weight f4 [64, 64]
-0.13432828 0.19790539 0.20918742 -0.03664189 -0.08730696 0.1526412 -0.093794435 -0.255957
0.057519626 0.05758278 0.15841179 0.03232559 0.18358354 -0.16908276 0.2618916 -0.080511056
-0.10814881 -0.14950281 0.12367169 -0.18762544 0.25774115 -0.2609658 0.16143838 0.16882761
0.13512854 -0.0054131225 -0.10473164 -0.061241165 0.20676182 0.13681374 -0.11420115 0.3015155
0.09628235 0.122122794 -0.10096056 0.1383479 -2.9702132e-05 0.05840542 0.100991726 -0.10287708
0.07658085 0.1431405 -0.18185897 -0.2083828 0.12506065 0.19733796 0.07921886 -0.09925191
0.18091106 -0.17282991 -0.13273188 -0.18562117 0.18625535 0.22082362 0.08519616 -0.12955381
0.10077554 0.09406056 -0.1764792 0.00012847774 0.07196068 0.22533254 -0.10338792 0.19508733
-0.20351942 -0.02420363 0.006059032 0.07491904 -0.03013941 0.11188753 -0.18042241 0.100795746
-0.12464908 -0.18712217 0.18856062 0.10233602 0.1898953 -0.008888625 0.024719106 0.20064373
0.18203741 -0.043393552 0.22890793 0.17105183 0.22051482 -0.1226204 -0.06415939 0.2416522
-0.05882552 0.09404203 0.21166551 -0.1893305 0.19000806 -0.032240197 -0.24061562 0.17577541
0.15837736 -0.047258466 0.17395322 0.12505923 -0.08167433 -0.1057423 -0.18012838 0.07677754
0.031226434 -0.037136868 0.05264381 0.22400202 0.048239004 0.08171502 0.14488873 -0.029764758
0.13953196 -0.16697437 -0.11497154 0.16536936 0.15112828 -0.087485835 -0.049999293 0.18297419
0.19317758 -0.146948 0.10891973 0.023489267 0.24927048 0.14133216 -0.0018417465 0.12016038
-0.21788725 0.16727133 -0.037309024 -0.0828289 -0.17204964 0.107337624 0.11139192 -0.20211023
0.22377022 -0.05013604 -0.054144297 0.18277414 -0.106442094 0.02584847 0.1584325 0.0034055356
0.078723386 0.14148405 -0.13951425 -0.20498875 0.11421056 0.005801607 -0.20407748 0.13564591
-0.045993727 0.07558979 -0.21410352 0.1490332 0.35682106 -0.2153043 -0.16615355 -0.086176135
-0.22567771 0.31099463 0.2015404 0.010614696 -0.07563807 -0.054984033 0.117847554 0.042320307
0.20095237 -0.23593566 0.017892318 0.020690966 -0.007556501 -0.1656106 0.12739246 -0.22713433
-0.15716656 -0.15843935 0.22102918 0.16689412 0.014919212 -0.068433985 -0.2575394 -0.20778365
-0.18835814 -0.15413074 0.050423488 0.0909478 0.0716589 0.09804179 0.022233956 -0.025799206
0.02317038 -0.11486789 0.11014262 -0.05934787 -0.20887987 -0.0887224 0.08982431 -0.1396134
0.10110359 -0.13899888 -0.1840544 -0.121922076 -0.20809214 -0.17751032 -0.06533922 -0.023155082
-0.04104398 0.094067276 0.16950312 0.008607348 0.13743483 -0.1297255 -0.18152271 -0.034393415
0.22097553 0.025002673 0.07403021 0.114515476 0.21837756 -0.23803727 0.05737747 0.07863025
0.12936492 0.19075161 0.10517046 -0.12260867 -0.27332607 -0.0133807175 -0.06727353 -0.05121942
0.12967023 -0.19333556 -0.15387997 -0.054630335 0.12819904 -0.13973963 0.20205845 0.12909207
-0.1519697 0.17446408 -0.11683118 -0.1583192 0.14431594 0.17739804 0.42313543 0.15494782
0.19038522 0.11389028 0.19190358 -0.16855559 -0.11366178 -0.16955532 -0.12725312 0.024294646
00000000: 5a8d 09be b6a7 4a3e 3a35 563e ce15 16bd
00000010: fecd b2bd fa4d 1c3e 4c17 c0bd cc0c 83be
00000020: b399 6b3d ecdb 6b3d b336 223e d667 043d
00000030: 53fd 3b3e 0824 2dbe a816 863e fbe2 a4bd
00000040: 207d ddbd 4417 19be 9547 fd3d e220 40be
00000050: a6f6 833e 4f9d 85be 1a50 253e 25e1 2c3e
00000060: 235f 0a3e 9060 b1bb 8b7d d6bd 04d8 7abd
00000070: 5fb9 533e e718 0c3e 4be2 e9bd 3d60 9a3e
00000080: ae2f c53d 841b fa3d 69c4 cebd 12ab 0d3e
00000090: d828 f9b7 863a 6f3d c0d4 ce3d 38b1 d2bd
000000a0: 6cd6 9c3d 6c93 123e 3d39 3abe 4d62 55be
000000b0: e60f 003e f612 4a3e 7f3d a23d 9644 cbbd
000000c0: c040 393e 53fa 30be deea 07be 7a13 3ebe
000000d0: b9b9 3e3e 961f 623e 537b ae3d c1a9 04be
000000e0: 6863 ce3d d3a2 c03d f7b6 34be fbb7 0639
000000f0: 1f60 933d 93bd 663e 0cbd d3bd f9c4 473e
00000100: 6567 50be b146 c6bc d88a c63b 276f 993d
00000110: ede6 f6bc 4a25 e53d a7c0 38be 006e ce3d
00000120: 0448 ffbd f49c 3fbe 0916 413e 8c95 d13d
00000130: ea73 423e 98a1 11bc b97f ca3c 8d75 4d3e
00000140: 0468 3a3e 70bd 31bd d766 6a3e 3628 2f3e
00000150: a3ce 613e 6720 fbbd 0066 83bd ad73 773e
00000160: 07f3 70bd 1c99 c03d d8be 583e dbdf 41be
00000170: 7991 423e 4c0e 04bd f163 76be 78fe 333e
00000180: ad2d 223e 1892 41bd cb20 323e 870f 003e
00000190: df44 a7bd 6b8f d8bd 9373 38be 8b3d 9d3d
000001a0: 94ce ff3c d41c 18bd 09a1 573d c960 653e
000001b0: 4396 453d 345a a73d b65d 143e 39d5 f3bc
000001c0: 77e1 0e3e 54fb 2abe 3376 ebbd 9656 293e
000001d0: 5fc1 1a3e c62b b3bd 0fcc 4cbd 965d 3b3e
000001e0: 58d0 453e 8979 16be 4f11 df3d 906c c03c
000001f0: c340 7f3e 61b9 103e c266 f1ba a516 f63d
00000200: d61d 5fbe 2d49 2b3e 59d1 18bd 33a2 a9bd
00000210: c82d 30be d4d3 db3d 7221 e43d fcf5 4ebe
00000220: 0524 653e 735b 4dbd 69c6 5dbd 2529 3b3e
00000230: 50fe d9bd 2cc0 d33c 213c 223e 682f 5f3b
00000240: ba39 a13d 32e1 103e d3dc 0ebe 92e8 51be
00000250: 3ae7 e93d 681b be3b b0f9 50be c3e6 0a3e
00000260: eb63 3cbd d2ce 9a3d f43d 5bbe 299c 183e
00000270: 40b1 b63e bb78 5cbe 2824 2abe 1d7d b0bd
00000280: 0f18 67be b03a 9f3e 9b60 4e3e 43e9 2d3c
00000290: 22e8 9abd f036 61bd 0f5a f13d 0f58 2d3d
000002a0: 75c6 4d3e 1e99 71be e992 923c 1a80 a93c
000002b0: 869c f7bb d395 29be 2b73 023e e795 68be
000002c0: 45f0 20be ed3d 22be 7955 623e 4be6 2a3e
000002d0: b66f 743c 1e27 8cbd 34dc 83be 3dc5 54be
000002e0: f5e0 40be 73d4 1dbe dc88 4e3d d742 ba3d
000002f0: e7c1 923d 22ca c83d fc23 b63c db58 d3bc
00000300: cfcf bd3c db3f ebbd 7492 e13d c116 73bd
00000310: 9be4 55be 17b4 b5bd cff5 b73d d1f6 0ebe
00000320: 660f cf3d b955 0ebe c278 3cbe 48b2 f9bd
00000330: 1b16 55be 44c5 35be 92d0 85bd baaf bdbc
00000340: bb1d 28bd 58a6 c03d 3a92 2d3e d605 0d3c
00000350: b7bb 0c3e c3d6 04be 17e1 39be 1ce0 0cbd
00000360: 6947 623e 68d2 cc3c 279d 973d 1787 ea3d
00000370: 5e9e 5f3e 0bc0 73be a304 6b3d e608 a13d
00000380: 3d78 043e 6454 433e 9c63 d73d 411a fbbd
00000390: 65f1 8bbe cc3a 5bbc b4c6 89bd 74cb 51bd
000003a0: 46c8 043e c2f9 45be b692 1dbe 0fc4 5fbd
000003b0: 9c46 033e e817 0fbe 69e8 4e3e b630 043e
000003c0: f29d 1bbe b6a6 323e 3045 efbd 6e1e 22be
000003d0: 8fc7 133e d5a7 353e 35a5 d83e a4aa 1e3e
000003e0: 58f4 423e 4f3f e93d 5f82 443e d699 2cbe
000003f0: 82c7 e8bd e99f 2dbe a44e 02be 9105 c73c

hiden_layers.3.bias f4 [64]
-0.04293789 -0.014046699 -0.04343639 -0.024442466 -0.018333616 -0.033157896 0.038718216 0.02021787
-0.0101001095 0.01533313 0.013007877 0.04314317 0.06773527 0.04495045 -0.023668896 -0.031311404
-0.014832229 0.043632686 -0.0044158273 0.034769475 0.011456284 -0.05469011 0.03765974 0.024985358
-0.025220133 0.023868889 -0.039213512 -0.040827647 -0.027476322 -0.028843231 0.012620598 0.022796154
-0.016771317 0.0026461063 -0.034242604 0.04522838 0.0069544124 0.02992951 0.035623953 0.04072506
-0.04973701 -0.06650164 0.052727982 -0.0016754636 -0.034018517 0.046724215 -0.017373284 0.017969592
-0.040791117 0.015784292 -0.012138267 -0.003852947 -0.10810934 -0.0047651473 0.051435575 -0.04637159
0.017972881 -0.031283855 -0.046789676 -0.057267703 0.03540529 0.026028194 -0.044360075 -0.024304368
00000000: a4df 2fbd 2024 66bc 5bea 31bd 913b c8bc
00000010: 6130 96bc 93d0 07bd fe96 1e3d f29f a53c
00000020: ee7a 25bc cf37 7b3c fe1e 553c e5b6 303d
00000030: cab8 8a3d f71d 383d 46e5 c1bc 6340 00bd
00000040: e102 73bc 30b8 323d a5b2 90bb 706a 0e3d
00000050: 23b3 3b3c bd02 60bd 1941 1a3d 18ae cc3c
00000060: 749a cebc b088 c33c 599e 20bd e43a 27bd
00000070: 0616 e1bc a448 ecbc a0c6 4e3c 00bf ba3c
00000080: 0064 89bc 4c6a 2d3b f941 0cbd 6541 393d
00000090: d7e1 e33b bb2e f53c 6cea 113d 52cf 263d
000000a0: 09b9 4bbd 0332 88bd 4cf9 573d 3b9b dbba
000000b0: 0057 0bbd e461 3f3d 6b52 8ebc f734 933c
000000c0: 9614 27bd 0f4e 813c 95df 46bc b981 7cbb
000000d0: 6e68 ddbd f424 9cbb 1cae 523d 23f0 3dbd
000000e0: dd3b 933c 8023 00bd 88a6 3fbd 8a91 6abd
000000f0: 2305 113d 1439 d53c e9b2 35bd f419 c7bc

hiden_layers.4.weight f4 [64, 64]
-0.20368874 0.041656166 0.102892004 -0.20185192 0.17210542 -0.09115475 -0.029841054 0.029646333
-0.05272145 -0.06767028 -0.06438733 0.05241782 0.038160015 -0.1320812 -0.11469119 -0.057114616
0.002050846 -0.0942021 0.09440036 0.1331633 -0.16164501 0.062268842 -0.2461891 0.035096582
-0.05919595 -0.16605386 0.062479626 0.072444595 -0.18931459 -0.13400823 -0.12512076 0.019071283
0.2004682 -0.056988467 0.042584464 -0.25312972 0.19312619 -0.093232244 -0.0029073078 -0.021153921
-0.13254118 -0.05318461 0.31674117 0.07226293 0.007055136 0.12930839 0.21196903 -0.19202536
-0.17988183 -0.12325978 0.09024346 0.17013477 -0.19647692 0.20214015 0.20550548 -0.06847253
0.20571104 -0.0810694 -0.22422978 -0.3934695 0.055679742 -0.1881682 -0.04276637 -0.046965875
-0.027786227 -0.1565699 -0.1300388 0.08237734 0.1063202 0.05409374 -0.22679125 -0.013690271
-0.15974489 -0.044525906 -0.12319027 0.12606192 0.22338106 0.14760682 -0.060151946 0.06529294
-0.18233995 -0.12192421 0.055175968 0.02538081 0.14351945 0.21660349 0.29695755 0.067016646
-0.1460246 -0.24045402 -0.16110337 0.17951338 -0.017920464 0.04752713 -0.15323041 -0.23248105
0.26053807 0.13696575 0.22654375 -0.0912541 -0.17839728 0.032755937 0.08813858 -0.021843573
0.21429563 -0.09707615 0.097839296 0.17142315 -0.0079440195 0.15712355 -0.015914062 -0.0520868
-0.13226065 0.24828744 -0.15860607 -0.08029773 0.08964135 -0.073216066 0.22888891 0.06561794
-0.022906916 -0.1578214 0.13290648 -0.18963465 0.29524326 0.019668939 0.08983909 0.19548884
-0.17683572 -0.25064725 -0.19760688 -0.22608492 -0.013183161 -0.09200081 -0.0021471495 0.19758883
-0.04136664 -0.08590981 0.113002114 0.005991845 0.04120072 0.18776643 0.0927994 -0.1458841
0.009225394 0.25337228 -0.17976722 0.14276429 -0.2070955 -0.2702842 0.023377664 0.07336507
-0.30842534 -0.24245234 -0.0073184487 0.13205162 -0.33246097 0.03515938 -0.1218535 0.25212243
-0.15696467 0.06124204 -0.2018482 0.10746928 -0.048328217 0.05655276 -0.025948308 0.2786813
0.095782526 0.1235114 -0.14612183 0.003084558 -0.20367737 0.04089858 0.08185926 0.26832512
0.22200526 0.09509988 0.1521123 -0.19616169 -0.25966835 0.20964274 0.2569782 0.050928067
-0.08861304 0.2011979 0.05375979 0.046517644 -0.010861819 -0.0038910627 0.055964313 0.11327903
0.0873642 -0.08867644 -0.07596298 0.20610829 0.12472352 0.21809989 0.020507634 -0.21204859
0.18387496 0.12365056 0.1454688 -0.075739466 -0.09899572 -0.16867529 0.23286118 0.25706014
0.034263257 0.022587815 -0.21923032 -0.33428958 -0.16730116 0.09565983 0.16479892 0.1563301
0.16564867 -0.12901188 0.23420946 -0.07836278 -0.15290137 0.07660065 -0.0161401 -0.36237797
-0.06859875 0.05117349 -0.11799892 -0.18738183 0.04927544 -0.111265995 -0.14117719 0.08939814
-0.030543793 0.044239618 -0.2114648 0.23211196 0.1240336 -0.14761077 -0.14486642 -0.2275486
-0.017960306 0.18089366 0.02767431 0.20617855 -0.075264834 0.11790838 0.13073674 0.35778046
-0.26111692 0.0065418566 0.18785906 0.032621183 0.097864576 -0.032757003 0.21908139 0.2248041
00000000: c893 50be a89f 2a3d 0bb9 d23d 45b2 4ebe
00000010: 673c 303e 57af babd 3a75 f4bc dedc f23c
00000020: 72f2 57bd b796 8abd 81dd 83bd 11b4 563d
00000030: ad4d 1c3d 4b40 07be 37e3 eabd 04f1 69bd
00000040: 7c67 063b 08ed c0bd fa54 c13d f65b 083e
00000050: 4586 25be 9d0d 7f3d ff18 7cbe 6fc1 0f3d
00000060: 7477 72bd 060a 2abe a3ea 7f3d d55d 943d
00000070: afdb 41be 7439 09be a81f 00be 613b 9c3c
00000080: 8947 4d3e bd6c 69bd 0c6d 2e3d 389a 81be
00000090: dfc2 453e 8cf0 bebd 8888 3ebb fd4a adbc
000000a0: e0b8 07be 1bd8 59bd e62b a23e 96fe 933d
000000b0: c52e e73b 6b69 043e 690e 593e 4ca2 44be
000000c0: f132 38be a06f fcbd 90d1 b83d cf37 2e3e
000000d0: 3f31 49be d4fd 4e3e 0770 523e 533b 8cbd
000000e0: eaa5 523e b707 a6bd 7e9c 65be d674 c9be
000000f0: 7110 643d 2aaf 40be ca2b 2fbd 4a5f 40bd
00000100: f19f e3bc dc53 20be e428 05be 73b5 a83d
00000110: 68be d93d 6691 5d3d f73b 68be 294d 60bc
00000120: 2a94 23be cc60 36bd 2e4b fcbd 6016 013e
00000130: 01be 643e 3e26 173e e361 76bd 4eb8 853d
00000140: 53b7 3abe 66b3 f9bd 3200 623d 6beb cf3c
00000150: c3f6 123e 4ecd 5d3e d20a 983e 0640 893d
00000160: 7987 15be 9439 76be 48f8 24be 5bd2 373e
00000170: f0cd 92bc cfab 423d 6fe8 1cbe 830f 6ebe
00000180: 3f65 853e c040 0c3e 16fb 673e 6ee3 babd
00000190: c7ad 36be 172b 063d 0082 b43d 4bf1 b2bc
000001a0: 5070 5b3e dccf c6bd f85f c83d 8d89 2f3e
000001b0: a227 02bc ffe4 203e 355e 82bc f858 55bd
000001c0: 566f 07be 103f 7e3e a169 22be 2373 a4bd
000001d0: e295 b73d 4ef2 95bd db61 6a3e b362 863d
000001e0: 49a7 bbbc ef9b 21be a318 083e 962f 42be
000001f0: 202a 973e c120 a13c 8ffd b73d 3a2e 483e
00000200: 6c14 35be d654 80be 7559 4abe ce82 67be
00000210: 2ffe 57bc ec6a bcbd 31b7 0cbb ba54 4a3e
00000220: 1170 29bd 7cf1 afbd a76d e73d 3d57 c43b
00000230: 16c2 283d d845 403e 9d0d be3d a462 15be
00000240: 1b26 173c 03ba 813e e614 38be cd30 123e
00000250: d810 54be b162 8abe 8482 bf3c 6d40 963d
00000260: ede9 9dbe 6d45 78be 99cf efbb 8a38 073e
00000270: 5338 aabe 4803 103d 548e f9bd 3116 813e
00000280: 59bb 20be efd8 7a3d 4bb1 4ebe db18 dc3d
00000290: cff3 45bd dea3 673d 8c91 d4bc 51af 8e3e
000002a0: a129 c43d 8bf3 fc3d f6a0 15be 4c26 4a3b
000002b0: cd90 50be 4585 273d d4a5 a73d e961 893e
000002c0: 5955 633e bac3 c23d 54c3 1b3e 9cde 48be
000002d0: 40f3 84be 96ac 563e a692 833e f399 503d
000002e0: c17a b5bd d306 4e3e 3a33 5c3d 4989 3e3d
000002f0: c5f5 31bc 3301 7fbb d63a 653d d6fe e73d
00000300: 00ec b23d fe9b b5bd 7b92 9bbd 0d0e 533e
00000310: 0b6f ff3d 9455 5f3e a0ff a73c 4423 59be
00000320: b849 3c3e 813c fd3d c6f5 143e 4b1d 9bbd
00000330: 45be cabd 37b9 2cbe 2973 6e3e 639d 833e
00000340: a157 0c3d 150a b93c ea7d 60be 0128 abbe
00000350: ff50 2bbe 4de9 c33d 0cc1 283e ff14 203e
00000360: ce9f 293e b11b 04be 9bd4 6f3e aa7c a0bd
00000370: 2d92 1cbe cde0 9c3d 3e38 84bc 9b89 b9be
00000380: 807d 8cbd 4b9b 513d 6ba9 f1bd 06e1 3fbe
00000390: 0bd5 493d 6ddf e3bd c190 10be 5f16 b73d
000003a0: fa36 fabc 9a34 353d 3b8a 58be c2ae 6d3e
000003b0: 5405 fe3d 4727 17be dd57 14be 8002 69be
000003c0: 7e21 93bc 303c 393e 3cb5 e23c 7820 533e
000003d0: 7324 9abd f379 f13d dadf 053e 002f b73e
000003e0: 1eb1 85be 125d d63b 205e 403e ca9d 053d
000003f0: 396d c83d 352c 06bd df56 603e 0c33 663e

hiden_layers.4.bias f4 [64]
-0.061157998 -0.033716407 0.050669722 -0.013895366 0.024986537 -0.012557433 0.02086404 -0.007417538
0.014503247 -0.0014081214 -0.017128183 0.04749751 -0.023174582 -0.03535445 0.021743506 0.0030202083
-0.04296054 0.009695644 -0.021918235 0.00031060673 -0.06620027 -0.053023364 0.08678978 -0.032832503
0.011598156 0.0069280444 -0.04886272 -0.017408682 -0.06186838 -0.0052424716 -0.110440515 0.0070237257
-0.022382237 -0.03090773 0.05053369 -0.013452774 0.027728785 -0.024398241 0.0014716686 0.057013296
0.09136665 0.040614884 -0.027882585 -0.027753558 -0.005999697 -0.005383399 -0.025140967 -0.00050118705
0.06182495 0.015119415 0.008262069 -0.065970436 -0.043385092 0.006881241 0.008486556 0.076974064
-0.018613933 0.040105496 0.0132515915 -0.031540524 0.013503891 -0.010272197 -0.055782318 -0.0034574708
00000000: cf80 7abd 371a 0abd 0e8b 4f3d 64a9 63bc
00000010: 91b0 cc3c b1bd 4dbc 10eb aa3c d20e f3bb
00000020: 079f 6d3c b790 b8ba 6750 8cbc c08c 423d
00000030: 9fd8 bdbc d4cf 10bd 701f b23c b0ee 453b
00000040: 64f7 2fbd 7ada 1e3c df8d b3bc eed8 a239
00000050: 0294 87bd 072f 59bd d7be b13d 607b 06bd
00000060: 3106 3e3c a604 e33b 4724 48bd a79c 8ebc
00000070: b369 7dbd 0ac9 abbb a32e e2bd 4827 e63b
00000080: f45a b7bc 3532 fdbc 6afc 4e3d 0669 5cbc
00000090: 7a27 e33c d2de c7bc 01e5 c03a c686 693d
000000a0: 701e bb3d cb5b 263d 056a e4bc 6e5b e3bc
000000b0: 1b99 c4bb 3967 b0bb 6ef4 cdbc 1862 03ba
000000c0: 293c 7d3d 6cb7 773c a15d 073c 821b 87bd
000000d0: 91b4 31bd 097c e13b 320b 0b3c 94a4 9d3d
000000e0: 3f7c 98bc a945 243d 341d 593c a330 01bd
000000f0: 6d3f 5d3c b84c 28bc 007c 64bd bc96 62bb
