results/1_first_try/epoch200/model_weights.pth (torch, 484214 bytes, 88 tensors)

init_layer.0.weight f4 [64, 3]
000000 6a d3 8e be a0 65 98 bd 15 d4 1b 3e ad 49 82 3e
       -0.2789567 -0.074412584 0.15217622 0.25446835
000010 98 79 07 bd df 08 9a bc c0 8c b5 bd 69 0b 7d be
       -0.033074945 -0.018803058 -0.088647366 -0.24711384
000020 ea ae f5 bd 9b f9 09 3e ce 48 ba 3d 15 bc fa 3c
       -0.11996253 0.13474123 0.09095918 0.030607263
000030 eb 60 26 bc f1 1e 95 3e 32 03 1e 3e 2a 35 17 be
       -0.010154943 0.2912517 0.15430906 -0.14766374
000040 b9 25 9e be 81 3a fd 3d f0 8d 8c 3e b7 12 7e 3d
       -0.30888155 0.12364674 0.2745204 0.062029567
000050 82 ac 44 3e 25 74 9e 3e b0 b2 80 3e 98 f3 23 3e
       0.19206432 0.30947986 0.25136328 0.16010892
000060 cc 2a 5c 3e eb 9d 9d be df 53 0e 3d ce 72 91 bd
       0.215007 -0.30784544 0.034747954 -0.071019754
000070 db 89 71 be fa 6a 35 3e 0f df dd bd 4f b0 9b b9
       -0.23587744 0.1771659 -0.10833561 -0.00029695264
000080 7a 33 a9 3d 67 ef 73 3d 62 b9 4d 3e c3 8e 1c be
       0.082617715 0.059554484 0.20090249 -0.15288834
000090 ae 8f 13 be 31 3f 65 bd 7c 79 34 bc ac 97 87 3c
       -0.14410278 -0.055968467 -0.011015292 0.016551815
0000a0 f6 0a 75 3d db 0a 45 3e a8 c0 dc 3d e7 15 8b be
       0.059824906 0.19242422 0.10778934 -0.27165148
0000b0 a1 1e f6 bc 1d 7b 7e 3e 68 fb 4e be 75 bc 40 be
       -0.030043902 0.24851651 -0.20213091 -0.1882189
0000c0 10 91 3b 3e fa 31 0c be 5b a2 2e 3e 73 eb 68 3e
       0.18317056 -0.1369094 0.17054121 0.22746067
0000d0 3b f1 85 3e 0f b1 0d be d0 49 da 3d 75 d8 3a bd
       0.26160607 -0.13837074 0.1065861 -0.045616586
0000e0 b2 0c 8e be f6 81 1d be 6e 94 28 3e f0 65 7d be
       -0.2774406 -0.15381607 0.16462871 -0.24745917
0000f0 94 ea f9 3d 56 26 17 be 47 15 2d bd 99 a8 63 3e
       0.12202945 -0.14760718 -0.04225662 0.22232284
000100 b4 66 0b bd e8 81 41 bd 38 9e 4b 3d 0b 32 8d be
       -0.034033492 -0.04724303 0.049711436 -0.27577242
000110 e7 fc fa bd 5b 0e cf 3b a2 ce 41 3e 97 b3 ee bc
       -0.122552685 0.00631885 0.1892648 -0.02913837
000120 4e 8d ea bb f2 a5 2e be 91 b7 c2 3d 93 f0 18 be
       -0.007157958 -0.1705549 0.09507669 -0.14935522
000130 f7 6f 55 3e d2 0a 94 bd 91 fe 5c 3c 69 c2 97 3e
       0.20843492 -0.07228626 0.013488428 0.2964051
000140 25 b5 10 3e 06 cf 26 be e1 da 6c be cf e3 ae 3d
       0.14131601 -0.1628991 -0.2313037 0.08539545
000150 39 02 42 bc 61 5f 10 3e 7a 6b 3d be ab 72 52 bc
       -0.01184135 0.14098884 -0.1849803 -0.012844722
000160 a9 72 a9 be c9 c8 97 3d 81 91 90 be 6a 9a e8 bd
       -0.3309529 0.074113436 -0.2823601 -0.11357577
000170 fc 95 b5 bd 74 59 d9 bd 06 d6 d9 3d 1f b3 71 3e
       -0.08866498 -0.10612765 0.10636525 0.23603486
000180 63 2c 3f bd 31 bc 8c 3e 4a 88 e2 3d db cd 88 be
       -0.04667319 0.2748733 0.11061151 -0.26719555
000190 b2 af 98 3e df bd 2a bd b2 d6 5f bd 50 b3 9c bd
       0.29821545 -0.04168498 -0.05464811 -0.07651389
0001a0 71 f6 b9 bd 5b 2c f3 bc 6e 40 51 be db 06 4f be
       -0.09080208 -0.029684236 -0.20434734 -0.20217459
0001b0 a4 aa 74 3d 32 38 27 bd 92 96 14 be 3d 53 69 be
       0.059733048 -0.040825076 -0.14510563 -0.22785659
0001c0 a5 c0 eb bd 61 46 d1 3b 79 c5 80 3e 33 7b 12 be
       -0.115113534 0.0063865636 0.2515066 -0.1430481
0001d0 6a 5c 11 3e 38 52 95 be 56 b4 02 3e d6 70 33 3e
       0.1419541 -0.2916429 0.12764105 0.17523512
0001e0 a6 19 85 3e 15 8a 68 3d b9 9b 41 be d9 15 a3 bd
       0.2599613 0.05677231 -0.1890706 -0.079631515
0001f0 3b cb ab bd c7 26 f2 bd f9 b9 0f 3e 66 96 0b be
       -0.083883725 -0.118238024 0.14035787 -0.13631591
000200 d9 cf 30 3e 5f 7d 4b bd 92 bb 56 bb 00 4f 19 3e
       0.17266788 -0.04968011 -0.003276561 0.14971542
000210 7d 0b e4 3d 39 71 7e be 14 8e 0d be 5b 0c 29 be
       0.11135004 -0.24847879 -0.1382373 -0.1650862
000220 81 fa 78 be c3 9a d6 3d bc fa 12 bd 7c f9 36 be
       -0.2431431 0.10478737 -0.03588365 -0.17868608
000230 b4 cc df 3c 83 f0 64 3d 8f a3 4b 3e 57 12 a6 3d
       0.02731929 0.055893432 0.19886611 0.08108967
000240 ac 6a 09 3e c4 19 97 3e 30 5a 4b 3c 52 6e 85 3d
       0.13419598 0.29511845 0.012411639 0.065151826
000250 9f 9f 98 be 54 93 02 3e b1 a9 61 bd f5 db 90 be
       -0.2980928 0.12751514 -0.05509347 -0.28292814
000260 0e b3 e7 bd 96 34 ac be c3 e5 05 be 99 fe 67 bd
       -0.11313449 -0.3363387 -0.13075928 -0.056639288
000270 31 ec 48 3e fb fb 98 be 13 32 95 3d 7d 40 23 be
       0.1962135 -0.29879746 0.072849415 -0.15942569
000280 9a 5e 4d be b7 b9 6e 3c 6e 4a 20 3e 9f 21 70 be
       -0.20055619 0.014570645 0.15653393 -0.23450325
000290 23 1f 25 be ac 30 5b 3e fe de d0 3c c6 58 22 3e
       -0.16125159 0.21405286 0.025496956 0.15854177
0002a0 68 2e 34 3e 84 ef 96 3d 91 e4 16 3e 02 20 fb 3d
       0.17595828 0.07369903 0.14735629 0.122619644
0002b0 16 d8 03 bd 08 38 8a 3b f4 c1 7a 3e 91 9c 83 3e
       -0.032188497 0.004218105 0.2448805 0.25705388
0002c0 8a 44 75 3d a3 7e 68 3d 9f 27 d3 3d ad 17 1e bd
       0.059879817 0.056761395 0.103102915 -0.038596798
0002d0 29 4a e5 bd 50 91 92 be 31 01 d6 bc 4e 47 a6 bd
       -0.111957856 -0.2862649 -0.026123615 -0.08119069
0002e0 45 c7 8f 3d 8c 43 19 bc 53 fa 80 3e ea 0f 0b 3c
       0.070204295 -0.009354483 0.25190982 0.008487681
0002f0 7a 26 01 3d d9 b3 5d 3e 1c dd b8 3d cb 6c dc 3d
       0.031530835 0.21650638 0.09026548 0.10762938

init_layer.0.bias f4 [64]
000000 a7 35 ef bd 57 fc 72 3d 4e cf 8f bd 7f d0 5f 3d
       -0.11680155 0.05932268 -0.07021962 0.054642197
000010 ee c9 9a bd 58 63 27 bd 0f 93 e5 3d 68 5b c7 3d
       -0.07558046 -0.040866226 0.1120969 0.09734231
000020 05 a5 d2 ba bc fe 66 3d 58 13 6e 3b a2 8e 22 bc
       -0.0016070908 0.056395277 0.0036327448 -0.009921702
000030 21 a8 8b bd 1b 2e c7 3d 82 ae e7 3c c3 bc c8 3d
       -0.068191774 0.09725591 0.028281454 0.098016284
000040 4f 4c 00 3e 71 02 67 3d 10 19 d7 bd 6e 3c 88 3d
       0.1252911 0.056398813 -0.10502827 0.06652151
000050 2d ca 92 3d 5a ba 2b 3d 5d 5b 59 3d f5 26 6b 3d
       0.07167468 0.041925766 0.053065646 0.0574102
000060 9f 20 e5 3c 57 58 c7 bd 11 39 10 bd 15 3c 55 bd
       0.027969657 -0.09733646 -0.035210673 -0.05205925
000070 b3 11 79 bd 51 0a a6 bd 02 55 95 bd f5 67 c3 bd
       -0.060807895 -0.081074364 -0.072916046 -0.095413126
000080 2e b9 6e 3c 91 57 39 bd 45 a5 4c bd 4d 10 c2 3d
       0.014570517 -0.045249525 -0.0499623 0.094757654
000090 fe 49 4e 3d 4b 62 a6 bd 06 50 91 3d 76 60 a8 bd
       0.050363533 -0.08124217 0.070953414 -0.082215235
0000a0 17 7e bb 3d 0c 79 82 bd 63 c3 09 3d 3d bf d4 bd
       0.09154909 -0.06370744 0.0336336 -0.10388038
0000b0 8c e0 b7 3d 1f 26 0d bb 5c 59 01 bd 28 87 64 bd
       0.08978376 -0.0021537615 -0.03157936 -0.055792958
0000c0 77 49 06 bd 91 02 cf 3c a4 e0 55 3d 33 1d 96 bd
       -0.032784905 0.025269778 0.052216187 -0.07329788
0000d0 65 d9 da bc 36 f9 82 bd 2e 56 93 3d f3 42 c3 3d
       -0.02671499 -0.063951895 0.07194172 0.09534254
0000e0 46 c4 a7 3d 42 b2 a4 3d f5 bd b4 3d 44 86 e7 3c
       0.08191733 0.080418125 0.08825294 0.028262265
0000f0 e6 4f 25 bc f9 33 47 bd d8 7d a4 3d ec 84 98 3d
       -0.01008985 -0.04863355 0.08031815 0.07447228

hiden_layers.0.weight f4 [64, 64]
000000 38 48 dd bd e7 f8 a8 bc 4c 7a 36 3e de 03 9c 3d
       -0.1080479 -0.020626498 0.1782009 0.07617925
000010 01 c2 58 be 40 e4 96 3c d5 54 50 3d 80 c3 44 be
       -0.21167757 0.018419385 0.050862152 -0.19215202
000020 c1 1d cd bc 39 24 2d bd 8b f1 0e 3d 68 cd 34 3e
       -0.025038602 -0.042270873 0.034898322 0.17656481
000030 97 69 a3 3d b0 94 01 3e 9c ea 58 3e 47 8b 54 be
       0.07979124 0.12654376 0.21183246 -0.20756255
000040 8c e7 77 bd dd bb 04 be 5a 75 a2 bc ef a1 23 be
       -0.060523555 -0.12962289 -0.019831348 -0.15979742
000050 dc 98 9f bd 7c d2 a2 3d ef d0 58 3c 49 c5 a6 be
       -0.077928275 0.07950303 0.013233407 -0.32572392
000060 9f 0f 25 3e 80 d3 ec 3c 06 60 03 be 62 d9 15 be
       0.1611924 0.028909445 -0.12829599 -0.14633706
000070 1b 82 cf bd f2 43 84 3d 09 60 2d be 39 37 b1 bc
       -0.101322375 0.06458272 -0.16931166 -0.021632778
000080 77 3a 06 be 1f c6 65 bd dc 2d 40 3e de f7 1d 3b
       -0.1310824 -0.056097146 0.18767494 0.002410404
000090 74 b2 b1 bc e7 ba 37 3d 56 c1 58 3e 0e 9b d3 3d
       -0.021691538 0.04485598 0.21167502 0.10332309
0000a0 70 68 2c 3d 42 fb 5f bd 71 c7 d6 3d 62 a3 8c bc
       0.042091787 -0.054682977 0.10487259 -0.01716775
0000b0 b4 40 4a bd b7 f6 e4 bc 29 3c 5b 3d fe de 6c be
       -0.049378112 -0.027949674 0.05352417 -0.2313194
0000c0 f8 18 3d 3e f1 6c a1 bd 57 02 01 be ac 86 a1 3d
       0.18466556 -0.07882107 -0.12598549 0.07887015
0000d0 a6 2a ee 3c 03 b5 6f 3a 53 ed 4d 3e e1 d5 33 3e
       0.02907307 0.00091440993 0.20110063 0.17562057
0000e0 ec 95 38 be 5e 2d 2c be cc 43 2e be 13 18 af 3d
       -0.1802594 -0.16814181 -0.1701805 0.08549514
0000f0 ed ed 86 3d b9 66 a3 bd ab 20 1c bd c7 c3 26 be
       0.065883495 -0.07978577 -0.038117092 -0.1628562
000100 83 97 3b bd df d3 4c be 18 1e 64 be 8f ed 29 3e
       -0.04579879 -0.20002697 -0.22277105 0.16594528
000110 83 9a 05 be 51 a6 c0 bd 75 34 28 3e 41 04 39 be
       -0.13047223 -0.09406722 0.16426261 -0.18068029
000120 35 5f b4 3c c4 87 3f be 6f 88 5b 3e 53 79 09 be
       0.022018055 -0.18704134 0.21438764 -0.13425188
000130 e6 f3 1b 3c cb 76 4b 3d e9 af 06 bc 93 93 10 3e
       0.009518599 0.049673837 -0.008220651 0.14118795
000140 27 0e 2c 3c 5e 15 41 3e 75 bb b2 ba 31 5a 9b bb
       0.010501421 0.18855807 -0.0013636189 -0.0047409763
000150 a2 7d d0 bd f2 6a 5e be ed 54 84 3d d1 86 22 3e
       -0.101802126 -0.21720484 0.06461511 0.15871741
000160 ad 3c 3c bd 3e b6 3d bd 6d de 7f 3e c6 8b 14 3e
       -0.045956302 -0.046316378 0.24987192 0.14506444
000170 fa 33 c9 3d 6e 6b c1 3d b7 86 16 be 53 1b f0 bd
       0.09824367 0.09444319 -0.14699827 -0.11723962
000180 a7 98 1c 3d 94 3c 1a 3d b6 92 f3 3d d5 a7 ee 3d
       0.038231518 0.037655428 0.11893217 0.11653105
000190 73 f9 1f 3e a6 2b f6 bc 80 9f ab bd be 71 2e 3e
       0.15622501 -0.03005011 -0.083800316 0.17035577
0001a0 bc 82 a2 bd bd ee 38 bd 47 c5 5b be b6 0f 1d 3d
       -0.07935092 -0.045149554 -0.21461974 0.03834506
0001b0 a3 27 89 3d 3c c3 51 be 22 2b 26 3e 21 45 27 be
       0.06697013 -0.20484632 0.16227391 -0.16334964
0001c0 fd fd 51 bd 4c 78 ee bd a5 d8 ce bd 24 28 d6 bd
       -0.051267613 -0.116440386 -0.100999154 -0.10456875
0001d0 e3 d6 d7 3d 8f df 24 be 54 96 e1 3d 48 56 e4 3d
       0.10539033 -0.16100906 0.11015001 0.11149269
0001e0 a8 60 45 be 94 6d dd bd ab 2e 2a be f4 58 40 be
       -0.19275153 -0.10811916 -0.16619365 -0.18783933
0001f0 f0 77 49 3e cf b2 66 3e 2b fd 22 3e 65 ed ca bd
       0.19674659 0.22529148 0.15916888 -0.09908561
000200 5e 2f 1c 3e be 0b b9 bd b2 ef 30 3e 85 24 79 bc
       0.15252444 -0.09035443 0.17278937 -0.015206461
000210 d4 1f 29 be c2 12 00 bd 78 c2 70 bd 09 0f 38 be
       -0.16516048 -0.03126789 -0.05877921 -0.17974485
000220 65 56 b5 bb 1d 0c b3 bd 5b 5b 1e bc cd cf 22 3e
       -0.0055339807 -0.08742545 -0.0096653355 0.15899582
000230 b4 53 30 3e d4 18 62 be 07 86 04 3e 32 3e 35 be
       0.1721943 -0.22079784 0.12941752 -0.17699507
000240 66 0d 3e be 1a 04 40 be ea fa a7 3d 44 ea 7f bd
       -0.18559799 -0.18751565 0.08202155 -0.062479272
000250 a3 6f d1 bd ab 9d 1c be 8d f1 51 be 59 39 02 3c
       -0.10226371 -0.1529452 -0.205023 0.007948243
000260 f1 32 92 bc ff dd a6 bc 95 5e 77 3c 6f 2b 48 3e
       -0.017846556 -0.020369528 0.015098234 0.19547819
000270 86 de 44 3b 2a c0 40 be 2a 76 72 3e fb cb 83 3e
       0.003003986 -0.18823305 0.23677889 0.25741562
000280 a3 2b 2e be 2a 5d 4d bd 40 07 45 3e ff eb 20 3e
       -0.17008834 -0.050137676 0.19241047 0.15715025
000290 ec b9 a3 bd 8a 9e e7 bd 91 ce 76 bd cf 9e a5 3d
       -0.07994446 -0.11309536 -0.06025559 0.08086931
0002a0 d6 0a 6f be f2 e6 29 bd f1 2f 37 3e 34 44 8b 3e
       -0.23343977 -0.041480012 0.17889382 0.27200472
0002b0 30 37 0e 3e e0 8f f8 3c e7 7f 4e bd 06 c3 91 3c
       0.1388824 0.030342042 -0.050414946 0.01779319
0002c0 1f 46 3e ba 75 6c f8 3c e4 45 07 be b6 b3 b1 bc
       -0.00072583737 0.030325154 -0.13210255 -0.021692138
0002d0 ef 04 83 bb 92 0d 95 bc fb 06 2b be 9b de 5a 3c
       -0.003998391 -0.018194947 -0.16701882 0.013358737
0002e0 7e 7d 67 be 61 2d eb bd c9 ef 45 be f8 54 07 be
       -0.22606465 -0.11483265 -0.19329752 -0.13216007
0002f0 81 81 1c 3e 55 c1 04 be 3e 46 20 be 03 f0 23 3e
       0.15283777 -0.12964375 -0.15651795 0.16009526
000300 65 fa 38 3e c9 1c 0c be 3f 70 74 3d 72 1c 38 bd
       0.18064268 -0.13682856 0.05967736 -0.044949003
000310 e6 88 0d 3e db 68 19 3e 34 10 2d bd 0d a7 39 be
       0.13821754 0.14981405 -0.04225178 -0.18130131
000320 c1 65 58 be f2 e0 13 be dd 02 50 3d 74 73 ca 3c
       -0.21132566 -0.14441279 0.05078398 0.024713255
000330 e8 10 f1 bc b6 64 fc bd cf 49 b6 3b 85 f3 1a be
       -0.029427007 -0.123238966 0.005562998 -0.15131958
000340 d5 c4 a4 bd 88 e7 06 3e f3 2f 2c 3e 1b 7e 07 be
       -0.08045355 0.1317426 0.16815166 -0.13231699
000350 07 85 16 3e 71 1f b8 bd 8b fd 33 be 8b 0b 05 be
       0.14699183 -0.08990372 -0.17577188 -0.12992685
000360 f9 e6 6b 3e dd 40 ac 3d 05 b2 4c bd 6c 46 8a bc
       0.23037328 0.08410809 -0.04997446 -0.016879283
000370 6d 93 0d be 2b 5e 1f be 54 2e 0a be c3 1d 23 3d
       -0.1382577 -0.15563266 -0.13494235 0.039823305
000380 cc 53 12 be af 4a 9c 3d b9 8f 11 be 60 5e 2b 3c
       -0.14289778 0.07631432 -0.14214982 0.0104595125
000390 41 e7 5a bd 68 eb ca bd b7 1f a0 3c 1c b8 03 bd
       -0.053443197 -0.099081814 0.019546373 -0.032158002
0003a0 f5 fa 51 be bb f2 3c bc 72 2d 8f 3d 18 eb 6e 3e
       -0.20505889 -0.011532481 0.0699109 0.23331869
0003b0 48 4b 81 3a 82 b7 8e 3d f1 20 e1 3d 8a 2b 99 3d
       0.0009864355 0.06968595 0.10992611 0.074790075
0003c0 a5 c3 b2 3d 11 4d de bd aa 96 45 3e 01 87 75 bd
       0.087287225 -0.10854543 0.19295755 -0.059943203
0003d0 77 f5 39 be 2e 5d 5b 3e e4 94 33 3e a8 50 7d 3d
       -0.18160044 0.21422264 0.17537266 0.061844498
0003e0 60 17 4c be 4c 74 b8 be 26 01 27 be ac b5 df 3d
       -0.19930792 -0.36026227 -0.16309032 0.10923323
0003f0 3c c7 8a bd f9 fb bc bd 9a e9 24 bd f8 2d af bd
       -0.06776282 -0.092277475 -0.040261842 -0.0855369

hiden_layers.0.bias f4 [64]
000000 f1 d0 6e bd 0b d9 f9 3c 89 8d 87 bd c8 e6 0c bd
       -0.05830473 0.030499002 -0.066187926 -0.034399778
000010 c6 93 62 bd c8 3a 98 bd 2d 33 38 3d f0 5a e6 3c
       -0.05531671 -0.07433087 0.04497068 0.028119534
000020 ec a3 ab 3d 2d 95 0f 3d 1a 7a 89 3d b5 5c ca bd
       0.08380875 0.035054374 0.06712742 -0.09880964
000030 b7 23 80 3d 07 5c b1 bd da 93 5b bb 4d 5b 6f 3d
       0.06256812 -0.08660131 -0.0033504874 0.05843668
000040 05 d2 ae bb 20 8b 49 bd f2 07 8f 3d 16 e5 ab bd
       -0.005335095 -0.049204946 0.06983937 -0.08393304
000050 6e f5 78 bd a7 56 8d 3c c4 cd 05 bd 39 e2 68 bd
       -0.060780935 0.017253233 -0.032666937 -0.056856368
000060 e6 39 41 3d 7b ff bb 3d 39 96 80 3c 29 85 7f bc
       0.047174357 0.091795884 0.015696632 -0.015595713
000070 66 71 98 3c 41 c6 50 bd be ea 73 3d 4a 22 9c 3d
       0.01860876 -0.05097032 0.05955004 0.076237276
000080 85 1a 9f 3d 15 7e 3b bd 3d 34 a4 bd b0 ba 91 3d
       0.0776873 -0.045774538 -0.08017776 0.07115686
000090 41 a2 99 bd 35 4f 42 bd a9 fe 81 3d cb a7 79 3b
       -0.075016506 -0.04743882 0.06347401 0.0038094397
0000a0 34 cd 2d 3d 14 46 6a bd 02 26 94 3d 4f da 9a bd
       0.042432025 -0.057195738 0.07233812 -0.0756117
0000b0 19 1c 7c 3c 0f e1 ff 3c b5 3f aa bc 52 44 8b 3d
       0.015387558 0.031235246 -0.020782331 0.068001404
0000c0 76 a6 98 bd 59 37 98 3a ea 90 a8 bc c5 68 01 3d
       -0.07453625 0.0011613175 -0.020576913 0.031594057
0000d0 ad 14 72 bd 4f 48 65 3d 2d 88 c3 bc f5 84 1a 3d
       -0.05910175 0.055977162 -0.023868645 0.037724454
0000e0 9c 84 87 bd d1 93 d5 bd 0b f1 bc bb 1d e7 92 bd
       -0.0661709 -0.10428584 -0.0057660392 -0.071729876
0000f0 f5 55 69 bd 52 50 62 bd e1 15 b7 bd a4 85 40 3d
       -0.05696674 -0.05525238 -0.0893972 0.04700245

hiden_layers.1.weight f4 [64, 64]
000000 34 ba 90 bc 0a 21 b6 3d d2 e1 a2 bd 3e c7 f8 3c
       -0.017666914 0.088930205 -0.07953228 0.030368444
000010 6c bf 47 be 05 64 5c 3e 9c 62 1b be 1e 66 b5 bd
       -0.19506615 0.2152253 -0.15174335 -0.08857368
000020 a1 02 1a bd 1f 55 3a 3c 3c f5 df bc 89 e5 8a bd
       -0.037600163 0.0113728335 -0.027338617 -0.067820616
000030 c9 13 50 3d 7b c7 ba 3d db 4a 78 3d b3 a2 13 bd
       0.05080012 0.09120079 0.060618263 -0.036043834
000040 4f 67 a8 3d 6c a6 50 3e 8b fd be bb f9 3f 17 3e
       0.082228296 0.20375985 -0.0058285645 0.14770497
000050 ff a9 68 3e 9f 7b 0e be 0c 2f c2 3c 64 6a 00 be
       0.22721098 -0.13914345 0.023704074 -0.12540585
000060 46 64 9e bd 7a 60 49 be 61 39 67 bd d4 86 33 3e
       -0.077339694 -0.19665709 -0.056451205 0.17531902
000070 0c aa ef 3c 68 05 05 bc 6e 8b b7 bd c5 76 9a 3d
       0.02925589 -0.008118965 -0.08962141 0.07542185
000080 5b 5f 5d be d3 3f 70 3e 0d 0c 06 be 8f 66 76 be
       -0.21618406 0.23461847 -0.13090535 -0.2406256
000090 4c 70 56 3c 81 c7 ed 3c c6 63 02 be f1 04 1d 3e
       0.013088297 0.029025795 -0.12733373 0.15333916
0000a0 3c 10 c1 3d da 1e 95 3d 2c d1 11 be 97 c9 53 3e
       0.094269246 0.07281275 -0.14239949 0.20682369
0000b0 c0 f5 41 3e 41 7e bf 3d 1b bc 02 3e 8f 45 50 be
       0.18941402 0.09350253 0.12767069 -0.20339034
0000c0 78 1e 7d 3b 0b cf c8 bd 79 2e 8e bd 34 70 c2 3d
       0.0038622897 -0.09805115 -0.06942458 0.09494057
0000d0 ec 21 86 bd cb 46 c0 bd fb e9 15 bd 01 03 45 be
       -0.06549439 -0.09388503 -0.036600094 -0.19239427
0000e0 46 36 68 3e 2d 3c cc 3c 35 40 64 be 79 87 f9 3d
       0.22676954 0.024931038 -0.22290118 0.121840425
0000f0 a0 61 69 3d 96 4e 9e 3d 00 ae c9 3d 5c 92 23 be
       0.056977868 0.07729833 0.09847641 -0.159738
000100 37 19 b4 3d 45 2b 37 bc 36 ac 50 be d4 dc 02 3e
       0.08793872 -0.01117975 -0.20378193 0.12779552
000110 30 48 15 be cd dd 6d bd 64 b9 1a be 2f e8 c5 ba
       -0.14578319 -0.058072854 -0.15109783 -0.0015099103
000120 0c 82 ae 3d 76 20 15 be 61 b8 43 3e ce dd 06 3e
       0.08520898 -0.14563164 0.19113304 0.1317055
000130 85 e3 83 3d d4 15 dd bc 12 6c 9e 3c 43 6f df 3d
       0.0643988 -0.026987948 0.019338641 0.10909893
000140 21 18 fc 3d fa ad f4 bd 49 d5 34 3e 49 6c 55 3d
       0.1230929 -0.11947246 0.17659487 0.052105222
000150 86 6c 9b 3d 36 02 2d 3e bb 7b 5e be 8c cd a1 3b
       0.075890586 0.16895375 -0.21726887 0.004937833
000160 4c 64 05 3d f4 b4 29 3e a9 b9 64 3d 7c cf a0 bd
       0.032566354 0.16572934 0.05584112 -0.078520745
000170 55 68 1a ba fd d6 f8 3a 82 bc bf bd 41 84 6a 3e
       -0.00058901805 0.001898497 -0.09362127 0.22902013
000180 68 6d 46 3e 21 b4 13 3e b7 95 ae be 99 7d f6 bd
       0.19377673 0.14424182 -0.34098598 -0.120356746
000190 00 6c 4f be 04 ac ce ba 8f bb c1 bd 55 62 4d be
       -0.20256042 -0.0015767817 -0.09459602 -0.20057042
0001a0 fb df 76 be b7 4b 51 be cc ca 23 3d b9 37 28 be
       -0.2410888 -0.20439039 0.039988324 -0.16427507
0001b0 20 86 d7 3d 56 21 96 3d 37 2a 48 bc f7 ab 65 be
       0.10523629 0.07330577 -0.012217096 -0.2242888
0001c0 ed e9 69 3e ae 8e fe 3d fd 1a 34 be 04 f3 8d bd
       0.22843142 0.12429558 -0.1758842 -0.06931117
0001d0 78 2b 93 3d 6c 6c 35 bc 73 f3 0a 3e 2e 38 98 bd
       0.071860254 -0.011073213 0.13569431 -0.074325904
0001e0 02 ac 30 bd 35 bd 91 3c c4 c2 0e bd 8f 49 f3 3d
       -0.04313279 0.017790416 -0.03485371 0.118792646
0001f0 05 fb 66 3d 19 26 31 bc 4a e9 14 3c be f1 d3 3e
       0.056391735 -0.010812306 0.009088824 0.41395372
000200 da 1b b9 3d 49 93 24 3e 83 a9 17 bd 44 0a b3 3d
       0.090385154 0.1607181 -0.037026893 0.087421924
000210 59 81 a6 3d b8 15 2a 3e b4 14 bd bd 88 1c 78 3e
       0.0813014 0.16609848 -0.092324644 0.24229634
000220 d9 57 4e 3e ca ca 82 bd 71 60 27 be 22 ee 56 bd
       0.20150699 -0.06386335 -0.16345383 -0.052473195
000230 6c 9c 21 3d b0 18 e2 bc 59 42 22 3e 4c 22 a7 3d
       0.039455816 -0.027599663 0.15845622 0.081608385
000240 ae 17 b7 bd 6a fc fa bd 84 dd df 3d ed 1b 87 3d
       -0.089400634 -0.122551754 0.109309226 0.06597123
000250 a0 cd 13 3d 4a 3c 6a be 27 a4 40 be 4a 0e 47 be
       0.03608477 -0.22874561 -0.18812619 -0.19439045
000260 94 e1 be bb da f2 d3 3d c7 93 ec bd d2 68 9b bd
       -0.005825231 0.10349055 -0.11551624 -0.07588352
000270 4d 44 ea 3d 81 b6 60 3d 9a 2f 50 3e 67 ae 92 3e
       0.114388086 0.05486155 0.20330659 0.28648683
000280 ec f8 04 3e 9b d0 23 be 05 8a 3e be 5a 9a e2 bd
       0.12985581 -0.15997545 -0.18607338 -0.110645965
000290 be 30 af bd 0f a5 51 be b6 f8 85 3d ec 02 fb bd
       -0.08554219 -0.20473121 0.065415785 -0.12256417
0002a0 3a 2c 0b be 0e a6 1e be 6e eb 34 be e5 36 04 be
       -0.1359109 -0.15493032 -0.17667934 -0.12911566
0002b0 d9 66 92 3d 1f 58 17 3d 77 b5 8e bd 6a 8c 86 3d
       0.07148523 0.036949273 -0.069682054 0.065697506
0002c0 da 5d 87 bc b1 11 d8 3b 9f 66 4b 3d ec 39 6b be
       -0.016524244 0.006593906 0.049658414 -0.22971314
0002d0 0c 73 cd 3b 91 26 2f be ad 39 03 3e 85 25 ef bb
       0.006269818 -0.17104556 0.1281497 -0.007298174
0002e0 c4 32 0d be 49 57 99 3d 02 d8 12 3c 02 94 02 3d
       -0.13788897 0.074873514 0.008962633 0.031879432
0002f0 a5 f7 4e bc 0c 2a b2 3d 42 ce e4 bc cc 00 10 3e
       -0.012632285 0.08699426 -0.027930383 0.14062804
000300 44 44 44 3e 1e 94 05 bd 29 53 e0 bd 1c 70 13 3e
       0.19166666 -0.03261196 -0.109533615 0.14398235
000310 86 6e 80 3e 7d 14 54 be 22 e4 de bd d0 5e 0b be
       0.25084323 -0.2071094 -0.10883357 -0.13610387
000320 2f 65 b0 3c df 16 80 3c f7 69 f6 bd 58 c9 ad 3e
       0.021532623 0.015635906 -0.1203193 0.33942676
000330 8f 9a 63 3e f5 aa 68 3e d7 39 3f bd 11 c9 ea 3d
       0.22226928 0.22721465 -0.04668602 0.114641316
000340 92 34 b4 bc cb a4 27 be af 54 8c bc f0 0b b8 3d
       -0.021997724 -0.16371457 -0.017130224 0.08986652
000350 f8 6e 55 3c d9 f2 5c be 19 a6 c7 3d 05 19 16 3e
       0.013026945 -0.21577014 0.097484775 0.14657982
000360 5f 02 d9 3d 16 99 86 3d ea 61 d4 bd 8d a4 13 3d
       0.105961554 0.065721676 -0.10370238 0.0360456
000370 be 36 f8 3c de ee 7a 3e fd db 27 3e ec 28 21 3e
       0.03029954 0.24505183 0.16392513 0.15738267
000380 fc af 3b 3e 53 9b e3 3a 71 fc 96 bd 4c ad c8 3b
       0.18328851 0.0017365016 -0.07372368 0.006124174
000390 c9 e6 50 3e 54 c2 3c bd a9 d4 29 3e cb f4 44 3e
       0.20400538 -0.046083763 0.1658503 0.19234006
0003a0 3b 1f b9 3d a4 78 20 bd 78 72 68 3e a4 2b 14 3e
       0.0903916 -0.039177552 0.22699916 0.14469773
0003b0 46 5f 20 be 1c 09 b6 bd f3 45 64 be 36 de d5 bd
       -0.15661344 -0.08888456 -0.22292309 -0.10442774
0003c0 99 e0 07 bd bf e6 00 3e 9a b3 23 bd 5a dc 4a 3d
       -0.033173177 0.12588023 -0.039966203 0.04952655
0003d0 78 18 46 3e 58 4f 5b bd a3 5a 87 be cc 84 88 bd
       0.19345272 -0.053542465 -0.26436338 -0.06665954
0003e0 4c 30 14 be db ad c3 bc 0a 08 de 3d d6 79 8d 3d
       -0.14471549 -0.023886612 0.10841377 0.06908004
0003f0 4b b9 2c be 20 86 64 3e ef d2 45 3e cf e8 5e be
       -0.16867559 0.2231679 0.19318746 -0.21768497

hiden_layers.1.bias f4 [64]
000000 d8 51 97 bc e6 11 70 3d 7f 41 79 3d a1 42 9c bd
       -0.018471643 0.05861082 0.060853478 -0.07629896
000010 25 f9 0c bc fe b8 9f bc dc 82 16 bd 1a b1 aa bd
       -0.008604323 -0.01949739 -0.03674589 -0.08334561
000020 ac 2c a5 bd 7c 6b 30 bd f8 af 3e 3d 7f 66 0a bd
       -0.08065161 -0.043071255 0.046554536 -0.033789154
000030 9c 44 d4 3b 80 09 0b bd 6a 3c 8d bd 85 b4 65 bb
       0.0064779054 -0.033944607 -0.06896289 -0.0035050225
000040 a7 3a 02 3c 64 07 fd bb fa 52 6e bd 96 ee 0c bc
       0.007948554 -0.0077218283 -0.0581846 -0.008601805
000050 13 ea 2f 3d e7 35 48 3d 5c 31 f6 3c 58 6e 7d 3d
       0.04294784 0.04887953 0.030052833 0.06187281
000060 fa da 91 bd 40 72 28 bd 81 ea 85 3d 7d 0f 84 3d
       -0.071218446 -0.041124582 0.06538869 0.06448267
000070 f3 a2 0b bd 44 89 a8 3c f4 f9 35 3d 72 20 8f bd
       -0.034090947 0.020573266 0.044427827 -0.0698861
000080 9a a3 41 bd f2 86 34 bd d0 7b 5b 3d 63 42 5f 3d
       -0.047275163 -0.044074006 0.053584874 0.05450667
000090 1c c6 93 3d 7a 88 99 bd a6 fb 55 3d b6 1d 1d bd
       0.07215521 -0.07496734 0.052241944 -0.038358413
0000a0 59 31 d5 3c c8 3e 67 3d cd 33 a3 bd 80 ec 7f bd
       0.026024507 0.056456357 -0.079688646 -0.062481403
0000b0 08 b5 63 bd f7 63 9a bd 9a 47 81 bd ba 27 25 3d
       -0.055592567 -0.07538598 -0.06312485 0.04032109
0000c0 3a 88 82 3d c2 1c 8a bd 90 1e db bc aa f8 81 3d
       0.063736394 -0.06743766 -0.026747972 0.06346257
0000d0 eb fb 05 bc 71 a5 1f 3c 7f 01 5f bd 99 58 65 3d
       -0.008177738 0.009744034 -0.054444786 0.055992696
0000e0 0e db 1e bd b0 f7 65 3d fb 30 67 3c 62 88 73 3d
       -0.038783126 0.056144416 0.014110799 0.059456237
0000f0 fb 3d 8f 3d 54 0a 61 bc 24 e2 29 bc 22 aa 0e 3d
       0.06994244 -0.013735373 -0.0103688575 0.03483022

hiden_layers.2.weight f4 [64, 64]
000000 f2 6f 38 be e8 38 d5 3e 6e 82 6b 3e 1a 55 8b bd
       -0.18011454 0.4164498 0.22998974 -0.06803341
000010 c1 46 8e bd e1 e6 22 be 6f 48 39 be d6 48 e2 be
       -0.06947089 -0.15908386 -0.18094037 -0.44196194
000020 89 e6 0f bf 3c 30 6f be 8e 24 d4 3d b3 7b 04 bc
       -0.56211144 -0.23358244 0.10358535 -0.008086133
000030 00 8e b4 bd 40 94 07 3e c1 a8 93 bd 91 c9 98 3e
       -0.08816147 0.13240147 -0.07209922 0.29841283
000040 97 81 56 3e 4e 44 63 bc c5 a2 ed bc 54 f7 04 be
       0.20947872 -0.013871266 -0.029008279 -0.12984973
000050 7f fb 50 3e bd 20 5e 3e 32 a8 d3 bd 08 d1 23 3e
       0.20408438 0.21692176 -0.10334815 0.15997708
000060 2c 21 89 3c 77 ba 39 be 4a 86 7c be 5b d2 23 bd
       0.01673945 -0.18137537 -0.24660602 -0.039995532
000070 c3 80 e3 3c 97 ce 7a bd 21 be 7f 3e cb 7a ca bc
       0.02777136 -0.061232176 0.24974872 -0.024716755
000080 bb f2 5b be 64 35 9e bd 07 a8 2f be ed 19 2e bd
       -0.21479313 -0.07725027 -0.17153941 -0.042505194
000090 81 5b 7c 3e d8 17 2e bc bb 64 08 3d 74 2e 7a 3b
       0.24644281 -0.010625802 0.03329919 0.003817466
0000a0 2a 85 1b be 37 6c 92 3d 49 36 f6 bd 45 e6 4e bd
       -0.15187517 0.071495466 -0.12022073 -0.05051257
0000b0 3f f4 d6 3d ec dc 23 be a1 f3 27 3d f6 12 f3 3d
       0.10495805 -0.16002244 0.041003827 0.11868851
0000c0 24 b2 77 3d a4 07 57 be ba 0b 01 be af 00 83 be
       0.060472623 -0.20999008 -0.1260213 -0.2558646
0000d0 45 8f 10 bd f7 97 3e 3e c9 2e c6 3d 86 bb 48 3e
       -0.035292882 0.18612657 0.09676892 0.19602785
0000e0 83 3a 2c be 25 b7 10 3e 5e 79 7e 3e 20 88 2c bd
       -0.16819195 0.14132364 0.24850985 -0.042122006
0000f0 f7 9d 08 bd 9e 3c 11 3b 84 71 e3 3d 41 4b 63 3e
       -0.033353772 0.0022161375 0.11105636 0.22196676
000100 71 ab a2 3d f1 7d 75 bc 06 fd eb 3d d7 f8 2d 3e
       0.07942856 -0.01498364 0.1152287 0.16989456
000110 52 13 38 3e 01 d2 16 3e 9b 1c 22 3e ba 73 81 3e
       0.1797612 0.14728548 0.15831225 0.25283605
000120 b9 3c d9 3d ba a6 20 3e 89 bb 52 3e 1c 98 b8 3d
       0.10607285 0.15688601 0.20579351 0.090133876
000130 da ff ba bd 14 25 d3 bd ab 1a a0 bd ae 8a 15 3e
       -0.09130831 -0.103098065 -0.078175865 0.14603683
000140 eb 90 d6 bd 2b 63 06 3d a8 d1 5d be 91 1d 1c be
       -0.1047686 0.032809418 -0.21662009 -0.15245654
000150 8b 04 a5 3d e3 d8 dc bd b1 d9 a8 3b 20 f3 a4 bd
       0.08057507 -0.10783555 0.005152904 -0.08054185
000160 19 6a 1f bd 41 c5 a5 3d 43 88 69 3e d8 0a c1 3d
       -0.038919542 0.08094264 0.22805886 0.094258964
000170 7a 9f 01 be 61 b3 66 3d bc 3a 12 bd 51 33 8a bd
       -0.12658492 0.056323413 -0.035700545 -0.06748069
000180 c6 ea 90 3c e5 aa 78 3e 5b 46 d2 bd 18 ac 21 3e
       0.017690074 0.24283941 -0.102673255 0.15788305
000190 bb ce 25 3e 90 a4 39 3d 3a b0 ff 3c 86 37 84 be
       0.16192143 0.045322955 0.031211961 -0.2582361
0001a0 be 17 fc bd 4e 2e 08 be 37 4f 18 bb fa a9 b5 3c
       -0.12309216 -0.13298914 -0.0023240575 0.022175778
0001b0 73 d0 57 3d ce 89 1a be 2a 33 92 bd d0 4b 6c 3e
       0.052689027 -0.15091631 -0.07138665 0.23075795
0001c0 5f 98 30 be 85 34 68 3e bd eb 4c bd 53 99 c4 bd
       -0.17245625 0.22676285 -0.050029505 -0.09599557
0001d0 69 a5 de bd f0 89 1f 3e 34 c6 de bd f3 8a 45 be
       -0.10871393 0.15579963 -0.10877648 -0.19291286
0001e0 ba 98 4f 3e f2 e3 ea 3a e4 5c c3 bd 26 dd 85 3e
       0.20273104 0.0017920716 -0.09539202 0.26145285
0001f0 bc ec 43 3d 0d a4 71 3e 2a 41 ee 3d c9 2d 66 be
       0.04783319 0.23597737 0.11633523 -0.22478403
000200 c2 ef 5c 3e 93 80 38 be 11 47 0e be 8e 2c 2f be
       0.21575835 -0.18017797 -0.13894297 -0.1710684
000210 4f cf 1f 3e 26 c3 92 3d 7c 8a 24 3e ce 8d c2 3c
       0.15606426 0.07166128 0.16068453 0.023749258
000220 4f db 06 be c3 84 66 3e 8c 09 a4 3c e1 8e 40 3e
       -0.13169597 0.22511582 0.020024084 0.18804504
000230 bd a5 70 3c c4 8a 2d 3e 05 7e 4b be 6d d4 1d 3e
       0.014687953 0.16947466 -0.19872291 0.15413065
000240 bb 94 b7 3d b4 3b 3d be 8a 1e af 3d bc 58 5b be
       0.08963915 -0.18479806 0.08550747 -0.21420568
000250 15 8e 34 be 23 07 a9 3d 54 af 65 3e c1 36 31 be
       -0.17632325 0.08253314 0.22430164 -0.17306043
000260 58 d1 da bd 0a 00 14 be 41 68 9f bd 73 11 ce bd
       -0.106844604 -0.1445314 -0.07783557 -0.10061922
000270 30 df fd 3d fe 38 52 3d 1d f0 03 3e 5e 39 65 3e
       0.12396085 0.051323883 0.12884565 0.22385165
000280 8e a0 f0 bd a7 91 0f be d9 c8 73 3b d6 9a 19 3e
       -0.117493734 -0.14020406 0.0037198572 0.15000471
000290 fa 99 3a 3e 09 05 47 bc 99 66 35 be 5c fe 50 3e
       0.182228 -0.012147197 -0.17714919 0.2040953
0002a0 64 35 3a 3e 3c 73 1c 3c 27 c1 ef bd d7 02 d5 bd
       0.1818443 0.009548958 -0.11706763 -0.10400932
0002b0 92 09 e2 3d ea 0c 63 3c 5b 64 be bd 1e 3c 1d 3d
       0.11036982 0.013858059 -0.09296485 0.03838741
0002c0 d5 87 71 3e 84 21 83 3d 6e 7e 0c be ec ac 61 3e
       0.23586972 0.06402877 -0.13720104 0.2203862
0002d0 ae 86 3a be a8 76 3d 3e 05 3a c8 3d 35 d8 ce bd
       -0.18215439 0.18502295 0.09776691 -0.10099832
0002e0 52 7e 4e be 59 92 2e 3e 88 77 67 be e1 68 43 be
       -0.20165375 0.17048015 -0.22604191 -0.19082977
0002f0 ea 6b e1 3d 7c 7d 0d 3d 88 fd fa 3d 52 93 14 3e
       0.11006911 0.0345435 0.122553885 0.14509323
000300 c2 77 b7 bc 94 ac 1e be 9b 03 a8 bc a5 d0 5f 3e
       -0.022395972 -0.15495521 -0.020509532 0.21856935
000310 b2 fa 28 be 75 6b 2e be 9e f5 83 3b 06 ad 7c be
       -0.16501883 -0.17033179 0.0040270826 -0.24675378
000320 29 70 2c 3d fb 21 fb 3d 32 46 fc 3d 11 9a 43 be
       0.04209915 0.12262341 0.12318076 -0.1910174
000330 5d 49 f9 3d b0 83 db 3d 2d 4b d7 bd fb 65 8c 3d
       0.12172196 0.10718477 -0.105123855 0.06855389
000340 81 a6 d4 3d 13 95 51 be 74 80 54 be 8f d7 12 bd
       0.103833206 -0.20467024 -0.20752126 -0.035850104
000350 2e 3f 21 be d7 99 de bb 94 59 1b 3e 19 0b 63 bd
       -0.15746757 -0.0067932415 0.1517089 -0.055430505
000360 d4 1e b8 bd cc d5 2b bd d4 dd 32 3e 14 b3 b8 3d
       -0.08990255 -0.04195194 0.17467433 0.090185314
000370 fd bf aa bc af 24 60 3e 19 5f 26 3e 9d 51 7d be
       -0.0208435 0.21888994 0.16247214 -0.24738164
000380 93 81 77 be 23 d0 04 be d9 a3 70 3e 08 25 48 3e
       -0.24170522 -0.12970023 0.23500003 0.19545376
000390 92 de 6a 3d 44 93 9b 3d c2 04 a0 3a e4 9b 59 be
       0.057341166 0.07596448 0.0012208449 -0.21250874
0003a0 f0 ea 57 3e 76 e8 5e be 64 ec 8e bd 09 a2 4d bd
       0.21085715 -0.21768364 -0.06978682 -0.050203357
0003b0 c1 7f 45 3c 89 93 09 be 68 19 6e bd 70 6e 48 ba
       0.012054385 -0.13435186 -0.058129698 -0.0007645851
0003c0 2a ca b4 bd 02 52 20 3d cc 7c 49 3e 92 56 12 be
       -0.08827622 0.03914071 0.19676512 -0.14290836
0003d0 aa 7a b0 bd 8c 8e e0 bd 8f 56 ef 3d 12 ea 3a bd
       -0.08617146 -0.10964689 0.116864316 -0.045633383
0003e0 67 24 a8 3d 51 9c 16 bd d4 77 9f bd 38 93 53 3e
       0.08210068 -0.03677017 -0.07786527 0.20661628
0003f0 f0 fa 49 3e 16 3c 10 be 0f 07 54 3e 54 4a 40 bb
       0.19724631 -0.14085421 0.20705818 -0.0029341178

hiden_layers.2.bias f4 [64]
000000 5b 59 8f 3d fd d5 13 bd c1 df 68 3c e4 96 2b 3d
       0.06999465 -0.036092747 0.014213503 0.041891947
000010 01 c8 78 bd 8b 94 90 3d 70 7f b2 bc bf 14 c2 bc
       -0.060737614 0.07059582 -0.021789283 -0.023691533
000020 c4 48 fb bc c1 d4 5f bd bc 95 03 3d 6b 83 cc 3c
       -0.030674346 -0.054646257 0.03212522 0.024965009
000030 3e 91 1f 3d 14 1a 7c 3d 1e f4 23 3c 58 43 80 3d
       0.038956873 0.061548308 0.010006933 0.06262845
000040 bb 3a 11 39 30 ae ef bc 70 f6 80 bd 10 d8 57 3d
       0.00013850156 -0.029257864 -0.06297004 0.052696288
000050 17 8e 89 bd 04 3d 14 3b 7f 54 e4 3c 6e c4 c1 bc
       -0.067165546 0.0022619376 0.027872322 -0.023653235
000060 c1 fb c7 bc 89 2d f5 bc 86 e3 fa bc 4a f9 36 3d
       -0.024412038 -0.02992894 -0.03062607 0.044671334
000070 49 b8 9a bd 69 e0 57 3b 6b df 35 bb 92 79 5e bd
       -0.07554681 0.0032940155 -0.0027751576 -0.054315157
000080 fc e8 78 bd b6 6e 5a bd e7 b8 af 3b 69 56 f3 bc
       -0.060769066 -0.05332824 0.0053626182 -0.02970429
000090 73 af 55 3d 47 01 b4 3c a5 45 08 bc b7 ae 4b 3d
       0.052169275 0.021973265 -0.008317386 0.049727168
0000a0 5c 2b 04 3d 4a 12 3d 3d 4f 5b 83 3d c4 e3 3b 3d
       0.032267913 0.04616002 0.064139 0.04587151
0000b0 31 2b 47 3d 8c 64 34 bd 31 58 0f bd 01 0e 3a bd
       0.048625175 -0.0440412 -0.034996215 -0.04542351
0000c0 75 f0 e9 3c 4c 89 ed 3b 16 9d 4b 3d 09 56 1f 3d
       0.028557042 0.007249033 0.049710356 0.03890041
0000d0 79 2f f9 bc 2d 50 68 bc a7 e6 36 bd 7b 79 87 bd
       -0.030418145 -0.014179272 -0.04465356 -0.066149674
0000e0 c2 4f 76 bd 66 30 62 bc 2c 5d 02 3d b9 35 11 3c
       -0.060134657 -0.013805484 0.031827137 0.008862906
0000f0 48 82 4c 3d 1e 6f 04 3d fa 8c 29 bd a4 c2 18 bd
       0.049928933 0.032332532 -0.04139421 -0.037295

hiden_layers.3.weight f4 [64, 64]
000000 4a 73 2a be 20 06 6e 3e ba e6 4c 3e 8f 81 07 bc
       -0.16645542 0.23244524 0.2000989 -0.008270635
000010 5c 58 05 3d dc 45 b4 3d 77 f5 bb bd 9b 1e 60 be
       0.03255497 0.08802387 -0.09177678 -0.21886675
000020 e4 80 fc bb d7 dd c2 3d 65 ac 57 3e 50 11 31 3c
       -0.0077057946 0.09514969 0.21061857 0.01080735
000030 9c dc 5d 3e 76 8b 46 be 86 67 59 3e da 9f b8 bd
       0.21666187 -0.19389138 0.21230897 -0.09014864
000040 dc 6b 4b be 7c d1 c8 bd e2 b2 0a 3d db 1a 0d be
       -0.19865364 -0.09805581 0.033862002 -0.13779776
000050 fa 8e 97 3e fa 78 91 be bb d3 3d 3e ca 9a 50 3e
       0.2960127 -0.2841261 0.185378 0.20371547
000060 d3 52 fc 3d 28 1b e4 3d d7 f8 a5 bc 91 f7 aa bd
       0.12320485 0.11137992 -0.020260258 -0.08348001
000070 8e 66 58 3e 17 52 3a 3e d5 9d 10 bd 10 42 18 3e
       0.21132872 0.18195377 -0.03530677 0.14868951
000080 81 99 9e 3d 28 c3 bf 3d b3 54 1e be 1e ed 35 3e
       0.07744122 0.09363395 -0.15461998 0.17766234
000090 8f 26 1a 3d 53 7a 5a 3d f3 2a 1d 3d 8e f5 b6 bd
       0.03763443 0.053339314 0.038371038 -0.089335546
0000a0 c7 f4 c8 3c 79 8d 0c 3e df 9b 6d be 17 a6 fb bd
       0.024530781 0.13725843 -0.23203991 -0.122875385
0000b0 2c 87 e9 3d bc 61 6f 3e 41 bc 72 3c f1 f4 aa bd
       0.11402735 0.23377126 0.014815391 -0.083475
0000c0 4f 3c 41 3e 25 a1 5e be ac c6 07 be a4 18 14 be
       0.18870662 -0.2174116 -0.13259381 -0.14462525
0000d0 58 71 1a 3e a8 cc 41 3e 25 77 d8 3d e4 67 12 be
       0.150823 0.18925726 0.105696 -0.14297444
0000e0 ca 62 b8 3d 4d a7 3c 3d 4e eb 4d be d8 9f 7b 3d
       0.090032175 0.046057988 -0.20109293 0.061431736
0000f0 1f 83 02 3d 7d ab 34 3e dc e9 dc bd 20 b0 7e 3e
       0.031863328 0.17643543 -0.10786793 0.24871874
000100 3b e7 20 be db 70 c0 bc 80 da b2 bb 0e a8 aa 3d
       -0.15713207 -0.023491314 -0.005458176 0.08332835
000110 33 77 e9 bc 33 26 f5 3d 08 05 6d be d1 cf a9 3d
       -0.028499221 0.119701765 -0.2314645 0.08291591
000120 59 a2 1f be 66 50 2c be bd f8 5c 3e a0 4e f9 3d
       -0.15589274 -0.16827545 0.21579261 0.121732
000130 e0 f2 41 3e 46 34 c8 bc 38 f4 a7 bd 90 2f 2a 3e
       0.18940306 -0.024438988 -0.08200878 0.16619706
000140 85 8e 08 3e cb a0 9c bc f0 30 57 3e da c5 2a 3e
       0.13335617 -0.01911964 0.21014762 0.16677037
000150 66 a8 3d 3e e5 4f fa bd 05 37 9b bd 6d c7 34 3e
       0.1852127 -0.1222227 -0.075788535 0.176542
000160 f4 84 95 bd ca 0d c7 3d 75 fd 52 3e 43 b1 81 be
       -0.073007494 0.09719427 0.20604499 -0.25330552
000170 f0 93 25 3e 81 4c a8 bd a3 7c 65 be 6e 81 08 3e
       0.16169715 -0.08217717 -0.22410826 0.13330624
000180 34 a1 18 3e 6e c7 f9 bd 1f ef 08 3e 4e 5a f4 3d
       0.14905244 -0.12196241 0.13372467 0.11931287
000190 6e d6 e3 bd 15 a3 2c be fc 81 23 be 17 66 df 3d
       -0.111248836 -0.16859086 -0.15967554 0.10908144
0001a0 ff 00 b6 3d 81 12 a8 3c ca d6 06 bb ea 94 73 3e
       0.08886909 0.020516636 -0.0020574802 0.23787275
0001b0 20 f6 0f 3d 92 03 5a 3d 41 32 ce 3d 79 18 33 3d
       0.035146832 0.05322606 0.10068179 0.04372451
0001c0 1d ba 20 3e d8 bb 10 be 26 25 32 be 93 6c 0e 3e
       0.15695997 -0.14134157 -0.17396984 0.13908605
0001d0 85 48 59 3e 17 36 e2 3c 61 45 5f bd 79 a8 39 3e
       0.2121907 0.027613683 -0.054509524 0.18130673
0001e0 24 73 52 3e 82 c6 13 be cc 88 0b 3e 95 cb 09 3d
       0.20551735 -0.14431193 0.13626403 0.033641417
0001f0 5a e6 c6 3d 90 9a 8e 3d ec 69 f7 3b 20 1f 0f 3e
       0.09711905 0.06963074 0.0075504687 0.13976717
000200 bf 93 a4 3d bc 72 d9 3d c3 f0 19 be 9e 51 32 bd
       0.08035993 0.10617587 -0.1503325 -0.043534867
000210 e3 c2 95 be 76 9e 13 3e 9a 4d 44 3e 34 33 67 be
       -0.2925025 0.14415917 0.19170228 -0.22578126
000220 24 6c 32 3e 2c ff c8 bd 86 e0 69 bd 97 92 4b 3d
       0.17424065 -0.09814295 -0.057098888 0.049700346
000230 90 87 db bc f1 47 9c 3c 12 8a 27 3e d9 dd 75 b7
       -0.02679804 0.019077273 0.16361263 -1.4654791e-05
000240 7a 31 16 3d 40 15 08 3e de 5f 41 be 50 c0 35 be
       0.03666828 0.13289356 -0.18884227 -0.17749143
000250 bd 5f 5b bd cc 8e b7 3b 56 87 9d bd 60 bb 8f 3d
       -0.0535581 0.0056017395 -0.07691829 0.07018161
000260 54 49 23 3a dc 3d 9c 3d 63 5c 64 be 13 61 e3 3d
       0.0006228883 0.07628986 -0.22300868 0.111025
000270 a0 2a 33 3d ec e2 34 be bd 2e 2d be 8c ef ee bd
       0.043741822 -0.17664689 -0.1691236 -0.11666784
000280 ba 4d 88 be b2 25 da bd a3 80 32 3e e1 11 e0 bc
       -0.266218 -0.10651721 0.17431884 -0.027352275
000290 03 a1 4a bd 97 ea ea bd 7a e1 cd 3d 5c fc ec 3d
       -0.04946996 -0.11470526 0.10052772 0.11571571
0002a0 5e cd a8 3e 00 59 55 be b9 55 13 be 7d d0 04 3d
       0.32969183 -0.20834732 -0.1438817 0.032425392
0002b0 01 8b b8 3b fb 00 86 be 1f 26 09 3e be 01 41 be
       0.005631805 -0.26172623 0.13393448 -0.18848321
0002c0 54 b2 d9 bc 69 d6 4e be e9 2d 6a 3e 19 4f 0d 3e
       -0.026574291 -0.20198978 0.22869076 0.13799705
0002d0 ff f3 03 3d 3c 01 d9 bc 28 a1 46 be 92 d9 54 be
       0.032215115 -0.026489846 -0.19397414 -0.20786121
0002e0 3c a0 05 be dc ba e0 bd e4 94 11 3e 84 4a cb 3d
       -0.13049406 -0.109731406 0.14216954 0.09926322
0002f0 62 1a 1a 3e a7 53 63 bd a4 41 b2 3a 9a 54 54 3d
       0.15049127 -0.0554997 0.0013599885 0.051838495
000300 c1 48 e3 3c 1f f5 cd bd 24 bc 6d 3d 1b fd ac bd
       0.027744653 -0.10056519 0.058040753 -0.084467135
000310 e8 06 01 be 45 8b df bd e3 f5 10 3e 24 64 f8 bd
       -0.12600291 -0.109152354 0.14156298 -0.12128475
000320 80 43 b6 3d 9d 24 0a be f3 e6 64 be dc be 2b be
       0.08899593 -0.1349053 -0.22353725 -0.16772026
000330 2d 13 73 be d6 24 5c be 24 98 f2 bd b7 54 30 3c
       -0.23737784 -0.21498427 -0.11845425 0.010762385
000340 7b 22 08 be 8d 1a f6 3d c8 18 28 3d df dc 63 bd
       -0.13294403 0.12016783 0.04103926 -0.05563056
000350 8f 56 08 3e 81 da 72 bc 36 30 16 be 3b 88 26 3b
       0.1331427 -0.014822603 -0.14666829 0.002541079
000360 92 4f 24 3e 4f f2 89 3d e6 86 a7 3d 63 71 f7 3d
       0.16045979 0.0673567 0.08180027 0.12082174
000370 66 54 5d 3e ca 2f 00 be c8 03 91 3d 58 20 8b 3d
       0.21614227 -0.1251823 0.07080799 0.067932785
000380 cd f1 64 3e 30 42 8e 3e d5 b4 08 3e 44 0c 10 be
       0.22357865 0.27784872 0.13350232 -0.14067179
000390 d9 7b 97 be dc b9 4e bd 6e f4 36 be ca 3c 02 be
       -0.29586676 -0.050470218 -0.1786668 -0.12718502
0003a0 20 71 e9 bb aa 11 c3 be e0 6f 6c be 2e 31 36 bd
       -0.0071240813 -0.38099414 -0.23089552 -0.044480495
0003b0 00 83 3a bd e3 c5 e7 bd 9e d8 49 3e 86 a0 b3 3d
       -0.045535088 -0.11317041 0.19711539 0.08770852
0003c0 f4 a2 1e be 15 26 f1 3d 7e 98 b4 bd 7f 27 35 be
       -0.15491849 0.11774842 -0.08818148 -0.17690848
0003d0 dc 14 9c 3d 32 56 17 3e 50 07 d5 3c ee 74 9d 3e
       0.07621166 0.14778975 0.026004463 0.30753273
0003e0 0a 7f 26 3e b6 5a db 3d b2 09 14 3e e5 8f bd bd
       0.16259399 0.10710661 0.14456823 -0.09255961
0003f0 17 b9 b4 bd 2d b0 37 be 69 4d 01 be fc 29 cc bb
       -0.088243656 -0.179383 -0.12627186 -0.006230591

hiden_layers.3.bias f4 [64]
000000 a1 f0 1d bd 32 ed 8f ba 90 d7 62 3c cc 86 55 bd
       -0.03855956 -0.0010980724 0.013845339 -0.052130505
000010 97 e1 85 bc 2b 95 0e 3c e1 08 13 3d a1 51 21 3d
       -0.016342921 0.008702557 0.03589714 0.039384488
000020 fa 52 0d 3c e3 50 48 3d 5e 7a 69 3c a7 bf a9 bc
       0.00862574 0.048905265 0.014250366 -0.02072127
000030 35 4b 07 3d 66 ce 06 bd d7 2c 0c bd 33 64 73 bd
       0.033030707 -0.03291168 -0.03422245 -0.05942173
000040 c6 6a 6b bc e8 24 2f 3d 52 3b 3a bd 8c 52 ab 3c
       -0.0143687185 0.042759806 -0.04546673 0.020913385
000050 68 7e d3 3c c7 18 47 bd cc 83 39 bc ab b0 57 3c
       0.025817111 -0.048607614 -0.011322927 0.0131646795
000060 74 c9 63 bd a0 56 d6 3c 23 40 09 bd 9d 39 9b 3d
       -0.055612043 0.026164353 -0.03350843 0.07579348
000070 89 71 b1 3c 56 b3 17 bd 07 a2 11 3d 47 d9 37 bb
       0.021660583 -0.037036262 0.035554912 -0.0028053091
000080 2a 0d e1 bc 35 71 f9 3b cf 84 02 bd 21 51 9a 3c
       -0.027472097 0.0076123723 -0.031864937 0.018837513
000090 f8 a7 3d 3c ab 3d 99 3b b7 89 1d 3d 67 79 c8 bc
       0.011575691 0.004676541 0.038461413 -0.024471952
0000a0 4b 6d 6b bd 98 b0 d6 3c 19 23 81 3d 85 e6 08 bd
       -0.057477277 0.026207253 0.063055225 -0.033422966
0000b0 6e b9 09 bd e5 47 41 bd 67 e9 0e 3d 8d fd 9c 3c
       -0.033624105 -0.047187705 0.03489056 0.019163871
0000c0 4b 23 b0 bc 61 6c 6e bd 5d dc a0 bd 29 bf 43 bd
       -0.021501204 -0.058208827 -0.07854531 -0.047789726
0000d0 30 f1 2b bd 4a aa 0d bd 40 44 bb 3c 11 a1 2e bd
       -0.04197806 -0.03458623 0.022859693 -0.042634074
0000e0 d7 9e bd 3c 5a 78 fb bc 45 87 23 bd e3 8c 8d 3c
       0.02314703 -0.030697037 -0.039923925 0.017279094
0000f0 ba 1a 16 bd ec a3 c7 3c d4 72 ac 3b 22 a9 26 bd
       -0.036646582 0.024370156 0.005262712 -0.04068864

hiden_layers.4.weight f4 [64, 64]
000000 d9 6c 1b be b7 a8 74 3d 13 3f 81 3d 80 6c 7d be
       -0.15178241 0.05973121 0.063108586 -0.2474842
000010 16 7a 41 bd 4d 79 d3 bc e5 2c 11 be b3 23 2f 3e
       -0.04723557 -0.025814677 -0.14177282 0.17103462
000020 a2 dc f4 bd 01 67 bd 3b 23 08 27 3c 0f 43 81 3d
       -0.11956145 0.0057801013 0.010194811 0.063116185
000030 2b f6 84 3d 18 20 34 be d4 5a 14 be e8 99 39 bc
       0.06492265 -0.17590368 -0.14487773 -0.011328198
000040 16 e8 e2 bc f9 92 3a bd 97 cb d2 3d 1b e9 81 3e
       -0.027698558 -0.04555032 0.10292738 0.25373158
000050 39 02 3a be 24 53 95 3d ea 91 8d be be 05 d8 bc
       -0.1816491 0.072912484 -0.27650386 -0.026369926
000060 3f c8 05 3d 17 74 a6 bd e9 b3 b8 3d d6 5b 32 3e
       0.032661673 -0.08127611 0.0901869 0.17417845
000070 c5 d1 99 bd b7 54 f8 bd bf ae 04 be 7a a7 c7 3a
       -0.075107135 -0.12125533 -0.12957285 0.0015232407
000080 35 5c 16 3e 1f dd 34 bd 07 16 c0 3d c1 6d 27 be
       0.14683612 -0.04415619 0.093792014 -0.16350462
000090 e6 4d 20 3e 65 14 9a bd d4 59 13 be 7d 6c 9c bd
       0.15654716 -0.07523421 -0.14389735 -0.0763788
0000a0 33 a0 10 be 04 db 4b 3d 07 99 5e 3e 28 33 69 3c
       -0.14123611 0.049769416 0.21738063 0.014233388
0000b0 e0 5b 0f bd e8 76 16 3e 5b 3b 7f 3e 72 5a 24 be
       -0.03499973 0.14693797 0.24924986 -0.16050127
0000c0 b8 b9 33 be 0a 2a 3b be 22 ca 43 3d 0c e0 33 3d
       -0.17551315 -0.18277755 0.04780019 0.04391484
0000d0 70 1e 2d be 01 93 37 3e 69 f9 2e 3e 76 5e 0b be
       -0.16906142 0.17927171 0.1708733 -0.13610253
0000e0 34 43 be 3d b2 bc 65 bc 95 52 6b be 30 e8 09 be
       0.09290162 -0.014022039 -0.22980721 -0.13467479
0000f0 14 a9 ff 3d 9f f4 07 be 90 db 19 bc 20 19 0d be
       0.12483421 -0.1327691 -0.009390727 -0.13779116
000100 0b d8 2e bd 5f 6b 53 be 3a 21 ea bd 77 d4 44 3e
       -0.042686503 -0.20646428 -0.11432119 0.19221674
000110 88 8f 31 3e e8 77 a4 3d b5 a7 61 be a5 3f e1 bd
       0.17339909 0.08030683 -0.22036631 -0.10998467
000120 f4 92 1b bc 05 71 6f bd 1c 41 34 be 37 40 64 3e
       -0.009495486 -0.058457393 -0.17602962 0.22290121
000130 dd 1d 31 3d 5d c4 12 3e ba ce 07 be ef f5 fe 3d
       0.04324137 0.14332719 -0.13262454 0.12449252
000140 e6 6c 0a be db 3c ee bd b0 0a 45 3e 58 fa 3b bd
       -0.13518104 -0.11632701 0.19242358 -0.045893043
000150 9e 5c 16 3e de 4c 0e 3e e0 60 9a 3e ba b1 d6 3d
       0.14683768 0.1389651 0.30152035 0.104831174
000160 50 9e 11 be d1 6b 83 be b4 38 1c be d8 e7 b6 3d
       -0.14220548 -0.25668195 -0.15256006 0.089309394
000170 0c e0 25 bd a7 29 b9 bc 60 93 4a be f9 7d 50 be
       -0.04049687 -0.02260287 -0.19782782 -0.20360555
000180 59 0d 37 3e 50 5c f2 3d 16 e2 31 3e 8c cc ff bd
       0.17876185 0.118340135 0.17371401 -0.12490186
000190 49 c5 1c be d5 cb d5 3c 78 d0 26 3e de 2a a1 3d
       -0.15309633 0.026098171 0.16290462 0.078695044
0001a0 9a e1 50 3e 5f 32 90 be 56 8b e9 3d 78 a1 98 3e
       0.2039856 -0.2816343 0.11403529 0.2981069
0001b0 14 20 e2 bd 57 b8 6d 3e 97 22 83 bd a2 8c 02 bd
       -0.11041275 0.23214851 -0.06403082 -0.0318724
0001c0 49 8d ee bd b7 7b 88 3e ec c9 19 be 7d 79 b5 bd
       -0.11648042 0.26656887 -0.15018433 -0.08861063
0001d0 62 e4 18 3e 95 c5 f2 bd f0 99 40 3e 43 e2 ab 3d
       0.14930871 -0.11854092 0.18808722 0.083927654
0001e0 41 37 37 3d 54 df 43 be f0 90 0b 3e d7 d5 22 3a
       0.04473043 -0.19128162 0.13629508 0.0006211674
0001f0 3a 2e 4f 3e 90 4b 02 bd 7d a0 b9 3d 9e f8 26 3e
       0.20232478 -0.031810343 0.09063814 0.16305777
000200 f1 92 49 bd 2b e7 eb bd 1b c2 6f be 4b 6f 73 be
       -0.0492124 -0.11518701 -0.23413889 -0.23772924
000210 a1 1a aa bd 52 95 17 be ad bb b6 bc 28 3d f4 3d
       -0.0830586 -0.14803055 -0.022306288 0.11925727
000220 ac 0a d9 bc f4 66 7a be 40 b5 a0 3d 54 cf a5 bd
       -0.026494347 -0.24453336 0.07847071 -0.08096185
000230 ff 20 c9 bc 4e 7f a9 3e 4e 23 04 3e 47 9c 4d bd
       -0.024551867 0.33104938 0.12904093 -0.050197866
000240 c4 ec 54 bd c6 36 02 3e 26 4e 4b bd fc 4d 24 3e
       -0.05198361 0.12716207 -0.049635075 0.16045374
000250 03 ab 31 be 18 d3 65 be e8 31 f0 bd 92 b4 ab bd
       -0.17350392 -0.22443807 -0.11728269 -0.083840504
000260 f7 85 0d be 23 ab 99 be 3d 84 bd 3b b2 1e 43 3e
       -0.13820635 -0.3001338 0.0057835863 0.19054678
000270 d0 c2 56 be 71 fa 2c 3e ef e9 44 be e2 db 64 3e
       -0.20972753 0.16892411 -0.19229864 0.22349504
000280 6e 8f c2 bd b7 a2 89 bd 66 84 09 be da a3 e9 3d
       -0.09500013 -0.067204885 -0.13429412 0.11408205
000290 ba e4 47 bd 8e 4c a4 3c fb 06 33 be 90 40 35 3e
       -0.048802115 0.020056035 -0.17483132 0.1770041
0002a0 b5 69 3b 3e f4 a9 a7 3d cf 4a b5 be 3a e0 4b bd
       0.18302043 0.08186713 -0.35408637 -0.049774386
0002b0 0e 09 f3 3c 34 cb fc 3c 5f 43 e9 3d cd 36 f7 3d
       0.029667404 0.030858614 0.11389803 0.12070999
0002c0 de 07 27 3e 4f 21 4f 3d 45 c6 97 3e d2 bf 1c be
       0.16311595 0.050568875 0.29643455 -0.15307549
0002d0 3d 91 cc bd 6a ba 82 3e d5 67 12 38 f2 84 a8 3d
       -0.099886395 0.25532848 3.4905814e-05 0.08228482
0002e0 b6 d9 df bd c2 d2 99 3e be 8c 41 3e f5 19 17 3e
       -0.10930197 0.30043608 0.18901345 0.14755996
0002f0 b2 c4 74 3d a2 90 47 3d b3 2c 9e 3b 84 ac 51 3e
       0.059757896 0.048721917 0.004827106 0.20475966
000300 6d 53 6d 3d a7 16 db bd 7a 29 64 bd 89 64 78 3e
       0.05794089 -0.1069768 -0.055703618 0.24257101
000310 ca c0 2d 3e 4b f9 48 3c fe f6 1c 3d 56 4a 29 be
       0.16968074 0.012266467 0.038321488 -0.16532263
000320 38 b7 2e 3e 6a 42 6f bd 94 96 fc 3d 9d c6 ad bd
       0.1706208 -0.058412947 0.12333408 -0.08485148
000330 3f 52 1d be 4a b1 00 be 2e 44 af 3e e7 89 63 3e
       -0.15363406 -0.1256763 0.34231704 0.22220574
000340 f9 fd d6 3d f7 dd 95 3c bb 25 4a be 58 64 8f be
       0.1049766 0.018294318 -0.19740956 -0.28006244
000350 be 7c 04 be 81 c9 bd 3d f5 c1 76 3e c9 80 01 3e
       -0.1293821 0.092669494 0.24097426 0.12646784
000360 e6 8c eb 3d 21 f6 91 be 9c 88 06 3e 08 3a eb bd
       0.115014836 -0.28508094 0.1313805 -0.11485678
000370 92 3c 20 be f0 54 76 3d c4 9c 11 bd 79 cb 58 be
       -0.15648106 0.060139596 -0.035549894 -0.21171369
000380 a6 68 73 bd fb 91 81 3d 75 9d ed bd e3 2d 25 be
       -0.059425972 0.06326672 -0.11602298 -0.16130786
000390 28 c0 4f 3e 0e 87 83 bc 34 ba e0 bc 41 2b ce 3d
       0.20288146 -0.01605561 -0.027432539 0.10066844
0003a0 61 a7 26 bd 72 e3 9a 3c 7b 91 5c be 8d c6 ac 3e
       -0.04068697 0.018907283 -0.21539871 0.33745232
0003b0 e3 ad 27 3e 35 25 05 be 7a af dc bd e1 4e 4f be
       0.16374926 -0.13002475 -0.10775657 -0.20244934
0003c0 04 c0 e8 bd 53 db b2 3e c9 0e b6 bd e9 97 3a 3e
       -0.11364749 0.34932956 -0.08889539 0.18222012
0003d0 1e 7d 7e bd 2e 79 db 3d d2 66 2c 3e 27 4f 45 3e
       -0.06213104 0.107164726 0.16836098 0.19268475
0003e0 bf c8 7a be 89 be 08 bd 6f 24 38 3e b0 08 e7 3d
       -0.24490641 -0.033384833 0.17982648 0.11280954
0003f0 08 9c 20 3e 97 5f b7 bd 90 71 12 3e e1 7a 88 3e
       0.15684521 -0.08953779 0.14301133 0.2665625
