results/1_first_try/epoch2250/model_weights.pth (torch, 484214 bytes, 88 tensors)

init_layer.0.weight f4 [64, 3]
-0.31146717 -0.067136586 0.155195 0.2555622 -0.0662885 -0.0034161939 -0.07963546 -0.23237094
-0.13756889 0.13255851 -0.013540994 0.046889756 -0.012606196 0.19707905 0.2121094 -0.1084408
-0.28205934 0.13182119 0.314578 -0.024948778 0.26629418 0.3400111 0.29006878 0.18715933
0.16770445 -0.41431203 -0.038190406 -0.06213329 -0.06322668 0.20411915 -0.06488069 -0.013871616
0.12794635 0.037703145 0.068680234 -0.19602808 -0.14570142 -0.017431362 -0.03516583 -0.00042082721
0.01568875 0.21298991 0.08699317 -0.29493615 0.0023426784 0.25039673 -0.22629611 -0.2725859
0.21670276 -0.12053507 0.18955076 0.23356123 0.28647754 -0.049364824 0.09359497 -0.030452631
-0.2566912 -0.16448408 0.072857395 -0.24130876 0.12828949 -0.16615158 -0.005586355 0.23074138
-0.0660017 -0.010060031 0.035294693 -0.16584808 -0.15048793 0.0030554505 0.16239008 -0.10550729
-0.0016154062 -0.082458735 0.15136312 -0.1190793 0.24272642 -0.044808827 -0.0032890993 0.2256985
0.10115196 -0.15885924 -0.23033275 0.045517147 0.017135466 0.059778266 -0.18898179 -0.0067498586
-0.25130874 0.1432888 -0.30996174 -0.064525224 -0.08074975 -0.091164775 0.039176997 0.29271254
-0.04830971 0.17405777 0.09762001 -0.27270776 0.37518963 -0.023274709 -0.047474533 -0.020419363
-0.14319919 -0.02145977 -0.10426109 -0.22746553 0.055598896 -0.0057953983 -0.20880139 -0.23487905
-0.06647227 0.017070595 0.29651272 -0.15889804 0.14939317 -0.30567214 0.1421193 0.17864868
0.27291057 0.06339234 -0.20151487 -0.069183074 -0.037714437 -0.15035719 0.11985047 -0.15604785
0.14926063 -0.036463317 -0.0204549 0.21505897 0.07494639 -0.18877886 -0.15209319 -0.052395403
-0.0528066 0.12125742 0.010156419 -0.11867015 -0.10433301 0.04252065 0.12664108 0.13401724
0.0930773 0.27123532 -0.026754156 0.059589226 -0.2630808 0.1672588 -0.04987113 -0.21554486
-0.12804481 -0.3545876 -0.14278352 -0.047225233 0.18022422 -0.273533 0.102174945 -0.14205304
-0.18803136 -0.014351255 0.12919085 -0.14578643 -0.18636425 0.24095762 0.013418172 0.18491948
0.18171288 0.016651578 0.105177015 0.13395438 -0.042465225 0.025114886 0.25254166 0.30189368
-0.002687903 0.028430613 0.076853 0.011659774 -0.11046294 -0.3092557 0.04635749 -0.05325218
-0.028653106 0.019377932 0.25704515 -0.011491807 0.051005382 0.23559779 0.113018356 0.035441853
00000000: a078 9fbe e87e 89bd 70eb 1e3e 0cd9 823e
00000010: 44c2 87bd 39e2 5fbb eb17 a3bd a6f2 6dbe
00000020: dcde 0cbe 6bbd 073e 0cdb 5dbc 790f 403d
00000030: 388a 4ebc 17cf 493e 3533 593e 3616 debd
00000040: 156a 90be 22fc 063e 5e10 a13e 6161 ccbc
00000050: b657 883e ef15 ae3e e583 943e b2a6 3f3e
00000060: b7ba 2b3e b520 d4be 8b6d 1cbd 7a7f 7ebd
00000070: fd7c 81bd 9c04 513e 2be0 84bd c645 63bc
00000080: 5e04 033e 9d6e 1a3d 39a8 8c3d 96bb 48be
00000090: c132 15be 37cc 8ebc 0c0a 10bd 79a2 dcb9
000000a0: b285 803c 071a 5a3e 7a29 b23d df01 97be
000000b0: 9f87 193b 0034 803e 2bba 67be 6190 8bbe
000000c0: 54e7 5d3e 17db f6bd 9819 423e ad2a 6f3e
000000d0: 2fad 923e c532 4abd b8ae bf3d cc77 f9bc
000000e0: 076d 83be 846e 28be 4236 953d a519 77be
000000f0: 525e 033e a423 2abe be0d b7bb 7847 6c3e
00000100: e62b 87bd d4d2 24bc 2b91 103d 14d4 29be
00000110: 8219 1abe f43d 483b 9649 263e 3514 d8bd
00000120: 0abc d3ba 20e0 a8bd effe 1a3e d9df f3bd
00000130: 468d 783e 7689 37bd ee8d 57bb 821d 673e
00000140: c228 cf3d ffab 22be 59dc 6bbe 3070 3a3d
00000150: ad5f 8c3c 0eda 743d 7184 41be eb2d ddbb
00000160: 8aab 80be 4dba 123e 4eb3 9ebe cd25 84bd
00000170: 2060 a5bd 99b4 babd 0f78 203d 6bde 953e
00000180: 67e0 45bd 333c 323e 00ed c73d 5aa0 8bbe
00000190: db18 c03e 9aaa bebc a874 42bd 8246 a7bc
000001a0: cfa2 12be 66cc afbc d786 d5bd b9ec 68be
000001b0: abbb 633d 53e7 bdbb 08d0 55be 2284 70be
000001c0: 9d22 88bd a2d7 8b3c 84d0 973e 2bb6 22be
000001d0: 86fa 183e 0f81 9cbe b987 113e aeef 363e
000001e0: efba 8b3e d8d3 813d ea59 4ebe dbaf 8dbd
000001f0: 747a 1abd 3cf7 19be 2a74 f53d 02cb 1fbe
00000200: c7d7 183e 8f5a 15bd 0991 a7bc 6b38 5c3e
00000210: 7e7d 993d 3f4f 41be 51be 1bbe 909c 56bd
00000220: bc4b 58bd cf55 f83d 1c67 263c 5609 f3bd
00000230: 8cac d5bd 222a 2e3d 33ae 013e d13b 093e
00000240: 509f be3d 5bdf 8a3e 882b dbbc d513 743d
00000250: 87b2 86be e445 2b3e ac45 4cbd cbb7 5cbe
00000260: 2e1e 03be 828c b5be d835 12be 3f6f 41bd
00000270: b38c 383e 840c 8cbe 1941 d13d 5a76 11be
00000280: 4b8b 40be 8721 6bbc 9b4a 043e 0a49 15be
00000290: 45d6 3ebe 98bd 763e e4d7 5b3c 885b 3d3e
000002a0: f112 3a3e e468 883c 0c67 d73d 562b 093e
000002b0: 04f0 2dbd bcbd cd3c 244d 813e cf91 9a3e
000002c0: 8727 30bb 51e7 e83c 1b65 9d3d a308 3f3c
000002d0: 653a e2bd c356 9ebe 5ae1 3d3d f51e 5abd
000002e0: ebb9 eabc 78be 9e3c 6c9b 833e 2248 3cbc
000002f0: 05eb 503d 8c40 713e 2b76 e73d 7a2b 113d

init_layer.0.bias f4 [64]
-0.15823123 0.082464926 -0.089820415 0.080431834 -0.06954024 -0.0003436941 0.16116007 0.13138917
-0.008971278 0.08444377 0.03094782 -0.019191349 -0.08879373 0.121569134 0.11017551 0.10351689
0.16330793 0.07600492 -0.21767287 0.050734956 0.08747283 0.059701994 0.044359405 0.041691754
0.037647575 -0.11889599 0.14667973 -0.06216936 -0.12335821 -0.07517059 -0.09964857 -0.09366407
0.06752826 -0.048534 -0.0587618 0.11202486 0.03917864 -0.1249129 0.103596956 -0.121488884
0.124668255 -0.06624601 0.076476276 -0.09620474 0.05433322 0.12296124 -0.06026048 -0.06331016
-0.06018167 0.040003404 0.048872687 -0.09423489 -0.043522514 -0.07314277 0.057508882 0.12880811
0.10874171 0.09913944 0.105989896 0.046375565 0.0011051272 -0.034562763 0.08922965 0.10102417
00000000: 5e07 22be 5fe3 a83d c4f3 b7bd 72b9 a43d
00000010: 1d6b 8ebd d731 b4b9 2507 253e e28a 063e
00000020: 44fc 12bc dbf0 ac3d 4886 fd3c 2d37 9dbc
00000030: 7dd9 b5bd 3df9 f83d b3a3 e13d aa00 d43d
00000040: 323a 273e 78a8 9b3d a3e5 5ebe 75cf 4f3d
00000050: f524 b33d 148a 743d 35b2 353d f9c4 2a3d
00000060: 5834 1a3d be7f f3bd 3633 163e 4da5 7ebd
00000070: 3ba3 fcbd 0af3 99bd 8d14 ccbd f3d2 bfbd
00000080: 424c 8a3d 96cb 46bd 37b0 70bd 4a6d e53d
00000090: c879 203d 56d2 ffbd a42a d43d 2acf f8bd
000000a0: 1252 ff3d fdab 87bd 989f 9c3d fe06 c5bd
000000b0: 838c 5e3d 1ad3 fb3d b1d3 76bd c2a8 81bd
000000c0: 0e81 76bd 9cda 233d ba2e 483d 39fe c0bd
000000d0: aa44 32bd e0cb 95bd 6f8e 6b3d 46e6 033e
000000e0: f9b3 de3d 9e09 cb3d 3b11 d93d 4ef4 3d3d
000000f0: ead9 903a af91 0dbd 09be b63d c3e5 ce3d

hiden_layers.0.weight f4 [64, 64]
-0.09676895 0.015763827 0.2329081 0.05613728 -0.21175425 -0.016490014 0.0753591 -0.17436935
-0.035434097 -0.15858008 -0.034173205 0.26502505 0.09068777 -0.015080751 0.15906441 -0.24276856
-0.10202177 -0.116981916 0.096795365 -0.08607548 -0.10753461 0.11353981 0.020818315 -0.26874125
0.039802685 0.09291848 -0.15690911 -0.154727 0.0315627 0.043825295 -0.21222676 -0.00096853246
-0.19298054 -0.081613414 0.30370352 -0.005239048 0.022776134 0.032985434 0.24299033 0.099833764
0.032509394 0.063435085 0.011960183 -0.034043 -0.062185146 -0.13456349 0.07012993 -0.22389679
0.2573991 -0.24086243 -0.15262602 0.022751711 0.00019954529 0.0045354394 0.1862616 0.16897318
-0.20479588 -0.1921443 -0.17249858 0.06871251 0.033405423 -0.06716234 -0.003730057 -0.15744433
-0.058606867 -0.20226407 -0.18289015 0.14413808 -0.1406529 -0.12162799 0.20499374 -0.15994655
-0.0017619146 -0.24405298 0.11186324 -0.073028326 0.040876698 -0.023185715 -0.028262664 0.13936405
0.0024360889 0.22674723 0.03667169 -0.0017332555 -0.10131276 -0.22155337 0.11194913 0.19484605
-0.11287134 -0.019677991 0.2060974 0.11994615 0.17129356 0.06838992 -0.1729677 -0.13853705
0.004453804 0.03660804 0.22102866 0.12345471 0.23457593 -0.041001283 -0.08016571 0.15190825
-0.054164182 0.034916792 -0.25014958 -0.04842078 0.10577869 -0.2956914 0.20946845 -0.19283971
-0.04803025 -0.16915388 -0.09300995 -0.1450096 0.10134787 -0.1625971 0.14994234 0.10894843
-0.21219619 -0.13638766 -0.16690089 -0.21026765 0.2068134 0.24701624 0.16121113 -0.11094722
0.23182797 -0.24268518 0.19728763 -0.15476708 -0.17262441 -0.010573003 -0.1223893 -0.267303
-0.21542655 -0.072604366 0.013063748 0.15225841 0.34101886 -0.21860406 0.062047843 -0.23125333
-0.2433561 -0.23936154 0.060720965 -0.017034672 -0.20500185 -0.2845707 -0.21429746 0.055532735
-0.028652815 0.033182316 0.028100492 0.23718463 0.0049360343 -0.23327625 0.3447196 0.28223473
-0.12868445 0.20079467 0.21244948 0.16776653 -0.09289886 0.02670665 -0.17392147 0.16972333
-0.2946508 -0.011460023 0.12366065 0.27886263 0.114881314 0.04483062 -0.069361605 -0.009383983
-0.037171 -0.004932036 -0.09869944 0.07632908 -0.17520568 0.046087015 -0.20699921 -0.05840841
-0.30210382 -0.25697425 -0.2687166 -0.19867834 0.18260133 -0.0001441856 -0.3069836 0.048425008
0.126959 -0.13961177 -0.0051395614 -0.048563045 0.10725564 0.10554684 -0.036699392 -0.15295762
-0.2339964 -0.1088072 0.054443937 0.017356673 -0.028813304 -0.074516594 0.037785403 -0.10204188
-0.065809526 0.17941782 0.11609559 -0.0892729 0.16899192 -0.09437214 -0.14114654 -0.059502244
0.24801195 0.061434463 -0.025950547 -0.06373966 -0.17179587 -0.23739627 -0.13582896 0.018294834
-0.11687684 0.10298187 -0.16128284 0.043197215 -0.03368581 -0.11556007 0.0006208333 -0.07468066
-0.1571438 -0.028539129 0.06162756 0.19381969 0.038860995 0.07934046 0.08656879 0.01742955
0.075578876 -0.10496178 0.23245117 -0.06054917 -0.26999956 0.17308562 0.20590524 0.07007074
-0.18173859 -0.36203828 -0.11493484 0.13005264 -0.11873097 -0.09283162 -0.046368692 -0.06838158
00000000: cd2e c6bd 2423 813c 767f 6e3e 34f0 653d
00000010: 1bd6 58be 1116 87bc df55 9a3d e18d 32be
00000020: 5823 11bd d162 22be 34f9 0bbd 5db1 873e
00000030: 82ba b93d 4115 77bc c8e1 223e 5298 78be
00000040: caf0 d0bd 3794 efbd a63c c63d 5748 b0bd
00000050: 1b3b dcbd 8f87 e83d 2c8b aa3c 7498 89be
00000060: 2408 233d 0b4c be3d c8ac 20be c170 1ebe
00000070: e447 013d 2782 333d f951 59be 1de5 7dba
00000080: b19c 45be ef24 a7bd 077f 9b3e 52ac abbb
00000090: 0495 ba3c bc1b 073d 75d2 783e a575 cc3d
000000a0: 9228 053d 41ea 813d a5f4 433c ac70 0bbd
000000b0: dab5 7ebd 03cb 09be 48a0 8f3d 3345 65be
000000c0: d1c9 833e a4a4 76be ff49 1cbe cc61 ba3c
000000d0: 083d 5139 069e 943b 5cbb 3e3e 4e07 2d3e
000000e0: 03b6 51be 7ac1 44be 78a3 30be 25b9 8c3d
000000f0: 20d4 083d 698c 89bd f973 74bb 1639 21be
00000100: c10d 70bd 501e 4fbe 8e47 3bbe ef98 133e
00000110: 5007 10be 1818 f9bd e1e9 513e 07c9 23be
00000120: 0bf0 e6ba 06e9 79be 8e18 e53d e08f 95bd
00000130: 536e 273d f8ef bdbc 1a87 e7bc 73b5 0e3e
00000140: caa6 1f3b 6d30 683e 0e35 163d 672e e3ba
00000150: 107d cfbd e3de 62be 9645 e53d b985 473e
00000160: 1729 e7bd bd33 a1bc 320b 533e 54a6 f53d
00000170: 9467 2f3e 0410 8c3d 721e 31be a8dc 0dbe
00000180: 37f1 913b 50f2 153d 5655 623e d3d5 fc3d
00000190: ac34 703e f6f0 27bd eb2d a4bd d68d 1b3e
000001a0: 43db 5dbd e904 0f3d 9b13 80be de54 46bd
000001b0: 7fa2 d83d dd64 97be e67e 563e c677 45be
000001c0: 5ebb 44bd ad36 2dbe 007c bebd 667d 14be
000001d0: 798f cf3d db7f 26be 7c8a 193e 5b20 df3d
000001e0: f549 59be 35a9 0bbe 11e8 2abe 6750 57be
000001f0: e4c6 533e d3f1 7c3e 8814 253e 4c38 e3bd
00000200: 5064 6d3e 7782 78be c505 4a3e 437b 1ebe
00000210: 74c4 30be 643a 2dbc 3ea7 fabd f0db 88be
00000220: c798 5cbe 99b1 94bd 5509 563c a1e9 1b3e
00000230: 069a ae3e bed9 5fbe e125 7e3d accd 6cbe
00000240: 5732 79be 311b 75be 8cb6 783d 4c8c 8bbc
00000250: 01ec 51be 40b3 91be cb70 5bbe 4b76 633d
00000260: 4fb9 eabc 2eea 073d 0133 e63c 87e0 723e
00000270: 75be a13b f8df 6ebe 167f b03e 1281 903e
00000280: dbc5 03be 1e9d 4d3e 5b8c 593e fdca 2b3e
00000290: c241 bebd e8c7 da3c 7818 32be f4cb 2d3e
000002a0: 78dc 96be d2c2 3bbc cb41 fd3d 15c7 8e3e
000002b0: e546 eb3d 50a0 373d 750d 8ebd 47bf 19bc
000002c0: 9e40 18bd eb9c a1bb ef22 cabd 6c52 9c3d
000002d0: 1e69 33be bdc5 3c3d 9af7 53be a83d 6fbd
000002e0: 5aad 9abe 2192 83be 3995 89be 5672 4bbe
000002f0: d8fb 3a3e 8730 17b9 f42c 9dbe 4d59 463d
00000300: 8a01 023e 63f6 0ebe c469 a8bb 0bea 46bd
00000310: d8a8 db3d f128 d83d 1a52 16bd eca0 1cbe
00000320: c19c 6fbe 4fd6 debd 9b00 5f3d 952f 8e3c
00000330: e109 ecbc 289c 98bd dec4 1a3d 55fb d0bd
00000340: 25c7 86bd 4eb9 373e 86c3 ed3d b6d4 b6bd
00000350: 380c 2d3e 2e46 c1bd b888 10be a0b8 73bd
00000360: d8f6 7d3e b4a2 7b3d 3e96 d4bc f089 82bd
00000370: 42eb 2fbe 0218 73be bf16 0bbe 0cdf 953c
00000380: 205d efbd 29e8 d23d 5427 25be 90ef 303d
00000390: 22fa 09bd c2aa ecbd 6bbf 223a 2df2 98bd
000003a0: 4eea 20be e4ca e9bc 2e6d 7c3d ab78 463e
000003b0: b52c 1f3d 407d a23d fa4a b13d 6ac8 8e3c
000003c0: 19c9 9a3d 34f6 d6bd ae07 6e3e 6802 78bd
000003d0: 623d 8abe 5b3d 313e d3d8 523e 4081 8f3d
000003e0: ae19 3abe 155d b9be f562 ebbd 852c 053e
000003f0: 3929 f3bd 811e bebd 19ed 3dbd a40b 8cbd

hiden_layers.0.bias f4 [64]
-0.15328889 0.020531712 -0.056684226 0.08577856 -0.093113735 -0.104740135 0.073028736 0.03970298
0.13457383 0.03911432 0.075731196 -0.14137135 0.049396876 -0.08729023 -0.39129287 0.062482424
0.036083885 -0.11800522 0.06801216 -0.036438663 -0.090242945 0.019780638 -0.09908936 0.00092162564
0.072718434 0.090497404 0.06455356 0.007276485 -0.0042617647 -0.079566315 -0.011261734 0.018062742
0.12482412 -0.0779973 -0.10652678 0.11326443 -0.08410927 -0.05062201 0.12597428 -0.082915306
-0.035796974 -0.08437908 0.20390753 -0.07710492 0.011296444 0.026891297 -0.096744545 0.04050951
-0.067711696 0.073229626 0.0090663945 0.08308676 -0.07545983 0.10760257 -0.27161884 0.017753968
-0.123411454 -0.14965478 -0.023420604 -0.16183627 -0.115408674 -0.07975001 -0.0955099 0.044482008
00000000: c3f7 1cbe 1f32 a83c b82d 68bd abac af3d
00000010: 6ab2 bebd ff81 d6bd 1790 953d 989f 223d
00000020: b9cd 093e 5636 203d f518 9b3d a7c3 10be
00000030: 6154 4a3d 38c5 b2bd 8a57 c8be 92ed 7f3d
00000040: b2cc 133d b9ac f1bd f649 8b3d b540 15bd
00000050: 4bd1 b8bd 010b a23c 5def cabd 4099 713a
00000060: 67ed 943d b456 b93d a834 843d 956f ee3b
00000070: 46a6 8bbb aaf3 a2bd 2383 38bc 51f8 933c
00000080: caa3 ff3d 0cbd 9fbd b62a dabd 2ef7 e73d
00000090: 7b41 acbd 0659 4fbd 67ff 003e 80cf a9bd
000000a0: d99f 12bd f0ce acbd 23cd 503e 2fe9 9dbd
000000b0: b814 393c 234b dc3c 0122 c6bd 4ded 253d
000000c0: 6eac 8abd 6af9 953d 378b 143c 6429 aa3d
000000d0: af8a 9abd bc5e dc3d a011 8bbe c570 913c
000000e0: 25bf fcbd 1a3f 19be 91dc bfbc 68b8 25be
000000f0: 625b ecbd f953 a3bd b29a c3bd c432 363d

hiden_layers.1.weight f4 [64, 64]
-0.024072496 0.1480346 0.32367843 0.15068933 -0.26633084 0.29333436 -0.08232579 -0.022086548
0.022904677 -0.04168912 -0.19601174 -0.02365032 -0.27546287 -0.07973315 -0.010943423 -0.04955726
0.27716976 0.29754815 -0.32169732 0.321989 0.26692098 -0.17476605 0.04426818 -0.101711854
-0.124625094 -0.44841674 -0.08659145 0.16854398 0.11366783 -0.07627099 -0.19710533 -0.055367805
-0.2558957 0.35571867 0.0018633414 -0.30582672 0.1357695 -0.13380605 -0.23345618 0.0157458
0.08275222 0.070884205 -0.19377989 0.2256229 0.2680752 0.033236105 0.05807792 -0.39344704
0.07238591 0.03742661 -0.2308421 0.04540338 -0.15339383 -0.09045283 -0.33382377 -0.28057197
0.2810601 0.36049092 -0.2936245 0.068617135 -0.10187687 0.05292418 0.22648332 -0.13343154
-0.046032213 -0.20223637 -0.2883174 0.22702205 -0.2415699 0.025038838 -0.15949737 -0.061781228
0.27400467 0.19216427 0.243964 0.15386708 0.101421945 0.09156041 -0.37453195 0.34660518
-0.078444555 -0.2382443 0.24002479 0.009832479 0.036856815 0.25283802 -0.31308076 0.29494986
-0.05369716 0.23328052 0.27356774 0.29872277 -0.22482163 -0.08865592 0.108692594 0.3033395
0.31377834 0.046834107 -0.3721521 -0.110536106 -0.21535054 0.19922306 -0.062475603 -0.33658054
-0.44616836 -0.30020967 0.1024891 -0.193817 0.020566361 0.14042799 -0.16317657 -0.36553457
0.4163171 0.0498461 -0.09005965 -0.10529847 0.04812991 -0.0069009513 0.08234032 0.07631811
-0.06437987 0.0050889268 -0.20117153 0.17382969 0.16024369 -0.011885793 0.021224888 0.5525023
0.10299397 0.10847265 -0.06539948 0.12478118 0.057645556 0.15939558 -0.1267181 0.32067582
0.28960386 -0.06913133 -0.15698846 -0.04819048 0.024896482 0.025944361 0.023025673 0.14207314
-0.061515782 -0.13544348 0.13455167 0.0777742 0.017333856 -0.28616187 -0.2583407 -0.1263069
0.02904818 0.119546786 -0.028545886 -0.009966707 0.07098857 0.08103674 0.22622633 0.32808894
0.13242204 -0.1686203 -0.21321198 -0.078021556 -0.09578605 -0.12788296 0.059108354 -0.13173643
-0.22774558 -0.18077698 -0.12910123 -0.117897816 -0.017227232 0.09723663 -0.022790978 0.0646813
0.008584889 0.06531063 0.0077817393 -0.26111525 0.04916606 -0.16902037 0.05780593 0.013734407
-0.12341785 0.04638063 0.17203945 0.06246422 0.03982244 0.10638544 -0.05241411 0.24486892
0.18446454 -0.06670448 -0.096972 0.12468656 0.1924246 -0.21525574 -0.09729138 -0.13812958
0.08725632 0.015734917 -0.12146463 0.38534993 0.23153543 0.26170436 -0.087220125 0.12737875
-0.021139026 -0.1597554 -0.010592703 0.05322374 -0.030712096 -0.20107779 0.06936001 0.11140677
0.13153143 0.06542323 -0.13253917 0.041754637 -0.0032791565 0.27221543 0.16802764 0.17008966
0.18216695 0.012336795 -0.07491202 0.024252133 0.21669775 0.024395775 0.16609597 0.19849719
0.056435894 -0.026280599 0.27796537 0.14998382 -0.25858027 -0.03602447 -0.21411918 -0.069494
-0.042822942 0.15048704 -0.0041213194 0.07019661 0.26121062 -0.05808286 -0.37885827 -0.031925354
-0.1437611 -0.012545777 0.38854772 0.07335859 -0.13303882 0.20647304 0.20270224 -0.19955695
00000000: af33 c5bc 6296 173e 2eb9 a53e 4e4e 1a3e
00000010: 845c 88be ec2f 963e 6c9a a8bd d9ee b4bc
00000020: 97a2 bb3c 36c2 2abd 4db7 48be 51be c1bc
00000030: 7809 8dbe 224b a3bd 0b4c 33bc 8efc 4abd
00000040: 32e9 8d3e 3b58 983e 83b5 a4be bedb a43e
00000050: dea9 883e dff5 32be 8d52 353d 4e4e d0bd
00000060: 713b ffbd e196 e5be dc56 b1bd cb96 2c3e
00000070: aeca e83d f733 9cbd fbd5 49be 5ac9 62bd
00000080: c304 83be c220 b63e 5d3b f43a 5295 9cbe
00000090: 2907 0b3e 7404 09be 230f 6fbe 56fd 803c
000000a0: ff79 a93d bd2b 913d 3c6e 46be b109 673e
000000b0: 2741 893e 9522 083d 1de3 6d3d e471 c9be
000000c0: 103f 943d a54c 193d df61 6cbe e5f8 393d
000000d0: 4613 1dbe 553f b9bd f3ea aabe 21a7 8fbe
000000e0: 1ce7 8f3e 4492 b83e f355 96be 2487 8c3d
000000f0: d2a4 d0bd 06c7 583d 3eeb 673e 47a2 08be
00000100: 468c 3cbd 0d17 4fbe 579e 93be 7878 683e
00000110: 1a5e 77be 401e cd3c 4753 23be 500e 7dbd
00000120: 574a 8c3e b6c6 443e b3d1 793e 558f 1d3e
00000130: 4fb6 cf3d 0684 bb3d a7c2 bfbe 3c76 b13e
00000140: 8aa7 a0bd 50f6 73be 0fc9 753e 6818 213c
00000150: 2cf7 163d fc73 813e 1f4c a0be ab03 973e
00000160: 8ef1 5bbd 17e1 6e3e 1211 8c3e 31f2 983e
00000170: a437 66be 3c91 b5bd 399a de3d 514f 9b3e
00000180: 8ea7 a03e 1fd5 3f3d b88a bebe c160 e2bd
00000190: da84 5cbe 2101 4c3e 6be6 7fbd 4954 acbe
000001a0: 2e70 e4be 15b5 99be cee5 d13d f777 46be
000001b0: c97a a83c 5bcc 0f3e c217 27be 5927 bbbe
000001c0: 8427 d53e 6d2b 4c3d 3271 b8bd b9a6 d7bd
000001d0: de23 453d 6021 e2bb 0ba2 a83d ab4c 9c3d
000001e0: 98d9 83bd 03c1 a63b e9ff 4dbe 6900 323e
000001f0: ec16 243e a1bc 42bc d1df ad3c ca70 0d3f
00000200: 81ee d23d e926 de3d 2af0 85bd 468d ff3d
00000210: bf1d 6c3d 9838 233e 64c2 01be 9f2f a43e
00000220: f546 943e ba94 8dbd 95c1 20be 6163 45bd
00000230: b5f3 cb3c 4589 d43c 56a0 bc3c 9f7b 113e
00000240: f9f7 7bbd b2b1 0abe eac7 093e 1448 9f3d
00000250: bbff 8d3c cf83 92be 3b45 84be 9956 01be
00000260: 73f6 ed3c f2d4 f43d 10d9 e9bc 664b 23bc
00000270: 7562 913d 97f6 a53d e0a7 673e 46fb a73e
00000280: a599 073e cdaa 2cbe 3e54 5abe c4c9 9fbd
00000290: 7a2b c4bd c0f3 02be 9a1b 723d eae5 06be
000002a0: 2336 69be 9a1d 39be 1d33 04be 6974 f1bd
000002b0: 2020 8dbc 0024 c73d 25b4 babc a177 843d
000002c0: a2a7 0c3c 94c1 853d f6fd fe3b e6b0 85be
000002d0: 5a62 493d ad13 2dbe e9c5 6c3d 4706 613c
000002e0: 7fc2 fcbd 9ef9 3d3d 1c2b 303e 7bda 7f3d
000002f0: db1c 233d 9ce0 d93d 2eb0 56bd ebbe 7a3e
00000300: 46e4 3c3e 5c9c 88bd 4299 c6bd ab5b ff3d
00000310: f40a 453e 006c 5cbe b440 c7bd d771 0dbe
00000320: 71b3 b23d 83e6 803c 73c2 f8bd 964c c53e
00000330: a017 6d3e 1dfe 853e 77a0 b2bd 936f 023e
00000340: c02b adbc eb96 23be 048d 2dbc 2301 5a3d
00000350: ef97 fbbc 56e7 4dbe 9f0c 8e3d 3c29 e43d
00000360: 2db0 063e 9dfc 853d 59b8 07be e906 2b3d
00000370: 1ee7 56bb d25f 8b3e 700f 2c3e fc2b 2e3e
00000380: f989 3a3e 4520 4a3c 796b 99bd 69ac c63c
00000390: 04e6 5d3e a6d9 c73c 1015 2a3e d942 4b3e
000003a0: 5329 673d 694a d7bc 7a51 8e3e 5c95 193e
000003b0: a264 84be 658e 13bd 0f42 5bbe df52 8ebd
000003c0: 1c67 2fbd 4619 1a3e 220c 87bb 3ec3 8f3d
000003d0: 66bd 853e 4be8 6dbd b6f9 c1be 29c4 02bd
000003e0: 1c36 13be cd8c 4dbc baef c63e 073d 963d
000003f0: 543b 08be ab6d 533e 2d91 4f3e a858 4cbe

hiden_layers.1.bias f4 [64]
0.022914598 0.018688746 0.04012471 -0.11188709 -0.20945679 -0.046058774 -0.017189058 -0.08382219
-0.08978208 -0.0026306128 0.093615346 -0.06597256 0.05816876 -0.06810655 -0.1770326 0.014325178
0.09243738 0.0017236228 -0.12058673 -0.06270396 0.07295411 0.03755054 0.06813756 0.16180766
-0.049809694 -0.07072114 0.18329151 0.07421839 -0.21074069 0.0054033464 0.05964776 -0.048717868
-0.15326367 -0.08583272 0.09872132 0.11470674 0.10984351 -0.16734856 0.12140927 -0.16280939
0.196623 0.08368912 -0.062777855 -0.096853465 -0.05440509 -0.08373568 -0.1401637 0.056749728
0.058257688 -0.07788104 -0.031115334 -0.000931564 0.027778417 0.115066454 -0.050460722 0.04434328
-0.056195136 0.087289475 -0.010248804 -0.0019617882 0.061442956 -0.004900513 -0.051772766 0.052916028
00000000: 65b7 bb3c 2419 993c cf59 243d 0f25 e5bd
00000010: d77b 56be 20a8 3cbd 11d0 8cbc f8aa abbd
00000020: abdf b7bd 5c66 2cbb 67b9 bf3d 9f1c 87bd
00000030: 5e42 6e3d 727b 8bbd 0948 35be 27b4 6a3c
00000040: cf4f bd3d 2feb e13a 2df6 f6bd ef6a 80bd
00000050: f768 953d 98ce 193d b48b 8b3d e8b0 253e
00000060: 4005 4cbd 3fd6 90bd c5b0 3b3e d0ff 973d
00000070: 68cc 57be 8e0e b13b 3651 743d 638c 47bd
00000080: 27f1 1cbe 11c9 afbd 672e ca3d 5eeb ea3d
00000090: a2f5 e03d 6c5d 2bbe 6ca5 f83d 81b7 26be
000000a0: 8a57 493e 3465 ab3d ad91 80bd 1c5b c6bd
000000b0: dfd7 5ebd 9d7d abbd 1387 0fbe 6772 683d
000000c0: 9d9f 6e3d 1880 9fbd 96e5 febc 3434 74ba
000000d0: 908f e33c f6a7 eb3d e7af 4ebd 4da1 353d
000000e0: df2c 66bd d3c4 b23d 9aea 27bc 5891 00bb
000000f0: 9cab 7b3d 7c94 a0bb ae0f 54bd 7abe 583d

hiden_layers.2.weight f4 [64, 64]
-0.11869698 0.36444277 0.35798082 -0.023781838 -0.0037574796 -0.19752088 -0.17138262 -0.506817
-0.48134604 -0.28560042 0.20706533 0.09101641 -0.15547371 0.03378268 -0.006625707 0.22034238
0.22263776 0.013393093 0.03763557 -0.077100925 0.1463334 0.21368186 -0.1522257 0.14978874
0.09194023 -0.1550277 -0.32084033 -0.099160336 0.057786282 -0.082826875 0.19269998 0.03474436
-0.11309339 -0.07541808 -0.23803784 -0.08878007 0.18209861 0.046160612 -0.0822661 0.029819373
-0.19476135 0.07855147 -0.082984164 0.026108436 0.07246928 -0.09494664 0.086131416 0.20154215
-0.034570396 -0.2304247 -0.075123124 -0.3489466 0.022460705 0.055043623 0.031334925 0.15541585
-0.18886617 0.14651649 0.32137856 -0.16579904 -0.15185492 0.07005416 0.11818408 0.235441
0.055898316 0.009386202 0.097367175 0.18555154 0.20377804 0.13218486 0.36169988 0.27182817
0.08915177 0.12679295 0.2007576 0.08183555 -0.069137394 -0.12770967 -0.066661544 0.073002174
-0.08970831 -0.0749461 -0.20473257 -0.117345616 0.075443625 -0.10737846 0.0049269297 0.04407131
-0.044729844 0.047028873 0.2339166 0.08523277 -0.111713655 0.0903477 -0.022425206 -0.052732643
0.0080389455 0.2180157 -0.099318735 0.16207479 0.16303308 0.0748985 0.033719115 -0.3531692
-0.14843275 -0.07649899 -0.019992635 0.026957896 -0.007151396 -0.030625924 -0.064344704 0.2504749
-0.16511422 0.26268166 -0.06544646 -0.10873458 -0.12493457 0.21935159 -0.12149698 -0.17966728
0.19813775 -0.012740194 -0.094252154 0.5483644 0.0572198 0.20510592 0.126954 -0.15213847
0.2378945 -0.22593355 -0.14105347 -0.2148927 0.15785858 0.038561687 -0.2645256 0.050885975
-0.1041682 0.20710552 0.067818485 0.20831302 -0.017974177 0.14210966 -0.20931806 0.2078525
0.11119835 -0.06254264 0.1050659 -0.20779604 -0.17942722 0.12340137 0.28622007 -0.16855659
-0.1553831 -0.07327275 -0.12392425 -0.101692036 0.16807501 0.011124499 0.07703292 0.23756893
-0.10119201 -0.11305792 -0.025639609 0.1368425 0.14690545 -0.015791684 -0.21427087 0.22909789
0.1744805 0.0017039885 -0.08248741 -0.08692961 0.043672837 -0.05704769 -0.09574595 0.107676096
0.22791256 0.0766106 -0.104562245 0.20625785 -0.10175963 0.11826382 0.03191462 -0.13704506
-0.22823249 0.17006098 -0.22012328 -0.5270935 0.102630176 -0.03254928 0.10474733 0.16479132
-0.049769375 -0.16801478 0.020004744 0.14455718 -0.20449004 -0.16613096 0.073841624 -0.27945432
0.051002625 0.06742247 0.18474112 -0.24903129 0.049800914 0.07402272 -0.11279462 0.07526133
0.15477543 -0.21996026 -0.2682323 -0.0073758867 -0.08676141 0.049172126 0.25744006 -0.0021152108
-0.18562724 -0.13167648 0.13196658 0.11367332 -0.049327433 0.15161483 0.1601939 -0.31631145
-0.33225226 -0.12960182 0.24057218 0.3349006 0.09714535 0.07660998 0.06710701 -0.16703394
0.18924856 -0.112241365 -0.032787506 -0.090613306 -0.026835652 -0.20443569 -0.08195997 0.062533
-0.026573638 -0.023130018 0.16664611 -0.13944806 -0.019493187 -0.03263854 -0.0106778545 -0.088566415
0.040993832 0.0059645073 -0.061144724 0.262199 0.32967165 -0.15045044 0.1483169 0.0050855163
00000000: 6717 f3bd 3e98 ba3e 4349 b73e 21d2 c2bc
00000010: 0c40 76bb ea42 4abe ed7e 2fbe c2be 01bf
00000020: fd72 f6be 383a 92be ef08 543e d066 ba3d
00000030: 8034 1fbe b55f 0a3d 751c d9bb 6fa1 613e
00000040: 27fb 633e b46e 5b3c c127 1a3d 17e7 9dbd
00000050: 6cd8 153e 6bcf 5a3e 0ee1 1bbe 3862 193e
00000060: 294b bc3d 95bf 1ebe 2f45 a4be 9314 cbbd
00000070: 4fb1 6c3d 23a1 a9bd 2553 453e 1a50 0e3d
00000080: 829d e7bd cb74 9abd 31c0 73be 53d2 b5bd
00000090: 0f78 3a3e e912 3d3d 217b a8bd c247 f43c
000000a0: 856f 47be 98df a03d 9af3 a9bd 5ce1 d53c
000000b0: c66a 943d 6273 c2bd ab65 b03d 1161 4e3e
000000c0: b099 0dbd 74f4 6bbe 27da 99bd 21a9 b2be
000000d0: 83ff b73c 6c75 613d 0d59 003d 5525 1f3e
000000e0: 2266 41be 6b08 163e bb8b a43e 39c7 29be
000000f0: db7f 1bbe 8e78 8f3d 7f0a f23d 7217 713e
00000100: a2f5 643d 96c8 193c 7168 c73d 3901 3e3e
00000110: 31ab 503e 785b 073e ba30 b93e 102d 8b3e
00000120: 3495 b63d 03d6 013e 6693 4d3e 6699 a73d
00000130: e897 8dbd 53c6 02be d985 88bd 2a82 953d
00000140: feb8 b7bd 577d 99bd 6aa5 51be e652 f0bd
00000150: 3082 9a3d 3de9 dbbd 1572 a13b 1e84 343d
00000160: a436 37bd 59a1 403d d587 6f3e 858e ae3d
00000170: 21ca e4bd 3708 b93d 11b5 b7bc 2ffe 57bd
00000180: c8b5 033c 823f 5f3e 9f67 cbbd eff6 253e
00000190: 25f2 263e 6364 993d 0e1d 0a3d 98d2 b4be
000001a0: c1fe 17be 81ab 9cbd 98c7 a3bc ced6 dc3c
000001b0: 4256 eabb 38e3 fabc 28c7 83bd 3f3e 803e
000001c0: b413 29be 367e 863e cb08 86bd 3cb0 debd
000001d0: b2dd ffbd b49d 603e 69d3 f8bd b3fa 37be
000001e0: 9fe4 4a3e 3fbc 50bc 4607 c1bd 9c61 0c3f
000001f0: 4f5f 6a3d 4907 523e 3b00 023e 30ca 1bbe
00000200: 9e9a 733e 205b 67be 5270 10be d50c 5cbe
00000210: aea5 213e dcf2 1d3d e66f 87be d06d 503d
00000220: 2356 d5bd 7813 543e 6be4 8a3d 0250 553e
00000230: 953e 93bc 3285 113e 7957 56be 49d7 543e
00000240: f6bb e33d 5b16 80bd ca2c d73d 7cc8 54be
00000250: c5bb 37be dcb9 fc3d 708b 923e 199a 2cbe
00000260: bf1c 1fbe 0610 96bd ffcb fdbd ea43 d0bd
00000270: db1b 2c3e 8843 363c 70c3 9d3d 4545 733e
00000280: c23d cfbd e98a e7bd 280a d2bc 7120 0c3e
00000290: 626e 163e 905d 81bc d369 5bbe a398 6a3e
000002a0: 04ab 323e 5e58 df3a 29ef a8bd 2708 b2bd
000002b0: 4ae2 323d d7aa 69bd 7416 c4bd 4985 dc3d
000002c0: e961 693e 05e6 9c3d bb24 d6bd 4235 533e
000002d0: 5a67 d0bd 4d34 f23d e8b8 023d 8a55 0cbe
000002e0: c7b5 69be 7724 2e3e ff67 61be 9aef 06bf
000002f0: c52f d23d 6552 05bd c585 d63d 0ebf 283e
00000300: f9da 4bbd 110c 2cbe fde0 a33c cc06 143e
00000310: d665 51be 3c1e 2abe 473a 973d a314 8fbe
00000320: 21e8 503d cb14 8a3d c72c 3d3e 0f02 7fbe
00000330: 0bfc 4b3d 3999 973d de00 e7bd 9d22 9a3d
00000340: 737d 1e3e 433d 61be be55 89be 6cb1 f1bb
00000350: f7af b1bd b668 493d 2fcf 833e 599f 0abb
00000360: 1115 3ebe 33d6 06be 3f22 073e 8fcd e83d
00000370: 900b 4abd eb40 1b3e df09 243e 93f3 a1be
00000380: f81c aabe 57b6 04be 8e58 763e 1778 ab3e
00000390: 24f4 c63d b1e5 9c3d 666f 893d f20a 2bbe
000003a0: 60ca 413e cdde e5bd 314c 06bd 7893 b9bd
000003b0: 71d6 dbbc 9757 51be a1da a7bd 4d11 803d
000003c0: f5b0 d9bc 2a7b bdbc 47a5 2a3e 79cb 0ebe
000003d0: 2db0 9fbc fdaf 05bd 2bf2 2ebc 4f62 b5bd
000003e0: 26e9 273d ea71 c33b e472 7abd f33e 863e
000003f0: b9ca a83e ae0f 1abe 63e0 173e 67a4 a63b

hiden_layers.2.bias f4 [64]
0.035134826 -0.046892308 0.0017787265 0.16936138 -0.022521913 0.051877156 -0.0024440761 0.26905984
-0.06738182 -0.029415427 0.07599973 0.06981922 0.083399095 0.05932853 -0.057313044 -0.07399599
0.048240222 -0.13177805 -0.06112415 0.032237142 -0.10184778 -0.14493386 0.13844338 -0.17646524
-0.06223133 0.054722607 -0.06769708 0.04914051 -0.069322415 0.09105102 0.115805656 -0.18240699
-0.05891933 -0.07670598 0.019961184 -0.12002909 0.114602044 0.1420322 0.02199126 0.087294035
0.05035481 0.062063977 0.03735885 0.053502608 0.13456164 -0.08948444 -0.007942149 0.0606351
0.01623692 0.013791869 0.43903023 -0.011093449 -0.068643875 -0.09388025 -0.20733908 -0.049315944
-0.0927727 -0.028435802 0.06796288 0.020089136 0.09190909 -0.055759035 -0.08781523 -0.07345529
00000000: 89e9 0f3d 2612 40bd 2824 e93a 126d 2d3e
00000010: e07f b8bc 247d 543d cb2c 20bb 36c2 893e
00000020: 7bff 89bd 9ff8 f0bc bfa5 9b3d 61fd 8e3d
00000030: 25cd aa3d 7902 733d 15c1 6abd 368b 97bd
00000040: 8a97 453d d3f0 06be 515d 7abd 180b 043d
00000050: 9295 d0bd 8b69 14be 1ac4 0d3e 4eb3 34be
00000060: 47e6 7ebd d024 603d c4a4 8abd 8f47 493d
00000070: e9f8 8dbd f578 ba3d 842b ed3d e6c8 3abe
00000080: 6555 71bd 0618 9dbd a385 a33c d0d1 f5bd
00000090: 7ab4 ea3d e470 113e 0427 b43c 37c7 b23d
000000a0: d840 4e3d cc36 7e3d 9805 193d 8d25 5b3d
000000b0: 87ca 093e 9e43 b7bd ca1f 02bc 835c 783d
000000c0: 4a03 853c 4bf7 613c 92c8 e03e 4cc1 35bc
000000d0: 2995 8cbd 4a44 c0bd b250 54be 84ff 49bd
000000e0: 9dff bdbd 33f2 e8bc 1f30 8b3d f991 a43c
000000f0: d53a bc3d 9663 64bd 79d8 b3bd ba6f 96bd

hiden_layers.3.weight f4 [64, 64]
-0.3124322 0.41459438 0.124162465 0.024222586 0.07721406 0.03349483 -0.121092014 -0.2565113
0.05881314 0.15566446 0.2518685 -0.08298833 0.20637362 -0.1505254 0.09839391 -0.17153886
-0.14636937 -0.21732752 0.14580522 -0.17472373 0.5442648 -0.3402061 0.20235737 0.21947317
0.1136179 0.13665284 0.02872896 -0.0012383786 0.24848354 0.1770764 -0.11097625 0.32840884
0.07103975 0.029391397 -0.09231431 0.069391966 0.06551461 0.09874236 0.11291669 -0.060229015
0.038007423 0.039431605 -0.21534051 -0.06449614 0.1134056 0.321941 -0.005010139 -0.09544604
0.25533432 -0.25029802 -0.08140323 -0.2066525 0.2559561 0.14830317 0.09161828 -0.03117281
0.057849236 0.07294588 -0.24734813 0.09860825 -0.021432936 0.1178282 -0.0784222 0.13071294
-0.22373334 -0.01108844 -0.04773658 0.107658714 -6.878212e-07 0.14671665 -0.2959087 0.066542275
0.0786111 -0.19811843 0.2020523 0.20310487 0.20429881 -0.045439344 -0.19139509 0.11734689
0.117493376 -0.023194682 0.12573715 0.24812414 0.2267344 -0.18031913 0.0037505755 0.09444458
-0.1275749 0.07758214 0.21432577 -0.23785345 0.18810794 -0.17084365 -0.33053783 0.2676168
0.04677546 -0.15980177 0.5621086 0.050355818 -0.048120875 -0.25584212 -0.19869986 0.12016851
0.06481435 -0.010389913 -0.03303906 0.21592434 0.1128235 0.08503059 0.09159042 0.019651564
0.2244683 -0.12369461 -0.1586128 0.19133417 0.19509853 0.16290101 -0.057339985 0.19506948
0.30367938 -0.09489727 0.094251305 -0.008844815 0.19547905 0.060264956 0.027743442 0.34776685
0.308669 0.23269974 -0.10348898 -0.120422795 -0.24289504 0.19856152 0.089005604 -0.09455705
0.058365557 -0.00891808 -0.090887696 0.1317785 -0.08005545 -0.0534459 0.1338134 0.04006284
-0.026762737 0.13437109 -0.1788703 -0.17647766 0.035490576 0.10080576 -0.11422315 0.19133902
0.048707474 -0.0018200243 -0.15433931 -0.05029475 0.056349546 -0.13962495 -0.11905478 -0.0525652
-0.2262888 -0.039261796 -0.046734292 0.12153993 -0.06492524 -0.03168368 0.07185492 0.054205794
0.29933617 -0.1748117 -0.10643039 0.06500662 0.04028804 -0.22712024 0.23597205 -0.117089935
-0.15655273 -0.14700206 0.2560655 0.11578154 0.05390768 -0.05178951 -0.19043915 -0.21167268
-0.21924496 -0.15645908 0.058732193 0.15609072 0.21455142 -0.07367964 0.008981905 0.16400656
0.02641888 -0.14221658 -0.033725243 0.014370391 -0.15725769 -0.039626352 0.13852207 -0.32218522
0.053522725 -0.21570332 -0.2665398 -0.2994013 -0.18090129 -0.26066035 -0.15882719 0.08286156
-0.15598057 0.1214117 -0.033800002 -0.0880489 0.154811 -0.014142265 -0.07416481 -0.07136391
0.04797191 0.12111438 0.053648412 0.20880337 0.17000294 -0.13204476 0.072983 0.034325812
0.26635107 0.29179668 0.11913341 -0.39813113 -0.27172658 -0.050856024 -0.18224232 -0.10524445
0.028498618 -0.5239736 -0.31763038 -0.042225342 -0.0060602264 -0.17400208 0.24087165 0.09825513
-0.08539529 0.029376386 -0.041789707 -0.25278452 0.062190227 0.20518306 -0.07626473 0.37293884
0.086829506 0.1364375 0.18998282 -0.12892656 -0.020892976 -0.2684637 -0.17086917 0.012369257
00000000: 1df7 9fbe b745 d43e e448 fe3d 726e c63c
00000010: 6822 9e3d e031 093d 17ff f7bd 7355 83be
00000020: 0ce6 703d 8166 1f3e e8f4 803e c9f5 a9bd
00000030: 9b53 533e 5523 1abe bf82 c93d e2a7 2fbe
00000040: dae1 15be 1b8b 5ebe f74d 153e c7ea 32be
00000050: f054 0b3f 7e2f aebe c536 4f3e 93bd 603e
00000060: 80b0 e83d b9ee 0b3e ff58 eb3c 1751 a2ba
00000070: 7872 7e3e 8453 353e 8447 e3bd 3425 a83e
00000080: 4a7d 913d 3ac6 f03c 490f bdbd 601d 8e3d
00000090: 862c 863d 6f39 ca3d de40 e73d b3b2 76bd
000000a0: acad 1b3d 0983 213d 3982 5cbe 8d16 84bd
000000b0: 3241 e83d 73d5 a43e 182c a4bb 3779 c3bd
000000c0: 2ebb 823e 1027 80be bdb6 a6bd b79c 53be
000000d0: ae0c 833e c9dc 173e 5da2 bb3d 1f5e ffbc
000000e0: 52f3 6c3d a664 953d d448 7dbe 1ff3 c93d
000000f0: 2094 afbc e94f f13d d29b a0bd 9dd9 053e
00000100: 5a1a 65be 4aac 35bc 6f87 43bd 2c7c dc3d
00000110: b7a2 38b5 e43c 163e 5881 97be 5147 883d
00000120: dbfe a03d 8fdf 4abe cce6 4e3e b9fa 4f3e
00000130: b533 513e 9b1e 3abd 13fd 43be 9153 f03d
00000140: 5ea0 f03d c602 bebc 3dc1 003e 4114 7e3e
00000150: 102d 683e 94a5 38be 37cc 753b 296c c13d
00000160: ffa2 02be 63e3 9e3d 3778 5b3e db8f 73be
00000170: 5e9f 403e a3f1 2ebe 413c a9be 1205 893e
00000180: a097 3f3d 13a3 23be 59e6 0f3f e741 4e3d
00000190: 651a 45bd bdfd 82be fa77 4bbe e81a f63d
000001a0: 63bd 843d 743a 2abc f753 07bd 451b 5d3e
000001b0: 0210 e73d 8524 ae3d c293 bb3d 51fc a03c
000001c0: 05db 653e 9a53 fdbd 656b 22be 1bed 433e
000001d0: e9c7 473e 86cf 263e 55dd 6abd 4bc0 473e
000001e0: dd7b 9b3e 8059 c2bd d406 c13d d8e9 10bc
000001f0: a92b 483e 63d8 763d 3746 e33c 7f0e b23e
00000200: dd09 9e3e d748 6e3e 08f2 d3bd 3aa0 f6bd
00000210: 7ab9 78be b653 4b3e 9248 b63d 20a7 c1bd
00000220: b910 6f3d 231d 12bc 5423 babd f1f0 063e
00000230: 1df4 a3bd 17ea 5abd 6106 093e ef18 243d
00000240: 873d dbbc 9398 093e c729 37be 8fb6 34be
00000250: 915e 113d 4073 ce3d d4ed e9bd 60ee 433e
00000260: 7d81 473d e28d eeba 200b 1ebe de01 4ebd
00000270: c8ce 663d d8f9 0ebe fed2 f3bd 9b4e 57bd
00000280: 40b8 67be fad0 20bd 756c 3fbd ede9 f83d
00000290: 86f7 84bd bfc6 01bd ac28 933d e506 5e3d
000002a0: 9742 993e d701 33be 2df8 d9bd 3122 853d
000002b0: 1205 253d 3592 68be a8a2 713e d9cc efbd
000002c0: 5c4f 20be b587 16be 041b 833e df1e ed3d
000002d0: 4dce 5c3d 3d21 54bd 7b02 43be b9c0 58be
000002e0: c081 60be cf36 20be 2b91 703d 3fd6 1f3e
000002f0: 5eb3 5b3e 5ae5 96bd d728 133c 56f1 273e
00000300: 686c d83c 39a1 11be 7b23 0abd ca71 6b3c
00000310: 2908 21be 3e4f 22bd bbd8 0d3e 76f5 a4be
00000320: a53a 5b3d 55e1 5cbe e877 88be 214b 99be
00000330: 303e 39be 4675 85be 98a3 22be 52b3 a93d
00000340: 5fb9 1fbe b3a6 f83d df71 0abd fb52 b4bd
00000350: c686 1e3e f5b4 67bc b8e3 97bd 3e27 92bd
00000360: 327e 443d d10a f83d 70be 5b3d 8dd0 553e
00000370: 4015 2e3e be36 07be 1c78 953d 3999 0c3d
00000380: 2b5f 883e 6066 953e 38fc f33d d8d7 cbbe
00000390: bf1f 8bbe 684e 50bd bb9d 3abe 678a d7bd
000003a0: ef75 e93c 2223 06bf 73a0 a2be 7bf4 2cbd
000003b0: dd94 c6bb 9a2d 32be 0fa7 763e fc39 c93d
000003c0: bae3 aebd bfa6 f03c af2b 2bbd f96c 81be
000003d0: 2ebb 7e3d 821b 523e af30 9cbd d7f1 be3e
000003e0: abd3 b13d 46b6 0b3e db8a 423e 5305 04be
000003f0: bf27 abbc 1374 89be 54f8 2ebe 6da8 4a3c

hiden_layers.3.bias f4 [64]
-0.034251984 -0.0033258898 0.08859607 -0.03936654 -0.07840144 -0.115662575 0.051110633 -0.027219288
-0.12682725 0.08746318 0.21661028 -0.0998475 0.18117361 -0.05252041 -0.069901004 -0.11684445
0.0028257312 0.13952471 -0.025388418 0.07673877 0.20766789 -0.15744604 -0.011970872 -0.0045852778
-0.101162076 0.085452385 -0.25194144 0.014817102 0.05885772 -0.021921398 0.007582974 0.13695242
-0.060686298 -0.0053177252 -0.03312949 -0.06602258 0.1219808 0.3327721 -0.022395112 0.0020667294
-0.088934354 0.05506929 0.10271962 -0.009999124 -0.06833291 -0.13759166 0.0819698 0.061063137
0.083687946 -0.08430571 -0.11369849 -0.059259105 -0.06466383 -0.06486897 0.08030226 -0.17880298
0.10680679 -0.14640346 -0.15759315 0.05540661 -0.112786934 0.026848081 0.06302651 -0.029020369
00000000: cf4b 0cbd 2cf7 59bb db71 b53d cf3e 21bd
00000010: ef90 a0bd 80e0 ecbd 6259 513d fcfa debc
00000020: 01df 01be e51f b33d 16cf 5d3e d97c ccbd
00000030: 9385 393e a41f 57bd 4228 8fbd 254c efbd
00000040: e72f 393b 91df 0e3e 5ffb cfbc 3729 9d3d
00000050: e4a6 543e 8939 21be 7a21 44bc 1940 96bb
00000060: 102e cfbd a901 af3d 78fe 80be 6ec3 723c
00000070: cb14 713d 8194 b3bc 997a f83b 413d 0c3e
00000080: 3292 78bd 5040 aebb cab2 07bd d936 87bd
00000090: 12d1 f93d 1b61 aa3e f475 b7bc f771 073b
000000a0: 3723 b6bd 5690 613d aa5e d23d 5ed3 23bc
000000b0: 20f2 8bbd d4e4 0cbe c8df a73d 571d 7a3d
000000c0: 9664 ab3d 79a8 acbd c1da e8bd adb9 72bd
000000d0: 786e 84bd 06da 84bd 8375 a43d 2118 37be
000000e0: 85bd da3d caea 15be 1960 21be 0bf2 623d
000000f0: d6fc e6bd 82f0 db3c 0b14 813d 20bc edbc

hiden_layers.4.weight f4 [64, 64]
-0.22933598 -0.09548283 -0.004470172 -0.22437885 0.084443174 0.01808665 -0.34290966 0.26876962
0.12670967 -0.030555736 -0.12000041 0.11268935 0.123659246 -0.10611809 -0.16018726 -0.085879356
-0.09366973 0.008648293 0.22108413 0.2597067 -0.3746323 0.031332444 -0.25555703 -0.08182152
-0.030670114 -0.0937427 0.108374886 0.17398055 -0.09702179 -0.20183063 -0.033738483 -0.022928461
0.15856472 0.016145261 0.16139533 -0.033998467 0.1061961 0.02059434 -4.7408346e-05 -0.111224994
-0.2687752 0.07784142 0.19008113 0.12036847 0.056744564 0.36376572 0.419586 -0.19682492
-0.24880655 -0.17916782 0.121902145 -0.07287608 -0.11437706 0.18408667 0.081335254 -0.5543471
0.11455874 0.0526644 -0.25544256 -0.29508722 0.25006816 -0.1272517 0.016805284 -0.21758682
0.018441103 -0.44181785 -0.074152134 0.08505905 -0.30133474 0.031328972 -0.33456314 -0.094590805
-0.01933171 -0.10581459 -0.0194921 -0.19993943 0.035745036 0.13852583 -0.11555896 0.016679188
-0.52712566 -0.09358521 0.46348563 0.26185587 0.16482244 -0.024893036 0.5019103 0.15314616
-0.2709849 -0.30221766 -0.094895534 0.1978421 -0.095709324 -0.08934693 -0.38777652 0.18289469
0.1918741 -0.044367496 0.002505227 -0.046510823 -0.07732912 -0.14298083 0.032337047 0.03951689
0.1213206 -0.2763016 0.07310509 0.3687892 -0.10632375 0.2497092 0.009891917 -0.041113198
-0.34747723 0.29167077 -0.2062212 0.01531178 -0.07544076 -0.098831445 0.27784964 -0.12152952
0.004215255 -0.18557997 0.070802644 0.01911649 0.1454524 -0.1930605 0.0347547 0.15325935
-0.00881924 0.0068825576 -0.18208271 -0.08631861 -0.06507964 -0.15033959 -0.26127908 -0.01280975
0.11329061 -0.28022268 -0.056301236 -0.16972867 0.0038182673 0.24545543 0.02810382 -0.075765766
-0.18460453 0.12432461 -0.0044160406 0.282349 -0.16454652 -0.23853657 -0.117247224 -0.11258108
-0.28544715 -0.24767573 0.11942483 0.15475588 -0.023469007 0.24285382 -0.26729405 0.2757416
-0.30377617 0.114056796 -0.11204213 0.32333076 -0.10766437 0.24741152 0.03349659 0.21809629
0.020413075 -0.02027532 -0.21239522 0.14197421 0.011066329 0.08451972 -0.010816479 0.12883855
0.08578112 0.04708996 0.32179546 -0.26177195 -0.24437264 0.2723481 -0.027347768 0.08020784
0.05603301 0.30409932 0.17131948 0.21326451 -0.06506861 -0.048466623 0.09362685 0.34918898
0.080013275 -0.0005079409 -0.03709755 0.26445982 0.300758 0.034366786 0.04464515 -0.16372924
0.03317054 -0.05017184 0.23135234 0.14296791 0.022624709 -0.16309239 0.32649022 0.24815165
0.17460272 -0.025339356 -0.42398435 -0.34685478 0.020699918 0.042814218 0.23466165 0.07506595
0.2030941 -0.30145562 0.10437452 -0.10679299 -0.07186311 -0.020386675 -0.0620088 -0.26261562
-0.039663523 0.08774889 -0.15680362 -0.14365654 0.1826035 -0.051954865 -0.056300048 0.03457281
-0.05058279 0.017445812 -0.19763952 0.23260012 0.12954314 -0.10623751 -0.14401971 -0.15524286
0.16007999 0.15655054 -0.08451945 0.12434146 0.08783036 0.12630226 0.068854734 0.17253189
-0.2616726 -0.07777175 0.17487635 0.0908782 0.16289164 -0.09041666 0.3489029 0.21594287
00000000: 0dd7 6abe 818c c3bd 857a 92bb 92c3 65be
00000010: 8bf0 ac3d 742a 943c db91 afbe 2c9c 893e
00000020: 2ec0 013e 0650 fabc c6c2 f5bd adc9 e63d
00000030: 0f41 fd3d 7154 d9bd 2108 24be 84e1 afbd
00000040: ead5 bfbd 92b1 0d3c e163 623e 47f8 843e
00000050: cecf bfbe 7356 003d 5fd8 82be 0b92 a7bd
00000060: e43f fbbc 2cfc bfbd a7f3 dd3d f527 323e
00000070: 5cb3 c6bd b0ac 4ebe 5d31 0abd 78d4 bbbc
00000080: ca5e 223e 1143 843c d144 253e fa41 0bbd
00000090: 577d d93d 76b5 a83c 53d8 46b8 eec9 e3bd
000000a0: e79c 89be 536b 9f3d a1a4 423e bf83 f63d
000000b0: fd6c 683d 803f ba3e fad3 d63e 798c 49be
000000c0: 25c7 7ebe c577 37be d5a7 f93d 0e40 95bd
000000d0: 853e eabd 3781 3c3e 1993 a63d b1e9 0dbf
000000e0: c69d ea3d a0b6 573d 5ec9 82be ac15 97be
000000f0: ef08 803e 454e 02be 3cab 893c 14cf 5ebe
00000100: cc11 973c f335 e2be 13dd 97bd 7033 ae3d
00000110: 8c48 9abe cf52 003d dc4b abbe d3b8 c1bd
00000120: 895d 9ebc 52b5 d8bd e6ad 9fbc ecbc 4cbe
00000130: 6369 123d b7d9 0d3e 2daa ecbd cba2 883c
00000140: b5f1 06bf 9aa9 bfbd fd4d ed3e f911 863e
00000150: 37c7 283e 7bec cbbc 327d 003f 59d2 1c3e
00000160: 88be 8abe 46bc 9abe 9758 c2bd 1f97 4a3e
00000170: 4003 c4bd 86fb b6bd a58a c6be bf48 3b3e
00000180: a57a 443e b1ba 35bd bc2e 243b 2282 3ebd
00000190: bb5e 9ebd 9169 12be da73 043d 76dc 213d
000001a0: ef76 f83d 6777 8dbe 1fb8 953d f0d1 bc3e
000001b0: 44c0 d9bd c5b3 7f3e b511 223c 5066 28bd
000001c0: 89e8 b1be df55 953e a62b 53be 43de 7a3c
000001d0: af80 9abd 2468 cabd 4f42 8e3e 78e4 f8bd
000001e0: 1f20 8a3b ad08 3ebe fa00 913d 2f9a 9c3c
000001f0: 79f1 143e a7b1 45be f25a 0e3d 05f0 1c3e
00000200: 937e 10bc 1487 e13b e473 3abe d0c7 b0bd
00000210: 7948 85bd 9ff2 19be 5fc6 85be fcdf 51bc
00000220: e804 e83d 5979 8fbe 209c 66bd 5acd 2dbe
00000230: e53b 7a3b ab58 7b3e fb39 e63c 152b 9bbd
00000240: f808 3dbe e79d fe3d 6fb4 90bb 0c90 903e
00000250: e27e 28be ee42 74be 501f f0bd e990 e6bd
00000260: 2126 92be b59e 7dbe 0195 f43d 5378 1e3e
00000270: 1342 c0bc acae 783e c4da 88be 012e 8d3e
00000280: 8d88 9bbe 9c96 e93d 5876 e5bd 9c8b a53e
00000290: 237f dcbd 7259 7d3e b833 093d a254 5f3e
000002a0: 5239 a73c 6e18 a6bc 227e 59be b061 113e
000002b0: 8c4f 353c ad18 ad3d 9a37 31bc 41ee 033e
000002c0: 03ae af3d 67e1 403d 60c2 a43e f906 86be
000002d0: d23c 7abe 3671 8b3e 6d08 e0bc 0244 a43d
000002e0: df82 653d e8b2 9b3e 606e 2f3e 0362 5a3e
000002f0: b142 85bd f084 46bd 6fbf bf3d e6c8 b23e
00000300: 00de a33d 5627 05ba 9af3 17bd 4767 873e
00000310: f4fc 993e 30c4 0c3d d5dd 363d a3a8 27be
00000320: d5dd 073d fd80 4dbd a1e7 6c3e 2e66 123e
00000330: 7457 b93c b101 27be ba29 a73e 771b 7e3e
00000340: 0ecb 323e 7b94 cfbc 7a14 d9be f396 b1be
00000350: e092 a93c f65d 2f3d 254b 703e 2dbc 993d
00000360: e6f7 4f3e 6458 9abe 4fc2 d53d 48b6 dabd
00000370: f72c 93bd f501 a7bc f1fc 7dbd 8e75 86be
00000380: 3876 22bd b1b5 b33d 2191 20be b31a 13be
00000390: 69fc 3a3e a0ce 54bd e19a 66bd 389c 0d3d
000003a0: e62f 4fbd 85ea 8e3c 0462 4abe ba2e 6e3e
000003b0: f5a6 043e 0d93 d9bd e779 13be fcf7 1ebe
000003c0: 02ec 233e c94e 203e 8918 adbd bca6 fe3d
000003d0: 67e0 b33d 6155 013e b603 8d3d 33ac 303e
000003e0: f3f9 85be cc46 9fbd c912 333e 5a1e ba3d
000003f0: 11cd 263e 5f2c b9bd 67a3 b23e 2120 5d3e

hiden_layers.4.bias f4 [64]
-0.11886741 0.08154729 0.029706422 -0.01646588 0.022564694 -0.013617455 -0.007957521 -0.0560379
0.058236815 0.23962007 -0.05472574 0.10345648 0.07245558 -0.017995872 0.00027248744 0.012404246
0.048590843 0.03388459 0.0046529747 -0.03541628 0.14465284 0.13361438 -0.062016007 -0.069493026
0.112386875 0.15430646 -0.21298431 0.007811513 -0.07610748 0.017547084 0.07095844 0.043739296
-0.034058392 -0.013146804 -0.011277575 0.020489294 -0.14815226 0.054438617 0.018731508 -0.057021573
-0.15661466 0.2615121 0.0008394492 0.021918315 -0.07935397 0.35926932 -0.16932383 0.015984617
0.13589782 -0.16888526 -0.00990323 0.16435891 -0.0118175475 0.10171166 0.14275274 0.03589227
-0.19824523 -0.016394606 -0.12173261 -0.03403535 0.017922292 0.054050352 0.192306 0.032370914
00000000: c270 f3bd 4402 a73d e25a f33c 74e3 86bc
00000010: 98d9 b83c bf1b 5fbc 4360 02bc ff87 65bd
00000020: ba89 6e3d f75e 753e 1928 60bd fee0 d33d
00000030: 9763 943d 146c 93bc a5dc 8e39 2e3b 4b3c
00000040: 3107 473d 91ca 0a3d fb77 983b a910 11bd
00000050: e01f 143e 35d2 083e 7f04 7ebd 5c52 8ebd
00000060: 172b e63d 8302 1e3e 8f18 5abe b8f7 ff3b
00000070: 3dde 9bbd e7be 8f3c a952 913d fa27 333d
00000080: d080 0bbd b165 57bc 94c5 38bc 2ad9 a73c
00000090: 3ab5 17be 07fb 5e3d d272 993c 748f 69bd
000000a0: 985f 20be eae4 853e 7b0e 5c3a 0a8e b33c
000000b0: 5684 a2bd 26f2 b73e 3a63 2dbe 2cf2 823c
000000c0: cc28 0b3e 42f0 2cbe 2841 22bc b44d 283e
000000d0: 639e 41bc 344e d03d c62d 123e c603 133d
000000e0: cc00 4bbe fb4d 86bc f24e f9bd a768 0bbd
000000f0: c5d1 923c e763 5d3d ddeb 443e 5d97 043d
