results/2_same_with_zoom/epoch200/model_weights.pth (torch, 484214 bytes, 88 tensors)

init_layer.0.weight f4 [64, 3]
-0.25359017 -0.10816118 0.15888102 0.13248293 0.014749539 -0.05187842 -0.06194593 -0.20650503
-0.12357345 0.23958136 0.09983135 0.08676019 0.017966008 0.2570939 0.18411006 -0.13806954
-0.2706841 0.13724911 0.26622462 0.028462466 0.20704024 0.23372719 0.16221297 0.06715155
0.23469695 -0.28464538 0.055501133 -0.11903551 -0.18053225 0.20261373 -0.20987393 0.004590314
0.06372337 0.09044968 0.18689148 -0.18635315 -0.029795399 -0.085888565 -0.045577195 -0.103145406
0.029039586 0.16313072 0.08231243 -0.251377 -0.02848626 0.22182885 -0.19608441 -0.18825874
0.10920687 -0.12386528 0.21343274 0.21061686 0.21225382 -0.09352299 0.08515465 -0.015199388
-0.21721913 -0.11962935 0.14605893 -0.123443775 0.12323145 -0.11191103 -0.06819855 0.22943006
-0.025502367 -0.05281935 0.023299703 -0.23147708 -0.13464755 -0.06383584 0.13995686 -0.017936938
-0.05897711 -0.10778966 0.1886961 -0.10520306 0.19028021 -0.087568514 0.037716944 0.24443923
0.18615963 -0.12199551 -0.22568654 0.04256219 0.04523928 0.04689956 -0.1491514 0.050641548
-0.27405214 0.030532788 -0.27962938 -0.12694207 -0.07971994 -0.06313825 0.08410281 0.25567102
-0.07532798 0.23244737 0.11690068 -0.24998924 0.26134816 -0.046969853 -0.016589442 -0.088946275
-0.09304806 -0.06258136 -0.1772167 -0.25858656 0.032464664 -0.025869178 -0.18266377 -0.1727881
-0.09763373 -0.014881582 0.17297718 -0.14174253 0.23659699 -0.23131628 0.1689518 0.30681926
0.22661954 0.03878621 -0.22986756 -0.019257259 -0.08285479 -0.16919519 0.13168271 -0.085265085
0.26423264 0.016098103 -0.031767484 0.108049236 0.11068293 -0.21718973 -0.14633414 -0.29972687
-0.27866608 0.14518894 -0.019206272 -0.15197664 0.076961674 0.13267593 0.15544759 0.07991483
0.2255853 0.23566897 -0.013633284 0.11222069 -0.27925786 0.16275574 -0.06696055 -0.22253598
-0.116242886 -0.32978 -0.13232867 -0.06849447 0.22088097 -0.2656782 0.06314521 -0.12147419
-0.1743173 0.0141280545 0.11835609 -0.2093658 -0.23750879 0.18141942 0.003644183 0.18814237
0.17865397 0.06844388 0.21776515 0.04085601 -0.029915376 0.022967817 0.22061011 0.23645963
0.046280645 0.12634824 0.16110708 -0.12158197 -0.15361357 -0.24207646 -0.06548634 -0.14923812
0.08563314 -0.048831675 0.25230137 -0.026967514 0.047947794 0.23251195 0.04464435 0.11653805
00000000: 92d6 81be 9c83 ddbd b5b1 223e 9ba9 073e
00000010: 0da8 713c 777e 54bd 04bb 7dbd 0e76 53be
00000020: 1414 fdbd d154 753e 6174 cc3d 54af b13d
00000030: 732d 933c d0a1 833e 5987 3c3e 1a62 0dbe
00000040: 1b97 8abe 088b 0c3e 984e 883e 1e2a e93c
00000050: 5b02 543e 2e56 6f3e 281b 263e c086 893d
00000060: 6654 703e 0abd 91be 2855 633d e4c8 f3bd
00000070: 72dd 38be f979 4f3e 31e9 56be 586a 963b
00000080: 6681 823d af3d b93d 7b60 3f3e 5cd3 3ebe
00000090: 7b15 f4bc 58e6 afbd 27af 3abd e63d d3bd
000000a0: 6de4 ed3c bd0b 273e 6b93 a83d 7cb4 80be
000000b0: 045c e9bc 1a27 633e 5aca 48be e6c6 40be
000000c0: daa7 df3d 14ad fdbd 1d8e 5a3e f2ab 573e
000000d0: 1159 593e fb88 bfbd 9065 ae3d db06 79bc
000000e0: b16e 5ebe 3c00 f5bd 7990 153e 17d0 fcbd
000000f0: c560 fc3d 9c31 e5bd aeab 8bbd b7ef 6a3e
00000100: 57ea d0bc 1a59 58bd 05df be3c 5408 6dbe
00000110: 0ce1 09be 5dbc 82bd da50 0f3e 7cf0 92bc
00000120: fb91 71bd d3c0 dcbd 8d39 413e b474 d7bd
00000130: d1d8 423e 1f57 b3bd 157d 1a3d 474e 7a3e
00000140: a1a0 3e3e c8d8 f9bd 5f1a 67be b155 2e3d
00000150: d34c 393d c119 403d 25bb 18be 836d 4f3d
00000160: 9050 8cbe e61f fa3c 952b 8fbe 1afd 01be
00000170: 3544 a3bd a04e 81bd 183e ac3d 50e7 823e
00000180: 8e45 9abd af06 6e3e a069 ef3d 2efd 7fbe
00000190: 6dcf 853e 7663 40bd 95e6 87bc 7729 b6bd
000001a0: fb8f bebd a82a 80bd 4b78 35be 7565 84be
000001b0: abf9 043d 99eb d3bc 360c 3bbe 5def 30be
000001c0: 31f4 c7bd e1d1 73bc ee20 313e f424 11be
000001d0: 7b46 723e 2dde 6cbe b301 2d3e 6a17 9d3e
000001e0: f40e 683e 4ade 1e3d 6762 6bbe 66c1 9dbc
000001f0: c6af a9bd 8141 2dbe d5d7 063e 769f aebd
00000200: 8049 873e 2be0 833c 9f1e 02bd eb48 dd3d
00000210: bbad e23d fc66 5ebe 9ed8 15be cd75 99be
00000220: 52ad 8ebe 69ac 143e 7956 9dbc c49f 1bbe
00000230: 159e 9d3d 33dc 073e a72d 1f3e 63aa a33d
00000240: d5ff 663e 3553 713e 235e 5fbc f6d3 e53d
00000250: e3fa 8ebe 71a9 263e 9d22 89bd 79e0 63be
00000260: c010 eebd edd8 a8be 2b81 07be d446 8cbd
00000270: 9f2e 623e f906 88be 4752 813d 76c7 f8bd
00000280: 3c80 32be 5b79 673c ad64 f23d fd63 56be
00000290: 8135 73be 03c6 393e 3fd3 6e3b 65a8 403e
000002a0: 11f1 363e 4e2c 8c3d d4fd 5e3e a258 273d
000002b0: 1711 f5bc 0127 bc3c 9ee7 613e 7922 723e
000002c0: c690 3d3d 6f61 013e 41f9 243e f8ff f8bd
000002d0: e04c 1dbe e4e2 77be b41d 86bd e1d1 18be
000002e0: 6d60 af3d b903 48bd a52d 813e faea dcbc
000002f0: e864 443d 9d17 6e3e fedc 363d 80ab ee3d

init_layer.0.bias f4 [64]
-0.08578083 0.014661375 -0.061753493 -0.040407505 -0.06323262 -0.06279421 0.08188592 0.084979214
-0.051776074 0.056112543 -0.07756053 -0.05046201 0.045933727 -0.043793123 -0.035889786 0.065232806
-0.07839201 0.017950136 -0.0030352704 0.015643792 0.060974978 0.051149555 0.038397927 -0.00018390869
0.09646587 -0.06049266 0.06541267 0.0053270543 0.020953357 -0.04728021 -0.08602775 -0.07574925
0.025351025 -0.0054119267 -0.046044916 -0.0974062 0.085243784 -0.069480605 0.08497779 0.04929569
0.08832653 0.0624366 -0.051562868 0.018831752 0.061374076 -0.09314578 0.04827459 -0.05383597
0.054971725 0.075362295 0.042187158 -0.084731184 -0.0061991806 0.042314865 0.089575365 0.084754154
0.07923871 -0.027578322 0.065150246 0.06375078 -0.086176775 -0.085773595 0.06938632 0.0686198
00000000: dcad afbd 4436 703c 3bf1 7cbd 5782 25bd
00000010: 1b80 81bd 409a 80bd ceb3 a73d 9509 ae3d
00000020: 2613 54bd 44d6 653d 0ed8 9ebd 41b1 4ebd
00000030: 0125 3c3d 6b60 33bd 2b01 13bd c798 853d
00000040: fd8b a0bd 2a0c 933c 63eb 46bb 6927 803c
00000050: e6c0 793d 3282 513d 2547 1d3d 9dd7 40b9
00000060: e68f c53d 27c7 77bd 14f7 853d 928e ae3b
00000070: 60a6 ab3c e5a8 41bd 512f b0bd 6c22 9bbd
00000080: f4ac cf3c 8856 b1bb 9899 3cbd e77c c7bd
00000090: 4b94 ae3d d94b 8ebd d608 ae3d 47ea 493d
000000a0: 8ae4 b43d 85bd 7f3d 9633 53bd 0c45 9a3c
000000b0: 6263 7b3d 37c3 bebd 94bb 453d 1b83 5cbd
000000c0: 082a 613d 8c57 9a3d 71cc 2c3d 8b87 adbd
000000d0: 7f22 cbbb 5a52 2d3d 4a73 b73d 9693 ad3d
000000e0: e847 a23d efeb e1bc 7e6d 853d c58f 823d
000000f0: 737d b0bd 11aa afbd 6a1a 8e3d 8a88 8c3d

hiden_layers.0.weight f4 [64, 64]
-0.16151029 -0.020651938 0.13144273 0.07096531 -0.17894141 -0.008715551 0.08094106 -0.16226585
-0.054473054 -0.054898076 0.028624162 0.18978824 0.050508786 0.19203708 0.13301186 -0.21030007
-0.050807774 -0.1020531 -0.060768474 -0.11950503 -0.093975596 0.06529988 -0.022550046 -0.20593567
0.16148314 0.038944848 -0.09846434 -0.17167963 -0.09940976 -0.043742254 -0.20491165 -0.020160941
-0.06569015 0.0005274573 0.14714698 -0.020620957 -0.013886684 0.008679394 0.18825391 0.11232075
0.064886376 -0.07508468 0.076474495 -0.07638979 -0.07197717 -0.046201188 0.0051515275 -0.2241061
0.20243296 -0.13237047 -0.1410326 0.04266351 -0.008133868 -0.029743776 0.15247323 0.22078691
-0.14423022 -0.13054267 -0.1288342 0.091416605 0.050914075 -0.079844214 -0.025380515 -0.15073536
-0.03595773 -0.20358604 -0.20727561 0.15091951 -0.1709388 -0.0923101 0.15821445 -0.1991504
0.020937612 -0.17184524 0.23356885 -0.14793116 0.0089384895 0.05086467 0.019458605 0.14752577
-0.014327038 0.17166431 -0.009199694 -0.0103135975 -0.061530527 -0.2133623 0.10763515 0.13594659
-0.020291237 -0.07428164 0.23309787 0.15751164 0.09225096 0.11697013 -0.14774708 -0.12897576
0.014239716 0.021155355 0.119108595 0.11015229 0.19981019 -0.025009705 -0.047632102 0.18421905
-0.08504351 -0.03425602 -0.20731243 0.051461104 0.091069795 -0.20299248 0.18716545 -0.19446647
-0.058360696 -0.07960623 -0.079080336 -0.10076536 0.105413064 -0.13663799 0.14088853 0.12921336
-0.17988418 -0.09902384 -0.18373048 -0.17662945 0.195842 0.16538824 0.16408463 -0.10330148
0.11303515 -0.03407058 0.18998009 0.017721796 -0.19353911 -0.008699649 -0.025984488 -0.16084808
0.12617303 -0.088101245 -0.035310563 0.16190696 0.09830342 -0.21726952 0.23401132 -0.10971158
-0.05464166 -0.17014466 0.07656696 -0.10685424 -0.007757312 -0.113903604 -0.16278273 -0.047442105
-0.02728194 -0.13459818 -0.039685506 0.18720722 -0.045834653 -0.13389657 0.22735588 0.2238117
-0.21175441 -0.14638504 0.23479304 0.23445272 -0.11014793 -0.13191867 -0.034227863 -0.022618411
-0.20741133 -0.07236626 0.21984404 0.20014682 0.19210368 0.042977665 -0.044683076 0.028943425
-0.009847758 0.054109614 -0.119947344 -0.03840475 0.098471776 -0.056745574 -0.13666669 0.02779526
-0.2302288 0.19841187 -0.17041957 -0.16794959 0.1974753 -0.1613279 -0.11282189 0.17546727
0.11431005 -0.1044312 0.0010187343 -0.030537106 0.1392486 0.09362375 -0.010618497 -0.122154854
-0.2863099 -0.17164718 0.04211121 0.052530535 -0.12075736 -0.07096157 -0.03601051 -0.13798803
-0.1083705 0.17369823 0.1614985 -0.08456235 0.18011989 -0.0940395 -0.18075494 -0.07128986
0.22395362 0.053110495 -0.015882026 -0.0668066 -0.10612171 -0.2197352 -0.19532983 0.023087516
-0.100020945 0.11898506 -0.18771508 -0.015226078 -0.01664617 -0.19407341 0.02951295 -0.005316237
-0.16650406 -0.018472215 0.03170938 0.20706007 0.01624373 0.021089304 0.06927384 0.08641459
0.13506582 -0.13477038 0.16723569 -0.121092625 -0.22221975 0.13113083 0.18463303 0.10046283
-0.17156017 -0.15825485 -0.06237673 0.14845492 -0.1254804 -0.09668889 0.010006921 -0.055918057
00000000: f462 25be 412e a9bc ec98 063e 4356 913d
00000010: 6b3c 37be accb 0ebc 6dc4 a53d 0529 26be
00000020: 231f 5fbd cedc 60bd 387d ea3c d957 423e
00000030: 4de2 4e3d 5ea5 443e 4334 083e e758 57be
00000040: d01b 50bd 3701 d1bd 5de8 78bd 0ebf f4bd
00000050: 4776 c0bd f2bb 853d e0ba b8bc cde0 52be
00000060: d65b 253e a284 1f3d aca7 c9bd c9cc 2fbe
00000070: 5897 cbbd 142b 33bd 5cd4 51be 8f28 a5bc
00000080: 8f88 86bd 0f45 0a3a b3ad 163e 48ed a8bc
00000090: f984 63bc 0434 0e3c a2c5 403e 6c08 e63d
000000a0: 26e3 843d ffc5 99bd a99e 9c3d 4072 9cbd
000000b0: c468 93bd 753d 3dbd 25ce a83b 127c 65be
000000c0: 964a 4f3e 208c 07be da6a 10be efbf 2e3d
000000d0: ea43 05bc 38a9 f3bc f121 1c3e f715 623e
000000e0: 16b1 13be faac 05be 1ded 03be a138 bb3d
000000f0: 478b 503d 5d85 a3bd ccea cfbc 5f5a 1abe
00000100: 6a48 13bd dc78 50be 0f40 54be a58a 1a3e
00000110: 950a 2fbe 140d bdbd f802 223e 15ee 4bbe
00000120: 5b85 ab3c 33f8 2fbe ac2c 6f3e 447b 17be
00000130: be72 123c 7957 503d a767 9f3c ff10 173e
00000140: f4bb 6abc c5c8 2f3e 50ba 16bc 5dfa 28bc
00000150: 6f07 7cbd a67b 5abe d16f dc3d 9535 0b3e
00000160: cf39 a6bc f920 98bd 35b1 6e3e bb4a 213e
00000170: 12ee bc3d 098e ef3d 034b 17be 3912 04be
00000180: b34d 693c ff4d ad3c 35ef f33d 8697 e13d
00000190: 0b9b 4c3e 27e1 ccbc e119 43bd eba3 3c3e
000001a0: 4b2b aebd 0a50 0cbd b649 54be e1c8 523d
000001b0: cd82 ba3d 43dd 4fbe 4da8 3f3e 3822 47be
000001c0: a00b 6fbd 9708 a3bd dff4 a1bd 125e cebd
000001d0: cee2 d73d d4ea 0bbe 1545 103e 8250 043e
000001e0: 8f33 38be 03cd cabd d823 3cbe 5ade 34be
000001f0: ce8a 483e 895b 293e cd05 283e ba8f d3bd
00000200: f97e e73d 988d 0bbd 248a 423e 4d2d 913c
00000210: 1e2f 46be f988 0ebc 6cdd d4bc 5cb5 24be
00000220: 8133 013e 6d6e b4bd cfa1 10bd f0ca 253e
00000230: 4e53 c93d e77b 5ebe aaa0 6f3e 77b0 e0bd
00000240: efcf 5fbd 673a 2ebe 23cf 9c3d 65d6 dabd
00000250: 0d31 febb 4b46 e9bd 84b0 26be a752 42bd
00000260: 607e dfbc 1bd4 09be 458d 22bd 40b3 3f3e
00000270: 1ebd 3bbd 2f1c 09be fbcf 683e e52e 653e
00000280: 26d6 58be f6e5 15be 966d 703e 6014 703e
00000290: 3d95 e1bd b015 07be 8432 0cbd 3f4a b9bc
000002a0: a363 54be c334 94bd cc1e 613e 4af3 4c3e
000002b0: d4b6 443e 5909 303d 9a05 37bd c31a ed3c
000002c0: 7e58 21bc 0ba2 5d3d f4a6 f5bd 4d4e 1dbd
000002d0: 92ab c93d 0c6e 68bd 5af2 0bbe e3b2 e33c
000002e0: 19c1 6bbe 7b2c 4b3e 7882 2ebe fafa 2bbe
000002f0: f736 4a3e 2433 25be 2a0f e7bd b1ad 333e
00000300: 631b ea3d 06e0 d5bd 0d87 853a f428 fabc
00000310: 2f97 0e3e cfbd bf3d 34f9 2dbc 532c fabd
00000320: 3697 92be 47c4 2fbe ce7c 2c3d 422a 573d
00000330: a24f f7bd 4d54 91bd c27f 13bd bc4c 0dbe
00000340: 5af1 ddbd f3dd 313e dd5f 253e 062f adbd
00000350: 5971 383e c897 c0bd d317 39be 6b00 92bd
00000360: 1954 653e 648a 593d 061b 82bc e6d1 88bd
00000370: 5756 d9bd 4402 61be 8b04 48be 0822 bd3c
00000380: c8d7 ccbd 70ae f33d 6238 40be cd76 79bc
00000390: 8c5d 88bc 2ebb 46be 24c5 f13c d433 aebb
000003a0: 0a80 2abe 0b53 97bc b2e1 013d 8e07 543e
000003b0: 9211 853c 7ac3 ac3c 71df 8d3d 22fa b03d
000003c0: b24e 0a3e 3f01 0abe d53f 2b3e 69ff f7bd
000003d0: 938d 63be 2947 063e 7110 3d3e 75bf cd3d
000003e0: 78ad 2fbe 8f0d 22be be7e 7fbd 9104 183e
000003f0: ef7d 00be d304 c6bd 12f4 233c 550a 65bd

hiden_layers.0.bias f4 [64]
0.006844134 0.04045921 -0.06516061 0.049210753 0.0013777729 -0.043767992 0.07569164 -0.07134179
-0.02433075 0.012214734 0.05242817 0.03690481 0.07322892 -0.07884486 -0.012672575 -0.068261474
-0.0035790296 -0.025561048 0.0560211 -0.016317906 -0.033900928 0.054849643 -0.031608075 -0.017349152
0.032212395 0.048263784 -0.041472804 -0.043361228 0.0020197786 -0.0020887027 0.01339444 0.049937934
0.04448537 0.02858477 -0.037151046 0.04278006 -0.050195046 0.06533994 0.05197541 0.013817452
0.056533504 -0.03991433 0.05250832 -0.029891012 -0.049071636 -0.039528172 -0.08359316 -0.045798022
-0.010764814 0.042254943 0.07284638 -0.029954074 0.071989074 0.035838496 0.0022241836 -0.02079152
-0.059883486 -0.035732396 -0.0055643795 -0.04399369 -0.044020347 0.05382842 -0.08413605 -0.015922716
00000000: c244 e03b 8eb8 253d ed72 85bd 3791 493d
00000010: 6396 b43a 1146 33bd 3804 9b3d a51b 92bd
00000020: 4851 c7bc 4f20 483c ecbe 563d 8029 173d
00000030: 0bf9 953d 6a79 a1bd a2a0 4fbc accc 8bbd
00000040: 278e 6abb 6765 d1bc 6276 653d 21ad 85bc
00000050: b3db 0abd 05aa 603d 7877 01bd cf1f 8ebc
00000060: 25f1 033d 3fb0 453d 63df 29bd 8b9b 31bd
00000070: 435e 043b 9ee2 08bb 5a74 5b3c b88b 4c3d
00000080: 4b36 363d 9c2a ea3c b22b 18bd 253a 2f3d
00000090: 5299 4dbd f2d0 853d 2be4 543d 9862 623c
000000a0: ad8f 673d 357d 23bd f712 573d ffdd f4bc
000000b0: 57ff 48bd 4be8 21bd e432 abbd b596 3bbd
000000c0: e75e 30bc 8513 2d3d 7c30 953d 3f62 f5bc
000000d0: 026f 933d 63cb 123d 9cc3 113b fa52 aabc
000000e0: 6348 75bd 225c 12bd 6655 b6bb ba32 34bd
000000f0: ae4e 34bd 307b 5c3d 854f acbd 5b70 82bc

hiden_layers.1.weight f4 [64, 64]
0.008018225 0.06006917 -0.19126952 0.053116564 -0.18300368 0.17828217 -0.12059342 -0.114907555
-0.017911933 0.020365108 -0.0052816807 -0.110078715 0.083807275 0.07375647 0.008100382 -0.059521314
0.029960709 0.15016285 0.11859722 0.06083496 0.21207823 -0.12950428 0.03569656 -0.12060992
-0.03078556 -0.209904 -0.07092736 0.192107 0.060705744 -0.0047853584 -0.047566798 0.14694636
-0.19048895 0.18053581 -0.17042784 -0.16427752 -0.032748107 0.022873268 -0.028430996 0.16290434
0.08668836 0.16595237 -0.13441907 0.1472666 0.21333371 0.08151584 0.15090999 -0.19604214
-0.050529238 -0.15062541 -0.040068436 0.118084624 -0.12619688 -0.005124146 -0.053791318 -0.18675753
0.22099021 -0.13840799 -0.194775 0.10762283 0.09216851 0.04654597 0.009040107 -0.13466088
0.07355964 -0.0041200835 -0.20831515 0.09744518 -0.13895215 -0.07813618 -0.12769066 -0.09632101
0.08426429 -0.120192625 0.20845549 0.10315807 0.061236765 -0.038657777 0.014580157 -0.0007415214
0.102459535 -0.0922912 0.15734066 -0.039923564 0.041222185 0.17910491 -0.24774891 0.061337616
-0.024035178 0.1837269 0.00960954 -0.032908257 -0.08044109 0.028706506 -0.10053045 0.20500757
0.20593458 0.16414742 -0.19505084 -0.11858978 -0.1976131 0.03232878 -0.12754348 -0.21221241
-0.20642966 -0.2095736 0.09639579 -0.14157537 0.069721416 0.14884025 -0.22251903 -0.21980004
0.1657628 0.20946446 -0.17993334 -0.10235106 0.15582325 -0.027530447 0.16825639 -0.044154156
-0.052670952 0.05799372 -0.03850475 0.10816716 0.06419983 0.09896142 0.042865388 0.17610632
0.07704401 0.13079622 -0.042525418 0.06808247 0.09668636 0.18592915 -0.08972446 0.12455528
0.18013886 -0.046511423 -0.182243 -0.03759136 0.043145403 -0.023659032 0.13726254 -0.029553069
-0.15259863 -0.10382467 0.061839778 0.058601413 0.02933102 -0.21492311 -0.17524679 -0.20471929
-0.06739067 0.08746776 -0.15400223 -0.0538426 0.14930674 0.073178284 0.20999625 0.21514308
0.1137638 -0.1494407 -0.04780135 -0.09198336 -0.06143528 -0.13148963 0.044586368 -0.108357646
-0.09979515 -0.111558676 -0.14754915 -0.0427185 0.074742876 0.048304625 -0.08954157 0.09250996
-0.029216776 -0.02425774 0.05022957 -0.20056215 0.05323313 -0.16669175 0.08257864 0.028594153
-0.19678126 0.13802883 -0.07849819 0.017709414 0.0363905 0.09385961 -0.004217494 -0.012930177
0.12664141 -0.041317463 -0.17845474 0.16102643 0.21164969 -0.18930924 -0.05576156 -0.14301984
0.028810339 0.01663437 -0.15148683 0.2637783 0.24304543 0.09707435 -0.026130192 0.091869235
-0.035739668 -0.092731334 0.025020119 0.18074667 0.0071224095 -0.20242374 0.103699714 0.1385863
0.074931294 0.086722784 -0.026421234 -0.037654437 0.101287216 0.15299423 0.09679876 0.15265705
0.14818226 0.012163346 -0.119966045 0.043539405 0.06542676 -0.0017829963 0.13181928 0.14724837
0.12957437 -0.014071389 0.1785238 0.12794578 -0.11583918 -0.13516709 -0.22421825 -0.12754162
0.06322164 0.08670361 -0.03729389 0.065300085 0.18940088 -0.0442829 -0.23360491 -0.060362414
-0.17664878 -0.08198089 0.15088855 0.008083963 -0.18385328 0.24437079 0.087721966 -0.20756318
00000000: e05e 033c 170b 763d 28dc 43be c190 593d
00000010: 5165 3bbe 9a8f 363e aff9 f6bd a754 ebbd
00000020: 0cbc 92bc bad4 a63c f311 adbb f370 e1bd
00000030: 26a3 ab3d a20d 973d 77b7 043c 9fcc 73bd
00000040: 2970 f53c 4ac4 193e 19e3 f23d 142e 793d
00000050: 092b 593e c59c 04be 8e36 123d 5502 f7bd
00000060: 0032 fcbc 13f1 56be 5d42 91bd b3b7 443e
00000070: 96a6 783d 7fce 9cbb 67d5 42bd 1b79 163e
00000080: 890f 43be 61de 383e a384 2ebe 5e38 28be
00000090: e122 06bd b860 bb3c 1fe8 e8bc 65d0 263e
000000a0: ab89 b13d 6bef 293e 27a5 09be 0ecd 163e
000000b0: 2774 5a3e c7f1 a63d 2688 1a3e 45bf 48be
000000c0: bff7 4ebd 8c3d 1abe cd1e 24bd 5ad6 f13d
000000d0: c139 01be 74e8 a7bb 4954 5cbd 5e3d 3fbe
000000e0: 424b 623e d3ba 0dbe 1973 47be 5c69 dc3d
000000f0: d8c2 bc3d fda6 3e3d f51c 143c 8be4 09be
00000100: 70a6 963d c401 87bb 9150 55be 5791 c73d
00000110: 7949 0ebe dd05 a0bd 57c1 02be f343 c5bd
00000120: c292 ac3d 8d27 f6bd 5b75 553e 8a44 d33d
00000130: 67d3 7a3d 9e57 1ebd 9ce1 6e3c a962 42ba
00000140: 4ed6 d13d 2b03 bdbd e91d 213e e486 23bd
00000150: 98d8 283d 4767 373e e4b1 7dbe 273d 7b3d
00000160: 6ce5 c4bc e822 3c3e 5571 1d3c cfca 06bd
00000170: 4cbe a4bd e829 eb3c e9e2 cdbd 81ed 513e
00000180: 84e0 523e 4316 283e 68bb 47be 33df f2bd
00000190: 175b 4abe 2f6b 043d c29a 02be 364e 59be
000001a0: 4c62 53be 769a 56be 286b c53d 22f9 10be
000001b0: 1aca 8e3d 9469 183e 07dc 63be 4313 61be
000001c0: b9bd 293e da7d 563e 7240 38be 6f9d d1bd
000001d0: 2190 1f3e 8887 e1bc 674b 2c3e fdda 34bd
000001e0: 7fbd 57bd d38a 6d3d 28b7 1dbd be86 dd3d
000001f0: 337b 833d 49ac ca3d 9e93 2f3d 3755 343e
00000200: 40c9 9d3d 72ef 053e 222f 2ebd d26e 8b3d
00000210: 8003 c63d 3664 3e3e 75c1 b7bd d716 ff3d
00000220: 5276 383e c382 3ebd e99d 3abe 66f9 19bd
00000230: 3cb9 303d 96d0 c1bc 8d8e 0c3e 4719 f2bc
00000240: d142 1cbe 07a2 d4bd b54b 7d3d 0908 703d
00000250: 9b47 f03c ce14 5cbe e573 33be efa1 51be
00000260: 1f04 8abd 4c22 b33d c3b2 1dbe 0f8a 5cbd
00000270: dee3 183e 7fde 953d 4209 573e 784e 5c3e
00000280: fffc e83d fc06 19be 59cb 43bd c661 bcbd
00000290: 8fa3 7bbd 38a5 06be 32a0 363d 9dea ddbd
000002a0: 6661 ccbd e078 e4bd 2017 17be 98f9 2ebd
000002b0: cb12 993d 12db 453d 9261 b7bd dd75 bd3d
000002c0: 0558 efbc 2bb8 c6bc 86bd 4d3d 2a60 4dbe
000002d0: fc0a 5a3d 3eb1 2abe fd1e a93d 493e ea3c
000002e0: 0781 49be 6e57 0d3e a9c3 a0bd 5513 913c
000002f0: 340e 153d 7839 c03d e732 8abb 18d9 53bc
00000300: 49ae 013e 803c 29bd d7bc 36be 1de4 243e
00000310: b2ba 583e 48da 41be 3c66 64bd cb73 12be
00000320: a903 ec3c cd44 883c 5d1f 1bbe f30d 873e
00000330: e7e0 783e ebce c63d fc0e d6bc f025 bc3d
00000340: c263 12bd ede9 bdbd fef6 cc3c a815 393e
00000350: 1a63 e93b 2b48 4fbe 8460 d43d 91e9 0d3e
00000360: 9475 993d b79b b13d 5871 d8bc 8a3b 1abd
00000370: ac6f cf3d 85aa 1c3e 6e3e c63d 2152 1c3e
00000380: 17bd 173e c548 473c c2b0 f5bd 6056 323d
00000390: 77fe 853d 6eb3 e9ba a2fb 063e 47c8 163e
000003a0: 25af 043e af8b 66bc f1ce 363e 3804 033e
000003b0: 183d edbd 3e69 0abe 7899 65be 459a 02be
000003c0: 597a 813d aa91 b13d 7ac1 18bd 0dbc 853d
000003d0: 4ef2 413e fc61 35bd 2036 6fbe 943e 77bd
000003e0: 6be3 34be 99e5 a7bd 8782 1a3e 9972 043c
000003f0: 0944 3cbe 563c 7a3e 93a7 b33d 718b 54be

hiden_layers.1.bias f4 [64]
-0.023910832 0.043511618 0.029779464 0.018341556 -0.010214293 -0.055893004 -0.029228345 -0.040664256
-0.05558811 -0.041687187 0.031850014 -0.048813265 -0.04162191 -0.011114068 -0.038268868 -0.058898073
0.013940132 -0.030493101 -0.03676737 0.046840664 -0.052565925 0.018008478 -0.015683347 0.060096305
0.027255176 -0.04078057 0.049727745 0.011746067 -0.051732812 -0.046769407 -0.039902605 -0.03944177
-0.044850122 0.03139903 0.054510083 0.044372115 0.047594264 -0.046195302 0.027856413 0.017201524
-0.0067386096 -0.008186316 -0.025496839 -0.039170034 -0.03525928 0.035037227 -0.06087468 0.05578285
0.031518362 -0.036735244 0.0492417 -0.028001118 -0.022100292 0.031004928 -0.04281702 0.038076077
-0.0071273516 0.03733663 0.0323936 0.054435197 0.03666243 0.015049227 0.014962032 0.041316673
00000000: a6e0 c3bc 3d39 323d 10f4 f33c 0841 963c
00000010: da59 27bc 10f0 64bd 4870 efbc 908f 26bd
00000020: 5cb0 63bd 2fc0 2abd 2975 023d 6bf0 47bd
00000030: bc7b 2abd c817 36bc d1bf 1cbd 1b3f 71bd
00000040: 2765 643c abcc f9bc 6299 16bd ffdb 3f3d
00000050: 5e4f 57bd 8486 933c 5d7a 80bc 8b27 763d
00000060: 3f46 df3c 8709 27bd 52af 4b3d 9372 403c
00000070: c9e5 53bd 4791 3fbd ea70 23bd b28d 21bd
00000080: c3b4 37bd 459c 003d f745 5f3d 89bf 353d
00000090: 34f2 423d 4937 3dbd 2233 e43c 36ea 8c3c
000000a0: 8ecf dcbb e61f 06bc bfde d0bc c270 20bd
000000b0: 096c 10bd 3283 0f3d ba57 79bd 8f7c 643d
000000c0: 6619 013d b277 16bd aab1 493d 9a62 e5bc
000000d0: ac0b b5bc 0cfe fd3c e660 2fbd a9f5 1b3d
000000e0: 8f8c e9bb 4bee 183d 27af 043d 71f7 5e3d
000000f0: 582b 163d 0891 763c 5023 753c ac3b 293d

hiden_layers.2.weight f4 [64, 64]
-0.22283757 0.30874795 0.07683683 -0.006233749 -0.053813674 -0.06317847 -0.21361457 -0.18198673
-0.330508 -0.17581767 0.08425758 -0.14357346 -0.13922153 0.15207532 -0.1425364 0.19404772
0.18544784 0.0023874624 -0.016521534 -0.0705678 0.19524135 0.20449983 -0.08359029 0.23238374
0.15724641 -0.16980661 -0.24220721 -0.16015883 0.092973664 -0.11069243 0.17710881 -0.08471291
-0.18156873 0.07386108 -0.18710107 -0.027849814 0.14956103 0.00878003 0.07441854 0.0105098365
-0.15012045 0.006728753 -0.021153934 0.07066411 0.12659742 -0.13825001 0.036045503 0.15116347
0.02947934 -0.0628669 -0.04296428 -0.35067034 -0.11414974 0.13622198 0.1125728 0.12711278
-0.12094669 0.14845811 0.28415385 0.009155655 -0.0664399 -0.0015670238 0.05853193 0.31312683
0.0939059 -0.00049421104 0.12767005 0.14403872 0.23207027 0.14148532 0.15403457 0.22515444
0.093410105 0.15794939 0.17955138 0.16396885 -0.06998561 -0.07906739 -0.043683875 0.17749353
-0.10574689 0.075430185 -0.22853711 -0.13597296 0.036367368 -0.114277884 0.02467168 -0.18994877
-0.052478783 0.09618725 0.2126922 0.11015333 -0.088885054 0.05567623 -0.03366564 -0.0612263
0.037739486 0.19844179 -0.09165097 0.14369507 0.12397499 0.06790665 0.050244648 -0.23562698
-0.11936437 -0.109388 -0.014892587 0.021947868 0.025777243 -0.22432838 -0.08028717 0.2172087
-0.16768116 0.21255058 -0.10772435 -0.07387483 -0.13366419 0.15806738 -0.11585544 -0.19755144
0.2224403 -0.024536392 -0.08077273 0.1661435 0.055508673 0.22200112 0.09941215 -0.21104097
0.221085 -0.21940452 -0.10862647 -0.11950643 0.13166738 0.051670913 0.18766734 0.021901814
-0.09760876 0.25317147 0.008306841 0.21386547 0.02701089 0.15217353 -0.14363128 0.16703252
0.07957121 -0.2061086 0.13622482 -0.21971942 -0.20341001 0.060388096 0.1698563 -0.17221107
-0.0699017 -0.09091037 -0.09581101 -0.027901871 0.097473346 0.09282947 0.11089341 0.25449952
-0.10438729 -0.15775186 -0.047570694 0.10929581 0.18578462 -0.0021961567 -0.21711968 0.16604526
0.18906033 0.0131982025 -0.13394932 -0.11246873 0.14850289 0.03887547 -0.035848252 -0.03369795
0.19739078 0.06049496 -0.20407812 0.2555021 -0.1590576 0.17494847 0.14842235 -0.10132784
-0.19177924 0.12097034 -0.256434 -0.10972989 0.057115484 0.018307112 0.15951397 0.12584552
0.0002515857 -0.1538388 -0.02874071 0.24699697 -0.2580959 -0.17652646 0.13027796 -0.1406046
0.06588599 0.1257636 0.18696114 -0.17975485 0.08252221 0.1340865 -0.043114077 -0.013297948
0.08204259 -0.28540328 -0.20600888 -0.027778324 -0.20772791 -0.021663617 0.13825676 -0.019924048
-0.017464025 -0.047043417 0.1496559 0.04198924 -0.04818714 0.1835457 0.09215274 -0.20030662
-0.24446122 -0.096431084 0.3178974 0.20190568 0.06353534 0.0855511 -0.032571677 -0.09561684
0.23479456 -0.22053604 0.018188301 -0.027886916 0.0072625275 0.02367864 -0.08696713 0.006076707
-0.07456695 0.07592723 0.21648175 -0.2220512 -0.029832048 -0.09140589 0.09815811 -0.05776534
0.09546555 -0.0811028 -0.08224125 0.31342876 0.18000764 -0.1866002 0.2381735 -0.0004275075
00000000: 882f 64be 3614 9e3e a15c 9d3d 7a44 ccbb
00000010: ba6b 5cbd b763 81bd c7bd 5abe bb5a 3abe
00000020: 5838 a9be 8c09 34be 3d8f ac3d ec04 13be
00000030: 1790 0ebe a2b9 1b3e 10f5 11be 72b4 463e
00000040: 0ae6 3d3e f976 1c3b 2b58 87bc da85 90bd
00000050: 59ed 473e 6768 513e 6331 abbd 01f6 6d3e
00000060: 3405 213e c9e1 2dbe 2b05 78be ad00 24be
00000070: fa68 be3d b6b2 e2bd 035c 353e f67d adbd
00000080: 27ed 39be 7a44 973d 6c97 3fbe 4b25 e4bc
00000090: 8726 193e 1dda 0f3c bf68 983d 7331 2c3c
000000a0: 2db9 19be df7c dc3b 044b adbc 58b8 903d
000000b0: c1a2 013e 6991 0dbe 73a4 133d 99ca 1a3e
000000c0: a87e f13c 5cc0 80bd 50fb 2fbd 108b b3be
000000d0: 57c7 e9bd c67d 0b3e 918c e63d da29 023e
000000e0: e6b2 f7bd 6705 183e 9d7c 913e 9a01 163c
000000f0: a411 88bd 9864 cdba 2dbf 6f3d 2952 a03e
00000100: bd51 c03d f18d 01ba f0bb 023e e37e 133e
00000110: d4a3 6d3e 87e1 103e 3dbb 1d3e e38e 663e
00000120: cc4d bf3d 7cbd 213e 51dc 373e 73e7 273e
00000130: 9e54 8fbd 15ee a1bd dded 32bd ddc0 353e
00000140: d391 d8bd 247b 9a3d a205 6abe 7f3c 0bbe
00000150: f3f5 143d 860a eabd 431c ca3c ee81 42be
00000160: fef3 56bd d2fd c43d fccb 593e 1298 e13d
00000170: 5e09 b6bd c20c 643d fbe4 09bd 6ec8 7abd
00000180: b894 1a3d 5334 4b3e 81b3 bbbd cd24 133e
00000190: 99e6 fd3d a412 8b3d 55cd 4d3d 3348 71be
000001a0: 4f75 f4bd d106 e0bd 0a00 74bc 04cc b33c
000001b0: cc2a d33c 57b6 65be 9a6d a4bd f56b 5e3e
000001c0: 9cb4 2bbe dca6 593e 969e dcbd b04b 97bd
000001d0: 44df 08be 6adc 213e 9e45 edbd ed4a 4abe
000001e0: 64c7 633e 8b00 c9bc 2c6c a5bd 8621 2a3e
000001f0: 105d 633d 4354 633e 9998 cb3d 201b 58be
00000200: 1b64 623e 94ab 60be 8e77 debd cabf f4bd
00000210: d0d3 063e e1a4 533d de2b 403e 6f6b b33c
00000220: 1ae7 c7bd b19f 813e 6b19 083c 8dff 5a3e
00000230: f145 dd3c 61d3 1b3e 1414 13be 930a 2b3e
00000240: 3bf6 a23d 220e 53be 857e 0b3e 21fe 60be
00000250: b74a 50be 8259 773d cfee 2d3e 1958 30be
00000260: 9f28 8fbd 372f babd 9038 c4bd 7792 e4bc
00000270: 1ba0 c73d 611d be3d 161c e33d c34d 823e
00000280: 01c9 d5bd b489 21be 7dd9 42bd 7bd6 df3d
00000290: 533e 3e3e 65ed 0fbb 9f54 5ebe c507 2a3e
000002a0: 0899 413e 463d 583c 032a 09be 0156 e6bd
000002b0: 2411 183e e33b 1f3d 9ed5 12bd dd06 0abd
000002c0: cf20 4a3e 90c9 773d dbf9 50be 2cd1 823e
000002d0: ffdf 22be b125 333e 07fc 173e f884 cfbd
000002e0: c761 44be 4cbf f73d 514b 83be 11ba e0bd
000002f0: edf1 693d ccf8 953c a157 233e a6dd 003e
00000300: 43e7 8339 eb87 1dbe a371 ebbc c6ec 7c3e
00000310: 2525 84be 5ac3 34be 9667 053e a7fa 0fbe
00000320: 3cef 863d 2cc8 003e be72 3f3e a811 38be
00000330: 6801 a93d f94d 093e 6398 30bd a3df 59bc
00000340: f205 a83d 6120 92be fef3 52be 5e8f e3bc
00000350: a0b6 54be e677 b1bc 2e93 0d3e c237 a3bc
00000360: b710 8fbc 99b0 40bd 653f 193e e9fc 2b3d
00000370: e15f 45bd 67f3 3b3e 93ba bc3d 2e1d 4dbe
00000380: 0b54 7abe a97d c5bd 73c3 a23e 5dc0 4e3e
00000390: d11e 823d 6a35 af3d e169 05bd c3d2 c3bd
000003a0: fc6d 703e 33d4 61be a2ff 943c 1a73 e4bc
000003b0: 7ffa ed3b b5f9 c13c d31b b2bd 1d1f c73b
000003c0: 8fb6 98bd bc7f 9b3d 64ad 5d3e 6461 63be
000003d0: 5762 f4bc 0333 bbbd 1f07 c93d 599b 6cbd
000003e0: 7183 c33d 3a19 a6bd 1a6e a8bd bc79 a03e
000003f0: ec53 383e 1f14 3fbe c1e3 733e 1623 e0b9

hiden_layers.2.bias f4 [64]
0.03322882 -0.019724356 -0.02794378 0.03676091 -0.011266281 0.010069468 -0.02382547 -0.0061035925
-0.050878126 -0.022590939 0.013038861 -0.034853816 0.0330895 -0.011873741 -0.031618208 0.02654204
0.013124227 -0.027667852 -0.04342354 0.030332867 -0.06088196 0.010687599 0.051317673 -0.023969164
-0.000940184 0.025574543 0.04377152 0.004005611 -0.051522207 0.035637505 0.11224607 -0.03768897
-0.024021994 -0.041961525 -0.044862255 -0.002858704 0.04289138 0.023947345 -0.035635106 0.044126462
0.0052411556 0.01761317 -0.045894783 0.039219163 0.0011125025 0.03966922 -0.03658358 0.046240997
0.036418926 -0.043506883 0.029650582 -0.0023860272 -0.04519098 -0.027408145 -0.01779103 -0.023415275
0.023792848 -0.018176166 -0.042235523 0.026199324 0.06279137 -0.027162334 -0.03482874 0.041866064
00000000: f11a 083d f994 a1bc 5bea e4bc 9c92 163d
00000010: 3596 38bc 69fa 243c a22d c3bc a500 c8bb
00000020: 9565 50bd a210 b9bc f2a0 553c e0c2 0ebd
00000030: db88 073d 148a 42bc 1882 01bd b16e d93c
00000040: ff06 573c b1a7 e2bc e2dc 31bd a27c f83c
00000050: 5d5f 79bd 0a1b 2f3c 7b32 523d fb5a c4bc
00000060: ae76 76ba b481 d13c c449 333d 8041 833b
00000070: f308 53bd a2f8 113d 44e1 e53d c05f 1abd
00000080: c6c9 c4bc d9df 2bbd 7cc1 37bd 1859 3bbb
00000090: dfae 2f3d 392d c43c 1ef6 11bd f3bd 343d
000000a0: 00be ab3b 7f49 903c 2bfc 3bbd 46a4 203d
000000b0: 64d1 913a 317c 223d aad8 15bd 3367 3d3d
000000c0: 032c 153d 4634 32bd c7e5 f23c e55e 1cbb
000000d0: 2d1a 39bd 0c87 e0bc 7fbe 91bc 64d1 bfbc
000000e0: 38e9 c23c 2fe6 94bc 28ff 2cbd f79f d63c
000000f0: c398 803d 8b83 debc 95a8 0ebd c07b 2b3d

hiden_layers.3.weight f4 [64, 64]
-0.12539302 0.20008186 0.20545526 -0.034807168 -0.0778073 0.15124685 -0.07612063 -0.24754283
0.051473666 0.06766626 0.1556702 0.016217284 0.1904587 -0.17187445 0.25679782 -0.08013794
-0.0992125 -0.14886871 0.112341054 -0.17998725 0.24219948 -0.25829402 0.1726132 0.1863513
0.13964319 -0.005609524 -0.10768402 -0.06427143 0.1885303 0.13070832 -0.10621581 0.28913584
0.08975385 0.0927574 -0.10542458 0.1439652 0.014466663 0.034489848 0.09527985 -0.095802955
0.068966635 0.12759495 -0.20018265 -0.19260229 0.13239685 0.19813971 0.067540474 -0.09775316
0.18224663 -0.17178993 -0.123805195 -0.18364751 0.1804803 0.22121409 0.1664747 -0.1376579
0.13464831 0.091817744 -0.17255573 0.022567714 0.0897546 0.21999718 -0.08649073 0.20070082
-0.1864547 -0.019355698 -0.0058356435 0.07430894 0.002228495 0.11642609 -0.19661906 0.098318264
-0.14248009 -0.17095934 0.18051444 0.099890605 0.1833824 -0.02810605 -0.0010422312 0.18696575
0.16676348 -0.04497991 0.21705508 0.17503457 0.20085347 -0.10124334 -0.085770845 0.21374284
-0.08084403 0.10717985 0.20791583 -0.19916284 0.17080142 -0.04200436 -0.22810006 0.15076777
0.15795931 -0.06554159 0.19048701 0.12000148 -0.078875035 -0.12136969 -0.18654232 0.076514706
0.015915517 -0.038858783 0.04496746 0.21215375 0.036756918 0.078782566 0.13616692 0.002620179
0.1491321 -0.16012502 -0.12146837 0.16836312 0.1473437 -0.07744202 -0.05518974 0.18893993
0.1777747 -0.13561662 0.103452794 0.034324832 0.09651502 0.13038613 0.0061439076 0.09623852
-0.20116761 0.17496583 -0.039582863 -0.0786815 -0.1389278 0.09455089 0.13224205 -0.19756815
0.21282272 -0.033529814 -0.042202793 0.13854226 -0.100299954 0.032679822 0.14750235 0.015808303
0.09036746 0.13757336 -0.15242381 -0.1953667 0.103085086 0.0062638996 -0.18410036 0.1326287
-0.030350093 0.08376066 -0.21118227 0.15263404 0.33220884 -0.21123931 -0.16386198 -0.09258748
-0.23096983 0.20913658 0.20138481 0.016869407 -0.066384725 -0.06238603 0.110659316 0.045120846
0.18596162 -0.2474635 -0.031907275 0.029332235 -0.002374069 -0.16541445 0.12016902 -0.2047251
-0.118329816 -0.1646522 0.225515 0.17070529 0.009866173 -0.0730768 -0.18957947 -0.21354367
-0.17269856 -0.15781753 0.052254736 0.101175 0.121633865 0.076806195 0.04504527 -0.01769826
0.038144533 -0.110106006 0.106763445 -0.061430432 -0.21471223 -0.078685924 0.07687433 -0.12128196
0.08587523 -0.13406849 -0.18824287 -0.12910844 -0.20113078 -0.19170313 -0.08351457 -0.02904343
-0.0744809 0.0919408 0.09396178 0.054098744 0.12278442 -0.10254284 -0.1734696 -0.02400836
0.15486199 0.060011942 0.07545401 0.080731295 0.21550702 -0.21214905 0.06789948 0.073888615
0.1277822 0.18413264 0.104897015 -0.116934635 -0.23853475 -0.020182975 -0.13619335 -0.04289716
0.09937808 -0.19904004 -0.15972872 -0.0009992565 0.102425635 -0.13112728 0.15419713 0.13050608
-0.15018813 0.17371568 -0.089596786 -0.14882606 0.0939482 0.14925452 0.02372993 0.1533413
0.15086645 0.10744445 0.15429927 -0.12049178 -0.077365376 -0.17017175 -0.1268298 0.031698905
00000000: 0767 00be 42e2 4c3e dd62 523e f691 0ebd
00000010: 6f59 9fbd 74e0 1a3e 22e5 9bbd de7b 7dbe
00000020: 0dd6 523d 9c94 8a3d 0268 1f3e 1cda 843c
00000030: 9b07 433e dbff 2fbe 017b 833e 5c1f a4bd
00000040: ec2f cbbd 0a71 18be 1113 e63d 944e 38be
00000050: 2403 783e 1d3f 84be 84c1 303e e0d2 3e3e
00000060: a0fe 0e3e 19d0 b7bb 7189 dcbd bda0 83bd
00000070: 160e 413e 67d8 053e ad87 d9bd 9d09 943e
00000080: ded0 b73d 97f7 bd3d d8e8 d7bd 9d6b 133e
00000090: 9505 6d3c 3a45 0d3d 1522 c33d 5734 c4bd
000000a0: 613e 8d3d 40a8 023e aefc 4cbe 8939 45be
000000b0: 0a93 073e 23e5 4a3e a952 8a3d cf32 c8bd
000000c0: dc9e 3a3e b3e9 2fbe 948d fdbd 180e 3cbe
000000d0: d4cf 383e f285 623e 5878 2a3e 31f6 0cbe
000000e0: 3fe1 093e f10a bc3d 73b2 30be eddf b83c
000000f0: 42d1 b73d f146 613e 0d22 b1bd 8484 4d3e
00000100: fbed 3ebe d78f 9ebc ed38 bfbb 492f 983d
00000110: f10b 123b cd70 ee3d 8256 49be 165b c93d
00000120: 4de6 11be f70f 2fbe c7d8 383e 7293 cc3d
00000130: 99c8 3b3e a93e e6bc 7a9b 88ba f373 3f3e
00000140: 0cc4 2a3e db3c 38bd b043 5e3e 433c 333e
00000150: 88ac 4d3e ab58 cfbd a0a8 afbd 67df 5a3e
00000160: 8e91 a5bd 1c81 db3d e3e7 543e 58f1 4bbe
00000170: 91e6 2e3e c40c 2cbd 1093 69be de62 1a3e
00000180: 16c0 213e ab3a 86bd 070f 433e 56c3 f53d
00000190: 3c89 a1bd ac90 f8bd f304 3fbe beb3 9c3d
000001a0: 4261 823c 632a 1fbd cd2f 383d d53e 593e
000001b0: 6c8e 163d c158 a13d 576f 0b3e 4fb7 2b3b
000001c0: 16b6 183e d0f7 23be 69c4 f8bd 6267 2c3e
000001d0: 44e1 163e ec99 9ebd a30e 62bd 7879 413e
000001e0: 920a 363e 15df 0abe 0fdf d33d 3298 0c3d
000001f0: aba9 c53d f183 053e d552 c93b b418 c53d
00000200: e2fe 4dbe 3e2a 333e a421 22bd c423 a1bd
00000210: 1743 0ebe e6a3 c13d 766a 073e 4e4f 4abe
00000220: 33ee 593e 8f56 09bd d6dc 2cbd 06de 0d3e
00000230: 106a cdbd 47db 053d db0a 173e 6a80 813c
00000240: 9312 b93d 08e0 0c3e fd14 1cbe 350e 48be
00000250: 461e d33d 6641 cd3b ce84 3cbe d1cf 073e
00000260: c2a0 f8bc b58a ab3d 2a40 58be 194c 1c3e
00000270: 4717 aa3e 1e4f 58be 6fcb 27be 819e bdbd
00000280: 5b83 6cbe e627 563e d237 4e3e b631 8a3c
00000290: b7f4 87bd 7e88 7fbd 5aa1 e23d a3d0 383d
000002a0: b96c 3e3e 1267 7dbe 34b1 02bd 284a f03c
000002b0: 4596 1bbb 6862 29be 2d1b f63d 75a3 51be
000002c0: e756 f2bd 969a 28be 67ed 663e 5ecd 2e3e
000002d0: bba5 213c 4aa9 95bd 1f21 42be 31ab 5abe
000002e0: e4d7 30be eb9a 21be 1009 563d d734 cf3d
000002f0: 2d1b f93d 914c 9d3d 6481 383d f1fb 90bc
00000300: 713d 1c3d 427f e1bd cba6 da3d 7a9e 7bbd
00000310: 86dd 5bbe 1626 a1bd 4a70 9d3d ad62 f8bd
00000320: 5adf af3d 4049 09be bdc2 40be 0135 04be
00000330: 3af5 4dbe d34d 44be b009 abbd 7dec edbc
00000340: 7189 98bd 754b bc3d 096f c03d a596 5d3d
00000350: 6676 fb3d fb01 d2bd 04a2 31be 2ead c4bc
00000360: 2494 1e3e 15cf 753d a287 9a3d 7356 a53d
00000370: dfad 5c3e 9a3d 59be e20e 8b3d ea52 973d
00000380: 56d9 023e 448d 3c3e 3fd4 d63d 6d7b efbd
00000390: 7442 74be c456 a5bc 4576 0bbe efb4 2fbd
000003a0: bc86 cb3d 27d1 4bbe ed8f 23be 7cf9 82ba
000003b0: 88c4 d13d 3b46 06be dae5 1d3e 63a3 053e
000003c0: ebca 19be 86e2 313e 857e b7bd dc65 18be
000003d0: ea67 c03d 2dd6 183e 4565 c23c 8005 1d3e
000003e0: bc7c 1a3e d60b dc3d a100 1e3e 65c4 f6bd
000003f0: bd71 9ebd 8141 2ebe acdf 01be b6d6 013d

hiden_layers.3.bias f4 [64]
-0.03972736 -0.019365031 -0.03571242 -0.024876025 -0.0019417532 -0.033932447 0.02894257 0.023849426
-0.011644329 0.0123766605 0.031509094 0.042095702 0.052890636 0.033208646 -0.022888018 -0.026944244
-0.023924207 0.025895905 -0.009377381 0.028189257 0.01980422 -0.044152904 0.038912114 0.01853772
-0.03777338 0.02138204 -0.03149326 -0.037836764 -0.02412813 -0.027787516 0.015032728 0.026441842
-0.019289203 0.017843194 -0.030661093 0.021512127 0.014325264 0.027022278 0.0264165 0.02862969
-0.0758939 -0.041170407 0.047569565 0.006614089 -0.02929375 0.041216347 -0.018573457 0.011328503
-0.04115516 0.0076372074 -0.019428115 -0.022574576 -0.076162815 -0.01175606 0.049732912 -0.03692377
0.013298246 -0.0067198346 -0.042402003 -0.0041342517 0.027803933 0.015197981 -0.037787978 -0.026108054
00000000: 28b9 22bd 6aa3 9ebc 3047 12bd cec8 cbbc
00000010: 6d82 feba c0fc 0abd f818 ed3c df5f c33c
00000020: dbc7 3ebc 7ac7 4a3c ae0f 013d 8b6c 2c3d
00000030: daa3 583d ca05 083d a77f bbbc 2dba dcbc
00000040: b3fc c3bc a623 d43c 96a3 19bc 28ed e63c
00000050: 763c a23c add9 34bd 4f62 1f3d 6bdc 973c
00000060: 42b8 1abd 6329 af3c 14ff 00bd b9fa 1abd
00000070: 5ba8 c5bc a5a2 e3bc d54b 763c 909c d83c
00000080: 6404 9ebc e42b 923c f92c fbbc 333a b03c
00000090: 83b4 6a3c d35d dd3c 6a67 d83c d088 ea3c
000000a0: 436e 9bbd 4da2 28bd 4ed8 423d 00bb d83b
000000b0: 72f9 efbc 79d2 283d 5d27 98bc 2f9b 393c
000000c0: 5092 28bd 8a41 fa3b b627 9fbc 51ee b8bc
000000d0: 40fb 9bbd 7d9c 40bc bdb4 4b3d 613d 17bd
000000e0: e3e0 593c 0f32 dcbb b9ad 2dbd 9e78 87bb
000000f0: 13c5 e33c f400 793c 91c7 1abd 8fe0 d5bc

hiden_layers.4.weight f4 [64, 64]
-0.20923312 0.02303033 0.0926759 -0.18168189 0.09275781 -0.10508769 -0.028724598 0.10375278
-0.032280948 -0.051655885 -0.07852849 0.07318874 0.01983122 -0.1276196 -0.09920106 -0.06016978
-0.013418747 -0.07448872 0.09680545 0.14448613 -0.19192597 0.06540085 -0.22784713 -0.017458621
-0.05452115 -0.17159224 0.05143204 0.12840125 -0.16920817 -0.13260955 -0.07886186 -0.010399867
0.16592862 -0.029014533 0.04485989 -0.21363182 0.2147549 -0.09206116 -0.032860175 -0.0071004783
-0.11781961 -0.036139756 0.23357083 0.06351697 -0.011558347 0.10474415 0.2177979 -0.18384384
-0.2122079 -0.11095687 0.07418872 0.19346279 -0.20591246 0.1701674 0.21944785 -0.10417884
0.13575463 -0.008375556 -0.22791797 -0.19384088 0.052736524 -0.14963755 -0.048607975 -0.07249391
-0.046809394 -0.17391585 -0.1365357 0.0883588 0.10592294 0.035126116 -0.20283335 -0.007363862
-0.14864114 -0.03463009 -0.107731305 0.14903161 0.19842282 0.13692832 -0.09138302 0.057895165
-0.19536337 -0.085491925 0.09225601 0.026001005 0.14193532 0.17137045 0.25794953 0.084950075
-0.15716322 -0.22819112 -0.14484106 0.18957019 -0.0044172923 0.009917035 -0.1616696 -0.21710618
0.19967653 0.12525207 0.19511731 -0.08727355 -0.21457855 0.043028507 0.08753929 0.0015960427
0.16526812 -0.101568885 0.058198784 0.17029636 -0.03731182 0.17018671 0.011248734 -0.056605507
-0.11419172 0.2144832 -0.1682747 -0.071893305 0.083821714 -0.07929795 0.21616182 0.0822651
-0.011972361 -0.15722853 0.08336835 -0.05052606 0.25235233 0.040540215 0.09962716 0.1811149
-0.16487071 -0.23754418 -0.18065912 -0.22215189 -0.0043069795 -0.086801626 0.0128479805 0.17774758
-0.031315483 -0.084519155 0.1163754 -0.002154586 0.024325024 0.17518575 0.09961966 -0.13263305
0.009983653 0.24947397 -0.16305688 0.1321105 -0.185331 -0.2557834 0.007658606 0.06782289
-0.2752459 -0.23817098 -0.016714418 0.17209236 -0.2538422 0.0409663 -0.11916144 0.24717572
-0.15621527 0.041470364 -0.2107227 0.09979743 -0.04981096 0.05315326 -0.036873348 0.27103314
0.106323466 0.1129585 -0.18598914 -0.0010304031 -0.18557379 0.03990596 0.0790977 0.22827724
0.22372732 0.09393169 0.1591196 -0.22023089 -0.24310005 0.19213527 0.19548273 0.056630448
-0.112371385 0.20934409 0.08800649 0.13704155 -0.020978527 -0.019760596 0.048163403 0.12915398
0.09995071 -0.085752174 -0.07936493 0.19695807 0.14162056 0.14418119 0.015344996 -0.19720024
0.18564214 0.12260929 0.11575837 -0.0732825 -0.104115315 -0.17080972 0.22782847 0.24057174
0.05734405 0.023688324 -0.20973015 -0.30378342 -0.17353913 0.096873954 0.1595546 0.15276435
0.16833512 -0.11979971 0.20500614 -0.08389714 -0.12354034 0.07889344 -0.024618432 -0.302225
-0.068095684 0.049892362 -0.1217281 -0.17523545 0.07378808 -0.097928055 -0.14061655 0.082088664
-0.028698545 0.044209495 -0.20043305 0.23444119 0.12328428 -0.16399927 -0.12374976 -0.22786672
-0.052725494 0.18161218 -0.024136465 0.21181613 -0.072520055 0.11928447 0.1346987 0.3208251
-0.24963723 -0.027808324 0.18900022 0.069188446 0.11350935 -0.06812631 0.1793113 0.22658873
00000000: 3541 56be 1aaa bc3c ddcc bd3d d10a 3abe
00000010: cff7 bd3d 3738 d7bd d94f ebbc 567c d43d
00000020: 0739 04bd 1f95 53bd 8cd3 a0bd fae3 953d
00000030: 1575 a23c b6ae 02be ed29 cbbd 9674 76bd
00000040: 4eda 5bbc 8b8d 98bd f041 c63d 2cf4 133e
00000050: 3e88 44be e1f0 853d c250 69be 6205 8fbc
00000060: 9251 5fbd e0b5 2fbe 67aa 523d 9e7b 033e
00000070: e844 2dbe ccca 07be 5482 a1bd 3464 2abc
00000080: 31e9 293e e3af edbc 01bf 373d 4dc2 5abe
00000090: b5e8 5b3e 908a bcbd 6498 06bd 21ab e8bb
000000a0: 684b f1bd 4807 14bd 312d 6f3e 2f15 823d
000000b0: 395f 3dbc 1a84 d63d 6a06 5f3e 8f41 3cbe
000000c0: 074d 59be 5b3d e3bd 41f0 973d 1c1b 463e
000000d0: b7da 52be 5d40 2e3e f0b6 603e b75b d5bd
000000e0: 4303 0b3e a139 09bc 5463 69be 397e 46be
000000f0: 4102 583d 963a 19be 2819 47bd b077 94bd
00000100: 35bb 3fbd ff16 32be 04d0 0bbe 75f5 b43d
00000110: 20ee d83d 67e0 0f3d 8cb3 4fbe 8d4c f1bb
00000120: 6235 18be 48d8 0dbd 3ba2 dcbd be9b 183e
00000130: 5a2f 4b3e f036 0c3e 0527 bbbd 7b23 6d3d
00000140: 560d 48be 6416 afbd b8f0 bc3d 0f00 d53c
00000150: 7e57 113e bc7b 2f3e f611 843e 4efa ad3d
00000160: 65ef 20be efaa 69be 3751 14be b01e 423e
00000170: efbe 90bb 0f7b 223c b78c 25be 1551 5ebe
00000180: 0178 4c3e 1442 003e d5cc 473e 7abc b2bd
00000190: 7bba 5bbe a93e 303d cd47 b33d 4e32 d13a
000001a0: 0c3c 293e 5903 d0bd d961 6e3d 2b62 2e3e
000001b0: 47d4 18bd 6d45 2e3e 9c4c 383c 2ddb 67bd
000001c0: 59dd e9bd 7ca1 5b3e 3450 2cbe cc3c 93bd
000001d0: b8aa ab3d f766 a2bd 8659 5d3e 9b7a a83d
000001e0: b927 44bc 8400 21be 07bd aa3d 6af4 4ebd
000001f0: 5334 813e 7f0d 263d 5309 cc3d 2f76 393e
00000200: ded3 28be c83e 73be b4fe 38be c97b 63be
00000210: 9021 8dbb 0dc5 b1bd 5680 523c 7603 363e
00000220: aa44 00bd 6118 adbd 3a56 ee3d f433 0dbb
00000230: 4645 c73c e563 333e 6405 cc3d f5d0 07be
00000240: 7a92 233c 1b76 7f3e 62f8 26be fa47 073e
00000250: 69c7 3dbe 0bf6 82be 0bf5 fa3b bae6 8a3d
00000260: 08ed 8cbe 18e3 73be adec 88bc fb38 303e
00000270: 9bf7 81be 47cc 273d ea0a f4bd a21b 7d3e
00000280: e5f6 1fbe d4dc 293d b1c7 57be 9862 cc3d
00000290: 9406 4cbd 3cb7 593d 8208 17bd dbc4 8a3e
000002a0: 1ec0 d93d c956 e73d f073 3ebe 970e 87ba
000002b0: 0e07 3ebe 6f74 233d fafd a13d 82c1 693e
000002c0: c618 653e 425f c03d 40f0 223e 3584 61be
000002d0: 38ef 78be 1cbf 443e a02c 483e 54f5 673d
000002e0: f822 e6bd 4c5e 563e bf3c b43d 9f54 0c3e
000002f0: 29db abbc f9e0 a1bc fd46 453d f140 043e
00000300: f5b2 cc3d d69e afbd 158a a2bd 60af 493e
00000310: fb04 113e 3ca4 133e 9469 7b3c dcee 49be
00000320: f918 3e3e 941a fb3d b912 ed3d 2315 96bd
00000330: 693a d5bd bee8 2ebe de4b 693e 7058 763e
00000340: 98e1 6a3d 040e c23c 80c3 56be 8089 9bbe
00000350: 3eb4 31be da65 c63d 4862 233e 426e 1c3e
00000360: 0b60 2c3e 8d59 f5bd 21ed 513e 44d2 abbd
00000370: b802 fdbd e292 a13d 98ac c9bc 3cbd 9abe
00000380: c075 8bbd ef5b 4c3d 954c f9bd ec70 33be
00000390: 341e 973d 818e c8bd c9fd 0fbe 1a1e a83d
000003a0: 3619 ebbc 0415 353d 523e 4dbe 5a11 703e
000003b0: 787c fc3d 6def 27be 8470 fdbd e555 69be
000003c0: b0f6 57bd 8bf8 393e d6b9 c5bc 54e6 583e
000003d0: 6585 94bd 6b4b f43d 75ee 093e 3043 a43e
000003e0: e7a0 7fbe 48ce e3bc 4689 413e acb2 8d3d
000003f0: 9777 e83d cf85 8bbd 629d 373e e006 683e

hiden_layers.4.bias f4 [64]
-0.037927505 -0.013993596 0.0460912 -0.011802222 0.05415145 -0.014808054 0.029242575 -0.0009458156
0.016858183 0.020420838 -0.024124831 0.03807362 0.0035969685 -0.026245413 0.017899446 -0.0023781527
0.010917725 0.0023461536 0.00011635735 -0.0158848 -0.016680082 -0.06438991 0.018493846 -0.027867138
0.004044335 -0.0008992062 -0.03821468 -0.020820655 -0.06161109 0.0017280092 0.019163601 0.028925551
-0.018088752 -0.036830995 0.05977364 -0.012871675 -0.0023433596 -0.02011579 0.009960193 0.027410258
0.054968014 0.012652641 -0.020507399 -0.031742718 -0.0012507479 -0.018604165 -0.04621493 -0.0012547782
0.03735526 0.00092715264 -0.002678065 -0.0020468426 -0.03594518 0.0047315094 0.000589169 0.059589777
-0.02010079 -0.0069945417 0.010917478 -0.022218097 0.00052629085 -0.0016863486 -0.034091134 -0.013402555
00000000: df59 1bbd 6545 65bc 20ca 3c3d 1b5e 41bc
00000010: e9cd 5d3d 7b9d 72bc 208e ef3c 9cf0 77ba
00000020: 2c1a 8a3c 9a49 a73c 70a1 c5bc 16f3 1b3d
00000030: 1ebb 6b3b 9f00 d7bc dca1 923c c8da 1bbb
00000040: 42e0 323c edc1 193b e004 f438 d720 82bc
00000050: aba4 88bc dbde 83bd 6880 973c a049 e4bc
00000060: 5786 843b b5b8 6bba ff86 1cbd 1490 aabc
00000070: e95b 7cbd 5e7e e23a fcfc 9c3c 47f5 ec3c
00000080: dd2e 94bc 19dc 16bd 34d5 743d b8e3 52bc
00000090: 0d93 19bb dfc9 a4bc 1430 233c 7a8b e03c
000000a0: 2426 613d 064d 4f3c 22ff a7bc a704 02bd
000000b0: 23f0 a3ba c367 98bc de4b 3dbd 5f77 a4ba
000000c0: d401 193d 290c 733a 7a82 2fbb 5224 06bb
000000d0: 413b 13bd c70a 9b3b 7672 1a3a 6914 743d
000000e0: 69aa a4bc 7832 e5bb 39df 323c ba02 b6bc
000000f0: c8f6 093a 7808 ddba 25a3 0bbd 6496 5bbc
