results/2_same_with_zoom/epoch50/model_weights.pth (torch, 484214 bytes, 88 tensors)

init_layer.0.weight f4 [64, 3]
00000000: 59e2 81be 38c6 e9bd 3027 2e3e 3409 483e
00000010: 68e7 df3c bf2d 08bd 4706 80bd f1c3 53be
00000020: 59ed 13be e4d4 873e ef10 c03d 92e9 933d
00000030: 06ea b03c dce7 833e 108e 4c3e c92e 0cbe
00000040: 968d 8bbe 623f 143e fd1d 8c3e 0d9f 063d
00000050: 7287 753e a17a 813e 9164 753e 93fb 1e3e
00000060: 1a87 763e 7edc 90be 1196 8a3d eda7 f5bd
00000070: 54db 3dbe 5525 613e 1c4b 57be 2ab4 f03b
00000080: cd81 8e3d 0cbf c83d 4927 3f3e 56b1 52be
00000090: 0b64 4cbd e6e2 aebd 18a2 43bd c1e6 b3bd
000000a0: b865 823d 10b3 3c3e 873a b03d 6d9e 7dbe
000000b0: 8450 e7bc 9c0d 5f3e f1d8 4dbe 9fdb 59be
000000c0: 3e59 023e 2a9f fcbd 9f08 543e af45 643e
000000d0: fb10 583e 4ed3 04be 5682 df3d c535 26ba
000000e0: fd4a 79be bfd0 09be 5670 153e ab12 29be
000000f0: f358 e93d f417 e8bd d1e3 93bd 9f5c 683e
00000100: 2b13 b9bc e141 66bd cbbc a63c 3661 74be
00000110: 3da2 2abe 1d97 75bd 2323 123e b1a8 ddbc
00000120: 7414 84bd ab36 d2bd c3e6 433e d9d2 cbbd
00000130: 10c6 3f3e 5d97 c4bd 6b6b 0d3d bbe6 7c3e
00000140: 4d5c 523e 6d01 02be 9732 64be 7e40 6b3d
00000150: b5de 2a3d 7abb cd3d a510 3cbe 8022 4d3d
00000160: eefa 8abe c84b 583d a23a 8dbe 9b3e 07be
00000170: 89a5 b4bd 76a1 85bd 1a86 be3d da2e 863e
00000180: d457 91bd c607 6d3e 1259 2b3e f58a 85be
00000190: bf9b 893e 29d9 9fbd 7f91 55bc c547 b5bd
000001a0: 71d2 cbbd a90f 7abd 8c3e 3ebe b7c5 87be
000001b0: b6d3 d13c 1dba b6bc d985 3cbe 2791 2bbe
000001c0: 99f7 e5bd 8f5b b1bc b148 303e 2f8b 16be
000001d0: 0e17 7f3e 724f 7bbe 02db 323e 0e0d 9a3e
000001e0: 65c9 6a3e 01a9 1f3d 32d7 7cbe 8044 d1bc
000001f0: 79b6 a4bd e52f 31be 6632 183e 9296 a4bd
00000200: d8c5 843e 569e ddbb f9f6 9dbc 7dcd 003e
00000210: 585e d73d e9aa 5abe c8c0 29be ab57 98be
00000220: a007 96be fec2 1a3e 3b41 c5bc dfa5 17be
00000230: 15c3 a23d af42 123e 83e9 163e dd4a a93d
00000240: fda8 6a3e 26d9 743e 6e1e 4a3c 8571 de3d
00000250: 1908 8fbe 6d61 363e 4cb8 96bd 63ff 61be
00000260: 1ab8 f9bd cd86 a7be d41e 0fbe 64ed abbd
00000270: d63e 6a3e 1f6e 89be 45b5 be3d ab8b 08be
00000280: 38f5 2cbe 0962 373c d695 f03d a2c9 5cbe
00000290: 1fab 82be 083b 383e 5436 c43b 6f34 4d3e
000002a0: f0ae 343e 7225 973d 4a22 663e 51dc 743d
000002b0: 9a77 b8bc 8f43 b03c 239f 5f3e d1f0 713e
000002c0: 5c2a 783d 3966 fe3d b3f1 243e 433a 08be
000002d0: ed90 17be c287 7abe 97b3 8fbd 32ac 10be
000002e0: 5ce9 aa3d c67d 4fbd a365 803e 01cf a8bc
000002f0: 5c02 5e3d fbac 713e bc81 7c3d a749 123e
-0.25368002 -0.1141476 0.17007136 0.1953476 0.027332023 -0.033246752 -0.06251197 -0.20680214
-0.1444601 0.2652961 0.0937823 0.072222844 0.021595966 0.25762832 0.19976068 -0.13689722
-0.2725646 0.14477304 0.2736663 0.032866526 0.2397745 0.2528887 0.23964144 0.15525655
0.24074975 -0.28293222 0.06766904 -0.1199492 -0.18540698 0.21986897 -0.21024746 0.007345696
0.06958351 0.09802064 0.1866733 -0.20575461 -0.049900096 -0.08539371 -0.047762007 -0.08784247
0.063670576 0.18427682 0.08604913 -0.24767466 -0.028236635 0.21782535 -0.20102288 -0.21275185
0.12729356 -0.12335046 0.20706414 0.22292207 0.21100228 -0.12971231 0.109135315 -0.000634041
-0.24345012 -0.13458537 0.14593634 -0.16511028 0.11393919 -0.11332694 -0.07221187 0.22691582
-0.022592148 -0.05621517 0.020353695 -0.23865208 -0.16663451 -0.059958566 0.14271216 -0.027057977
-0.064492136 -0.10264333 0.19130997 -0.099523254 0.18727899 -0.09599183 0.03452627 0.24697392
0.20543022 -0.12695856 -0.22284923 0.05743455 0.041716296 0.10045524 -0.18365724 0.05008173
-0.2714457 0.052806646 -0.27583796 -0.13207476 -0.08820636 -0.06524937 0.093029216 0.2620762
-0.0709683 0.23147497 0.16733196 -0.26082578 0.26876637 -0.07805092 -0.013035177 -0.088515796
-0.09952248 -0.06105009 -0.18578547 -0.26518032 0.025613647 -0.022305543 -0.18410434 -0.1675459
-0.11228866 -0.021650104 0.1721523 -0.14701532 0.24911138 -0.24542025 0.17466357 0.30088085
0.22928388 0.038979534 -0.24691465 -0.025545359 -0.080426164 -0.17303427 0.14862975 -0.080365315
0.25932193 -0.00676326 -0.019282805 0.12578388 0.105160415 -0.2135426 -0.16577446 -0.29754385
-0.29302692 0.15113446 -0.024078956 -0.14809369 0.07947365 0.1428325 0.14737515 0.08266232
0.22916026 0.2391096 0.012336357 0.10861496 -0.27935866 0.17810602 -0.073593706 -0.22070079
-0.12193318 -0.32720032 -0.13976604 -0.08394888 0.22875533 -0.26841828 0.09311918 -0.13334529
-0.16890419 0.011192807 0.11747329 -0.21561292 -0.2552118 0.17991269 0.0059879217 0.20039533
0.17644858 0.07380189 0.22474018 0.059780423 -0.022517968 0.02151659 0.2183805 0.2362702
0.060587272 0.12421841 0.16107826 -0.13303475 -0.14801379 -0.2446585 -0.07016676 -0.14128187
0.08345291 -0.050657056 0.25077543 -0.02060652 0.05420147 0.23601143 0.06164716 0.14285909

init_layer.0.bias f4 [64]
00000000: 9834 86bd 77ab d9bc ac7c 41bd e590 41bd
00000010: 15c7 4fbd 5d7c 4cbd 4e6c 663d ee9f c43c
00000020: 3127 3ebd 1917 3a3d 88e1 24bd cb7f 2fbd
00000030: 01af 2c3d cd0a c8bc 2dd2 f2bc da69 503d
00000040: e59f 96bd e67c 873b 69bb 49bc b1df 9b3c
00000050: 7bf3 443d 1959 f43c 329b db3c adc2 0a3c
00000060: 0ed2 af3d df43 43bd 0a47 593d d344 4e3c
00000070: 435c f53c 6b95 23bd e56a 88bd 98b1 78bd
00000080: c29e de3c 3bdf 0b3c 7b3b 0bbd 56e8 a9bd
00000090: 629f 983d d524 56bd ecc1 863d f041 403d
000000a0: cdf5 893d ca77 493d 1c32 42bd f380 bf3c
000000b0: 1e53 513d c49d 98bd d685 1d3d 65d8 47bd
000000c0: 443c 233d da5f 6f3d 1652 fc3c 38a2 81bd
000000d0: 81a5 0fbc 8105 1c3d bdee 933d 5f51 883d
000000e0: d575 753d 29c1 07bd c41c 4b3d 45f9 3d3d
000000f0: 81b1 92bd 376d 91bd 5766 4c3d 8d8c 133d
-0.06553 -0.026571019 -0.047238037 -0.047257323 -0.05072697 -0.04992329 0.05625563 0.024002042
-0.046424095 0.045432184 -0.040254146 -0.042846482 0.042159084 -0.024419213 -0.029641235 0.050882198
-0.07354716 0.004134762 -0.0123127485 0.019027563 0.048083764 0.029827641 0.026807401 0.008469266
0.085849866 -0.04767215 0.053046264 0.012589651 0.02995122 -0.039937418 -0.066610135 -0.06071624
0.027175311 0.008537109 -0.033992272 -0.08296268 0.07452275 -0.05228122 0.065799564 0.046937883
0.06736336 0.049186505 -0.04741107 0.023376917 0.051104657 -0.074519664 0.038457714 -0.048790354
0.039852396 0.05844102 0.03080086 -0.06329769 -0.008767487 0.038091186 0.0722327 0.06656145
0.059926827 -0.033143196 0.04958798 0.0463803 -0.071627624 -0.07100909 0.049902286 0.03602271

hiden_layers.0.weight f4 [64, 64]
00000000: f498 1cbe 5f91 8cbc 4e06 143e 5f32 8e3d
00000010: cf06 46be dd78 f0ba 02d1 7f3d f1cb 35be
00000020: 8372 33bd 0350 68bd 5da9 0a3d ee7a 413e
00000030: c867 483d 074d 3f3e ae4c 103e c409 4abe
00000040: 1b6c 24bd 6368 e1bd d8d0 34bd 2eac 03be
00000050: d59b bfbd 7f20 873d 75ab 44bc 827c 5abe
00000060: 83a6 1c3e 45ad 143d 9fbb ebbd f950 2abe
00000070: 7279 d3bd fbac 12bd a6cf 34be d3f8 0dbd
00000080: 2364 9ebd 666a 18bc 91a7 223e a778 4a3b
00000090: db67 84bc 0708 bd3c e9e5 423e f9ac c83d
000000a0: 8d29 893d a4ab 8fbd 5db0 ae3d f9f7 96bd
000000b0: 78f7 7fbd da85 1bbd 7e21 ce3b 4561 69be
000000c0: 1327 433e fda0 02be d59f 06be fca4 8f3d
000000d0: 500a e13a fa65 dbbc bd16 2b3e 2244 413e
000000e0: d251 33be 0da9 f6bd 6112 12be 829a aa3d
000000f0: d153 803d 3eae 95bd a610 dbbc 1496 27be
00000100: 4795 23bd 2d4d 52be 262e 54be f53b 1a3e
00000110: cb47 2fbe 4723 bebd 6835 1d3e 0114 4cbe
00000120: fec1 ab3c 70a8 31be 459c 6a3e 8d47 15be
00000130: 99b4 3f3c d805 2b3d dc75 9e3c 2e0e 1a3e
00000140: 36ac 5cbc fffb 323e 4bdb f1bb 1ef9 01bc
00000150: fa3f 75bd 7f85 56be 2771 e03d b1bf 093e
00000160: 46f3 cebc 08d7 90bd 5f01 6e3e 00a7 1e3e
00000170: 9d5d ca3d 4b57 f03d 31c6 13be e6c5 08be
00000180: 94dc 373c b578 b73c 11e7 f13d 80fc e13d
00000190: fb9d 4e3e 7489 d8bc 8fc8 5ebd b293 383e
000001a0: 4303 a2bd 81b9 febc 1ec3 53be 05c3 5e3d
000001b0: bd66 bd3d 3791 50be 1d9a 3d3e 7617 46be
000001c0: 0bc4 6ebd 82c9 a9bd 6049 a1bd 603e c6bd
000001d0: 29e2 d63d 68f4 0dbe 2e76 133e 55f7 fc3d
000001e0: 43ef 38be 3c39 d1bd 49d4 3bbe 3349 32be
000001f0: 8ce9 483e d324 323e ea53 223e 5b9e d5bd
00000200: 3df4 cd3d 6a39 f6bc 51a0 343e 00c5 8c3c
00000210: 5211 44be 27fd aebc 3f86 a7bc 30ee 1abe
00000220: 9b1d a63d ff4d b8bd f549 50bd 794c 273e
00000230: 5a08 c63d f1bc 57be 4aee 5a3e c8c5 ebbd
00000240: 9366 94bd cad2 29be 90a9 a33d d7db b1bd
00000250: f0f2 35bc 81f2 e7bd 653c 2cbe 7c02 f5bc
00000260: c720 c1bc 0071 05be bf4c d2bc c39c 3a3e
00000270: 5582 18bd 41b0 1fbe 0ed6 5c3e dc04 643e
00000280: 4ea8 47be 10cd f9bd b638 603e fc84 5a3e
00000290: 362e d0bd 278a 16be 52bb 0bbd 705e 793a
000002a0: 2e68 4bbe aa42 91bd 9734 573e 9620 4e3e
000002b0: c26a 413e c634 023d 2ca7 45bd 15c3 f43c
000002c0: fa02 99ba 61c7 4d3d 263d febd 7e7d 46bd
000002d0: 33a3 913d 03e6 72bd c16f 0ebe fb31 273d
000002e0: ddf6 61be b822 4a3e 71a3 24be d1e3 1cbe
000002f0: ec63 393e db81 2bbe 0c3b cebd 2f25 3c3e
00000300: 06a5 ef3d ae69 d1bd b1ff 9c3b 8dc1 c3bc
00000310: 5ed5 103e 1c5f c53d ab14 8fbb 0a89 fdbd
00000320: a468 83be f885 30be 9bf2 223d dc6e 5e3d
00000330: 0db5 fcbd 783e 9ebd 7010 e4bc 4e5c 0dbe
00000340: 535b b1bd 6fde 343e eb16 1f3e 2b7d cbbd
00000350: 608e 3a3e 57b6 a3bd bd0c 39be 6065 9fbd
00000360: c1d2 603e b064 533d b4d7 a4bc 34cf 8cbd
00000370: ed1f dabd 93ed 57be 8d66 46be d606 d53c
00000380: f8ec d9bd 1ed8 da3d 8e6d 3cbe 0167 02bc
00000390: c751 cbbc 8df6 43be d1e7 023d ee6f cfbc
000003a0: 76fd 2dbe 5ac0 b9bc d000 353d 4c5c 503e
000003b0: 2ee3 7a3c aa52 c23c 71be 8b3d 24dc b93d
000003c0: ab3b 0a3e 9386 08be 1805 2a3e 993b f6bd
000003d0: 612c 56be 8ad0 023e 4e1b 3c3e c4b6 d03d
000003e0: f800 2dbe 410f 1fbe 7592 81bd 4930 153e
000003f0: e147 f5bd 7383 c3bd 83b9 443c 7ff0 5fbd
-0.15292722 -0.017159162 0.1445553 0.06943201 -0.19338535 -0.0018346567 0.062455185 -0.17753579
-0.04381038 -0.05671693 0.033852924 0.1889455 0.0489271 0.18681727 0.14091751 -0.19730288
-0.04014216 -0.11006238 -0.04414448 -0.1285865 -0.093558945 0.06597995 -0.012003769 -0.21336558
0.15297894 0.036298055 -0.11510395 -0.16632451 -0.10325898 -0.0358095 -0.17657337 -0.034661125
-0.07733943 -0.009302711 0.15884234 0.0030894668 -0.016162803 0.023075117 0.19033016 0.09798617
0.06697378 -0.0701516 0.085297324 -0.07371516 -0.062491864 -0.037969448 0.0062906137 -0.22791012
0.19057874 -0.12756725 -0.13146909 0.0701389 0.0017169211 -0.026782025 0.16707893 0.18873647
-0.1751168 -0.12043963 -0.14264823 0.08330251 0.06265987 -0.07308625 -0.026741337 -0.16365844
-0.039937284 -0.20537253 -0.20720729 0.15061934 -0.1711723 -0.09284072 0.15352404 -0.19929506
0.020966526 -0.1734941 0.22911175 -0.14578076 0.011700773 0.04175362 0.01934331 0.15044472
-0.013468793 0.17478941 -0.007380878 -0.007932929 -0.059875466 -0.20949362 0.10959082 0.1345203
-0.025262486 -0.07072264 0.2324271 0.15493393 0.098811366 0.117354 -0.14431073 -0.13356742
0.0112220235 0.022396425 0.118116505 0.11034489 0.20177452 -0.02643273 -0.054390486 0.18025091
-0.079107784 -0.031094315 -0.206799 0.054385204 0.092481114 -0.20367895 0.18515821 -0.19344887
-0.05829243 -0.08290388 -0.07875323 -0.09679866 0.104923554 -0.13862765 0.1440055 0.12351862
-0.18060021 -0.10215995 -0.18342699 -0.17410736 0.19620341 0.1739686 0.15852323 -0.104305945
0.100563504 -0.030056674 0.17639281 0.01718378 -0.19147232 -0.021360947 -0.020449756 -0.15129924
0.081111155 -0.089992516 -0.05085178 0.16337766 0.09669562 -0.21068169 0.21379963 -0.11512333
-0.07246127 -0.16584316 0.07991326 -0.08684509 -0.011105284 -0.11325551 -0.16819914 -0.029908411
-0.0235752 -0.13031387 -0.025671361 0.18223862 -0.03723367 -0.1559458 0.2156603 0.22267479
-0.19497797 -0.12197316 0.21896634 0.21339792 -0.10165064 -0.14701138 -0.03411419 0.00095126685
-0.1986396 -0.07092793 0.21016155 0.20129618 0.18888381 0.03178861 -0.04825513 0.029878179
-0.0011673861 0.05023897 -0.12414007 -0.048459522 0.07111206 -0.059301388 -0.13909818 0.04081915
-0.22066827 0.19739807 -0.16077973 -0.1532128 0.18104523 -0.16748755 -0.10069856 0.1837356
0.117013976 -0.10225235 0.004791223 -0.023896003 0.14143893 0.09637281 -0.0043664775 -0.12379654
-0.25665772 -0.17238605 0.039782148 0.054304942 -0.1233922 -0.07726759 -0.02783987 -0.13804743
-0.08659997 0.17662977 0.15536086 -0.09935983 0.18218374 -0.07993763 -0.18071266 -0.077830076
0.21955396 0.051609695 -0.020122387 -0.06875458 -0.106506206 -0.21086721 -0.19375058 0.026004236
-0.10640901 0.10685752 -0.18401167 -0.007959128 -0.024819268 -0.1913702 0.03195936 -0.025321927
-0.16991219 -0.022674728 0.044190228 0.20347708 0.015312953 0.023721058 0.06823433 0.090751916
0.13499324 -0.13332586 0.16603506 -0.12023086 -0.20915367 0.12774864 0.18369791 0.1019111
-0.16894901 -0.15533163 -0.063267626 0.145692 -0.119766004 -0.09546556 0.01200712 -0.054672714

hiden_layers.0.bias f4 [64]
00000000: 7509 e7bb d05d 073d 6c8a 4cbd 3d46 103d
00000010: 19c8 70bb a50d f8bc 290e 7f3d 64d4 67bd
00000020: 09ae 4fbc 3a20 8d3c e786 0d3d b3c5 db3c
00000030: 8272 793d 0cf2 77bd f199 a9bc 5ccd 54bd
00000040: b4e2 19bb 28a9 12bc c1f0 2b3d 94ef 92bc
00000050: 18ed c5bc ab82 2c3d eec0 dfbc 5530 d1bb
00000060: e931 f63c bb49 1b3d 8229 02bd 00f5 f5bc
00000070: 2812 cb3b 2cf9 04bb a58f 62bb 1e35 133d
00000080: 3eb6 163d 916d d63c e4dd f8bc 55cb ed3c
00000090: ba9e 10bd ab1c 573d 6574 223d a8a9 853b
000000a0: 89ed 233d 0e1a ffbc 652d 173d eef7 d1bc
000000b0: 3905 1fbd c6d8 f9bc 1545 90bd f081 27bd
000000c0: 5170 4dbc 56e7 103d 003c 843d 3096 e5bc
000000d0: b04c 7d3d 4a30 e33c 3d2a 233c a7d1 91bc
000000e0: 4aaf 30bd 6c19 eebc 4bdc 75bc 31c5 16bd
000000f0: 1de1 11bd 4953 303d ae1f 8fbd 49ca 0cbc
-0.007050688 0.03304845 -0.049936697 0.035223234 -0.0036740361 -0.030279944 0.062269364 -0.056599036
-0.012675771 0.01722728 0.03455248 0.026827669 0.06090022 -0.06053357 -0.020703288 -0.05195366
-0.0023481073 -0.008951463 0.041977648 -0.017936505 -0.024160907 0.042116802 -0.027313676 -0.0063839355
0.030053096 0.03791211 -0.031777866 -0.030024052 0.0061972328 -0.002029012 -0.0034570482 0.03593933
0.036794893 0.026175292 -0.030379243 0.02902762 -0.035307623 0.052517574 0.039661784 0.0040790625
0.040021453 -0.031140354 0.036908526 -0.025630917 -0.03882334 -0.030498873 -0.07044426 -0.040895402
-0.012538985 0.03537687 0.064567566 -0.028025717 0.061840713 0.027732987 0.009958801 -0.017800165
-0.04313592 -0.029064856 -0.015006135 -0.03680915 -0.035615075 0.043048177 -0.06988464 -0.00859315

hiden_layers.1.weight f4 [64, 64]
00000000: f345 8ebc 3b02 683d 9faf 42be 1657 4f3d
00000010: 986c 3bbe 03cf 2b3e d81b 00be fb3f e9bd
00000020: 424e c6bc 1b31 d13c 4a15 413a 2fdc efbd
00000030: 80f8 b03d 57a7 993d 610f df39 70f5 61bd
00000040: 92d0 043d 1a83 1d3e 6c7f 013e b611 a03d
00000050: 1ff3 573e 7078 05be 016c eb3c 9301 06be
00000060: b0f4 66bd 0d04 53be ab65 92bd d3c0 513e
00000070: 19bb 733d e7b4 afbb 8061 5cbd b71e 1f3e
00000080: 70c6 3ebe dac7 373e db20 2dbe a4e7 2cbe
00000090: 5762 f7bc 161e 083d 7351 05bd 2e11 263e
000000a0: b9ad ac3d 2cf4 253e 6e74 febd 93b3 1e3e
000000b0: 28c2 543e 634b af3d 7b50 013e 76d4 48be
000000c0: a909 71bc cba4 0ebe a1f6 27bd 483a eb3d
000000d0: 8ae2 e0bd 09fc d8bb 6ae7 84bd 7c8a 3bbe
000000e0: dc1f 523e 6839 0ebe 0a0c 50be ef56 df3d
000000f0: 2f00 b03d 64b4 5c3d cce4 583c 0ed4 09be
00000100: 1b74 ca3d 84c1 e2bb d0a7 5abe 4bf9 d23d
00000110: 61db 0dbe c1d5 57bd 8c20 f7bd 543d d1bd
00000120: 9056 a53d 6ba7 03be 1f39 463e a10e fd3d
00000130: 8857 943d 35c6 32bd dd7f c93c 14a0 31bc
00000140: 9988 b03d e01f cabd 51bd 233e ab5e fbbc
00000150: 8f07 303d 5680 3d3e c408 69be 915c 273d
00000160: 6015 293c 8472 2c3e 4f20 cf3a 69e2 6fbd
00000170: 2a89 21bd 5dbf ce3c ddef bdbd 2ec1 3e3e
00000180: 7fab 463e 2013 263e 4fd1 44be 30e4 dbbd
00000190: cec5 52be b224 113d 0eea f5bd d510 52be
000001a0: fe32 4dbe f1cd 47be 5083 953d 399c 0ebe
000001b0: a880 ae3d 1d2e 053e a0c1 6cbd 497d 5ebe
000001c0: 287e 293e dec6 103e 695e 34be 11df b1bd
000001d0: 6233 d93d 34a1 a1bc 3764 113e c173 4bbd
000001e0: 0b51 6ebd 65ab 4d3d 91c0 3ebd dfa5 d03d
000001f0: e718 a53d bc7b ec3c 0df5 ff3c 3227 2a3e
00000200: 8234 bb3d f0e8 223e 3609 2dbd e707 913d
00000210: edbf cb3d 28f2 403e a731 babd cb01 003e
00000220: b5f5 343e fe15 4abd a326 36be 08d4 bbbc
00000230: e708 3d3d 3c85 c0bc e75d 2e3e 7adb edbc
00000240: 9a1a 13be 147e d8bd 836b 873d 2262 de3c
00000250: 3ec7 dd3c 7113 5bbe bba7 32be e0d8 48be
00000260: 308b eabc bf5d b93d 43fc 22be 03c7 86bd
00000270: edfb 003e 829f 9b3d 3d8c 593e d19e 5a3e
00000280: 61a8 ea3d 1722 14be bc3f 5cbd 799f b6bd
00000290: a71a 7ebd 96f5 11be ec64 403d 4186 ddbd
000002a0: 1858 c7bd c094 e9bd 3a87 1dbe 175e 9dbd
000002b0: 9696 8a3d 244e 583d 7f67 9fbd 0667 b53d
000002c0: 52ff 87bd e0b9 57bc 1a7b 5c3d 3ae4 51be
000002d0: 541a 3f3d 83a2 29be 40df e43d a4fc 923c
000002e0: 9e23 3abe db2a 123e 5327 72bd fb0d a93c
000002f0: badc bb3c 9ae2 db3d a888 88bb 6bae 53bc
00000300: f64b 1a3e 7bc6 e2bc 2b31 38be a74d 2c3e
00000310: ac18 4f3e 59cf 31be 9f87 5bbd 64d3 0fbe
00000320: bdd8 343d 3025 bf3c 5120 22be 09b0 7d3e
00000330: 3fb3 673e 58be c73d 1763 f9bc 21e4 c43d
00000340: 4e86 e2bc 5010 b4bd 25b5 1e3b cb9f 153e
00000350: a67b 903c dd92 4bbe 80ba e43d a14f 203e
00000360: ed87 c63d 5649 af3d 3467 dcbc 8c32 ecbc
00000370: f67b b33d 2869 183e ef6f ba3d e337 0f3e
00000380: 0460 123e b472 af3c 5672 ebbd 6d12 463d
00000390: 1003 7b3d 2d4e 08bd cbad 0e3e 3340 0f3e
000003a0: 426b 083e b8e2 86bc 29e7 223e fc94 ec3d
000003b0: ba87 e5bd 240b f8bd 7cb8 50be 4501 0bbe
000003c0: e2ab 043d d8b3 c63d 4aa3 16bd b398 683d
000003d0: f361 393e c85d 22bd dd08 5dbe f751 93bd
000003e0: b65f 16be 1099 a5bd dd91 293e a2b4 453b
000003f0: 9d56 46be 123a 613e c8f4 a63d bf87 52be
-0.017367339 0.056642752 -0.19012307 0.05062016 -0.18303144 0.16778187 -0.12510622 -0.113891564
-0.024207238 0.02553611 0.0007365538 -0.117119186 0.086411476 0.07502621 0.00042545333 -0.055165708
0.03242547 0.15382043 0.12646264 0.07815878 0.21088837 -0.13034225 0.028738024 -0.13086538
-0.056385696 -0.20607014 -0.07148298 0.20483713 0.059504602 -0.0053621414 -0.05380392 0.1553906
-0.18630385 0.17947331 -0.16907065 -0.16885239 -0.03019826 0.033231817 -0.03254838 0.16217491
0.084315725 0.16206425 -0.12424551 0.1549819 0.2077719 0.08559301 0.12628357 -0.19612297
-0.014711776 -0.13930051 -0.041006688 0.11485726 -0.10980709 -0.006621842 -0.06489451 -0.18314546
0.20519966 -0.13889086 -0.20317093 0.10905253 0.08593785 0.05388297 0.013238143 -0.13459799
0.098854266 -0.0069200415 -0.21353078 0.10301455 -0.13853218 -0.052694086 -0.12066755 -0.102167755
0.08073151 -0.12856834 0.19357727 0.12356306 0.07243258 -0.043646056 0.024597103 -0.010841388
0.08619804 -0.09869361 0.15990187 -0.03068479 0.04297596 0.18505988 -0.2275725 0.040859763
0.010320038 0.16840559 0.0015802475 -0.05856553 -0.03943745 0.025237733 -0.09274266 0.1862838
0.19401358 0.16218233 -0.1922047 -0.10736883 -0.20583269 0.035435386 -0.12007533 -0.20514233
-0.20038983 -0.19512154 0.073004365 -0.13926782 0.08520633 0.13005872 -0.057801843 -0.2172748
0.16552031 0.14138362 -0.1761414 -0.08685125 0.106055036 -0.019730188 0.14198385 -0.04967094
-0.058182757 0.050212283 -0.046570364 0.101878874 0.0806139 0.028867595 0.031244779 0.16616514
0.091408744 0.15909171 -0.042245112 0.070815854 0.09948716 0.18842375 -0.09091502 0.12500684
0.17671855 -0.04933738 -0.17788176 -0.022928253 0.046151068 -0.023501031 0.17028008 -0.029035319
-0.14365616 -0.105709225 0.06612303 0.027146403 0.027072545 -0.21394135 -0.17446797 -0.19613981
-0.028630823 0.09051084 -0.15916543 -0.06580927 0.12596102 0.07598783 0.21244903 0.21349646
0.11457897 -0.14466129 -0.05377172 -0.08917136 -0.062037136 -0.1425384 0.046971247 -0.108166225
-0.097335994 -0.11405325 -0.15383616 -0.07683962 0.06767003 0.052808896 -0.07783412 0.08857541
-0.06640495 -0.013166875 0.053828336 -0.20497218 0.046655968 -0.165659 0.11175394 0.017942734
-0.1817765 0.1427416 -0.059119534 0.02063655 0.022932399 0.1073658 -0.0041666813 -0.012920002
0.1506804 -0.027682533 -0.17987506 0.16826497 0.20224255 -0.17364253 -0.053596135 -0.14045483
0.04415201 0.023333162 -0.1583264 0.24774183 0.2262697 0.09753102 -0.030442758 0.09613825
-0.027651932 -0.08792174 0.0024216857 0.14611737 0.017637085 -0.19880243 0.111683846 0.15655376
0.096938945 0.085589096 -0.02690468 -0.028832696 0.08763878 0.14883864 0.09103381 0.13986163
0.1429444 0.021417 -0.11496417 0.048357416 0.061282218 -0.03327768 0.13933484 0.13989334
0.13322166 -0.01646553 0.15908493 0.11551854 -0.112075284 -0.121115 -0.20382875 -0.13574703
0.032390483 0.09702271 -0.03677682 0.05678625 0.18103771 -0.039640218 -0.21585412 -0.07193368
-0.14684948 -0.08085835 0.16559549 0.003016748 -0.19368978 0.21994808 0.08152157 -0.20559596

hiden_layers.1.bias f4 [64]
00000000: 130d 6ebc 52c7 ed3c 9b1e cf3c 2ec3 513c
00000010: 6995 8ebb aebd 26bd 4f85 8d3b 6382 e5bc
00000020: 011a 0abd 6557 cabc 873f 983c 7a3c 1abd
00000030: e38a dbbc def0 edbb 98d8 cebc 857c 2fbd
00000040: c1ca 4b3c 5c32 a7bc d6fb d4bc e505 bb3c
00000050: 8c50 35bd 9f53 8c3c ee56 7fbc 7823 3c3d
00000060: 8a3f a53c 7f6e dfbc 2d2c 223d 09ac 9e3c
00000070: efae 05bd 53ca 13bd 1d6f 06bd c8bb 01bd
00000080: 8163 19bd ac97 ca3c 053f 223d 6637 053d
00000090: ddcf 213d 1f51 19bd d9de a43c 7470 5f3c
000000a0: 6793 c5bb cf5e 0ebc af03 8abc d2ed fdbc
000000b0: a322 e0bc 803c cc3c 2d16 39bd cb53 213d
000000c0: b034 b23c fa3c cfbc daf9 133d 752b 9abc
000000d0: a701 86bc 82ee aa3c ac44 e3bc dfed 753c
000000e0: 12db 673b f54a db3c 5f90 913c c3eb 2d3d
000000f0: bda0 e83c d905 953c 3e74 223b d384 e33c
-0.014529484 0.029025707 0.025283149 0.012802882 -0.004351307 -0.040708236 0.00431887 -0.028016275
-0.033716206 -0.024699876 0.01858498 -0.03765533 -0.026799625 -0.0072613796 -0.025249764 -0.04284336
0.012438477 -0.020409755 -0.025998991 0.02282996 -0.04426627 0.017129717 -0.0155846905 0.045932263
0.0201719 -0.027274368 0.03959291 0.019369142 -0.032637533 -0.036081623 -0.03282081 -0.031673223
-0.03744841 0.024730526 0.03961088 0.032523535 0.039504874 -0.03743088 0.020125793 0.013637651
-0.0060295346 -0.008689596 -0.01684746 -0.03099719 -0.027360266 0.024931192 -0.045187164 0.03938655
0.021753639 -0.02529763 0.03612695 -0.01881955 -0.01635821 0.020865683 -0.027742706 0.015010326
0.0035378379 0.02676914 0.017769037 0.042461168 0.028396958 0.018191265 0.0024788524 0.027773296

hiden_layers.2.weight f4 [64, 64]
00000000: 5c72 5ebe 15a8 673e adf4 9d3d dc5b d1bc
00000010: 85ce 73bd be0c 81bd be16 4bbe 387a 2ebe
00000020: 8158 87be 0ccf 0abe 9748 b03d 927f 08be
00000030: 5226 01be d2ba 393e cebb 0fbe b17a 423e
00000040: 588b 3e3e 8451 a0bc 04c6 9dbc 046c 9fbd
00000050: ab69 3e3e 52d0 4c3e 3c80 f2bd 1abc 553e
00000060: 154a c93d fd6d 2cbe e72e 72be 0adc f3bd
00000070: 1ffa 683d 132f ddbd 8e5a 243e c2e3 e8bc
00000080: 35fb 56be 5c00 a13d ace1 48be 5d36 fabc
00000090: 9872 173e 3afa 2f3c 02bc 8f3d 0b68 be3c
000000a0: a641 0ebe 78b5 2e3c 2b9b aebc cec1 913d
000000b0: 299f fc3d 9d60 0fbe 6360 0c3d e3fa 1a3e
000000c0: 9052 133d 6b58 87bd a7a7 9ebd 5c87 81be
000000d0: f307 dcbd f045 0b3e 4b0d dd3d d84f 073e
000000e0: f870 cebd 2a08 173e 68e0 7a3e 0359 643c
000000f0: 0b0f 6cbd 3462 84bb ceac 893d d163 793e
00000100: 1264 c63d 9257 0fba 7c0d fd3d d975 173e
00000110: 7825 563e d2c0 113e f8d7 203e 12c7 673e
00000120: 9e5e bc3d 2e32 263e 3658 3c3e ff99 2a3e
00000130: fb4e 84bd 79d6 b2bd 27f5 2abd 94fe 303e
00000140: a930 ddbd aeb9 843d 0c26 6abe 4071 35be
00000150: c931 043d 40b0 e7bd e2ab 043d f536 41be
00000160: dec7 53bd a8d6 c13d 160c 5b3e 5fef ed3d
00000170: c777 b4bd 9d58 523d 0db3 dcbc d43a 82bd
00000180: ff77 233d 8ba1 4d3e 9526 a2bd 9bad 113e
00000190: 9280 1f3e db12 893d 62e3 3e3d 522b 73be
000001a0: c1ab dfbd e784 d8bd 0e7b 5abc 5746 bb3c
000001b0: 940f cd3c 15bc 56be 222d abbd 330a 613e
000001c0: 157c 27be 4fa5 5f3e f29b e5bd 2cba 93bd
000001d0: 9e8c 03be b9ba 213e 69a4 efbd f5df 43be
000001e0: a3f8 573e fbcc 9fbc 2fdf a9bd e71d 363e
000001f0: 3858 4a3d d138 653e 9f2f d63d 6452 5ebe
00000200: d944 623e 04b0 4bbe 2491 e6bd da54 fcbd
00000210: a246 0c3e cfaa 573d aa94 353e f178 b43c
00000220: 01ba f1bd 6044 823e a2ae e83b 94d7 683e
00000230: 390c 073d 5a5d 013e c337 08be 1bb6 293e
00000240: de58 9f3d 5df9 44be db6c 0b3e 0b2c 73be
00000250: b1b4 51be ffc9 663d 80ab 543e e99e 2fbe
00000260: c3a7 b4bd 3aa1 bdbd afb7 c6bd 9f4e e7bc
00000270: 070b ef3d d169 b33d 6152 f43d 86e0 6f3e
00000280: 7c95 a1bd 7129 23be 8866 1ebd a897 dc3d
00000290: 03fd 3f3e b1d4 c03a 0779 5ebe 534b 173e
000002a0: 5d79 3b3e b8a2 5b3c 8784 09be 2012 e7bd
000002b0: a686 153e b028 273d 4fc4 1cbd a03b 00bd
000002c0: 7921 4a3e bad4 8c3d bcd4 4fbe b035 753e
000002d0: 7bea 20be 3e96 333e d9b8 193e 4afd c6bd
000002e0: 94b7 44be 0c95 fa3d 9351 83be 9e78 eebd
000002f0: 466c 653d 7e97 b93c c72d 283e 17bb 093e
00000300: 26cc 693b c0e6 1dbe 0184 05bd 8608 723e
00000310: 9f78 4ebe 76cf 3bbe 7b3a ad3d fff5 0cbe
00000320: d473 8b3d f3d6 fb3d beb6 3b3e 0f81 33be
00000330: 6bf1 9b3d f5c9 023e 8b0d 2fbd f448 7d3c
00000340: e258 cc3d 91c0 7bbe dce0 51be 3118 7fbb
00000350: c7de 49be e117 8cbb ffac 133e 69d6 d9bc
00000360: d232 a4bc 9f49 35bd de3a 113e 4890 1b3d
00000370: 3105 cebc e72a 373e fd1b ff3d 23ed 45be
00000380: 64a1 58be dfd1 c9bd 0059 863e 2ce3 4e3e
00000390: e51a d4bc 4be9 a63d 914d 02bd 8243 f5bd
000003a0: 2604 5a3e cccc 5bbe 6321 ae3c e19f 06bd
000003b0: 207f 2f3c d29e 8fbd 77bb 76bd 474f 13bc
000003c0: 9c69 a7bd a34f 9a3d 9a99 5e3e ca3b 5fbe
000003d0: 78d8 eabc 4d8f b1bd 6725 de3d 71f8 a2bd
000003e0: 54f0 a63d db58 9abd 09e1 99bd 0b75 863e
000003f0: cebf 113e 612e 30be c845 623e de8c e43b
-0.21723312 0.22622712 0.07712684 -0.025556497 -0.059523124 -0.063012585 -0.19832894 -0.1703881
-0.2643471 -0.13555545 0.086075954 -0.13329914 -0.12612274 0.18137673 -0.14036486 0.18992116
0.18607843 -0.01957012 -0.01925946 -0.07784274 0.18594997 0.20001343 -0.11840865 0.20872536
0.09828583 -0.16838832 -0.23650704 -0.119072035 0.05687916 -0.10799994 0.16050169 -0.028428916
-0.20994265 0.07861397 -0.19617337 -0.0305435 0.14789808 0.010740811 0.070182815 0.02324297
-0.1389223 0.010663383 -0.021314224 0.071170434 0.12335045 -0.14001699 0.03427161 0.15134768
0.03596741 -0.06608661 -0.07746821 -0.25298584 -0.10743704 0.13600898 0.10793551 0.13214052
-0.10080141 0.14749208 0.24499667 0.013937238 -0.057631534 -0.004040027 0.06722413 0.24354483
0.09687056 -0.0005468066 0.123560876 0.14791049 0.2091273 0.14233711 0.15707386 0.22634533
0.09197734 0.1623008 0.18393025 0.16660307 -0.06460377 -0.08732314 -0.0417377 0.17284614
-0.10800297 0.06480728 -0.22866076 -0.17718983 0.03227404 -0.11312914 0.032390483 -0.1886862
-0.05170428 0.094647706 0.21391329 0.11617922 -0.08811908 0.05135404 -0.026940847 -0.06358877
0.03990936 0.20081155 -0.07917515 0.14226381 0.1557639 0.066930495 0.046603568 -0.23746994
-0.10921431 -0.10572224 -0.013335003 0.02286069 0.025031842 -0.20970185 -0.08358218 0.21976547
-0.16355927 0.21840404 -0.11211385 -0.07213244 -0.1284661 0.15793885 -0.117012806 -0.19128402
0.21090941 -0.019506922 -0.08294522 0.17784844 0.04940054 0.22384955 0.10458302 -0.21711117
0.22096576 -0.19891363 -0.11258152 -0.12320872 0.1369882 0.05265313 0.17732492 0.022030326
-0.118030556 0.2544279 0.007100896 0.22738487 0.03297064 0.12633267 -0.13302521 0.16573374
0.07780622 -0.1923575 0.13615744 -0.2374727 -0.20479085 0.056344982 0.20768547 -0.17150463
-0.088210605 -0.09259267 -0.097030036 -0.028235732 0.11672025 0.08760417 0.11929775 0.23425493
-0.0788984 -0.15933777 -0.038672 0.10771114 0.1874886 0.0014711824 -0.21725856 0.14774828
0.18308015 0.013405494 -0.13429461 -0.11282754 0.14602146 0.040810287 -0.038273152 -0.031306863
0.19739331 0.06876512 -0.20295995 0.23946261 -0.15714447 0.17537782 0.1501192 -0.0971628
-0.19210654 0.1223546 -0.25648174 -0.116441 0.05601146 0.022655245 0.16423713 0.13450275
0.003567466 -0.15420055 -0.03259659 0.23636064 -0.20163201 -0.18340859 0.0845842 -0.13765715
0.06809202 0.12296858 0.1833143 -0.175297 0.07614406 0.12772353 -0.042737525 0.015459288
0.099778906 -0.24585177 -0.20495933 -0.0038924331 -0.19713889 -0.0042753075 0.14421462 -0.026591497
-0.020043764 -0.044259664 0.14182612 0.037979394 -0.02514896 0.1788746 0.1245651 -0.19328742
-0.21155316 -0.09854483 0.26239777 0.20203847 -0.02589173 0.08149966 -0.031812254 -0.11975767
0.21290645 -0.21464843 0.021256154 -0.032867316 0.010711461 -0.070127144 -0.060237374 -0.008991069
-0.0817444 0.07534721 0.21738282 -0.21800151 -0.028667673 -0.086699106 0.10846978 -0.07957543
0.08151308 -0.07536479 -0.07513625 0.26261172 0.14233324 -0.17205192 0.22096932 0.0069748005

hiden_layers.2.bias f4 [64]
00000000: 84ab 963c 326f 71bc 24ae 98bc 2d08 db3c
00000010: 1f8a 40bc de34 123b f2d4 91bc fca7 b2bb
00000020: 25f0 f2bc 0117 babc 47af 243c e5b0 afbc
00000030: 39a6 cf3c 7efb 5fbc 1d4d b0bc 4b53 b93c
00000040: 818f 113c b484 9ebc 94f4 d1bc 0670 a73c
00000050: 28f0 14bd 5c3d 1b3c 7448 1d3d 5dd3 9dbc
00000060: 2388 03bb f6ce 853c 555a 173d bca9 57ba
00000070: 949c 18bd 6f85 ed3c f9f4 c43d 2650 dfbc
00000080: 4629 84bc ec28 f8bc ee9c 0fbd 298c 1abc
00000090: 86d9 f13c 3324 d13c 0225 cbbc 0c6a fc3c
000000a0: 5b9b a33b 775e 553c 642f 01bd 7a92 d63c
000000b0: 2466 5abb 36d1 093d ac77 dabc b7f1 203d
000000c0: 95ba b33c 5ed9 0ebd 80db 9d3c 380c 1a3b
000000d0: e022 01bd 907a 78bc 6fca 8dbc 05b4 79bc
000000e0: 18a0 e73c 0901 58bc 4730 ffbc 6fb4 a63c
000000f0: bb25 0b3b 7ed0 7cbc 39de 17bd 28ac 0a3d
0.018392332 -0.014735984 -0.018637724 0.026737297 -0.011751681 0.0022309343 -0.017801736 -0.005452154
-0.029655525 -0.022716047 0.010051555 -0.021446655 0.025347816 -0.0136708 -0.021521145 0.022622725
0.008884312 -0.019350387 -0.02562932 0.02043916 -0.036361843 0.009475078 0.038399175 -0.019265825
-0.0020070157 0.016334038 0.03695138 -0.00082268915 -0.0372587 0.02899429 0.09617037 -0.027259897
-0.016132962 -0.03029295 -0.03506177 -0.009432831 0.029522669 0.025529956 -0.02479792 0.030812286
0.004992885 0.01302301 -0.031539336 0.026192892 -0.003332504 0.033646785 -0.026668392 0.039293017
0.021939555 -0.034875266 0.019269705 0.0023505818 -0.0315274 -0.01516594 -0.017308442 -0.015240674
0.02827458 -0.013183841 -0.03115095 0.02034971 0.0021232206 -0.015430568 -0.037077162 0.033855587

hiden_layers.3.weight f4 [64, 64]
00000000: eb9f d8bd 5170 473e e6b5 413e 419e d2bc
00000010: c079 96bd 5f01 243e 9bc8 90bd e6af 7bbe
00000020: 8cb0 ea3c 3695 7c3d a236 173e 407e 31bb
00000030: 81c6 433e 72f5 3dbe f60e 823e 2eed 9cbd
00000040: 9731 cfbd 419c 1bbe 8fca cf3d c634 2fbe
00000050: 025f 5f3e 6f14 82be 02c7 433e 45e8 443e
00000060: abe9 0b3e 3818 0fba a3eb d2bd b4e7 8ebd
00000070: d822 2e3e 0d8e 053e 6baf 76bd d2cd 803e
00000080: 6b9a b73d 5a4f 983d c7ea e3bd 35c4 113e
00000090: 4d32 e73c c7ac b43c e37a aa3d 1cf7 aebd
000000a0: 0c67 833d 6bd9 043e df96 5fbe 12cc 34be
000000b0: 9a57 063e e0d5 463e dc7d 783d 0502 b4bd
000000c0: 4c41 443e 9094 3abe b8fa fabd b179 3ebe
000000d0: 6925 333e 904f 633e da02 423e 9d6a 0bbe
000000e0: 620f 0d3e 7ebb c13d 2534 2dbe c709 653d
000000f0: 5e7f 7a3d e7dc 553e 1f80 b5bd 10de 5a3e
00000100: 5625 38be 2959 ccbc 1795 36bc 90b6 9b3d
00000110: fdcf 853c c2a2 f63d 9e45 54be 4f9f c13d
00000120: ab31 19be ee0b 34be b988 323e a5c0 ce3d
00000130: 73a6 393e b82b 0ebd 5866 b6bc 9112 393e
00000140: 3ac8 273e 8c19 40bd dbcb 563e ddec 343e
00000150: a7dd 453e ee47 b4bd a335 b1bd 93cf 4f3e
00000160: 58ee a6bd 3c03 ed3d b65a 513e 1de0 4dbe
00000170: 311a 2c3e fe1f 45bd 1261 60be 1f39 0d3e
00000180: 7719 243e 0f7c 8dbd 5729 413e c8f1 e53d
00000190: b0f7 99bd e1bc 0dbe efe6 3dbe 8abe 9c3d
000001a0: ba2b 7d3c 4751 18bd 7c04 3e3d 0331 5c3e
000001b0: fae5 143d f889 8f3d 0040 033e 3168 4e3c
000001c0: 8e42 1d3e 5829 29be 5b1a 02be 57f2 2c3e
000001d0: 7394 173e f3d8 8ebd 07a8 4ebd 9dee 433e
000001e0: edef 2e3e 8471 03be a6eb db3d 0e23 2c3d
000001f0: 6d4d bf3d b680 fe3d 085d 5b3b f9b5 c53d
00000200: d03a 21be a312 313e 7b0e 82bd 9227 99bd
00000210: 2a9b f7bd 67cf c13d 7e87 143e f0f8 49be
00000220: 9044 463e 75bb 09bd 1b08 2abd 838e c93d
00000230: 9425 cdbd 309a 033d 8909 113e f323 c73c
00000240: 7f16 ad3d a380 0d3e 0779 23be a32b 44be
00000250: 8474 923d b1d9 9e3c 31f6 18be cb77 0a3e
00000260: 1f50 adbb d465 b23d 0477 59be 4680 153e
00000270: caed 803e 2497 58be b821 23be 8a80 cbbd
00000280: 6bf7 6cbe 0f63 dd3d 0892 503e 6668 813c
00000290: f78c 7bbd 5168 8fbd 90bb db3d 5056 473d
000002a0: 7fc1 303e 1c5f 7cbe 0717 85bd 0bee 093d
000002b0: 42af 33bb ff2c 2dbe 40de ed3d 5494 49be
000002c0: fa52 c5bd 54eb 2cbe 7ab5 663e 54b8 2e3e
000002d0: 87e3 023c 5230 96bd 045a 2fbe 17b1 5bbe
000002e0: 9914 3dbe 5a25 1fbe 8903 653d b0ff d83d
000002f0: 4589 003e 5c08 573d 915e 5b3d 3934 34bb
00000300: d32b 2e3d 9d27 dbbd 2f44 da3d 5f22 81bd
00000310: bb67 5cbe 308a a2bd 7ad8 a53d 9dad e6bd
00000320: f059 a83d 8035 07be f6af 3fbe 74f4 05be
00000330: 6e10 49be ee0a 47be ced4 bbbd 154a debc
00000340: 25c2 b9bd 84c6 c93d c6b4 813d f272 c83d
00000350: 07f3 ee3d e905 91bd 8347 2ebe 1eb1 6fbc
00000360: 88c1 123e e403 a83d 25d4 973d 27d0 853d
00000370: 73d8 553e 1773 54be 92ba 8e3d 15d5 9f3d
00000380: 3734 f63d 1bc4 383e 4d0f e03d 4f84 e5bd
00000390: 3a15 63be 74ae 66bd aa65 2ebe 0888 03bd
000003a0: d053 a43d 6e2c 4fbe 3d64 27be 151d 083d
000003b0: fec0 c63d 1b9b 01be 31e8 0a3e 03de 033e
000003c0: 6d05 1abe d8da 353e 3b15 a7bd 511e 14be
000003d0: 7c7c aa3d c6ae 0e3e 295b 3c3d 4490 173e
000003e0: 85c7 133e 11ec d13d e5ef 193e 434b dabd
000003f0: 4fe7 eebc a340 30be a59f 01be 7e0d fc3c
-0.10577377 0.19476439 0.18917045 -0.025710227 -0.07347441 0.16016148 -0.070695125 -0.24578819
0.028648637 0.061665736 0.14766935 -0.0027083308 0.19118692 -0.18550661 0.2540204 -0.07662426
-0.101168804 -0.15196325 0.10146057 -0.17109975 0.21813586 -0.25406215 0.19118884 0.19229229
0.13663356 -0.0005458626 -0.102988504 -0.069777876 0.1700548 0.1304247 -0.060225885 0.25157028
0.08965 0.0743701 -0.111287646 0.14235003 0.028222227 0.022055043 0.0832422 -0.08543226
0.06416139 0.12973563 -0.21834897 -0.17655972 0.13119355 0.19417524 0.060666904 -0.08789448
0.19165534 -0.18220735 -0.12254852 -0.18601109 0.1749474 0.2219832 0.189464 -0.13614888
0.137754 0.094595894 -0.16914423 0.055917528 0.061156623 0.20885049 -0.08862328 0.21373773
-0.17982993 -0.024944859 -0.011143944 0.076031804 0.016334528 0.12042762 -0.20729682 0.09454214
-0.14960353 -0.17582676 0.17434968 0.10095338 0.18129902 -0.034709662 -0.022265598 0.18073489
0.16384974 -0.046899363 0.20976202 0.17668481 0.19322835 -0.08802782 -0.086528085 0.20294027
-0.08150929 0.115728825 0.2044476 -0.20105024 0.16806866 -0.048126213 -0.2191203 0.13791321
0.16025339 -0.06908428 0.18863426 0.11227757 -0.07517946 -0.13841583 -0.18545125 0.0765353
0.01545232 -0.037186887 0.046390995 0.21503071 0.036352135 0.07008737 0.12817383 0.012598083
0.1535742 -0.16519678 -0.12705366 0.1688932 0.14802723 -0.069749735 -0.050453212 0.19133992
0.17083712 -0.12836272 0.10738306 0.04202562 0.0934094 0.124268934 0.00334722 0.09653849
-0.15745091 0.17292266 -0.06350418 -0.074782506 -0.12090142 0.09463387 0.14504811 -0.19723868
0.19362092 -0.03362604 -0.041511636 0.09841635 -0.10016933 0.032129467 0.14163794 0.024309134
0.084515564 0.13818602 -0.15964137 -0.19157271 0.0715113 0.019390913 -0.14937665 0.1352226
-0.005289092 0.087108284 -0.21236807 0.14599714 0.2518142 -0.21151406 -0.15930831 -0.09936626
-0.23141257 0.108099096 0.20368207 0.015796851 -0.06141373 -0.07002319 0.10729134 0.0486663
0.17261313 -0.24645656 -0.06498533 0.03367428 -0.0027417694 -0.16911696 0.116146564 -0.19685489
-0.09634967 -0.16886646 0.22530165 0.17062503 0.007988817 -0.07333435 -0.17124182 -0.21454273
-0.18464889 -0.15541592 0.055911575 0.105956435 0.12552364 0.052498206 0.053556982 -0.0027496947
0.042522263 -0.10700915 0.10657536 -0.06305384 -0.21523945 -0.079365134 0.0809793 -0.11263583
0.08220279 -0.13204002 -0.18719468 -0.13081533 -0.19635174 -0.19437763 -0.09171449 -0.027134934
-0.09070233 0.09852317 0.06333308 0.09787549 0.116674475 -0.070812054 -0.17019467 -0.01462963
0.14331639 0.08203867 0.0741351 0.065338425 0.2088335 -0.20747028 0.06969179 0.07804314
0.12021678 0.18043558 0.109404184 -0.112068765 -0.22176066 -0.056318715 -0.1703097 -0.03211215
0.080237985 -0.20231792 -0.16346832 0.03323086 0.09704779 -0.12656824 0.13565136 0.1287766
-0.15041132 0.17759264 -0.08158346 -0.1446469 0.08324525 0.13933858 0.045985375 0.14801127
0.1443158 0.10250104 0.15032919 -0.10658886 -0.02916303 -0.17212157 -0.12658556 0.030768152

hiden_layers.3.bias f4 [64]
00000000: bd35 d6bc 1317 9bbc 238c dbbc 411f 9fbc
00000010: fc75 da3b ff36 d0bc 28e6 e13c fc43 933c
00000020: a989 36bc 2649 153c ecd0 a43c 2392 103d
00000030: b994 173d a93f f63c f18c 8fbc 2889 adbc
00000040: a271 b3bc 492c 563c d890 0fbc c19d ad3c
00000050: 3803 8b3c 3ef3 ffbc 7c2c 1f3d 3b9f a93c
00000060: dc74 fbbc 9fa2 9b3c cabc cabc c882 e6bc
00000070: 74c0 c3bc 216d 92bc 70f3 3a3c 7647 b33c
00000080: e1cc 2ebc e27f a93c 757b a8bc c346 4a3c
00000090: c458 2c3c 8560 b43c 5d4f a63c ab3a 843c
000000a0: be75 96bd 3ab8 17bd 2fcb 253d 8c11 c13b
000000b0: 4c0f b6bc 7110 183d cf41 c4bc 7997 2a3c
000000c0: bea9 28bd b79e b63a 593f a7bc 64b1 b9bc
000000d0: 0741 27bd efe6 eebb 43bc 0a3d b54e cfbc
000000e0: afbb ab3b 8a0b 4dbc a082 ecbc ed9d 92bb
000000f0: 7ca3 ca3c 07e5 953c 5816 f0bc 9288 a8bc
-0.026148671 -0.018931901 -0.02680022 -0.019424083 0.006666897 -0.02541685 0.027575567 0.017976753
-0.011141219 0.009111678 0.020119153 0.035295617 0.037007067 0.030059652 -0.01752326 -0.021183565
-0.02190477 0.013072082 -0.008762561 0.021193387 0.016969308 -0.031243917 0.038860783 0.02070581
-0.030695371 0.018998442 -0.024748225 -0.028138533 -0.02389548 -0.017874302 0.011410579 0.021884661
-0.010668964 0.020690862 -0.020566681 0.0123459725 0.01051921 0.02201868 0.020301515 0.016141256
-0.07346676 -0.037040927 0.040476974 0.0058919843 -0.022224091 0.037125055 -0.023957161 0.01041209
-0.041177504 0.0013932799 -0.020415949 -0.022667594 -0.0408335 -0.007290713 0.033870947 -0.025306085
0.0052408795 -0.012514958 -0.02887088 -0.0044743926 0.024736159 0.018297685 -0.02930753 -0.020572934

hiden_layers.4.weight f4 [64, 64]
00000000: 2fab 5bbe 896d 733b 8bcc 9c3d 2d5f 38be
00000010: aa82 283d d1f7 51bd 34e8 e5bc ca81 d53d
00000020: 2865 77bd 90ff 3abd 6f64 3bbd c4d9 b13d
00000030: 9881 fa3c 1e93 e5bd b7f8 a5bd 3138 61bd
00000040: 0adf 323b eb48 7ebd 67a9 bf3d 5d81 333e
00000050: 4639 2fbe 0450 673d bd15 55be df7d 09bd
00000060: 3648 72bd e378 23be 1596 af3d 4990 0e3e
00000070: 2625 29be 4d78 16be c615 97bd 4e05 ecbc
00000080: c4ed 0b3e b262 06bc 1969 103d 4c6b 52be
00000090: a95f 603e 7021 b7bd f972 91bd 0434 dcba
000000a0: a770 0dbe b5c1 b3bc 8386 5a3e 5f7d 8d3d
000000b0: dce2 e9bb 058c 023e db8b 423e ee46 32be
000000c0: e982 3ebe 8e96 bcbd 5f2e 763d 71d2 f43d
000000d0: 1a11 55be ad95 293e 5002 613e 32a9 f8bd
000000e0: f76a e93d 1b45 223c 0d89 6ebe f6e9 18be
000000f0: 8360 983d d4b7 0dbe 5cb8 723c 1d73 a0bd
00000100: 4d95 5fbd 94da 2bbe 196d 0bbe 1221 b83d
00000110: 6b21 d13d 5752 343d 0ad4 43be 27e5 b6bc
00000120: 3ab8 03be fe66 14bd fea4 cebd f524 193e
00000130: 98f6 1e3e bf67 fe3d 76eb ecbd e30a 933d
00000140: 3506 5bbe 31db debd 1df3 153e 43dc b73c
00000150: 728f ff3d c5c4 213e 2229 573e 1c25 c53d
00000160: 9f71 10be 4004 54be e55a 18be b579 373e
00000170: 0e8b 063c b4c2 dc3a cb6d 24be f6ca 5dbe
00000180: f440 373e 03ea c03d f14b 3b3e 1f89 c3bd
00000190: 517f 60be 6a1b 1a3d b3eb 923d 0738 9bbb
000001a0: 2a22 223e ec9a e2bd 7271 873d 6c2b 253e
000001b0: cbdd 7abd cbca 353e 9eda 333c 9d08 49bd
000001c0: 5704 d6bd 8b3f 3d3e c403 2abe 1fb0 01bd
000001d0: a000 cb3d 833f b9bd 0dfa 523e ffca b43d
000001e0: e92d c4bb 9054 38be 8055 773d 200f cfbc
000001f0: 6add 523e c024 183d c2b4 d23d 0103 153e
00000200: 59ef 16be 4b68 64be 6718 24be 37cd 5bbe
00000210: a96b 30bc 57de 9dbd f5ce 233c 3f80 263e
00000220: 906a 48bc 26ea c1bd 89fb f23d 19ec a3bc
00000230: 5aa5 64bc 7be3 2f3e 50f4 f73d a892 e4bd
00000240: 63fc 213b 549a 533e 66bb e9bd c4d7 f13d
00000250: d2b3 37be 4d7e 71be 0d86 c2bc 5aba 633d
00000260: 4703 6fbe b949 71be 8439 43bc 5171 4b3e
00000270: c1c2 7dbe bb94 773d e309 e9bd 11a6 663e
00000280: 245b 0dbe 223a b83c 7b26 57be 2e8d c63d
00000290: d13f 86bd 80e8 423d c98b 96bd a057 813e
000002a0: d8cc 053e 4888 e93d 51e6 68be e948 2cbc
000002b0: 9940 27be 8f13 e53c 646f 993d 9cc6 4b3e
000002c0: 644a 6a3e a873 9d3d 834f 303e d559 5bbe
000002d0: 1036 57be 66af 423e 5c7e 9d3d 5627 8a3d
000002e0: 237d 0ebe 03d0 603e b208 0e3e 7df3 3c3e
000002f0: cff4 c9bc f5f8 c6bc 4606 523d c29d 1f3e
00000300: 76fb cb3d 5180 b2bd 8acd a3bd 2ae8 3a3e
00000310: 49f2 173e 0aca d83d 9286 643c b4dc 34be
00000320: a4a3 483e cae9 f63d e302 ee3d 3a3a 94bd
00000330: 2dc4 d6bd 4bd3 2dbe 4336 673e c805 6b3e
00000340: 0d41 8c3d a85b db3c 5850 55be 6a4f 8bbe
00000350: 935f 32be be40 c13d 4d26 233e 9830 1a3e
00000360: c792 273e 1e15 e5bd 825d 3c3e 80e1 b1bd
00000370: d727 debd a652 9f3d ce9e 7abc 75b6 90be
00000380: 0823 8dbd e02b 473d 5ca5 f7bd b2dd 2dbe
00000390: 4246 c33d 294a c1bd d912 0dbe 2041 aa3d
000003a0: 0a6b d3bc 1505 373d 5bdb 42be b9ab 6d3e
000003b0: f0f8 f93d db2e 36be c25c e6bd 9bf2 67be
000003c0: b3d7 86bd d9f1 353e 751f 60bd bb61 5c3e
000003d0: f45d 90bd 90d8 ff3d 9f0f 0d3e 8760 903e
000003e0: acbc 70be fd3d 2fbd 72d1 403e b64f 983d
000003f0: cee0 f03d 3698 a6bd 50d5 203e f855 663e
-0.2145202 0.0037144145 0.07656201 -0.18005057 0.041140236 -0.051261727 -0.028064825 0.10425146
-0.060399204 -0.04565388 -0.045750078 0.086841136 0.030579373 -0.11209701 -0.08104079 -0.05498523
0.0027293586 -0.06208126 0.09358483 0.17529817 -0.17111692 0.056472793 -0.20809074 -0.033567306
-0.059150897 -0.15964083 0.08573548 0.13922228 -0.16518077 -0.14694329 -0.073772 -0.028811123
0.13664919 -0.008202242 0.03525648 -0.20548743 0.21911491 -0.089419246 -0.071020074 -0.001680017
-0.13812505 -0.021942953 0.21340375 0.06908678 -0.0071376394 0.12748726 0.18998663 -0.1740987
-0.18604626 -0.092084035 0.060102817 0.11954201 -0.20807305 0.16561003 0.21973538 -0.121416464
0.11397355 0.009904171 -0.23294468 -0.14932999 0.07440283 -0.13839656 0.0148144625 -0.07834456
-0.054585744 -0.167826 -0.13615836 0.08990683 0.10211452 0.044023838 -0.19123855 -0.022326065
-0.12863246 -0.036231034 -0.100900635 0.14955504 0.15523756 0.12422132 -0.11568348 0.07179811
-0.21389087 -0.10881651 0.14643522 0.022443896 0.12478532 0.15797718 0.21011785 0.09626219
-0.14105843 -0.20704746 -0.14878424 0.17917521 0.008211864 0.0016842694 -0.16057508 -0.21659455
0.17895871 0.09419634 0.18290688 -0.09547638 -0.21923567 0.0376238 0.07173862 -0.0047369036
0.15833345 -0.11064705 0.06613435 0.16129845 -0.061246675 0.1775314 0.010977415 -0.04908048
-0.104500465 0.18481271 -0.16602999 -0.031662103 0.099122286 -0.09045317 0.206032 0.08827781
-0.005986918 -0.18001008 0.060384274 -0.025275767 0.20592275 0.037144423 0.10288383 0.14551927
-0.14739741 -0.2230541 -0.16024934 -0.21465002 -0.010767856 -0.077084236 0.009998073 0.1625986
-0.012232438 -0.094684884 0.11864383 -0.020010041 -0.0139554385 0.1717662 0.12107146 -0.11160785
0.0024717085 0.2066434 -0.114126965 0.11808732 -0.1793969 -0.23583336 -0.023745561 0.05559764
-0.23341094 -0.23563279 -0.011915568 0.19867446 -0.24781324 0.060444575 -0.11378839 0.22524287
-0.13804299 0.022488657 -0.21010773 0.09694897 -0.06555141 0.04758501 -0.07350881 0.25262165
0.13066423 0.11402947 -0.22744109 -0.01051543 -0.16333236 0.027963428 0.07491949 0.19899982
0.2287994 0.07688075 0.17217831 -0.21420987 -0.21016717 0.19012222 0.07690117 0.06745784
-0.13914923 0.2195435 0.13870504 0.18452258 -0.024652867 -0.024288634 0.051275514 0.15587524
0.09960072 -0.08715881 -0.07998188 0.18252626 0.14838518 0.10585411 0.0139481 -0.17662317
0.19593674 0.120563105 0.11621644 -0.07237668 -0.10486636 -0.16975133 0.22579293 0.22951424
0.06848345 0.026777104 -0.2083143 -0.27209026 -0.17419271 0.09436177 0.1593258 0.150576
0.16364585 -0.111856684 0.18395045 -0.08685589 -0.108474426 0.07779436 -0.015296651 -0.28264204
-0.06891447 0.048625827 -0.12092087 -0.16979101 0.09534885 -0.09437973 -0.13776721 0.08313203
-0.025807876 0.04468258 -0.1902899 0.23210038 0.12205684 -0.17791311 -0.11248161 -0.2265114
-0.0658411 0.17768039 -0.0547175 0.21521656 -0.0704917 0.12492478 0.1377549 0.28198645
-0.23509473 -0.042783726 0.18829897 0.07437079 0.11761628 -0.08134501 0.15706372 0.22493732

hiden_layers.4.bias f4 [64]
00000000: 4906 dabb 783a c839 a5a3 bc3c a1c3 3ebc
00000010: 475f 403d e46f 5bbc 9805 263c e300 8abb
00000020: 274e 703c c137 473c 1f0a 9bbc e6e7 043d
00000030: bdcd 063c 2f00 a7bc 82ea 893c 5c2c 21bb
00000040: 08f1 933c 190d ed3b f954 163c f448 0dbc
00000050: ee37 053c 74a2 58bd f8e1 623c 4f1b b5bc
00000060: 60f9 8b3a 1a21 3b3b a6b6 eabc 61ab abbc
00000070: 9527 55bd d5c5 ea3b 3917 a03a 099b bc3c
00000080: 6d24 87bc d7fc 21bd a192 6e3d ce6e 2fbc
00000090: 66cf b2bb a002 77bc 6900 3c3c e1f0 203c
000000a0: bd1c ca3c f940 eabb 14a9 8bbc 5aab 09bd
000000b0: ffa1 5b3a cdef eabc c19c 0fbd 7f23 77bb
000000c0: 63e3 a43c cf54 d1bb d19a 85bb da48 23bc
000000d0: 4b9f 6fbd 6f7a a93b 013b 08bc 5910 523d
000000e0: f481 34bc 6409 1cbb 31f7 ee3b 9d03 a7bc
000000f0: 6f55 a63c c045 afb9 fc78 92bc f94b 87bc
-0.0066535813 0.00038190535 0.02302725 -0.011643321 0.046965864 -0.013393376 0.01013317 -0.0042115315
0.0146670705 0.012159289 -0.018925725 0.032447718 0.008227763 -0.02038583 0.016835455 -0.002459309
0.018059269 0.0072342274 0.0091755325 -0.00862335 0.00813101 -0.052889302 0.01384782 -0.022107748
0.0010679178 0.0028553666 -0.028651547 -0.020955743 -0.0520397 0.0071646967 0.0012213952 0.023023145
-0.016496861 -0.039547767 0.058245305 -0.01070757 -0.0054568527 -0.015076309 0.011474707 0.009823055
0.024671907 -0.0071488586 -0.017048396 -0.03361068 0.00083783263 -0.028678799 -0.0350616 -0.0037710366
0.020127958 -0.006388284 -0.0040772934 -0.0099661 -0.058501523 0.005172066 -0.008314849 0.05128512
-0.011017311 -0.0023809308 0.007292651 -0.020387465 0.02030441 -0.0003343057 -0.017879955 -0.016515719
