results/1_first_try/epoch450/model_weights.pth (torch, 484214 bytes, 88 tensors)

init_layer.0.weight f4 [64, 3]
-0.28646952 -0.06210746 0.14104255 0.25968015 -0.05877012 -0.014188274 -0.08764614 -0.2398492
-0.11210945 0.13971749 0.013138114 0.021042267 -0.015958395 0.28393066 0.16583045 -0.14263166
-0.3083199 0.12661785 0.2979131 0.028938208 0.24930932 0.31577197 0.2503681 0.16646104
0.1879863 -0.30921972 0.009248394 -0.06796958 -0.18721838 0.18320994 -0.06534169 -0.02617564
0.07811817 0.050871897 0.17077237 -0.1562182 -0.15009502 -0.0269875 -0.017154219 0.013105544
0.04304812 0.19096333 0.10334383 -0.26390842 -0.020081861 0.24300711 -0.19102114 -0.19928516
0.20493482 -0.13227063 0.19765165 0.23126252 0.2637053 -0.105876744 0.10789536 -0.042760495
-0.30288005 -0.16835584 0.15714233 -0.26071388 0.13325058 -0.15304777 -0.030210467 0.23183681
-0.05841399 -0.033405636 0.054075997 -0.2635248 -0.1265059 0.010428565 0.185435 -0.050206866
-0.002777256 -0.14991903 0.10259705 -0.15324746 0.21197753 -0.06580639 0.0030802377 0.29569218
0.110943146 -0.1674688 -0.241135 0.06937365 -0.011513366 0.12744583 -0.16500281 -0.014980793
-0.316933 0.09268153 -0.28523687 -0.10850139 -0.08923921 -0.10690548 0.07445918 0.25885633
-0.04455725 0.2709371 0.09067887 -0.26153225 0.2938869 -0.034457125 -0.057860363 -0.055233084
-0.09102651 -0.015282814 -0.18345693 -0.21146123 0.066126175 -0.008084246 -0.16518936 -0.23353277
-0.09260992 0.0026230298 0.2696508 -0.14406687 0.15351774 -0.29776296 0.1365071 0.15845625
0.26709282 0.036231764 -0.1767053 -0.07858206 -0.050450876 -0.102978714 0.14416619 -0.13067809
0.16957076 -0.05139588 -0.0087536145 0.17432627 0.10560683 -0.24711646 -0.1448156 -0.09983516
-0.20840342 0.10639261 -0.031134676 -0.169737 -0.024838647 0.043360226 0.19715947 0.0929654
0.10868438 0.29411128 -0.005086717 0.067275226 -0.26785517 0.11977179 -0.04334159 -0.28187722
-0.10907258 -0.34232995 -0.12792747 -0.042803116 0.17861667 -0.29942837 0.038530063 -0.16174024
-0.19493116 0.012901154 0.14601102 -0.20276894 -0.17637894 0.22864346 0.022470905 0.17704013
0.18714865 0.08561351 0.14912091 0.13355966 -0.039979853 0.010199987 0.24895704 0.2681115
0.05466658 0.0608112 0.11375577 0.0003434614 -0.10784516 -0.29026774 0.0020735592 -0.08025497
0.013411585 0.012509006 0.25633523 -0.012864852 0.026810719 0.22004329 0.11071492 0.10322757
00000000: 22ac 92be 6464 7ebd 756d 103e ccf4 843e
00000010: f0b8 70bd ef75 68bc d27f b3bd 079b 75be
00000020: a499 e5bd 1a12 0f3e 3e41 573c d560 ac3c
00000030: 2ebb 82bc 5c5f 913e 75cf 293e 090e 12be
00000040: 1bdc 9dbe 1ca8 013e 1188 983e d20f ed3c
00000050: f14a 7f3e ddac a13e 3f30 803e c374 2a3e
00000060: 7b7f 403e 0c52 9ebe 9386 173c a333 8bbd
00000070: 2db6 3fbe 639b 3b3e ddd1 85bd 4c6e d6bc
00000080: 6bfc 9f3d 0d5f 503d f4de 2e3e aaf7 1fbe
00000090: 82b2 19be e414 ddbc 0187 8cbc a3b8 563c
000000a0: 3a53 303d e48b 433e eea5 d33d 011f 87be
000000b0: b782 a4bc dbd6 783e 0c9b 43be 6911 4cbe
000000c0: 6fda 513e f471 07be 3265 4a3e 15d0 6c3e
000000d0: 6204 873e e8d5 d8bd 3ef8 dc3d a125 2fbd
000000e0: 1813 9bbe 7965 2cbe ebe9 203e 4a7c 85be
000000f0: d772 083e 8eb8 1cbe f17b f7bc a166 6d3e
00000100: 8243 6fbd 59d4 08bd cb7e 5d3d b9ec 86be
00000110: c38a 01be 92dc 2a3c ace2 3d3e b7a5 4dbd
00000120: a002 36bb 6084 19be 671e d23d e7ec 1cbe
00000130: a310 593e 80c5 86bd d0dd 493b f764 973e
00000140: 2936 e33d f17c 2bbe 18ec 76be c613 8e3d
00000150: 8fa2 3cbc 2981 023e 7ff6 28be 0072 75bc
00000160: 0b45 a2be d0cf bd3d 910a 92be fa35 debd
00000170: 0cc3 b6bd 43f1 dabd 0e7e 983d d188 843e
00000180: aa81 36bd 44b8 8a3e d8b5 b93d 8ee7 85be
00000190: 5878 963e ea22 0dbd fdfe 6cbd 163c 62bd
000001a0: 1b6c babd c564 7abc 22dc 3bbe 4b89 58be
000001b0: 296d 873d c973 04bc 6627 29be 3723 6fbe
000001c0: 45aa bdbd 23e7 2b3b ab0f 8a3e 4486 13be
000001d0: c133 1d3e 6374 98be 84c8 0b3e 5b42 223e
000001e0: 64c0 883e c267 143d 3cf2 34be a2ef a0bd
000001f0: 94a5 4ebd 81e6 d2bd 4da0 133e 7ad0 05be
00000200: f5a3 2d3e 7c84 52bd 526b 0fbc 9682 323e
00000210: 6548 d83d 190c 7dbe 8a4a 14be 6076 ccbd
00000220: b567 55be 5ee4 d93d 260e ffbc 89cf 2dbe
00000230: 6b7a cbbc 7e9a 313d 2ce4 493e a564 be3d
00000240: eb95 de3d c195 963e 7aae a6bb 98c7 893d
00000250: 5024 89be ea4a f53d f386 31bd 3652 90be
00000260: 7261 dfbd df45 afbe 6bff 02be 5252 2fbd
00000270: 4ae7 363e ad4e 99be b3d1 1d3d 3c9f 25be
00000280: 099c 47be 5d5f 533c ea83 153e a9a2 4fbe
00000290: ae9c 34be 8321 6a3e e714 b83c 024a 353e
000002a0: e5a3 3f3e 2356 af3d 27b3 183e ddc3 083e
000002b0: eac1 23bd d91d 273c 98ee 7e3e e945 893e
000002c0: 10ea 5f3d 2a15 793d c9f8 e83d 9c12 b439
000002d0: ecdd dcbd f99d 94be 8de4 073b b85c a4bd
000002e0: 44bc 5b3c 93f2 4c3c 5f3e 833e 1ac7 52bc
000002f0: 27a2 db3c 0753 613e 81be e23d fa68 d33d

init_layer.0.bias f4 [64]
-0.12874328 0.071171835 -0.07409035 0.07407923 -0.079871096 -0.04575693 0.14421551 0.11443584
0.0075868303 0.056393005 -0.015374543 0.00036060897 -0.07744088 0.09987664 0.033200324 0.106078
0.14341922 0.07448363 -0.114615396 0.05526824 0.07816513 0.054283973 0.05948523 0.052576996
0.024919864 -0.100889236 -0.03948291 -0.0629127 -0.05377564 -0.08441565 -0.085705146 -0.106696755
0.015281021 -0.0513191 -0.05160942 0.10825867 0.051773302 -0.09011826 0.09336696 -0.09734325
0.10416408 -0.06453391 0.050408576 -0.11069434 0.090002544 -0.024813484 -0.023618754 -0.056118213
-0.025806542 0.030151404 0.05449994 -0.08041708 -0.019131847 -0.07303617 0.07853849 0.11530319
0.09656633 0.08535378 0.09560035 0.03303183 -0.015092382 -0.04588508 0.0895952 0.085543685
00000000: 47d5 03be 8ac2 913d aebc 97bd dab6 973d
00000010: 7593 a3bd 9e6b 3bbd 3bad 133e 565d ea3d
00000020: f29a f83b 5afc 663d 82e5 7bbc 1e10 bd39
00000030: 5399 9ebd 208c cc3d 10fd 073d 6c3f d93d
00000040: 7ddc 123e e08a 983d 7abb eabd f360 623d
00000050: 0a15 a03d df58 5e3d c9a6 733d fa5a 573d
00000060: be24 cc3c 049f cebd d5b8 21bd 60d8 80bd
00000070: d843 5cbd 1de2 acbd 2e86 afbd d483 dabd
00000080: 3f5d 7a3c fa33 52bd 6664 53bd b9b6 dd3d
00000090: 3e10 543d ec8f b8bd 2d37 bf3d e65b c7bd
000000a0: fa53 d53d 5b2a 84bd 3979 4e3d b7b3 e2bd
000000b0: 4153 b83d a645 cbbc 1e7c c1bc 36dc 65bd
000000c0: 3e68 d3bc 1400 f73c 543b 5f3d b6b1 a4bd
000000d0: 64ba 9cbc fd93 95bd cad8 a03d 1424 ec3d
000000e0: 91c4 c53d f6cd ae3d 1eca c33d 624c 073d
000000f0: 0a46 77bc fef1 3bbd b07d b73d 8731 af3d

hiden_layers.0.weight f4 [64, 64]
-0.10063016 -0.012648494 0.18869312 0.08349522 -0.22859967 0.017221637 0.053271372 -0.19197033
-0.011309719 -0.05174579 0.024383899 0.18693805 0.07259193 0.10523039 0.21899924 -0.20987408
-0.060974084 -0.12597542 0.006791129 -0.15667586 -0.068678275 0.0922391 0.031084053 -0.33699927
0.15632728 0.026982043 -0.14722405 -0.149332 -0.091578186 0.064960346 -0.17056616 -0.05602073
-0.1497821 -0.07528085 0.19451343 0.019022731 0.014643665 0.04517578 0.22792329 0.10398411
0.044955254 -0.047697224 0.10524199 -0.051055927 -0.040872607 -0.024238547 0.05909128 -0.24298956
0.17530772 -0.0776374 -0.11438158 0.078329265 0.053939883 0.0018873321 0.20950316 0.17672469
-0.18274832 -0.16024972 -0.17365988 0.09276875 0.07386929 -0.09056218 -0.033191893 -0.16269532
-0.048618913 -0.23955408 -0.21878348 0.14262079 -0.15613273 -0.107490174 0.1902009 -0.16992898
0.0001627322 -0.19341564 0.1886459 -0.12002567 0.044180736 0.05875826 -0.009737424 0.15011436
0.010004807 0.20245276 -0.016426297 -0.010545074 -0.104610525 -0.2584344 0.10928095 0.15761894
-0.052297525 -0.031692572 0.22477302 0.13644016 0.10039781 0.07833446 -0.13996708 -0.14645274
0.018453619 0.05494288 0.14537475 0.12810768 0.18834488 -0.017228372 -0.098629534 0.16976015
-0.06786096 -0.023938375 -0.23241903 -0.018028628 0.107967794 -0.22248822 0.16807069 -0.18543734
-0.06835548 -0.12750117 -0.08085903 -0.10496167 0.083978295 -0.15718019 0.14597282 0.10461365
-0.20787275 -0.13320999 -0.16906855 -0.19507211 0.20885307 0.24279465 0.12738693 -0.116807505
0.16459358 -0.10810732 0.17813233 -0.03829188 -0.16278113 -0.03187393 -0.07765322 -0.19123684
-0.02904485 -0.09016684 -0.00501532 0.16130446 0.19668478 -0.22804156 0.11202683 -0.18758804
-0.20623127 -0.19177179 0.091509916 -0.057427473 -0.12156166 -0.16664013 -0.20828183 0.026795324
-0.024051432 -0.0005351429 0.016033605 0.19872531 0.008718503 -0.19983484 0.25006485 0.26008385
-0.16379778 -0.027001645 0.1966705 0.15569797 -0.0774811 -0.09689336 -0.07912145 0.09158115
-0.23943323 -0.032573275 0.16594541 0.27246854 0.13117135 0.033076137 -0.061895065 0.014434024
-0.0050577037 0.018688533 -0.13046022 -0.008411972 -0.02507693 -0.009922632 -0.17413923 -0.0047503435
-0.2409841 -0.15443625 -0.20505114 -0.13117485 0.1535798 -0.10488042 -0.17736307 0.14587517
0.17745017 -0.15111656 0.06951962 -0.057077922 0.116671614 0.1405018 -0.06432979 -0.20024909
-0.23089209 -0.14766353 0.04388432 0.03126341 -0.0159626 -0.12884495 0.0019722607 -0.14343815
-0.10126949 0.13026948 0.1739903 -0.11627633 0.14616132 -0.10125437 -0.15092452 -0.09754688
0.22283302 0.1022942 -0.0672573 -0.013482213 -0.13160124 -0.18719923 -0.11633727 0.03142495
-0.15240586 0.09909036 -0.1355651 0.024591139 -0.037603293 -0.0857025 -0.0041499143 -0.033873636
-0.20017152 -0.0019890228 0.053423658 0.2161183 0.01774688 0.06761523 0.10048271 0.046119023
0.06784503 -0.12599537 0.21899866 -0.04169895 -0.20711541 0.22413449 0.18811738 0.042604864
-0.21510597 -0.3782171 -0.17925465 0.108584605 -0.0579596 -0.09269232 -0.05829041 -0.10304853
00000000: 2f17 cebd a13b 4fbc c538 413e 8bff aa3d
00000010: 0816 6abe 6414 8d3c 1533 5a3d df93 44be
00000020: 664c 39bc 65f3 53bd bec0 c73c b06c 3f3e
00000030: 14ab 943d 0883 d73d 5641 603e 3be9 56be
00000040: f6bf 79bd b3ff 00be 1e88 de3b a36f 20be
00000050: 32a7 8cbd dae7 bc3d fca3 fe3c 2b8b acbe
00000060: 4214 203e 7209 dd3c e7c1 16be 7dea 18be
00000070: 588d bbbd ee09 853d e5a8 2ebe fe75 65bd
00000080: 7b60 19be d92c 9abd 872e 473e 8fd5 9b3c
00000090: fceb 6f3c 3d0a 393d b964 693e 9ff5 d43d
000000a0: 0023 383d 2a5e 43bd 1d89 d73d 0520 51bd
000000b0: 096a 27bd eb8f c6bc b309 723d 41d2 78be
000000c0: de83 333e 5b00 9fbd e440 eabd 186b a03d
000000d0: 11f0 5c3d 5b60 f73a ff87 563e 51f7 343e
000000e0: 6022 3bbe 8118 24be e5d3 31be 8bfd bd3d
000000f0: c848 973d aa78 b9bd 39f4 07bd 9a99 26be
00000100: a024 47bd aa4d 75be c708 60be 2f0b 123e
00000110: 42e1 1fbe cf23 dcbd 06c4 423e dd01 2ebe
00000120: 18a3 2a39 c00e 46be 642c 413e 05d0 f5bd
00000130: dcf6 343d 80ac 703d b789 1fbc 94b7 193e
00000140: 34eb 233c c74f 4f3e 7190 86bc 3fc5 2cbc
00000150: 0b3e d6bd 8451 84be b1ce df3d dc66 213e
00000160: ee35 56bd 12d0 01bd e62a 663e f8b6 0b3e
00000170: 5e9d cd3d d16d a03d 8853 0fbe b5f7 15be
00000180: 0b2c 973c c90b 613d 1edd 143e a92e 033e
00000190: 7bdd 403e 8422 8dbc 48fe c9bd 9bd5 2d3e
000001a0: b0fa 8abd 691a c4bc 41ff 6dbe c6b0 93bc
000001b0: 381e dd3d f4d3 63be b91a 2c3e 49e3 3dbe
000001c0: f5fd 8bbd ab8f 02be 6b99 a5bd 25f6 d6bd
000001d0: d0fc ab3d d8f3 20be e679 153e ae3f d63d
000001e0: 98dc 54be 3368 08be 4e20 2dbe fcc0 47be
000001f0: 94dd 553e 299f 783e b871 023e c638 efbd
00000200: 388b 283e 5f67 ddbd 5268 363e f2d7 1cbd
00000210: 19b0 26be 3d8e 02bd a708 9fbd 97d3 43be
00000220: 77ef edbc 64a9 b8bd 8e57 a4bb ff2c 253e
00000230: bc67 493e ba83 69be 536e e53d 1417 40be
00000240: 4a2e 53be d35f 44be 8d69 bb3d 1239 6bbd
00000250: 52f5 f8bd b6a3 2abe d547 55be de81 db3c
00000260: 8207 c5bc d548 0cba e858 833c a67e 4b3e
00000270: 0dd8 0e3c 81a1 4cbe 8008 803e b629 853e
00000280: 9bba 27be 8e32 ddbc fe63 493e 4a6f 1f3e
00000290: 69ae 9ebd 0770 c6bd 6d0a a2bd e68e bb3d
000002a0: fc2d 75be 8e6b 05bd 98ed 293e ff80 8b3e
000002b0: c851 063e d87a 073d ae85 7dbd af7c 6c3c
000002c0: 18bb a5bb b218 993c 5d97 05be 5ed2 09bc
000002d0: 226e cdbc 8992 22bc 8e51 32be c5a8 9bbb
000002e0: 89c4 76be 8924 1ebe edf8 51be b352 06be
000002f0: 0644 1d3e 8ccb d6bd aa9e 35be 4d60 153e
00000300: 7fb5 353e 4dbe 1abe 4d60 8e3d 8aca 69bd
00000310: 87f1 ee3d b4df 0f3e 56bf 83bd 190e 4dbe
00000320: fa6e 6cbe 1c35 17be 0bc0 333d 100e 003d
00000330: 00c4 82bc eeef 03be 0b41 013b 73e1 12be
00000340: 6166 cfbd 5d65 053e 832a 323e 4922 eebd
00000350: 50ab 153e 735e cfbd f58b 1abe a9c6 c7bd
00000360: 572e 643e 9f7f d13d 32be 89bd 80e4 5cbc
00000370: 7ac2 06be 28b1 3fbe 3c42 eebd 73b7 003d
00000380: 4810 1cbe e3ef ca3d 94d1 0abe 5b73 c93c
00000390: e905 1abd cb84 afbd 01fc 87bb 15bf 0abd
000003a0: c3f9 4cbe 445a 02bb c4d2 5a3d 1e4e 5d3e
000003b0: e861 913c db79 8a3d e1c9 cd3d 4de7 3c3d
000003c0: 56f2 8a3d ee04 01be 2f41 603e 85cc 2abd
000003d0: 1016 54be 8383 653e d8a1 403e 7082 2e3d
000003e0: bd44 5cbe aca5 c1be 888e 37be 9b61 de3d
000003f0: 0c67 6dbd 79d5 bdbd edc1 6ebd 1c0b d3bd

hiden_layers.0.bias f4 [64]
-0.0647282 0.046074707 -0.069427446 -0.023543738 -0.06718967 -0.078753665 0.054695524 0.026245205
0.09158111 0.026180238 0.07260667 -0.10731399 0.06520762 -0.09182084 -0.009304123 0.055487428
-0.0011043682 -0.06210245 0.07087857 -0.08691611 -0.06355851 0.017237227 -0.04485275 -0.036725994
0.04449988 0.0927599 0.05337866 -0.0054528574 -0.01172446 -0.060249917 0.048865706 0.08087637
0.08931074 -0.050632223 -0.08578491 0.08117553 -0.07820571 -0.047514044 0.06758108 -0.006171814
0.02383676 -0.06133283 0.07419033 -0.08064948 0.0142930895 0.033999026 -0.030701503 0.05000604
-0.07026743 0.008114194 -0.016747195 0.044784427 -0.061372843 0.059755147 -0.08680415 0.03455259
-0.064257674 -0.1085564 -0.02005635 -0.082627624 -0.07787793 -0.058692556 -0.100458056 0.05005606
00000000: 3890 84bd d5b8 3c3d fa2f 8ebd ccde c0bc
00000010: bd9a 89bd 9a49 a1bd 6a08 603d 2f00 d73c
00000020: e18e bb3d f077 d63c ceb2 943d 70c7 dbbd
00000030: 938b 853d 910c bcbd 5270 18bc c946 633d
00000040: 73c0 90ba 235f 7ebd c928 913d 1301 b2bd
00000050: f72a 82bd 1635 8d3c 84b7 37bd ff6d 16bd
00000060: 8245 363d e7f8 bd3d 95a3 5a3d e2ad b2bb
00000070: f317 40bc 9ec8 76bd 6827 483d 83a2 a53d
00000080: 8de8 b63d bc63 4fbd 00b0 afbd 5b3f a63d
00000090: 512a a0bd 169e 42bd f367 8a3d ee3c cabb
000000a0: 4f45 c33c 2238 7bbd 1af1 973d 8e2b a5bd
000000b0: 902d 6a3c 9042 0b3d b881 fbbc 22d3 4c3d
000000c0: 5fe8 8fbd 65f1 043c 6a31 89bc e06f 373d
000000d0: 1762 7bbd d0c1 743d 60c6 b1bd 0487 0d3d
000000e0: 8799 83bd d152 debd 374d a4bc ac38 a9bd
000000f0: 777e 9fbd 9b67 70bd f4bc cdbd 9507 4d3d

hiden_layers.1.weight f4 [64, 64]
-0.026234569 0.10967927 -0.038827892 0.05562098 -0.20327792 0.23380806 -0.14634195 -0.07250259
-0.037772518 -0.00019699348 -0.040089987 -0.075099215 0.022957712 0.084517695 0.084479205 -0.055972464
0.12141266 0.2240688 -0.052482422 0.15902267 0.2457752 -0.13598865 0.0296648 -0.12109507
-0.10331665 -0.20682804 -0.07619106 0.20247681 0.06362095 -0.021125816 -0.09523195 0.022970708
-0.23575352 0.25363865 -0.120167606 -0.26705077 0.016825657 0.008740557 -0.14850418 0.12210294
0.11265228 0.07091832 -0.17401674 0.1888996 0.2028099 0.06618984 0.13440174 -0.20011932
-0.0080447085 -0.09420862 -0.08816565 0.10126082 -0.07320588 -0.0906641 -0.035221726 -0.22314934
0.2364252 0.06322272 -0.32854167 0.10688249 0.041448087 0.06701012 0.1202742 -0.16412137
0.07962003 -0.04392051 -0.21900915 0.12024127 -0.16376881 -0.09410466 -0.1477533 0.022610528
0.11735215 -0.116140686 0.21425696 0.124730185 0.06780757 -0.031363696 -0.089284435 0.14409854
0.11356886 -0.13569824 0.20708507 0.0557419 0.06192061 0.1768295 -0.21496046 0.0029091453
0.05130198 0.18836415 0.1440252 -0.021303497 -0.04947844 -0.0047975727 -0.081071064 0.27725402
0.21296796 0.12845041 -0.41231176 -0.10541744 -0.214664 0.0132229505 -0.06577157 -0.18741804
-0.28581053 -0.22265114 0.059587732 -0.1966302 0.10393493 0.08505211 -0.020958105 -0.20961462
0.23558095 0.107035995 -0.17408401 -0.07512817 0.06683762 -0.0037594116 0.075599045 -0.05607523
-0.06327013 0.0023925225 -0.087598674 0.1143176 0.08088663 -0.017852098 -0.005610319 0.49101788
0.09694781 0.14983685 -0.033517793 0.11406814 0.07542869 0.15025759 -0.09993484 0.33529207
0.21542121 -0.11053823 -0.15443812 -0.045615047 0.010590244 -0.021562167 0.08249364 0.10659971
-0.07775791 -0.12892637 0.11706773 0.095369674 0.056872055 -0.24365832 -0.21220541 -0.15243018
0.0016517586 0.089747034 -0.08837959 -0.07583218 0.1073494 0.060282245 0.20631719 0.32783648
0.14264546 -0.15286155 -0.22059311 -0.114626795 -0.083781116 -0.20839928 0.0652929 -0.13036683
-0.15970956 -0.20666553 -0.16632715 -0.119054906 0.057880905 0.04173405 -0.0791541 0.05200159
-0.008849558 0.026338 0.026590517 -0.27189904 0.014326891 -0.18242602 0.08852869 -0.027291194
-0.13232608 0.07425674 0.21321166 0.041243296 -0.009212663 0.0965133 -0.03611307 0.19777417
0.18960114 -0.057828028 -0.09939664 0.12055541 0.23509766 -0.21423288 -0.10501705 -0.13198711
0.032168847 -0.016828075 -0.11439985 0.3824613 0.23148537 0.2472031 -0.04830644 0.115125716
-0.02726601 -0.17172936 -0.0070956512 0.060526818 -0.0042254445 -0.20932443 0.08920045 0.13043949
0.12201873 0.070438564 -0.15024799 -0.018160524 0.03336813 0.2905508 0.18102518 0.16153583
0.18881781 -0.0002977965 -0.07857391 0.0013284271 0.21419509 -0.03736683 0.17160374 0.2061838
0.078693345 -0.0513558 0.25110662 0.14523692 -0.161775 -0.059029635 -0.23058017 -0.07358412
-0.042740576 0.13461664 -0.028465016 0.0715187 0.19881585 -0.060154933 -0.33268985 -0.0431334
-0.15156233 -0.013237404 0.40073514 0.07276664 -0.15220538 0.21834224 0.2133894 -0.21481562
00000000: e1e9 d6bc 869f e03d ff09 1fbd d3d2 633d
00000010: 1628 50be 616b 6f3e aada 15be 3d7c 94bd
00000020: 5bb7 1abd 0990 4eb9 6635 24bd 9ecd 99bd
00000030: d011 bc3c 9d17 ad3d 6f03 ad3d 6243 65bd
00000040: 33a7 f83d 4b72 653e cff7 56bd d7d6 223e
00000050: 7eac 7b3e 9c40 0bbe 9803 f33c b100 f8bd
00000060: ae97 d3bd bbca 53be 0f0a 9cbd 1556 4f3e
00000070: b34b 823d 0c10 adbc f808 c3bd 112d bc3c
00000080: 5f69 71be eddc 813e 6f1a f6bd e1ba 88be
00000090: f6d5 893c 8e34 0f3c 7b11 18be 1b11 fa3d
000000a0: 3db6 e63d a03d 913d 7231 32be e66e 413e
000000b0: 66ad 4f3e 8a8e 873d 9ca0 093e 14ec 4cbe
000000c0: f4cd 03bc 73f0 c0bd 3190 b4bd d561 cf3d
000000d0: f7ec 95bd 1aae b9bd a844 10bd 4381 64be
000000e0: 7319 723e ea7a 813d 9d36 a8be 35e5 da3d
000000f0: 78c5 293d 9a3c 893d 5252 f63d 6f0f 28be
00000100: d40f a33d fee5 33bd ef43 60be 0e41 f63d
00000110: 03b3 27be f2b9 c0bd a44c 17be b739 b93c
00000120: 5356 f03d 2bdb edbd 2d66 5b3e 8a72 ff3d
00000130: b2de 8a3d 3877 00bd c2da b6bd 918e 133e
00000140: ca96 e83d 7bf4 0abe 1c0e 543e 9e51 643d
00000150: 77a0 7d3d cb12 353e 981e 5cbe 5ca7 3e3b
00000160: 0622 523d 88e2 403e 587b 133e ac84 aebc
00000170: e8a9 4abd f534 9dbb 9608 a6bd 3df4 8d3e
00000180: 4614 5a3e 8188 033e 871a d3be 19e5 d7bd
00000190: e1d0 5bbe 13a5 583c 3fb3 86bd 84ea 3fbe
000001a0: c255 92be a9fe 63be 4412 743d 6d59 49be
000001b0: d6db d43d cd2f ae3d 55b0 abbc 37a5 56be
000001c0: 223c 713e b035 db3d 1443 32be ccdc 99bd
000001d0: 2ae2 883d 7660 76bb acd3 9a3d 24af 65bd
000001e0: c593 81bd decb 1c3b ef66 b3bd 591f ea3d
000001f0: e4a7 a53d 903e 92bc c4d6 b7bb b266 fb3e
00000200: 938c c63d d56e 193e f449 09bd 8f9c e93d
00000210: 5b7a 9a3d 20dd 193e a3aa ccbd 67ab ab3e
00000220: 6197 5c3e de61 e2bd 0725 1ebe d8d6 3abd
00000230: b482 2d3c 24a3 b0bc 6df2 a83d f350 da3d
00000240: 8a3f 9fbd 4605 04be 35c1 ef3d 2d51 c33d
00000250: acf2 683d 9181 79be 604c 59be a816 1cbe
00000260: d27f d83a 4bcd b73d 5c00 b5bd e74d 9bbd
00000270: 01da db3d 84ea 763d d044 533e 2fda a73e
00000280: a711 123e bd87 1cbe 29e3 61be 74c1 eabd
00000290: 6f95 abbd 9f66 55be 49b8 853d e27e 05be
000002a0: e78a 23be 21a0 53be aa51 2abe 0fd3 f3bd
000002b0: 8714 6d3d 53f1 2a3d 8b1b a2bd 9fff 543d
000002c0: bdfd 10bc cac2 d73c 5bd4 d93c 5a36 8bbe
000002d0: 56bb 6a3c e3cd 3abe 884e b53d c891 dfbc
000002e0: 7d80 07be eb13 983d 2854 5a3e bbee 283d
000002f0: b6f0 16bc c4a8 c53d 4ceb 13bd 5085 4a3e
00000300: cd26 423e 15dd 6cbd 7790 cbbd c1e5 f63d
00000310: 71bd 703e dd5f 5bbe 2e13 d7bd a127 07be
00000320: 7bc3 033d 08db 89bc 784a eabd f8d1 c33e
00000330: 800a 6d3e cf22 7d3e f9dc 45bd 08c7 eb3d
00000340: f85c dfbc d2d9 2fbe a382 e8bb f8ea 773d
00000350: 9975 8abb 2559 56be baae b63d ee91 053e
00000360: f5e4 f93d 1842 903d 9cda 19be 61c5 94bc
00000370: 05ad 083d 13c3 943e aa5e 393e a669 253e
00000380: 7559 413e 9221 9cb9 5ceb a0bd 9e1e ae3a
00000390: f555 5b3e f60d 19bd e4b8 2f3e d921 533e
000003a0: fa29 a13d 765a 52bd 0c91 803e fdb8 143e
000003b0: 58a8 25be 0fc9 71bd 351d 6cbe 45b3 96bd
000003c0: be10 2fbd f2d8 093e 772f e9bc 6578 923d
000003d0: 6296 4b3e 0565 76bd 5356 aabe a6ac 30bd
000003e0: 2833 1bbe b2e1 58bc 282d cd3e ad06 953d
000003f0: badb 1bbe 1c95 5f3e c082 5a3e a0f8 5bbe

hiden_layers.1.bias f4 [64]
-0.010035789 0.07187993 0.06476552 -0.09293383 -0.03898912 -0.03897103 -0.04034298 -0.087596916
-0.09199181 -0.04881724 0.060607232 -0.030603888 -0.007183285 -0.03596618 -0.085536055 0.0020548527
0.028561812 0.0027200966 -0.0682916 -0.01158633 0.054259825 0.057726827 0.046327844 0.1518308
-0.082537055 -0.047292896 0.06984859 0.058182567 -0.050403375 0.02885943 0.051718008 -0.06972168
-0.04507748 -0.053998478 0.054266047 0.060647566 0.07523128 -0.08966301 0.05269571 -0.034084726
0.03520032 0.065600745 -0.08269332 -0.068319835 -0.061480165 -0.092727244 -0.067769684 0.04930427
0.07081892 -0.072422706 -0.017663684 0.06204265 0.0031115662 0.02746676 -0.058698412 0.04829717
-0.0563721 0.05986646 0.02837933 0.027856538 0.07287926 0.0057691573 -0.035498977 0.05693639
00000000: 266d 24bc c935 933d c9a3 843d 1854 bebd
00000010: 0eb3 1fbd 16a0 1fbd ae3e 25bd 0366 b3bd
00000020: 3466 bcbd 96f4 47bd 4a3f 783d 01b5 fabc
00000030: c361 ebbb 4651 13bd 872d afbd b5aa 063b
00000040: 76fa e93c a643 323b 77dc 8bbd 97d4 3dbc
00000050: 8d3f 5e3d f772 6c3d 44c2 3d3d 8979 1b3e
00000060: 3009 a9bd 32b6 41bd c70c 8f3d d850 6e3d
00000070: c573 4ebd 9d6a ec3c 43d6 533d 3dca 8ebd
00000080: 2aa3 38bd 822d 5dbd 1346 5e3d 9569 783d
00000090: db12 9a3d 3da1 b7bd 75d7 573d 6d9c 0bbd
000000a0: 362e 103d af59 863d 1e5b a9bd 45eb 8bbd
000000b0: a0d2 7bbd c8e7 bdbd d5ca 8abd 46f3 493d
000000c0: 8309 913d 5b52 94bd 6eb3 90bc 6f20 7e3d
000000d0: 6beb 4b3b f801 e13c bf6d 70bd 41d3 453d
000000e0: 6ee6 66bd 8836 753d c57b e83c 6533 e43c
000000f0: b941 953d 330b bd3b 6067 11bd 2236 693d

hiden_layers.2.weight f4 [64, 64]
-0.15143332 0.44770575 0.23871744 -0.07140087 -0.046382364 -0.16907603 -0.17127222 -0.51528245
-0.52157384 -0.24965702 0.10420653 0.0091894 -0.100261815 0.11138006 -0.06453196 0.30873266
0.22222473 -0.0011419953 -0.023480097 -0.118306145 0.18321297 0.21124598 -0.100959085 0.18504557
0.024403447 -0.17633383 -0.25677562 -0.056920674 0.046359465 -0.0927994 0.17925648 0.014427473
-0.17690115 -0.068546005 -0.19302936 -0.05175416 0.2227491 -0.006754813 -0.015095507 0.044854265
-0.16445479 0.07794412 -0.11379961 -0.010897802 0.10044335 -0.16154103 0.049843818 0.11186329
0.055066578 -0.24203435 -0.10536444 -0.25673378 0.007177189 0.19478157 0.09697897 0.16199297
-0.1827853 0.14467955 0.25951496 -0.12132451 -0.04631785 -0.010562079 0.10877933 0.23795506
0.0872725 -0.020949593 0.12067195 0.19410379 0.19903544 0.14167424 0.22944686 0.27492782
0.101804495 0.14452367 0.19095594 0.0966023 -0.06374626 -0.10594018 -0.06543036 0.1452653
-0.10337538 -0.042570613 -0.20822862 -0.13036996 0.07807195 -0.1231417 -0.0062494804 0.05878964
-0.03996974 0.08853387 0.23634686 0.08260654 -0.12718923 0.06778146 -0.024193697 -0.04627543
0.01858821 0.23261768 -0.11490258 0.15528084 0.1488278 0.07034729 0.019975368 -0.33183673
-0.14710368 -0.1268535 0.011720089 0.023659756 0.05450829 -0.10302157 -0.05703556 0.22973908
-0.17851257 0.25824133 -0.053957425 -0.10676294 -0.12127597 0.17202044 -0.10568844 -0.19846188
0.19475998 -0.013844027 -0.089953676 0.5202137 0.0422347 0.2800907 0.13143103 -0.2129842
0.22265074 -0.1822701 -0.13599679 -0.18519914 0.14905128 0.05276028 -0.15682171 0.034102853
-0.1264828 0.22750495 0.03083007 0.19628625 0.0033839196 0.17409605 -0.22186492 0.15944256
0.08477269 -0.08322309 0.07629988 -0.21784073 -0.17301728 0.08397885 0.22975698 -0.14900292
-0.10489803 -0.087477975 -0.07889773 -0.09651499 0.13536222 0.04247287 0.121402346 0.22801943
-0.11738161 -0.1335137 -0.011418639 0.15291221 0.16814718 -0.022249442 -0.20098294 0.20000276
0.18615331 -0.0022471268 -0.10312508 -0.09789998 0.11427811 -0.006648413 -0.10416798 0.049839236
0.2439568 0.069178484 -0.11964246 0.22557163 -0.14418575 0.17693833 0.09585073 -0.110859774
-0.19465141 0.17846908 -0.23625414 -0.4186947 0.11284619 0.09069562 0.11391325 0.17079791
-0.06284468 -0.1507076 -0.0064208657 0.21943069 -0.19386116 -0.17055885 0.015183079 -0.258975
0.032710966 0.11233955 0.12062973 -0.17761412 0.1233241 0.10808035 -0.12635286 0.07605257
0.10668475 -0.19747248 -0.21497022 -0.046596088 -0.121068664 0.00074016646 0.14129919 -0.03391482
-0.0846685 -0.053705458 0.15011059 0.09244615 -0.036067583 0.22926031 0.16353023 -0.3065759
-0.25684708 -0.13603008 0.22630897 0.21448703 0.084943235 0.0445682 0.009656819 -0.19552551
0.2208197 -0.21982527 -0.079841994 -0.06675338 0.0288963 -0.14448653 -0.08017288 0.008900116
-0.08115484 0.00059392053 0.2349399 -0.16375585 -0.08470347 -0.11043855 0.12845282 -0.041530933
0.0707787 -0.03887841 -0.072194636 0.21201901 0.23243113 -0.13136627 0.21493603 -0.005113369
00000000: 5611 1bbe b039 e53e 5872 743e 9f3a 92bd
00000010: 6ffb 3dbd 4422 2dbe fc61 2fbe 8de9 03bf
00000020: dd85 05bf 17a6 7fbe 3c6a d53d 238f 163c
00000030: 1156 cdbd 3b1b e43d 5529 84bd 3512 9e3e
00000040: e18e 633e 01af 95ba 5559 c0bc 7e4a f2bd
00000050: 2e9c 3b3e de50 583e a3c3 cebd 967c 3d3e
00000060: bde9 c73c db90 34be 1878 83be a725 69bd
00000070: 6ce3 3d3d 9d0d bebd 038f 373e 3561 6c3c
00000080: 9325 35be d961 8cbd 7da9 45be 2cfc 53bd
00000090: 5718 643e 7a57 ddbb 2553 77bc 1bb9 373d
000000a0: d666 28be 2ba1 9f3d c50f e9bd b28c 32bc
000000b0: 3eb5 cd3d 036b 25be 0829 4c3d 9518 e53d
000000c0: 7e8d 613d dad7 77be 50c9 d7bd 9c72 83be
000000d0: a02e eb3b d274 473e e99c c63d 7ce1 253e
000000e0: 122c 3bbe e026 143e 25df 843e fc78 f8bd
000000f0: c9b7 3dbd 920c 2dbc b3c7 de3d 7eaa 733e
00000100: edbb b23d 7b9e abbc db22 f73d 25c3 463e
00000110: f2cf 4b3e 0d13 113e 1ef4 6a3e 57c3 8c3e
00000120: e07e d03d 03fe 133e f489 433e 6dd7 c53d
00000130: 668d 82bd 2af7 d8bd 5a00 86bd 6dc0 143e
00000140: 79b6 d3bd 865e 2ebd e239 55be b47f 05be
00000150: 30e4 9f3d b731 fcbd 71c8 ccbb 68cd 703d
00000160: 4fb7 23bd 3f51 b53d e904 723e 9e2d a93d
00000170: e53d 02be 02d1 8a3d dc31 c6bc 4e8b 3dbd
00000180: 4d46 983c 5433 6e3e 0b52 ebbd f101 1f3e
00000190: 5166 183e 3d12 903d 62a3 a33c 81e6 a9be
000001a0: 59a2 16be e2e5 01be 9e05 403c 1bd2 c13c
000001b0: 1644 5f3d f9fc d2bd 1f9e 69bd b940 6b3e
000001c0: 00cc 36be 3538 843e 7602 5dbd 87a6 dabd
000001d0: 895f f8bd 2026 303e 2e73 d8bd 9739 4bbe
000001e0: 296f 473e 0fd2 62bc a239 b8bd ba2c 053f
000001f0: 4bfe 2c3d 0c68 8f3e db95 063e 8818 5abe
00000200: 8efe 633e 03a5 3abe be42 0bbe d8a4 3dbe
00000210: e6a0 183e 2a1b 583d df95 20be 6faf 0b3d
00000220: b584 01be 0ff7 683e 588f fc3c 43ff 483e
00000230: c0c4 5d3b 3c46 323e 8f30 63be e944 233e
00000240: 4e9d ad3d de70 aabd 1d43 9c3d a411 5fbe
00000250: 712b 31be 1afd ab3d 6a45 6b3e 3994 18be
00000260: c7d4 d6bd a727 b3bd 2295 a1bd a7a9 c5bd
00000270: 659c 0a3e 08f8 2d3d cba1 f83d ed7d 693e
00000280: c565 f0bd d1b7 08be 3e15 3bbc 0595 1c3e
00000290: c62e 2c3e 7644 b6bc 79ce 4dbe 86cd 4c3e
000002a0: f99e 3e3e 8844 13bb 3e33 d3bd c97f c8bd
000002b0: a40a ea3d eeda d9bb 0656 d5bd 3a24 4c3d
000002c0: d0cf 793e 73ad 8d3d 1b07 f5bd 40fc 663e
000002d0: 6ea5 13be 522f 353e 634d c43d 730a e3bd
000002e0: b352 47be 99c0 363e 9bec 71be 275f d6be
000002f0: e71b e73d a0be b93d 5a4b e93d a6e5 2e3e
00000300: b6b4 80bd 1853 1abe 2066 d2bb 70b2 603e
00000310: 8a83 46be fba6 2ebe 73c2 783c 5f98 84be
00000320: effb 053d 4712 e63d b80c f73d 7ae0 35be
00000330: 5991 fc3d 3b59 dd3d a562 01be 73c1 9b3d
00000340: 897d da3d 3a36 4abe 2721 5cbe 8adb 3ebd
00000350: d9f2 f7bd bb07 423a bcb0 103e 44ea 0abd
00000360: ae66 adbd 41fa 5bbd 97b6 193e 6854 bd3d
00000370: 9abb 13bd 37c3 6a3e 7874 273e 84f7 9cbe
00000380: 7681 83be 784b 0bbe 8abd 673e 7da2 5b3e
00000390: b8f6 ad3d 258d 363d a237 1e3c d737 48be
000003a0: 8f1e 623e e019 61be 3384 a3bd ffb5 88bd
000003b0: efb7 ec3c 47f4 13be ae31 a4bd cbd1 113c
000003c0: 8234 a6bd 55b1 1b3a 1694 703e 9daf 27be
000003d0: 0379 adbd 9b2d e2bd 2389 033e 571c 2abd
000003e0: 6cf4 903d f83e 1fbd c8da 93bd 831b 593e
000003f0: 6d02 6e3e e184 06be 3118 5c3e 0c8e a7bb

hiden_layers.2.bias f4 [64]
0.086981796 -0.054281306 0.022106728 0.047405366 -0.051121064 0.07623696 -0.013830169 0.059362527
-0.048663653 -0.0644965 0.0369161 0.040697154 0.040451057 0.061626166 -0.07396237 -0.043232396
-0.0061636274 -0.058158726 -0.07148779 0.05839712 -0.083517976 -0.041727856 0.037028786 -0.07051338
-0.03712198 -0.0022066955 -0.038872182 0.05799366 -0.08530348 0.071019664 0.059068233 -0.07044455
-0.059632566 -0.05676141 0.009230085 -0.02998209 0.056420088 0.1121846 -0.00056200766 0.049923673
0.03132698 0.05482298 0.050746165 0.04881399 0.059862185 -0.055275906 -0.029395865 -0.049365975
0.011730373 0.0069626835 0.1474596 0.030200308 -0.055137422 -0.047695067 -0.08132105 -0.07691964
-0.07709154 -0.035959683 0.041258626 0.010453446 0.06087978 0.035111826 -0.033418756 -0.045021206
00000000: 8323 b23d 1356 5ebd 2b19 b53c 212c 423d
00000010: 5264 51bd 2022 9c3d ef97 62bc 1f26 733d
00000020: 8a53 47bd be16 84bd 5635 173d 0fb2 263d
00000030: 02b0 253d b86b 7c3d 9579 97bd 7414 31bd
00000040: 41f8 c9bb d837 6ebd 3168 92bd d231 6f3d
00000050: 790b abbd d4ea 2abd 7fab 173d 5269 90bd
00000060: 380d 18bd 359e 10bb 7038 1fbd c38a 6d3d
00000070: 97b3 aebd c272 913d 88f1 713d 3b45 90bd
00000080: 4741 74bd a77e 68bd c839 173c 009d f5bc
00000090: c018 673d 0ac1 e53d b253 13ba c47c 4c3d
000000a0: b850 003d 108e 603d 36db 4f3d 2ef1 473d
000000b0: 0d32 753d fd68 62bd 99cf f0bc fa33 4abd
000000c0: c030 403c 3927 e43b a6ff 163e a366 f73c
000000d0: c7d7 61bd e75b 43bd a78b a6bd 0b88 9dbd
000000e0: 2be2 9dbd 764a 13bd cefe 283d ee44 2b3c
000000f0: 145d 793d 6bd1 0f3d 1be2 08bd 2868 38bd

hiden_layers.3.weight f4 [64, 64]
-0.1998824 0.35511428 0.20475751 7.985081e-05 0.06411254 0.04714736 -0.08070634 -0.23003507
0.011520466 0.11133918 0.20772904 -0.02035453 0.21339543 -0.18501365 0.27647036 -0.06559085
-0.18480186 -0.108648695 0.15782893 -0.15353417 0.45656875 -0.29994336 0.17015658 0.2176139
0.16394079 0.061702896 -0.030148977 -0.047537472 0.24249113 0.209582 0.06849608 0.3123707
0.06926024 0.085676275 -0.18895462 0.17750366 0.038203742 0.08024423 0.052796997 -0.088311724
0.01999734 0.11916701 -0.240798 -0.13792403 0.115787886 0.25968766 0.019762034 -0.09141537
0.15841684 -0.22671312 -0.12541969 -0.16880733 0.16432509 0.19384558 0.09811044 -0.11771495
0.08531033 0.03589973 -0.20883057 0.05798845 -0.05173202 0.16291918 -0.0997021 0.19380331
-0.15169741 -0.022130521 0.013755412 0.10289806 -0.036191165 0.10898601 -0.21106192 0.031793956
-0.12924518 -0.1702964 0.22176553 0.14919406 0.20937808 -0.0065305177 -0.14809495 0.18514542
0.082644835 0.005798493 0.22490957 0.20366736 0.22237496 -0.15359202 -0.035047937 0.18823919
-0.062184718 0.100903556 0.22496821 -0.2569701 0.1548885 -0.08904868 -0.2987164 0.14647347
0.10679636 -0.13874759 0.1711905 0.11606194 -0.08309692 -0.20688444 -0.12995672 0.12737924
0.09943143 0.038840756 -0.08223142 0.2681773 0.05765309 0.04802848 0.109496705 0.025814544
0.1694305 -0.15397689 -0.1868786 0.09928862 0.21750401 0.07950517 -0.098144375 0.15063576
0.24922836 -0.15803494 0.14257625 0.007588078 0.09244652 0.03428157 -0.000873248 0.16722582
0.17282017 0.08508897 -0.14015764 -0.102712356 -0.29932955 0.20666178 0.18119788 -0.2001431
0.15401764 -0.13409396 -0.066218734 0.06719495 -0.058902487 0.005287997 0.21439435 -0.0072616464
0.040417336 0.14881149 -0.21802309 -0.1699789 -0.1261995 0.039565057 -0.09872199 0.038449362
-0.0025804248 0.058327477 -0.23253784 0.07001952 -0.011768286 -0.1462838 -0.16845696 -0.12480702
-0.26036 -0.0938408 0.12786335 0.0022400718 -0.0491468 -0.11509637 0.060624838 0.09712293
0.31136382 -0.19332664 -0.12749085 0.03301312 0.008215971 -0.3377093 0.14452274 -0.15609762
-0.045145765 -0.19279411 0.24154563 0.15845636 0.011527389 -0.03908632 -0.16444004 -0.21573563
-0.13227215 -0.12171851 0.17218345 0.14286236 0.15897845 -0.041425183 0.009271388 0.106201306
0.06560687 -0.12105063 0.09158327 -0.016742285 -0.13766657 -0.12262252 0.18341966 -0.2240093
0.12640236 -0.1623739 -0.22381982 -0.19059715 -0.20671572 -0.19966806 -0.11849948 0.038835846
-0.20583872 0.11507209 0.051136136 -0.07542228 0.12879927 -0.03135533 -0.044858795 0.018051699
0.17172131 0.073983334 0.100732066 0.18296996 0.20319955 -0.027123317 0.091060415 0.058823973
0.23504408 0.28746688 0.15030344 -0.18178788 -0.27723858 -0.032043118 -0.1339706 -0.11439409
0.0068190834 -0.4044227 -0.30761367 -0.12775892 -0.03357132 -0.13110283 0.23833857 0.017198104
-0.17242448 0.07752313 -0.062930696 -0.2786756 0.015707245 0.23196422 -0.044511825 0.3261342
0.2198833 0.07096702 0.16027781 -0.12210635 -0.101674095 -0.21090627 -0.14123581 -0.090022616
00000000: f9ad 4cbe 8ad1 b53e f4ab 513e 9475 a738
00000010: 6f4d 833d 971d 413d 5e49 a5bd 508e 6bbe
00000020: 56c0 3c3c cc05 e43d ecb6 543e 8bbe a6bc
00000030: 5584 5a3e 3874 3dbe 868d 8d3e 7f54 86bd
00000040: b33c 3dbe 3583 debd e89d 213e 1038 1dbe
00000050: 61c3 e93e 2d92 99be 873d 2e3e 2ed6 5e3e
00000060: 18e0 273e 2dbc 7c3d fdfa f6bc a7b6 42bd
00000070: 984f 783e aa9c 563e ac47 8c3d 0def 9f3e
00000080: 50d8 8d3d 0b77 af3d 527d 41be 85c3 353e
00000090: 877b 1c3d 1657 a43d aa41 583d c7dc b4bd
000000a0: 76d1 a33c d50d f43d c093 76be f53b 0dbe
000000b0: 3322 ed3d c8f5 843e fde3 a13c fb37 bbbd
000000c0: 0638 223e 7c27 68be 056e 00be d4db 2cbe
000000d0: d644 283e 757f 463e 20ee c83d 8914 f1bd
000000e0: 2fb7 ae3d 980b 133d aed7 55be 4c85 6d3d
000000f0: f4e4 53bd 49d4 263e 9d30 ccbd 6074 463e
00000100: 9156 1bbe 114b b5bc 615e 613c 38bc d23d
00000110: 303d 14bd 0f34 df3d 9e20 58be 613a 023d
00000120: d958 04be 2e62 2ebe 8116 633e 54c6 183e
00000130: 3567 563e f4fd d5bb 34a6 17be c396 3d3e
00000140: b241 a93d 4901 be3b b24e 663e 2d8e 503e
00000150: 43b6 633e 3a47 1dbe 6d8e 0fbd c6c1 403e
00000160: 67b5 7ebd 86a6 ce3d 115e 663e 9691 83be
00000170: 179b 1e3e 285f b6bd 5bf1 98be 24fd 153e
00000180: 0db8 da3d d913 0ebe 904c 2f3e e2b1 ed3d
00000190: b82e aabd 84d9 53be 6013 05be b46f 023e
000001a0: b5a2 cb3d 7c17 1f3d f268 a8bd 894e 893e
000001b0: a625 6c3d 83b9 443d cf3f e03d 0679 d33c
000001c0: 307f 2d3e 1eac 1dbe 1b5d 3fbe d557 cb3d
000001d0: 5fb9 5e3e 9bd3 a23d ebff c8bd 4340 1a3e
000001e0: b835 7f3e e9d3 21be 82ff 113e 69a5 f83b
000001f0: 9a54 bd3d d56a 0c3d aeea 64ba 3f3d 2b3e
00000200: c5f7 303e 2043 ae3d 7c85 0fbe db5a d2bd
00000210: b941 99be 259f 533e f08b 393e 50f2 4cbe
00000220: cdb6 1d3e ed4f 09be b09d 87bd 829d 893d
00000230: bc43 71bd ef46 ad3b 318a 5b3e 1bf3 edbb
00000240: a68c 253d 0a62 183e 7241 5fbe f30e 2ebe
00000250: 713a 01be f80e 223d c12e cabd 147d 1d3d
00000260: 581c 29bb cbe8 6e3d 661e 6ebe 6566 8f3d
00000270: c5cf 40bc 6ccb 15be fb7f 2cbe d39a ffbd
00000280: e84d 85be 9b2f c0bd 9cee 023e 2bce 123b
00000290: 284e 49bd a5b7 ebbd c051 783d 63e8 c63d
000002a0: 146b 9f3e 6bf7 45be f68c 02be c438 073d
000002b0: 489c 063c 3ce8 acbe c5fd 133e 0ed8 1fbe
000002c0: c4ea 38bd d26b 45be bd57 773e 6242 223e
000002d0: 60dd 3c3c fa18 20bd f862 28be cde9 5cbe
000002e0: 5a72 07be 8e47 f9bd dc50 303e 834a 123e
000002f0: 3fcb 223e 74ad 29bd 05e7 173c 1280 d93d
00000300: e55c 863d 65e9 f7bd 0290 bb3d 1e27 89bc
00000310: 77f8 0cbe 8421 fbbd 5dd2 3b3e b262 65be
00000320: 9f6f 013e 5845 26be 0631 65be e62b 43be
00000330: 49ad 53be c975 4cbe dbaf f2bd 5612 1f3d
00000340: 63c7 52be eaaa eb3d 2074 513d ff76 9abd
00000350: f5e3 033e 726e 00bd dbbd 37bd 28e1 933c
00000360: b6d7 2f3e 9384 973d 9d4c ce3d 7a5c 3b3e
00000370: 8b13 503e b831 debc e27d ba3d 68f1 703d
00000380: 65af 703e dc2e 933e 25e9 193e 9a26 3abe
00000390: 37f2 8dbe a53f 03bd 972f 09be 7347 eabd
000003a0: 9e72 df3b 7e10 cfbe 8a7f 9dbe 3cd3 02be
000003b0: 1582 09bd d23f 06be 070f 743e 0ae3 8c3c
000003c0: 0b90 30be 72c4 9e3d cfe1 80bd 91ae 8ebe
000003d0: 7bac 803c 0788 6d3e 0852 36bd 10fb a63e
000003e0: 1629 613e 2857 913d de1f 243e e512 fabd
000003f0: 823a d0bd d0f7 57be 1fa0 10be c75d b8bd

hiden_layers.3.bias f4 [64]
-0.032746788 0.004876455 0.051400922 -0.030818662 -0.034117676 -0.053188194 0.09747183 0.019134324
-0.02096137 0.048082754 0.11152066 -0.044165798 0.062361687 -0.030735482 -0.03000311 -0.10538566
0.030315928 0.040791515 -0.050148368 0.015394242 0.122962914 -0.07020346 -0.008404261 0.022977753
-0.10343334 0.02417461 -0.057859037 0.064471915 0.015529549 -0.04748142 0.03506633 0.03107137
-0.056698628 -0.019899344 -0.022343878 -0.025771568 0.06505126 0.08588527 -0.018989997 -0.006557564
-0.020434825 0.030645313 0.06281377 -0.017979367 -0.03611272 -0.05317535 0.06074076 0.025755491
0.0052147442 -0.049474526 -0.103736974 -0.048682492 -0.03566848 -0.025275756 0.015619762 -0.087973684
0.016899219 -0.024552098 -0.06255812 0.04933232 -0.054976616 0.0224026 0.024534458 -0.032928444
00000000: 7f21 06bd abca 9f3b c689 523d 6b77 fcbc
00000010: fabe 0bbd dddb 59bd 509f c73d 96bf 9c3c
00000020: 2eb7 abbc 6cf2 443d f264 e43d 32e7 34bd
00000030: f86e 7f3d fac8 fbbc 15c9 f5bc 70d4 d7bd
00000040: 1c59 f83c 0115 273d 6068 4dbd 2138 7c3c
00000050: fbd3 fb3d d5c6 8fbd 07b2 09bc d73b bc3c
00000060: dcd4 d3bd d509 c63c 99fd 6cbd da09 843d
00000070: a66f 7e3c e17b 42bd b6a1 0f3d 6389 fe3c
00000080: d23c 68bd f303 a3bc 820a b7bc e51e d3bc
00000090: 9839 853d 9ee4 af3d e990 9bbc d5e0 d6bb
000000a0: ef66 a7bc e10b fb3c 81a4 803d 7749 93bc
000000b0: eeea 13bd 65ce 59bd 4ecb 783d 2efd d23c
000000c0: 72e0 aa3b cda5 4abd 0d74 d4bd 4b67 47bd
000000d0: 1d19 12bd 1a0f cfbc 08ea 7f3c 8c2b b4bd
000000e0: 3b70 8a3c 7b21 c9bc 791e 80bd b010 4a3d
000000f0: 292f 61bd a885 b73c 7dfc c83c fadf 06bd

hiden_layers.4.weight f4 [64, 64]
-0.15388748 0.035810366 0.049331773 -0.18926272 -0.06892471 -0.034086745 -0.38663986 0.25236368
-0.02605766 0.0032157858 -0.028694982 0.0069605606 0.0886919 -0.16347776 -0.15462355 0.0421038
-0.008014281 -0.06426241 0.13008721 0.29279026 -0.20212246 0.07069833 -0.30426785 -0.040052336
0.017361151 -0.07675455 0.10527809 0.17744173 -0.049426 -0.14473633 -0.14934537 0.014773534
0.1339072 -0.07385609 0.1550905 -0.13347241 0.209139 -0.022620082 -0.10504378 -0.08877668
-0.14819749 0.048647832 0.21583249 0.06384504 -0.02150201 0.23237059 0.40886572 -0.17716035
-0.18859792 -0.21430434 0.069519 -0.06629902 -0.14694397 0.18655923 0.17511392 -0.27666825
0.096503556 -0.0036946503 -0.2185214 -0.12658495 0.1571488 -0.18405047 0.023261553 -0.1473714
0.0051218043 -0.27392656 -0.106222264 0.13757706 0.12567046 0.051192265 -0.24568637 -0.08973281
-0.043915447 -0.07314513 -0.12702845 0.108809374 0.012910161 0.13410115 -0.12802674 0.111765355
-0.05865803 -0.098752916 0.20994374 0.0018990007 0.23904982 0.11205516 0.3064517 0.08106442
-0.09883478 -0.27470052 -0.14314291 0.09816396 -0.038176734 0.05107283 -0.31429502 -0.07203109
0.26099774 0.073146254 0.09138942 -0.16431506 -0.06917811 -0.15245646 0.13669388 0.13839765
0.21408099 -0.34146467 0.11309652 0.31134036 -0.115834735 0.31783637 -0.026971018 -0.031316712
-0.07105455 0.2707005 -0.12907381 -0.047908526 0.10538001 -0.09397553 0.23300126 0.023486188
0.03686253 -0.18591277 0.16706683 -0.034177408 0.1790338 -0.19242361 0.08977973 0.16712244
-0.052251324 -0.1083999 -0.23832014 -0.22137952 -0.07910391 -0.1082633 -0.06072617 0.11000247
0.013862064 -0.28245157 0.068002984 -0.072197355 -0.04699524 0.3568377 0.12376537 -0.045092147
-0.045975875 0.12528513 -0.047278654 0.14514804 -0.11720925 -0.22168882 -0.1109899 -0.115149796
-0.14000884 -0.2953516 -0.027766356 0.18359894 -0.1932992 0.18465877 -0.1970672 0.20672885
-0.09202548 -0.046311244 -0.12006995 0.16068335 -0.04743518 0.057179958 -0.15342122 0.18068351
0.18228467 0.057158034 -0.33608547 -0.021917596 0.07457848 0.034424517 0.09915392 0.116084956
0.13278128 0.056587774 0.31079772 -0.17104514 -0.09949303 0.25833368 -0.0097462665 0.0798333
-0.047844555 0.32675153 0.20250772 0.14743862 0.06258419 0.027849378 -0.0026305984 0.22334662
0.056845576 -0.12065114 -0.04372456 0.25747773 0.18192478 0.022959387 0.06983922 -0.15133555
0.13591908 -0.08009702 0.14771068 -0.09599823 -0.11078127 -0.13252598 0.36200544 0.21840203
0.10194786 -0.00017683292 -0.20123656 -0.2754221 -0.0037120797 0.07889391 0.265143 0.1312599
0.108014695 -0.34344307 0.114769556 -0.104974724 -0.100998774 0.05054796 -0.03322973 -0.20355362
-0.06423085 0.057839915 -0.11578567 -0.15966694 0.20204397 -0.17986733 -0.013046204 0.10667404
-0.052624114 0.035872716 -0.23030096 0.33124816 0.16143802 -0.1229945 -0.106832154 -0.18637887
-0.112509005 0.17940998 -0.102865346 0.20443237 -0.05992405 0.100507125 0.15944147 0.15773043
-0.275745 -0.044918705 0.17553397 0.11764777 0.1496969 -0.056186236 0.15611887 0.21684362
00000000: ae94 1dbe e4ad 123d 1d10 4a3d 16ce 41be
00000010: 6628 8dbd 8b9e 0bbd a9f5 c5be d035 813e
00000020: e076 d5bc efbf 523b bd11 ebbc 6a15 e43b
00000030: 19a4 b53d b766 27be a355 1ebe 0975 2c3d
00000040: 554e 03bc 039c 83bd 9535 053e 9be8 953e
00000050: 31f9 4ebe 49ca 903d ffc8 9bbe eb0d 24bd
00000060: f938 8e3c 7d31 9dbd 0a9c d73d 49b3 353e
00000070: eb72 4abd c335 14be feed 18be b10c 723c
00000080: f81e 093e dd41 97bd 0bd0 1e3e feac 08be
00000090: 8928 563e c04d b9bc 3121 d7bd 8cd0 b5bd
000000a0: 15c1 17be f342 473d 3103 5d3e 30c1 823d
000000b0: fc24 b0bc 8ef2 6d3e d956 d13e 8669 35be
000000c0: d01f 41be 9972 5bbe fa5f 8e3d c8c7 87bd
000000d0: 7b78 16be 6209 3f3e 1051 333e 76a7 8dbe
000000e0: a8a3 c53d f221 72bb 13c4 5fbe 7c9f 01be
000000f0: 9deb 203e ba77 3cbe 038f be3c 87e8 16be
00000100: cfd4 a73b 1a40 8cbe 0f8b d9bd 00e1 0c3e
00000110: c2af 003e fbae 513d 3595 7bbe d6c5 b7bd
00000120: afe0 33bd 1dcd 95bd bf13 02be 73d7 de3d
00000130: 2485 533c d051 093e 7119 03be 3ce5 e43d
00000140: 6743 70bd f83e cabd 7efb 563e e4e7 f83a
00000150: 7ac9 743e 2d7d e53d 3de7 9c3e 1a05 a63d
00000160: e469 cabd 8ca5 8cbe 0e94 12be 300a c93d
00000170: 355f 1cbd be31 513d 47eb a0be 0985 93bd
00000180: 7fa1 853e b4cd 953d 602a bb3d 3542 28be
00000190: 41ad 8dbd 8c1d 1cbe 7bf9 0b3e 1db8 0d3e
000001a0: 0c38 5b3e 75d4 aebe 269f e73d 0168 9f3e
000001b0: c33a edbd 73bb a23e 53f2 dcbc f445 00bd
000001c0: 0c85 91bd 4299 8a3e ed2b 04be bb3b 44bd
000001d0: 7ad1 d73d 3e76 c0bd e297 6e3e 1b66 c03c
000001e0: 2afd 163d eb5f 3ebe 9113 2b3e 9cfd 0bbd
000001f0: a354 373e b20a 45be 6fde b73d 2522 2b3e
00000200: 7c05 56bd c400 debd 320a 74be 50b1 62be
00000210: 3b01 a2bd 26b9 ddbd 01bc 78bd fa48 e13d
00000220: b61d 633c 7e9d 90be 2645 8b3d 35dc 93bd
00000230: 157e 40bd 6eb3 b63e b378 fd3d 8bb2 38bd
00000240: 3351 3cbd bf4a 003e 43a7 41bd b0a1 143e
00000250: 670b f0bd 6502 63be ac4e e3bd a8d3 ebbd
00000260: 7a5e 0fbe 5338 97be 4576 e3bc 5c01 3c3e
00000270: 3af0 45be 3017 3d3e fccb 49be bab0 533e
00000280: db77 bcbd dcb0 3dbd 3ce7 f5bd 2d8a 243e
00000290: 644b 42bd 8835 6a3d 741a 1dbe 1905 393e
000002a0: d5a8 3a3e 8b1e 6a3d 6513 acbe 888c b3bc
000002b0: 9abc 983d b900 0d3d 3611 cb3d f3bd ed3d
000002c0: d1f7 073e 95c8 673d e120 9f3e 7526 2fbe
000002d0: 00c3 cbbd 5044 843e ceae 1fbc a47f a33d
000002e0: a7f8 43bd fa4b a73e 2f5e 4f3e 26fa 163e
000002f0: 242c 803d 6124 e43c 1e66 2cbb fab4 643e
00000300: e8d6 683d f217 f7bd 8618 33bd 1fd4 833e
00000310: 7d4a 3a3e 5315 bc3c dd07 8f3d b5f7 1abe
00000320: 5f2e 0b3e e809 a4bd 7841 173e b89a c4bd
00000330: 4ae1 e2bd e4b4 07be c758 b93e c8a4 5f3e
00000340: 0aca d03d 3a6c 39b9 f510 4ebe 2004 8dbe
00000350: 5d46 73bb 2193 a13d d3c0 873e ff68 063e
00000360: cf36 dd3d c5d7 afbe 4d0c eb3d fdfc d6bd
00000370: 72d8 cebd 610b 4f3d e61b 08bd 5c70 50be
00000380: 778b 83bd 8ce9 6c3d 0a21 edbd bb7f 23be
00000390: 9de4 4e3e 242f 38be bfbf 55bc eb77 da3d
000003a0: 628c 57bd 45ef 123d 04d4 6bbe 5c99 a93e
000003b0: 0250 253e 8ae4 fbbd d1ca dabd 1ada 3ebe
000003c0: 1f6b e6bd 40b7 373e 11ab d2bd b856 513e
000003d0: ec72 75bd aed6 cd3d a044 233e 1684 213e
000003e0: 732e 8dbe adfc 37bd 2dbf 333e 50f1 f03d
000003f0: 254a 193e 8a23 66bd a0dd 1f3e 410c 5e3e

hiden_layers.4.bias f4 [64]
-0.05120534 0.04870868 -0.009700277 0.0034365067 0.0034127487 -0.0131828915 0.019983398 -0.00654938
0.044625502 0.12730786 -0.03776747 0.06672978 0.049073413 0.014242491 -0.001375709 0.0047733057
0.038510084 0.029913755 -0.015699308 -0.035059728 0.087202966 0.05188733 -0.08346983 -0.022631058
-0.006182142 -0.010980112 -0.12525603 -0.023291897 0.002228431 0.013578465 0.06793121 0.0131114125
0.059643224 0.018893633 -0.00265477 -0.0518378 0.0023675924 0.01728192 -0.0034812249 -0.10341114
-0.04744813 0.2035267 0.008042019 0.020443013 0.009974354 0.34272498 -0.11664553 -0.00051834754
0.033496264 -0.09984069 0.026163748 0.029850904 0.0037768597 0.029095748 0.10098511 0.050088465
-0.15098207 -0.055889223 -0.0015554923 0.0018376627 -0.031956214 -0.007842398 0.112331964 -0.030172171
00000000: b1bc 51bd c182 473d e9ed 1ebc 0437 613b
00000010: 6ca8 5f3b 0efd 57bc 39b4 a33c 2e9c d6bb
00000020: 3bc9 363d fe5c 023e 10b2 1abd 9fa9 883d
00000030: 3401 493d 5659 693c 2251 b4ba 6469 9c3b
00000040: c0bc 1d3d b10d f53c d69b 80bc ca9a 0fbd
00000050: 7897 b23d cf87 543d 3bf2 aabd c564 b9bc
00000060: 9193 cabb ede5 33bc 1e43 00be a6ce bebc
00000070: de0a 123b 3678 5e3c 851f 8b3d 40d1 563c
00000080: 744c 743d d2c6 9a3c a6fb 2dbb df53 54bd
00000090: 9c29 1b3b d092 8d3c 4325 64bb 38c9 d3bd
000000a0: f858 42bd 4e69 503e acc2 033c 1b78 a73c
000000b0: 796b 233c a679 af3e dae3 eebd b7e1 07ba
000000c0: 6133 093d 4779 ccbd 5b55 d63c e289 f43c
000000d0: 3185 773b 355a ee3c 48d1 ce3d 9029 4d3d
000000e0: 0b9b 1abe 19ec 64bd a9e1 cbba badd f03a
000000f0: 85e4 02bd 677d 00bc 4d0e e63d a12b f7bc
